models/009_Lazer_Focus/009_Lazer_Focus_best.pth (torch, 46978 bytes, 11 tensors)

actor.0.weight f4 [64, 15]
000000 2d c3 12 be 11 17 4e 3e cf 89 e7 be 4b 8d fe bd
       -0.14332266 0.20125987 -0.45222327 -0.12429293
000010 de 21 16 bd 2a e7 bf bd 0f 4e 9a be 44 67 d6 bb
       -0.036653392 -0.09370263 -0.3013768 -0.006543072
000020 14 9a 34 be 6c cf b3 bd e6 12 42 3e 50 59 ac 3c
       -0.17636901 -0.08779797 0.18952522 0.021038681
000030 b6 c9 74 3e d2 a3 6d be cc dd 5a bd ea 22 62 be
       0.23905072 -0.23207024 -0.05343418 -0.22083631
000040 69 fe 18 3e a1 96 53 bd 83 8f b7 bd a0 6b 6a 3e
       0.149408 -0.051657323 -0.089629196 0.22892618
000050 34 4b 04 be 5a d3 9f bd b2 a9 4a 3e 44 4d 46 be
       -0.12919313 -0.07803984 0.19791296 -0.19365412
000060 12 01 52 3e b8 18 0d 3d 1a 6d 20 3e 22 59 2d be
       0.20508221 0.0344474 0.15666619 -0.16928533
000070 2e 19 10 be ba de 7a 3e cd 47 5c 3c 2c f0 df 3c
       -0.14072105 0.24499026 0.013444853 0.027336203
000080 3d f5 fb bd 58 1b 8d 3e 5c d2 f2 bd 7f 5c d4 3e
       -0.12302635 0.27559924 -0.11856529 0.4147682
000090 60 1a 43 be 31 b5 b2 3e 00 82 8a 3a fa 20 70 3e
       -0.1905303 0.34903863 0.0010567307 0.2345008
0000a0 e0 c1 65 3e 90 63 96 3c 02 88 41 3e 88 98 48 3e
       0.22437239 0.018358022 0.18899539 0.19589436
0000b0 fa 61 a3 bd df 2a 2e 3c 38 17 5d be c8 90 ce bc
       -0.07977672 0.010630338 -0.21590889 -0.025215521
0000c0 1d a7 a6 3d 49 23 f9 3d d3 ad ce 3d 1b 71 36 3c
       0.08137343 0.12164933 0.10091748 0.011135365
0000d0 22 fe 6d 3d 39 fc 6b be c0 07 71 3e 4e ae 8c bd
       0.058103688 -0.23045434 0.23538113 -0.068691835
0000e0 46 6c 19 3e f0 ee 53 be 48 95 43 3d 1c 2a 2e be
       0.1498271 -0.20696616 0.047749788 -0.17008251
0000f0 a1 63 94 3d e1 db 5e 3e 69 2e 72 3c 67 a3 62 be
       0.07245565 0.21763565 0.014781573 -0.22132646
000100 68 65 1e bd 3e da 1e 3e f6 65 c9 bb 6a ab 80 bd
       -0.038670927 0.1551294 -0.006146188 -0.06282695
000110 00 5d e5 bb a8 e7 21 be 80 b6 1a be 30 a1 39 3d
       -0.006999612 -0.15811026 -0.1510868 0.045319736
000120 40 fb ae 3b 68 92 0e bd 0a d4 0d 3e 39 9b 5e 3d
       0.00534001 -0.034807593 0.13850418 0.05434725
000130 29 c7 b4 3c a8 11 90 bd 21 70 65 3d 7e 78 96 be
       0.022067623 -0.07034618 0.056015138 -0.29388803
000140 54 d4 54 be c1 65 80 bc bd f4 7b be ac 14 dd 3d
       -0.20784122 -0.01567352 -0.24605079 0.107949585
000150 4a 6d 42 be 98 00 6a 3e 6e ba f1 bd 63 ab 80 3e
       -0.18987003 0.22851789 -0.11803137 0.25130758
000160 fe 34 0f 3e 18 ec 96 3d e2 09 60 3e 6c ad 37 3d
       0.13985059 0.0736925 0.2187877 0.044843122
000170 2d 72 c6 3e d1 44 25 bd 16 cb b8 bd e8 ea c3 3e
       0.38758984 -0.04034883 -0.090231106 0.38265157
000180 74 00 30 bd 1a 03 14 3e 16 52 1b 3e dc 75 54 bd
       -0.042969182 0.14454308 0.15168032 -0.051870212
000190 a0 b2 52 bc 3c 1a 6d 3e a8 a1 6d bd d2 fc 9d bd
       -0.01285997 0.23154539 -0.058015496 -0.07714237
0001a0 56 6f 63 3e 36 3c d9 3d 83 76 1c bc 57 91 f1 3e
       0.2221044 0.106071874 -0.00954974 0.47181198
0001b0 e9 ef 61 be a4 49 a8 3c 22 dc 91 bd 8e 34 02 bd
       -0.22064175 0.020542927 -0.07122065 -0.0317884
0001c0 e2 73 51 be 3c 19 ec 3d f6 20 6d 3e 24 3a a7 3d
       -0.20454362 0.115282506 0.23157105 0.08165386
0001d0 d4 a3 cb 3d d8 42 c0 bd 82 df 17 3e d8 ab 3b 3d
       0.09943357 -0.093877494 0.14831355 0.04581818
0001e0 fd ca 23 3e 90 b3 6e be da ff 84 3e da 82 6c be
       0.15995403 -0.23310685 0.2597645 -0.23096791
0001f0 0c 9f a6 3d 82 27 09 3c d4 f5 7b 3c 77 5a 9d be
       0.081358045 0.008371236 0.015378434 -0.30733082
000200 68 e0 55 be 88 b1 60 3e 9c d5 64 3e 4d dd 1c be
       -0.20886385 0.21942723 0.2234711 -0.15318795
000210 1c b3 11 3e 08 8c 02 be 18 8f d1 3d bf bd b3 3e
       0.14228481 -0.1274873 0.10232371 0.35105702
000220 67 6f 59 be b0 3d cd be ad 1c 9c be 45 a2 59 3d
       -0.21233903 -0.40086126 -0.30490628 0.053133268
000230 67 c9 53 be 0e ac 3c be 65 e7 00 be dc ab ed bd
       -0.20682298 -0.18425009 -0.1258827 -0.11605045
000240 e8 e1 44 bd 56 45 3b be d6 63 d2 bd 60 11 30 3d
       -0.048067003 -0.18288168 -0.102729484 0.04298532
000250 0e 42 31 3e 52 a9 ba bd cf 9b 91 bd 28 c7 2b 3e
       0.17310354 -0.091143265 -0.07109796 0.16775191
000260 5b 00 75 bd 3d 4c 1b be 4d d8 f7 bd 18 24 32 3e
       -0.059814792 -0.15165801 -0.12101803 0.17396581
000270 79 2f 6b be 35 18 f1 3d 70 31 64 bd 50 2c 73 3d
       -0.22967328 0.11772195 -0.05571121 0.05936843
000280 96 c3 3a 3e 50 4a bc bd 90 65 83 3d 3a a9 6c 3e
       0.18238673 -0.091938615 0.06415856 0.2311143
000290 0c 9b 5e bd e1 68 24 3e 6f 7e a6 3d c5 88 ec be
       -0.054347083 0.16055633 0.08129584 -0.46198097
0002a0 03 99 7d be 80 4b 95 3d 61 a6 16 3d 5a 2b 42 be
       -0.247654 0.07289791 0.036779765 -0.1896185
0002b0 fd fb 5e be 98 7d f5 3d e9 d5 31 be 44 46 88 3d
       -0.21775813 0.11986846 -0.17366756 0.06654027
0002c0 e8 77 3c be 60 00 09 be b8 18 b0 bd a0 5e 7b be
       -0.18405116 -0.1337905 -0.08598465 -0.24547815
0002d0 df 75 04 3e aa 8e 73 3c c7 6e 23 bd 86 04 76 3e
       0.12935589 0.014865557 -0.039900567 0.24025163
0002e0 62 38 5f be f0 a3 97 3e a7 74 d5 3d a6 4e 41 bd
       -0.21798852 0.29617262 0.1042264 -0.047194146
0002f0 8c 6e 72 be 3c ba 1d 3e 18 69 17 be e2 65 b3 bd
       -0.23674983 0.15403074 -0.14786184 -0.08759667
000300 00 7b 72 3b 40 93 f7 3d 26 38 2f 3e 3f 66 2b be
       0.0036999583 0.120886326 0.17111263 -0.16738223
000310 6a 82 60 bd 01 4c 1b 3e 44 19 a6 be 3c c0 16 3d
       -0.054811873 0.15165712 -0.3244115 0.036804423
000320 8f 62 08 3d f9 ee 8c bd ac 9b 8b be 50 65 49 bd
       0.033297118 -0.06881518 -0.27267206 -0.049168885
000330 04 86 5a 3e 38 da 9b 3d d8 47 c7 bc 00 fd 7d be
       0.21340185 0.07609981 -0.02432625 -0.24803543
000340 4c 59 65 bd 5d 48 56 be 51 d5 a4 3e f3 81 36 bc
       -0.055993363 -0.20926042 0.32193998 -0.011139381
000350 e9 2b 0f bc 8e 85 98 bd 63 41 46 3d 6e fd b9 3d
       -0.008738496 -0.074473485 0.0484022 0.09081541
000360 7a 62 c0 be 36 ff 3d be 7c 94 4a 3e a4 31 f6 3d
       -0.37575132 -0.18554386 0.19783205 0.12021187
000370 7c 31 ca bd a0 41 7c 3c 00 b4 e9 bb 00 e6 d4 ba
       -0.0987272 0.015396506 -0.0071320534 -0.0016242862
000380 f0 02 4c be 58 23 b9 3d ff 96 63 3d 47 bb 2f 3d
       -0.19922996 0.090399444 0.055563923 0.04290321
000390 75 b3 cd be 38 24 d0 3d db 98 04 bf 51 b7 2b be
       -0.40175977 0.10163158 -0.5179574 -0.16769148
0003a0 0f 2e 2d be 18 23 c7 bd 18 65 3b bd 32 d8 48 be
       -0.16912101 -0.097234905 -0.045750707 -0.19613722
0003b0 e0 6b d7 bc 08 79 89 bc 10 69 c6 3d e3 ec 1b be
       -0.026296556 -0.016781345 0.09688008 -0.15227084
0003c0 61 09 49 3b 1d 48 af 3e 78 59 fb 3e 58 f9 55 3e
       0.0030675756 0.34234706 0.49091697 0.20895898
0003d0 6d c5 a5 bd 3f 60 3d bd 9a 61 c3 3e 6b bc c6 3c
       -0.080942966 -0.046234366 0.38160402 0.024259767
0003e0 f2 cf 1e 3e 50 6b 5f be 70 e4 07 3e de c7 79 be
       0.15509012 -0.2181828 0.13270736 -0.2439265
0003f0 98 0b 15 bd 40 3b 26 3e 48 07 8f 3d 81 57 da bd
       -0.03638801 0.1623354 0.06983811 -0.10661221

actor.0.bias f4 [64]
000000 b2 32 57 3e ad b0 d1 3d b7 41 77 3e 36 c8 c0 be
       0.21015432 0.10238776 0.24146162 -0.3765275
000010 5f a5 0b 3e 1a 04 19 be 68 44 90 3e 9c a0 1e 3d
       0.13637303 -0.14942971 0.2817719 0.038727388
000020 76 eb ae 3d 7b 62 cd 3d 8e 85 77 be 62 aa 6f be
       0.08541004 0.10028549 -0.24172041 -0.2340484
000030 92 2c 80 3d 54 31 ac bd b4 eb 79 bd 05 5c 66 be
       0.06258501 -0.08407846 -0.0610158 -0.2249604
000040 7e 2a 11 3e 5b bb 53 be ee bb bb bd af 69 25 be
       0.14176366 -0.20676939 -0.09166704 -0.16153596
000050 b9 ad b1 bd 0a 27 4f 3d 47 c7 4b be 71 be c3 3c
       -0.08675713 0.05057434 -0.19900237 0.02389452
000060 d0 0e ec 3d 92 1b b8 3d ca a5 b2 3b 1b 44 49 3e
       0.11526263 0.089896336 0.0054518925 0.19654886
000070 3c 16 92 3e bf bb b7 b9 42 db 72 3e 99 dd 88 bd
       0.28532588 -0.00035044362 0.23716453 -0.066828914
000080 eb 59 64 3e fe ee 84 3e a6 ad 91 3e f9 8b 3a be
       0.22299926 0.25963587 0.28452796 -0.18217458
000090 32 f5 67 be 33 8f 7c 3e 0e 0a a3 bd cc 0c 0f 3d
       -0.22652128 0.24664001 -0.07960902 0.034924313
0000a0 46 b1 3c 3e b1 85 27 3e 2f e9 85 bb c6 83 46 3e
       0.18427 0.16359593 -0.0040866355 0.19386205
0000b0 03 65 92 3d 96 33 41 3e 76 da 56 be ad 3b 1a 3e
       0.07148173 0.18867335 -0.20981774 0.15061827
0000c0 30 75 90 3e 91 cc 68 3e 48 0f 5a 3e e6 3b 02 be
       0.28214407 0.22734286 0.21294892 -0.12718162
0000d0 d4 07 97 be 0d 65 16 bd fd 68 58 be 47 99 a6 be
       -0.2949816 -0.036717463 -0.211338 -0.32538816
0000e0 d8 b5 8b 3d b1 ca 6f bd e8 3a a3 bc f6 1e b6 3e
       0.06821793 -0.05854291 -0.01992555 0.35570496
0000f0 5e 59 56 bd ed 62 68 be f3 e3 3f 3e 4f ae d5 bd
       -0.05233132 -0.22693987 0.187393 -0.10433637

actor.2.weight f4 [64, 64]
000000 fa af d0 3d a0 d2 5a bd d0 69 cf 3c c5 20 ba bd
       0.10189815 -0.053423524 0.02531901 -0.090882815
000010 27 df 1e 3d 12 0e a4 3c c5 b9 c2 bd 09 fc 98 3c
       0.038787033 0.02002624 -0.09508089 0.018674867
000020 7b 64 ce 3d 9c 13 9c bc ee bc d4 bd 3c cd d2 3d
       0.10077759 -0.01905232 -0.10387598 0.102930516
000030 b2 f2 f8 3c 85 3b a7 3d 00 25 87 bd 68 f1 ad bc
       0.030389164 0.08165649 -0.06598854 -0.021233276
000040 5b e8 3f bd a6 18 ed 3d e7 6f 3f bc db 53 d2 bd
       -0.04685245 0.11576967 -0.011684394 -0.102699004
000050 68 07 ca 3d be 1e be bd 62 19 0a bd de ca 92 3d
       0.09864694 -0.09283207 -0.033715613 0.071676
000060 dc d9 ec bd ff 7d 1b 3c ae 67 e9 bd 28 fb 17 be
       -0.11564991 0.009490489 -0.113967285 -0.14841902
000070 20 25 e5 bd e3 87 87 bc 0e ec 31 3d 60 e2 dd 3d
       -0.11188722 -0.016544288 0.04343801 0.10834193
000080 ff e5 fa 3d c7 22 b6 3d 89 05 e4 3d c1 bd cf 3d
       0.122508995 0.08893352 0.11133868 0.101436146
000090 29 48 04 bd 53 08 ae 3d a8 6f bf 3c ab 42 da bd
       -0.03229538 0.084976815 0.023368672 -0.10657247
0000a0 dc e1 ba bd 4a 2a 66 3d 49 c2 f3 bd 0d 88 99 3d
       -0.091251105 0.056192674 -0.11902291 0.07496653
0000b0 f8 b9 c4 3d ce e3 30 bb ac f1 55 bd 92 e7 0f 3e
       0.09605783 -0.002699125 -0.05223243 0.14053181
0000c0 16 51 a1 bd ee 88 fb 3b 65 6c c3 3d d2 da 65 bd
       -0.07876794 0.0076762354 0.09542159 -0.056116886
0000d0 02 db c3 bd 3e 1f d2 bc d9 8a 87 bc d8 c6 d1 bd
       -0.09563257 -0.025649663 -0.0165457 -0.102430046
0000e0 61 90 19 3c 1c 1c 84 bd d8 22 f5 3b 34 30 1e bd
       0.0093728015 -0.06450674 0.0074809603 -0.03862019
0000f0 d6 73 43 3e 77 5a b9 bc b9 86 0b 3d a7 00 1e 3e
       0.19087157 -0.022626145 0.03406403 0.15429936
000100 56 e4 37 bd 3d 10 ce 3c 7f 12 1f 3e a0 b5 a3 3c
       -0.044895492 0.025154227 0.155344 0.019984066
000110 0a 0b 82 3d 7b af fe bd 45 48 91 3d d3 11 1d ba
       0.06349762 -0.12435814 0.070938624 -0.0005991731
000120 66 f0 94 3d 56 00 6a be 4c 71 46 3d 54 95 3c be
       0.07272415 -0.2285169 0.048447892 -0.18416339
000130 41 bd c7 bd 3a 39 43 3d 9b ad ff 39 11 c6 08 be
       -0.09752894 0.047661997 0.00048766736 -0.13356806
000140 14 0b 29 3e ba f1 24 bc aa 01 4e 3e 74 c5 4e bd
       0.16508132 -0.010067398 0.20117822 -0.050481275
000150 94 f3 28 3e 19 33 1f 3c da 68 9c bd 03 3e c4 3d
       0.16499168 0.0097167725 -0.07637186 0.0958214
000160 b6 aa 58 3d 79 49 06 be 58 d6 1b be e6 3c 84 bd
       0.052897178 -0.13113965 -0.15218484 -0.06456928
000170 53 2f 07 bd a3 17 a0 bc 96 31 d5 3d 1f fe 1c 3e
       -0.033004116 -0.01954252 0.104098484 0.15331315
000180 61 f9 8c bd b9 76 28 bd 51 4a c9 3d 6d e9 ae 3c
       -0.06883503 -0.041128848 0.09828628 0.02135154
000190 b2 24 2e bd 99 74 27 3d 80 9d a8 bb 02 cc 93 3d
       -0.042515464 0.04088268 -0.0051457286 0.07216646
0001a0 0e 82 de bd 31 fa e5 bd c7 04 42 3e f5 6c c4 3c
       -0.1086465 -0.11229361 0.18947135 0.023977736
0001b0 33 0a 9d 3d bc 49 48 bc f5 bb 9d bd f3 47 7a 3d
       0.07667961 -0.012224611 -0.077018656 0.061103772
0001c0 7e 0d 07 bd eb 8a 97 3c 8b 0c c8 3c 2b 9d c2 3d
       -0.03297185 0.018498858 0.024420043 0.09502634
0001d0 d8 21 19 be 6d 6a 1d bd 2f ac 2f be f7 ff 2d be
       -0.14954317 -0.038431574 -0.17155527 -0.16992174
0001e0 61 6b 2c 3e a3 d1 cd bd 78 8d 12 3e 8b 17 0c 3e
       0.16837837 -0.10049751 0.14311779 0.13680856
0001f0 29 40 63 3b 88 7e 16 be 93 bb 53 bd cd 10 99 3d
       0.0034675694 -0.14696705 -0.051692557 0.074739076
000200 9f a0 9a bc ef 07 49 3d f3 ef 14 bd 6c 37 0f bd
       -0.018875418 0.04907983 -0.036361646 -0.034964964
000210 7b 20 b0 bd ed 74 16 3c da 4a 9f bd 88 12 e9 bd
       -0.08599945 0.009183151 -0.07777949 -0.11380488
000220 b9 ee a8 bd b9 5f 65 bc 89 c6 fc bd fd 35 b5 3d
       -0.08248658 -0.013999873 -0.12342555 0.08848188
000230 73 43 29 be 85 e3 5d 3d ca 40 42 3d 7e 76 d8 3d
       -0.16529636 0.054172058 0.04742507 0.105694756
000240 ed eb 00 be b6 48 c1 bd 06 54 bc bd 46 39 b8 3c
       -0.12589999 -0.09437697 -0.09195714 0.022488248
000250 7c 73 69 bb 21 e4 cc 3d e7 56 a9 3d bf cb cf 3d
       -0.0035621813 0.1000445 0.082685284 0.10146283
000260 1c 28 20 3c d6 ef e6 bd 3f e4 a6 bd 0a eb 51 3a
       0.009775188 -0.11276214 -0.08149003 0.0008007741
000270 11 3f de 3d fa f2 ba 3d 8c e5 63 3d d7 89 fe bd
       0.10851873 0.09128375 0.055638835 -0.124286346
000280 72 0b a5 3d a1 48 1d 3e e0 7a 37 3d 30 55 d1 bd
       0.08058824 0.15359737 0.044794917 -0.10221326
000290 1c f1 57 3d e6 a2 c5 bc 3f 8b 93 bb 23 fb aa bb
       0.052720174 -0.024125528 -0.0045026834 -0.005217926
0002a0 41 33 80 bd f7 8e 8d bc 62 81 68 bd 2f 88 25 3e
       -0.06259776 -0.017280085 -0.056764014 0.16165231
0002b0 93 fc 34 3c e4 7e b8 bc 35 c1 00 3e 16 21 0b 3d
       0.0110465465 -0.022521444 0.12573703 0.0339671
0002c0 3c db 93 3b 62 b1 27 bc 02 79 0d 3c 72 4f 07 bc
       0.0045122188 -0.010235162 0.008634808 -0.008258687
0002d0 26 70 fc bb 73 09 15 3e 06 1f d8 bb 48 6d 1a 3d
       -0.007703799 0.14554386 -0.006595495 0.037701875
0002e0 68 38 39 bd a9 54 9f 3d c2 e7 7b 3c 80 ad 27 3e
       -0.04521981 0.077798195 0.01537508 0.16374779
0002f0 c8 c4 b4 bd c8 94 09 3d 2e c6 6a 3d 75 0c c2 3a
       -0.088265955 0.033589154 0.057317905 0.0014804738
000300 b5 cb f1 3c c8 13 df bc 51 d0 b8 bd fc ee 0c 3d
       0.02951608 -0.027231112 -0.09024108 0.0344076
000310 40 be a7 bd ae fd 95 bd 4b 99 96 bc 05 f2 1b be
       -0.08190584 -0.07323776 -0.018383643 -0.15229042
000320 88 ff cb 3d 90 69 0a be 21 ed c9 bd 30 66 8a 3d
       0.09960848 -0.13516831 -0.09859682 0.06757772
000330 10 a7 b2 bd 78 ff b7 3b 75 29 b1 3c b7 d4 94 3d
       -0.08723271 0.005615171 0.021626214 0.07267135
000340 cc e4 9a bd ca 63 30 3e a7 c9 98 3d c4 f8 4e bd
       -0.07563171 0.17225567 0.07460337 -0.05053021
000350 9d b6 9d bd 05 b7 e7 3d aa 95 92 3d 9c 70 60 bd
       -0.07700846 0.11314205 0.071574524 -0.054794893
000360 3d 78 24 bc ad a2 03 be 03 04 ef bd b3 53 2c 3c
       -0.010038433 -0.12855025 -0.11670687 0.010518002
000370 49 8b c6 bd fb b6 7a 3d 64 62 a8 3d d3 74 fe 3b
       -0.09694535 0.06120966 0.082218915 0.0077653914
000380 ad f8 6e 3d 21 9b 4f 3d da 4c 81 3d 1d c8 b0 bd
       0.058342624 0.05068505 0.063134864 -0.086319186
000390 23 c1 a3 3d df 65 0b 3e f1 f8 dd 3c 4e 7f 6e bd
       0.07995822 0.1361308 0.027096244 -0.058226876
0003a0 ae d1 a8 bd 45 fd d9 3b 47 36 56 bd a5 ca 7b bd
       -0.08243118 0.0066525065 -0.052297857 -0.061472554
0003b0 1d 4c 1a 3b ad c0 2b bd cf f6 0b bd 85 d5 8f bd
       0.0023543902 -0.041931797 -0.034170922 -0.070231475
0003c0 1e 66 e1 3d da f2 b9 3c 5f ed f1 bb 6f a3 26 bc
       0.110058054 0.022698808 -0.007383033 -0.010170802
0003d0 4c 98 69 bd 8d db ef 3c 06 1d ab 3d d8 36 dd bd
       -0.057030007 0.029279495 0.08355145 -0.10801476
0003e0 86 fa 8d 3d e5 94 2a be 13 9b e0 bd 92 02 bf 3d
       0.06932549 -0.16658361 -0.10967078 0.09326662
0003f0 53 ac e8 3c e1 66 ad 3d bd a1 d8 bc 59 5a 43 3e
       0.028402483 0.08466888 -0.02644431 0.19077434

actor.2.bias f4 [64]
000000 fa 85 3e 3c 4d 46 a6 3d bb 50 fc 3d ee 90 eb 3d
       0.011628622 0.081188776 0.123200856 0.115022525
000010 c2 8e ed 3d 60 d4 4d bd 00 a3 76 bc 57 0c 76 bd
       0.115994945 -0.050251365 -0.015053511 -0.060070362
000020 66 2f 61 3d 18 7a b6 3d c5 00 08 be 1c 93 b8 bd
       0.054976843 0.08910006 -0.13281544 -0.09012434
000030 85 9b 33 bb 91 a2 23 be 46 69 8f bd 29 a3 7d bd
       -0.002740593 -0.15979983 -0.07002501 -0.06192318
000040 b0 e0 7b bb da 19 06 bd ce 2f 05 bd ae e9 83 bc
       -0.0038433485 -0.032739498 -0.032516293 -0.016102638
000050 e7 f9 02 bc 23 9c d5 bd 1c d4 58 bd 62 d8 92 bd
       -0.007994152 -0.10430171 -0.05293666 -0.07170178
000060 e4 85 8e 3d c8 8e ca bd 33 1f 65 3d 4d 85 50 3d
       0.06959131 -0.098905146 0.055937957 0.050908376
000070 77 6c a5 3d 25 3a a7 bd bb 35 69 bd 36 70 00 3e
       0.08077329 -0.08165387 -0.056936007 0.12542805
000080 74 1b dd 3c a7 d6 0b 3d 1f 1e 11 be 83 93 44 3c
       0.02699063 0.034140255 -0.14171647 0.01199806
000090 60 ab 4f bc d2 b4 09 bc db b1 ba ba 40 38 41 3c
       -0.012675136 -0.008404927 -0.0014243679 0.011793196
0000a0 cc 8c 11 be eb b7 d6 bd 87 86 cb bd 1a 2c 59 bc
       -0.14213866 -0.10484298 -0.099377684 -0.013255144
0000b0 9b df ca 3d f7 77 15 bd 43 07 da 3d cd 05 18 be
       0.099059306 -0.03649136 0.10645916 -0.14845963
0000c0 2d 61 9d bd a4 09 2d bd ab 8b a5 ba 95 26 91 bd
       -0.076845504 -0.042245522 -0.0012630125 -0.07087437
0000d0 4c 71 0f bc 4d ab ba 3d 92 39 0e 3e 61 83 b0 bb
       -0.008755039 0.09114704 0.13889149 -0.0053867553
0000e0 ba 15 a9 3c 18 93 11 bd 24 20 a1 bd 8d cc c8 bb
       0.020640243 -0.03554067 -0.078674585 -0.0061279
0000f0 48 90 a5 bd fa 76 db bd f9 ac ca bc ea 2d 43 3d
       -0.0808416 -0.10716052 -0.024740683 0.04765121

actor.4.weight f4 [2, 64]
000000 5a d8 9c bd 00 b9 27 bc 37 f8 66 bd d6 c7 95 bd
       -0.07658453 -0.0102369785 -0.05638906 -0.07313506
000010 07 0d 4d 3c 0f c3 3a 3d 33 f9 e5 3b 3d 5f f5 3c
       0.012515313 0.04559618 0.0070182323 0.02995264
000020 76 ff 7f bd 4c 42 e7 bd fa 91 b0 bc 9e fb 2e bc
       -0.062499486 -0.11291942 -0.021553982 -0.010680107
000030 67 7f 77 bc 83 3d 81 bd 51 9b 39 bd 8f 6f f3 3c
       -0.015106059 -0.063105606 -0.045314137 0.029716281
000040 61 4a 9d bb ce 33 6e bd 25 07 8e bd e5 c5 fc 3b
       -0.0048001264 -0.058154874 -0.069349565 0.0077140206
000050 57 7a db bd 1a 43 d7 bc bc a9 5f bd 7b 8d df 3c
       -0.10716694 -0.026277114 -0.05460523 0.027289143
000060 36 ac 0a 3d 4d c9 7c 3d 88 8f 9e bd 8d e2 96 bd
       0.03385564 0.061715413 -0.0774222 -0.0736743
000070 82 af 1e 3d 9e 71 5d 3c f5 43 98 bc 87 2c 7a bc
       0.038741596 0.013515858 -0.018587092 -0.015269405
000080 63 d5 d3 bc 09 2c 0e 3d ba 66 dd bd fa 88 e6 3c
       -0.025858587 0.034709964 -0.10810609 0.028141487
000090 5e 24 56 3c cd 19 33 bd c5 4f 2d bc 43 6a b9 3c
       0.013070194 -0.043725777 -0.010578101 0.022633677
0000a0 c3 80 4f 3d 3a db ad 3c ac de 8b bc ff e8 0b bd
       0.050659906 0.0212227 -0.017073952 -0.03415775
0000b0 2e 75 7d bb 0d 6b 0b bc 3e 35 1e 3d 12 90 61 bd
       -0.003867458 -0.00850941 0.038624994 -0.055069037
0000c0 af 28 eb bc 8d 59 93 3d cb ec 2e bd de a9 6c 3d
       -0.028705923 0.07194815 -0.042706292 0.057779185
0000d0 5e c7 b7 bd 56 20 54 3c b2 25 48 3d 84 16 35 bd
       -0.08973573 0.012947163 0.048864074 -0.044210926
0000e0 00 16 6c 3a b9 9b 90 bc b1 67 96 3b 94 cf 63 3b
       0.0009005964 -0.01765238 0.0045899977 0.0034761177
0000f0 40 f4 9b 3d 84 17 9d bb 4a dc ad 3d 37 14 ab 3d
       0.07614946 -0.004794063 0.084892824 0.08353465
000100 7e 34 14 bc 3b c7 06 be 03 2b 8f bd 62 59 bb bb
       -0.009045718 -0.13161938 -0.06990626 -0.0057174424
000110 ea c8 45 3d 08 e7 56 bd e0 7c b1 3c d3 69 43 bd
       0.04828731 -0.052466422 0.02166599 -0.047708344
000120 a7 c1 78 bc 3a 0c a4 bb ab 55 0c 3e c9 ca 11 bd
       -0.015182889 -0.0050063403 0.13704555 -0.03559378
000130 54 81 a1 bc 70 4c 1b 3d b5 aa 16 3b 93 95 4d bd
       -0.019714989 0.037914693 0.0022989933 -0.050191473
000140 3b 9d ba 3c 0e 9b ac 3b d9 ea 6e bd 66 5b 8a bd
       0.022780051 0.0052675074 -0.058329437 -0.06755714
000150 6d 52 09 3e e1 5c 0e bd 59 9f 75 3d e8 96 96 bc
       0.13410349 -0.034756545 0.05996642 -0.018382505
000160 0a fb 80 bd ac 0a 17 3e f4 fc ba 3c 8e 9c 7f bd
       -0.06297882 0.14750165 0.022825696 -0.06240516
000170 26 87 89 3c d3 09 34 bd e2 dc db 3c 1f f1 06 be
       0.016788077 -0.04395468 0.026838724 -0.13177918
000180 88 8f fd bb 37 81 6d 3b 7b a4 e0 3d 29 01 c3 3d
       -0.0077380575 0.0036240348 0.10968872 0.09521706
000190 24 f9 2a 3d 30 0a 7a 3d 13 3f 5d 3d e8 a5 fe 3c
       0.041741505 0.06104487 0.05401523 0.03108497
0001a0 08 a0 ca 3d f8 be 98 3a cb 19 5a bd 93 12 5b 3b
       0.09893805 0.0011653593 -0.053247254 0.003342782
0001b0 15 23 03 bd 12 70 30 3d 6b a3 83 bd 75 71 c4 3d
       -0.03201588 0.04307563 -0.06427654 0.09591953
0001c0 ae b4 78 3d fe 60 c6 3c 54 d4 a6 3d 85 4a 0b bc
       0.060719185 0.024216171 0.08145967 -0.008501654
0001d0 ce 35 40 bd 5d 04 02 bd 60 5b 89 bc 6c 73 92 3c
       -0.046926312 -0.031742442 -0.016767204 0.017877303
0001e0 81 bf 8e bd b9 ea 3d bd fc e0 4a 3d 81 0d 9f bc
       -0.0697012 -0.046366427 0.049530968 -0.019415619
0001f0 cb e6 0f bb 74 39 76 bd 3d 95 43 3c 86 64 bf 3d
       -0.0021957632 -0.060113385 0.011937437 0.09345345

actor.4.bias f4 [2]
000000 a0 27 c3 bd 88 7a 96 bb
       -0.09529042 -0.0045922436

critic.0.weight f4 [64, 15]
000000 c6 0e d6 bd 70 f3 b5 3d 6c 35 28 be b7 f9 df 3e
       -0.104520366 0.08884323 -0.16426629 0.43745205
000010 05 a1 e2 bd 20 ff c0 3e 46 71 42 bf 21 74 04 3f
       -0.11065868 0.37694645 -0.7595409 0.517397
000020 04 62 d8 3d a8 37 b0 bc 98 8b b4 bc 01 bc 3f be
       0.1056557 -0.021510914 -0.02203922 -0.18724062
000030 87 0c 04 be 64 08 b8 bd 82 52 58 be 06 89 49 be
       -0.12895404 -0.089859754 -0.21125224 -0.19681177
000040 59 2f 95 be 14 39 c6 3e ee a5 78 bd 2a ef 8d 3d
       -0.29137686 0.38715422 -0.060705118 0.069303825
000050 11 90 53 3e 6c 78 64 3d 62 1a 2b be 74 d4 cf 3d
       0.20660426 0.055778906 -0.16709283 0.10147944
000060 2a 73 63 be 3e 84 56 3e 0a d1 c2 bd 50 04 36 3e
       -0.222119 0.20948884 -0.09512527 0.17775083
000070 7c f9 a3 3d 6c 1a 30 be c7 be 5b 3e 48 78 66 bd
       0.0800657 -0.17197579 0.21459495 -0.056267053
000080 7d 5e a3 be d7 96 29 bf 9b 89 c5 3d 08 cb 50 bf
       -0.31908026 -0.6624579 0.09645387 -0.815598
000090 1b 1a 75 be 84 5f 09 be b0 d7 ab 3d 40 cf 15 3e
       -0.2393574 -0.13415343 0.083907485 0.14629841
0000a0 50 c3 41 3e c6 65 19 3e 7e 5f ae bd 68 29 db bd
       0.18922162 0.1498023 -0.085143074 -0.10701257
0000b0 4c d1 94 bd 09 75 b5 3e 59 7d 1c bd bd 35 0f bc
       -0.07266483 0.35440853 -0.03820548 -0.00874084
0000c0 8d b7 13 be ff f0 ad be cf 8b 6a be 02 1e f7 3d
       -0.14425488 -0.33972928 -0.22904895 0.120662704
0000d0 b7 23 af bf dc 7e 4c bd ac 6b 22 bd 68 09 26 3d
       -1.3682774 -0.04992567 -0.039653465 0.040536314
0000e0 9c 58 9c 3d 7a 43 5d 3e cf d4 47 be 90 e3 bd 3c
       0.076340884 0.21607772 -0.19514774 0.0231798
0000f0 8b b6 e7 bd b4 2a 09 be 81 91 13 be ed 1a a0 be
       -0.11314114 -0.13395196 -0.14410974 -0.31270543
000100 0d 16 61 3d f2 d2 69 be f4 03 19 be 75 dd 5b bf
       0.05495267 -0.22834376 -0.14942914 -0.8588479
000110 10 89 7a 3d fd 62 01 be ee 23 08 3e f6 99 2f be
       0.06116587 -0.12635417 0.13294956 -0.17148575
000120 00 7c 62 3a 60 14 dc 3c 16 96 65 be ae 4c aa 3e
       0.0008639693 0.026865184 -0.22420534 0.33261627
000130 ec c4 47 3e 2f 47 07 bf e6 6a 43 be 17 67 42 be
       0.19508713 -0.5284299 -0.19083747 -0.18984638
000140 f6 9f b1 3d 1d 18 13 be 14 96 07 3f 30 a2 c4 bc
       0.08673088 -0.14364667 0.52963376 -0.024003118
000150 04 0a 09 be 78 38 22 3d a0 af 39 be d0 05 2e be
       -0.13382727 0.039604634 -0.18133402 -0.16994405
000160 f8 6c 14 3e 80 61 ca 3d 29 9d cc be e5 04 01 be
       0.14494693 0.09881878 -0.39963654 -0.12599523
000170 96 8f a2 3d 6e 8c 81 be 6a d1 97 be d5 16 55 be
       0.07937543 -0.25302452 -0.29651958 -0.20809491
000180 f8 51 88 3d 58 13 9c bf 89 d4 82 3e e4 56 62 be
       0.06656259 -1.2193403 0.25552776 -0.22103459
000190 8c 92 c9 3d f4 a8 0c 3e 20 ea 4c 3e 39 32 24 be
       0.09842405 0.13736326 0.20011187 -0.16034783
0001a0 24 7b 3b be 56 1a 51 3e fe 8f 34 be cf 13 d0 3e
       -0.18308693 0.20420203 -0.17633054 0.40640113
0001b0 79 fa 9a 3d 90 23 27 3d 4a e0 34 3e 25 69 9d 3d
       0.07567305 0.0408054 0.17663684 0.0768607
0001c0 f5 c5 e9 be 5a 07 22 be f5 7c 04 be 44 1d 4d bd
       -0.45658842 -0.15823117 -0.12938292 -0.050076738
0001d0 72 04 42 be 94 77 e0 3d a4 07 74 3e b4 31 cf 3d
       -0.18947008 0.10960308 0.2383104 0.10116902
0001e0 22 71 6b 3e a3 3a 41 3d 11 0d 71 bd 08 60 ce 3c
       0.22992375 0.04717506 -0.05885035 0.025192276
0001f0 c5 68 5f 3e 63 22 78 bd 53 c4 24 be 5f 7c 35 3f
       0.2181731 -0.06057967 -0.16090517 0.708929
000200 64 fc e7 3d ba a7 e5 bd 8c c6 35 3e fe 3f da bd
       0.113274366 -0.11213632 0.17751521 -0.10656737
000210 84 b9 6f 3e 8a ac 11 be 48 02 71 3e 1b 53 96 3d
       0.23410612 -0.14225975 0.23536026 0.0734007
000220 3c e0 00 3f 75 0e a9 3d e2 3c ed 3d 4d 7b b1 3d
       0.50342155 0.082547106 0.11583878 0.08666096
000230 ac 85 72 3e 6a c5 ba 3d a2 a3 b3 3d 24 f1 d5 3d
       0.23683804 0.09119685 0.08771445 0.104463845
000240 c6 16 96 bd 20 65 af 3c 38 04 20 bd e8 90 bf bd
       -0.073285624 0.021410525 -0.039066523 -0.093538105
000250 d8 6a b7 3d e6 f8 30 3e b7 00 f3 be 80 90 e5 bd
       0.08955926 0.17282447 -0.47461483 -0.11209202
000260 7e 5c 02 3c 6b b6 8f 3e 91 fb 90 3e db e3 1e 3c
       0.007956622 0.2806886 0.2831693 0.00969788
000270 d8 fe 4c bd 9b a2 89 3f 30 09 5d bc c8 8a 63 3e
       -0.050047725 1.0752748 -0.01349096 0.2222091
000280 90 5c 43 3e 9c ec 19 3e 3e 52 58 3e 98 4c 2d 3e
       0.19078279 0.15031666 0.21125123 0.1692375
000290 28 e7 28 be 82 df cb 3d 5a 60 9c 3e 90 45 e4 3e
       -0.16494429 0.0995474 0.3054226 0.44584322
0002a0 dd 3d 43 3e 36 43 a7 bb af 75 2d bd 61 c0 d3 3e
       0.19066568 -0.0051044477 -0.04234856 0.4135771
0002b0 5f 20 32 bf 8e a3 68 3e db 05 80 be 70 ab ac 3d
       -0.69580644 0.22718641 -0.25004467 0.084311366
0002c0 f6 f4 7a 3e b5 38 5d be ae 9d 54 be ac c9 e5 3d
       0.24507508 -0.21603663 -0.20763275 0.112201065
0002d0 eb 14 a5 be 5b e2 a6 be 8d b6 75 be fd 34 1f 3e
       -0.32242522 -0.3259457 -0.23995419 0.15547557
0002e0 92 78 34 be 2c 97 80 bd e5 49 66 3e 36 20 7b bf
       -0.17624119 -0.06278834 0.22489126 -0.98096025
0002f0 00 94 7d be 41 1e 77 be ec 70 31 be 10 1f 30 bc
       -0.24763489 -0.24132635 -0.17328233 -0.010749593
000300 0c 7e f6 bd 22 7b 6f be ac a2 40 be e1 61 2e 3e
       -0.1203576 -0.23386815 -0.18812054 0.17029525
000310 2d b3 ba 3e 32 15 c9 be 8a 60 8f 3d 59 aa ba bd
       0.36464825 -0.39273983 0.07000835 -0.091145225
000320 a1 f8 6e 3e 5d 5e 9a 3e 4e 9a ab 3e 50 91 dd 3d
       0.23337032 0.30150118 0.33516163 0.10818732
000330 be f3 31 be b1 19 83 be 25 47 0b be 48 30 81 be
       -0.17378137 -0.25605538 -0.13601358 -0.25232148
000340 4c 24 00 bd c8 78 90 3d 4a d8 0f bf 9a d3 00 3e
       -0.031284615 0.07054287 -0.56189406 0.1258072
000350 af 83 61 bb c4 87 5b be 0b 03 40 3e 42 be b7 3c
       -0.0034410765 -0.21438509 0.18751161 0.02242959
000360 d8 af 88 be 73 3c 8f 3f 40 23 dc bd bc b0 7d be
       -0.26696658 1.1190323 -0.10748911 -0.2477445
000370 42 de 72 be e0 a0 b2 3c ee 71 47 3e c0 6b db 3c
       -0.23717597 0.021805227 0.19477054 0.026784778
000380 cc c2 9a bd 64 87 8a 3d 32 77 e9 3d a7 9d fd 3e
       -0.07556686 0.06764105 0.11399688 0.49534342
000390 7d b2 0b 3f 4d 77 21 3d 86 80 26 3f a7 e5 35 3f
       0.54569227 0.039420415 0.6503986 0.71053547
0003a0 10 ae 17 bf a0 bc 1d 3d 1a 80 11 be 48 6a 42 be
       -0.59249973 0.038509965 -0.14209023 -0.18985856
0003b0 b4 04 a2 3d 4c 94 ad 3d 00 57 a9 3c ec c0 76 3e
       0.07911053 0.08475551 0.020671368 0.24097031
0003c0 f9 ff ea bd ec f2 60 3e 35 6a 96 3e 62 2f 01 3f
       -0.11474604 0.21967667 0.29377905 0.50462925
0003d0 d2 1a 67 bd dd a8 54 3f 20 0b 9e be 3a 62 c4 be
       -0.056422062 0.83070165 -0.30867863 -0.3835619
0003e0 c0 c1 5b 3e 9c ee 8a bd 36 03 72 3e 80 71 bd 3d
       0.21460629 -0.067837924 0.23634037 0.09250164
0003f0 cc 7f 68 3e 40 4a 93 bb 00 af a1 3b 4a c8 d1 bd
       0.22705 -0.0044949353 0.0049341917 -0.1024328

critic.0.bias f4 [64]
000000 6c e5 d6 3e 71 3d 46 3e e5 5a 58 be ca 6e c9 be
       0.4197191 0.19359376 -0.21128424 -0.39342338
000010 ab 31 2d bd 37 f3 84 3e 4d 47 e8 be bf 82 06 3e
       -0.042283695 0.25966808 -0.45366898 0.13135813
000020 1c 6a 23 3f 4c c0 80 3e a6 1e 10 3f 67 bf 00 3e
       0.63833785 0.2514671 0.56296766 0.12573014
000030 f6 3c fa be 70 af 11 3f bf 4a 19 3f 0d 62 1f be
       -0.48874635 0.5690832 0.5987968 -0.15564747
000040 ec 31 04 3e 4c 05 32 3d 52 c3 00 be f8 6d 34 be
       0.12909669 0.043462083 -0.12574509 -0.17620075
000050 08 a7 2c 3e 2b 36 6a be a0 66 03 be 23 de 56 3e
       0.16860592 -0.22872226 -0.12832117 0.20983176
000060 7a 69 09 bf 25 17 64 3e 73 9e e2 be e5 58 02 3e
       -0.5367657 0.22274454 -0.44261512 0.12729223
000070 69 13 d4 3d 53 41 c5 3e ca 25 3e 3f 13 17 e8 bd
       0.10355265 0.385264 0.7427641 -0.11332526
000080 c5 2b c5 be 07 52 11 bd 9c 76 90 be 81 9c 00 3e
       -0.38509956 -0.035478618 -0.28215492 0.12559702
000090 f1 85 32 3e c4 ce f1 bc 2b 55 b5 3e 55 63 6a 3e
       0.17433907 -0.029517539 0.3541654 0.22889455
0000a0 3f 9c af 3e 34 da ae bd ac d2 b8 3d 27 53 88 bd
       0.34298894 -0.08537713 0.090245575 -0.06656485
0000b0 71 b8 78 3e 55 4a 3a 3e 76 37 83 3e 9d 54 ed 3c
       0.24289109 0.18192418 0.2562825 0.02897101
0000c0 e1 9c 0c bd 3c 1b 2c bd db 29 e2 3d 06 e4 87 be
       -0.0343293 -0.04201816 0.110431395 -0.26541156
0000d0 a2 71 21 3e e5 e6 84 bc 80 ee 1e 3f b0 b2 1d 3f
       0.15766004 -0.01622338 0.6208267 0.6160078
0000e0 34 40 bd bd 2b 36 45 3e 15 f2 a7 be e5 0c 3a be
       -0.092407614 0.19258945 -0.3280188 -0.18168981
0000f0 81 cd 2a 3e 6e 12 70 be fa 4e 7d 3e b6 8e 09 bd
       0.16679956 -0.2344453 0.24737158 -0.033583365

critic.2.weight f4 [64, 64]
000000 15 4d 26 3e 05 8a 00 bd a3 09 ad bd 30 5c 13 bd
       0.16240342 -0.031381626 -0.08449104 -0.03597659
000010 4f ee c8 bd fb 50 6c 3d 2f 7c b4 bd 12 fd e5 bd
       -0.09811079 0.057694416 -0.08812749 -0.1122991
000020 ec 26 c5 3a f3 f1 6f be f4 05 e3 3c eb 9d 83 be
       0.0015041507 -0.2343214 0.0277128 -0.2570642
000030 04 d5 61 3d 21 23 03 bd 82 60 cb 3d 9c 2c ae bd
       0.05513479 -0.032015923 0.09930517 -0.08504602
000040 e6 3f 2a bd 61 a3 3d be 5e b5 b6 bd e8 d7 2d bc
       -0.041564845 -0.18519355 -0.08921312 -0.010610558
000050 0c 49 61 3e a8 02 31 3e 64 e4 a8 3e aa 5b f3 bc
       0.22000521 0.1728617 0.32986748 -0.029706795
000060 ba 2e d6 bd 1b 92 6f be fe 50 12 be 08 e9 8b 3e
       -0.10458131 -0.23395579 -0.14288709 0.27326226
000070 ed fc 56 3d 49 54 68 be a7 8b 09 3d 2c e3 04 3e
       0.052487303 -0.22688402 0.03358045 0.12977284
000080 01 97 71 be c1 c9 0e 3e b8 08 2d be 89 7d 27 3e
       -0.2359276 0.1394415 -0.16897857 0.16356482
000090 31 cc bf 3e a4 4c a7 3e 25 31 c5 bd 85 f2 87 3d
       0.37460473 0.3267566 -0.09628514 0.06638054
0000a0 f1 da d1 3d 3d 21 f8 bc 92 ed db 3c d6 51 57 bd
       0.10246838 -0.030289287 0.02684668 -0.05256828
0000b0 c7 35 43 3e 02 f9 3d 3e 96 38 d2 3c 82 40 bc 3d
       0.19063483 0.1855202 0.025661748 0.091919914
0000c0 28 d9 8a be d6 c3 8d be 7b be 5a 3e 6e a9 45 be
       -0.27118802 -0.27688473 0.21361725 -0.19302914
0000d0 22 73 c9 bc 07 c9 42 bd f0 51 a4 bd a0 08 91 bc
       -0.024591032 -0.047554996 -0.08023441 -0.017704308
0000e0 6f 8b e1 bd 42 2b ba 3c 03 39 cb bc 4d 63 90 bd
       -0.11012923 0.022725705 -0.024807459 -0.0705019
0000f0 5c f3 aa 3c 58 a1 f4 bc 1a f5 4c 3d 52 79 1b be
       0.020867996 -0.029862091 0.050038435 -0.15182999
000100 9f e8 5a 3e 48 48 06 be 22 b2 aa 3c 58 5b 2b be
       0.213778 -0.1311351 0.020836893 -0.16734064
000110 01 f5 1b bd cb 71 42 3e 47 d7 a2 bd 69 d3 bf bd
       -0.03807545 0.18988721 -0.07951217 -0.09366495
000120 5e fe 52 3d 30 b9 15 bd 64 8b 9c 3c 06 d3 01 be
       0.051512115 -0.03655356 0.019109435 -0.12678155
000130 78 04 d1 bd ca 69 62 3e 49 35 9a 3d 6b b7 15 be
       -0.102059305 0.22110668 0.075296946 -0.1462075
000140 ce 83 8d be 48 f2 2f be 33 a6 45 3d 41 bc 85 3d
       -0.27639621 -0.17182267 0.048254203 0.06530047
000150 75 73 3a bd f0 49 88 3e dc 4a 72 bd bd da 89 bd
       -0.045520265 0.2661891 -0.059153423 -0.06731174
000160 2d d7 8a bd 4b c7 11 be ee 1c 74 be b7 70 d8 3d
       -0.06779323 -0.1423618 -0.23839161 0.10568374
000170 52 0f fc 3d df 93 03 3e e4 38 be 3d d1 5c 3d be
       0.123076096 0.12849377 0.09288195 -0.18492438
000180 86 6d 2b be a5 c6 a0 3e 7d 1e ba bd 28 c1 04 3f
       -0.16740999 0.31401554 -0.090878464 0.51857233
000190 0f 27 be 3e 65 68 9f 3d c7 93 53 3d 58 70 ca 3e
       0.37139174 0.077835836 0.051654603 0.39538836
0001a0 22 5b bb be 5d 1b 1c 3f a8 3a 9a 3e ce 12 1d be
       -0.36592966 0.60979253 0.30122876 -0.15339205
0001b0 45 a1 e9 3c 98 1a c7 3e bd de 5f 3e 05 bb 05 3f
       0.028519282 0.38887477 0.21862312 0.52238494
0001c0 65 40 8a be 05 17 f0 bd 6d aa 6d 3e be 08 4b bd
       -0.27002254 -0.117231406 0.23209544 -0.049568884
0001d0 f1 30 56 3e 3d 1e 44 3d 3a e8 fb bc d2 6c 67 b9
       0.20917107 0.0478804 -0.030750383 -0.00022070415
0001e0 4f e3 f8 bd 56 b5 fd 3d a0 ba 6e 3d 98 1e 8b 3d
       -0.12152731 0.12388103 0.05828345 0.06792945
0001f0 eb cf 9a bd b9 83 aa bd cb b1 98 3d e7 c6 bb be
       -0.075591885 -0.08325905 0.07455786 -0.36675188
000200 23 75 92 3e 7d 68 4f bd 59 20 b9 3d 88 86 ab bc
       0.28604993 -0.050636757 0.09039373 -0.020938173
000210 f5 76 cb 3c 8d fe cf 3d 6b 10 5b bc 81 3c a8 3c
       0.024836997 0.101559736 -0.013370614 0.020536663
000220 55 8f 56 3e bd 3d 41 be 21 97 68 3e 0b 11 81 bd
       0.20953114 -0.18871208 0.22713901 -0.06302079
000230 92 94 0d be 5b 2b c7 b8 68 d9 b5 3d 8f 3e 66 be
       -0.13826206 -9.497135e-05 0.088793576 -0.22484802
000240 7a 09 18 bc b2 df 04 be aa d0 8e 3d e9 0f 3c bd
       -0.009279603 -0.12975958 0.06973393 -0.04591361
000250 b4 af 90 bd 64 f4 48 3e 42 8b 93 3e d6 c0 d9 3b
       -0.07064763 0.19624478 0.28817183 0.0066453023
000260 74 cf 05 be be 58 40 bd 78 2c 05 be 39 67 1d 3e
       -0.13067418 -0.04695963 -0.13005245 0.15371408
000270 2f 80 45 3e 8b 67 39 3d e1 8a 66 3e 27 3a 87 bd
       0.1928718 0.045264762 0.22513916 -0.066028886
000280 b9 5c c9 bc 10 17 03 be 0c d2 2f bd 96 2d 08 3c
       -0.024580346 -0.12801766 -0.042924926 0.00831165
000290 c7 aa 7f bd 6a 7a 34 3d 21 75 aa 3d fc 8a a3 3d
       -0.062418725 0.044062056 0.08323122 0.079854935
0002a0 ec e9 09 3b 1b f2 94 bd b9 27 5e 3e 98 0f 2f be
       0.002104397 -0.072727405 0.2169484 -0.17095792
0002b0 a3 43 38 3e 60 33 67 3d d9 58 88 bd 0c 11 4a 3e
       0.17994551 0.05644548 -0.06657571 0.19733065
0002c0 d9 e4 cd 3d e7 d6 cd bd fb 95 3a bc d3 49 02 be
       0.10053415 -0.10050755 -0.011388297 -0.12723474
0002d0 28 f6 f7 3d 86 a2 52 bd 82 47 2a 3e 87 c1 46 3e
       0.121074975 -0.051424526 0.1662884 0.19409762
0002e0 ec 91 cc bd a0 fe 24 3d 71 ff a0 bd bd 22 90 3d
       -0.0998877 0.04028189 -0.078612216 0.07037876
0002f0 e4 1f 4a 3e d1 53 13 3e 28 6e 4e be 39 41 96 bd
       0.19738728 0.14387442 -0.20159209 -0.07336659
000300 91 ca 24 be 60 8b e6 ba 8a 8c 02 3e 7d 55 6d bd
       -0.16092898 -0.0017589144 0.12748924 -0.057942856
000310 9d 37 f6 3e a5 3c 0d 3e a6 22 6f 3c 03 6a 5c 3e
       0.48089305 0.13792665 0.014595663 0.21524815
000320 fb 47 85 3b 57 b0 9b bc d4 9a 86 3d da 02 b9 bc
       0.0040674186 -0.019004984 0.065725 -0.022584368
000330 24 e0 51 bc 94 96 97 bd 09 ab 6e 3d 96 ca c3 bd
       -0.012809787 -0.074017674 0.05826858 -0.095601246
000340 82 de 0e be d9 3e a4 3e e6 77 18 be 77 be 9c 3d
       -0.13952067 0.320792 -0.14889488 0.07653516
000350 bf 71 4d 3e ce f4 3d be 1f 3d 21 be 93 63 99 3e
       0.20062922 -0.18550417 -0.15745972 0.29958782
000360 5a cd f8 bd 59 b1 93 3e 00 05 c3 3c 22 58 90 bd
       -0.12148543 0.28846243 0.023806095 -0.0704806
000370 37 2d 56 3d ac 8d e4 3b 85 7f c8 3d c5 e0 9f 3d
       0.052289214 0.0069748964 0.097899474 0.07806543
000380 2b 99 32 3e 65 9f b9 be b4 50 a0 3c a5 f2 cb be
       0.17441241 -0.3625442 0.019569732 -0.3983356
000390 62 b1 b6 be 42 67 06 be b0 9d f0 3c 9c 18 b0 3c
       -0.35682207 -0.13125327 0.029372066 0.02149611
0003a0 1b 34 b6 3e 5b 2b dd 3c 93 f7 0a be 79 38 85 3e
       0.35586628 0.026998213 -0.13571005 0.26019648
0003b0 05 b2 29 3d 9e 7b 32 be 98 9e 09 3e eb a8 2b be
       0.04142954 -0.17429969 0.13439405 -0.16763656
0003c0 db a7 92 3e 6d b4 e8 3d 04 ca 8e be d4 b5 0e bd
       0.2864369 0.113625385 -0.278885 -0.034841374
0003d0 eb 00 73 bd 58 cc 6b bd ef c3 fa bd 41 66 b1 bc
       -0.059327047 -0.057567924 -0.122444026 -0.021655204
0003e0 90 a5 98 3e 06 4f 6b bd 21 e7 c3 bd 44 9c 49 bd
       0.29813814 -0.05744841 -0.09565569 -0.049221292
0003f0 00 15 92 bd e8 e2 7c bd 7a e2 c6 bc 08 4a 8a 3e
       -0.07132912 -0.061739832 -0.024277914 0.27009606

critic.2.bias f4 [64]
000000 da 4b 7b bc 20 88 ef 3d a0 40 81 3e cd 07 e0 3d
       -0.015337909 0.11695886 0.25244617 0.10938988
000010 e3 00 8c bd a5 12 0f bc f7 de 3d be b9 85 6c 3c
       -0.06836107 -0.008732473 -0.18542086 0.014436179
000020 6f 46 2a 3e 3c 2d e9 bc 5c cd 1c be 51 18 86 bd
       0.16628431 -0.028463952 -0.15312713 -0.06547607
000030 1e 85 a8 3d 5e a2 81 3d 45 6a 2e 3e 05 d6 55 3d
       0.08228515 0.06329797 0.17032726 0.052206058
000040 1f c7 41 bd e7 cb 11 be aa 9d a9 3c d9 f2 6f be
       -0.047309037 -0.14237939 0.020705063 -0.23432483
000050 41 c0 a6 bc 51 73 63 bd 24 be 5c bc 75 2a 01 bd
       -0.020355346 -0.055529896 -0.013473067 -0.03153463
000060 be 23 1c bd 64 a4 93 bd 75 7e 00 3c bc f7 c4 bd
       -0.038120024 -0.072090894 0.00784265 -0.09617564
000070 35 54 96 3c ac c9 4c 3e c4 33 28 3e 10 76 17 bd
       0.0183507 0.19998807 0.16425997 -0.036977828
000080 6e 29 9e 39 4c d9 c2 3d 0a 14 31 bd 39 9b 11 be
       0.00030166976 0.09514102 -0.043232 -0.14219369
000090 52 3c ac bd c6 95 0d bd 94 75 6b 3d 76 18 02 3e
       -0.08409943 -0.034566663 0.057485178 0.12704644
0000a0 73 2b 24 3e 46 de 1f 3d 4c 87 10 bd 04 56 b3 bd
       0.160322 0.039030336 -0.03528528 -0.087566406
0000b0 79 3b 42 3e f1 9d e5 bc ab 7b 4c 3e 55 45 05 3e
       0.18968 -0.028029414 0.1996905 0.1301473
0000c0 f0 21 ed bd 93 ae 33 3e 6a df 21 3d 7a 89 75 3c
       -0.11578739 0.17547064 0.039519705 0.01498639
0000d0 83 59 06 be 28 ef 09 be ac 6a 13 be 0a 58 bd 3d
       -0.13120084 -0.13470137 -0.14396161 0.09245308
0000e0 79 e0 00 3e c2 1d 3b 3e 1f 9d 67 3d ce 5b 9a bd
       0.1258563 0.1827307 0.056546327 -0.075370416
0000f0 d5 48 44 be 6e 12 45 3d 03 13 c5 bd ba 31 9f bd
       -0.19168408 0.04811328 -0.09622767 -0.077731565

critic.4.weight f4 [1, 64]
000000 36 94 43 be 15 94 21 be 7b 7a 96 be b4 02 a2 be
       -0.19099507 -0.15779145 -0.2939032 -0.31642687
000010 f2 35 90 3e 53 b6 a8 be 47 1f a4 3e 0a 4b ea bd
       0.28166157 -0.32951602 0.32055113 -0.11440094
000020 b7 c3 b1 be e3 6f 4f 3e 26 35 8d be c2 70 57 be
       -0.3471963 0.20257525 -0.27579612 -0.21039107
000030 d7 53 82 3e 38 09 64 be eb 7e 6b be 34 95 3c 3e
       0.2545459 -0.22269142 -0.22997634 0.18416291
000040 45 80 7b be 4e 24 a8 3e 7b 71 64 be b3 d8 b9 3e
       -0.2456065 0.32840198 -0.22308914 0.3629814
000050 e3 1e a4 3e 42 73 81 3e cf 04 67 be 74 c1 ab 3e
       0.32054815 0.25283247 -0.22560428 0.3354603
000060 cf 6f 5c 3e 7e 80 cd 3e 95 ab 63 3e 0f 6a 9a 3e
       0.21527027 0.40137094 0.22233422 0.3015904
000070 a5 a6 2e be 92 ce 67 be 34 b9 93 be 20 2e 8d 3e
       -0.17055757 -0.22637394 -0.28852236 0.27574253
000080 e4 85 41 be 17 61 61 be 90 81 ab be 53 17 cb 3e
       -0.18898731 -0.22009693 -0.33497286 0.39666232
000090 35 a5 41 3e b2 60 4d be a4 b4 9b be b5 db 7b be
       0.18910678 -0.20056418 -0.30411255 -0.2459553
0000a0 f6 3e 7b be 30 30 bf 3e 66 69 06 3e 88 23 a3 3e
       -0.24535736 0.37341452 0.13126144 0.31863046
0000b0 09 19 be 3e 51 b5 a7 3e 8d e5 d5 be 77 47 4c be
       0.37128475 0.3275552 -0.41776696 -0.19949137
0000c0 54 2c 07 3e 1f 15 91 be 42 ad 36 3e 5f 32 94 be
       0.13200504 -0.28336427 0.1783953 -0.2894468
0000d0 34 5f 84 3e fa 73 46 3e 50 07 91 3e 4f 75 97 3e
       0.25853884 0.19380179 0.28325891 0.29581687
0000e0 f3 de 8c be ee 51 79 be 78 fb 62 be 41 cb 00 3e
       -0.27513847 -0.2434766 -0.2216624 0.12577535
0000f0 54 98 0d 3f 24 04 25 3e 8c 05 49 be d1 8d 61 be
       0.5531056 0.16114861 -0.19631022 -0.22026755
