models/025_Optimal_Phase1/025_Optimal_Phase1_best.pth (torch, 47090 bytes, 11 tensors)

actor.0.weight f4 [64, 15]
000000 cc dc de bd 4f 4d 8e 3d d8 4f 66 be 3b 6d 40 be
       -0.108819574 0.06948339 -0.22491395 -0.18791668
000010 27 13 78 3e 61 f6 c7 3e 7b 82 80 bc fb 5b 66 3e
       0.24226056 0.3905516 -0.015687218 0.22496025
000020 83 f0 c7 bc 09 96 9b bd 2c ce 35 be 0e 13 b0 bd
       -0.024406677 -0.07596976 -0.1775443 -0.085973844
000030 5f d4 52 be 34 81 f9 3d ea 53 40 be 7e 9d 54 be
       -0.20588826 0.12182847 -0.1878201 -0.20763204
000040 df 55 2b bd a9 27 87 bd df e5 f2 bc 04 39 54 3f
       -0.04182994 -0.065993614 -0.029650627 0.828995
000050 05 de 1b be e4 17 11 3d 5a ba de 3d 92 fa ab bd
       -0.15221412 0.035423175 0.108753875 -0.08397402
000060 05 0b 37 be a0 53 34 3e 00 30 c0 3a 93 6f 83 3e
       -0.17875297 0.17610025 0.0014662743 0.25671062
000070 1e e1 65 3e f7 98 1f be 35 9f e2 bd 50 e7 24 be
       0.22449157 -0.15585695 -0.110655226 -0.16103864
000080 ea 13 b3 3e b2 1f 6c 3d a7 4a 80 3e 22 dd 25 3e
       0.3497613 0.057647415 0.25056955 0.16197637
000090 84 29 34 3d 24 21 4b be b1 74 6b be c7 b8 a9 bd
       0.043984905 -0.19836861 -0.22993733 -0.082871966
0000a0 6b e8 f7 3d 98 8c ab 3d 68 1c c2 3d 80 ac 01 3d
       0.12104877 0.083764255 0.09478074 0.03165865
0000b0 4d c8 43 be 11 ac 2a 3e 0b 29 05 3e 89 6a 1c bb
       -0.19119377 0.166672 0.13003938 -0.002386721
0000c0 47 a8 b1 be 95 1e 29 be 38 72 09 3e 9f 80 35 bc
       -0.34698698 -0.16515572 0.13422477 -0.011078029
0000d0 f2 d7 91 3d ef 86 34 bf 80 9e d8 3d c5 fc 08 3d
       0.071212664 -0.7051839 0.105771065 0.033444185
0000e0 b8 4c b5 3d f8 19 40 3d 14 89 80 3d c8 0f 49 bd
       0.088525236 0.046899766 0.062761456 -0.049087316
0000f0 3f f5 5e 3e d4 9a b9 3e 9d 74 c0 bc 02 00 af 3c
       0.21773241 0.36250937 -0.023493106 0.021362308
000100 bd 49 de bb 70 32 fd 3e 6b 5b 3d bd 33 23 06 3e
       -0.0067836926 0.49452543 -0.04622976 0.13099365
000110 13 22 da bd a8 f3 d4 bd 79 3d 78 3e 86 73 8e bd
       -0.106510304 -0.10398036 0.242422 -0.06955628
000120 b4 12 13 3e da 1e 0a 3e 88 34 10 3d ea f7 94 be
       0.14362603 0.13488331 0.035206348 -0.29095393
000130 9e 32 8f 3d 74 d3 aa 3d 06 de 32 3e 1f af 0d 3f
       0.06992076 0.08341113 0.17467508 0.5534534
000140 a4 c4 03 ba 43 b1 b0 3c a2 ba 21 bd 97 8d f7 3c
       -0.0005026555 0.0215689 -0.039484628 0.030218882
000150 2b e3 b7 3c b5 85 30 3e 58 10 5f 3e ae d0 4a be
       0.02244719 0.17238505 0.21783578 -0.19806167
000160 ee 4f 33 be 19 b6 80 3e 0b 2b 2e be 39 0c 6f bd
       -0.1751096 0.2513893 -0.17008607 -0.058361266
000170 3b 1b 11 bd ef 6d 59 be 95 49 90 3e 90 9a 0b be
       -0.03542636 -0.21233343 0.2818114 -0.1363318
000180 98 7b eb 3c a9 40 66 be 82 96 35 bd 9b 81 83 be
       0.028745458 -0.22485603 -0.04433299 -0.2568482
000190 bb 5e 40 be 6c 69 19 be a8 6e 37 bd 42 2b dd bd
       -0.18786137 -0.14981622 -0.044783264 -0.107992664
0001a0 60 2d 7b be e6 5d 8c bd 30 ba 31 3d d3 06 be 3c
       -0.24529028 -0.06853847 0.043390453 0.023196613
0001b0 36 cf 44 3e e0 e6 9b be 27 d0 cb 3e c7 50 30 3c
       0.1921967 -0.3044958 0.39807245 0.010761446
0001c0 f7 c1 3d 3e 03 61 0f 3e 7f 77 0f be ff a1 21 bd
       0.18531023 0.14001851 -0.14010428 -0.039461132
0001d0 10 17 0d 3d 10 5b 3f 3e 90 63 7a bc 8c 44 81 be
       0.034445822 0.18687081 -0.015282527 -0.2524761
0001e0 27 e8 04 3e 03 0c 99 3e 15 3b c3 bd 16 a9 4c 3d
       0.12979184 0.29891977 -0.095327534 0.04996594
0001f0 81 ce 26 bf 1a db 1f 3e cf a7 e6 bd ea 46 d1 3c
       -0.6515885 0.15610924 -0.11262476 0.02554651
000200 ef f7 13 be 46 e2 3b be b6 b8 4a bd 04 57 01 3e
       -0.14450048 -0.18348035 -0.04949256 0.1263085
000210 2e c4 26 be 98 ba 17 bd 6e 8f 3b 3e 99 58 10 3d
       -0.16285774 -0.037043184 0.18316433 0.035240743
000220 5a f0 aa ba f8 be 49 be 64 48 e1 bd 3a 7a 13 3f
       -0.0013041601 -0.19701755 -0.110001355 0.5760838
000230 e0 51 36 be 22 f8 ad 3d f4 9b 33 3e 28 aa cb be
       -0.1780467 0.08494593 0.1753996 -0.39778256
000240 38 e0 8e 3e 3c 57 86 be ea a9 46 3e 76 2d df bd
       0.2790544 -0.2623843 0.19400755 -0.10897343
000250 c0 da 97 3c e8 31 cf 3d 2e 1d a5 3e bd b1 90 bd
       0.018536925 0.10116941 0.32248825 -0.07065151
000260 cb 48 41 3d 1c c1 7f 3e b8 7b 1f bf e3 58 0d 3e
       0.04718856 0.24976009 -0.62298155 0.13803439
000270 35 02 d3 bd fc f1 a0 3d 3f b6 a7 be 2d e9 38 be
       -0.10303155 0.07858655 -0.3275623 -0.180577
000280 2a 0a bf 3e d8 cc ca 3d 51 45 7d be 80 4d 1a 3c
       0.37312442 0.09902352 -0.24733473 0.0094178915
000290 66 3c 0a be 71 cb 69 3e b7 cd c3 bc 33 e8 35 bc
       -0.13499603 0.22831513 -0.023901803 -0.011102724
0002a0 2b fa 09 be 1c 1b 89 3f ec 7a 5c 3e df 7e 83 bd
       -0.13474338 1.0711398 0.21531266 -0.06420683
0002b0 6f 11 27 bd 83 6b 99 be 80 ef b7 bd 8d 22 e0 3e
       -0.04078811 -0.29964837 -0.08981228 0.4377636
0002c0 a0 ea 87 3c de 15 35 3e 08 34 bb 3d 94 21 37 be
       0.01659137 0.17684123 0.091407835 -0.17883903
0002d0 5e 64 55 3e 34 bd d1 bd a2 98 83 3d 7b 41 15 be
       0.20839068 -0.10241166 0.06425597 -0.1457576
0002e0 f7 9a fa 3e 8b 5c 69 bc f0 fd 37 3e 7d 16 78 3d
       0.48946354 -0.014243255 0.17967963 0.06056832
0002f0 21 b5 81 3d b3 31 8f be a1 10 66 3e 2d f0 6b be
       0.06333376 -0.27967605 0.22467281 -0.23040839
000300 b0 0e 65 3d 1e 1c 9c bd 68 f9 5c be 23 3c 95 be
       0.05592221 -0.076225504 -0.21579516 -0.29147443
000310 66 c3 99 3d 8f 5f 96 3e ad 32 fb bc 38 07 12 3e
       0.075079724 0.2936978 -0.030663813 0.14260566
000320 54 1d cf be c0 59 02 3e 33 88 44 be 0b b6 b4 3e
       -0.40452063 0.1272955 -0.19192581 0.35295138
000330 a6 25 81 3e df d4 b2 bc 06 02 a3 bd be 5d 3f 3e
       0.25224036 -0.02183002 -0.0795937 0.18688104
000340 84 f3 f7 3d d0 aa bb 3c f0 10 be 3d d6 31 b5 bd
       0.12106994 0.022908598 0.09280574 -0.08847396
000350 ab 13 51 bd de 90 62 3c d1 52 52 3f 55 02 d6 bc
       -0.051044147 0.013828484 0.8215762 -0.026124159
000360 44 81 a1 bd 3a 4d 10 3e 78 84 dd 3e 6f 98 eb 3d
       -0.078859836 0.1409196 0.43265128 0.11503684
000370 09 e1 1a 3e e6 f9 a8 bd 82 27 02 be 5c 36 0b 3e
       0.15124907 -0.08250789 -0.12710384 0.13594955
000380 5e cf 7d 3e 79 68 6d 3e ee a4 75 3d fc fd 2b 3e
       0.24786136 0.23184384 0.059971742 0.16796106
000390 81 a5 17 be b5 2f cf 3c 2d 08 d0 b9 94 88 b2 bd
       -0.14809228 0.025291303 -0.00039678943 -0.087174565
0003a0 05 7f b8 bd 2e 90 1c 3e 8d 55 5f 3e b9 b0 be 3b
       -0.09008602 0.15289375 0.21809979 0.005819407
0003b0 20 6a 50 3e 4c 7e d2 3d 1a 26 67 3e b2 e6 46 3e
       0.20352983 0.102779955 0.22573128 0.19423941
0003c0 1d 0c 8b 3d a6 63 29 3d de c6 24 bf 5f 6e db 3b
       0.0678942 0.041354798 -0.6436595 0.006696507
0003d0 0b c8 9e 3e 2a a8 ee bd 00 46 ec ba 6e 66 92 be
       0.31011996 -0.116531685 -0.0018026233 -0.28593773
0003e0 2d 89 13 be b5 30 aa 3c 89 15 ab be 00 21 9f bb
       -0.14407797 0.020775178 -0.33414868 -0.004856229
0003f0 3b 1b 82 3e 7a 3f 7c 3e 1c cf f5 3d a0 5f 76 be
       0.254114 0.2463359 0.120023936 -0.24059916

actor.0.bias f4 [64]
000000 56 d6 25 3e b9 29 e6 bd 73 af 3a 3d ce 86 93 3d
       0.16195044 -0.11238427 0.045577478 0.07203446
000010 00 4d b6 bd 31 2d 93 3d 36 63 60 be b0 bf 51 3c
       -0.08901405 0.07186354 -0.21912846 0.0128020495
000020 8f aa 7f 3e a9 72 0e be 7f a4 86 3e f8 12 14 3e
       0.24967407 -0.13910927 0.26297376 0.14460361
000030 ef fa 01 be 8a fb 49 be 16 2a ed bd 2a aa 81 3e
       -0.1269338 -0.19724861 -0.11580293 0.25325137
000040 d3 c7 bd 3d e0 c9 29 be d8 6c 8c be d1 54 aa 3b
       0.09266629 -0.16580915 -0.2742679 0.005198099
000050 56 7e 26 3e 5e b8 db 3b 0f be 58 be 84 85 df bd
       0.16259131 0.006705328 -0.21166252 -0.10914138
000060 ef eb a0 bd 0a cd 87 be 66 85 a7 3c 6c f6 83 3d
       -0.07857501 -0.2652362 0.020449352 0.064434856
000070 30 49 9e 3a 2e 3a a6 3e 1d f0 c2 3b 62 46 62 3d
       0.0012076255 0.32466263 0.005949034 0.055242904
000080 a5 50 d5 3d e4 21 a0 be c6 14 c6 3d 71 9b b0 bd
       0.10415772 -0.31275856 0.09671931 -0.08623398
000090 db 17 00 3e 49 64 2a be a3 0b 4f be 68 fe e9 bd
       0.125091 -0.16639818 -0.20219283 -0.11425477
0000a0 b8 02 ed 3d 3d 7e ea bd 6e 5e e1 bb 4c 61 b1 3e
       0.11572784 -0.11449859 -0.006877712 0.34644544
0000b0 63 2d 8d 3c 08 d4 f0 bd f3 27 f8 bd 15 b3 13 be
       0.017233556 -0.11759192 -0.12116995 -0.14423783
0000c0 21 5f 3d be da 15 9c bd 35 54 65 be fa de 52 be
       -0.1849332 -0.07621355 -0.22395404 -0.20592871
0000d0 a5 13 a8 bd bb 23 2c 3e c8 56 07 3b 79 fe 77 3e
       -0.08206872 0.16810505 0.002065109 0.24218167
0000e0 d0 ec 3a be b8 bd 8e bd 1c 44 15 be cc 60 4a bd
       -0.182544 -0.0696978 -0.14576763 -0.04940872
0000f0 87 12 05 3e 98 db 4f bd b4 01 60 3d 1a 77 9a be
       0.12995349 -0.05074653 0.054689124 -0.30168992

actor.2.weight f4 [64, 64]
000000 99 30 bd bd 07 ac 2e 3d 93 f0 3b 3c 45 10 9d bd
       -0.09237785 0.042644527 0.011470932 -0.07669119
000010 ca 55 82 be cc 7c ee bd eb dc 13 3e b1 ab 34 bd
       -0.25456077 -0.11644897 0.14439742 -0.04410905
000020 8b ef b5 3d 8f ec be 3c ba a7 95 39 67 65 16 be
       0.0888358 0.02330616 0.0002854446 -0.1468712
000030 bf 28 b4 bd 75 48 65 bb 19 7f 1a 3c 69 a4 cd 3c
       -0.08796834 -0.0034985815 0.0094297165 0.025102811
000040 d7 eb e9 3d 2a f0 65 3d a6 15 16 be 72 10 17 3c
       0.11421936 0.05613724 -0.14656696 0.009220229
000050 03 48 90 bd 99 71 02 3e 25 c5 5a 3d b6 1e 41 3e
       -0.07044985 0.12738647 0.053410668 0.18859372
000060 90 70 84 3d 90 0f 2b 3e ca da 3c be 62 c0 1a bd
       0.06466782 0.16705155 -0.18442836 -0.037781127
000070 64 cf c4 3c 11 b2 aa 3d 9a 46 56 3d 59 95 0c be
       0.024024673 0.08334745 0.052313425 -0.13728847
000080 56 33 cb 3a 3a 56 02 3e 98 64 09 be 87 3e 0b bd
       0.001550297 0.12728205 -0.1341728 -0.033995178
000090 fc b6 15 3e 2e 95 60 bd 45 64 a4 bd 57 23 f9 3d
       0.14620584 -0.05482977 -0.080269374 0.12164944
0000a0 6e 59 ad 3d bc b2 d2 3d 7c df 14 bd 8d 11 93 3d
       0.08464323 0.10287997 -0.036345944 0.07181082
0000b0 d4 b1 92 3e 97 ee 90 bd 95 8c b5 bb 46 13 39 3e
       0.28651297 -0.070767574 -0.0055404403 0.18073758
0000c0 ef 79 5f bd e3 6a 63 be 70 5c 4f be ee 40 00 be
       -0.054559644 -0.22208743 -0.20250106 -0.12524769
0000d0 d5 4d 3a 3d 36 bf 71 3d af dd e5 bd 1c bf 81 be
       0.045484383 0.059020244 -0.112239234 -0.25341117
0000e0 4c 31 56 3e 12 b5 ba 3d bc 0e 4c 3d f3 3f ce bb
       0.20917243 0.09116568 0.04981874 -0.0062942444
0000f0 60 68 b7 bd 71 d3 4d bd 79 7b 9b 3d c3 82 e9 3d
       -0.08955455 -0.050250474 0.0759191 0.11401894
000100 61 5f 33 bb 19 46 98 bd 10 c4 cf bd 07 03 48 bd
       -0.0027370083 -0.07435245 -0.10144818 -0.048831012
000110 ba a3 a2 3c 6c 40 58 3d 15 3b c2 bd 16 36 ce 3d
       0.019853462 0.052795812 -0.09483925 0.1006891
000120 9b 27 99 bd d7 b5 27 bc 23 f6 f6 3c 83 c7 ec 3d
       -0.07478257 -0.010236225 0.030146664 0.11561491
000130 50 25 b8 3d ee 80 a2 bd 02 1e 70 bb f9 4e 8d 3d
       0.08991492 -0.07934748 -0.003663898 0.068998285
000140 77 48 1d 3d 18 40 47 3d e1 c0 3d bd 40 e3 b7 ba
       0.038399186 0.04864511 -0.04632652 -0.0014029518
000150 01 dd 1a bc 1a c3 49 bd d3 31 a0 3c 7b 31 26 be
       -0.0094521055 -0.04925833 0.019555008 -0.16229813
000160 a2 4f cc 3d 8a f9 ba bd 78 ae bc 3d b1 fb 4c bb
       0.09976126 -0.09129627 0.09212965 -0.003127795
000170 2a 2b a5 3d 24 9c b3 bd d9 9e b2 3d 58 2a 88 3d
       0.080648735 -0.08770016 0.08721704 0.066487014
000180 42 60 84 bd 91 99 81 bd 59 30 13 3c 5d 11 45 bd
       -0.06463672 -0.063281186 0.008983695 -0.048112262
000190 e6 22 6c bd b5 83 91 bd b0 f3 c7 3c 21 3c dd bd
       -0.05765047 -0.07105199 0.024408191 -0.10802484
0001a0 54 d4 d3 bb 28 be 82 bc 96 43 8d bd f1 00 6d 3c
       -0.0064645205 -0.015959814 -0.068976566 0.0144655565
0001b0 ad 6b 91 bd 98 77 8a bd db ad 12 3e 4c 25 8d bc
       -0.07100616 -0.06761092 0.14324133 -0.017229699
0001c0 59 83 e3 bd 0b 68 ad 3a 36 20 56 3d a0 09 a7 3d
       -0.11109037 0.001322986 0.052276812 0.08156133
0001d0 d2 43 07 bc e2 c3 59 3e 84 73 c0 bc cb 38 b8 bd
       -0.008255916 0.2126613 -0.023492582 -0.089952074
0001e0 83 da 27 be bb 17 25 3c a9 61 c6 bd c6 2b 14 be
       -0.1639195 0.010076459 -0.09686596 -0.14469823
0001f0 a8 c6 35 3e e5 bf 22 3c 3d bb 5e bc e6 64 94 bd
       0.17751563 0.0099334465 -0.013594446 -0.07245807
000200 ca 1e ba 3d eb ab b3 bd 79 5c 95 3d 00 d8 88 3e
       0.09087904 -0.08773025 0.072930284 0.26727295
000210 d5 ef 94 3d 1e d8 80 3a a0 b2 49 3d 00 80 e8 bd
       0.07272307 0.0009830033 0.049242616 -0.11352539
000220 f0 4c a0 3d e1 95 19 bd 1b 64 f6 bd f4 9f 4b bd
       0.07827175 -0.03749645 -0.12030812 -0.04971309
000230 ca 4f 7b bd 87 f9 b9 3d 21 47 52 3d fb 46 a9 3c
       -0.06135539 0.09080797 0.051337365 0.020663729
000240 d3 a8 ff 3c 45 9b bf 3c 0e 6c 8c 3d 0e b3 dc bd
       0.031208431 0.023389468 0.06856547 -0.107763395
000250 77 f4 ec 3b 3f 5f e3 bb a3 b0 2a 3d 91 25 9e 3d
       0.007231291 -0.0069388445 0.04167236 0.07722009
000260 3c 3f 8d bd fa a0 dd 3d eb 7c 42 bd 14 66 4a bd
       -0.068968266 0.108217195 -0.047482412 -0.049413756
000270 f9 90 e1 3c da 13 d9 bd c6 a1 43 bd 1e ba bc 3d
       0.027534949 -0.105994895 -0.0477617 0.092151865
000280 2b dd bb bd c5 bc 83 bd 22 cd dd 3d fb 70 63 3d
       -0.09173044 -0.06432489 0.108301416 0.05552767
000290 36 65 0b 3d 45 67 36 bd 6a 7a f1 bc fa e7 dc 3d
       0.03403207 -0.04453208 -0.029477317 0.107864335
0002a0 b7 71 18 3c 66 c3 d5 bd 35 48 06 3d 6c 95 e5 bd
       0.0093044555 -0.1043766 0.032783706 -0.112101406
0002b0 27 31 14 3e 60 38 81 3d ff 95 9e 3c da fa 75 bd
       0.14471875 0.06309581 0.019358633 -0.060053684
0002c0 e7 49 2c be 41 70 69 3c c0 12 b7 3d 38 67 01 bd
       -0.16825067 0.014247955 0.08939123 -0.031592578
0002d0 08 be 0d be c1 1a 12 3e da 57 c9 bd 7a 50 e8 3a
       -0.13842022 0.14268018 -0.098312095 0.0017724179
0002e0 ad 34 29 be eb e2 05 3d cc 4e e5 3d 1b 82 59 be
       -0.16524 0.03268711 0.1119667 -0.21241038
0002f0 be 26 fc bd 88 93 d5 bd 5e e0 a8 bd 70 d6 84 3c
       -0.12312077 -0.1042853 -0.0824592 0.016215533
000300 aa 2a d3 3d b5 86 0e 3e a6 20 c6 3c 74 7b ee 3d
       0.10310872 0.13918574 0.02418549 0.116446406
000310 8e 5f a7 bd f9 3b ca bc 60 0f b5 3d 89 d1 02 bd
       -0.081725225 -0.0246868 0.08840823 -0.03193811
000320 27 69 68 bd c4 df 0d 3e f6 5f 2e 3c 49 61 24 3e
       -0.056740906 0.13854891 0.010642996 0.16052736
000330 e7 96 44 3d 34 01 58 3d 2b 37 05 bc 0f 66 c7 3b
       0.047995474 0.052735522 -0.008130829 0.0060851644
000340 3c 05 63 be 17 a3 8d bb e6 b0 d0 3c b6 67 12 be
       -0.22169966 -0.0043224203 0.025474977 -0.14297375
000350 03 05 e9 bc 4f 93 db bd e4 00 0a bd b2 f1 64 3c
       -0.028444773 -0.10721456 -0.033692256 0.01397364
000360 b6 d3 16 be bf 58 b9 bd bc 5d 31 3e 08 61 92 bd
       -0.14729199 -0.0905013 0.17320913 -0.071474135
000370 9c 9f 99 3c 38 e6 87 bc 73 84 e2 bc 2a 18 4f 3d
       0.018752865 -0.016589269 -0.027651047 0.050560154
000380 07 f5 da bd 47 71 25 3d a1 32 65 bc dc 00 f6 3c
       -0.106912665 0.040391233 -0.013989122 0.030029707
000390 42 89 fe bd 78 36 01 3e 59 a7 7a 3d 29 5e 43 bd
       -0.124285236 0.12618434 0.06119475 -0.04769722
0003a0 e0 00 3b 3e e8 d9 0a 3e 60 d4 67 3d d4 7c 9a bd
       0.18262053 0.13559687 0.05659902 -0.0754334
0003b0 34 fb 8d bb 00 35 cc 3c 2f e3 98 bd 23 16 ce 3d
       -0.0043329243 0.024927616 -0.07465207 0.10062816
0003c0 5f 4e 8f 3d a9 2c dc 3d 10 55 b4 bd 76 f0 41 3d
       0.0699737 0.10750706 -0.08805287 0.047348462
0003d0 ce fe 8a 3d d6 52 6a bd d0 f8 6f bd 62 b8 fa 3d
       0.067868814 -0.057207905 -0.058586895 0.122421995
0003e0 f2 4a 45 3d 12 43 71 3d e3 45 b4 bd b3 ad 4d 3e
       0.048167177 0.058901854 -0.08802392 0.20085792
0003f0 07 c8 b2 bd a7 f2 ed 3d 13 08 ca 3d c3 7a 07 3e
       -0.087295584 0.11618548 0.09864821 0.13230424

actor.2.bias f4 [64]
000000 63 95 b6 3c 6f 17 34 3c b2 00 ed 3d 62 bc 7c bd
       0.02228803 0.010991915 0.11572398 -0.061703093
000010 13 4e cd bd af a2 7c 3d a5 dd 78 3d c0 e8 1d be
       -0.10024657 0.061678585 0.06075825 -0.15420818
000020 94 3c d2 bd c0 72 06 3e 4a 55 68 3d 07 8b fb 3c
       -0.102654606 0.13129711 0.056721963 0.030705942
000030 d6 19 cf 3d 56 10 a9 3d ae d7 06 bd 10 90 ae 3d
       0.1011235 0.08255069 -0.032920532 0.085235715
000040 18 47 d7 3c f0 5d 91 bd 64 83 22 3e 9c c9 10 3e
       0.026279017 -0.07097995 0.15870434 0.14139408
000050 66 0f 10 be 6d d0 18 bd ed e3 ab 3d bd 4c e9 3d
       -0.14068374 -0.037308145 0.08393083 0.1139159
000060 a0 67 ca 3d 94 50 f3 bd 8c d0 26 be 83 45 d1 3d
       0.09883046 -0.118806034 -0.16290492 0.102183364
000070 ee a8 e4 bc ae 85 17 be b9 54 9c bd 93 7d 92 3d
       -0.027912583 -0.14797089 -0.07633347 0.07152858
000080 f1 bf f6 3d a8 a8 76 bc 64 b7 62 bd e6 2b 15 be
       0.12048329 -0.015054859 -0.055350676 -0.14567527
000090 fb a8 c5 bd 29 f3 8c bd d3 22 9a 3c 6d 92 b5 3d
       -0.09651371 -0.068823166 0.018815434 0.08865819
0000a0 b4 26 4a 3d c8 8f b3 bd f9 d1 46 3d 52 42 af 3d
       0.049353316 -0.087676585 0.04854009 0.085575715
0000b0 57 1f 55 bd 12 cf 24 bd 92 d8 b3 bd ef dd 21 3d
       -0.05203184 -0.04023654 -0.08781542 0.039518293
0000c0 26 08 b9 3d 4e 55 80 bd 6e fd 91 3d b7 3c c5 bc
       0.09034757 -0.062662706 0.07128416 -0.024076803
0000d0 77 79 7b bd 87 0b bc bd f9 5d b9 bd f8 64 cb 3d
       -0.061395135 -0.09181886 -0.09051127 0.09931368
0000e0 21 c9 8d 3d d2 0b 35 bd c2 2e 87 bd da e9 17 3e
       0.06923128 -0.044200726 -0.06600715 0.14835301
0000f0 5e 45 c5 3c 2e 4b 8a 3d 2d aa ff bd 4c 01 0c bd
       0.024080928 0.06752621 -0.1248363 -0.034180924

actor.4.weight f4 [2, 64]
000000 98 93 8a bd 3b 84 08 bc ba a1 cb bb 6c 77 2f 3d
       -0.067664325 -0.008332307 -0.0062143477 0.0428385
000010 15 31 8f 3c f8 7a 38 3d 36 35 cc 3c 41 70 50 bd
       0.017479459 0.045039147 0.024927717 -0.050888304
000020 4d c9 00 bd a5 bc 84 3c 3c d8 93 3c 4f df 52 bc
       -0.031441975 0.016203234 0.018047445 -0.012870624
000030 94 2e 7b 3d a6 5a ae 3b 87 72 83 3c 29 f4 dd 3b
       0.061323717 0.0053208647 0.016045822 0.006773491
000040 5c cc 09 3c 02 1f f3 bc 3e 62 11 3d 74 fe 88 3d
       0.0084105395 -0.029677872 0.03549408 0.06689158
000050 c8 35 94 3d e6 af 7d 3d a2 95 c1 3d 84 7a 90 3c
       0.072368205 0.061935328 0.09452368 0.017636545
000060 b8 94 c8 3b bb 9e 87 bc 24 f1 82 3c bf 9c 17 bd
       0.0061212443 -0.01655518 0.015984125 -0.03701472
000070 96 7f 57 3c 17 0f 88 3c 59 04 4d bd 99 b3 1c 3b
       0.013152977 0.016608758 -0.050052974 0.002391076
000080 40 cf 24 bb b7 3c df bc d9 cd 96 bc 5f 01 10 bd
       -0.0025147945 -0.02725063 -0.018408703 -0.035157558
000090 de 05 fe bc 79 eb d1 bc 01 02 da bc fb 5d 66 bc
       -0.031008657 -0.025624977 -0.026612284 -0.014060493
0000a0 8b 4b 03 3c ef 65 e8 3c 4e 38 ee bd 15 31 7f 3d
       0.008013616 0.028368918 -0.11631833 0.062302668
0000b0 26 f6 ad bb e7 23 97 3c b0 51 53 bc 2a d0 04 3d
       -0.005308884 0.018449737 -0.012897894 0.032425083
0000c0 e3 28 5f 3c ee 1e 8e 3d fa 49 55 bd f4 3d e7 3b
       0.013620588 0.06939493 -0.052072503 0.007056946
0000d0 82 80 d4 bb dd 5a 05 be c4 c8 86 3d cf 75 d5 3b
       -0.006485046 -0.13022943 0.06581262 0.006514288
0000e0 f5 21 07 3d d1 61 b4 bc ed 9d 51 3d c6 41 1c bc
       0.03299137 -0.022019299 0.051176 -0.009537166
0000f0 5e b6 d0 3c 6b fb 59 bc 54 32 00 bb dd e7 33 bb
       0.025477584 -0.013304572 -0.0019561248 -0.0027451434
000100 a8 c2 29 3d b7 10 e1 bc b7 c0 1c bc d2 a0 35 3d
       0.041445404 -0.02747379 -0.009567431 0.044342823
000110 4b 25 9f 3d f4 8b a9 3d 27 b1 ce 3c 0b 38 a2 3d
       0.07770785 0.08278647 0.025230957 0.079208456
000120 4e 7e 9a 3d 5d 83 13 bb 90 68 d3 3c 72 a2 92 3c
       0.07543622 -0.0022508719 0.025806695 0.017899726
000130 48 b6 87 bd 6b 62 15 bd e7 99 8d bd 11 f2 af 3b
       -0.06626564 -0.03647081 -0.0691412 0.0053694327
000140 6c 66 c3 3c e9 15 34 3d b9 86 2e bd 8d b4 73 bd
       0.02385255 0.043966208 -0.04260895 -0.05949836
000150 69 da fd 3d 8d c7 90 3d 13 55 f6 bb b2 ee a8 3c
       0.12395174 0.07069311 -0.007517466 0.020621631
000160 b6 7c 59 ba 51 ca d7 3c de 01 1f bc 84 20 7f 3c
       -0.00082964764 0.02634159 -0.009705035 0.015571717
000170 bc 21 66 3d 39 4d fc 3c 90 7f e5 3c 09 6d 8e bc
       0.056184515 0.030798541 0.028014928 -0.017385976
000180 f9 e2 be bc 7b 91 ba ba 75 99 c1 3b 82 f0 0b 3d
       -0.023301588 -0.001423403 0.005908186 0.034164913
000190 70 8e 11 3e 82 9c 07 bd 7a d8 f3 3b 5c bb 0b 3d
       0.14214492 -0.03310824 0.0074415775 0.034114227
0001a0 1f ed c4 bb 5c 36 29 3c 04 03 18 3e fa 1e 10 bd
       -0.0060097123 0.010327902 0.148449 -0.03518579
0001b0 cb 7f 40 bd 95 e5 2d bd 2f 8e 93 3d fe 42 83 3d
       -0.046996873 -0.042455275 0.07204854 0.06409262
0001c0 ea 7e 05 be 71 99 17 3d 93 2c 8c bd d2 64 db bb
       -0.13036695 0.037011568 -0.06844439 -0.0066953683
0001d0 43 b6 d9 3c 1c 50 fe 3d 8c 26 8f 3d d8 06 8b bd
       0.026576167 0.124176234 0.06989774 -0.06788415
0001e0 88 30 13 3e 09 65 70 bc 85 84 89 3d 8b d0 ee bc
       0.14373982 -0.014672526 0.06714729 -0.029152175
0001f0 a5 ac 8a bd de 8b 6e bd fe 48 a7 3c 67 0e 1a 3d
       -0.067712106 -0.058238856 0.020420548 0.03761139

actor.4.bias f4 [2]
000000 5f fa 7f 3d 82 b4 a2 bd
       0.06249463 -0.079445854

critic.0.weight f4 [64, 15]
000000 fd c7 ed 3d 34 15 5c be ee 73 a2 bd 93 74 04 be
       0.1161041 -0.21492463 -0.07932268 -0.12935095
000010 3f 9c a6 be 83 99 13 be 6a 0c 89 be e9 09 ac be
       -0.3254108 -0.14414029 -0.26767284 -0.3360131
000020 5e 0a e4 3d 64 8c 83 3e 7c e6 8e be 79 25 67 be
       0.1113479 0.25693047 -0.2791022 -0.22572888
000030 58 da 73 3e a2 1e eb bd e0 2b c3 bd 2a 94 2c bd
       0.2381376 -0.11480452 -0.09529853 -0.042133488
000040 0b c7 6b 3d e6 2a 3b 3d 3f 95 ed be fc c8 6a 3f
       0.05756287 0.045695208 -0.46402928 0.9171293
000050 1f 3e f0 bd 35 09 5f bd c2 60 2c bd c7 26 f6 be
       -0.11730599 -0.05445214 -0.042084463 -0.4807646
000060 ee 43 fa bd 00 68 cc bd 9c 77 eb 3d fc 7e 14 bd
       -0.12219988 -0.09980774 0.11497423 -0.036253914
000070 ac 9e fc 3d e6 f1 45 3e 1b ca a2 3e b0 d2 1c be
       0.12334952 0.19330558 0.3179482 -0.15314746
000080 d0 c4 9b bb f2 3c 10 be 6e 35 c2 be 98 f9 5c 3e
       -0.0047536865 -0.14085749 -0.3793139 0.21579587
000090 a9 99 8c bd 4a 5d 57 3e 04 c2 ca bd 14 df 67 be
       -0.06865246 0.2103168 -0.09900287 -0.22643691
0000a0 9d 35 26 bd 48 e1 1c bd da 47 0c 3e f2 4f 6a 3e
       -0.040578473 -0.038300782 0.13699284 0.22882059
0000b0 24 34 06 3e 40 b1 b5 3e 08 e1 3b 3e 29 68 fb bc
       0.13105828 0.35486794 0.18347561 -0.030689316
0000c0 14 9c 89 3e f9 6a 46 bf 69 28 2d 3f b6 05 ca bd
       0.2687689 -0.7750698 0.67639786 -0.098643705
0000d0 61 53 33 3f b2 fd 96 bf be b0 4e bf 5d 4d 82 3e
       0.700491 -1.1796172 -0.8073844 0.25449648
0000e0 f0 67 41 be bc 7c cc 3d 0c f4 5b bd 90 ab b5 3c
       -0.18887305 0.09984729 -0.053699538 0.022176534
0000f0 1c 62 e5 3c 99 92 6f 3d 4f 6b 6a 3d cc c8 6d 3e
       0.028000884 0.058489416 0.057231244 0.23221129
000100 fa 33 b8 3e 4b ae f5 bd 5a d0 d0 bb 6d 1b de 3c
       0.35977155 -0.11996134 -0.0063724937 0.027112687
000110 ad 72 0d bf 1d 34 23 3f bd 3b 1d bd 04 08 09 be
       -0.55253106 0.63751394 -0.03838705 -0.13381964
000120 30 07 0c bc 18 ed 45 3e 34 d4 0a be 1a 73 3c be
       -0.0085466355 0.19328725 -0.13557512 -0.18403283
000130 cb 12 1f be 17 41 71 3d 32 31 26 bf ae c2 48 3f
       -0.15534513 0.058899965 -0.64918816 0.7842206
000140 e1 c5 40 be 33 e7 6c bd 67 ba 1c be 6f 69 cd be
       -0.18825485 -0.057837676 -0.15305482 -0.40119502
000150 b3 1e 96 3d e1 9b a9 bd fc 2a c2 3d 23 30 83 3e
       0.07330074 -0.08281685 0.09480855 0.25622663
000160 84 c1 84 3d d3 62 70 be e5 70 40 be d7 e2 2b be
       0.06482223 -0.23475198 -0.18793066 -0.16785751
000170 bf 4c a0 bd 0f dc 80 3e f6 0d 88 3e 07 36 e0 3e
       -0.07827138 0.2516789 0.2657315 0.4379122
000180 c2 05 a0 bd 61 bc 93 3e 62 02 c1 bd d7 54 78 3f
       -0.07813598 0.2885466 -0.094242826 0.97004455
000190 90 e1 60 3e 98 84 89 bc 04 8e a1 3d 10 8a a7 3d
       0.21961045 -0.016786858 0.078884155 0.0818063
0001a0 fc 6f 2f bd c7 aa 8e 3e 7b f8 0f 3c 19 68 b7 3b
       -0.042831406 0.27864668 0.00878727 0.005597126
0001b0 92 ba bd 3e d6 94 0d 3f 81 85 bc 3e c9 24 8f 3e
       0.37056404 0.5530523 0.36820605 0.27957752
0001c0 4c c1 21 bd f8 f4 21 bd 6e 3f b7 be 8b 01 92 3e
       -0.039490983 -0.03954026 -0.3579058 0.28516802
0001d0 00 18 ca b9 44 14 41 be 56 27 59 be 48 43 cc bc
       -0.00038546324 -0.18855387 -0.21206412 -0.024934426
0001e0 86 4e 40 3d a6 c4 7a 3e d5 4e a5 bc 18 f6 96 be
       0.046949886 0.24489078 -0.020179192 -0.2948463
0001f0 fd 0b 9f be 86 e5 11 bd 6b 69 8d bd 71 57 3b 3d
       -0.31063834 -0.03561928 -0.069048725 0.045737687
000200 b2 5d df 3f d2 9b 0c 3e 03 c2 23 be 00 91 e0 3b
       1.7450469 0.13731316 -0.15991978 0.006853223
000210 d0 0b c3 3c c4 d7 e1 3d bc 57 d6 bd 28 bd c2 3d
       0.023809344 0.11027482 -0.10465953 0.09508735
000220 91 74 bf be 62 4b 4a bc 34 e8 28 3e 23 75 aa bf
       -0.3739362 -0.012347074 0.16494828 -1.3316997
000230 e8 12 06 3d 05 fb 25 bd da d1 87 bc 10 25 64 bf
       0.032732874 -0.040522594 -0.016579557 -0.8911905
000240 1a 2e d5 3e 01 ae 52 bd ce 40 09 be 3a 9d 38 be
       0.41636735 -0.051435474 -0.13403627 -0.18028727
000250 88 78 d7 bd 8a d1 43 3e 64 a7 f0 3d 83 53 9a 3e
       -0.105210364 0.19122902 0.11750677 0.3014184
000260 71 69 93 3c ec fe df 3d 91 ce 77 bf 9f af 60 3d
       0.017994614 0.10937294 -0.9679957 0.054854985
000270 5b 38 b9 3d f3 bd bd bd 31 3e 81 bf e7 01 3a bf
       0.09043952 -0.092647456 -1.0097104 -0.7265915
000280 e7 76 29 3d 52 bb a8 bd ee c3 3b 3e 31 38 82 3e
       0.04137316 -0.082388535 0.1833646 0.25433496
000290 00 0c d4 3c 76 24 c7 3d 69 3b f4 bd f2 1d 43 3b
       0.025884628 0.09723751 -0.11925394 0.0029772487
0002a0 dc 4c c1 be f2 e8 9a 3e 0c 26 4a be e7 de db bd
       -0.37753952 0.30255848 -0.19741076 -0.107358746
0002b0 6d 1e 7a bd 81 45 0c 3f 70 9e 4d bf c0 29 e2 3d
       -0.061064173 0.54793555 -0.8031988 0.110431194
0002c0 90 a3 00 bd c2 36 f7 bd 98 43 0e 3d f9 48 5f be
       -0.031405985 -0.12070991 0.03473243 -0.2180518
0002d0 f1 df f8 3d ab 4c eb 3b 48 6c 81 3c c0 00 85 3c
       0.121520884 0.0071807704 0.015798703 0.01623571
0002e0 86 67 af be 98 47 69 3f 34 f4 38 bd 40 ac 40 3f
       -0.3425867 0.9112487 -0.045154765 0.7526283
0002f0 bb 56 b9 bf d4 42 6a be ad e9 7d 3e 98 9d f0 3d
       -1.4479593 -0.22877055 0.24796171 0.117488086
000300 3c b3 c5 3d e0 28 69 bd d8 34 24 3d 8e 34 a1 3d
       0.09653327 -0.056923747 0.04008946 0.07871352
000310 0b 2d b9 3d da 6d af 3b b0 6f 6e 3d b6 57 11 3e
       0.090417944 0.0053536715 0.058211982 0.14193615
000320 2e 14 9c 3e 95 0c bc bd c8 b6 3e be 0c bf 01 40
       0.30484146 -0.09182087 -0.18624413 2.0272856
000330 ac f1 f9 3d d0 26 6c 3d d8 9d 31 3e 08 e3 2e be
       0.122042984 0.057654202 0.17345369 -0.17078793
000340 b8 6f 0f 3d d0 93 d6 bd bb 3a 0e be 30 41 14 3d
       0.035018653 -0.10477412 -0.13889591 0.03619498
000350 b9 e4 8a ba 50 5d e1 3d 63 dd d3 be 77 cf a0 be
       -0.0010596729 0.11004126 -0.41379842 -0.31408283
000360 93 5e 29 3e 06 e5 bc be c3 79 6c bf c6 b5 96 bf
       0.16539983 -0.3689348 -0.92373294 -1.1774223
000370 65 e2 cf 3d 20 7f 82 bc 6c ec c8 3d 57 60 2b be
       0.10150603 -0.015929759 0.09810719 -0.1673597
000380 00 19 da 3b a3 d6 ef be 51 30 a5 3c 8d dc d4 3d
       0.0066558123 -0.46843442 0.02016464 0.10393629
000390 0f 30 ea 3e 9a 9d 20 be 22 5b 38 3d 2b a5 0a be
       0.4573979 -0.1568512 0.045008786 -0.13539569
0003a0 c5 e8 99 3e 26 4a 04 bf 05 62 5f 3f 7a ef cb bd
       0.30060402 -0.5167564 0.8725894 -0.09957786
0003b0 00 1c 82 b9 ac 76 3f 3e 40 93 09 be 04 95 34 be
       -0.00024816394 0.18697613 -0.13435078 -0.1763497
0003c0 fb 27 8a bd 0d 27 a6 3e 9b e6 81 38 78 52 05 be
       -0.06745907 0.32451668 6.194153e-05 -0.1301974
0003d0 09 90 a7 3b 0f 52 03 3e 46 92 08 3e 3f 9f 07 3e
       0.005113606 0.12824272 0.13337049 0.13244341
0003e0 35 98 9e 3e e8 f6 5b 3f ff b6 4d be 61 ea 6e be
       0.309755 0.85923624 -0.20089339 -0.23331596
0003f0 a0 72 b8 bd d7 14 10 be e8 18 3e 3d 05 bd 87 3e
       -0.09006238 -0.1407045 0.04641047 0.26511398

critic.0.bias f4 [64]
000000 41 0b 40 be 35 7c 23 be 48 a2 bb 3e f0 5d fb 3d
       -0.18754293 -0.1596535 0.36647248 0.122737765
000010 b2 bc cb 3e 04 18 c4 3e 6b c6 14 3e fd 28 0c bf
       0.397924 0.38299572 0.14528815 -0.54750043
000020 01 04 12 3e b6 38 cf 3d e2 40 a6 bd cc e6 5a 3a
       0.1425934 0.10118239 -0.08117844 0.00083504315
000030 47 3e f3 3d bb 85 9e 3e 56 21 5a bd d7 75 1b 3d
       0.11877113 0.30961403 -0.053254448 0.037954178
000040 69 e2 da 3d 0f e6 af bd 57 d8 73 bd d2 ac b4 3d
       0.106877156 -0.08588802 -0.05953249 0.08822025
000050 e6 30 1c 3d 7c bc 27 3e 5b 57 be 3e e9 d1 98 bd
       0.03813257 0.16380495 0.37176022 -0.07461912
000060 e2 ee f7 3c 0f fe f9 3e 35 9c 5b 3d 72 62 9f 3e
       0.030265275 0.48826644 0.053615768 0.31129795
000070 c3 c2 e0 3c c5 a8 2b 3d 43 95 85 3e f3 b1 77 be
       0.02743662 0.041908998 0.2609044 -0.24188976
000080 66 ca df bd 5b 2b 68 3e 5f be c5 be a5 38 20 3e
       -0.10927276 0.22672789 -0.38621804 0.15646608
000090 91 12 b1 3e ed 12 5e be fe 64 e7 3d 19 94 ca be
       0.34584478 -0.21686907 0.112985596 -0.39566115
0000a0 a1 a2 f0 3e de ba 3b 3e 7e 33 2e bd 7d 42 ca 3e
       0.46999076 0.18333003 -0.042529576 0.39503852
0000b0 24 7f 84 3d 01 8d 6a 3d 8c 45 f1 bd 27 28 19 be
       0.06469563 0.057263378 -0.11780843 -0.14956723
0000c0 9f 33 01 be 1f 83 e8 be 2e 8e f9 be e5 6b 83 3e
       -0.12617348 -0.45412537 -0.48741287 0.25668254
0000d0 86 28 4f be a2 e5 15 bd 51 77 59 be 44 a0 4f be
       -0.20230302 -0.036595948 -0.21236922 -0.2027598
0000e0 bc 26 17 3e 8f 3d 4a be c5 7e 80 3e e9 cc 04 be
       0.1476087 -0.19750045 0.25096717 -0.12968792
0000f0 e4 38 86 3d a4 88 53 be 9e 4e 88 be a5 e2 88 3e
       0.0655382 -0.20657593 -0.2662248 0.26735416

critic.2.weight f4 [64, 64]
000000 08 f7 1e 3e 88 79 01 be 25 df ea bd 21 88 0a 3e
       0.15523922 -0.12644017 -0.11468343 0.13528492
000010 1d 78 f3 3c 0e 1a 4d 3b 65 91 a6 3d 43 e7 7d 3d
       0.02972036 0.0031296047 0.081332006 0.061988126
000020 cc fb e8 bc 0e 32 cf be 3d c5 5f 3d ef ad cc 39
       -0.028440379 -0.40467876 0.05463146 0.00039039503
000030 47 1c 87 3b 5d 6f 48 3e 1e 08 ff bd a8 42 ec bd
       0.004123244 0.19573732 -0.1245272 -0.11536151
000040 48 8f 4f bb c2 50 da 3d 99 50 cb bd 9c 69 bb 3d
       -0.0031671096 0.106599346 -0.09927482 0.09151003
000050 8d 3f e3 3d c3 28 0c 3e 0c f7 ca bd 88 16 ab 3d
       0.11096106 0.13687424 -0.09910402 0.08353907
000060 77 11 cb bd 37 e6 69 be 2b 9a d3 be 62 6f ee 3c
       -0.099154405 -0.22841726 -0.41328558 0.029105846
000070 60 32 43 3e b9 07 cc bd bc 83 59 bd 9f 82 33 3e
       0.19062185 -0.099624105 -0.053104147 0.17530297
000080 f8 11 87 3d 97 03 cd bd 43 99 d2 bd e7 90 b7 bc
       0.06595224 -0.1001045 -0.102831386 -0.022407962
000090 df f1 4b be 2d 99 fa bd db 0c 47 3e ce ef 9b bd
       -0.19916485 -0.12236247 0.19438498 -0.076140985
0000a0 11 e6 b4 3d 9f 3f e9 3d 2e 11 2e bd fd 07 35 bc
       0.08832944 0.11389088 -0.042496853 -0.011049268
0000b0 a7 d2 8a bd 0b 19 79 3e 78 c5 9b be 03 0f 02 be
       -0.0677846 0.2432596 -0.30424094 -0.12701039
0000c0 8f d3 91 bd 3f a4 de bc f2 d8 92 bd 0b ac f4 bd
       -0.0712043 -0.027177928 -0.07170285 -0.11946877
0000d0 d9 71 81 3d d7 c9 43 3b cb 39 45 bc 50 f5 ef 3d
       0.06320543 0.0029874945 -0.012037705 0.117167115
0000e0 e1 65 8e bd 8f c0 98 3e 30 02 82 bc 70 82 81 bc
       -0.069530256 0.2983441 -0.015870184 -0.015809268
0000f0 47 6d 19 bd be 97 dc 3d af fe a4 3d 34 6d 0c 3c
       -0.03745773 0.1077113 0.080563895 0.008570958
000100 1e 49 be bd 5a 1a d7 bd 9e 24 ec bb ff ed 0e 3f
       -0.0929129 -0.10503073 -0.0072065135 0.55831903
000110 49 91 da bd 39 40 27 be a9 26 a0 be b8 82 6d bc
       -0.10672242 -0.16333093 -0.31279495 -0.014496498
000120 31 d7 f2 bd a4 73 25 3e 69 4b 1b 3f 51 e3 65 3e
       -0.11857451 0.16157395 0.6066194 0.22449996
000130 73 de bd 3e 8d eb c6 3c 18 40 15 3f 64 82 1e be
       0.37083778 0.024282241 0.58300924 -0.15479428
000140 03 d4 20 3d 42 50 33 3e 0d ed 0e 3d 7b 3d c0 3d
       0.03926469 0.17511085 0.034894038 0.093867265
000150 97 a0 e1 3e 7b 43 9d 3d 74 ed dd 3a ec 23 3b be
       0.44067833 0.076788865 0.0016931728 -0.18275422
000160 df 98 c3 3c 2a 49 3c be 6a 0e 90 be 34 35 0d 3e
       0.023876606 -0.18387285 -0.28135997 0.13789827
000170 fe bf 33 3e 89 d4 4c bd 44 0d f9 3d 7b 1b ec 3d
       0.17553708 -0.050007377 0.12160733 0.11528679
000180 4c b3 17 bf a2 3f f3 be 4c 9e f7 3d 92 b0 07 be
       -0.5925796 -0.47509485 0.120907396 -0.1325095
000190 8a ef 91 be 78 91 66 bb db f5 94 bd 7f e9 65 3d
       -0.28503066 -0.003518192 -0.07273456 0.056130882
0001a0 5f dc a7 3b 1e d2 b5 3e a4 c2 5b 3d 46 6a 29 be
       0.005122706 0.3551187 0.05365242 -0.16544446
0001b0 6a 24 b5 3c 02 22 97 3c 78 60 26 be e8 fb a9 be
       0.02211209 0.018448833 -0.16247737 -0.33200002
0001c0 6b 61 c3 3d 5d c6 d4 3e bb 9e 92 bd cf c7 11 3e
       0.095400654 0.4155759 -0.07159182 0.14236377
0001d0 b4 03 06 bf 92 ec f2 3d 9e 76 06 3d 6c 9e fa 3d
       -0.523494 0.118615285 0.032827966 0.12237248
0001e0 29 3a e6 3e 3a 05 6e 3e 57 6d bb be 6a 9d 2c be
       0.44966248 0.23244181 -0.36606857 -0.16856924
0001f0 79 47 09 bf af f8 9f 3e 65 3f 1b bd 5b 59 44 3d
       -0.53624684 0.31244418 -0.037902255 0.04793678
000200 92 0b 75 3d 1d 58 a4 bd 40 0e 2e bd 51 2f e0 bb
       0.059825487 -0.08024619 -0.04249406 -0.006841578
000210 61 78 9c bd b9 bd 62 3d c8 8f bf 3d 3f 00 08 3e
       -0.07640148 0.055356715 0.09353596 0.13281344
000220 57 57 e5 bd d7 84 86 3e e9 44 dc 3c 40 9c 93 bd
       -0.111982994 0.26273224 0.026888328 -0.07207537
000230 d1 22 4a be da 32 2f be fd 28 cb bd cf dc 66 3d
       -0.19739844 -0.17109242 -0.09919927 0.056362923
000240 28 a5 d7 3d 5e bd 21 3e 1a 22 3a 3e 8b 49 16 be
       0.10529548 0.15794894 0.18177071 -0.14676492
000250 0d c1 82 3d 59 aa 33 be 5a 92 05 3c 5d 2d 64 3e
       0.06384478 -0.17545451 0.008152569 0.2228293
000260 82 18 40 3c 4f 07 9c 3d ba 78 21 3d d1 a0 41 bd
       0.011724593 0.076185815 0.039421774 -0.047272507
000270 31 62 36 be d3 5d 52 bd d4 77 80 bc b2 cc 0a bd
       -0.17810895 -0.05135901 -0.015682139 -0.03388662
000280 a5 a3 24 3e 50 9d f9 bb fa d2 83 3d da cc 31 3c
       0.1607805 -0.00761763 0.06436725 0.010852063
000290 50 0e 1b be 63 c3 9c 3d be fe 5b be 9d d6 30 3d
       -0.15142179 0.076544546 -0.21483895 0.04317342
0002a0 32 84 6b bd bf f2 1c 3d 39 63 97 3d be 18 62 bc
       -0.05749912 0.03831744 0.07391972 -0.013799844
0002b0 36 94 3c 3e b2 c1 24 be c3 a8 e9 3d dc 04 32 3d
       0.18415913 -0.16089514 0.11409142 0.043461666
0002c0 44 01 19 be 4a a1 0a 3e c5 34 04 3e 58 9e 16 be
       -0.14941889 0.1353809 0.12910755 -0.14708841
0002d0 2b 36 37 3e 19 cf c8 bd 5b ce 00 be 32 95 e7 bd
       0.17891757 -0.09805126 -0.12578718 -0.113077536
0002e0 5a ee 85 3d d1 ae c3 be a5 77 a0 bc 85 53 2c 3d
       0.065396026 -0.38219312 -0.019588301 0.042071838
0002f0 53 c4 cc 3d e3 19 0b 3d 4e d3 d7 bd 51 bb d0 bd
       0.099983834 0.033960234 -0.1053835 -0.10191978
000300 b0 80 d4 bd ca 7a 45 bd f0 f4 42 be 90 4d 3d bd
       -0.10376108 -0.048212804 -0.19038749 -0.046216547
000310 4d 20 67 bd 63 6d b9 3b f1 e3 95 be 7b b6 26 3e
       -0.05642729 0.005658792 -0.29275468 0.16280548
000320 14 ef 7b bd 14 fd 07 be a1 ab 9e 3d 73 42 68 3e
       -0.0615073 -0.13280135 0.07747579 0.22681598
000330 66 b8 12 bf 45 35 50 3e 8a ff e2 3e 31 8c a8 be
       -0.5731262 0.2033282 0.44335586 -0.32919458
000340 43 c6 82 bc 91 ea 45 3d 28 3c 19 bd cb 62 1c 3e
       -0.01596368 0.048319403 -0.037410885 0.15272062
000350 ec ab 21 3e f4 39 8c 3e e5 78 9d 3c a0 bb 82 bd
       0.15788239 0.27387965 0.019222686 -0.06383443
000360 54 3d 9a bd 78 a7 b1 bd 34 c9 89 3d d8 51 32 bd
       -0.07531229 -0.0867452 0.067278296 -0.043535084
000370 5c 14 d3 bc f2 64 82 3d e9 58 d1 bd 13 5a a2 3e
       -0.025766544 0.0636691 -0.102220364 0.31709346
000380 28 85 a7 be cf 31 89 bd 46 f6 4b 3d ae d5 c9 bd
       -0.32718778 -0.06698953 0.04979541 -0.09855209
000390 76 a8 8f be 63 6e 1c 3e 98 6a a4 3e 0d 04 2e bd
       -0.28058213 0.15276484 0.32112575 -0.042484332
0003a0 7b f7 bd bc 55 d5 3f 3e bb ed b0 bd 08 45 d1 bc
       -0.023189297 0.18733723 -0.086390935 -0.025545612
0003b0 81 0e 9f bc 53 34 3a be 67 32 20 be 2b 53 de bd
       -0.019416096 -0.18184023 -0.15644227 -0.10855707
0003c0 fa 54 a4 3c af f9 98 3e ac 68 5d 3e 23 99 33 3e
       0.020060051 0.29877993 0.2162196 0.17538886
0003d0 78 f2 0c bf b1 1d 13 3f aa 76 fc bb 9d 24 69 3f
       -0.5505748 0.5746718 -0.0077045755 0.9107149
0003e0 11 73 98 3e d1 71 e3 3d e0 89 a6 be 8f c8 49 bd
       0.2977529 0.11105693 -0.32527065 -0.049263533
0003f0 72 3d d2 be 54 49 56 3e b1 20 84 3b cc eb 25 3e
       -0.41062504 0.2092641 0.0040322174 0.1620323

critic.2.bias f4 [64]
000000 72 df c5 bd 7a a2 fd bd 0b 17 e4 bd 81 e7 b6 bd
       -0.096617594 -0.123845056 -0.111372076 -0.089308746
000010 2d 8b 46 be 0b 39 05 be 26 08 d1 3b a1 a5 33 3e
       -0.19389029 -0.13010041 0.006379145 0.17543651
000020 4b 9e 44 3e 1c 21 e3 3c af 71 f0 bd 73 3b 2c 3e
       0.19201009 0.027725749 -0.117404334 0.16819553
000030 1c 06 02 be 69 e9 ca bd 57 b8 f4 ba a9 97 b7 3c
       -0.12697643 -0.09907801 -0.001867066 0.022411184
000040 f6 88 e9 bc 5e 00 05 3d 14 f6 af 3d 8f 90 31 3e
       -0.02850769 0.032471053 0.085918576 0.17340301
000050 56 0c da 3c 26 8d 19 be c2 2e 01 3e 18 df 0d 3e
       0.02661721 -0.1499525 0.12615493 0.13854635
000060 fd fa 85 3d 62 04 72 3d 91 08 1b bd b2 2b b4 3d
       0.06542013 0.05908621 -0.037849966 0.08797397
000070 9e ce ed bd 67 23 2e 3e a8 95 8c bc 75 87 c9 3d
       -0.11611675 0.17005692 -0.017161205 0.098402895
000080 de c6 a1 bc 64 22 cf bc 3b 77 82 3e be 60 c0 3d
       -0.019748148 -0.025284953 0.2548159 0.09393452
000090 35 9b a9 3d 0b 76 5e 3e 87 23 fb 3c e4 71 0d 3e
       0.082815565 0.21724717 0.03065659 0.13812977
0000a0 a1 15 c5 bc cf 0d 1c 3e 9c 28 07 3e ab 05 0d 3e
       -0.024058165 0.15239643 0.13199085 0.13771693
0000b0 30 3a a4 3d 4e 33 17 be 4b 43 3f 3e 06 7d 60 be
       0.08018911 -0.14765665 0.18678014 -0.21922693
0000c0 af bf a2 3c cf 3f 52 be 94 f4 55 3a 1e a1 01 3e
       0.019866792 -0.20532154 0.000816175 0.12659118
0000d0 30 5e 03 be f8 ba 32 3b de 5e ce 3d 28 7f 05 3e
       -0.12828898 0.0027272087 0.10076688 0.13036788
0000e0 a3 28 c9 bd 95 35 32 be 48 32 83 bd d1 13 17 3e
       -0.09822204 -0.17403252 -0.06406075 0.14753653
0000f0 49 e2 07 3d 3c c6 4e bd b8 b8 3a 3b 86 f4 d8 bd
       0.033174787 -0.05048202 0.0028491449 -0.10593514

critic.4.weight f4 [1, 64]
000000 a9 c0 30 bd 18 5e c8 be 09 7d ba 3a 6d b1 bd be
       -0.043152485 -0.39134288 0.0014227937 -0.37049428
000010 6c fb 29 3e 2b a8 b7 be 97 2f 1f be aa 31 41 be
       0.16599816 -0.3587049 -0.15545498 -0.18866602
000020 41 d1 85 3e ef f6 79 be eb ff 5d be 2a 7b 63 be
       0.2613621 -0.24410604 -0.21679656 -0.22214952
000030 14 57 81 be b7 ea 5d be cc bc 20 be 85 42 43 3e
       -0.25261748 -0.21671568 -0.1569702 0.19068344
000040 8f fc ba 3e ed c9 45 3e ba 48 34 3e 1f 50 b0 be
       0.36520812 0.1931531 0.17605868 -0.34436128
000050 c6 7c a1 be 1a 70 98 3e 26 5f 4c be c9 77 bd 3e
       -0.31540507 0.29773027 -0.19958171 0.3700545
000060 29 21 86 bd d6 d0 ba 3d 2b 2a 83 be 06 d1 e5 bd
       -0.065492935 0.091218635 -0.2561811 -0.11221509
000070 17 6b 48 be 52 96 6c be ec 02 88 3e f4 78 8c 3e
       -0.19572102 -0.23104218 0.2656473 0.2743603
000080 5f cb 1e 3e de 66 ea 3d a7 bf 85 be 45 f5 55 3e
       0.15507267 0.114454016 -0.26122782 0.20894344
000090 4b c2 97 3e 09 e5 1a 3e 8c ae de 3d 58 fb 6a be
       0.2964042 0.15126432 0.10873136 -0.22947443
0000a0 f0 44 77 be 2c 82 69 3e 21 a8 cd bd 8a f9 b9 3e
       -0.24147391 0.22803563 -0.10041834 0.36323196
0000b0 dd 28 1d be 0b 32 9c be 08 03 84 be 6f dc 81 3e
       -0.1534762 -0.3050693 -0.25783563 0.2536349
0000c0 36 8d 45 3e 5d 75 97 3e 03 25 77 be 78 6c 48 be
       0.19292149 0.2958173 -0.24135213 -0.19572628
0000d0 77 c4 6f be 76 58 38 be 5a 90 7b be ae fc 15 be
       -0.23414789 -0.18002495 -0.24566785 -0.14647171
0000e0 7c 04 82 3e ec 9f b1 3e 49 47 a7 bd 27 72 f5 3e
       0.25394046 0.34692323 -0.081678934 0.47938654
0000f0 44 5b 28 be 08 9c 5d 3e 8d c7 49 be bc b4 98 be
       -0.16441065 0.21641552 -0.19705029 -0.2982539
