models/025_Optimal_Phase1/025_Optimal_Phase1_latest.pth (torch, 47122 bytes, 11 tensors)

actor.0.weight f4 [64, 15]
00000000: 296c ccbd 6e50 7d3d abc6 43be a168 3bbe
00000010: ae3f 7b3e 4d4c d43e dea8 1ebc 3e04 843e
00000020: f4ce c4bb 080f 8ebd d495 2cbe 0e13 b0bd
00000030: 5fd4 52be 3481 f93d ea53 40be 9a65 52be
00000040: 4870 3abd 177b 81bd e4ee ddbc 1fde 523f
00000050: 079a 16be 35d7 143d 5fde f33d 8d02 9bbd
00000060: 25e3 31be 848b 363e 0030 c03a 936f 833e
00000070: 1ee1 653e f798 1fbe 3d14 e1bd b720 14be
00000080: 8c4a a93e 9dbd 7e3d 69af 783e 8e93 1e3e
00000090: 6ea6 363d 3aa8 48be 9eae 82be 4e0c 9fbd
000000a0: 6373 f93d 988c ab3d 681c c23d 80ac 013d
000000b0: 4dc8 43be 88aa 2f3e b2d0 043e c594 d83b
000000c0: 482c afbe 57f9 12be 161f 043e e466 96bb
000000d0: 00cd 913d c9fb 2ebf 0f15 e03d e8f6 1c3d
000000e0: b84c b53d f819 403d 1489 803d c80f 49bd
000000f0: 97d3 613e 4024 b73e f1b3 efbc 180e ba3c
00000100: dd1e b13c 219b 013f 5c5c 35bd cc52 1b3e
00000110: 73d9 a4bd ec56 d5bd d11b 7b3e 8673 8ebd
00000120: b412 133e da1e 0a3e 8834 103d 2be9 97be
00000130: 01b9 8a3d c6da aa3d 0257 2b3e 69ab 0a3f
00000140: 6cd2 623c 9fb9 443c 388f efbc 2b73 ee3c
00000150: 2bd9 a03c 41a3 2a3e 5810 5f3e aed0 4abe
00000160: ee4f 33be 19b6 803e c3d2 2cbe 0704 63bd
00000170: 670f 3abd ab92 53be b521 883e efec 17be
00000180: c716 fe3c 463f 79be da10 58bd 6b8c 80be
00000190: 7306 3fbe 6c69 19be a86e 37bd 422b ddbd
000001a0: 602d 7bbe 619c 88bd 94e2 323d fdf5 b23c
000001b0: 589f 443e 8854 91be 4866 d23e df98 3c3c
000001c0: 31d2 443e 4c49 1b3e 803e 12be 1b1f 1abd
000001d0: 1017 0d3d 105b 3f3e 9063 7abc 8c44 81be
000001e0: c00c 063e 9e94 983e e36c d8bd fe10 563d
000001f0: 1bf1 20bf 9698 163e 803e ddbd 90ce 773c
00000200: c97c 09be d721 3dbe 2626 46bd 0457 013e
00000210: 2ec4 26be 98ba 17bd 6e8f 3b3e 5552 0b3d
00000220: 6a7c c8ba 83e9 4bbe a4a1 e2bd f0fb 0f3f
00000230: 39d9 3ebe eb9d ac3d 3bf6 313e ba81 cfbe
00000240: 617a 903e fef7 86be eaa9 463e 762d dfbd
00000250: c0da 973c e831 cf3d 3ee3 a63e 7a8b 90bd
00000260: 0a3f 443d 31df 803e 2110 1bbf e50d 1b3e
00000270: dd04 cebd 1b63 b73d 9459 a2be c376 3bbe
00000280: 3ad0 c03e d8cc ca3d 5145 7dbe 804d 1a3c
00000290: 663c 0abe c332 6a3e 6552 ecbc 2180 3bbc
000002a0: 41ab 08be c6cf 873f 4235 6e3e fcb3 8abd
000002b0: f1d5 96bc 9d66 95be 3931 b0bd 5e56 e03e
000002c0: a0ea 873c de15 353e 0834 bb3d 9421 37be
000002d0: f330 633e ef20 debd 247a 873d 9171 06be
000002e0: 02d1 e43e 5990 e53b c24d 3f3e 12dd 8e3d
000002f0: 4ad5 663d 5f53 8ebe 36dd 733e 2df0 6bbe
00000300: b00e 653d 1e1c 9cbd 68f9 5cbe 6e3e 92be
00000310: 255a c63d cdd7 913e 6607 b8bc bc81 203e
00000320: f6fa cfbe 1c64 083e e41c 3dbe e0e0 b03e
00000330: 49d3 853e 98f8 82bc 0602 a3bd be5d 3f3e
00000340: 84f3 f73d d0aa bb3c 0558 b13d d720 b6bd
00000350: 83a7 7ebd 1ea1 3a3c f37a 4d3f af5c 0ebd
00000360: 9b8f aebd 2adb 143e f4bb d63e 8449 f03d
00000370: 9184 143e e6f9 a8bd 8227 02be 5c36 0b3e
00000380: 5ecf 7d3e 0ce6 673e 6966 713d 21c6 223e
00000390: 53db 19be 5f74 46bc 8f5c e33b 537b c2bd
000003a0: ac39 b6bd cb4c 0a3e a608 613e 5234 e639
000003b0: 206a 503e 4c7e d23d 1a26 673e b2e6 463e
000003c0: a66d 833d 6841 f23c 07d8 27bf 8813 dbba
000003d0: 5f50 973e 5cc1 bcbd bba7 2cbc 1a21 86be
000003e0: 40ef 00be a7e3 653c 15fd acbe 0021 9fbb
000003f0: 3b1b 823e 7a3f 7c3e 1ccf f53d a7f6 71be
-0.099815674 0.06184428 -0.19118755 -0.18301632 0.2453601 0.41464463 -0.009683816 0.25784487
-0.006006116 -0.06936461 -0.1685403 -0.085973844 -0.20588826 0.12182847 -0.1878201 -0.2054657
-0.045517236 -0.06322306 -0.027091451 0.8237018 -0.14707194 0.03633805 0.11907648 -0.07568846
-0.17371805 0.17826658 0.0014662743 0.25671062 0.22449157 -0.15585695 -0.10990188 -0.14465605
0.33064687 0.062192548 0.24285664 0.15485975 0.044592313 -0.19595423 -0.25523847 -0.07766019
0.121802114 0.083764255 0.09478074 0.03165865 -0.19119377 0.17154896 0.12970236 0.0066095316
-0.3421347 -0.14352928 0.12902483 -0.0045899022 0.07119179 -0.68352944 0.109415166 0.038321406
0.088525236 0.046899766 0.062761456 -0.049087316 0.22053371 0.35769844 -0.029260607 0.022711799
0.021621162 0.5062733 -0.044277534 0.15168303 -0.08049288 -0.1041697 0.2452233 -0.06955628
0.14362603 0.13488331 0.035206348 -0.2967008 0.06773568 0.08342509 0.1673241 0.541678
0.013844114 0.012007146 -0.029243097 0.02910765 0.019634804 0.16663839 0.21783578 -0.19806167
-0.1751096 0.2513893 -0.16877274 -0.055423763 -0.045424845 -0.20661418 0.26588216 -0.14836477
0.03101672 -0.24340543 -0.052750446 -0.2510713 -0.18654804 -0.14981622 -0.044783264 -0.107992664
-0.24529028 -0.06670452 0.043673113 0.021845812 0.1920141 -0.28384805 0.4109366 0.011511057
0.19220807 0.1516468 -0.14281654 -0.03762732 0.034445822 0.18687081 -0.015282527 -0.2524761
0.13090801 0.29800886 -0.105676435 0.0522623 -0.628679 0.14706644 -0.108029366 0.015124932
-0.13426508 -0.1846994 -0.048376225 0.1263085 -0.16285774 -0.037043184 0.18316433 0.034014065
-0.0015295867 -0.19913296 -0.11065987 0.562438 -0.18637551 0.08428558 0.17379086 -0.4052866
0.28218368 -0.26361078 0.19400755 -0.10897343 0.018536925 0.10116941 0.32595247 -0.07057853
0.04791168 0.25170282 -0.60571486 0.15142019 -0.10059521 0.0895445 -0.31708968 -0.18307023
0.37658864 0.09902352 -0.24733473 0.0094178915 -0.13499603 0.22870927 -0.028847883 -0.0114441225
-0.13346578 1.0610282 0.23262504 -0.067726105 -0.018412562 -0.2917985 -0.086031385 0.43815893
0.01659137 0.17684123 0.091407835 -0.17883903 0.22186641 -0.10846125 0.06615093 -0.1312926
0.4469071 0.007005733 0.18682006 0.069757596 0.056355752 -0.27797982 0.23814854 -0.23040839
0.05592221 -0.076225504 -0.21579516 -0.28563255 0.096851625 0.28484955 -0.022464465 0.1567449
-0.40621156 0.13319439 -0.18468052 0.34546566 0.2613776 -0.01598768 -0.0795937 0.18688104
0.12106994 0.022908598 0.086593665 -0.088929825 -0.06217147 0.011390952 0.8026573 -0.03475636
-0.08523484 0.1453673 0.41940272 0.11732772 0.14503695 -0.08250789 -0.12710384 0.13594955
0.24786136 0.2264635 0.058935557 0.15895893 -0.15025072 -0.012112706 0.006938524 -0.094961785
-0.08897719 0.13505857 0.21975955 0.00043908 0.20352983 0.102779955 0.22573128 0.19423941
0.06417398 0.029572204 -0.65564007 -0.0016714195 0.29553506 -0.09216568 -0.010538037 -0.2619713
-0.12591267 0.014031327 -0.33786836 -0.004856229 0.254114 0.2463359 0.120023936 -0.23629247

actor.0.bias f4 [64]
00000000: 5efb 2c3e 2875 dbbd 5d91 4e3d 383d 9b3d
00000010: 1450 b6bd 3297 8d3d 9c93 5abe b8db 243c
00000020: 4848 7e3e 4f1d 0bbe 365e 853e 8a37 183e
00000030: 4798 ffbd d508 41be c28d e8bd 6287 823e
00000040: 54c7 b03d 55e9 2abe 6735 87be e22a 4fbb
00000050: fcbc 253e d4c8 e33b 7c60 55be 11a8 dfbd
00000060: 2317 aabd 4459 87be 3076 b23c 1712 6b3d
00000070: f6cf b4bb 0a4b ac3e 5f9b 103c bc82 6e3d
00000080: 699c ce3d 28ad a1be 7ae8 cb3d 29d9 a9bd
00000090: bf78 ef3d f00e 27be 1579 4bbe 5328 fabd
000000a0: e2e9 f73d 27fd debd 2470 2cbc 5e9e ad3e
000000b0: 4c9c 9f3c e95c efbd 711e 03be 6730 11be
000000c0: a21a 3dbe 51ff 94bd ee5b 65be 2b9f 50be
000000d0: 0c83 a6bd d04f 1d3e fbd9 6eba d8b9 7b3e
000000e0: e340 41be d6b7 a4bd d079 17be a51d 3bbd
000000f0: f171 033e 344c 69bd 4e2d 613d 0dad 9abe
0.16892764 -0.10715705 0.050431598 0.07580036 -0.089019924 0.06913604 -0.21345371 0.010062151
0.2483226 -0.13585399 0.2604844 0.14864936 -0.124802165 -0.18851025 -0.11355163 0.25493914
0.08631769 -0.16690572 -0.2640793 -0.0031611254 0.16185373 0.006951431 -0.20837587 -0.10920728
-0.08305194 -0.26435292 0.021784872 0.0573903 -0.005517955 0.33651 0.008826106 0.058230147
0.100884266 -0.3157742 0.09956451 -0.08293373 0.11692952 -0.16314292 -0.19870408 -0.122147225
0.121051565 -0.10888129 -0.010524783 0.33909887 0.019483708 -0.11687643 -0.12804581 -0.1417862
-0.18467191 -0.0727526 -0.2239835 -0.20373218 -0.08130464 0.15362477 -0.0009111461 0.24582613
-0.18872409 -0.080428764 -0.14792562 -0.045682568 0.12836434 -0.05695744 0.054974847 -0.30210152

actor.2.weight f4 [64, 64]
00000000: 56d0 c0bd d3fd 403d 60af 243c cf50 99bd
00000010: 6143 84be cc29 e2bd 5c67 163e bd2e 67bd
00000020: f77b a13d dc21 a23c 7544 0dbc dc6a 1cbe
00000030: cad3 a8bd 849c 71bb 8312 a2b9 a3ad c33c
00000040: 8d9f f73d 90ba 7f3d 00ea 1abe 0731 8f3c
00000050: 5268 85bd 8025 fa3d b8ef 6a3d ed76 3c3e
00000060: e59d 8f3d a628 2e3e 7bf0 3bbe 6dcb 29bd
00000070: ad4e e63c 7f3f 993d 1c0d 743d a90b 0ebe
00000080: a9c9 f93a cdad 093e 9cf3 24be 4a2b 02bd
00000090: 3736 193e 0cc8 35bd 3b51 aebd 0a22 f33d
000000a0: 2e6c a43d db51 d03d 627e f3bc a1c7 773d
000000b0: 9202 923e d692 81bd a406 f1ba f89e 383e
000000c0: f58b 7dbd 9c84 54be 43e4 37be 227c 0bbe
000000d0: 21c4 293d f29a 793d 6029 e5bd 62cb 87be
000000e0: 4091 593e 8162 bb3d cb6c 843d 9a06 9abb
000000f0: 2098 aebd cc93 47bd 1dc4 b13d 06c4 f43d
00000100: d1ef 2ebb 6ee9 8bbd 5b6c c3bd 869b 5abd
00000110: 2c75 013d b418 593d 405c c7bd 0f63 e43d
00000120: 5eab 99bd f1f6 0abc 22b1 043d 5428 073e
00000130: 7544 c03d c674 a6bd 4e9f 893a 0fb8 8e3d
00000140: 60a6 e73c ce73 3d3d aa26 48bd 6006 e63a
00000150: 4d1d d9bb cb09 26bd 46fb ba3c 5b9e 26be
00000160: ccb8 bd3d d165 c5bd d3e4 b93d f04d f53a
00000170: dd09 ac3d 8ccd a7bd db6d a93d 8c6f a33d
00000180: 8a7b 80bd 257f 8dbd da08 bd3c cbbf 2dbd
00000190: 28b6 82bd 8dca 92bd 551f 093d 6875 dcbd
000001a0: 7f59 03bc 9aca 95bc 0f86 84bd 8093 793c
000001b0: db5b 9cbd 4d54 97bd 2c6c 0d3e 3130 a3bc
000001c0: d688 d2bd 53a5 983b a6ee 2f3d c17e cf3d
000001d0: 35af 9cbc 5429 513e 4f2e 9cbc 3d03 a3bd
000001e0: 7678 32be f97c 833b 04a7 e4bd 1226 18be
000001f0: d418 313e bfb3 423c 9b50 bbbc be91 9fbd
00000200: b831 b13d e099 c1bd 6eac 9c3d 0117 873e
00000210: 93d4 953d 51ed 2dbb 4838 593d 5edf e6bd
00000220: a1b6 a63d 3b96 3fbd 8530 eebd b854 65bd
00000230: d367 82bd f26e b63d 1a92 453d ea0d de3c
00000240: c88a ce3c b01f b43c 041e 913d b289 d7bd
00000250: 1235 893b b037 0abc 4131 4a3d ad2f a73d
00000260: 66cb 86bd d609 c83d e091 44bd 7461 48bd
00000270: e6c5 ce3c 15cc e0bd 78c3 47bd 51ed b33d
00000280: 558d c5bd 6154 81bd ff62 de3d 12b5 783d
00000290: 76ac f03c 41a9 41bd 7ca4 23bd 66d6 dc3d
000002a0: c2ca 043c 3d16 d4bd aed9 003d 37f1 e6bd
000002b0: 2427 1a3e fab7 8d3d b29c c13c 782e 64bd
000002c0: cf64 27be 9dd3 5d3c 9da1 b33d 5cf0 0cbd
000002d0: 07b7 09be ca9f 143e d7f9 cabd 3430 b1bb
000002e0: c7ba 24be b08a 323d b93b df3d 880c 58be
000002f0: d5bc 02be a503 d4bd d6e8 9fbd afbb b63c
00000300: 65d9 de3d 3fa7 0d3e f70e 683c 5872 fa3d
00000310: f8b1 b5bd 48d6 c6bc df9f b13d 1795 1ebd
00000320: 7c93 5fbd 7002 173e 1b26 ee3b 3f1c 1d3e
00000330: cfd7 393d c257 5a3d 4b5a 09bc 9d3c 8b3a
00000340: fa06 58be 9784 3abb b869 ce3c 903a 17be
00000350: 20bf ebbc e94e e4bd caac 35bd 6dae 213c
00000360: ceb8 17be d56a a5bd afc9 323e 0a55 9bbd
00000370: 7397 8d3c 703c 54bc 5175 bbbc 4010 303d
00000380: 6fcc d5bd 3ab6 223d 0ca3 a2bc 4f11 aa3c
00000390: 6870 eebd c346 fe3d d6e8 7a3d 77e6 35bd
000003a0: ec28 3e3e 0878 0c3e cef7 593d 463f 93bd
000003b0: 9d52 37bb f605 a83c 9e04 9dbd e67d cb3d
000003c0: 444d 7b3d ea87 cf3d 0967 b3bd 9331 1e3d
000003d0: ed69 973d a166 5bbd afdc 7dbd 3a4d fc3d
000003e0: 2329 543d 45bd 603d 99a1 a7bd bb58 4e3e
000003f0: 52f4 9fbd 876a ec3d ddb3 d13d d77b 073e
-0.09414737 0.047117066 0.010051578 -0.07486116 -0.25832656 -0.11043128 0.14687866 -0.056441057
0.078849725 0.019791536 -0.008622278 -0.15275139 -0.082435206 -0.0036866972 -0.0003091284 0.023886507
0.12090979 0.06243378 -0.15128326 0.017479433 -0.06514038 0.12214184 0.05735752 0.18404742
0.07012538 0.17007694 -0.18353455 -0.041453768 0.028113687 0.07482814 0.059582815 -0.13871635
0.0019057292 0.13445206 -0.16108555 -0.031779565 0.14962088 -0.044380233 -0.08511587 0.11871727
0.08028446 0.10171863 -0.02972335 0.060493115 0.28517586 -0.06326835 -0.001838882 0.18029392
-0.06190105 -0.20753711 -0.17958169 -0.13621572 0.04144681 0.060938783 -0.11189532 -0.26522356
0.21246815 0.091496475 0.06466063 -0.004700494 -0.08525109 -0.048724934 0.08679984 0.11951451
-0.0026693235 -0.068316326 -0.095421515 -0.053370975 0.031605884 0.053002074 -0.09734392 0.111517064
-0.07503389 -0.008481727 0.03239549 0.13198978 0.09388057 -0.081277415 0.0010499747 0.069687
0.028277576 0.046253018 -0.048864998 0.0017549507 -0.0066258074 -0.040536683 0.022824895 -0.16271345
0.09263763 -0.096385606 0.09076848 0.0018715244 0.08400319 -0.08193502 0.082729064 0.0798026
-0.06273563 -0.069090165 0.02307551 -0.042419236 -0.063824 -0.0716754 0.033477146 -0.10764581
-0.008016943 -0.018285085 -0.06470882 0.015232921 -0.076347075 -0.07389126 0.13810796 -0.01992044
-0.10280006 0.00465838 0.042952202 0.10131598 -0.019126514 0.20425922 -0.01906505 -0.07959602
-0.17428765 0.0040127006 -0.11164668 -0.14858273 0.17294627 0.011883675 -0.022865584 -0.0779147
0.08652061 -0.094531775 0.07650076 0.26384738 0.07315936 -0.0026539157 0.05303219 -0.11273073
0.081403024 -0.04677413 -0.11630348 -0.055988997 -0.06367459 0.0890788 0.048235036 0.027106244
0.02521266 0.021987766 0.07085803 -0.1052431 0.0041872347 -0.0084361285 0.04936338 0.0816339
-0.06581764 0.09767501 -0.04799068 -0.048921064 0.02524085 -0.109764256 -0.048770398 0.08785499
-0.096460976 -0.06314922 0.10858726 0.060719557 0.02937911 -0.047280554 -0.039951786 0.10783081
0.008104982 -0.10355804 0.031457596 -0.11276477 0.15053993 0.06919856 0.023634288 -0.05570838
-0.16347049 0.013539222 0.0877106 -0.034408912 -0.13448726 0.1451408 -0.099109344 -0.0054073576
-0.16086875 0.043589294 0.10900063 -0.2109853 -0.12767346 -0.10352258 -0.07808082 0.022306291
0.108813085 0.1383333 0.014163724 0.122288406 -0.088718355 -0.0242721 0.08673071 -0.038716402
-0.05458401 0.14747024 0.007267726 0.15342806 0.045371827 0.05330635 -0.008383344 0.0010622923
-0.21096411 -0.0028460377 0.025196895 -0.14768434 -0.028777659 -0.111478634 -0.044354238 0.0098682465
-0.14816591 -0.08077017 0.17459749 -0.07584579 0.01728413 -0.012953863 -0.02288309 0.042984247
-0.10439383 0.039724566 -0.019853137 0.020760207 -0.116425335 0.124158405 0.061257206 -0.04440924
0.18570298 0.13717663 0.05321484 -0.07189803 -0.0027972825 0.020510655 -0.07666896 0.099361226
0.061352983 0.101333454 -0.08759887 0.038621496 0.073932506 -0.05356467 -0.06197804 0.12319417
0.051797044 0.054868 -0.08185119 0.20151035 -0.07810272 0.11543756 0.10239384 0.13230835

actor.2.bias f4 [64]
00000000: 0dcb ae3c 7e5d 433c b8bd e13d d541 6bbd
00000010: 60a4 c9bd 8938 873d 98c0 853d a50d 23be
00000020: fdbf d1bd 94d6 073e 2170 713d fcf4 ec3c
00000030: 33b0 cf3d 6c37 ae3d 2312 06bd 7f01 b63d
00000040: 3318 ea3c 94dd 8cbd 386d 263e 9ee9 123e
00000050: 27d1 0bbe 9b03 e4bc 60a1 a73d 762d ee3d
00000060: 38b6 cd3d e2cd f6bd 151f 24be 9edb c83d
00000070: 5ba9 c5bc b048 13be 823b 97bd 8ee5 9b3d
00000080: 5256 f23d 47f2 a1bc 5dec 74bd 431c 17be
00000090: d2f8 c4bd 271b 9dbd da80 763c c4cd b43d
000000a0: 0ace 503d 30ae aabd f090 453d bd0c b73d
000000b0: 409e 59bd 93c2 23bd d4b4 b7bd fb26 2c3d
000000c0: ffbe ba3d be98 86bd 41c7 853d 6353 66bc
000000d0: 7fdb 7dbd b56a c2bd 740f abbd a212 cf3d
000000e0: 785e 823d 4d23 3ebd 9cb1 74bd 49e0 163e
000000f0: a50d d93c 2d6b 893d 7d92 02be fa6c f5bc
0.021337057 0.011924146 0.11022514 -0.05743583 -0.09845805 0.0660258 0.06530875 -0.15923174
-0.10241697 0.13265449 0.058944825 0.028925411 0.10141029 0.08506665 -0.03273214 0.08887004
0.028575992 -0.068782 0.16252601 0.1434693 -0.13654004 -0.02783375 0.08185077 0.11629765
0.10044521 -0.12050988 -0.16027482 0.09807514 -0.024128607 -0.14383197 -0.07384397 0.076121435
0.118328705 -0.019768847 -0.059795726 -0.14756875 -0.09617771 -0.076711945 0.015045369 0.08828309
0.050977744 -0.08334005 0.048233926 0.089379765 -0.053129435 -0.039980482 -0.08970037 0.042029362
0.09118461 -0.06572102 0.06532145 -0.014057967 -0.061976906 -0.09493009 -0.08352557 0.10110976
0.06365675 -0.046420384 -0.059739694 0.14733995 0.026495764 0.06709895 -0.12751193 -0.02995919

actor.4.weight f4 [2, 64]
00000000: 1417 98bd 32ef 8cbc cbd2 8cbb b5b6 3f3d
00000010: d421 b53c 0ea6 4b3d f761 0f3d f92e 54bd
00000020: 5efa dcbc 65a8 f83c f9e4 be3c 0e0b 5abb
00000030: e5bb 863d 8e33 fbba 4d57 be3b 4397 08ba
00000040: 8eb3 4c3c 4096 0dbd 47a0 1d3d cc7f 923d
00000050: 6791 973d dda3 873d 44e4 cc3d 1ed6 f43c
00000060: 6dd3 2abc af83 4ab9 c12f 493c eea0 08bd
00000070: c4c8 ae3c e3a5 ea3c bad3 6bbd d8fa 8f39
00000080: fc87 82bc 34b3 09bd de57 debc 4397 28bd
00000090: 8310 c6bc 9aa5 f2bc 122b 2ebd 6991 84bc
000000a0: 7a63 ee3c fcbe 4b3d 00a8 f2bd b84a 953d
000000b0: 8a08 63bc bfab a43c 6fa4 00bc ad19 093d
000000c0: f69b 3b3b ce6c 903d 0f26 61bd d94f d0bb
000000d0: 9e6d fcbb b887 09be 818b 8b3d 2e27 983a
000000e0: 24da 073d 48a5 19bd c478 6d3d 2dae a3bc
000000f0: 8a5b a93c 9d3a 66bc 9c3b d4bc e985 8e3c
00000100: 31d0 2d3d 0d63 c9bc 75f9 52bb ef20 173d
00000110: b85c 913d 82cb 943d 3a0d c23c 70b9 953d
00000120: 89d2 943d e18d 11bc 9d32 9b3c 9b61 be3a
00000130: 58bc 8ebd 6df6 28bd 507e 94bd d18c ad3b
00000140: 20eb d23c 9bbb 2e3d ad2c 02bd 4729 5ebd
00000150: c31d f23d dfc1 873d e89f 93bb 0e22 ad3c
00000160: 90ee 543a 386b 693c 5b91 30bc bd7e 8d3c
00000170: 06b2 453d 6f95 b53c 6a48 fa3c 9bd9 28bc
00000180: c26e 82bc b1a6 f83a 4e8a 593c ba33 0e3d
00000190: aeba 0a3e 0f59 02bd 3ed3 9f3b 4727 2c3d
000001a0: 3c4a 3abc 9c19 20bc 8e2c 163e 501d e7bc
000001b0: 891e 17bd a14e 30bd 0ce4 9f3d 56a5 863d
000001c0: 997d 02be a55f 213d 285e 82bd fe30 803b
000001d0: c4d4 0d3c 7441 fb3d 37b5 843d 8156 78bd
000001e0: 3262 083e 36d8 0dbb 5284 6e3d c1c5 afbc
000001f0: aa32 6cbd 9690 7abd 5f41 783c 4092 c93c
-0.07426277 -0.017203901 -0.0042975894 0.046805102 0.022110857 0.04971891 0.035005536 -0.05180261
-0.026974853 0.030353734 0.023302542 -0.003327075 0.06578807 -0.0019165145 0.005808747 -0.0005210528
0.012493981 -0.034567118 0.03848293 0.071532816 0.0740078 0.06623051 0.10004476 0.029887255
-0.010426384 -0.00019313277 0.012279452 -0.0333566 0.021335967 0.028643554 -0.057574965 0.0002746198
-0.015933983 -0.033618167 -0.027141508 -0.04115988 -0.024177795 -0.02961998 -0.042521544 -0.016182618
0.029100168 0.049742684 -0.1184845 0.07289642 -0.013857016 0.020101426 -0.007851704 0.033471752
0.0028626896 0.07052003 -0.054967936 -0.006357175 -0.007703497 -0.13430679 0.06813718 0.0011608356
0.03316702 -0.03751114 0.0579765 -0.019980514 0.020673532 -0.01405206 -0.02590733 0.017397838
0.042434875 -0.024583364 -0.0032192145 0.036896642 0.07097763 0.072653785 0.023687948 0.0731076
0.07266719 -0.008883924 0.018945033 0.0014524938 -0.069695175 -0.041250635 -0.07250655 0.0052963276
0.025746882 0.042659383 -0.031780887 -0.054238584 0.11822083 0.06628775 -0.0045051463 0.021134403
0.0008122707 0.014246754 -0.010776843 0.017272348 0.04826548 0.022165982 0.030552108 -0.010305787
-0.015921954 0.0018970576 0.013277603 0.0347173 0.13547775 -0.031823214 0.004877477 0.042029645
-0.011370238 -0.009771731 0.14665434 -0.02821222 -0.036894355 -0.043043736 0.07807168 0.06574504
-0.12743224 0.039397854 -0.06365615 0.0039120903 0.008656684 0.122683436 0.064798765 -0.06062937
0.13318709 -0.0021643764 0.05823166 -0.021456601 -0.057665505 -0.061173044 0.015152304 0.02460587

actor.4.bias f4 [2]
00000000: b18f 883d 7e93 a5bd
0.06668032 -0.080847725

critic.0.weight f4 [64, 15]
00000000: ef34 f93d 79fd 80be 7169 c1bd 31b5 09be
00000010: 6082 8abe 657d 1dbe 8ded 82be a2a1 abbe
00000020: 6ce7 983d ad60 883e 2b0b 8cbe 7925 67be
00000030: 58da 733e a21e ebbd e02b c3bd 04e9 a1bc
00000040: c6cb aa3d 26a7 173d 2948 ebbe 075e 7c3f
00000050: 2434 10be 3f45 a6bc 538f e9bd 99e7 f5be
00000060: 3fc4 a6bd 2798 9ebd 9c77 eb3d fc7e 14bd
00000070: ac9e fc3d e6f1 453e 3450 a03e 7572 e1bd
00000080: b69a d33c 89f2 16be 8d16 c6be 9a16 463e
00000090: 8041 85bd dc31 293e 5f53 22bd e7e2 71be
000000a0: 3e05 3abd 48e1 1cbd da47 0c3e f24f 6a3e
000000b0: 2434 063e 038a c73e 425e 2c3e c810 fe3b
000000c0: eea4 993e 5a1e 13bf 08d9 363f 8c35 85bd
000000d0: 7c32 3a3f 34c3 92bf 0a7d 47bf 2026 943e
000000e0: f067 41be bc7c cc3d 0cf4 5bbd 90ab b53c
000000f0: 852f ae3c 9349 af3d dab9 a13d 0e04 553e
00000100: 1103 a93e 5ccf 2bbe 0849 b83a 34ca 6fbc
00000110: e637 01bf 35b5 223f 22d5 38bd 0408 09be
00000120: 3007 0cbc 18ed 453e 34d4 0abe 26b4 3ebe
00000130: aa57 a2bd 139e 203d 57fb 29bf 7ece 533f
00000140: b2f3 12be 6d71 acbd e22f a4bd 1cea d7be
00000150: 54f4 963d 0c1e aebd fc2a c23d 2330 833e
00000160: 84c1 843d d362 70be 3cd7 25be ee63 a7bd
00000170: 287c aabd bd4d 8a3e 7743 7c3e 3b57 b83e
00000180: 1fac 30bd be2e 5d3e b849 bcbc 279f 7f3f
00000190: 317b 7b3e 9884 89bc 048e a13d 108a a73d
000001a0: fc6f 2fbd 8725 883e 05de 7d3c 7b7d 6d3c
000001b0: e9ba b93e e89d f43e 380a b13e 77e5 8f3e
000001c0: 06db 35bd c000 dbbc fcd5 bebe 4b7c 8b3e
000001d0: 0018 cab9 4414 41be 5627 59be 4843 ccbc
000001e0: 76cb a73d 4e89 643e 7117 35bc 1f8d 83be
000001f0: aeab 7cbe 18ec fa3c f82a 1dbd ee18 993d
00000200: 0883 de3f 9def 373e d7df ffbd 0091 e03b
00000210: d00b c33c c4d7 e13d bc57 d6bd c082 d43d
00000220: 81c8 b7be a091 b9bc 4d7c 333e 831f 93bf
00000230: 83f3 fb3b eb4f c2bc c118 2ebd 8083 6ebf
00000240: 68f9 d33e da22 2fbd ce40 09be 3a9d 38be
00000250: 8878 d7bd 8ad1 433e 31a4 053e 7b30 7e3e
00000260: d759 753c 0288 f53d d470 55bf 50f1 a03d
00000270: 5ebb cf3d c119 b2bd 20f2 83bf 8fdb 38bf
00000280: e4b8 5e3d 52bb a8bd eec3 3b3e 3138 823e
00000290: 000c d43c 1e91 d23d cbbe 27be 032c cc3c
000002a0: af01 babe 26cb a03e c9fe 36be 0b64 cdbd
000002b0: 3fcf c0bd 43ef 0d3f 4405 50bf 6896 ed3d
000002c0: 90a3 00bd c236 f7bd 9843 0e3d f948 5fbe
000002d0: 5307 fa3d 3edb d23c c3d4 443d f8e9 0f3c
000002e0: 5976 2ebe 9f70 523f a41a 1ebd 90e9 2e3f
000002f0: 2cdf b0bf 601c 7dbe 7a7d 7e3e 989d f03d
00000300: 3cb3 c53d e028 69bd d834 243d 36ed 933d
00000310: 7933 c73d 90eb 4e3c ee7f 513d c33e 923c
00000320: 4409 d23e 0389 eebd 57cf d2bd a9d0 fb3f
00000330: 7dbd f43d 1898 513d d89d 313e 08e3 2ebe
00000340: b86f 0f3d d093 d6bd bfd7 0dbe a140 3ebd
00000350: d0b1 c9bb 6b33 e73d bb35 b3be b7b2 6dbe
00000360: 63fa 203e 73fc 96be b1a5 79bf cce5 96bf
00000370: 52a8 d03d 207f 82bc 6cec c83d 5760 2bbe
00000380: 0019 da3b f69f d5be 81cb 393d 5de5 053e
00000390: 5312 013f b1df 87bd f6ca a93b 7bd8 70bd
000003a0: e166 883e f28c cdbe e956 6d3f 3129 46bd
000003b0: 001c 82b9 ac76 3f3e 4093 09be 0495 34be
000003c0: 4193 5dbd 4a61 8e3e c63a 393b ad07 f2bd
000003d0: 54a2 b53d e623 093e b41e 163e 92ff 263e
000003e0: a893 ae3e 5cda 6b3f d407 40be 61ea 6ebe
000003f0: a072 b8bd d714 10be e818 3e3d 370b 8f3e
0.121682994 -0.25193384 -0.094439395 -0.13448025 -0.27052593 -0.15379865 -0.25571862 -0.33521754
0.07466015 0.26636258 -0.2735227 -0.22572888 0.2381376 -0.11480452 -0.09529853 -0.01976443
0.08339648 0.03702464 -0.4595349 0.98580974 -0.1408239 -0.020296691 -0.1140429 -0.48028257
-0.081429 -0.077438645 0.11497423 -0.036253914 0.12334952 0.19330558 0.3131119 -0.11008159
0.025830608 -0.14740957 -0.3868908 0.1934456 -0.06506634 0.16522926 -0.03963029 -0.23621713
-0.045415156 -0.038300782 0.13699284 0.22882059 0.13105828 0.38972482 0.16832832 0.0077534653
0.30008644 -0.5746819 0.71424913 -0.06504354 0.72733283 -1.1465821 -0.7792517 0.28935337
-0.18887305 0.09984729 -0.053699538 0.022176534 0.021262893 0.08558955 0.078967765 0.20802328
0.33010152 -0.1677832 0.0014059851 -0.014635611 -0.5047592 0.6355775 -0.045125134 -0.13381964
-0.0085466355 0.19328725 -0.13557512 -0.18623409 -0.07926877 0.03921325 -0.6639914 0.8273696
-0.14350775 -0.08420072 -0.080169454 -0.421708 0.07370821 -0.08501825 0.09480855 0.25622663
0.06482223 -0.23475198 -0.16195387 -0.08173357 -0.08324462 0.27012435 0.24635111 0.36004052
-0.043132897 0.21599862 -0.02298437 0.9985222 0.24558713 -0.016786858 0.078884155 0.0818063
-0.042831406 0.2659113 0.015494828 0.014495249 0.36275414 0.47776723 0.3457811 0.28104755
-0.04439833 -0.026733756 -0.37272632 0.27243266 -0.00038546324 -0.18855387 -0.21206412 -0.024934426
0.08193104 0.22318003 -0.011052952 -0.25693604 -0.24674866 0.030630156 -0.038371056 0.07475458
1.7383738 0.17962499 -0.12493866 0.006853223 0.023809344 0.11027482 -0.10465953 0.10376501
-0.3589516 -0.022652447 0.17527886 -1.1493992 0.007688941 -0.023719748 -0.042504076 -0.93169403
0.4140122 -0.042757846 -0.13403627 -0.18028727 -0.105210364 0.19122902 0.13050915 0.24823181
0.014975033 0.11988832 -0.8337529 0.07858527 0.10143159 -0.086963184 -1.0308266 -0.7221002
0.054375544 -0.082388535 0.1833646 0.25433496 0.025884628 0.10281585 -0.16381375 0.02492333
-0.3632941 0.3140499 -0.1787063 -0.10028847 -0.09414529 0.5544321 -0.81258035 0.11600953
-0.031405985 -0.12070991 0.03473243 -0.2180518 0.12208428 0.025739308 0.048054468 0.00878381
-0.17037334 0.82203096 -0.038599625 0.6832514 -1.3818107 -0.24717855 0.24852553 0.117488086
0.09653327 -0.056923747 0.04008946 0.07222979 0.097266145 0.012629405 0.051147394 0.017852193
0.41022694 -0.11647227 -0.10293453 1.9673053 0.119502045 0.05117044 0.17345369 -0.17078793
0.035018653 -0.10477412 -0.13851832 -0.046448354 -0.00615523 0.11289104 -0.3500193 -0.23212706
0.15720515 -0.29489478 -0.9751845 -1.1788878 0.101883546 -0.015929759 0.09810719 -0.1673597
0.0066558123 -0.41723603 0.045360092 0.13075776 0.50418586 -0.066344626 0.0051816655 -0.058800202
0.2664099 -0.40146595 0.9271074 -0.048379127 -0.00024816394 0.18697613 -0.13435078 -0.1763497
-0.05409551 0.278086 0.0028263791 -0.1181787 0.08868852 0.133926 0.1466015 0.1630843
0.34097028 0.92130065 -0.18752986 -0.23331596 -0.09006238 -0.1407045 0.04641047 0.27938244

critic.0.bias f4 [64]
00000000: ae30 30be 7832 f9bd 4cfd b23e 44a3 1c3e
00000010: 02f2 c93e 5e24 c23e c610 2f3e babd 11bf
00000020: 594d 3f3e 9ea3 c93d 1627 94bd 1a9e e2bb
00000030: bae3 ce3d c65e 9b3e 4392 55bd 0c4b c23d
00000040: 113d 353e 55b8 86bd 48bb 37bd f59d 883d
00000050: 5cb7 da3c b598 513e 91fc bc3e ec12 c3bd
00000060: 024e 553d b975 ee3e fb91 8b3d 1452 933e
00000070: 8868 4a3d edc3 3ebc 9ad0 793e 5b9f 68be
00000080: 1ef7 bbbd ad66 703e 6834 edbe 16b8 2f3e
00000090: 1293 c53e 79ae 6ebe c8b1 ca3d 24dd e3be
000000a0: fd50 0c3f f943 393e 81dd 05bd fe63 c93e
000000b0: d71a 603d 5f31 1d3d 9a80 e4bd f67f 0bbe
000000c0: 4d32 c5bd 7454 e9be eef1 fdbe 8cc9 a63e
000000d0: 8aed 30be 5006 7ebd 7e3d 3dbe 5a4b 3abe
000000e0: ad43 043e e226 3fbe 7b8c 873e 8a35 43be
000000f0: bd43 a63d 33c0 44be 6d8f 74be ab09 7f3e
-0.1720607 -0.12167829 0.34958875 0.15296656 0.3944245 0.3791837 0.17096242 -0.56930125
0.1868185 0.098456606 -0.072340176 -0.00691582 0.10102029 0.30345744 -0.05214144 0.0948697
0.17699076 -0.06578127 -0.04485634 0.06670753 0.02669876 0.2046841 0.36911443 -0.095250934
0.052076347 0.4657419 0.06814953 0.28773558 0.049416095 -0.011643392 0.24395981 -0.2271704
-0.09177993 0.23476668 -0.46329045 0.17160067 0.38588768 -0.23308744 0.0989719 -0.44504654
0.5481108 0.18092336 -0.032681946 0.393341 0.054713096 0.038377162 -0.11157341 -0.13623032
-0.09628735 -0.45572245 -0.4959864 0.32575643 -0.17278114 -0.06201774 -0.18480489 -0.18192807
0.12916441 -0.18667176 0.26474366 -0.19063392 0.08118389 -0.19213943 -0.23882838 0.24906032

critic.2.weight f4 [64, 64]
00000000: 51b6 da3d 1538 76be 7f9a 16be da3e 3ebd
00000010: 0d9c 023e fa02 34bc f271 393e 73e1 603d
00000020: 17da 78bc 73d6 a2be 0731 11bd 20fa b6bd
00000030: 566d d3bd 0e88 8b3e 5e7d 48be d39e 91bd
00000040: 96ee b03d 736b e03d 9ace cfbd e753 b93d
00000050: 8e2f 4f3d 0260 133e 00c6 613d 10f7 9abc
00000060: a591 ca3b a187 32be 40e1 6fbe 139a 99bd
00000070: b702 ee3d 42a1 1fbe f52c 0dbb 1646 b43d
00000080: 5414 323e 87ca 04bc 356d 41be bbed b73d
00000090: a2c9 17be f68b 28be 0015 4a3e 93c4 2dbe
000000a0: c22f 253e 24c7 313d 585b 733d e6d2 65bc
000000b0: 0ef5 20bd 319e 463e 3008 45be 561c f2bd
000000c0: 5d0f ff3c d03b febd f38c 25be 417b dbbc
000000d0: 1d3a 0a3e 1331 95bd 1327 c43d 90fa 1ebc
000000e0: 8fc0 efbd 6684 8e3e ca8e 32bc ad82 d8bd
000000f0: c571 ccbc 17b6 06bc dcd3 1a3d dc41 c23d
00000100: 2bd0 d6bd 9bbb f2bd 91b9 633c d9db 0e3f
00000110: 4881 c5bd 3219 30be 6875 93be 6590 85bb
00000120: 011d 56be e52a 413e d0a9 053f fab2 593e
00000130: 1785 d63e a741 7e3c bcee 063f e4c3 1abe
00000140: 4632 503d 2e39 3e3e 27f9 b43c 4e12 af3d
00000150: 3dd3 dc3e 4dff a63d 4e39 8ebc 4dc2 3fbe
00000160: 1f43 143d 5ade 3dbe f86d 91be 2531 4e3e
00000170: cfe3 213e 740c 80bd e407 0d3e f3a9 5e3d
00000180: dfd6 0dbf 1b83 e6be 0606 e73d f0c5 f5bd
00000190: ff10 82be a828 d6bc b810 fdbd 5afb 313d
000001a0: 7e41 8e3c 641b b23e 6a90 863d b6f2 2ebe
000001b0: a5b3 9f3c 8069 343d 7162 bfbd fe8e bcbe
000001c0: 18e9 dd3d 2844 ce3e 345d b1bd 9c4b 1d3e
000001d0: c16f fabe 6da4 803d 377d 3c3d 4512 b53b
000001e0: ffbc e13e 5743 4a3e 4d8c a3be 8570 39be
000001f0: 6542 01bf 16a0 9e3e 5932 96bd c5a4 773d
00000200: 69ae a23d ed8e 2bbd 582f 1cbd 5c58 193d
00000210: d5c1 f6bd eec3 8e3d 90a5 143d 0949 023e
00000220: a7aa f8bd c89f 6b3e 126c 943d 625b 08bd
00000230: ea54 19be 13ca 58be f11d 22bd da1f d83c
00000240: 5c37 843d 46d9 183e 38e4 3d3e 8f3a 08be
00000250: 476d d73d bc96 3bbe 3d6b 3bbd 52a0 853e
00000260: 9d0f cbbc 3974 a13d 10f8 9dbc 445f 82bb
00000270: 478a 1dbe 4638 e9bc f318 09bd 7943 0cbc
00000280: 6cb9 ca3d 6eda adbd 4d5c d53d dec7 05bd
00000290: 4a25 34be 169b ab3d 81f9 56be d128 b13d
000002a0: f3bd b5bd e287 5c3d b478 0c3d ae6b 0cbc
000002b0: 0ca6 3a3e 618e 22be 1b4f a13d 7fc9 263d
000002c0: cb25 3cbe 4896 3a3e db2f 303e 4db8 3abe
000002d0: 2aca e23d 3b68 17bd e3ae 22be b403 96bd
000002e0: 158d b83d 0d5c c3be be57 19bd f02c 903d
000002f0: c9f1 933d 75a8 d13d f043 9bbd 2460 0dbe
00000300: 1043 94bd c6e2 8fbc bc2b 05be 7f7e 473d
00000310: 19d1 acbd a557 153d 3ce3 9dbe ff99 063e
00000320: 7b71 0ebe 7fb3 84bd f200 7e3d a815 843e
00000330: 4959 e8be 2b24 153e 6064 db3e ddc0 91be
00000340: f2d8 46bd 9d84 ac3c 09ee 293c 6ace 973d
00000350: 7260 5f3e 4ddf 713e 3474 3bbd dab1 8bbd
00000360: 0c18 dcbd bf7e 85bd a39e 1c3c a9e7 923c
00000370: 0456 91bc ddae c23d 81d4 04be ca70 703e
00000380: 5601 b4be d34a c4bd d9f3 ad3d fa24 f9bd
00000390: ae97 8abe 7974 173e 93a2 683e 64bc 38bc
000003a0: 018a 49bd 1d52 303e cd77 efbd afab d03b
000003b0: 2e89 62bd 1343 63be 71ba 15be 8650 09be
000003c0: bec2 41bc e2be a83e b535 713e 20c9 123e
000003d0: 64fc 09bf 0809 e93e c34e 21bd b687 393f
000003e0: 080f 9b3e 56ec 6d3d ed86 90be ebf0 91bc
000003f0: 2448 bcbe 5b09 8f3e 8ee6 133d d7f7 053e
0.10679305 -0.24044831 -0.14707373 -0.04644666 0.12754841 -0.010987038 0.18109873 0.054902505
-0.015188715 -0.31804237 -0.035447147 -0.08934426 -0.103235886 0.2725224 -0.19579074 -0.071103714
0.08639257 0.10957994 -0.10146828 0.09049206 0.05058246 0.14392093 0.05512047 -0.018916637
0.006181913 -0.17434551 -0.2342577 -0.075000905 0.116216116 -0.15588859 -0.002154169 0.0880243
0.17390567 -0.008104927 -0.18889315 0.0898089 -0.1482301 -0.16459641 0.19734573 -0.16969518
0.161315 0.043402806 0.059413284 -0.014027333 -0.039296202 0.19396283 -0.19241405 -0.11821811
0.031135255 -0.12413752 -0.16167049 -0.02679217 0.13498731 -0.07284751 0.09577765 -0.009703293
-0.117066495 0.27835387 -0.010898301 -0.105717994 -0.024956593 -0.008222125 0.0377997 0.09485218
-0.10488924 -0.11852189 0.013899223 0.5580421 -0.09643799 -0.17197111 -0.2880051 -0.004076051
-0.20909502 0.18864019 0.5221224 0.2125968 0.41898414 0.015518582 0.5270803 -0.15113789
0.050829194 0.185765 0.022091461 0.08548413 0.43129912 0.081541635 -0.01736131 -0.18726464
0.036196824 -0.18541852 -0.28404212 0.20135935 0.15809558 -0.06252375 0.13772541 0.054361295
-0.5540599 -0.450219 0.11280446 -0.12000644 -0.25403592 -0.026142433 -0.123567045 0.0434526
0.017365213 0.34786522 0.065705135 -0.17084774 0.01949484 0.044045925 -0.09344948 -0.36827844
0.10835475 0.40286374 -0.08660355 0.15360874 -0.48913386 0.06281362 0.04601785 0.0055258595
0.44089505 0.1975225 -0.31942979 -0.18109329 -0.50491935 0.3098151 -0.07333822 0.06045987
0.07943422 -0.04188435 -0.038131088 0.03743778 -0.12048689 0.06970964 0.036290705 0.12723173
-0.12141924 0.2301017 0.07247175 -0.033290274 -0.14973798 -0.21170835 -0.039579336 0.026382376
0.064558715 0.14926633 0.1854409 -0.13303588 0.1051889 -0.1831922 -0.045756567 0.26098877
-0.024787718 0.07883496 -0.019283324 -0.0039786417 -0.1538478 -0.028469216 -0.03347106 -0.008561009
0.09898648 -0.08488928 0.104179956 -0.03266131 -0.1759235 0.0837919 -0.20993616 0.08650363
-0.088741206 0.053840525 0.0342948 -0.008570595 0.18227404 -0.15874626 0.07876416 0.040719505
-0.18373792 0.1822139 0.17205755 -0.18234368 0.11073716 -0.036964636 -0.15887026 -0.07324925
0.09011284 -0.38156167 -0.037437193 0.07039821 0.07223851 0.10237209 -0.075813174 -0.13806206
-0.07239354 -0.017564189 -0.13004965 0.04870462 -0.0843832 0.036460537 -0.3083743 0.13144682
-0.13910477 -0.06479549 0.06201262 0.25797772 -0.4538062 0.14564578 0.42850018 -0.28467456
-0.04854674 0.021059329 0.010371693 0.07412417 0.21814135 0.23620339 -0.045765117 -0.06821032
-0.10746774 -0.065183155 0.009559306 0.01793273 -0.01774121 0.09506009 -0.12971689 0.23480526
-0.3515727 -0.09584584 0.08493776 -0.12165256 -0.27068847 0.14790525 0.22718267 -0.011275385
-0.049203876 0.17218824 -0.11692772 0.0063681225 -0.055306606 -0.22193556 -0.14621903 -0.13409624
-0.011826215 0.32958132 0.23555644 0.14334536 -0.5390074 0.45514703 -0.039381754 0.72472703
0.30284905 0.058086716 -0.2822794 -0.017815074 -0.3677379 0.27936825 0.036108546 0.13082825

critic.2.bias f4 [64]
00000000: d854 253b 9794 e3bd edcf 22be cccf f6bd
00000010: 4fd4 48be 8e75 28be 7ec5 f53c 065c 693e
00000020: 5c4f 553e 8711 e33c a5e0 f1bd 979c 0d3e
00000030: 24ac f0bd 34cd 94bd d768 123d 5c66 24bd
00000040: 8c7e 90bd 3855 963c 2461 9f3d c6a9 243e
00000050: 44f9 2f3d 3aff 11be 2419 173e d998 d63d
00000060: 5ddf b23d b1bd de3b 4eba a9ba 8c14 dc3d
00000070: e238 e5bd 1a15 1c3e b2d4 003c 8fa3 0d3e
00000080: 3841 b4bc 6ef1 a8bd 1d6b 843e 16f9 c73d
00000090: 4a9d 5c3d fc0a 653e 36e0 80bc 70fc 113e
000000a0: 1ffd a3ba 6781 063e 1034 2b3e b4f1 dc3d
000000b0: 4f23 e63d 43b9 9bbd c42f 423e fa07 72be
000000c0: 249c d3bc 575d 3bbe 2dd1 4e3c 8e8d d73d
000000d0: b723 0abe d68a 353d 29db 7e3d 7b43 033e
000000e0: 58fc 7cbd a2e1 14be d529 5dbd edc1 f03d
000000f0: 98a5 883d e26e d5bd 95ca 95bb 517d f4bd
0.0025227573 -0.11112326 -0.1589963 -0.12051353 -0.1961224 -0.16451094 0.030001398 0.2278901
0.20831054 0.027718319 -0.11810426 0.13829266 -0.11751583 -0.07265702 0.035744514 -0.04013668
-0.07055387 0.018351182 0.077822 0.16080388 0.042962328 -0.14257517 0.14755684 0.10478372
0.087340094 0.0067975153 -0.00129492 0.107461065 -0.1119249 0.15242425 0.0078632105 0.13831924
-0.022003755 -0.08249174 0.2586297 0.09764306 0.05386094 0.22367471 -0.015731912 0.14256454
-0.0012511349 0.131353 0.16719079 0.10788289 0.11237203 -0.07603695 0.18963534 -0.23635855
-0.02583129 -0.18297325 0.012623114 0.10525046 -0.13490187 0.044321857 0.062220726 0.1281871
-0.06176409 -0.14539197 -0.053994972 0.117557384 0.066722095 -0.1042154 -0.004571269 -0.11937965

critic.4.weight f4 [1, 64]
00000000: 14ff 61bd 4d97 b5be cfe0 fe3b 99e9 96be
00000010: fba9 0d3e cf2a a7be c2e6 c7bd 60d8 46be
00000020: 2f9b 7f3e ad1c 40be ba03 6ebe a56b 55be
00000030: fb27 6ebe bf3b 54be 7219 fbbd 2f23 263e
00000040: 3cbf b33e a683 553e c11c 2d3e a3e3 8dbe
00000050: ab40 a2be eb94 9a3e d04c 32be 4190 ae3e
00000060: 7d83 fbbc 53e8 a23d c931 60be 6174 08be
00000070: 9654 19be f81d 79be 2dd2 533e b264 7b3e
00000080: 8651 323e 33d2 073e 4305 78be ccb4 543e
00000090: d72a 913e b6dc 033e ffbd ca3d 6317 74be
000000a0: fbd9 68be 1069 243e f45c acbd 48b7 a93e
000000b0: 2268 1fbe 299c 91be b5a4 5ebe b26e 753e
000000c0: d294 0b3e 5c66 993e 3a39 84be fca8 44be
000000d0: 67cd 5fbe bbec 53be 29d6 65be 1a57 e8bd
000000e0: 583d 943e d857 b33e be14 90bd cc95 d53e
000000f0: 0e07 3dbe 8f08 623e 5010 37be ae75 92be
-0.055174902 -0.35466996 0.007778264 -0.29475096 0.13834374 -0.32649848 -0.097608104 -0.19418478
0.24961542 -0.18760939 -0.23243609 -0.20841844 -0.23257439 -0.20725916 -0.12260713 0.16224359
0.35106838 0.20851001 0.169055 -0.27712736 -0.31689963 0.3019174 -0.17412114 0.34094432
-0.030702347 0.079544686 -0.21893992 -0.13325645 -0.14973673 -0.24327838 0.20685644 0.24550131
0.17413911 0.13263778 -0.24220757 0.20772094 0.28352997 0.12877163 0.0989952 -0.23837046
-0.22739403 0.16055703 -0.08416167 0.33147645 -0.15567067 -0.28439453 -0.21742518 0.23968008
0.13630989 0.29960907 -0.2582491 -0.19205087 -0.21855699 -0.20695774 -0.22444977 -0.11344738
0.28953052 0.35027957 -0.07035206 0.41715848 -0.18459722 0.22073577 -0.17877316 -0.28605407
