models/025_Optimal_Phase1/025_Optimal_Phase1_best.pth (torch, 47090 bytes, 11 tensors)

actor.0.weight f4 [64, 15]
-0.09465621 0.08088019 -0.18896346 -0.17206557 0.17377785 0.3798633 0.0017152719 0.22430846
0.03346399 -0.04525935 -0.16338089 -0.085973844 -0.20588826 0.12182847 -0.1878201 -0.20313632
-0.064656615 -0.087239556 0.00039485758 0.77817714 -0.13572475 0.03694538 0.10228894 -0.12617524
-0.1904224 0.18059596 0.0014662743 0.25671062 0.22449157 -0.15585695 -0.10347566 -0.17075998
0.28709844 0.061639525 0.3253899 0.17912474 0.049242884 -0.16726291 -0.27506852 -0.107500896
0.1282277 0.083764255 0.09478074 0.03165865 -0.19119377 0.14779894 0.13056377 0.03924225
-0.3359393 -0.11791036 0.032265685 -0.017259846 0.030314902 -0.5193012 0.10909837 0.014571014
0.088525236 0.046899766 0.062761456 -0.049087316 0.20449555 0.36851946 -0.035303973 0.015491764
-0.0028209698 0.40692264 -0.051879507 0.048873402 0.01045148 -0.09033725 0.22918513 -0.06955628
0.14362603 0.13488331 0.035206348 -0.27262172 0.06222485 0.048609797 0.19513324 0.45854205
0.039098956 0.033049505 -0.04249669 -0.030390045 0.022306604 0.19071375 0.21783578 -0.19806167
-0.1751096 0.2513893 -0.15943046 -0.08172275 -0.065135546 -0.1555557 0.2595977 -0.112090126
0.03546219 -0.1817966 -0.15208177 -0.27891415 -0.17720576 -0.14981622 -0.044783264 -0.107992664
-0.24529028 -0.08125374 0.051342454 0.023003263 0.1526358 -0.29345903 0.34113398 0.00688947
0.13203819 0.23512624 -0.13349612 -0.052176554 0.034445822 0.18687081 -0.015282527 -0.2524761
0.10085953 0.30089164 -0.11844336 -0.00072317774 -0.55642 0.08754947 -0.12722467 -0.009467518
-0.05260363 -0.18346094 -0.078424655 0.1263085 -0.16285774 -0.037043184 0.18316433 0.023261562
-0.028018106 -0.22486643 -0.11480278 0.5329124 -0.19058913 0.07324585 0.17010887 -0.3994328
0.25975448 -0.27436197 0.19400755 -0.10897343 0.018536925 0.10116941 0.30458125 -0.05812026
0.12323063 0.22148503 -0.575669 0.06997234 -0.10956015 0.030257322 -0.20685668 -0.17123556
0.35521743 0.09902352 -0.24733473 0.0094178915 -0.13499603 0.20291214 -0.057379987 -0.009510444
-0.11495901 1.0040814 0.21133529 -0.09528532 -0.012401287 -0.3174553 -0.11167465 0.41236132
0.01659137 0.17684123 0.091407835 -0.17883903 0.20485649 -0.07630698 0.08681116 -0.16344556
0.35626602 -0.051148985 0.20186017 0.03558621 0.10999634 -0.2443089 0.22113861 -0.23040839
0.05592221 -0.076225504 -0.21579516 -0.27169454 0.060739174 0.2884528 0.024841232 0.1981703
-0.35446116 0.14006442 -0.12392673 0.23617487 0.22652371 -0.002047257 -0.0795937 0.18688104
0.12106994 0.022908598 0.07660851 -0.13180518 -0.08746022 0.054536037 0.7751525 0.0070995074
-0.10894105 0.18923865 0.26634 0.074427314 0.13505101 -0.08250789 -0.12710384 0.13594955
0.24786136 0.21580417 0.06828719 0.14607622 -0.14159597 -0.025511658 -0.046266187 -0.1007291
-0.11678644 0.18116447 0.22809455 -0.010221284 0.20352983 0.102779955 0.22573128 0.19423941
0.068589434 0.06355419 -0.59786355 -0.004175813 0.187762 -0.10677776 -0.0070960447 -0.23541605
-0.09901569 0.05537524 -0.33345404 -0.004856229 0.254114 0.2463359 0.120023936 -0.26761916
00000000: 1ddb c1bd 83a4 a53d a37f 41be f531 30be
00000010: d2f2 313e 717d c23e f9d2 e03a 1eb1 653e
00000020: 8911 093d de61 39bd 524d 27be 0e13 b0bd
00000030: 5fd4 52be 3481 f93d ea53 40be f802 50be
00000040: b06a 84bd a7aa b2bd e304 cf39 9e36 473f
00000050: 6efb 0abe 0a54 173d dd7c d13d 1534 01be
00000060: 17fe 42be 26ee 383e 0030 c03a 936f 833e
00000070: 1ee1 653e f798 1fbe 0ceb d3bd b4db 2ebe
00000080: 91fe 923e ba79 7c3d 8199 a63e 7a6c 373e
00000090: e8b2 493d f846 2bbe c8d5 8cbe 6e29 dcbd
000000a0: 1f4e 033e 988c ab3d 681c c23d 80ac 013d
000000b0: 4dc8 43be 9b58 173e 82b2 053e 7bbc 203d
000000c0: 3c00 acbe fd7a f1bd 0629 043d 8564 8dbc
000000d0: f556 f83c ecf0 04bf f76e df3d 43bb 6e3c
000000e0: b84c b53d f819 403d 1489 803d c80f 49bd
000000f0: 4867 513e 95ae bc3e e69a 10bd 2bd1 7d3c
00000100: 05e0 38bb 2a58 d03e 9b7f 54bd 7a2f 483d
00000110: af3c 2b3c bc02 b9bd 82af 6a3e 8673 8ebd
00000120: b412 133e da1e 0a3e 8834 103d 1395 8bbe
00000130: 7cdf 7e3d 111b 473d 02d1 473e 06c6 ea3e
00000140: 3a26 203d eb5e 073d 0211 2ebd 8bf4 f8bc
00000150: 57bc b63c 774a 433e 5810 5f3e aed0 4abe
00000160: ee4f 33be 19b6 803e bd41 23be 425e a7bd
00000170: c965 85bd fe49 1fbe fde9 843e 828f e5bd
00000180: cd40 113d e328 3abe 53bb 1bbe d6cd 8ebe
00000190: 6d75 35be 6c69 19be a86e 37bd 422b ddbd
000001a0: 602d 7bbe 5c68 a6bd 774c 523d 5771 bc3c
000001b0: 8f4c 1c3e 4340 96be 1da9 ae3e 10c1 e13b
000001c0: 0535 073e efc4 703e 35b3 08be 15b7 55bd
000001d0: 1017 0d3d 105b 3f3e 9063 7abc 8c44 81be
000001e0: 718f ce3d 780e 9a3e 6f92 f2bd a393 3dba
000001f0: 8b71 0ebf 234d b33d 2f47 02be a61d 1bbc
00000200: e776 57bd 2fdd 3bbe 1b9d a0bd 0457 013e
00000210: 2ec4 26be 98ba 17bd 6e8f 3b3e 088f be3c
00000220: 3a86 e5bc 6343 66be b81d ebbd f26c 083f
00000230: cc29 43be ec01 963d 0531 2e3e 7582 ccbe
00000240: 8afe 843e 2c79 8cbe eaa9 463e 762d dfbd
00000250: c0da 973c e831 cf3d 13f2 9b3e 820f 6ebd
00000260: 5760 fc3d f9cc 623e 0b5f 13bf a84d 8f3d
00000270: 1261 e0bd 34de f73c 3dd2 53be 6058 2fbe
00000280: 0fdf b53e d8cc ca3d 5145 7dbe 804d 1a3c
00000290: 663c 0abe 33c8 4f3e 4707 6bbd b1d1 1bbc
000002a0: a16f ebbd bd85 803f 4768 583e f324 c3bd
000002b0: c52e 4bbc 8089 a2be aeb5 e4bd 0621 d33e
000002c0: a0ea 873c de15 353e 0834 bb3d 9421 37be
000002d0: e6c5 513e d546 9cbd 0dca b13d 465e 27be
000002e0: 8068 b63e 9981 51bd 6fb4 4e3e d9c2 113d
000002f0: c345 e13d 1d2c 7abe 2972 623e 2df0 6bbe
00000300: b00e 653d 1e1c 9cbd 68f9 5cbe 8c1b 8bbe
00000310: a4c9 783d 16b0 933e d77f cb3c 28ed 4a3e
00000320: ef7b b5be 0c6d 0f3e 4ccd fdbd d3d7 713e
00000330: d5f5 673e 462b 06bb 0602 a3bd be5d 3f3e
00000340: 84f3 f73d d0aa bb3c ece4 9c3d f0f7 06be
00000350: 581e b3bd 2e61 5f3d 6570 463f fca2 e83b
00000360: 7c1c dfbd c7c7 413e b75d 883e 596d 983d
00000370: d04a 0a3e e6f9 a8bd 8227 02be 5c36 0b3e
00000380: 5ecf 7d3e c5fb 5c3e 27da 8b3d 0195 153e
00000390: 89fe 10be d3fd d0bc 9d81 3dbd 0f4b cebd
000003a0: bb2d efbd 2e83 393e 9e91 693e 2c77 27bc
000003b0: 206a 503e 4c7e d23d 1a26 673e b2e6 463e
000003c0: 9e78 8c3d b328 823d 960d 19bf 42d5 88bb
000003d0: af44 403e 4cae dabd f085 e8bb e810 71be
000003e0: bdc8 cabd 26d1 623d 7dba aabe 0021 9fbb
000003f0: 3b1b 823e 7a3f 7c3e 1ccf f53d 6105 89be

actor.0.bias f4 [64]
0.19320194 -0.12390234 0.020451915 0.07555453 -0.07508412 0.071939126 -0.24137674 0.019485438
0.24961248 -0.15827341 0.27240717 0.12300716 -0.09098811 -0.22341569 -0.15649839 0.26334447
0.12782243 -0.16313468 -0.3188508 0.022527982 0.1965134 0.017627757 -0.21026918 -0.14663588
-0.02768013 -0.27808127 0.015829725 0.07145197 0.02279903 0.31291187 0.006232375 0.06144109
0.12587756 -0.3213582 0.10544335 -0.08252679 0.14572631 -0.17291139 -0.20954481 -0.10568367
0.10650721 -0.12355726 0.018339697 0.31139997 0.02733214 -0.07200609 -0.1049833 -0.15951781
-0.23059162 -0.0765419 -0.23957409 -0.20762761 -0.09015256 0.22132237 0.013608528 0.22659698
-0.17651261 -0.0876657 -0.14558281 -0.059846275 0.15418313 -0.032716315 0.025823653 -0.27492964
00000000: bbd6 453e 83c0 fdbd c68a a73c 55bc 9a3d
00000010: b4c5 99bd d254 933d 772b 77be ed9f 9f3c
00000020: 6a9a 7f3e 6d12 22be f478 8b3e 2eeb fb3d
00000030: f957 babd 15c7 64be 1d41 20be 16d5 863e
00000040: e2e3 023e c70c 27be 6940 a3be 9a8c b83c
00000050: cf3a 493e 1668 903c ce50 57be b727 16be
00000060: 71c1 e2bc ab60 8ebe 57ad 813c 6955 923d
00000070: 08c5 ba3c fc35 a03e f338 cc3b a7a9 7b3d
00000080: 0ce6 003e 1089 a4be aff2 d73d ce03 a9bd
00000090: 4739 153e af0f 31be ea92 56be ae70 d8bd
000000a0: 7420 da3d 970b fdbd 223d 963c d16f 9f3e
000000b0: a7e7 df3c ee77 93bd 7c01 d7bd a358 23be
000000c0: 3620 6cbe 00c2 9cbd e952 75be 559c 54be
000000d0: e8a1 b8bd 55a2 623e 4ef6 5e3c 0a09 683e
000000e0: b9bf 34be 138a b3bd a913 15be 5e21 75bd
000000f0: 2fe2 1d3e 8b01 06bd 208c d33c 94c3 8cbe

actor.2.weight f4 [64, 64]
-0.10669269 0.06367717 0.03989474 -0.02303888 -0.22131395 -0.07156893 0.124579154 -0.07429201
0.027406504 0.020223107 -0.010234278 -0.10744004 -0.037261445 0.02213283 -0.02521205 0.031344045
0.09709953 0.057314105 -0.1700019 0.042884964 -0.020961633 0.14733344 0.08627065 0.14423496
0.06785653 0.16533403 -0.17807975 -0.019816691 0.050887737 0.016373347 0.034345645 -0.029710134
0.035587482 0.17184523 -0.14073823 9.7320815e-05 0.12637332 0.043060295 -0.0008950287 0.068440124
0.10107386 0.10925809 0.013803586 0.005880278 0.2378026 -0.06173276 0.0019385116 0.14279349
-0.036089763 -0.10577196 -0.08777981 -0.097978614 -0.03170058 0.066439345 -0.07999802 -0.21998252
0.19264273 0.08023483 0.11300542 0.023064421 -0.10644938 -0.08404882 0.030621383 0.08351121
-0.007321392 -0.103592604 -0.09171302 -0.054219816 0.03092314 0.04584501 -0.10162593 0.11897243
-0.05887248 -0.016740954 0.027674448 0.10881016 0.07362598 -0.066069484 -0.006205795 0.10216734
-0.02701871 0.0065040374 -0.054331355 0.008288943 -0.017040573 -0.09451304 0.027660515 -0.16882963
0.07632211 -0.10730787 0.11454563 0.0123521285 0.076577865 -0.059870563 0.08553263 0.056861255
-0.06297884 -0.09156952 0.05615767 -0.03483428 -0.1010572 -0.079054885 0.012015251 -0.10709331
0.005621236 -0.022676278 -0.082816936 0.026772033 -0.027700592 -0.08917396 0.12886505 -0.012461005
-0.082105555 -0.010070552 0.024843086 0.09108116 0.014884075 0.18810748 -0.018400455 -0.06773685
-0.15126719 0.019943716 -0.12849179 -0.12746294 0.15786055 -0.02123724 -0.003621088 -0.063873276
0.07606452 -0.11431132 0.067369685 0.18808202 0.041123148 -0.00022862115 0.057776716 -0.10601115
0.08485349 -0.040926732 -0.11520923 -0.08799712 -0.099659055 0.08194876 0.06115548 0.036657877
-0.0017579726 -0.033419207 0.06215149 -0.10850931 -0.0143525945 -0.089258164 0.051554345 0.073179774
-0.08030268 0.10527005 0.012876392 -0.04262682 0.024110002 -0.091928974 -0.038683526 -0.053885665
-0.10629352 -0.09503255 0.11930975 0.05503729 0.0060278885 -0.059317745 -0.09032915 0.10537971
-0.016856475 -0.12300466 -0.00042762127 -0.08248195 0.14266968 0.04853856 0.011547033 -0.0415671
-0.16223618 -0.007348794 0.05267338 -0.11029504 -0.11069241 0.13908699 -0.11688524 -0.007927994
-0.1717455 0.05744784 0.054569773 -0.20826103 -0.12880513 -0.11177501 -0.07356367 -0.004283186
0.098518394 0.17282113 0.030094333 0.0926125 -0.090660825 -0.0054059937 0.0883851 -0.032356463
-0.087756135 0.14619182 0.014377441 0.17680132 0.068385094 0.06473 0.0023337514 -0.022770163
-0.16907723 0.016301483 0.018052913 -0.13826619 -0.01799599 -0.07646529 -0.033786662 0.013838589
-0.13222052 -0.066007294 0.17214355 -0.0810057 0.03743683 -0.037778523 -0.023726687 0.050702773
-0.10452778 0.052178234 -0.030114567 0.036856838 -0.09639727 0.1426425 0.06755006 -0.06621187
0.15172902 0.123451486 0.07733101 -0.09537946 -0.06038088 0.037870754 -0.07194761 0.09224058
0.05402716 0.1364462 -0.0760393 0.040366698 0.027947107 -0.04782232 -0.06453625 0.108838744
-0.01184152 0.042107318 -0.078700624 0.17117459 -0.07425122 0.13392568 0.08562289 0.09738666
00000000: b281 dabd 2d69 823d ab68 233d 09bc bcbc
00000010: 20a0 62be bb92 92bd 5b23 ff3d 6926 98bd
00000020: 9b83 e03c eeaa a53c acad 27bc 8609 dcbd
00000030: 759f 18bd e94f b53c 8089 cebc 9d62 003d
00000040: 1edc c63d 32c2 6a3d fa14 2ebe 25a8 2f3d
00000050: bbb7 abbc 94de 163e abae b03d 54b2 133e
00000060: 5df8 8a3d 534d 293e 8a5a 36be 9d56 a2bc
00000070: a96f 503d 6621 863c 05ae 0c3d ab62 f3bc
00000080: 2ec4 113d 32f8 2f3e af1d 10be b718 cc38
00000090: 0268 013e fe5f 303d 5ca0 6aba 562a 8c3d
000000a0: d0ff ce3d b5c2 df3d 7028 623c 59af c03b
000000b0: 8682 733e 7edb 7cbd a815 fe3a 7538 123e
000000c0: dcd2 13bd f89e d8bd e7c5 b3bd 03a9 c8bd
000000d0: 78d8 01bd 5a11 883d 00d6 a3bd 1943 61be
000000e0: 2344 453e 2952 a43d 636f e73d 99f1 bc3c
000000f0: 2202 dabd ca21 acbd b2d9 fa3c ed07 ab3d
00000100: 4ae8 efbb 5c28 d4bd 09d4 bbbd 9915 5ebd
00000110: 8652 fd3c fac7 3b3d 4121 d0bd d1a7 f33d
00000120: 4524 71bd 5324 89bc 86b5 e23c dcd7 de3d
00000130: 38c9 963d 704f 87bd fb59 cbbb 1c3d d13d
00000140: 5756 ddbc d21f d53b 8e8a 5ebd 59ce 073c
00000150: ac98 8bbc 0d90 c1bd 4e98 e23c ade1 2cbe
00000160: c44e 9c3d 3bc4 dbbd e696 ea3d 9560 4a3c
00000170: dbd4 9c3d d63a 75bd bb2b af3d 59e7 683d
00000180: 0dfb 80bd cd88 bbbd 9605 663d 64ae 0ebd
00000190: 14f7 cebd 87e7 a1bd 9edb 443c bd53 dbbd
000001a0: 5832 b83b 9ac3 b9bc ed9b a9bd 0651 db3c
000001b0: 5aec e2bc d6a0 b6bd 33f5 033e 3e29 4cbc
000001c0: f526 a8bd f5fe 24bc ba83 cb3c c288 ba3d
000001d0: 56dc 733c 3f9f 403e 8dbc 96bc 9eb9 8abd
000001e0: c9e5 1abe 0161 a33c 5a93 03be a585 02be
000001f0: 32a6 213e b8f9 adbc c74f 6dbb fecf 82bd
00000200: b7c7 9b3d 0e1c eabd 1ef9 893d 9398 403e
00000210: bf70 283d 06ba 6fb9 47a7 6c3d 601c d9bd
00000220: abc7 ad3d caa2 27bd d1f2 ebbd d637 b4bd
00000230: 0c1a ccbd c0d4 a73d 2b7e 7a3d 9226 163d
00000240: c66b e6ba 94e2 08bd 9092 7e3d 213a debd
00000250: 2527 6bbc fccc b6bd a62a 533d 47df 953d
00000260: bb75 a4bd d397 d73d 81f7 523c 7699 2ebd
00000270: 5782 c53c 4245 bcbd 9e72 1ebd 37b7 5cbd
00000280: 6bb0 d9bd 6da0 c2bd ac58 f43d c86e 613d
00000290: 9885 c53b 2af7 72bd 7dfe b8bd 51d1 d73d
000002a0: 9716 8abc dee9 fbbd 5b32 e0b9 4cec a8bd
000002b0: 0018 123e 5ed0 463d c42f 3d3c 4342 2abd
000002c0: 3e21 26be 27ce f0bb 0bc0 573d 5ee2 e1bd
000002d0: b4b2 e2bd d26c 0e3e 8761 efbd 6be4 01bc
000002e0: 0dde 2fbe 6d4e 6b3d 8e84 5f3d 6142 55be
000002f0: 7ee5 03be 4cea e4bd 8da8 96bd f859 8cbb
00000300: 03c4 c93d 06f8 303e 6488 f63c 9fab bd3d
00000310: 62ac b9bd c324 b1bb 3f03 b53d 3688 04bd
00000320: 7db9 b3bd 4fb3 153e 5c8f 6b3c 680b 353e
00000330: 7c0d 8c3d 2a91 843d daf1 183b 7e88 babc
00000340: 9522 2dbe b08a 853c b4e3 933c a795 0dbe
00000350: 546c 93bc d599 9cbd e263 0abd 40bb 623c
00000360: d164 07be d52e 87bd 6646 303e 51e6 a5bd
00000370: 5d57 193d a7bd 1abd 785e c2bc b6ad 4f3d
00000380: a912 d6bd d8b8 553d d3b2 f6bc 32f7 163d
00000390: ef6b c5bd e010 123e b057 8a3d 179a 87bd
000003a0: da5e 1b3e 22d4 fc3d b85f 9e3d 4e56 c3bd
000003b0: f151 77bd 5d1e 1b3d 4559 93bd a1e8 bc3d
000003c0: 954b 5d3d 8db8 0b3e 7eba 9bbd 8d57 253d
000003d0: 55f1 e43c 56e1 43bd 952b 84bd d9e6 de3d
000003e0: ef02 42bc b978 2c3d cb2d a1bd 6448 2f3e
000003f0: 0611 98bd d023 093e 0e5b af3d a872 c73d

actor.2.bias f4 [64]
0.05378113 0.01889626 0.097510904 -0.06689049 -0.11295671 0.049753975 0.06035243 -0.13413815
-0.09334628 0.12124453 0.047221314 0.047123242 0.083353706 0.08352917 -0.025883105 0.07271963
0.014348722 -0.053863868 0.15194571 0.12322755 -0.16001095 -0.037444476 0.0582372 0.10902962
0.10383352 -0.108039126 -0.16068436 0.11551932 -0.036417354 -0.15454999 -0.0639396 0.087209426
0.13620465 0.00097347226 -0.05264449 -0.1338247 -0.098266184 -0.07049575 0.028327886 0.07966777
0.047021274 -0.08598112 0.039994586 0.08357282 -0.05386808 -0.04453696 -0.10141919 0.021760806
0.09826522 -0.096951954 0.0780083 0.02190333 -0.04090011 -0.08537119 -0.1060593 0.11038933
0.043467678 -0.024360983 -0.057158414 0.15117218 0.030858202 0.09482696 -0.11738072 -0.04804596
00000000: 9a49 5c3d 54cc 9a3c ccb3 c73d e2fd 88bd
00000010: d955 e7bd d3ca 4b3d 1c34 773d 835b 09be
00000020: 562c bfbd 0d4f f83d 236b 413d 4d04 413d
00000030: 59b5 aa3d 5711 ab3d ce08 d4bc 08ee 943d
00000040: e716 6b3c 5ca0 5cbd a897 1b3e ba5e fc3d
00000050: e9d9 23be 615f 19bd 218a 6e3d ec4a df3d
00000060: aba6 d43d 9e43 ddbd 718a 24be 6595 ec3d
00000070: 5d2a 15bd 5a42 1ebe c4f2 82bd db9a b23d
00000080: 3b79 0b3e 9e30 7f3a c0a1 57bd 5809 09be
00000090: c83f c9bd 1360 90bd e20f e83c db28 a33d
000000a0: 6199 403d df16 b0bd 5dd1 233d 3a28 ab3d
000000b0: c7a4 5cbd 636c 36bd ddb4 cfbd b843 b23c
000000c0: 473f c93d bf8e c6bd d1c2 9f3d 9d6e b33c
000000d0: e086 27bd 17d7 aebd 9e35 d9bd cd13 e23d
000000e0: 2a0b 323d af90 c7bc f11e 6abd e1cc 1a3e
000000f0: 57ca fc3c a334 c23d 4e65 f0bd d7cb 44bd

actor.4.weight f4 [2, 64]
-0.061596982 0.0029149759 -0.011450057 0.040653013 0.011768596 0.039055996 0.026726494 -0.04192914
-0.040771585 0.03703733 -0.0044773202 0.00039941628 0.060386527 0.006713412 0.020771844 -0.008434729
-0.0024255712 -0.036944415 0.028338034 0.057218168 0.061585523 0.055547744 0.08434923 0.01691558
-0.01829883 0.0071288846 0.016086379 -0.019446636 0.025319185 0.028888058 -0.051689338 0.0025151626
-0.017308742 -0.05018849 -0.033356953 -0.030503063 -0.042703014 -0.022171155 -0.005203642 -0.020416351
0.022050047 0.039347496 -0.08487755 0.062488373 0.0032594071 0.025277752 -0.0036016728 0.011213037
0.0048457873 0.0683703 -0.044589166 -0.011872854 0.0018831387 -0.12121489 0.058501173 0.015254609
0.027832208 -0.012273575 0.06829676 -0.0029388499 0.012668924 -0.005071937 -0.019208437 0.020930065
0.03704745 -0.05383191 -0.019735303 0.055462208 0.083749294 0.07420806 0.06269321 0.09781848
0.09576246 0.036873043 0.021349255 0.0006512073 -0.07314889 -0.02286761 -0.016756559 -0.0011214351
0.04332514 0.013644007 0.005585057 -0.03185468 0.11380604 0.05482119 0.017209003 0.014725732
-0.018540295 0.029290484 0.0038808023 -0.00231378 0.03799697 0.056669857 -0.012194401 -0.04599614
-0.062421307 -0.027322479 -0.01682922 0.030887235 0.13957897 -0.020847518 -0.054351475 0.019855898
0.013816117 0.02932716 0.13342236 0.010051296 0.006367517 -0.036990657 0.052798957 0.071356244
-0.09733523 0.07239604 -0.06296981 -0.045985952 0.015058773 0.11448424 0.055899087 -0.062614664
0.115096755 -0.028488547 0.09933057 -0.062295564 -0.01694419 -0.045453023 -0.014453545 0.051710527
00000000: 1e4d 7cbd 2e09 3f3b 0599 3bbc c683 263d
00000010: 12d1 403c 2ef9 1f3d 85f1 da3c e4bd 2bbd
00000020: 1b00 27bd 75b4 173d 7cb6 92bb bf68 d139
00000030: dd57 773d 2efc db3b b729 aa3c d131 0abc
00000040: 55f6 1ebb 0753 17bd 2a25 e83c 995d 6a3d
00000050: 1a41 7c3d 0886 633d 4abf ac3d 8b92 8a3c
00000060: 6ee7 95bc 6b99 e93b 95c7 833c 8d4e 9fbc
00000070: 2e6a cf3c a6a6 ec3c 33b8 53bd 6dd5 243b
00000080: 10cb 8dbc 7292 4dbd 4da1 08bd 8fe1 f9bc
00000090: 5be9 2ebd 48a0 b5bc 5083 aabb 3140 a7bc
000000a0: 4da2 b43c d72a 213d 48d4 adbd cff3 7f3d
000000b0: c79b 553b 4a13 cf3c 0b0a 6cbb e3b6 373c
000000c0: 69c9 9e3b ba05 8c3d 21a3 36bd 5c86 42bc
000000d0: a6d3 f63a 833f f8bd ed9e 6f3d 78ee 793c
000000e0: 5f00 e43c 1b17 49bc 2cdf 8b3d b899 40bb
000000f0: 5291 4f3c 7e32 a6bb 035b 9dbc 8775 ab3c
00000100: 11bf 173d d97e 5cbd eeab a1bc 572c 633d
00000110: c084 ab3d 65fa 973d 4c65 803d 0e55 c83d
00000120: 1c1f c43d 3008 173d a2e4 ae3c c8b5 2a3a
00000130: 16cf 95bd db54 bbbc 0d45 89bc 1efd 92ba
00000140: b475 313d 1d8b 5f3c db02 b73b 0e7a 02bd
00000150: 2413 e93d 2f8c 603d e5f9 8c3c 3244 713c
00000160: d1e1 97bc 99f2 ef3c 0f55 7e3b c9a2 17bb
00000170: b6a2 1b3d a71e 683d 06cb 47bc 7366 3cbd
00000180: 7cad 7fbd 64d3 dfbc 6fdd 89bc 3a07 fd3c
00000190: caed 0e3e 6ac8 aabc a79f 5ebd d6a8 a23c
000001a0: ff5c 623c 833f f03c df9f 083e 31ae 243c
000001b0: 9ba6 d03b 8483 17bd b843 583d 3923 923d
000001c0: b157 c7bd 6044 943d 51f6 80bd c45b 3cbd
000001d0: 12b9 763c b776 ea3d 71f6 643d 1e3c 80bd
000001e0: d9b7 eb3d d060 e9bc d36d cb3d a229 7fbd
000001f0: 8bce 8abc f32c 3abd 90ce 6cbc 6bce 533d

actor.4.bias f4 [2]
0.047432516 -0.08015739
00000000: 9948 423d 8f29 a4bd

critic.0.weight f4 [64, 15]
0.12497118 -0.27156672 -0.07762831 -0.02925079 -0.21996546 -0.045326773 -0.30011353 -0.25107986
0.13091275 0.24543133 -0.2702339 -0.22572888 0.2381376 -0.11480452 -0.09529853 -0.0038818978
0.1320305 0.04076055 -0.34719148 0.9444633 0.12776244 -0.097880825 0.18558218 -0.34859422
-0.04168081 -0.061555825 0.11497423 -0.036253914 0.12334952 0.19330558 0.31406122 -0.10445517
0.018468114 -0.12953085 -0.43342516 0.17689906 -0.07125643 0.19658206 -0.021595316 -0.22055493
-0.04446386 -0.038300782 0.13699284 0.22882059 0.13105828 0.392414 0.18372813 -0.01711728
0.26495126 -0.61807257 0.711756 -0.059052676 0.7246058 -0.88951564 -0.77453834 0.292041
-0.18887305 0.09984729 -0.053699538 0.022176534 -0.115433894 -0.020239405 0.040420823 -0.03974271
0.301432 -0.16323727 -0.16392127 0.031029107 -0.40977257 0.5229632 -0.18182231 -0.13381964
-0.0085466355 0.19328725 -0.13557512 -0.21662304 -0.075897865 -0.02909128 -0.6651704 0.73381096
-0.17326845 -0.124301635 -0.08204234 -0.35202667 0.08149225 -0.11540817 0.09480855 0.25622663
0.06482223 -0.23475198 -0.1439321 -0.06532419 -0.03741068 0.27589542 0.17084692 0.26766998
-0.017203007 0.15704253 -0.07933342 1.023822 0.2636092 -0.016786858 0.078884155 0.0818063
-0.042831406 0.20070133 -0.019538146 -0.026501406 0.30278775 0.63494927 0.25947508 0.3426783
-0.15894383 -0.092063405 -0.4050655 0.207222 -0.00038546324 -0.18855387 -0.21206412 -0.024934426
0.11693706 0.22845009 -0.05942153 -0.26041707 -0.20343156 0.063975416 -0.0073425462 0.18806477
1.3529211 0.17829078 -0.08993207 0.006853223 0.023809344 0.11027482 -0.10465953 0.10584504
-0.3583382 -0.04878656 0.18764877 -0.98718345 -0.047773194 -0.006109385 -0.08660567 -0.7523718
0.41874185 -0.040677987 -0.13403627 -0.18028727 -0.105210364 0.19122902 0.06512489 0.19156247
0.021857036 0.026444081 -0.7014619 0.092857145 0.034383494 -0.051625326 -0.7232691 -0.7918099
-0.0110083325 -0.082388535 0.1833646 0.25433496 0.025884628 0.11150541 -0.13384886 0.02126466
-0.3399391 0.24402082 -0.0692453 -0.13466541 -0.0053276313 0.54662627 -0.7986415 0.124699265
-0.031405985 -0.12070991 0.03473243 -0.2180518 0.124042064 0.040388633 -0.014005758 -0.05983413
-0.23350067 0.7536431 -0.027019994 0.62738734 -0.9953003 -0.23935242 0.25048178 0.117488086
0.09653327 -0.056923747 0.04008946 0.1266206 0.14264634 -0.00693086 0.108936325 -0.057843402
0.36208877 -0.042858183 -0.122794755 1.6182417 0.18290298 0.10556082 0.17345369 -0.17078793
0.035018653 -0.10477412 -0.17237826 -0.069926776 -0.010826757 0.078146644 -0.29445213 -0.17154504
0.11542915 -0.27430847 -0.80283 -1.2124311 0.06802316 -0.015929759 0.09810719 -0.1673597
0.0066558123 -0.3314561 0.08885927 0.08366987 0.3376721 -0.19799547 -0.01144422 0.04689345
0.1764004 -0.57157075 0.974525 0.0374007 -0.00024816394 0.18697613 -0.13435078 -0.1763497
-0.07616068 0.2403343 -0.014022075 -0.14321133 0.20526636 0.088879004 0.14489721 0.121854715
0.26177716 0.8642387 -0.20959488 -0.23331596 -0.09006238 -0.1407045 0.04641047 0.29342657
00000000: e4f0 ff3d cb0a 8bbe 97fb 9ebd 5a9f efbc
00000010: a03e 61be 91a8 39bd 7ba8 99be 8a8d 80be
00000020: fe0d 063e 5a52 7b3e 195c 8abe 7925 67be
00000030: 58da 733e a21e ebbd e02b c3bd 7067 7ebb
00000040: 0133 073e 89f4 263d 15c3 b1be 59c8 713f
00000050: 28d4 023e be75 c8bd 4109 3e3e f17a b2be
00000060: 7fb9 2abd f621 7cbd 9c77 eb3d fc7e 14bd
00000070: ac9e fc3d e6f1 453e a2cc a03e 98ec d5bd
00000080: 714a 973c bca3 04be e7e9 ddbe 0725 353e
00000090: e4ee 91bd cf4c 493e a9e8 b0bc 27d9 61be
000000a0: bd1f 36bd 48e1 1cbd da47 0c3e f24f 6a3e
000000b0: 2434 063e 7dea c83e 3a23 3c3e 8a39 8cbc
000000c0: b1a7 873e 013a 1ebf a435 363f 38e1 71bd
000000d0: c47f 393f 4cb7 63bf 2548 46bf 6686 953e
000000e0: f067 41be bc7c cc3d 0cf4 5bbd 90ab b53c
000000f0: 9b68 ecbd 1ccd a5bc 4e90 253d 40c9 22bd
00000100: 4c55 9a3e ac27 27be fada 27be c130 fe3c
00000110: b6cd d1be ebe0 053f a12f 3abe 0408 09be
00000120: 3007 0cbc 18ed 453e 34d4 0abe 6ed2 5dbe
00000130: 5770 9bbd d650 eebc 9b48 2abf 09db 3b3f
00000140: 496d 31be db91 febd d005 a8bd d73c b4be
00000150: 69e5 a63d 1e5b ecbd fc2a c23d 2330 833e
00000160: 84c1 843d d362 70be f062 13be b0c8 85bd
00000170: f13b 19bd 2a42 8d3e 7ff2 2e3e 0a0c 893e
00000180: 52ed 8cbc c2cf 203e 8f79 a2bd 990c 833f
00000190: c9f7 863e 9884 89bc 048e a13d 108a a73d
000001a0: fc6f 2fbd a684 4d3e 760e a0bc 7a19 d9bc
000001b0: ff06 9b3e 098c 223f ebd9 843e 8873 af3e
000001c0: 2cc2 22be bd8b bcbd bf64 cfbe 0132 543e
000001d0: 0018 cab9 4414 41be 5627 59be 4843 ccbc
000001e0: b37c ef3d d2ee 693e fe63 73bd 6355 85be
000001f0: 5d50 50be 8b05 833d be99 f0bb 0d94 403e
00000200: 852c ad3f dc91 363e 4e2e b8bd 0091 e03b
00000210: d00b c33c c4d7 e13d bc57 d6bd 49c5 d83d
00000220: 1b78 b7be 6ad4 47bd 0027 403e 0eb8 7cbf
00000230: d3ad 43bd 3c31 c8bb 505e b1bd 709b 40bf
00000240: 5565 d63e f69d 26bd ce40 09be 3a9d 38be
00000250: 8878 d7bd 8ad1 433e 3360 853d f428 443e
00000260: 870d b33c 42a1 d83c 0293 33bf e32b be3d
00000270: b5d5 0c3d 1475 53bd 2a28 39bf 0eb4 4abf
00000280: 4b5c 34bc 52bb a8bd eec3 3b3e 3138 823e
00000290: 000c d43c f35c e43d ad0f 09be 3933 ae3c
000002a0: 7f0c aebe 98e0 793e 7bd0 8dbd bbe5 09be
000002b0: 6993 aebb b3ef 0b3f c573 4cbf 5462 ff3d
000002c0: 90a3 00bd c236 f7bd 9843 0e3d f948 5fbe
000002d0: c409 fe3d 8d6e 253d 6878 65bc a214 75bd
000002e0: cd1a 6fbe c1ee 403f 0959 ddbc 759c 203f
000002f0: 00cc 7ebf cd18 75be 263f 803e 989d f03d
00000300: 3cb3 c53d e028 69bd d834 243d d5a8 013e
00000310: e211 123e 451c e3bb 021a df3d 34ed 6cbd
00000320: b363 b93e 108c 2fbd d17b fbbd 8b22 cf3f
00000330: eb4a 3b3e 4530 d83d d89d 313e 08e3 2ebe
00000340: b86f 0f3d d093 d6bd ed83 30be c535 8fbd
00000350: b662 31bc 590b a03d 6ec2 96be 81a9 2fbe
00000360: 1e66 ec3d 2972 8cbe 4486 4dbf f130 9bbf
00000370: ba4f 8b3d 207f 82bc 6cec c83d 5760 2bbe
00000380: 0019 da3b 9db4 a9be d9fb b53d 1c5b ab3d
00000390: 5ce3 ac3e 53bf 4abe 8a80 3bbc 5913 403d
000003a0: 4ea2 343e 7652 12bf 787a 793f 7a31 193d
000003b0: 001c 82b9 ac76 3f3e 4093 09be 0495 34be
000003c0: 21fa 9bbd 321a 763e d8bc 65bc fea5 12be
000003d0: 5831 523e 3206 b63d ef5f 143e f78e f93d
000003e0: a807 863e bf3e 5d3f 0aa0 56be 61ea 6ebe
000003f0: a072 b8bd d714 10be e818 3e3d 023c 963e

critic.0.bias f4 [64]
-0.1960302 -0.081769966 0.36632624 0.15695558 0.2818465 0.38886 0.19756508 -0.59970915
0.18441908 0.1045131 -0.14282595 0.005509097 0.10863488 0.3671338 -0.08643704 0.1425763
0.11841639 -0.11205606 -0.004976545 0.058773324 0.05564149 0.18291451 0.47750208 -0.14118703
0.020975225 0.44649613 0.07279548 0.29575416 0.01307671 -0.019133378 0.20411871 -0.22604169
-0.07662051 0.27016675 -0.4105451 0.1760299 0.39394194 -0.20484553 0.13989617 -0.37661862
0.44505733 0.12941067 -0.06571982 0.4382448 0.058982648 -0.034797773 -0.11432505 -0.109806724
-0.12459982 -0.49662405 -0.46377596 0.30920753 -0.18441254 -0.031969525 -0.24864525 -0.18485431
0.10257775 -0.20651379 0.27825102 -0.15535367 0.12443037 -0.16149095 -0.18843861 0.2784699
00000000: 24bc 48be 0377 a7bd 1d8f bb3e f7b8 203e
00000010: 2f4e 903e a818 c73e 804e 4a3e 8a86 19bf
00000020: 5bd8 3c3e f70a d63d f740 12be a885 b43b
00000030: f77b de3d f6f8 bb3e e705 b1bd 86ff 113e
00000040: 4b84 f23d a67d e5bd 4912 a3bb 4cbc 703d
00000050: 55e8 633d f14d 3b3e 277b f43e 5593 10be
00000060: 3cd4 ab3c 249b e43e cc15 953d 176d 973e
00000070: b23f 563c 9abd 9cbc 7f04 513e 7977 67be
00000080: 37eb 9cbd 4c53 8a3e f832 d2be 2f41 343e
00000090: c2b2 c93e 07c3 51be f140 0f3e 28d4 c0be
000000a0: 8ede e33e 3b84 043e 1d98 86bd 9f61 e03e
000000b0: ca97 713d 1c88 0ebd 4023 eabd 59e2 e0bd
000000c0: 312e ffbd 8245 febe 0b74 edbe 7350 9e3e
000000d0: a4d6 3cbe 7af2 02bd dc9c 7ebe 734a 3dbe
000000e0: 4914 d23d 5a78 53be eb76 8e3e 0815 1fbe
000000f0: 5ad5 fe3d e25d 25be 0df6 40be 9b93 8e3e

critic.2.weight f4 [64, 64]
0.12655114 -0.15825793 -0.12773453 -0.06446516 0.1588238 0.07719577 0.10926562 -0.0025595936
-0.026537685 -0.36874616 -0.006983917 -0.028002875 -0.10549532 0.2184341 -0.15350692 -0.11587335
0.024526203 0.04734653 -0.14407197 0.13714291 0.029982142 0.09337794 0.090990745 -0.027895385
-0.05201255 -0.09861415 -0.25938025 -0.059736647 0.13930297 -0.10541875 -0.010488888 0.028796434
0.12917246 -0.06150644 -0.12768702 0.045952983 -0.10891483 -0.13715188 0.20186317 -0.12530614
0.120661505 0.032819875 0.0016900739 0.04295427 -0.0721003 0.2326276 -0.17321387 -0.12809174
-0.027214166 -0.06066112 -0.16483375 -0.086406104 0.08721641 0.038824894 0.024193535 -0.014573783
-0.07957354 0.14783816 0.015042701 -0.049428433 -0.04432148 -0.0068621733 -0.003944076 0.0342927
-0.12800688 -0.13148165 -0.0036040223 0.5778819 -0.1599369 -0.17202586 -0.2771584 0.014100275
-0.11972373 0.1893268 0.3538911 0.19338039 0.3962945 0.12010224 0.47463235 -0.1355727
0.07149355 0.1735962 0.040817123 0.08281468 0.43421343 0.10611938 0.041223887 -0.26280862
0.058147885 -0.18370728 -0.26461744 0.20910425 0.16211882 -0.081016175 0.09432195 0.07085584
-0.47683948 -0.45539433 0.09351275 -0.1038314 -0.18419091 -0.0041446346 -0.07463836 0.023149725
0.015484636 0.260827 0.085237995 -0.18885359 0.018780986 0.018484212 -0.09291121 -0.33710545
0.12806714 0.38469702 -0.026579086 0.1724437 -0.4765391 0.15272786 0.05460483 0.03896689
0.28942877 0.16876893 -0.28278777 -0.20504978 -0.3753731 0.33974275 0.0058605457 0.07996524
0.05950841 -0.09603765 -0.039935112 0.02701742 -0.10522546 0.027600389 0.07641826 0.17842717
-0.1251953 0.28558967 0.037405152 -0.078465916 -0.14342067 -0.17821138 -0.050062478 0.05573284
0.10867657 0.16965736 0.23203741 -0.1769776 0.12340789 -0.13720694 -0.087456286 0.19845802
0.017388713 0.031834368 -0.007749526 -0.028684868 -0.15641852 -0.06787713 -0.04494634 -0.0026576857
0.13112459 -0.084688656 0.059349805 0.0027224347 -0.19939172 0.055674955 -0.20404588 0.053557582
-0.08124887 0.03311723 0.0766068 -0.04581881 0.2250017 -0.25146243 0.050314903 0.060828347
-0.1423997 0.13695793 0.14439793 -0.13827154 0.12802209 -0.042758062 -0.11646706 -0.028883502
0.0106257135 -0.27650312 -0.08421255 0.031194156 0.09855853 0.112582356 -0.044632185 -0.09419892
-0.07211178 -0.041368175 -0.15482913 0.014018041 -0.012406876 0.0005066849 -0.30369914 0.121704064
-0.15870994 -0.16421477 0.15321076 0.26794857 -0.44666082 0.06542343 0.4544913 -0.29435366
-0.058631666 0.03387527 -0.04518139 0.10919243 0.14418836 0.22749357 -0.06628846 0.042640503
-0.11811275 -0.07358534 0.0039969822 0.026308237 -0.028508622 0.10185807 -0.09088365 0.27723646
-0.349947 -0.09674903 0.09493014 -0.123609014 -0.2181561 0.15050276 0.18825391 -0.0072271107
0.0100721605 0.17601418 -0.12633148 0.015816843 -0.068833776 0.00725824 -0.111610256 -0.13582413
-0.021538232 0.33868867 0.21770735 0.13375694 -0.44078538 0.38039777 -0.033305988 0.6104041
0.3655268 0.016206456 -0.18880635 -0.006794648 -0.40367883 0.20699245 -0.03656506 0.12079771
00000000: 9f96 013e 5e0e 22be d7cc 02be 4f06 84bd
00000010: b5a2 223e d118 9e3d a7c6 df3d dbbe 27bb
00000020: 8f65 d9bc 4ccc bcbe 58d9 e4bb 4966 e5bc
00000030: ee0d d8bd 30ad 5f3e eb30 1dbe 024f edbd
00000040: 2deb c83c 6fee 413d 9a87 13be 316f 0c3e
00000050: 1c9d f53c ef3c bf3d 5b59 ba3d dd84 e4bc
00000060: 1d0b 55bd 37f6 c9bd 7dcd 84be 6aae 74bd
00000070: 70a5 0e3e c9e5 d7bd 96d9 2bbc 80e6 eb3c
00000080: c945 043e 2dee 7bbd 63c0 02be 3239 3c3d
00000090: bd0e dfbd 8b71 0cbe 38b5 4e3e 4150 00be
000000a0: 611d f73d 226e 063d 7885 dd3a d1f0 2f3d
000000b0: 52a9 93bd ee35 6e3e fa5e 31be 7b2a 03be
000000c0: 3ef0 debc cb77 78bd 2eca 28be aff5 b0bd
000000d0: 849e b23d da06 1f3d 8531 c63c e0c6 6ebc
000000e0: 74f7 a2bd e362 173e a975 763c 7875 4abd
000000f0: 718a 35bd 15dc e0bb 4f3d 81bb 8176 0c3d
00000100: 3c14 03be 20a3 06be 7631 6cbb 11f0 133f
00000110: 80c6 23be 8c27 30be b5e7 8dbe d704 673c
00000120: b731 f5bd e2de 413e 3731 b53e 8205 463e
00000130: 1de7 ca3e 2af8 f53d 0303 f33e 92d3 0abe
00000140: 366b 923d 34c3 313e db2f 273d be9a a93d
00000150: 3951 de3e 1e55 d93d 61da 283d da8e 86be
00000160: 7a2c 6e3d c31d 3cbe f07b 87be 6d1f 563e
00000170: 7a02 263e cfeb a5bd de2b c13d de1c 913d
00000180: 4e24 f4be 7229 e9be 9d83 bf3d 8fa5 d4bd
00000190: 8b9c 3cbe b7cf 87bb ffdb 98bd 7ea4 bd3c
000001a0: 45b3 7d3c 1e8b 853e 4291 ae3d d662 41be
000001b0: 95da 993c 346c 973c 3c48 bebd 1699 acbe
000001c0: 0824 033e 02f7 c43e 62bc d9bc 1595 303e
000001d0: effc f3be b164 1c3e 50a9 5f3d bf9b 1f3d
000001e0: 0230 943e c3d1 2c3e 8fc9 90be 92f8 51be
000001f0: e730 c0be c3f2 ad3e d209 c03b d1c4 a33d
00000200: 17bf 733d 63af c4bd 0093 23bd a353 dd3c
00000210: 7280 d7bd 361a e23c 2d81 9c3d 9db5 363e
00000220: 3233 00be cf38 923e 2536 193d bdb2 a0bd
00000230: dedc 12be 0b7d 36be 500e 4dbd 1e48 643d
00000240: d291 de3d a9ba 2d3e 379b 6d3e 9e39 35be
00000250: 47bd fc3d fa7f 0cbe 481c b3bd 9438 4b3e
00000260: c672 8e3c c164 023d bcef fdbb 87fc eabc
00000270: 2d2c 20be 2a03 8bbd a719 38bd 912c 2ebb
00000280: 8645 063e 3f71 adbd c818 733d e06a 323b
00000290: 582d 4cbe 6c0b 643d 67f1 50be 325f 5b3d
000002a0: cf65 a6bd efa5 073d 07e4 9c3d 81ac 3bbd
000002b0: d866 663e afbf 80be 0017 4e3d 2527 793d
000002c0: 3ad1 11be b33e 0c3e 0ddd 133e 0e97 0dbe
000002d0: 3918 033e 1423 2fbd 4886 eebd 189d ecbc
000002e0: 7917 2e3c d191 8dbe a177 acbd e38a ff3c
000002f0: 0ed9 c93d 9491 e63d 3dd0 36bd 5deb c0bd
00000300: 57af 93bd ad71 29bd 878b 1ebe edab 653c
00000310: 3646 4bbc 0cd3 043a 747e 9bbe fb3f f93d
00000320: dc84 22be eb27 28be 48e3 1c3e 8e30 893e
00000330: bab0 e4be b8fc 853d 15b3 e83e 86b5 96be
00000340: c227 70bd ccc0 0a3d 1f10 39bd 48a0 df3d
00000350: 1da6 133e 13f4 683e 3ec2 87bd cfa7 2e3d
00000360: 19e5 f1bd e9b3 96bd 1ef9 823b 5f84 d73c
00000370: ea8a e9bc f79a d03d 3521 babd f0f1 8d3e
00000380: 412c b3be 5b24 c6bd bc6a c23d b926 fdbd
00000390: 5064 5fbe 651d 1a3e a2c5 403e 66d1 ecbb
000003a0: b405 253c 103d 343e 0a5d 01be 5392 813c
000003b0: b9f8 8cbd 88d6 ed3b eb93 e4bd 7b15 0bbe
000003c0: f270 b0bc 9a68 ad3e adee 5e3e 94f7 083e
000003d0: 9fae e1be 7fc3 c23e dc6b 08bd 7143 1c3f
000003e0: 5426 bb3e 67c3 843c 7456 41be a3a5 debb
000003f0: feae cebe d4f5 533e 3fc5 15bd ca64 f73d

critic.2.bias f4 [64]
-0.06065922 -0.091427624 -0.1138939 -0.13113421 -0.1803531 -0.12375556 -0.033360537 0.1787873
0.16696995 -0.07187064 -0.1403094 0.13522464 -0.15624507 -0.016574666 0.018388687 -0.009199782
0.035540815 0.0018631142 -0.004865475 0.16763593 0.095496155 -0.18928826 0.12549357 0.16416046
0.0008998711 0.03692803 -0.109350905 0.094057016 -0.15794252 0.104752764 0.009443236 0.041227862
-0.03015422 0.002061874 0.20115352 0.16262837 0.057499398 0.22292988 0.038545217 0.12056886
0.02561802 0.15490049 0.067217514 0.104833305 0.09931552 -0.12736583 0.17566398 -0.17357065
-0.00019427668 -0.12815863 -0.04640862 0.1450089 -0.21430203 0.003329135 0.057593845 -0.018612206
-0.031238237 -0.06802654 -0.102338344 0.032109313 0.040189885 -0.06756068 -0.081636116 -0.11478177
00000000: cd75 78bd 683e bbbd 3441 e9bd 0c48 06be
00000010: 7cae 38be 8e73 fdbd 0fa5 08bd 0514 373e
00000020: 2cfa 2a3e ea30 93bd 44ad 0fbe 5478 0a3e
00000030: b5fe 1fbe 98c7 87bc dfa3 963c afba 16bc
00000040: 3f93 113d bd33 f43a 906e 9fbb c1a8 2b3e
00000050: 7d93 c33d c8d4 41be 6381 003e ae19 283e
00000060: 54e5 6b3a d941 173d 5ef3 dfbd f7a0 c03d
00000070: afbb 21be 9e88 d63d cdb7 1a3c 8cde 283d
00000080: fc05 f7bc 8120 073b 30fb 4d3e 0d88 263e
00000090: 7d84 6b3d bb47 643e 97e1 1d3d ceec f63d
000000a0: e2dc d13c 3c9e 1e3e 56a9 893d d8b2 d63d
000000b0: ef65 cb3d 306c 02be 42e1 333e 81bc 31be
000000c0: c0b6 4bb9 043c 03be f716 3ebd 377d 143e
000000d0: fe71 5bbe 9e2d 5a3b 86e7 6b3d a078 98bc
000000e0: 55e7 ffbc 8051 8bbd c496 d1bd 0e85 033d
000000f0: 269e 243d 415d 8abd d630 a7bd b412 ebbd

critic.4.weight f4 [1, 64]
-0.025028672 -0.35719493 0.015028152 -0.29339167 0.13698384 -0.3108902 -0.1449063 -0.18369621
0.2744211 -0.13671397 -0.22826523 -0.24126917 -0.2550578 -0.1777141 -0.086367846 0.1765015
0.3225315 0.20291613 0.12233077 -0.20932077 -0.26244292 0.29008803 -0.10456089 0.2411645
-0.07068904 0.051607978 -0.19678874 -0.12544551 -0.1357954 -0.2170772 0.2049566 0.17883603
0.1766991 0.123853825 -0.1919809 0.16736828 0.23900197 0.1655349 0.1152946 -0.27552894
-0.2124662 0.16036914 -0.0540682 0.2771169 -0.114592835 -0.2972832 -0.24433506 0.22074981
0.15839295 0.24062343 -0.18818156 -0.17548464 -0.19477998 -0.16621822 -0.21269798 -0.029481754
0.17627588 0.35016227 -0.10090423 0.40733188 -0.17840108 0.15201554 -0.15919244 -0.25059858
00000000: ee08 cdbc 41e2 b6be a338 763c 6f37 96be
00000010: 7e45 0c3e 002d 9fbe 5162 14be dc1a 3cbe
00000020: ec80 8c3e bffe 0bbe 5cbe 69be 440f 77be
00000030: f096 82be affa 35be a0e1 b0bd cfbc 343e
00000040: d922 a53e 3fc9 4f3e 8e88 fa3d 2f58 56be
00000050: eb5e 86be 6b86 943e 0524 d6bd d4f3 763e
00000060: 6ac5 90bd e362 533d fd82 49be ca74 00be
00000070: f30d 0bbe 7c49 5ebe 25e0 513e cb20 373e
00000080: 9cf0 343e 13a7 fd3d a496 44be 9762 2b3e
00000090: efbc 743e fb81 293e 931f ec3d 2112 8dbe
000000a0: bd90 59be cf37 243e 9e76 5dbd 44e2 8d3e
000000b0: a6af eabd 8135 98be f832 7abe 3d0c 623e
000000c0: c331 223e fd65 763e abb2 40be 3fb2 33be
000000d0: 6774 47be 1c35 2abe 80cd 59be b883 f1bc
000000e0: aa81 343e 7848 b33e e0a6 cebd ce8d d03e
000000f0: c6ae 36be f6a9 1b3e 5803 23be 754e 80be
