models/002_PrecisionSniper/002_PrecisionSniper_best.pth (torch, 47106 bytes, 11 tensors)

actor.0.weight f4 [64, 15]
000000 5d 60 0b be 54 35 cf 3e f2 e6 6e 3e a7 58 50 be
       -0.13610978 0.40470374 0.23330286 -0.20346318
000010 d2 1b 77 bf 74 7a 2b 3e f9 2e 47 3e 10 71 ee 3d
       -0.96526825 0.16745931 0.19451512 0.11642659
000020 a6 2d 59 3c c2 2c 13 3d 9a 73 98 be 00 10 4e 3b
       0.013255512 0.035931356 -0.29775697 0.0031442642
000030 d8 f6 57 be e2 c8 eb bd 91 38 06 be d5 90 72 3e
       -0.21090257 -0.11512925 -0.13107516 0.23688062
000040 93 55 1c 3f b9 3d bf 3d 2d a4 b4 3d 5e 61 a3 3f
       0.61068076 0.093379445 0.088203765 1.2764089
000050 da ce 5e 3e 55 11 9a bd b2 31 87 bd d6 63 29 3e
       0.21758595 -0.07522837 -0.066012755 0.1654199
000060 12 7c 0c 3f c7 e7 1f 3e b8 54 55 be 04 b3 02 be
       0.54876816 0.1561576 -0.20833099 -0.12763602
000070 64 d4 36 bd 49 7d 07 be 11 e2 47 3e 45 b4 ea 3e
       -0.044636145 -0.13231386 0.19519831 0.4584066
000080 74 5b f2 3e 5d b4 04 3f ee 64 d7 be bb e2 b7 3e
       0.47335398 0.5183771 -0.4206919 0.3591517
000090 fe af 42 bd 03 96 13 3f fa 3e 8a be 2b b0 23 3e
       -0.04753112 0.57650775 -0.27001172 0.15985171
0000a0 7d 47 77 3e 9d cd 83 3e 40 2a 70 3c 25 bd 7f be
       0.24148364 0.25742808 0.014658511 -0.24974497
0000b0 c8 9f 3b 3d 6f b0 cb bd 1f ef 58 3e c1 8d aa be
       0.045806676 -0.099457614 0.21184967 -0.33311275
0000c0 df 1a 09 be 9d b2 a9 3e 61 05 e1 3a f4 19 d6 3d
       -0.13389157 0.33144084 0.0017167741 0.10454169
0000d0 45 b5 72 be 02 62 df be c9 ef 21 be e1 13 af 3e
       -0.23701961 -0.43629462 -0.15814127 0.34194854
0000e0 18 83 7f 3d aa aa 62 be 34 3b 33 3e 58 28 a6 3d
       0.06238088 -0.22135416 0.17503053 0.08113164
0000f0 3f 07 9e 3d 9c 2d e9 3c 67 90 99 3e 15 59 07 3e
       0.07716226 0.028464131 0.29992983 0.13217576
000100 19 11 9b be e7 52 b1 bc 11 3e 46 3e 04 65 1f be
       -0.30286482 -0.021645976 0.19359614 -0.15565878
000110 50 1a fe 3e 90 95 5e 3c e7 78 6a be 2a 65 55 be
       0.4962945 0.013585463 -0.22897683 -0.20839372
000120 f8 f9 68 3e 14 35 2b 3e 4c d1 62 be 1a 80 5c 3e
       0.22751606 0.16719466 -0.22150153 0.21533242
000130 b4 ab 80 3e da 3f a7 be cd 32 27 be 7f ae cc be
       0.25131 -0.32665902 -0.16327973 -0.3997688
000140 8a fc 96 3e ef ab e8 bd 90 cf 95 3d 3d e2 e2 3e
       0.29489547 -0.11360919 0.0731498 0.4431323
000150 49 ea fd bd 63 ad 8f be e0 21 ad 3c 5c b6 b3 bd
       -0.12398202 -0.2806197 0.021134317 -0.08775017
000160 6f 40 80 3e 39 f3 7c be 8b a5 59 be a3 3f 66 3d
       0.2504916 -0.24702157 -0.21254556 0.056213032
000170 0a 70 c8 3e cd a9 16 be fa 2d 25 bf c6 ff 71 bd
       0.3914798 -0.14713211 -0.6452328 -0.059081815
000180 7d 68 1b 3e 4a 7c 76 be 6b 42 c1 bb 7a 88 8f be
       0.15176578 -0.2407085 -0.00589781 -0.2803381
000190 cd ce ec 3d d8 9d f0 bd 84 60 c8 3d 38 fd c5 3d
       0.115628816 -0.11748856 0.09784034 0.09667438
0001a0 12 ea 48 3e f6 63 f7 bc a7 39 d3 3e e8 27 40 3d
       0.1962054 -0.030199032 0.41254923 0.046913058
0001b0 45 aa 9f 3e 20 5c a0 3f 63 a7 38 be de 51 99 3b
       0.31184593 1.2528114 -0.18032603 0.004678949
0001c0 43 f3 d3 bd a0 77 26 3e ab fd 74 be 82 d4 a2 3e
       -0.10349133 0.16256571 -0.23924892 0.31802756
0001d0 88 0d 87 bc 30 67 c4 bc 98 0c cd bd 95 f3 83 be
       -0.016485944 -0.023974985 -0.10012168 -0.25771776
0001e0 cc 7e 17 3e df 71 f5 3e c9 9a 6a 3d b9 91 91 3e
       0.14794463 0.4793844 0.05727652 0.2843149
0001f0 4c 1e 64 3f e4 21 db 3e 91 2a ce bd a3 c4 8a 3e
       0.8910873 0.42799294 -0.10066713 0.27103147
000200 b2 53 61 3e 1e 36 13 3f 14 09 58 bc 3e 95 87 bd
       0.22004583 0.5750445 -0.013185758 -0.066202626
000210 a0 5a f2 bd c4 d8 33 bd ae 02 42 3e 38 78 8d be
       -0.118336916 -0.043907896 0.18946335 -0.27630782
000220 50 bd 12 bf ef f6 ce bd 18 9d 2b be c6 94 07 bf
       -0.5732012 -0.101056926 -0.16759145 -0.52961385
000230 9f ad ee be b3 c2 f1 3d 56 2d c9 be 15 a2 13 3a
       -0.46616837 0.11804714 -0.392924 0.0005631757
000240 a7 4f 86 be 5b 8f 96 be fb 18 2b be be 1e 83 bd
       -0.26232645 -0.29406247 -0.16708748 -0.06402348
000250 c8 84 f3 3d e0 5f f1 3c 61 74 7c 3d db 7a a5 3e
       0.118905604 0.029464662 0.061634425 0.32320294
000260 9d 87 17 3e fb e4 05 be 87 31 58 3f 4d 88 8e 3e
       0.14797826 -0.1307563 0.8445057 0.27838364
000270 44 54 d2 bd bb 37 8b bd 82 26 27 bf 0c 72 11 3f
       -0.10269979 -0.06797739 -0.65293133 0.56814647
000280 de 80 8b 3e e0 6e 00 3e de 17 8a bd f9 3c 82 3e
       0.27246755 0.12542295 -0.067428336 0.25437143
000290 fc d5 61 be fb 65 36 bb 1b 5f 27 3f 78 be 69 be
       -0.22054285 -0.0027831781 0.65379494 -0.22826564
0002a0 a2 e4 e9 3c f5 69 e0 bd d9 ec 2d 3c 76 4a 96 be
       0.028551403 -0.1095771 0.010615551 -0.29353684
0002b0 98 c7 19 3e 78 2b 10 3e cc c8 a2 3e 45 5e b7 be
       0.15017545 0.14079082 0.3179382 -0.3581411
0002c0 28 52 b4 bd 82 87 92 bd a8 fb 44 be d3 a2 32 be
       -0.088047326 -0.07154752 -0.19236624 -0.17444925
0002d0 32 ae b8 be bb ee ae bd a0 ef 66 bd 98 44 e2 bd
       -0.360704 -0.08541628 -0.056380868 -0.110482395
0002e0 2e f2 58 bf 75 02 de be 8b e0 d8 3d 4c 7c 6c be
       -0.84744537 -0.4336125 0.10589703 -0.2309429
0002f0 09 6c 1d bf b6 0f f5 be 11 69 dc be f2 59 c6 bd
       -0.61492974 -0.4786355 -0.4304891 -0.096851245
000300 d0 c5 62 3e c0 0a bc 3c 80 30 02 bd d0 e9 80 3e
       0.22145772 0.022954345 -0.031784534 0.25178385
000310 3d 37 59 3e 1a 5a 9a 3d 0e 4d 99 3e 3b 95 71 3f
       0.21212478 0.07536717 0.299416 0.9436833
000320 fc 54 d3 3e 75 1e a6 bd f4 5a bc 3e 16 20 32 be
       0.41275775 -0.08111278 0.36788142 -0.17395052
000330 df 93 86 3e 10 f5 33 be e0 d1 31 be 24 d5 27 be
       0.26284692 -0.17573953 -0.17365217 -0.163899
000340 32 9a 8b bd 70 b3 00 be 22 37 ab 3e c2 39 2e 3f
       -0.0681652 -0.1256845 0.334405 0.6805688
000350 98 2e 87 3e ee 4e 29 3e 4b 7d 83 bf 03 72 0f 3f
       0.26402736 0.16534016 -1.0272611 0.56033343
000360 9a cf 77 bd 66 7e e2 3e 8f a4 11 3e 99 ff 5d 3e
       -0.06050072 0.4423706 0.1422293 0.21679534
000370 57 4f e1 3c 7e b5 30 be bc 81 98 3d c0 cd 3e 3e
       0.027503652 -0.17256734 0.0744662 0.18633175
000380 20 c9 50 3c ce 23 9a 3e d8 68 be bd b4 76 8c bd
       0.012743264 0.30105442 -0.09297341 -0.06858578
000390 4a 16 6c 3e 08 ea 97 bf be 85 bd bc 58 f1 87 bb
       0.23055378 -1.1868296 -0.023135062 -0.0041486435
0003a0 6e ba 0a be 50 19 93 be 61 2a 90 3e f0 cb 0b 3e
       -0.1354768 -0.2873025 0.28157333 0.13652015
0003b0 20 47 76 3d e4 bd 01 bd 10 13 02 be cc b5 8d bd
       0.060126424 -0.031675234 -0.12702584 -0.069194406
0003c0 29 0b 9b 3d 9b 7c 2f 3e 51 36 26 be d3 f6 c7 3d
       0.07570488 0.17137377 -0.16231658 0.09763875
0003d0 1b bd b4 3f 67 fd 11 be 33 f0 57 bd e0 2d 43 3d
       1.412021 -0.14256822 -0.052719306 0.04765117
0003e0 61 0c b4 3e 5b 3a db 3d 44 b4 d6 3e 74 eb 70 3e
       0.35165694 0.1070449 0.41934407 0.23527318
0003f0 6c 61 3e 3e 84 4d 8e 3d cc ad ef 3d 36 65 08 3e
       0.18591851 0.06948379 0.11703071 0.13319859

actor.0.bias f4 [64]
000000 04 16 0c 3d 48 68 00 3c b8 68 63 3e a3 a7 46 3e
       0.034200683 0.007837363 0.22207916 0.19399886
000010 a4 21 36 be e8 ec 59 3d d4 e2 4c 3e 5c a7 39 be
       -0.1778627 0.053204447 0.20008403 -0.18130249
000020 71 ca d2 bd c2 2f 1a 3e 53 64 78 3d d9 8c 0a 3d
       -0.10292519 0.1505728 0.06064255 0.03382573
000030 fd 17 94 3d c3 69 55 be 92 da 45 bd bd c0 40 be
       0.07231138 -0.20841126 -0.048304148 -0.18823524
000040 d3 2f e9 3b 40 05 23 3e 80 fc 66 3d fb f5 5c be
       0.007116297 0.15919971 0.056393147 -0.21578209
000050 54 aa 7e be 27 1b 4a be 10 e0 e3 3d f4 58 9f 3e
       -0.24869663 -0.1973692 0.11126721 0.31122553
000060 ab cc 51 be e1 6c cf 3d 21 9c 95 be 1f 27 87 be
       -0.20488231 0.10128189 -0.2922068 -0.26397035
000070 98 81 4e 3d 45 3a 1f be ff 38 86 be db 4b 88 be
       0.05041656 -0.15549572 -0.2621536 -0.26620373
000080 f1 bb 7d bd 81 99 8d 3e c9 dd 9a 3e 45 58 5a be
       -0.061946813 0.27656177 0.30247334 -0.21322735
000090 24 ed 75 3e c0 e5 54 3c 2f d6 81 3e 72 e3 3b 3e
       0.24016243 0.01299423 0.25358722 0.18348482
0000a0 8a 52 48 be 2c 02 26 3e 9c cc a5 bd 2a 79 91 3e
       -0.19562736 0.16211766 -0.08095667 0.28412753
0000b0 1c 17 8a be f4 ea a8 be a0 8d c0 bd f7 ee 68 be
       -0.26970756 -0.32991755 -0.09402013 -0.22747408
0000c0 d1 1d b3 be 4d 51 ea bd 17 9e 9f bd 20 cf 73 be
       -0.34983686 -0.11441288 -0.07793825 -0.2380948
0000d0 d9 2b c4 bd 1a cf 5d 3e 55 a7 fb 3a 16 c6 9d 3d
       -0.09578676 0.21661034 0.0019199649 0.077037975
0000e0 ea 95 3c be ea 4c a7 bd b9 2c 71 3e c1 75 3d 3b
       -0.18416563 -0.08168967 0.23552217 0.0028909298
0000f0 5b 47 b4 3e ff 7b 90 be 2b 97 12 3e e4 fe 88 3e
       0.3521069 -0.28219602 0.14315479 0.26756966

actor.2.weight f4 [64, 64]
000000 31 dc a2 bc 1e 3d ac 3d 81 b9 62 bd 43 81 0a 3e
       -0.019880386 0.08410095 -0.05535269 0.13525872
000010 ae ca 30 be b0 85 bd bd 45 6c eb 3d 47 7c 66 3e
       -0.17264816 -0.092540145 0.1149526 0.22508346
000020 0e b4 88 be 2e d2 7f 3c 95 48 f1 3d bc 6a c3 3c
       -0.2669987 0.015614076 0.11781422 0.023854606
000030 6d 5d 67 3d c2 d7 ff bd 0e 0e ed 3d 0b ce c8 bd
       0.056485582 -0.124923244 0.11574946 -0.098049246
000040 05 a9 c7 3c bd 16 da bd 40 19 cc 3c 52 fd 16 3d
       0.024372587 -0.10648868 0.024914384 0.03686268
000050 fb e8 94 3e e8 64 27 be 43 7a b0 3d 17 ac 70 bd
       0.29084 -0.16347086 0.086170696 -0.058757868
000060 8f e8 54 3d 83 dc 94 bd 2a 99 52 3e 70 8c 6e bd
       0.051979598 -0.07268622 0.2056624 -0.0582394
000070 ab 81 8d 3c 3f d1 8e 3e 93 fd 96 bd 04 81 5c 3d
       0.017273745 0.27894017 -0.07372584 0.053833976
000080 2c e7 a6 3d a9 33 2f bd 78 ec c4 bc b6 69 76 bb
       0.08149561 -0.042773876 -0.024038538 -0.003759963
000090 4c 34 93 3e d7 7d 91 bd f8 c1 d0 bd 10 ea e6 bc
       0.28750837 -0.0710408 -0.101932466 -0.028187782
0000a0 e3 ac 15 3c d5 99 17 3e 2e 8a 59 be bb 1b fd bc
       0.009135458 0.14804776 -0.21244118 -0.030897012
0000b0 17 1e 16 be 98 91 91 3c 2b 7e 75 bd ce 14 17 3e
       -0.14659916 0.01776962 -0.059934776 0.1475403
0000c0 98 42 9f bd d8 32 4d 3d 76 45 89 3d 13 f2 2b bc
       -0.077763736 0.050097317 0.06702702 -0.010494727
0000d0 14 73 f5 3d 37 b7 4a 3d f6 66 c7 3c a7 77 ba 3c
       0.1198484 0.049491134 0.024341088 0.022762133
0000e0 f5 54 c8 3d 52 e6 49 b9 df 5a 2d 3e f2 a8 25 bd
       0.09781829 -0.00019254655 0.16929196 -0.040444322
0000f0 4a 00 2f 3e 15 c1 bb bd 06 a4 32 3e 23 5e 88 3d
       0.17089954 -0.09167687 0.17445382 0.0665858
000100 74 87 a4 bd 4e aa da 3d 85 7e 34 be 5c 7c 3d bd
       -0.08033648 0.10677014 -0.17626388 -0.046261176
000110 2c b0 a1 3d 8a 04 a0 bd 86 9d 14 3d 3e e5 16 3e
       0.0789493 -0.07813366 0.03628304 0.14735886
000120 b0 ee 9e bd a8 fe 04 3e 63 30 a7 3d 28 eb 5a be
       -0.0776037 0.12987769 0.08163526 -0.21378767
000130 12 b5 b8 bd fa 97 03 be 8c 93 10 bd cc 72 56 3c
       -0.090189114 -0.12850943 -0.03529696 0.013088893
000140 c2 9e 84 3d 89 26 5c 3d 39 a8 76 bd 9c 0c 83 bd
       0.06475593 0.053747687 -0.060219023 -0.063988894
000150 3b db 87 3b 0c 33 a8 bb 42 39 81 bc 1c 31 c1 bd
       0.0041460074 -0.0051330384 -0.015774373 -0.09433195
000160 86 e7 01 3d 84 75 0e bd 72 d9 03 bd 8b 4b a5 3c
       0.03171494 -0.03478004 -0.032189794 0.020177623
000170 c3 a0 52 3d 47 23 e0 bd f1 58 89 bc b3 3d 28 3e
       0.051422846 -0.109442286 -0.016766043 0.16429786
000180 1f 19 33 be 92 52 4a 3e 50 55 5a bd dd f8 12 3e
       -0.17490052 0.1975806 -0.053304017 0.14352746
000190 05 ef d8 3e b5 3c 85 3d 98 87 dc bd be 66 04 3e
       0.42369857 0.065057196 -0.1076805 0.12929818
0001a0 19 a5 96 bd a9 0a 85 bd f7 ba a2 be c9 c6 df 3d
       -0.07355709 -0.06496174 -0.31783268 0.10926587
0001b0 7d 48 a5 3d f2 e6 4f be 81 67 0b be 02 de ae 3d
       0.08070467 -0.20302942 -0.13613702 0.085384384
0001c0 1e 1b 74 3d 33 90 bb 3d 5d af 11 be 74 d0 06 be
       0.059596173 0.09158363 -0.14227052 -0.13165456
0001d0 f1 03 cb 3c 68 ff ba bd 56 ca 09 bd be e1 cf 3d
       0.024782153 -0.09130746 -0.03364023 0.10150479
0001e0 6f fd 1b 3c 63 d8 06 be ab 06 d9 3d 6d d5 3d 3c
       0.0095208725 -0.13168482 0.10596975 0.011586529
0001f0 13 9e 3f bd e6 3b 5c 3e 5f 63 2b 3e 93 18 e1 39
       -0.04678161 0.21507224 0.16737126 0.00042933653
000200 65 f1 31 be cb 15 d1 3d 5f 11 6f 3d 47 ef a1 bc
       -0.17377241 0.10209235 0.058366176 -0.019767417
000210 0c 57 2f be 38 f2 14 3d 18 e2 38 3d f4 6b 89 3e
       -0.1712305 0.03636381 0.045137495 0.26840174
000220 89 1c 7b bd e4 90 87 3d 15 a5 bf 3d 74 52 f0 bd
       -0.06130651 0.066194326 0.09357659 -0.11734477
000230 f8 ef eb bb 0c 24 a8 bd 3d 60 f9 3d aa f8 2e be
       -0.0072002374 -0.082100004 0.12176559 -0.17087045
000240 22 ce fe 3d 94 01 0e be 0c 74 3f 3d bc 91 0c bd
       0.124416605 -0.1386779 0.04674153 -0.03431867
000250 a6 0d 22 3e e3 c5 c1 bd 60 44 09 be 4d 39 5d 3e
       0.15825519 -0.09461572 -0.13404989 0.2160389
000260 a3 3e e8 3b 68 32 06 bc 92 0e ed 3c 43 e5 f5 3c
       0.007087545 -0.008190729 0.028937612 0.030016547
000270 ce 02 e1 3d 4b 06 9e 3d ad 25 04 3d 05 82 10 3e
       0.10986863 0.07716044 0.032262493 0.14112099
000280 29 d4 0c 3e a3 41 66 3c ed 5a 9f 3d 8d 67 c6 bc
       0.13752808 0.014053735 0.077810146 -0.024219299
000290 b5 06 8e 3a 5f 38 07 bd 0b e6 11 3e dd 04 ac bd
       0.0010835739 -0.033012744 0.1424791 -0.08399365
0002a0 51 7b 81 3d 71 4f ee 3b 41 83 af 3d 8f 3e 2e be
       0.06322349 0.0072726537 0.085699566 -0.17016052
0002b0 62 bb 5f 3c 27 c8 19 bd 88 9d 00 3d c2 a2 fe 3d
       0.013655515 -0.037544396 0.031400234 0.12433387
0002c0 c1 2c dd bc e6 63 6e bc 19 13 00 bd c6 c6 89 bd
       -0.02699888 -0.014550185 -0.031268213 -0.06727366
0002d0 31 48 af bc 56 38 57 bd 50 c1 6d 3d ef bc 15 3e
       -0.021396728 -0.05254396 0.058045685 0.14622854
0002e0 ad 24 6c bd f0 81 8d 3d 20 73 57 be a1 0a b3 3d
       -0.057652164 0.06909549 -0.2104001 0.08742262
0002f0 06 6a 90 bd ba e2 0c 3e eb 6c 9a bc 49 ac e0 3c
       -0.07051472 0.13758364 -0.018850764 0.027425902
000300 31 70 9c bd c9 23 12 be be 18 91 3c 3b db a8 3d
       -0.07638586 -0.14271463 0.017711993 0.0824494
000310 f1 76 19 be 75 47 9b 3d d1 d3 dc bc 6c 18 0a 3e
       -0.14986779 0.07581989 -0.02695647 0.13485879
000320 98 2b b4 bd af 30 ac 3d b9 1a ec bd 2d 36 53 bd
       -0.08797377 0.08407723 -0.115285344 -0.051565338
000330 eb 79 d7 3c 76 fc 9d bc 9a 40 dc 3c 56 c0 11 be
       0.026303252 -0.019285422 0.026886273 -0.14233527
000340 27 1f 28 3e 1d 8e 4a 3d 2a 8a 0c be 78 10 a1 bd
       0.16418134 0.049451936 -0.1372458 -0.07864469
000350 40 47 5e 3e 65 57 49 bc b6 88 52 3e 53 38 0d 3e
       0.21706867 -0.012288903 0.20559964 0.13791017
000360 af 30 c7 3d 78 53 0e bd 58 07 e8 3d 4a 1e e9 bd
       0.097260825 -0.03474757 0.11329526 -0.1138273
000370 1f cd 47 bd 05 77 32 bd eb d6 b4 3d 6e ab 33 be
       -0.048779603 -0.043570537 0.08830055 -0.17545864
000380 6b 84 eb 3c fa d6 16 bd 8c 71 bf bd 44 83 46 bc
       0.028749665 -0.03682611 -0.09347829 -0.012116257
000390 ed bb 35 3e 05 8b b9 3d fd 28 c4 3d 0d 55 6b bd
       0.17747469 0.09059719 0.095781304 -0.057454158
0003a0 a2 19 b6 bd 2a 9f 62 3e b5 7a 83 3d 6b ab 19 be
       -0.08891608 0.22131029 0.06419889 -0.15006797
0003b0 ad b5 04 be 85 d3 e1 3d 5b 89 90 bd 66 bc 50 be
       -0.12959929 0.11026672 -0.070574485 -0.20384368
0003c0 09 d1 0a be d8 eb 41 bd b8 cf a6 bd 59 c7 1d 3e
       -0.13556303 -0.04734406 -0.08145088 0.15408076
0003d0 b0 b5 98 bd 68 df 8c bd ef 7c 3b 3d e5 73 b6 bc
       -0.07456529 -0.06878549 0.045773443 -0.02227206
0003e0 e3 79 2c 3d 2b da 05 bd 9b 17 5d be 26 27 f5 3d
       0.042108428 -0.032678764 -0.21591036 0.119703576
0003f0 b8 76 1c bc 38 93 b5 bd b1 c7 c2 bc 55 27 f5 bc
       -0.009549789 -0.088659704 -0.02377686 -0.029925982

actor.2.bias f4 [64]
000000 0e 06 05 be 07 70 95 bd 7a 1d 1f be 51 41 5c bd
       -0.12990591 -0.07296758 -0.15538588 -0.053773228
000010 3c f6 50 bc 2b d0 af bd bf 3f 9e 3d 07 e4 c5 3d
       -0.012754019 -0.08584627 0.07727002 0.096626334
000020 ed 4b 06 bd 23 75 08 3d 7c e3 1a be eb ac 94 3d
       -0.032787252 0.033314835 -0.15125841 0.07259544
000030 56 50 2a bc 06 e4 02 bd c5 24 e1 bd b2 ee 6a 3c
       -0.01039513 -0.03195574 -0.10993341 0.014339136
000040 ec 4e ac bd f9 4a eb 3d 75 d2 fd 3d 9d b6 ae bd
       -0.08413491 0.11488909 0.12393657 -0.085309245
000050 d6 5d 87 bc 0d 4b 1b bd 1a 69 4f 3e e0 0a 30 3c
       -0.016524237 -0.03791337 0.20254937 0.01074478
000060 24 67 85 be fa 18 c0 bd 0f c9 90 3d 2a 11 2e 3d
       -0.26055253 -0.09379764 0.07069599 0.042496838
000070 f8 cf 54 bb 8a 9e 1d 3e c9 3f 8c bd fc 19 bb bd
       -0.0032472592 0.15392509 -0.068481036 -0.091358155
000080 99 de e3 3d 8a b5 4b bd 3c 88 a2 bd 23 6c 09 3d
       0.111264415 -0.049733676 -0.07936141 0.033550393
000090 fa 28 7e 3e b7 c5 97 3d 22 15 ab bd 9f e7 20 3d
       0.24820319 0.07410758 -0.0835364 0.03928339
0000a0 54 d3 1c be 13 26 29 be b9 2d a0 3d e1 c5 dd 3c
       -0.1531499 -0.1651843 0.07821221 0.027071895
0000b0 b5 02 25 3e f7 b3 02 3a 35 ca 69 be ec f1 12 be
       0.16114314 0.00049859233 -0.22831042 -0.14350098
0000c0 4c cb 39 3d 1f d0 b2 3b d9 e2 b8 3c 7a 2d d7 bd
       0.045359895 0.005456939 0.022569107 -0.10506721
0000d0 74 fa 9b 3d d1 bf 05 be 09 15 d4 3d 4e df 1b be
       0.076161295 -0.13061453 0.10355575 -0.15221903
0000e0 3e 25 8b 3d 21 32 43 3d 68 8c e2 bc e7 56 72 be
       0.06794213 0.04765523 -0.027654842 -0.23665963
0000f0 77 aa 98 bd 46 9e 39 bc 93 b5 cc bd b9 68 b1 3d
       -0.074543886 -0.011329239 -0.0999557 0.086625524

actor.4.weight f4 [2, 64]
000000 73 ae 07 bd 48 c2 a9 3d 77 1e 56 bc 9e 0f c9 bc
       -0.033125352 0.08289009 -0.013068787 -0.02454358
000010 70 71 2a bd 4b f2 41 3c d3 7a b5 bd 32 38 52 bc
       -0.04161209 0.011837552 -0.088613175 -0.012830781
000020 8d 4c 0c 3d a0 b3 84 3d a5 0b 31 3c a5 34 c6 bd
       0.034252692 0.06479573 0.010805999 -0.0967801
000030 a7 85 28 be 66 aa 92 bc e4 d6 4b be e9 41 c7 3c
       -0.16457234 -0.017903518 -0.19906193 0.02432342
000040 62 e8 4d 3c a2 8e b3 3d a1 06 06 bd cb 51 e2 3d
       0.012567611 0.087674394 -0.032721166 0.11050757
000050 ee 51 05 3d bd 65 47 3d 1f d0 57 3d 06 90 5e 3d
       0.032548837 0.04868101 0.052688714 0.05433657
000060 e3 ae 7c bd 75 1a 16 bd 85 49 24 bd d2 62 15 3d
       -0.061690222 -0.036646325 -0.040109176 0.036471196
000070 2c 4b 0f bd 6f b9 ae 3c 88 f3 d9 bb 3c e9 8b 3d
       -0.0349838 0.021328656 -0.0066513456 0.06831595
000080 47 27 d2 3a 80 7b 4b bc f5 01 a8 bb 0a 3b 29 be
       0.0016033434 -0.012419581 -0.0051271864 -0.16526428
000090 f6 e9 ea 3c bd a2 b6 3c b5 10 36 3c 52 06 54 bd
       0.028676014 0.022294397 0.011112382 -0.05176384
0000a0 44 54 94 3d 0e 36 d6 3d 8e 23 c9 bc 17 49 db 3d
       0.07242635 0.10459529 -0.024553087 0.107073
0000b0 46 9b 74 bd 36 e3 cc 3d 90 d9 8c bd 33 ef b8 bd
       -0.059718393 0.100042745 -0.06877434 -0.09029999
0000c0 05 11 b6 3c 79 30 77 3b 6b 4f dd bc 30 4b 58 bd
       0.022224912 0.00377181 -0.027015409 -0.05280608
0000d0 0f 5c 08 bc 02 ee 7b 3b 43 96 2d 3d f7 31 03 3e
       -0.00832273 0.0038441424 0.04237963 0.12812029
0000e0 2b 7e 89 3b 68 a3 65 bb 6a e4 6d 3b af 27 d2 bd
       0.0041959486 -0.0035040025 0.0036299475 -0.10261475
0000f0 ef 98 d6 bb 23 60 a4 3c 58 4d d6 bc e0 49 73 3b
       -0.006548993 0.020065373 -0.026159927 0.003712289
000100 3b bd fd 3c d6 c8 a4 3d f7 f8 52 bc 73 e8 ac bc
       0.030974021 0.08046119 -0.012876741 -0.021106934
000110 84 31 b4 bd d0 1c 7f bd 01 16 5f 3e 85 f6 4b 3c
       -0.08798507 -0.062283337 0.21785738 0.012448912
000120 85 96 2c be c1 3f 91 3e 48 c0 e7 bc cd 33 b6 be
       -0.16854294 0.28368953 -0.028289929 -0.35586396
000130 24 bd bf 3c 95 16 95 3c 28 c8 39 3d a3 be 17 bd
       0.023405619 0.018199245 0.0453569 -0.03704704
000140 fb 0a 3c 3c 3d c7 b0 3c 4e cc a0 3e 2f df a8 3e
       0.011477227 0.02157938 0.31405872 0.32982776
000150 77 b3 ab 3b 71 23 93 bd fa 39 3a 3d 8d cf 80 bd
       0.0052398997 -0.07184494 0.045465447 -0.06289587
000160 b5 4a 90 be 67 eb 23 bd 79 9c ae bc d0 21 a9 3d
       -0.28181997 -0.04001942 -0.021314846 0.08258402
000170 3c 42 f2 be 50 a2 3a bc 19 54 09 3d 8f 5b 2c 3e
       -0.47316158 -0.011391237 0.033527467 0.16831802
000180 fd 4c 8d 3d 71 99 f7 bb d0 f7 5e bd e3 a3 56 be
       0.0689945 -0.0075561334 -0.05443555 -0.20960955
000190 6f 77 f1 bd 23 d4 8e 3d 9a 77 8e bd 86 3a b5 bd
       -0.11790358 0.069740556 -0.06956406 -0.08849053
0001a0 e9 1b 3a be a5 6b 96 3d 5c 06 9c 3c 85 50 9b bd
       -0.1817471 0.0734475 0.019046001 -0.07583717
0001b0 75 1b c7 bd 4f b1 31 bd 23 9f eb bc 69 6b 10 3e
       -0.09722034 -0.043381985 -0.028762406 0.14103474
0001c0 60 67 99 3e 70 2d 2d be 21 0e c9 bc 44 d3 bb bb
       0.2996168 -0.16911864 -0.02454287 -0.005731972
0001d0 b4 10 5c bd 84 48 24 be 7f 4c 20 3d 1c 19 38 3e
       -0.053726867 -0.16043288 0.039135452 0.17978328
0001e0 1e a8 a1 3b 54 1e 19 3d 92 17 93 3d c6 86 04 bc
       0.004933371 0.03738244 0.0718223 -0.008088773
0001f0 d5 08 3f bd be 5e 11 bd 1e 4b 32 bd 42 21 3a 3e
       -0.046639282 -0.035490744 -0.04352867 0.1817675

actor.4.bias f4 [2]
000000 52 a6 54 3d 6d fa fe 3b
       0.051916428 0.007781318

critic.0.weight f4 [64, 15]
000000 5a f2 0f 3e 4e c5 80 3e 72 87 1c ba f5 1b 19 3e
       0.14057294 0.25150532 -0.00059711107 0.14952071
000010 b1 ae ee 3e cf 21 12 be 8f 3e 83 bc 72 d5 74 3d
       0.46617654 -0.1427071 -0.016021041 0.05977387
000020 c7 e4 a0 be b1 5c 8e 3f 4d 6b 43 3f d6 8b 08 3e
       -0.31424543 1.1122037 0.76335603 0.13334593
000030 1c 23 63 3e 7a f8 c2 bd 22 6c 43 be d2 91 f9 be
       0.22181362 -0.095200494 -0.19084218 -0.48744065
000040 26 64 b0 bc ac 76 8c bb cd 74 cf be a3 ae 4d 3f
       -0.02153213 -0.0042866077 -0.405188 0.803446
000050 ce 15 28 bf fb 56 51 3d 2e 33 34 bf b8 34 6f 3f
       -0.6565827 0.05110834 -0.70390594 0.9343982
000060 bb ad af 3e 45 78 2a bf 14 f7 58 3e d4 84 fc 3d
       0.34312233 -0.66589767 0.21188003 0.123300225
000070 00 4e 26 3e 30 01 5c bd 2b 81 21 3d 12 a1 b4 3e
       0.16240692 -0.05371207 0.039429825 0.35279137
000080 b9 55 4b 3d 85 93 85 bd 5f 1a be bf 24 ac 1e be
       0.0496423 -0.06522278 -1.4851798 -0.15495354
000090 24 53 2a 3e 42 51 81 be 77 d5 c0 3f f7 b9 b4 3f
       0.16633278 -0.25257307 1.5065144 1.4119252
0000a0 bb 36 fa bd 42 f6 21 3e 04 32 e0 3d c0 ef c6 bb
       -0.1221747 0.15816596 0.1094704 -0.006071061
0000b0 b2 cb 08 be a4 79 90 3e 24 aa 23 bd 01 eb e8 ba
       -0.13358954 0.28217804 -0.03995718 -0.0017770232
0000c0 73 7c c7 3e 36 2a 14 be da 07 a6 3f 54 81 2f bd
       0.38962135 -0.14469227 1.2971146 -0.042847946
0000d0 b2 b4 93 3f db 33 d7 bf be bc 9f bf 6e f2 de 3e
       1.1539519 -1.68127 -1.2479475 0.43544334
0000e0 76 25 21 be 40 1d b8 3d da 4a 10 be 26 08 69 3e
       -0.15736946 0.08989954 -0.14091054 0.22757015
0000f0 c6 80 bc be 66 99 4c 3b b7 85 6b 3b e5 ba 51 3d
       -0.36816996 0.0031219362 0.0035937855 0.051203627
000100 b7 4f 53 bf 26 00 a7 be 99 f9 36 bd f6 18 9f be
       -0.8254351 -0.326173 -0.04467163 -0.3107373
000110 09 10 27 be 92 11 88 3f c4 51 f5 3e 3e a2 e6 bd
       -0.1631471 1.0630362 0.47913945 -0.11261414
000120 90 e5 3c be 0f f3 62 be 8f c6 06 be 5b 0d 45 bf
       -0.18446946 -0.22163032 -0.13161682 -0.76973504
000130 9c f3 cd 3d b6 59 9b bd 84 aa b5 be 3d 0a 06 3e
       0.100562304 -0.075854704 -0.35481656 0.13089843
000140 ef c7 21 bf c1 03 24 be eb 8d 51 bf 01 19 50 3f
       -0.631957 -0.16017057 -0.81857175 0.8128815
000150 3a 51 fd 3d c0 31 31 bb 2f 2f 00 be 04 14 34 3e
       0.12369008 -0.002703771 -0.12517999 0.1758576
000160 b8 a7 31 be 80 08 a4 bd 8b 55 40 bc 8f c9 9c bd
       -0.17349136 -0.08009434 -0.011739145 -0.07655632
000170 60 ce 15 bc cf 6f ed 3d 7c 3b ef 3d d8 d5 01 3f
       -0.009143442 0.115935914 0.116812676 0.50716925
000180 6d b7 1b 3d ef c2 bf 3e ff a8 58 3f 84 24 a4 3f
       0.038016725 0.3745341 0.8463287 1.2823644
000190 33 bf 26 3f 44 ee 2b 3e 06 31 73 3e ab c1 05 be
       0.65135497 0.1679011 0.2374917 -0.1306216
0001a0 30 19 d5 3c df 44 e4 3e 27 70 0a bd f7 f9 06 bd
       0.026012987 0.44583794 -0.033798363 -0.03295323
0001b0 90 4f e1 3e 96 f8 ce 3d 80 37 df 3f a9 b9 99 bd
       0.44006014 0.10106008 1.7438812 -0.07506115
0001c0 77 a2 ce 3f a4 cd d4 bf b0 c5 e4 be a9 26 ab 3e
       1.614333 -1.6625257 -0.44682074 0.33427933
0001d0 77 25 4a be d0 9c 46 bc 62 0a 44 be 84 ae da 3d
       -0.19740854 -0.012122348 -0.19144586 0.106778175
0001e0 6e 63 cc bd 2f da 63 bc c9 4a 19 bc 54 26 df 3e
       -0.09979902 -0.0139069995 -0.009356209 0.4358393
0001f0 5c c0 ea be 6c cc 6e 3e 5c ea d7 bd 99 bb 22 3f
       -0.45849884 0.23320168 -0.105427474 0.635675
000200 8c 1e 4d bf 02 a8 c4 3f d1 c1 12 bf f0 31 49 bd
       -0.80124736 1.5363772 -0.5732699 -0.04911989
000210 42 ef 1d be 82 fd 0c be 2a 3b f3 bd 6e b3 14 be
       -0.15423301 -0.1376858 -0.11876519 -0.14521572
000220 74 69 8e 3d 01 1e 57 3c f5 77 a0 bb 06 e9 7b 3e
       0.06953707 0.013129712 -0.0048971125 0.2460061
000230 42 d8 da be 2c 02 16 3c 3e 40 14 bf 61 a7 9d bf
       -0.42743117 0.009155791 -0.57910526 -1.2316705
000240 9f e7 b5 be 52 0f 2e bf 60 8f 0b bd 02 ba 32 3e
       -0.35528275 -0.67992127 -0.03407228 0.17453769
000250 1a d3 31 be 32 03 7b 3e cc 12 c0 bd a5 fe 15 3d
       -0.17365685 0.24512938 -0.09378585 0.0366198
000260 81 1a d2 3b c7 de 8a be e0 53 01 3f 50 b9 87 bf
       0.006411851 -0.2712309 0.5051861 -1.0603428
000270 cc 76 8b bc 4a b0 65 bf 6d a0 cb 3f 8d e7 8e 3f
       -0.01702442 -0.8972212 1.5908333 1.1164414
000280 11 1a cd 3d 3e c6 dd bd b0 e5 7d be 12 de df bd
       0.100147374 -0.10828827 -0.2479465 -0.109310284
000290 20 42 24 be 76 08 bd 3e ec d6 ae be 04 e1 bd 3d
       -0.1604085 0.36920518 -0.34148347 0.09271434
0002a0 4c 20 6c 3e d1 7b 69 3e 41 12 1d 3f be c5 a4 3c
       0.23059195 0.22801138 0.6135598 0.020113822
0002b0 c7 07 2b 3f 2a 74 d8 3e a5 45 22 3f 42 72 ac 3f
       0.6680874 0.42276126 0.6338752 1.3472369
0002c0 00 3b e9 3b c4 22 70 bd 33 ee 7b be 88 3c 6e 3d
       0.007117629 -0.058626905 -0.24602585 0.058163196
0002d0 c0 a2 01 bc e5 70 70 be f2 8f 1a 3d 60 0c e9 be
       -0.007912338 -0.23480566 0.037734933 -0.45517254
0002e0 e4 09 0f 3d 7d 7e 6a bf 2d 6c 58 bd 65 ae 72 bf
       0.03492154 -0.91599256 -0.05283754 -0.94797355
0002f0 31 77 9a bd 64 50 87 bf 14 9b 84 bf 32 da f6 bd
       -0.07542265 -1.0571408 -1.0359826 -0.12053336
000300 00 6f 85 3c b0 05 3c 3d 08 ec 73 3e 2c f0 78 be
       0.01628828 0.04590386 0.23820508 -0.24310368
000310 95 c3 36 3d 71 9a a6 3c e4 a7 a2 be 88 46 42 3e
       0.044620115 0.020337315 -0.31768715 0.18972218
000320 35 ee ac bd 13 54 08 3e ea 3c 21 be 2a fe fb bf
       -0.08443872 0.13313322 -0.15745893 -1.968694
000330 32 aa b5 3d 5c 9e 15 be d0 86 14 be c4 57 4b bd
       0.08870353 -0.1461119 -0.14504552 -0.049644247
000340 58 28 b5 bc 04 a5 6c bd cf c0 cd 3b 08 f3 3b 3e
       -0.022113964 -0.05777456 0.006279088 0.18354428
000350 bd f4 d3 ba 21 54 cf 3c b3 fa 54 3e 8d 28 a6 3e
       -0.001617096 0.02530867 0.20798759 0.32452813
000360 e3 74 23 be d5 c4 49 3e 8c f1 8f bf 9a 47 ab 3f
       -0.15962557 0.19703992 -1.1245589 1.3381226
000370 1b 49 bb 3e 59 74 7b be b0 14 96 3d 00 e2 2f bb
       0.36579213 -0.24556102 0.073281646 -0.0026837587
000380 3a 5c 6e 3e 8a 2a f4 3e f9 6a 2f bd 0d 96 21 3d
       0.23277369 0.47688705 -0.042826626 0.03944974
000390 41 c0 47 3f 1d 86 3b 3e e8 4b f4 3e a8 10 40 3e
       0.7802773 0.18312879 0.47714162 0.18756354
0003a0 98 02 3b 3f ab f4 02 c0 8c e2 8b bd ae dc ba 3d
       0.7305083 -2.0461833 -0.0683032 0.091241226
0003b0 1c 59 14 3e 16 99 06 3e ca 97 d8 bd f8 b8 a9 3d
       0.14487118 0.13144335 -0.105758265 0.08287233
0003c0 0d 81 5c 3d 0f f6 47 3d 2e ba 94 3b 94 df 23 be
       0.05383401 0.048818644 0.004538796 -0.16003257
0003d0 29 af e5 bd d7 86 ba be ea d1 aa bc 56 15 0e be
       -0.1121505 -0.36431 -0.020852048 -0.13875327
0003e0 53 3a 75 3e 84 c7 cf bf 8a 30 2a bf a4 d5 d3 bd
       0.2394803 -1.6232762 -0.66480315 -0.10343483
0003f0 38 64 5a 3e b8 5f 72 3d e2 84 ba bd 67 ff 2e 3e
       0.21327293 0.059173316 -0.09107377 0.17089616

critic.0.bias f4 [64]
000000 c2 16 df bc 5e 81 09 bf e7 ed 25 3f 5d c5 81 bd
       -0.027232531 -0.53713024 0.64816135 -0.06336472
000010 e7 cc f1 bd 9f f9 c1 be 30 d9 4a 3e 90 81 4c 3e
       -0.1180666 -0.37885758 0.19809413 0.19971299
000020 03 ca 7e 3e 59 50 54 be 6f 21 84 be 25 17 b7 3e
       0.24881749 -0.20733775 -0.25806758 0.35759845
000030 4a 78 8f be b7 45 0a bf c1 8c 1a 3e 99 8b 9b 3e
       -0.2802146 -0.54012626 0.15092756 0.30379942
000040 8f 4f af bd bb 41 1e bd 88 a0 5e 3e bc 17 d1 3e
       -0.085600965 -0.038636904 0.21740925 0.4083842
000050 31 f4 d7 3e 28 fb 45 bf 76 fd 27 3e dc 34 ee bc
       0.4217849 -0.7733636 0.16405281 -0.02907794
000060 0c 9a e9 3d 4b b7 d0 3e a0 ac 01 3f 2c 53 4b 3e
       0.11406335 0.4076484 0.5065403 0.19855946
000070 c6 c9 a1 be 61 a7 b7 3d c0 d4 2a 3e 2e f6 8e bd
       -0.31599253 0.08967472 0.1668272 -0.06980549
000080 a1 26 1d bf f7 f5 10 bc c2 01 49 be 8f 23 dc bd
       -0.6138707 -0.008847705 -0.19629577 -0.1074897
000090 ba dc 9f 3e fb af 12 3e 83 6e 8f 3e 4c 2f 31 3c
       0.31223089 0.14324944 0.28014 0.010814499
0000a0 1b 0b e9 be 7f fa 06 bf c7 19 91 bd a5 8d 03 bf
       -0.45516285 -0.52725977 -0.07084995 -0.5138801
0000b0 68 fa 4b 3f bd e1 91 bd db 8f eb bd 30 e1 8c bd
       0.79678965 -0.07123134 -0.11502048 -0.068788886
0000c0 5e 32 84 bc 85 56 bf be b6 b7 27 3f ec 6f ab bd
       -0.016137298 -0.37370697 0.65514696 -0.08370957
0000d0 1f fa e2 3e 2f c8 01 3f 82 e4 8a bd 13 5d 8f 3e
       0.44331452 0.5069608 -0.06781866 0.28000697
0000e0 f9 a4 ee be 1d f0 82 3e b4 b4 5d bd 3f 3b 00 3f
       -0.4661024 0.25573817 -0.05412741 0.500904
0000f0 8f 49 c9 3e 68 34 25 bf 26 fc 69 be 45 f6 06 3f
       0.39313933 -0.6453309 -0.22850093 0.5271953

critic.2.weight f4 [64, 64]
000000 13 4d e8 be d4 f4 83 3a 67 f7 90 be 29 30 98 3e
       -0.45371303 0.0010067471 -0.28313753 0.29724243
000010 f6 86 0b 3f 02 9c b9 3e a2 eb 2f bf 78 a9 c3 3e
       0.5450281 0.36251837 -0.6871892 0.38215232
000020 a7 41 da 3d a7 3d 5c 3e 2d 77 84 be 8f 30 67 be
       0.106570534 0.21507894 -0.25872174 -0.22577117
000030 64 4a cb 3e 17 49 77 be ba 1f 43 bb b2 72 db 3d
       0.39705193 -0.24148975 -0.002977355 0.10715236
000040 fd 95 9b 3e 49 fd 8f be 3d 59 15 3e 91 0f a2 be
       0.3038787 -0.2812293 0.14584823 -0.316525
000050 f7 34 6d be 3f 0b ce 3e ba 2a e5 3e af d1 19 3e
       -0.23164736 0.40242955 0.4475916 0.15021394
000060 e6 fe 10 bf 15 d5 05 bf 17 55 c6 be 03 6b e3 bd
       -0.56638944 -0.5227826 -0.38736793 -0.11104395
000070 e6 75 e6 3d 64 f5 06 3f c6 eb d6 3e 1c 41 55 3d
       0.11252956 0.52718186 0.41976756 0.052064046
000080 fe 4c 9b 3d 88 1f 19 3f 6f be a6 be 4c 49 3b bf
       0.075830445 0.5981374 -0.32567164 -0.7315872
000090 f2 ee a7 3e 57 a3 f9 bd 92 b1 44 3e a0 3b bc be
       0.32799488 -0.12189358 0.19208363 -0.3676424
0000a0 c4 0c ca 3e fb 96 55 3e 35 04 8c be 84 0b 80 3d
       0.39462864 0.20858376 -0.2734696 0.062521964
0000b0 c0 22 10 be 32 11 fe bd cb 25 44 3f 25 5d 11 be
       -0.14075756 -0.124056235 0.7662017 -0.14195688
0000c0 e8 2e 85 3e 81 ec 10 3e fe e7 be 3d 54 21 07 3f
       0.2601235 0.14152719 0.09321593 0.5278523
0000d0 59 0e c8 bd 61 40 01 bf 79 ea 9a be 5d 4f 26 bd
       -0.097683616 -0.5048886 -0.30257013 -0.04060303
0000e0 da 6b ac be 58 f6 ea 3d a3 87 82 3e 46 22 85 be
       -0.33676034 0.114727676 0.25494108 -0.2600271
0000f0 eb 7a 74 3e d2 3d e0 3e e1 24 d9 3e d2 b3 06 bf
       0.23875014 0.43797165 0.4241095 -0.52618134
000100 0b 33 dd 3e f7 9e 84 3e 93 1a 05 3e a9 6b 37 be
       0.43203005 0.2590253 0.12998419 -0.17912163
000110 d4 51 00 3f 38 67 1a 3e be ba 27 be d7 44 47 bf
       0.5012486 0.15078437 -0.1637983 -0.77839416
000120 31 35 90 be 1e b6 13 be 1b 82 46 3f 4e 68 01 3e
       -0.28165582 -0.14424941 0.77542275 0.12637445
000130 2d 6b 36 bd b7 d7 75 3e c9 45 97 be 6b bd 85 bc
       -0.044535805 0.2400807 -0.2954543 -0.016325673
000140 22 32 d6 bc f8 66 eb bd 5c 35 0d bd ad 4e 3f bf
       -0.026146952 -0.11494249 -0.034474716 -0.74729425
000150 54 51 ae be 43 f0 89 3f 0b e1 00 3f 76 2e f6 be
       -0.34046423 1.0776447 0.5034339 -0.48082322
000160 ce 4e d8 3d 8a 06 8d bf 0f fc 05 3e 13 29 16 be
       0.10561906 -1.101762 0.13084434 -0.14664106
000170 9d 16 a8 3d 3b 1c e7 bd 76 f5 10 3e 93 30 fe 3e
       0.08207438 -0.112846814 0.14156136 0.49646434
000180 1b 48 91 3e 94 83 8c 3e 44 a6 99 3c 7a f1 a9 be
       0.28375325 0.27444136 0.01875604 -0.33192044
000190 e4 bb fa be 7c 44 af be cf 8b b3 3e 00 f4 a1 3d
       -0.48971474 -0.34231937 0.35067603 0.079078674
0001a0 0e 47 a7 ba 89 52 8c bd 95 05 57 3e 3d a3 ec 3d
       -0.0012762265 -0.0685168 0.20998223 0.11554573
0001b0 24 e5 d6 be a6 47 03 3e 4b 59 45 3f b4 72 2b 3d
       -0.41971695 0.128203 0.77089375 0.041857436
0001c0 47 fb b6 bd d1 94 58 3f 33 94 5f 3e 2a 2f a0 bc
       -0.08934646 0.84602076 0.21833877 -0.01955374
0001d0 41 0d 13 bf cd ab 3d be c1 35 d6 3c dc 1c 10 3e
       -0.574421 -0.18522568 0.026148679 0.14073509
0001e0 fa d4 95 3e 8d 95 1f be f7 05 15 bf 08 73 44 be
       0.2926405 -0.15584393 -0.58212227 -0.19184506
0001f0 ce 0e c7 be 66 c3 55 3f 8a a7 73 3e 1e 14 0c 3e
       -0.38878483 0.8350128 0.2379438 0.13679549
000200 70 e0 99 be c8 ad 33 3d 26 39 05 3e 67 71 09 bf
       -0.30054045 0.043866903 0.13010082 -0.53688663
000210 4d a5 65 3e 4c a4 a3 3d c3 a5 e1 3e e5 72 20 bf
       0.22426338 0.079903215 0.4407178 -0.62675315
000220 42 fe 6a bf 70 9c 5f be 47 ed f5 3e 97 d6 8b 3d
       -0.91794217 -0.2183702 0.4803259 0.06828039
000230 50 60 8c 3c 07 e3 92 be af 03 58 bf a7 f6 3e bf
       0.01713577 -0.28688833 -0.8438062 -0.7459511
000240 a9 fd 75 3e 44 11 8d 3d 3e f8 ea bd ad 18 d7 3e
       0.24022545 0.06888059 -0.1147313 0.42011014
000250 73 d6 40 3d ff 10 a3 be 50 fb ae bd 7f f5 cc bd
       0.047079515 -0.31848904 -0.08544028 -0.10007762
000260 08 b4 86 3e 85 8e f8 bd e2 22 0e 3d dc 0f 9b 3e
       0.26309228 -0.121365584 0.034701236 0.30285537
000270 5d b7 13 bf 0e d0 89 3e 06 d2 06 be d0 4e f6 3e
       -0.57701665 0.26916546 -0.13166055 0.48107004
000280 e0 02 1c be e5 08 04 be 9c b6 61 be 62 c6 ae 3e
       -0.15235472 -0.12894018 -0.22042316 0.3413573
000290 38 22 1d 3f d4 53 ed 3e 6b 85 ed bd 41 80 4a 3e
       0.6138034 0.46353018 -0.11597713 0.19775487
0002a0 8c f2 25 bd a2 24 95 be 80 15 d9 3e 6b 72 84 be
       -0.040514514 -0.2912951 0.42399216 -0.25868544
0002b0 a2 6d 85 3e 48 b9 6d 3f 3a fe 89 3e a2 65 ce be
       0.26060206 0.9286084 0.26951772 -0.40311915
0002c0 c6 9e ef 3e c8 1a 3a bb 37 ff 10 3f 69 26 32 3f
       0.46800822 -0.002839731 0.56639427 0.6958986
0002d0 53 3e 89 3e af 32 4c 3e 08 0e 01 3e c8 c7 df be
       0.26805362 0.1994121 0.12603009 -0.43707108
0002e0 88 87 05 3e bf 71 4b 3e d1 63 c9 be fe 24 ed 3e
       0.13039982 0.1986761 -0.39333966 0.46317285
0002f0 1f 40 2a be 7f 73 9d be ef 98 79 3e e1 93 b0 3d
       -0.16626023 -0.3075218 0.24374746 0.08621956
000300 c7 a9 21 3e 29 40 91 3e a3 7b f5 3c 70 0c 39 bf
       0.15787421 0.28369263 0.029966181 -0.72284603
000310 d9 5c 17 3f 9f 3e bf 3e 41 1d 87 3e 92 8e 22 bf
       0.5912605 0.37352464 0.26389506 -0.63498795
000320 24 15 a4 bd 14 ea b3 3d fc 85 4b 3f 34 08 da bd
       -0.08011845 0.08784881 0.7950132 -0.10646096
000330 47 1b 03 3d 54 b1 be bc 24 4e 23 be 7b d1 c8 be
       0.032008436 -0.023277916 -0.15947777 -0.3922232
000340 21 4d 8f be b9 ad 0c be 56 93 b2 3d 05 65 41 be
       -0.27988532 -0.13738145 0.08719508 -0.18886192
000350 05 06 26 bf fb 7a 55 3e 46 77 e2 3e 4e 58 a2 bd
       -0.64852935 0.20847695 0.44231623 -0.07926999
000360 82 56 0b 3e 33 98 d1 be cb 25 b4 3d d0 8e 4e bd
       0.13607219 -0.4093643 0.08796271 -0.050429165
000370 91 96 0c 3f 1b c9 1a bd 2a e9 a4 3d ae 38 c8 be
       0.54917246 -0.037789445 0.08052285 -0.39105743
000380 7c 3c bf 3d 35 74 46 3f 24 da e0 be 56 47 39 3d
       0.09337708 0.7752107 -0.43916428 0.045234047
000390 70 5d 54 bb 32 e9 19 be 9b 1e 61 bd d4 38 4f bd
       -0.0032404326 -0.15030363 -0.05496083 -0.050591305
0003a0 fa db 3c 3d 41 bc cb 3d 2f 41 35 3f 66 46 91 3e
       0.046108223 0.09948016 0.7080259 0.28374022
0003b0 b5 0e e3 bc d3 24 d5 be 32 12 92 3f c4 27 ec 3e
       -0.027716974 -0.41629657 1.1411803 0.4612409
0003c0 ff e4 df 3e 2f 73 26 3f 0d 2e 22 3e 76 5f 2e be
       0.43729398 0.65019506 0.1583788 -0.17028603
0003d0 d3 a2 9a be fd 9a 38 3e 89 42 b0 3e 2e a8 cb be
       -0.3020235 0.18027873 0.34425762 -0.39776748
0003e0 87 51 da bc ec 4f 48 bd 3c 0b f1 bd 3b c7 e3 bc
       -0.026650203 -0.048904344 -0.11769721 -0.027804961
0003f0 fc c1 22 bf 35 5a 0a 3f 11 e0 d5 be 0b 9c b8 bd
       -0.63577247 0.54043895 -0.41772512 -0.09014138

critic.2.bias f4 [64]
000000 db 34 88 be a7 06 b1 3d fa ed 21 3e 2a 9f 63 bd
       -0.26602826 0.08643847 0.15813437 -0.055571713
000010 b8 cf 7a 3e 08 cd e2 bd e5 38 0a bd 53 bf 9e be
       0.24493301 -0.11074263 -0.033745665 -0.31005344
000020 fd 69 46 3a a6 e0 97 bd 2a 27 86 3e 5d 83 24 be
       0.0007568894 -0.07415895 0.26201755 -0.16065736
000030 4e 2d 8d 3e 81 5e 32 3e 88 ff 49 3e 47 80 63 3e
       0.27573627 0.17418863 0.19726384 0.22216903
000040 d5 73 64 bd f0 03 bc 3d 29 01 51 3e 93 06 5c 3b
       -0.05577453 0.091804385 0.20410599 0.0033573254
000050 4b f9 15 3e 46 1f a8 bb 9f a9 10 3e 93 ff 49 be
       0.14645879 -0.005130681 0.14127205 -0.197264
000060 a7 42 3c 3e d4 6c 55 3e 6f d0 8a bd 23 22 4f 3e
       0.18384801 0.20842296 -0.06778037 0.20227866
000070 7a 02 8f be 51 f6 72 be 6b d3 34 be 34 a5 1d 3e
       -0.27931577 -0.23726775 -0.17658775 0.15395051
000080 fb e8 3f 3d 2c ac f9 bd 11 7b 7d be f4 92 2e 3c
       0.046853047 -0.12191042 -0.24753977 0.010655154
000090 df f0 cd be c0 ae a1 be 56 06 2d ba 8f 3e bc 3d
       -0.40222833 -0.31578636 -0.00066003704 0.091916196
0000a0 45 26 48 3e cf 39 b6 3d c3 53 11 3e 86 57 b7 be
       0.19545849 0.08897745 0.14192109 -0.35808963
0000b0 3e 79 2e 3e a5 19 3a be 3a a3 c4 bd 06 5e 8c 3e
       0.17038438 -0.18173845 -0.096014455 0.27415484
0000c0 e8 62 34 bd d1 8d cb be 7a 16 10 bd 04 78 4d 3e
       -0.044039637 -0.39756635 -0.035177685 0.20065314
0000d0 c4 ab 2d be cb 4e 01 be 08 26 99 3e ec 52 02 bd
       -0.16960055 -0.12627713 0.29911828 -0.03181736
0000e0 73 ff a1 bd a2 df 3b be f0 86 b6 3d d8 e9 26 be
       -0.07910051 -0.18347028 0.08912456 -0.16300142
0000f0 9a 3f 67 bd d2 50 31 3e 44 b4 01 be cc 45 56 be
       -0.05645714 0.17315987 -0.12666422 -0.20925063

critic.4.weight f4 [1, 64]
000000 24 69 06 3f 0d 4c 5b bf 9d a9 f2 3e 20 4b ac 3e
       0.5250418 -0.8566292 0.4739503 0.33651066
000010 62 aa de be 6f cd be be 5c 20 31 3f 69 a8 51 3f
       -0.43489367 -0.37266108 0.6919 0.818976
000020 e7 86 ee be d9 36 c5 3e ef ae fc 3e 4f 04 fd 3e
       -0.46587297 0.38518408 0.49352214 0.4941735
000030 3b c1 d7 be 88 23 19 3f 81 11 15 bf 83 84 be 3e
       -0.4213961 0.5981984 -0.58229834 0.37210473
000040 52 12 b5 be 03 1f 6d 3f da 37 0e bf e4 2f 2e 3f
       -0.3536554 0.92625445 -0.5555397 0.68041825
000050 96 8c 0f 3f ba c5 66 be 6c 5c b8 be 9b 98 c9 3e
       0.5607389 -0.22536364 -0.36008012 0.3937424
000060 3c 10 ce be ae a9 2a bf 3a 6f 15 3f 2a b5 0d bf
       -0.4024676 -0.6666516 0.58372843 -0.5535456
000070 4d a7 f8 3e 50 53 2a bf 03 d5 0b 3f a5 50 a5 be
       0.4856514 -0.66533375 0.54621905 -0.3228809
000080 d8 94 f3 be 0c 17 3b bf bc 76 0d 3f 7a f3 ab 3e
       -0.47574496 -0.7308204 0.552593 0.33584195
000090 e3 cb af 3e a5 b3 fc 3e a2 ae 3b 3f 51 ce 28 3f
       0.3433524 0.49355808 0.73313344 0.65939814
0000a0 67 30 0b 3f 92 e6 d0 be f1 b3 36 3f 1c 81 0b bf
       0.5437073 -0.4080091 0.7136832 -0.5449388
0000b0 a1 41 fd be 70 84 a7 3e 24 d8 de be fa 9c c8 be
       -0.49464133 0.3271823 -0.43524277 -0.39182264
0000c0 0a 78 6f 3e 61 0b 0a bf b8 d6 f9 3e 2f 01 00 3f
       0.23385635 -0.5392361 0.4879663 0.50001806
0000d0 b3 3e 5c 3f d2 b9 16 3f 5c 95 06 bf ab 3d 10 3f
       0.8603317 0.5887729 -0.52571654 0.563441
0000e0 23 e7 15 bf c4 c9 e5 be c9 15 0d 3f 0b 74 f7 3e
       -0.5855581 -0.44880497 0.55111367 0.4833072
0000f0 a0 dc 00 3f b4 35 cd be 0b be 0f bf 6c 3a b9 3e
       0.5033665 -0.40080035 -0.5614936 0.36177385
