models/004_Precision_Pro/004_Precision_Pro_latest.pth (torch, 48642 bytes, 11 tensors)

actor.0.weight f4 [64, 18]
000000 11 52 0c 3e 35 04 0b be a4 ec a1 bb 97 65 f2 3d
       0.13703181 -0.13575824 -0.00494154 0.11835783
000010 98 07 72 3d 83 8b 17 3e 61 0c e3 3d eb 27 37 bd
       0.059089273 0.14799313 0.110863455 -0.044715803
000020 82 61 2f 3d de 4d 8b 3e 8a 19 73 3d 10 c0 a5 be
       0.0428176 0.27207845 0.059350528 -0.32373095
000030 a0 49 7a 3e c1 94 09 3e bf 69 60 be bc a2 42 3d
       0.24442148 0.13435651 -0.21915339 0.047518477
000040 e0 51 ee 3b b6 d3 ab bd 4d fc f1 3d 9d 86 58 bd
       0.007272944 -0.0838999 0.11815701 -0.052862752
000050 21 07 de bd 3f 39 3f 3e 0b e4 f8 bc 5b 6e 72 be
       -0.108412035 0.18674181 -0.030382177 -0.2367491
000060 e5 77 8d bd 11 d6 06 3e ab c9 85 bc 79 78 08 be
       -0.06907634 0.13167597 -0.016331514 -0.13327207
000070 dc 60 52 3e 13 76 01 3e 8d dd 95 3c 79 28 1c be
       0.20544761 0.12642698 0.01829412 -0.15249814
000080 95 ff 31 3e b9 d4 14 3e e7 bf 0f 3e 23 c5 53 3e
       0.17382653 0.14534272 0.14038049 0.2068067
000090 e5 de b7 3d 92 c0 0c 3e b9 72 4d 3e b2 0e 5b 3e
       0.08978061 0.13745335 0.20063294 0.21392325
0000a0 3c 83 0c 3e 28 b6 14 3e 2b db d7 bd 7d a2 6f be
       0.13721937 0.14522612 -0.1053985 -0.23401828
0000b0 ed b9 12 3d fd 4b 50 3e a8 13 c1 3c 23 7b fb bd
       0.035821844 0.20341487 0.023568943 -0.12279346
0000c0 77 85 c9 bd b3 f2 ec bd 33 18 5e 3e c3 8b 50 3e
       -0.098399095 -0.11569729 0.21688919 0.20365815
0000d0 8a 38 84 bd 97 44 47 be 77 28 50 3e 84 88 54 bc
       -0.064560965 -0.19459759 0.20327936 -0.012972001
0000e0 05 da 1e 3e 5e 08 b3 bd 05 e9 15 3d 0c 51 32 3e
       0.15512855 -0.0874183 0.036599178 0.1741373
0000f0 a9 2e f9 3d a0 cb c5 bd fa f2 3e 3e ee 18 02 bd
       0.12167103 -0.09657979 0.18647376 -0.031762056
000100 3e 75 4d 3e 6b 51 54 3e aa ca d4 bd 95 e0 5e 3e
       0.20064256 0.20734183 -0.103902176 0.21765359
000110 d6 05 ba 3d 56 49 e6 bd 80 ae 1d be b8 4f a4 3c
       0.09083144 -0.112444565 -0.15398598 0.020057544
000120 54 81 3a 3e 96 6d 25 3d dd 47 1a be 90 87 96 3c
       0.18213397 0.040387712 -0.15066476 0.018375188
000130 e3 08 20 bd 1c 37 7b be 34 71 7a 3d 71 88 78 3e
       -0.039070975 -0.24532741 0.061143115 0.24270798
000140 1d e8 94 3d f8 4a 90 bd ac d1 2b bc cb 4d cf 3d
       0.072708346 -0.07045549 -0.010487001 0.1012226
000150 de 6f 4e be a8 27 f0 3c 1c 74 64 3d 3e 86 e6 3d
       -0.20159861 0.029315785 0.055774793 0.112560734
000160 22 d6 88 bd 88 b5 cd 3c dd 41 0e be 4c 97 43 be
       -0.066814676 0.025110975 -0.13892312 -0.19100684
000170 b8 ea 24 3e 01 8f 31 3e 8f 38 e7 3d 9c 65 8a 3e
       0.16105163 0.17339708 0.112900846 0.27030647
000180 59 ea d6 bd e4 89 20 be 76 f7 28 be e0 79 68 bd
       -0.10493917 -0.15677601 -0.16500649 -0.056756854
000190 46 95 45 3e ee 10 7e bd ae b6 66 be c8 41 27 be
       0.19295225 -0.062027864 -0.22530624 -0.16333687
0001a0 6b db 39 be ad 16 45 be 82 36 1b be fe c7 eb bd
       -0.18150108 -0.19246931 -0.15157512 -0.11512755
0001b0 e8 71 5e 3a 59 47 79 3c 4c b3 8f be 0b 05 29 be
       0.0008485601 0.0152147645 -0.2806648 -0.1650583
0001c0 51 de fa bd 06 1d 6f be 5b fc 21 3e dc 8b 29 3e
       -0.12249435 -0.23350915 0.15818922 0.16557258
0001d0 c1 37 42 3d 5a 5e 13 be f8 64 8c 3c 4d e5 1e 3e
       0.047416452 -0.14391461 0.01713799 0.15517159
0001e0 2c fd bc bc 4e bf 84 3d f4 b7 0e 3d 5c 83 28 be
       -0.02306994 0.06481801 0.0348434 -0.1645636
0001f0 24 08 38 bd a8 f9 f1 3c 0d 6e 7c bd e8 13 e7 3d
       -0.04492964 0.02953799 -0.06162839 0.11283094
000200 02 39 4c 3e d8 82 07 be 26 2d bc 3d c3 57 41 be
       0.19943622 -0.13233507 0.09188299 -0.18881135
000210 bf 95 b5 bc 71 96 88 3e 85 cb 67 bd 2b 1b 9f be
       -0.022166131 0.26677278 -0.056590576 -0.31075415
000220 67 84 ee 3c fe 43 bf 3d 72 f3 98 bd fc 44 b9 bd
       0.029115869 0.0933914 -0.074683085 -0.09046361
000230 66 6c 2a be 38 9b 2a be e5 62 3a 3e af bf 25 3e
       -0.16642913 -0.16660774 0.18201788 0.16186403
000240 c7 fe 28 be 3c b2 1e be 0a b8 0c be ed aa 2c 3d
       -0.1650344 -0.15497679 -0.1374208 0.042155195
000250 cc 7b a7 bd 00 e8 f9 3d aa 5f 03 3e ae 7b c6 3c
       -0.08177909 0.122024536 0.12829462 0.024228897
000260 2f f0 6c 3e 81 0f 30 3d 94 5d 21 be e9 ef 84 bc
       0.23138498 0.042983536 -0.15758353 -0.01622768
000270 72 a9 14 3e f0 6a 5c be 45 e5 6a 3e 9e 93 e3 3d
       0.14517763 -0.21525168 0.22939022 0.1111214
000280 7a 88 2f be 80 fd cb 3b f2 db ed 3d b4 b4 24 3e
       -0.17141905 0.006225288 0.11614217 0.16084558
000290 68 b8 5a bd d6 91 48 be b4 90 f1 3d 7c db 24 3e
       -0.05339852 -0.19586882 0.11795178 0.16099352
0002a0 a9 5c 59 3d 83 a9 12 be 85 ab 39 3e d5 58 3f be
       0.053066883 -0.14322476 0.18131836 -0.1868623
0002b0 0b ca 89 be ca ba d8 3d af 73 98 3d 6d 7d 2d 3e
       -0.2691196 0.10582502 0.0744394 0.16942377
0002c0 7d d0 44 be 61 8e 09 3e 08 18 bf bd e5 4d 63 3e
       -0.19220157 0.1343322 -0.093307555 0.22197683
0002d0 5f f8 9a bd 77 2b 43 3d 7a a5 9b 3d 0b cd 5b 3e
       -0.07566904 0.047648873 0.075999215 0.21464936
0002e0 8b 48 1e 3e d1 c4 a4 bd f1 9e f3 bc 3a 1c 09 be
       0.1545736 -0.08045352 -0.029738875 -0.13389674
0002f0 88 8e 9d be 3d 21 45 3e bd 00 ce bd 75 5c f6 3a
       -0.30772805 0.1925096 -0.100587346 0.0018795865
000300 97 52 75 3d d1 17 27 3e 90 b2 1f be 00 50 a9 3b
       0.059893217 0.16317679 -0.1559546 0.0051670074
000310 2c 39 38 3d 77 c9 5c 3e 37 bf 87 3e 1a 7d a5 bd
       0.0449764 0.21561228 0.26513073 -0.08080502
000320 2e 28 95 bd 01 dd 52 be 52 f2 81 3e 64 c8 d7 bd
       -0.07283054 -0.20592119 0.25380188 -0.10536268
000330 1d de 1d 3d 9a a3 6a 3d 1e 30 2a 3e 1e e3 6b be
       0.0385419 0.05728493 0.16619918 -0.23035857
000340 d1 3f 85 bd 8e 99 0d bd dc 3e cf 3c 74 1e 64 3d
       -0.06506313 -0.03457027 0.025298528 0.055693105
000350 9e 09 9e 3d 28 e7 80 bd f6 e0 84 bd 82 4b 83 3d
       0.07716678 -0.062940896 -0.064882204 0.06410886
000360 6c d0 83 be 68 0b bc bb c6 12 5e 3d 29 3f e5 bc
       -0.2574495 -0.0057386644 0.054217122 -0.027984219
000370 ff 3f 3a 3e 0e 6b 23 3e f9 0b 30 b9 89 3a d1 3d
       0.18188475 0.15958807 -0.00016789128 0.10216243
000380 4d 6a 14 be 75 15 1d bb 54 fa 83 3d 50 61 49 bd
       -0.14493676 -0.0023969088 0.06444231 -0.04916507
000390 45 11 4d 3c 97 6e 53 3e d5 41 54 3e 2c 97 6f bd
       0.012516324 0.20647655 0.20728238 -0.058493778
0003a0 35 3c 49 3e 88 98 b0 bd b3 ce 46 bd b8 85 c1 bd
       0.19651873 -0.08622843 -0.048536967 -0.09449333
0003b0 f5 be a9 bd 0a c5 ba 3d 55 ea 50 3e 6e 43 cc bd
       -0.08288375 0.091196135 0.2040189 -0.09973799
0003c0 91 b0 ad 3d 1e 16 4a bd 22 6a 05 3e 2d 0f 6b be
       0.08480943 -0.0493375 0.13028768 -0.22955008
0003d0 e2 6a 8b bd 36 c5 72 bc 2b 06 5d be 50 ef 3f bc
       -0.06807496 -0.014817527 -0.21584384 -0.011714771
0003e0 81 3d fa bd f4 1c 08 3d 78 11 16 bd 74 70 cd bd
       -0.12218762 0.033230737 -0.036637753 -0.10031214
0003f0 4b 03 db 3d 35 bd 67 3e a2 c3 00 be f5 9d 0a bc
       0.106939875 0.2263077 -0.12574628 -0.008460511

actor.0.bias f4 [64]
000000 ea 3d 5d be bb f8 5a 3d f1 33 9f 3c 7e ec 5a be
       -0.2160565 0.053459864 0.019433947 -0.21379277
000010 8b 11 a7 bd 3f b6 0e 3e 13 ca 89 bd ad 46 29 bd
       -0.08157643 0.13936709 -0.06727996 -0.041327167
000020 67 84 14 be d4 ee 97 bd a3 10 b1 3d 43 d2 c4 bd
       -0.14503632 -0.074186 0.08645751 -0.09610417
000030 b7 7c 32 be fd 31 a1 3d f6 79 d7 bd 3f 37 8e bd
       -0.17430387 0.07870863 -0.10521309 -0.06944131
000040 fb 55 16 3e ee 59 62 bd 17 da 42 3e a1 90 63 3e
       0.14681236 -0.055261545 0.19028507 0.2222314
000050 b7 51 91 3d 44 a0 5c be 37 ba 5b bc fa be 1a 3e
       0.07095664 -0.21545511 -0.013411096 0.15111914
000060 27 b1 6b be ef ca 90 bd c0 7d 67 3d f7 01 73 3e
       -0.23016797 -0.070699565 0.05651641 0.23731218
000070 a7 53 05 3d 30 89 9b 3c b5 f1 fc 3d a0 73 a1 3d
       0.03255048 0.018986315 0.123507895 0.07883382
000080 0b 78 5a 3e d0 fb 1a be d2 0d 1c be 3d 64 3f bd
       0.21334855 -0.15135121 -0.15239647 -0.046726454
000090 85 13 ad bd c2 13 64 be 32 29 07 bd 66 3c da bd
       -0.08450989 -0.22273162 -0.03299827 -0.10656051
0000a0 b0 2b a2 3d 5f d3 88 3d 42 b4 09 3e 48 da 07 3e
       0.07918489 0.06680941 0.13447669 0.13266861
0000b0 7d 08 72 3e b6 dc d3 3d 59 cb 13 be 29 ba 14 3e
       0.2363605 0.10344832 -0.1443304 0.1452414
0000c0 46 6a 29 be a5 c9 25 3d d7 35 37 3e f5 6b 1a 3e
       -0.16544446 0.040475506 0.17891632 0.15080245
0000d0 65 36 bd bd 44 51 09 3e 32 06 00 be 5a 35 37 be
       -0.092388906 0.13409907 -0.12502363 -0.17891446
0000e0 e9 8d 88 3b ab ca 96 3d dc 05 7e bd fb ca 39 3c
       0.0041673076 0.073628746 -0.062017307 0.011339898
0000f0 8e ce 2a 3e a6 6f 3e 3d f4 b3 bc bd 05 c6 28 3d
       0.16680357 0.046493195 -0.09214011 0.04120447

actor.2.weight f4 [64, 64]
000000 c1 a8 b3 bd 35 1f 97 bd ca 03 e2 3d e6 e5 70 bd
       -0.08772422 -0.07378999 0.11035879 -0.058813
000010 10 88 00 be 0f 48 dd 3d 63 e7 b7 3c fa 2b 2a 3c
       -0.12551904 0.1080476 0.022449201 0.010386461
000020 78 28 bf 3c 3b eb ea bd 3e 1e 9c 3d 06 c1 00 bd
       0.023334727 -0.11470648 0.07622956 -0.03143408
000030 ed 00 a6 bd 0e 51 68 bd fd 79 73 bd 6b 6a a0 bc
       -0.08105645 -0.056717925 -0.05944251 -0.019581994
000040 60 94 1f bd 22 1e ad bd 0a af 06 bc ca 90 21 3d
       -0.03895986 -0.08453013 -0.0082204435 0.039444722
000050 b6 ec d5 3d 53 c0 ab bd 41 66 da 3d bd aa 50 bd
       0.1044554 -0.08386292 0.10664035 -0.05094408
000060 4d 31 c9 bc e6 49 c0 bd aa 16 9d 3d bd 92 90 bd
       -0.024559641 -0.09389095 0.076703385 -0.07059238
000070 4e b5 e5 bd 3e af de 3d 7b 64 72 bd 8e d8 a2 3d
       -0.11216222 0.108732685 -0.059177857 0.07951461
000080 26 22 19 bd a5 cb 25 bc e1 cf 31 3d e9 fe 63 bd
       -0.037386082 -0.010119353 0.04341114 -0.055663023
000090 c0 b6 3d bd c4 09 cb 3d 0f 65 64 bd 31 a3 e8 b9
       -0.046316862 0.09913972 -0.05576044 -0.00044372075
0000a0 b0 81 c4 bb 86 d6 85 bd 55 87 b3 3d 56 1b fc 3c
       -0.0059969053 -0.06535058 0.08766047 0.030774754
0000b0 42 e4 13 3e 4e 0d eb 3c aa 58 08 be 9b 74 84 bc
       0.14442542 0.028692868 -0.13315073 -0.016168883
0000c0 42 63 d6 bc 11 44 b0 bc 43 26 fe 3d ff 1c a7 bd
       -0.026170377 -0.021516832 0.124096416 -0.081598274
0000d0 a5 1f af 3c 3f 8b b9 3d 00 f0 7e 3c b4 be d4 ba
       0.021377394 0.09059762 0.01556015 -0.001623115
0000e0 d6 c1 ca bd 5a 2d 44 3d 09 dc 93 3d 08 1f ef bc
       -0.099002525 0.047894813 0.07219703 -0.029189602
0000f0 17 d6 b4 bd 8f 83 73 bd 99 d2 0c be 8d ed 5b bd
       -0.08829897 -0.059451636 -0.13752212 -0.053693343
000100 b7 7f 86 3d a2 62 27 3d 57 c2 42 3e 17 8a cc bd
       0.065673284 0.040865548 0.19019447 -0.09987276
000110 dc a1 79 bd 99 95 89 bd 0c 73 f8 bd b6 9f b1 bc
       -0.060945377 -0.067179866 -0.121313184 -0.021682601
000120 23 ce 0e be 80 21 63 3d 04 46 a7 3c bc 4f df bd
       -0.13945822 0.05545187 0.020419128 -0.1090388
000130 38 db ba 3d aa 03 c3 bd b5 ad 48 bd 2e a0 b8 3d
       0.09123844 -0.09522183 -0.048993785 0.09014927
000140 7c 03 9f bc 9b 8b 84 bb ac 62 83 bd c4 69 f2 bd
       -0.019410841 -0.0040449626 -0.064153045 -0.118365794
000150 6f c3 8a bb cf 3e 15 be ff 92 08 3d 5f 8c 1f 3e
       -0.0042347233 -0.14574741 0.03334331 0.15580891
000160 52 59 b5 3d 72 cb 14 be dd b8 4e bd c9 53 dd 3d
       0.08854927 -0.14530733 -0.050469268 0.108069964
000170 d2 ad e4 bd 63 e5 3d bc 13 01 f0 3d 07 53 12 bc
       -0.11165966 -0.011590335 0.11718955 -0.008930928
000180 90 ed 26 bc 69 e7 9d bb ca 6a c8 3d b7 b3 77 bc
       -0.010188475 -0.004818846 0.097859934 -0.015118531
000190 03 a5 9d bc 0c 39 db bd a6 f3 e0 3c 5f 9f 86 3d
       -0.019243723 -0.1070424 0.02745993 0.065733664
0001a0 b1 6e 68 3d 76 00 a8 3d e7 8a fb bd d1 cc 91 bb
       0.05674619 0.08203213 -0.12282353 -0.004449465
0001b0 96 9b fe bc 10 d4 38 bd f3 21 b2 bd 3b 82 96 bd
       -0.031080049 -0.045124114 -0.086978815 -0.07349058
0001c0 41 97 11 bd 99 a6 a7 bd 2b 04 23 bd ee ec 03 be
       -0.035544638 -0.08186073 -0.039798897 -0.1288335
0001d0 ba 90 3b bc 49 7b 9f 3d 63 0f 89 3d 95 3f d1 3c
       -0.01144808 0.07787187 0.06692388 0.025543014
0001e0 65 70 c3 bc 9a 66 73 bd 55 68 c1 3d 12 c0 45 bc
       -0.023857305 -0.05942402 0.09443728 -0.012069719
0001f0 52 da 45 bd e5 f4 f0 3d e7 f2 15 bc 94 ef 0d 3d
       -0.04830391 0.1176546 -0.009152151 0.034652308
000200 b6 fb e1 bc 7d c3 f1 bd 0a 67 22 bd f7 e1 6d bc
       -0.027585845 -0.118048646 -0.039649047 -0.014519206
000210 c2 68 f6 3d d0 87 1a 3c 54 74 b6 bb 2b f3 a7 bc
       0.120317 0.009431794 -0.0055680666 -0.020501694
000220 18 95 b4 3d 3a 74 f9 3d 84 b4 90 bd e8 ac 5c bd
       0.088175 0.121803716 -0.070656806 -0.053875834
000230 21 17 12 3d 9c 6d 3e bd c8 64 82 3d a5 29 02 3d
       0.03566659 -0.04649125 0.06366879 0.031777997
000240 b6 8c 22 3d 69 c6 40 3d dc e5 81 3d 39 a8 da bd
       0.039684974 0.04706422 0.0634267 -0.10676617
000250 d0 80 f0 bb c7 a9 21 bd 8a 16 03 3e 5f 35 1f be
       -0.0073395744 -0.039468553 0.12801567 -0.15547703
000260 51 44 81 bd 62 1b 24 3c be 8d f2 bd 55 d8 74 bd
       -0.063118584 0.010016294 -0.118434414 -0.059776623
000270 57 47 8b 3d 1b 66 e5 bc d1 2e 0e bd 7d 55 f5 bd
       0.06800716 -0.02800279 -0.034712616 -0.11979196
000280 73 36 1b 3d 91 8e 4b 3d 2d 04 f1 bd ed 8d 47 bd
       0.037893724 0.04969651 -0.117683746 -0.048719335
000290 8c e9 d7 bd f6 fa 11 3e 8b 19 1e 3d 03 07 68 3d
       -0.105425924 0.1425589 0.03859858 0.056647312
0002a0 12 b5 b4 3d 10 3f 5a ba bf ef 0f 3d 44 66 c1 3d
       0.08823599 -0.0008325437 0.03514075 0.09443334
0002b0 3a 0c 50 bb 9f a2 8d 3c ff 87 99 3d 02 f0 5d 3d
       -0.003174557 0.017289458 0.07496642 0.054183967
0002c0 db 7b a0 3d 11 df 89 3c a9 e0 20 bd 9a 90 ca bd
       0.078361236 0.01683 -0.039276753 -0.09890862
0002d0 ec 72 b3 3d 55 a8 01 be a4 ac 6f bc dd 7a 9b bd
       0.08762154 -0.1266187 -0.014628563 -0.07591794
0002e0 e7 2f 1d 3d a2 34 f9 bd b9 5e d2 3d e6 28 3f 3d
       0.03837576 -0.12168242 0.10271973 0.046669863
0002f0 da 7b 00 bd cf 41 59 3d c3 3d d6 bb 83 da 3f bd
       -0.031368114 0.053041276 -0.0065381243 -0.04683925
000300 c8 f1 ae 3d 65 07 05 be 9d 8d 99 3d 60 43 93 3d
       0.0854221 -0.12991102 0.07497714 0.07190585
000310 1f b2 37 3b 75 b1 a8 bb c4 c4 d1 bd 31 3f 1c bd
       0.0028029752 -0.0051481077 -0.10242608 -0.0381462
000320 7b 7c f4 3b 37 bb 0a 3d af 4a 19 3e 63 61 86 3a
       0.0074611283 0.03386995 0.14969896 0.0010252412
000330 ed 7c 86 bd 1b 46 94 bd 53 71 31 bb 6c 00 db bd
       -0.065667965 -0.07239934 -0.0027075603 -0.1069344
000340 56 b9 a7 3d e8 52 dd bd 7f c1 bd 3d 58 9f 26 bd
       0.08189647 -0.10806829 0.09265422 -0.040679306
000350 1c 31 94 3d 78 ad a7 bd 67 22 cd bd ea d3 4d 3d
       0.07235929 -0.081873834 -0.10016327 0.050250925
000360 05 3d a0 bd b7 21 5f 3c 01 85 86 3c 79 23 f3 bd
       -0.078241386 0.013618878 0.016420843 -0.11872
000370 59 00 85 bd 33 7d 8f bd 07 31 e5 bd 52 01 d0 bc
       -0.06494207 -0.07006302 -0.11190992 -0.025391255
000380 03 bd e2 3d d6 bc 83 bd 06 46 90 3d 33 8b 2f 3e
       0.110712074 -0.06432502 0.07044606 0.17142944
000390 dc ad e7 3c 59 ba 98 bd 5d 73 c3 3c 40 6b 23 bd
       0.028281145 -0.07457418 0.02385872 -0.039897203
0003a0 da 0c b7 bd 73 32 c1 3d e0 77 60 bd bd fa e8 bd
       -0.08937998 0.094334505 -0.05480182 -0.113759495
0003b0 d7 fd 6c 3d b4 56 b0 bd 4b 26 bf 3d a8 2b 2f 3d
       0.057859268 -0.08610287 0.09333476 0.042766243
0003c0 86 90 af bc 93 22 22 bd f5 63 95 bd 7b d6 8d 3d
       -0.021431219 -0.039583754 -0.07294456 0.069256745
0003d0 a7 0a ad 3d d0 28 f7 3d 09 7e c2 bd e0 f2 05 bd
       0.084492974 0.12068331 -0.094966955 -0.032702327
0003e0 09 aa cc bd 7a d1 fc bd d3 cb 26 3d bf a8 58 3d
       -0.09993369 -0.12344642 0.040721726 0.052895304
0003f0 86 e2 0d 3e 17 54 bd 3c 10 03 f0 bc 15 71 1b 3d
       0.13855943 0.023111386 -0.029298335 0.03794964

actor.2.bias f4 [64]
000000 af b7 09 bd ca 5a 31 bd c2 64 4c bc eb 84 09 3e
       -0.03362244 -0.043299474 -0.012475194 0.1342961
000010 8d 6f de bd 9f af 77 bd 11 d9 60 bc 20 46 04 3b
       -0.108611204 -0.06047022 -0.013723628 0.00201834
000020 d9 97 e9 3c a0 15 51 bd 87 cc e2 bc 5a c0 49 bd
       0.02851479 -0.051046014 -0.027685417 -0.049255706
000030 a4 09 d6 3d b0 4f a5 bd 2a 9b 08 bd b7 0b bb bd
       0.104510576 -0.0807184 -0.0333511 -0.09133094
000040 6c 11 cc 3c 88 3b 41 3d 78 79 ef 3b b3 87 cd 3d
       0.024910651 0.047175914 0.0073081814 0.10035648
000050 5e 1f 04 bc a8 63 59 3d dd a1 cb bd c7 87 a6 bc
       -0.008064119 0.053073555 -0.09942982 -0.020328416
000060 93 6a 52 3a cc 2b b1 3d bd 1a 77 3d 1f 25 88 3b
       0.0008026745 0.08650932 0.060328234 0.004154816
000070 de 0f 6a bd 71 67 b9 3d a2 ef 8f bd c2 df b5 3d
       -0.05714404 0.09052933 -0.07028128 0.08880569
000080 43 db 5f 3c f1 23 dd 3d fe 8d e3 bd b3 99 ba 3d
       0.013663116 0.10797871 -0.11111067 0.09111347
000090 20 9a 4a 3d c8 9e ba 3d 7d bb 0e 3b 52 3f 2a bc
       0.04946339 0.09112316 0.0021779232 -0.010391073
0000a0 4f 19 8f 3d f7 a9 87 3c 8b ac be bd 3a b9 da 3d
       0.06987249 0.016560538 -0.09310254 0.106798604
0000b0 cb c8 f5 bc 15 7e 7b 3c 16 ab 28 bc e9 f8 d4 3d
       -0.030002972 0.0153498845 -0.010294696 0.10399038
0000c0 13 a4 9e 3d 44 9e 85 bd 1a 63 53 bd c6 24 b3 3d
       0.077461384 -0.065243274 -0.051608182 0.08747248
0000d0 ad 31 17 3d 47 53 9b 3d 79 b0 24 bd 64 fa f6 3d
       0.03691261 0.07584243 -0.04020736 0.12059477
0000e0 c1 da b9 bd a4 3a 98 3a 7a 59 ca bd 6b 48 26 bd
       -0.09074927 0.0011614156 -0.098803475 -0.040596407
0000f0 d7 79 ae bd 11 89 2c 3c 8a c0 da 3d b7 4a f6 3c
       -0.08519333 0.010530726 0.10681255 0.030064924

actor.4.weight f4 [2, 64]
000000 a6 c3 24 3b 98 c5 e6 bc 0d 81 1d bd 0e 11 85 bd
       0.002514103 -0.028170392 -0.03845315 -0.064973935
000010 77 61 87 3d 92 58 2a bd 3a d1 2c bd a5 58 b1 bd
       0.06610387 -0.041588373 -0.04219172 -0.08659486
000020 47 7e 42 3c e4 21 87 bd 45 08 ba bd de a6 b1 3d
       0.011870927 -0.06598261 -0.090836085 0.086744055
000030 f4 33 00 3c 58 15 a3 bd e6 da d4 bb 9c 8e cc bd
       0.007824887 -0.07963055 -0.0064958213 -0.09988138
000040 f0 8b b5 3d 18 e5 81 bd 2c f3 9c bd 21 b7 d5 bc
       0.088645816 -0.06342524 -0.07663569 -0.0260883
000050 5e 7a 99 3d 7e ce 86 bd b4 6e c1 bd 7f c8 a8 3c
       0.07494043 -0.06582354 -0.09444943 0.020603416
000060 9e 59 5e bd 34 93 8a bc 77 65 5e 3c 07 38 64 3d
       -0.054284684 -0.016915895 0.013573996 0.055717494
000070 53 b7 e5 3d 6d 58 c8 bc 0d 67 13 3d e2 c5 a1 3d
       0.11216607 -0.024456227 0.03598695 0.07899071
000080 bb 3f 87 3d 06 dd f7 bd d2 88 9c bd 88 0b 8c bd
       0.066039525 -0.12102704 -0.07643284 -0.06838137
000090 07 e1 0e bd 24 08 11 3d 9f 5a d3 3d 30 b1 78 bc
       -0.03488257 0.035408154 0.10320019 -0.015178964
0000a0 a4 bd 8d bd 5f fc 99 bb f4 a1 cd 3b 2e 40 09 3d
       -0.06920937 -0.0046992744 0.00627541 0.033508472
0000b0 7e 41 c8 3d 35 dd 5e bd 5a 28 d0 3d 22 b0 c1 3d
       0.09778117 -0.05441018 0.101639464 0.09457423
0000c0 9e ad b8 3d 58 97 f3 bc fb 5a 5f bd 1d 99 a8 bd
       0.0901749 -0.029735252 -0.054530125 -0.08232329
0000d0 6c ce 99 3d 35 93 8a bc cf e7 93 bd 0a c6 98 bc
       0.07510075 -0.016915897 -0.07221948 -0.01864912
0000e0 52 d5 4b 3d f8 c3 f5 3d fe 82 45 3d 47 3a 91 bd
       0.049763985 0.12000269 0.048220627 -0.07091194
0000f0 91 a8 93 bd a0 b8 c1 bc 68 f2 8d 3d 0a fa f1 3d
       -0.07209886 -0.023647606 0.06931001 0.11815269
000100 d1 35 43 bc 41 44 f7 bd 3c c4 72 3d 37 d6 dd bd
       -0.011914686 -0.12073565 0.059269175 -0.10831874
000110 c6 b5 c5 bd 63 ba e5 bd 10 aa 16 be c5 9d 62 bd
       -0.09653811 -0.11217191 -0.14713311 -0.055326242
000120 49 8b 1b bb 8a db b3 3c 52 f9 a1 3d f2 3a 2e bc
       -0.0023734143 0.02195527 0.07908882 -0.010634171
000130 de a6 08 be 3c ca bb 3d 4d c2 c1 3c 0d aa 63 bb
       -0.13344905 0.091694325 0.02365222 -0.003473881
000140 e7 9d 37 3d 94 b3 05 3d 04 47 08 bd 6f 91 b8 bd
       0.04482832 0.032641962 -0.03327085 -0.09012114
000150 3c c3 d1 3d 32 79 00 be 5b 71 23 3c b0 78 ff bd
       0.10242316 -0.12546232 0.0099757565 -0.12474191
000160 02 7a 24 bd a3 fc b8 3d 3d 14 d1 bc 69 b1 b0 bd
       -0.04015542 0.09032562 -0.025522346 -0.08627588
000170 a3 0f ee 3d b0 bc 16 be be 64 bc bd aa 44 8e bd
       0.11624076 -0.14720416 -0.091989025 -0.069466904
000180 4c e3 a7 3d 78 a0 ee 3c d2 1e c1 3d ac 31 ea 3d
       0.0819765 0.029129252 0.09429707 0.114352554
000190 fe 92 85 3c d8 a2 b7 3d a3 af 15 3e 80 34 e2 bc
       0.016305443 0.08966607 0.14617781 -0.027612925
0001a0 83 ba 87 bd 4a 30 c3 3d 21 5e 55 bd 62 92 98 bd
       -0.06627371 0.09530695 -0.05209172 -0.07449795
0001b0 3e 25 9b 3d 44 f8 8d 3d 6c f1 95 3c e9 1d 88 3d
       0.07575463 0.069321185 0.018303595 0.0664633
0001c0 4d 3e cb bd 12 d0 11 3d 30 29 95 bd f4 79 4f 3d
       -0.09923992 0.035598822 -0.072832465 0.050653413
0001d0 ab e2 86 bc 61 f3 40 3d d5 cc 85 bd 2c c3 ed bd
       -0.016465506 0.047107104 -0.06533209 -0.11609492
0001e0 a3 ab e2 3d fe 77 c6 bd 89 2f 11 3e ec 3c 8a 3d
       0.11067893 -0.096908554 0.1417829 0.06749901
0001f0 39 67 55 bd ce 27 ba bd 12 95 be 3d 1e ae 86 bd
       -0.052100394 -0.090896234 0.09305777 -0.06576179

actor.4.bias f4 [2]
000000 28 a2 c2 bd 6e 38 81 3d
       -0.09503585 0.06309591

critic.0.weight f4 [64, 18]
000000 28 4e 8c bd 1c 6c 05 bd 99 7d 1b 3f 16 95 30 3e
       -0.068508446 -0.032573804 0.6073852 0.17244372
000010 4e e7 e1 bd 20 9f 84 be 32 d0 23 be d4 ad 40 3e
       -0.11030446 -0.25902653 -0.15997389 0.1881631
000020 40 40 bf bd ca e6 47 bc 21 a1 92 bd 04 5e 75 be
       -0.093384266 -0.0122010205 -0.07159639 -0.23961645
000030 55 29 9d 3d 40 79 8a bd 08 c9 f0 3c 46 01 8f 3d
       0.07673899 -0.06761408 0.029392734 0.06982665
000040 b8 65 8a bc 88 02 82 3c 06 a2 16 3e 91 d1 40 be
       -0.016894206 0.015870348 0.14710245 -0.18829943
000050 03 b5 e0 3d 3b 91 26 3e c0 c7 57 bd 3d 36 d4 bd
       0.10972025 0.16266339 -0.05268073 -0.10361908
000060 1d 04 f0 bd c1 b4 4a be 30 b2 a1 bd d4 13 3b 3e
       -0.117195345 -0.19795515 -0.07895315 0.18269283
000070 00 c7 32 be b9 ea 86 be 5a 70 0c bd 64 d0 45 3d
       -0.17458725 -0.26350954 -0.034286834 0.04829444
000080 fc 62 5c be 01 96 67 3e dc 63 ce bd 57 e0 3c 3e
       -0.21522135 0.22615816 -0.100776404 0.18444954
000090 19 3a 83 be a1 e3 1c 3e 4d aa 8c be 15 81 c1 bd
       -0.25630262 0.15321209 -0.2747368 -0.094484486
0000a0 3a 1a 18 be 8a 2e e7 bd d2 4c c7 bd d0 96 7c 3d
       -0.14853755 -0.112881735 -0.09731449 0.061667264
0000b0 13 bb a4 be 5f 39 19 3d 5e 9e 93 3d 1d e0 08 3c
       -0.32173976 0.03740823 0.072079405 0.008354214
0000c0 a2 2f 27 be 66 23 90 bd e3 c7 0d be f6 44 08 be
       -0.16326764 -0.07038002 -0.13845782 -0.13307557
0000d0 a7 60 43 3e e7 05 34 3e e7 79 3f be 0d 9b 81 3e
       0.19079839 0.17580377 -0.18698846 0.25313607
0000e0 db 64 d1 bd e4 11 23 3e 0e 90 60 3e 38 66 f1 bd
       -0.10224315 0.15924793 0.21929953 -0.11787075
0000f0 58 84 e9 bc 68 8d 94 3d 03 5d 89 3c 6e ab b1 3d
       -0.02850549 0.072535336 0.016767984 0.08675276
000100 a1 a0 52 3e fc 68 99 3e 99 98 0b be 2a e4 ae 3d
       0.20569088 0.2996291 -0.1363243 0.085396126
000110 ae ee bd bd 69 5a 62 3e 1e a2 6b be f4 e5 16 be
       -0.0927404 0.22104801 -0.23011062 -0.14736158
000120 e4 10 eb 3d 04 97 14 38 e8 91 df 3d 07 37 c2 bd
       0.11477831 3.5426594e-05 0.10916501 -0.09483152
000130 88 41 99 3e 9a ff 15 3e ab 38 2d bd e2 fd 3f 3d
       0.2993281 0.14648286 -0.04229037 0.04687298
000140 22 4b 1b be 10 f4 92 bd 27 90 01 3e c1 a6 1d be
       -0.1516538 -0.071754575 0.12652646 -0.15395643
000150 e7 58 40 3e 04 68 7e 3d 6c 87 06 bd 14 44 78 bd
       0.18783914 0.062110916 -0.032843992 -0.0606118
000160 e5 4a 38 be bf a3 2f 3e 52 41 78 bd c4 55 4a 3e
       -0.1799732 0.17152308 -0.06060917 0.1975928
000170 88 38 df be f1 fe 6d bd d1 10 29 bb 6a df e1 bd
       -0.43597817 -0.05810446 -0.0025797377 -0.11028941
000180 c4 6e a1 3d 1d 6f 5c 3e 14 29 2c be f4 ee 4b be
       0.07882455 0.21526761 -0.16812545 -0.19915372
000190 21 49 31 bd 8e 44 46 3e d2 f1 ad 3d b0 14 7e bd
       -0.04328263 0.19362089 0.08493389 -0.062031448
0001a0 da 36 cc 3d 2a 69 dc bd 2c 89 be bd aa c1 14 be
       0.099713996 -0.10762246 -0.09303507 -0.14527002
0001b0 59 7d 4f be a2 6d 3a 3e 81 21 fa be 02 11 13 3e
       -0.2026266 0.18205884 -0.48853686 0.14361957
0001c0 df 79 4f be 0b 86 21 be b7 f9 05 3e 7a ec a6 bd
       -0.20261334 -0.1577379 0.1308354 -0.08150573
0001d0 9d 62 1a 3e d0 dc 17 bd 00 fe 2f 3e 5e 0a 3a 3b
       0.1507668 -0.037075818 0.17186737 0.0028387527
0001e0 3e 42 97 bd 04 d8 35 be f1 ee 57 be fa 3d ae bd
       -0.073856816 -0.17758185 -0.21087243 -0.08507915
0001f0 8a c1 d0 bd c1 58 1e 3e 2c 62 25 be 14 19 15 be
       -0.10193165 0.15463544 -0.16150731 -0.14560348
000200 d6 78 1c bf d7 12 31 bd 48 be 82 bd 86 e9 9c bd
       -0.6112188 -0.043230858 -0.063839495 -0.076617286
000210 55 6d 06 3e a6 75 9d 3d 91 e6 38 3e bd a0 59 be
       0.13127644 0.07688455 0.18056704 -0.21252723
000220 c0 b8 66 be 20 be 10 be c5 a9 66 be 26 1f be bd
       -0.22531414 -0.14135027 -0.225257 -0.09283285
000230 89 d9 5d 3e 0a 82 ca 3d 58 2b 96 3c 45 65 31 3e
       0.21665014 0.09888084 0.018331215 0.17323788
000240 be 13 80 bd b9 5d 86 be dd e1 47 3e a4 56 bc bd
       -0.062537655 -0.2624338 0.19519754 -0.09196213
000250 94 84 bb 3d bc 7a e2 3d 82 36 f2 bc b6 66 96 3d
       0.09156147 0.11058566 -0.029567007 0.07343809
000260 a7 bd a4 3d 66 3f ab 3b 9b db d9 3d 21 42 0b bb
       0.08043986 0.0052260635 0.106375895 -0.0021249133
000270 78 3a fd 3d d9 f4 0a be c1 21 06 be 88 e0 8f 3c
       0.12364668 -0.13569964 -0.13098814 0.01756312
000280 0a ef c5 3d e4 57 1a 3d 1b d3 90 3e 8a 47 a9 3d
       0.09664734 0.037681475 0.2828606 0.08265598
000290 40 0a 80 be 96 de 43 3e 10 02 ac be 77 61 18 bd
       -0.2500782 0.19127879 -0.33595324 -0.037202325
0002a0 23 aa 26 3e 78 14 56 be 64 3d d6 3d 48 15 7d 3e
       0.1627584 -0.20906246 0.10460928 0.2471515
0002b0 37 62 63 be 88 f4 81 be 0e e4 a4 3e eb 9f 2f 3e
       -0.22205435 -0.25381875 0.32205242 0.17150848
0002c0 34 c5 81 bd 5e b1 23 be 3f 55 71 3e 38 3e 5c be
       -0.06336442 -0.15985629 0.23567675 -0.2150811
0002d0 48 6e 07 be db 44 60 3c 43 09 81 bb 7a c6 3c be
       -0.13225663 0.013688291 -0.0039378717 -0.18435088
0002e0 0b 9a 34 bd f9 47 3e 3e 11 1e aa 3d 1b 2e a5 3c
       -0.04409222 0.18582143 0.08306516 0.020163586
0002f0 f8 3d 7a bd 3a 4e 83 be 75 06 9c bd d9 48 ab bd
       -0.061094254 -0.2564562 -0.07618419 -0.08363504
000300 7c fc 9b 3d ab e1 69 3e 16 84 a8 3d b4 c2 4f 3d
       0.07616517 0.22839992 0.082283184 0.050722793
000310 fb 6d 0f 3e ea 9a 8c 3d 5d 8f db 3d 48 43 1c be
       0.14006798 0.06865485 0.10720704 -0.15260041
000320 4b a0 9f be ea 42 31 3e b1 84 83 bd 59 28 5a be
       -0.3117698 0.17310682 -0.06421793 -0.21304454
000330 5c fe 29 be 6e 79 87 bd 88 f0 2a bd 1e 41 05 be
       -0.16600937 -0.06614958 -0.041733295 -0.13013121
000340 77 91 c6 bd 09 7f a6 bb 2d 3a 63 bd 2e c7 e0 3d
       -0.09695714 -0.0050810617 -0.055475403 0.109754905
000350 df 7d 4a 3e f3 17 34 3e 55 36 4b be e6 2a 86 bd
       0.19774579 0.17587261 -0.19844945 -0.06551151
000360 2c c1 86 be 97 d5 9b 3d 03 f2 ee be 5f 89 f1 bd
       -0.26319253 0.076090984 -0.46669015 -0.117937796
000370 84 6f 4b be b1 c6 03 be cd 98 da 3d 22 1d 8b 3d
       -0.19866759 -0.12868764 0.10673676 0.06792666
000380 ae d1 2a 3e 0f 75 b7 3d b0 c7 00 3d 9e 94 e3 bd
       0.16681549 0.08957874 0.031440437 -0.11112331
000390 62 f0 09 3d 01 ce 41 3e 37 2c 61 3e bc 13 35 be
       0.033676513 0.1892624 0.21989523 -0.1768331
0003a0 c0 4f 48 3b da 3f fe 3d 1b a1 cb bb a6 a3 20 3e
       0.0030565113 0.124145225 -0.0062142736 0.15687427
0003b0 7b b0 8a 3e 4b 03 a9 3d 39 a8 14 be 0c ea 05 bc
       0.2708777 0.08252581 -0.14517297 -0.008173477
0003c0 84 71 57 3c b7 66 78 bd f2 87 e0 bc cb f5 3a be
       0.013149623 -0.06064483 -0.027408574 -0.18257825
0003d0 dc 5d 6a 3e fd 13 9e be 4f 55 d6 3d e0 45 98 bb
       0.22887367 -0.30874625 0.1046549 -0.0046470016
0003e0 44 8e 74 3d 6e 02 5a be a3 28 38 3e 80 8b 44 be
       0.059705988 -0.2128999 0.17984252 -0.1919384
0003f0 ac 9f 1b bc da 20 d4 bd 81 e0 9f 3d a5 96 8a 3d
       -0.009498518 -0.103578284 0.078064926 0.067670144

critic.0.bias f4 [64]
000000 08 f9 e6 3d ae 5d 3b be c6 03 b7 be 17 cd f3 3d
       0.11277968 -0.18297455 -0.35745066 0.11904352
000010 87 a3 8d be 95 a1 20 3d 8a 44 a7 3d 0f dc f7 bd
       -0.27663824 0.039216597 0.0816737 -0.1210252
000020 eb ef 4d be 80 fc fd bd 54 82 ab 3e 78 1f 22 3e
       -0.20111053 -0.12401676 0.3349787 0.15832317
000030 10 a9 68 3e aa 01 2f be cd 39 97 be 32 c3 21 be
       0.22720742 -0.17090479 -0.29536286 -0.15797117
000040 cb 35 c2 bd 9a be 5a 3e 33 c2 fd 3d ff fb 80 3e
       -0.094829164 0.21361771 0.12390556 0.25192258
000050 29 12 b3 3c 47 09 11 3e f3 3f 97 3e 21 a4 d0 be
       0.021859245 0.14163695 0.29540977 -0.4075022
000060 1d 86 33 be e0 05 8a 3e ee 14 13 3e a0 9a e6 3c
       -0.17531629 0.26957607 0.14363453 0.028149903
000070 8b 63 c6 3d 3d 85 46 be 08 37 07 bd 72 96 b6 3e
       0.09686955 -0.19386764 -0.033011466 0.35661656
000080 a2 cd ae be 50 21 5f 3e b5 93 bb 3e 4c ab 29 3d
       -0.3414126 0.21790051 0.3663613 0.041423127
000090 39 ea 66 3e 8b 52 a7 be c7 7d 85 be a4 9e c5 be
       0.22550286 -0.32680163 -0.26072523 -0.38597596
0000a0 cc 1e bf 3d 3a a4 79 3e e6 5e 6f be 37 4d 8a 3d
       0.09332046 0.24379054 -0.23376045 0.06753009
0000b0 5a 91 1c be 9c fe 3a 3d b7 78 f1 bd 39 ec 87 be
       -0.15289822 0.04565297 -0.11790603 -0.2654741
0000c0 cc 2f 4e be 0e 07 ac be 33 b1 60 be a2 42 49 3d
       -0.2013542 -0.33599132 -0.21942596 0.04913581
0000d0 3f 8c ee 3d 69 f5 f9 bd c3 2c 14 3d fd d7 9a 3e
       0.116478436 -0.122050114 0.0361755 0.3024291
0000e0 cf ae c8 bd 4f 1a be be f1 31 fa 3d b8 8b 8c be
       -0.09798967 -0.37129447 0.12216557 -0.27450347
0000f0 ea 88 40 be af 28 87 3d b3 53 35 3d 1b c7 8a be
       -0.18802229 0.06599557 0.044269275 -0.2710503

critic.2.weight f4 [64, 64]
000000 ed 72 6c 3d c7 cf 9c bd 9f 66 4f bd ff 7a b9 3d
       0.05772679 -0.07656818 -0.050634976 0.09056663
000010 95 aa 2c be 6d 48 35 3d 6b 09 e0 3c 67 e0 59 3d
       -0.16861947 0.044258524 0.02734824 0.053192522
000020 c5 c4 0a 3d 87 bb 99 bd 6e 0c 75 3c 76 bf 81 3d
       0.03387906 -0.07506471 0.014956577 0.063353464
000030 52 63 89 bc ba 8c 63 be d6 f8 22 be c0 16 08 be
       -0.016770992 -0.22221652 -0.15915236 -0.13289928
000040 fd a9 ce 3b 20 c0 8b bd 6f c4 29 bd b6 f6 d7 3d
       0.0063068853 -0.06823754 -0.0414471 0.10545103
000050 b1 40 64 bc 69 18 8a 3c 83 33 35 3e a5 1e 1e bd
       -0.013931439 0.016857343 0.17695431 -0.038603444
000060 bb ab 62 3d f5 44 af 3c ce 5d 8d bc fd 1e c7 bd
       0.055339556 0.021395186 -0.017256644 -0.097227074
000070 b4 28 da bd 8b 52 95 3d 08 fc 26 bd a0 9a ca 3d
       -0.10652295 0.072911344 -0.0407677 0.09892774
000080 e7 24 4a be 18 fc 48 3c 34 0b 20 3e ac 93 1d 3d
       -0.1974064 0.012267135 0.15629274 0.03847091
000090 30 92 87 3e 2c f1 04 be 67 3f d8 3b ea 8b f3 bd
       0.2647872 -0.12982625 0.006599355 -0.11891921
0000a0 51 50 46 3d 8e cd 72 bb 6a e2 cc bb d0 c4 96 bd
       0.04841644 -0.003704879 -0.0062525766 -0.07361758
0000b0 51 f8 e2 3d bb f5 12 3e 1b 1a e2 bd ab 6a 2f be
       0.11082519 0.14351551 -0.110401355 -0.17130534
0000c0 ed 5e a0 bc e5 8c cc 3c 15 2d a9 3d c1 49 c4 3c
       -0.019576514 0.024969527 0.08260552 0.02396095
0000d0 74 a3 a8 3d a6 af 36 bc b9 57 59 3d 00 34 30 3c
       0.08234301 -0.011150276 0.053062174 0.010754585
0000e0 e4 b2 fa bd e1 97 f2 bd 93 e3 bd bc 7e 82 33 be
       -0.12241152 -0.11845375 -0.023179805 -0.17530248
0000f0 ae 0a d1 bb 04 84 43 3d ba ee 08 be 3b 9b 7e bd
       -0.006379447 0.04773332 -0.13372317 -0.062159758
000100 ee dd a3 bd a6 51 90 bd 79 c2 cf 3d 7c e8 5f 3d
       -0.08001314 -0.07046823 0.101445146 0.054665074
000110 f1 a0 9f 3d 6c 88 59 3a ba 8c 98 bd 88 c0 0c be
       0.07794369 0.00082982215 -0.074487165 -0.1374532
000120 e6 3d 21 bc c2 e5 77 bd 87 c4 ba bd ce 7c d4 3c
       -0.009841418 -0.06052185 -0.09119516 0.025938418
000130 84 d6 04 3d 0e 9b 07 3e df 6c ac bc 0c 8b 2f bd
       0.03243114 0.13242742 -0.021048008 -0.042857215
000140 85 0d 2f 3e 87 6f 09 be 11 d5 9c bc 5a cf 60 bd
       0.17095001 -0.1342145 -0.019144567 -0.054885246
000150 53 76 8f 3d de c9 ea bc 25 b1 1d be 5b 8d 46 bd
       0.070049904 -0.02866071 -0.15399607 -0.04847465
000160 17 62 ab bc 0f e6 13 be de 8f 59 bd 60 a1 c0 3d
       -0.020920796 -0.14443229 -0.053115718 0.0940578
000170 56 88 03 ba 28 9f 06 bd 97 f7 ac bd 66 ca 2d be
       -0.0005017569 -0.032866627 -0.084456615 -0.1697174
000180 39 14 91 3d 81 46 e4 bd b5 13 2a be 85 e5 fa bd
       0.07083935 -0.1114626 -0.1660908 -0.122508086
000190 c3 f7 cc bc 02 c4 e5 3d 4b 0e c1 bb 72 fe b1 3d
       -0.025020486 0.11219026 -0.0058915964 0.0869111
0001a0 9b bf 71 3b eb 15 0f bd ab 54 ed bc ad 1d 7b bd
       0.0036887887 -0.034933012 -0.028971037 -0.061307598
0001b0 26 84 7f 3d 49 f8 7d bd 70 84 2a bc 86 e1 48 3d
       0.062381886 -0.06200436 -0.010407552 0.0490432
0001c0 98 ce fe 3d 5b e4 f7 3c 62 d2 7a bc b4 ed 20 3d
       0.124417484 0.030260256 -0.015308948 0.03928919
0001d0 a7 6f 17 3d f0 a3 e3 3d fb 72 ab 3c 56 be 6a bd
       0.036971714 0.11115253 0.02092885 -0.057310425
0001e0 29 18 13 3d 42 ef 27 bd ff af d6 bd a9 8b 36 3e
       0.035911713 -0.04099966 -0.10482787 0.17826714
0001f0 c7 bd 03 3e 70 07 db bd 80 e3 86 3d 80 56 33 3e
       0.12865363 -0.10694778 0.06586361 0.17513466
000200 29 8d fb 3b 21 6f 15 bd f1 54 3b 3d 07 a9 b0 bd
       0.0076767397 -0.036482934 0.045735303 -0.086259894
000210 b9 3e 14 3d 10 ad 7c bd 8c a1 09 ba 2b aa de 39
       0.03619263 -0.061688483 -0.00052502076 0.00042469925
000220 40 62 30 bd f4 8f d0 3b 61 00 97 3c 3e e7 ca 3c
       -0.04306245 0.006364817 0.018432798 0.024768468
000230 8a 99 2f be ef 80 15 3d 48 74 2a 3e b7 cf b3 3d
       -0.17148414 0.036499914 0.1664592 0.08779853
000240 f5 49 ad 3d 50 d4 ce bd 0c 5c 9c 3c cc 4d ac bd
       0.08461372 -0.10099089 0.01908686 -0.08413276
000250 fa 8c 67 3d f6 d1 89 3d 2e 80 e2 bc 53 1f 05 3d
       0.05653093 0.067295 -0.027649011 0.032500576
000260 ae 40 43 bd 7c d3 21 be 4b 2f ad 3b 70 72 8c 3d
       -0.047669105 -0.15803331 0.005285179 0.06857765
000270 d9 ad 4b 3d eb 51 e4 3d 7d f7 99 3d fd 63 3e bc
       0.04972634 0.11148437 0.07517908 -0.011620519
000280 7a f3 ca 3c 0c c7 86 bd 77 76 00 3d f4 74 06 be
       0.024774302 -0.06580934 0.031362977 -0.13130552
000290 53 2f 76 be 5c 2e fc 3d e0 5d 37 3e e8 b3 df 3d
       -0.2404149 0.1231353 0.17906904 0.10922986
0002a0 3e 36 88 bc af d4 11 be b0 f9 ab bd a1 2a 18 3d
       -0.016627427 -0.14241289 -0.083972335 0.03715003
0002b0 6b 65 23 3d 22 44 5e 3d bf ea cc 3d 1d 3e 46 3e
       0.03989164 0.054264195 0.10005712 0.19359632
0002c0 cf 96 f4 3a b0 bf 3f 3e d1 e1 01 3e d8 ac 75 bc
       0.0018660667 0.18725467 0.12683798 -0.014994822
0002d0 77 5d c9 bb ad c9 d7 3d e1 6b eb 3d e5 e7 52 be
       -0.006145175 0.105365135 0.11495186 -0.20596273
0002e0 c1 39 9a bc 74 c0 86 3d 9c 85 09 be 76 a5 01 3d
       -0.018826367 0.06579676 -0.13429874 0.031651936
0002f0 0b 8f d4 3d 46 b6 a2 3d 74 29 97 3c a4 81 06 3e
       0.10378846 0.07944922 0.018452384 0.13135391
000300 a8 dd b1 bd 36 2f a1 bc c6 99 eb bb 29 00 95 3d
       -0.08684856 -0.019675832 -0.007189962 0.07275421
000310 b2 99 54 be fa 3e 89 bd c1 59 96 bb be 4e fc bc
       -0.20761755 -0.06701465 -0.004588336 -0.030799266
000320 94 62 12 be fd 82 f8 3d 0c 9f 36 3e 0a cf 09 be
       -0.14295417 0.12134359 0.17834109 -0.13457885
000330 99 ec 12 3e 8e 89 5a bd 60 7d b3 bd 05 3f 31 3d
       0.14348067 -0.05335384 -0.08764148 0.04327299
000340 93 c4 8a bd 84 b2 ae 3d f0 3e 2d bd 1d c7 31 bd
       -0.06775775 0.08530143 -0.04229635 -0.04340278
000350 8f da 98 3d d4 e2 b0 bc 73 77 14 3e 9c 7c ca bd
       0.07463562 -0.021592535 0.14498691 -0.098870486
000360 ef de ae bd 2d 28 45 3a f5 34 b8 bd df 23 2d 3d
       -0.08538615 0.000752094 -0.08994476 0.042270537
000370 71 d4 97 3d 7e 3a 9d bd 74 04 1a bd 1b 85 4f 3e
       0.07413567 -0.07677172 -0.037601903 0.2026562
000380 a8 43 d7 b9 1c 1f 90 3d be f9 5c 3e 89 d3 a7 3c
       -0.00041058403 0.07037184 0.21579644 0.02048661
000390 60 c0 12 3e 88 bf 0d be 89 47 e0 bd 6f ac 47 bd
       0.14331198 -0.13842595 -0.10951144 -0.04874843
0003a0 fb 5e 3b bc cb c5 f2 3d d1 ee b5 ba c6 00 32 3e
       -0.011436219 0.11854132 -0.0013880377 0.17383108
0003b0 42 ae a6 3d 3e 6e 73 bc 82 ef 2c bd bf 0a 9b bd
       0.08138706 -0.014857827 -0.0422206 -0.07570409
0003c0 90 50 cb 3c d2 6e 04 be ce 8d f4 bd fd 7c ef bc
       0.024818689 -0.129329 -0.119411096 -0.029234404
0003d0 48 1d 13 3e 34 ee ab 3d fa 92 f2 bd 9e 19 ad 3d
       0.14366639 0.08395043 -0.1184444 0.08452152
0003e0 ab a9 d6 bc f1 97 30 be 29 e7 96 bd 8b 2c 9a bd
       -0.02620395 -0.17245461 -0.07368309 -0.07528027
0003f0 c5 23 cd 3c ed 53 0d bd 3a 05 c2 3d 80 06 9b bc
       0.02504147 -0.034503866 0.09473653 -0.018923998

critic.2.bias f4 [64]
000000 2f 59 cf 3c e1 24 19 be 5e 5c 13 be 31 65 9b 3d
       0.02531108 -0.14955474 -0.14390704 0.0758766
000010 71 be 38 3e 48 6e 11 3d 6c 6f d5 bd 8b c8 ec 3d
       0.18041398 0.035505563 -0.10421643 0.11561688
000020 b4 5c 53 3d bc 97 85 3d 2a 10 f5 3d e7 66 2b be
       0.05160208 0.06523082 0.11965974 -0.16738473
000030 4b 3c 71 be 0e 86 13 bd d1 78 6d be fa e8 47 bc
       -0.23558156 -0.036016516 -0.23190619 -0.012201542
000040 9c 7f 67 be c3 62 44 3e cf a6 8d 3d 40 77 3a 3e
       -0.22607273 0.191783 0.06916582 0.18209553
000050 27 4e 1d 3e 17 f4 78 3e 74 40 f9 3d 12 3d 0f be
       0.15361844 0.24311863 0.121704966 -0.1398814
000060 c3 b9 7c 3e 7f 69 72 be e6 33 b5 3d c1 6a ea bd
       0.24680237 -0.23673056 0.088477895 -0.11446143
000070 35 06 43 3e f0 08 21 3e d2 87 d3 3d 9e 4e d3 bd
       0.19045337 0.15726066 0.1032864 -0.103177294
000080 87 1d 00 3d 77 21 47 bd 6d 8f bf 3d 48 b0 a4 3d
       0.03127816 -0.0486159 0.09353528 0.080414355
000090 33 ca 87 3c b7 18 0d be 7d 75 58 be 7a 5e 88 be
       0.016575908 -0.13778959 -0.21138568 -0.2663458
0000a0 0f 2f 77 bd 55 b1 1f bc 1a 8b c8 bd 97 23 c9 bd
       -0.060347613 -0.009746869 -0.097921565 -0.09821241
0000b0 7b b4 e1 bd d7 fe 15 be 6f 9e a4 bd 6a c2 f8 bd
       -0.11020752 -0.14647995 -0.08038031 -0.121464565
0000c0 57 dc ec bc 1a 5a c9 bd 00 63 f0 3d 02 c6 45 be
       -0.02891366 -0.09831639 0.11737633 -0.19313815
0000d0 68 70 b3 3c 6c c8 87 bc 39 26 e8 bd 6d 2f e4 bc
       0.021904185 -0.01657506 -0.113354154 -0.027854646
0000e0 a8 5c e4 bd 15 52 84 be 29 81 48 be 2f f9 a5 3b
       -0.11150485 -0.25843874 -0.1958052 0.0050651054
0000f0 86 95 6a 3d 28 3e 5f 3d aa e1 ef bd be cd 5f 3e
       0.057271503 0.054502636 -0.11712964 0.21855828

critic.4.weight f4 [1, 64]
000000 64 13 d7 bd 30 92 0f 3e 55 88 67 3e d5 df b0 bd
       -0.10501745 0.1402061 0.226106 -0.086364426
000010 e1 2d d7 be 28 88 b5 3e 94 2b c3 3d fe f1 0c be
       -0.4202719 0.3545544 0.09529796 -0.13764188
000020 f9 af 1e 3e e2 2e 39 be f2 8a ac bd ac dc 0f 3e
       0.15496816 -0.1808429 -0.08424939 0.14049023
000030 b6 55 53 3e b8 8e 42 3e 10 53 55 3e 1f 30 03 be
       0.20638165 0.18999755 0.20832467 -0.12811325
000040 ae 82 15 3e 0f 5f 0a be be 6d d6 3e 76 a1 3b be
       0.14600632 -0.13512824 0.41880602 -0.18323311
000050 14 71 61 be ff 4e 6c be 37 14 7e be 9c 08 7f 3e
       -0.22015792 -0.2307701 -0.24812399 0.24905628
000060 f7 1a 3b be c4 8e 01 3e c0 68 1d be cb 67 2e 3e
       -0.18272005 0.12652117 -0.1537199 0.17031781
000070 9d d3 51 be da a5 3b be 93 ac 8c be 0f 2a 67 3e
       -0.2049088 -0.18324986 -0.27475414 0.22574638
000080 cd b4 92 be 89 cd 49 3e cd 71 7c be a2 33 0b be
       -0.28653565 0.19707312 -0.24652787 -0.13593915
000090 22 b1 41 be b1 9a b8 3d 7d b8 55 3e cd 06 d9 3d
       -0.18915227 0.0901388 0.20871158 0.10597
0000a0 0d 5e 53 3e 68 10 1d 3e b8 7e fe 3d d3 5a 70 3e
       0.20641346 0.1533829 0.124265134 0.23472147
0000b0 f3 ee 3a 3e 35 51 44 3e 0b ce b1 3d 17 71 58 3e
       0.18255214 0.19171603 0.08681878 0.2113689
0000c0 69 7c 72 be e3 8d 61 3e d9 d6 17 be 27 2b 67 3e
       -0.23680271 0.22026782 -0.14828052 0.22575055
0000d0 bd 73 cb 3e f8 6d 35 be c2 de 0a 3e 79 df 7b be
       0.3973674 -0.17717731 0.13561538 -0.24596967
0000e0 2e 2b 3e 3e 7b 26 2b 3e 39 b5 57 3e ea 02 68 3e
       0.18571159 0.16713898 0.21065225 0.22657362
0000f0 2a 4a fc bd fa c4 b4 be c3 6d ef 3d 74 4c 53 be
       -0.12318833 -0.3530653 0.11690857 -0.20634633
