models/004_Precision_Pro/004_Precision_Pro_best.pth (torch, 48610 bytes, 11 tensors)

actor.0.weight f4 [64, 18]
0	0x3e2bc62f	0.1677482
1	0xbe12662e	-0.14296791
2	0xbc16260d	-0.009164345
3	0x3de24040	0.11047411
4	0x3d265c10	0.04061514
5	0x3e39eaa5	0.18155916
6	0x3dcd891a	0.10035916
7	0xbd8b029e	-0.067876086
8	0x3cd02a15	0.025410691
9	0x3e8fe37e	0.2810325
10	0x3db31a0b	0.08745202
11	0xbeb167e1	-0.34649566
12	0x3e5c04b0	0.21486163
13	0x3e0994c1	0.13435651
14	0xbe6069bf	-0.21915339
15	0x3d42a2bc	0.047518477
16	0x3bee51e0	0.007272944
17	0xbdabd3b6	-0.0838999
18	0x3de617df	0.11235022
19	0xbd32771f	-0.043570634
20	0xbde35939	-0.11101002
21	0x3e4a338f	0.1974623
22	0xbca269e7	-0.019825889
23	0xbe83c074	-0.25732768
24	0xbd756ca8	-0.059918076
25	0x3e0d5713	0.13802747
26	0xbbbd704c	-0.005781209
27	0xbe0eb3a2	-0.13935712
28	0x3e458b12	0.19291332
29	0x3e2a06f0	0.16604209
30	0x3d06bdf5	0.032896
31	0xbe1c2879	-0.15249814
32	0x3e31ff95	0.17382653
33	0x3e14d4b9	0.14534272
34	0x3e0fbfe7	0.14038049
35	0x3e53c523	0.2068067
36	0x3de95aad	0.11394248
37	0x3e0637be	0.13107201
38	0x3e4ead08	0.20183194
39	0x3e527a70	0.20554519
40	0x3dff63c8	0.12470204
41	0x3e35b47d	0.17744632
42	0xbde74541	-0.11292506
43	0xbe8136ae	-0.2523703
44	0x3ca13bed	0.019681895
45	0x3e5ced74	0.21574956
46	0x3d0e62e6	0.034762286
47	0xbe2222b4	-0.1583355
48	0xbde3a59f	-0.11115574
49	0xbdecf2b3	-0.11569729
50	0x3e5e1833	0.21688919
51	0x3e508bc3	0.20365815
52	0xbd84388a	-0.064560965
53	0xbe474497	-0.19459759
54	0x3e62d4ee	0.22151539
55	0xbd1a4063	-0.03765906
56	0x3e0ff9e0	0.14060163
57	0xbdbd33b4	-0.09238377
58	0x3d086f1a	0.03330908
59	0x3e35e7d9	0.17764224
60	0x3dea164a	0.114300326
61	0xbdf15611	-0.11783994
62	0x3e243e48	0.16039383
63	0xbcd56501	-0.026049139
64	0x3e834776	0.25640458
65	0x3e6dea1a	0.23233834
66	0xbe23a76d	-0.15981837
67	0x3e5ee095	0.21765359
68	0x3dba05d6	0.09083144
69	0xbde64956	-0.112444565
70	0xbe1dae80	-0.15398598
71	0x3ca44fb8	0.020057544
72	0x3e2c6fb8	0.16839492
73	0x3d103081	0.035202507
74	0xbe1fda98	-0.1561073
75	0x3cc526ac	0.024066292
76	0xbd03d672	-0.032186933
77	0xbe85be4b	-0.26121745
78	0x3d84ecd2	0.064904824
79	0x3e764f10	0.24053597
80	0x3dacb09c	0.08432123
81	0xbda57f0f	-0.08080875
82	0xbc5648d2	-0.013078885
83	0x3e184d7d	0.1487331
84	0xbe49fe9b	-0.1972603
85	0x3cf027a8	0.029315785
86	0x3d64741c	0.055774793
87	0x3de6863e	0.112560734
88	0xbd88d622	-0.066814676
89	0x3ccdb588	0.025110975
90	0xbe02e779	-0.12783612
91	0xbe38e180	-0.18054771
92	0x3e279f08	0.1636926
93	0x3e2c01bd	0.16797538
94	0x3dcce164	0.10003927
95	0x3e8cc48b	0.274937
96	0xbde42e2d	-0.1114162
97	0xbe13b762	-0.14425424
98	0xbe35ba3a	-0.17746821
99	0xbd3794cf	-0.04481965
100	0x3e44ad58	0.1920675
101	0xbde3327c	-0.110936135
102	0xbe67511b	-0.22589533
103	0xbe2741c8	-0.16333687
104	0xbe39db6b	-0.18150108
105	0xbe4516ad	-0.19246931
106	0xbe1b3682	-0.15157512
107	0xbdebc7fe	-0.11512755
108	0xbc876405	-0.016527185
109	0x3c6b44c2	0.014359655
110	0xbe91a5d7	-0.28446838
111	0xbe22da66	-0.15903625
112	0xbdde7160	-0.10861468
113	0xbe826a93	-0.25471935
114	0x3e28ab4e	0.16471598
115	0x3e2c9e77	0.16857325
116	0x3d7ae0c2	0.061249502
117	0xbe1fcdb8	-0.15605819
118	0x3c65d330	0.014027402
119	0x3e4e285a	0.2013258
120	0xbc956e8a	-0.018241186
121	0x3d84bf4e	0.06481801
122	0x3d0eb7f4	0.0348434
123	0xbe28835c	-0.1645636
124	0xbd380824	-0.04492964
125	0x3cf1f9a8	0.02953799
126	0xbdb5eeca	-0.08883436
127	0x3df604b7	0.12012618
128	0x3e48dc95	0.19615395
129	0xbe0427c8	-0.129058
130	0x3dcc260f	0.099681966
131	0xbe64dc5a	-0.22349682
132	0xbc9aa413	-0.018877065
133	0x3e93c426	0.28860587
134	0xbd164482	-0.036686428
135	0xbea57d46	-0.3232214
136	0x3b1d0b5f	0.0023963077
137	0x3e0075d4	0.12544948
138	0xbd3e223a	-0.04641936
139	0xbdb944fc	-0.09046361
140	0xbe2a6c66	-0.16642913
141	0xbe2a9b38	-0.16660774
142	0x3e3a62e5	0.18201788
143	0x3e25bfaf	0.16186403
144	0xbe444fa9	-0.19171013
145	0xbe1cc0cd	-0.15307923
146	0xbe112292	-0.14173344
147	0x3d4cabfa	0.049968697
148	0xbd8c7da3	-0.06859901
149	0x3dcacfdd	0.09902928
150	0x3e09b3e4	0.13447529
151	0x3ce629de	0.028096136
152	0x3e7910cd	0.24322815
153	0x3cc3d23a	0.023903955
154	0xbe09a1c7	-0.1344062
155	0x3ce29c07	0.02766229
156	0x3dfb0ffb	0.122589074
157	0xbe5c6af0	-0.21525168
158	0x3e6ae545	0.22939022
159	0x3de3939e	0.1111214
160	0xbe2f887a	-0.17141905
161	0x3bcbfd80	0.006225288
162	0x3e110764	0.14162976
163	0x3e0f075c	0.13967651
164	0xbd685990	-0.05672604
165	0xbe446dc1	-0.19182493
166	0x3e021bb3	0.12705879
167	0x3e2efadb	0.17087881
168	0x3d66df42	0.05636526
169	0xbe325b28	-0.17417586
170	0x3e3479d7	0.17624603
171	0xbe48550e	-0.19563696
172	0xbe6e11eb	-0.23249023
173	0x3e1b95b2	0.15193823
174	0x3d1e4c2e	0.03864687
175	0x3e2d7d6d	0.16942377
176	0xbe44d07d	-0.19220157
177	0x3e098e61	0.1343322
178	0xbdbf1808	-0.093307555
179	0x3e634de5	0.22197683
180	0xbd64eca3	-0.055889737
181	0x3d490916	0.04908093
182	0x3d999642	0.074993625
183	0x3e4f5af8	0.20249546
184	0x3e114cf0	0.14189506
185	0xbd71c1ca	-0.059022702
186	0xbd25ad2b	-0.04044835
187	0xbe0e6fe7	-0.13909875
188	0xbea22fe0	-0.3167715
189	0x3e510760	0.2041297
190	0xbdddfe65	-0.108395375
191	0xbd198a89	-0.037485633
192	0x3d8812c6	0.06644206
193	0x3e2717d1	0.16317679
194	0xbe1fb290	-0.1559546
195	0x3ba95000	0.0051670074
196	0x3d38392c	0.0449764
197	0x3e5cc977	0.21561228
198	0x3e8f55ed	0.27995244
199	0xbdd14cd4	-0.10219732
200	0xbda2b6ef	-0.07945048
201	0xbe4e5d07	-0.20152675
202	0x3e8695da	0.26286203
203	0xbdd81df9	-0.10552592
204	0x3d2b476b	0.041816156
205	0x3d18a79b	0.037269216
206	0x3e202e94	0.15642768
207	0xbe732853	-0.23745851
208	0xbc984463	-0.018587297
209	0x3c75161a	0.014958883
210	0xbca6a630	-0.020342916
211	0x3d641e74	0.055693105
212	0x3d9e099e	0.07716678
213	0xbd80e728	-0.062940896
214	0xbd84e0f6	-0.064882204
215	0x3d834b82	0.06410886
216	0xbe9136c7	-0.28362104
217	0x3c7d6fe4	0.015468571
218	0x3d891fce	0.066955194
219	0xbc8d5cde	-0.017256197
220	0x3e3c4c87	0.18388568
221	0x3e0666f6	0.13125214
222	0x3bfba4ab	0.007679542
223	0x3e14d4bb	0.14534275
224	0xbe0222a5	-0.12708528
225	0xbbd97e08	-0.0066373385
226	0x3cf668fd	0.03007936
227	0xbd84f33b	-0.06491705
228	0x3d416963	0.047219645
229	0x3e536e97	0.20647655
230	0x3e5441d5	0.20728238
231	0xbd6f972c	-0.058493778
232	0x3e493c35	0.19651873
233	0xbdb09888	-0.08622843
234	0xbd7fe8d4	-0.0624779
235	0xbddb364f	-0.10703718
236	0xbdcfa0e0	-0.10138106
237	0x3dae3766	0.0850666
238	0x3e522913	0.20523481
239	0xbdf4ca3a	-0.11952634
240	0x3d9c7ff0	0.0764159
241	0xbd4479f2	-0.04796786
242	0x3df225f7	0.118236475
243	0xbe6e14c1	-0.23250104
244	0xbcaf65fb	-0.021410933
245	0x3cfad7fe	0.030620571
246	0xbe85dd21	-0.2614527
247	0xbc3fef50	-0.011714771
248	0xbdfa3d81	-0.12218762
249	0x3d081cf4	0.033230737
250	0xbd161178	-0.036637753
251	0xbdcd7074	-0.10031214
252	0x3dc2781a	0.09495564
253	0x3e64a7e5	0.22329672
254	0xbdef0160	-0.11670184
255	0x3becff29	0.007232566

actor.0.bias f4 [64]
0	0xbe65ecaa	-0.22453561
1	0x3d71995f	0.058984157
2	0x3c665601	0.014058591
3	0xbe6532ac	-0.22382611
4	0xbda3b665	-0.07993773
5	0x3e0b6c99	0.13615645
6	0xbd8331e1	-0.06405998
7	0xbd21b16b	-0.03947584
8	0xbe11e26c	-0.1424653
9	0xbd971985	-0.07377914
10	0x3d9ec1e9	0.07751829
11	0xbdc79421	-0.0974505
12	0xbe262e27	-0.16228543
13	0x3d875402	0.0660782
14	0xbdb80685	-0.089856185
15	0xbd8febc4	-0.070273906
16	0x3e126f40	0.14300251
17	0xbd547469	-0.05186883
18	0x3e4239f5	0.18967421
19	0x3e652752	0.22378281
20	0x3daa668d	0.08320341
21	0xbe622f3c	-0.22088331
22	0xbcad3f96	-0.021148484
23	0x3e1cf1c5	0.15326603
24	0xbe6500e8	-0.22363627
25	0xbd91c395	-0.071173824
26	0x3d74ff5e	0.05981385
27	0x3e6d0607	0.2314683
28	0x3cdfdeb0	0.027327865
29	0x3cb91650	0.022593647
30	0x3e02b685	0.12764938
31	0x3d7d065d	0.061773647
32	0x3e525f82	0.20544246
33	0xbe1ffbd9	-0.15623416
34	0xbe17d713	-0.14828138
35	0xbd54170b	-0.051779788
36	0xbd9cf617	-0.076641254
37	0xbe615052	-0.22003296
38	0xbd071307	-0.03297713
39	0xbdc92817	-0.098221
40	0x3d7d4dca	0.061841764
41	0x3d75aaa1	0.059977178
42	0x3ded1979	0.11577124
43	0x3e0c3c78	0.13694942
44	0x3e700fc9	0.23443522
45	0x3d758cda	0.05994878
46	0xbe19efd8	-0.150329
47	0x3e0ea54f	0.13930248
48	0xbe20ddce	-0.15709612
49	0x3d4bcf1b	0.049758058
50	0x3e37e17a	0.17957106
51	0x3e1815e3	0.14852099
52	0xbdcb1195	-0.09915463
53	0x3e08d29e	0.13361594
54	0xbe030b3c	-0.12797254
55	0xbe298209	-0.1655351
56	0x3b7db700	0.0038713813
57	0x3d95c847	0.073135905
58	0xbd91f7f2	-0.0712737
59	0x3c638ee8	0.013889052
60	0x3e257ece	0.16161653
61	0x3d21bbcf	0.03948575
62	0xbdb75473	-0.08951654
63	0x3cfeae04	0.031088836

actor.2.weight f4 [64, 64]
0	0xbd8f64ff	-0.07001685
1	0xbd30091e	-0.042977445
2	0x3df0f76d	0.11765943
3	0xbce6ffcc	-0.028198145
4	0xbdc6f042	-0.09713794
5	0x3dee07f7	0.11622613
6	0x3cbc6f07	0.02300216
7	0x3cd00c69	0.025396543
8	0x3c1a3500	0.00941205
9	0xbde122ff	-0.10993003
10	0x3d95e093	0.07318225
11	0xbb16e4ca	-0.0023024553
12	0xbdb52bd2	-0.08846249
13	0xbd330bdf	-0.043712493
14	0xbd8a584f	-0.06755125
15	0xbc8c07a5	-0.017093489
16	0xbd06d220	-0.032915235
17	0xbdc9976a	-0.09843333
18	0xbabe6835	-0.0014526906
19	0x3cf8a18b	0.030350467
20	0x3daa6be8	0.08321363
21	0xbd8196ef	-0.063276164
22	0x3ddb09ae	0.10695206
23	0xbda5d391	-0.08096994
24	0xbcdf4104	-0.027252682
25	0xbd927e60	-0.0715301
26	0x3d6860b8	0.056732863
27	0xbda710c5	-0.081574954
28	0xbdf5e07b	-0.12005707
29	0x3db6e19a	0.08929749
30	0xbd66c92a	-0.05634419
31	0x3da27d34	0.07934037
32	0xbd35832c	-0.04431455
33	0x3cf1a7e1	0.029498996
34	0x3d91ef7c	0.07125756
35	0xbdb7cab4	-0.089742094
36	0xbdb25ffe	-0.08709715
37	0x3df10ea4	0.117703706
38	0xbdb50e00	-0.08840561
39	0xbc88776f	-0.016658513
40	0x3c211505	0.009831672
41	0xbd471e5d	-0.04861294
42	0x3daa6e13	0.08321776
43	0x3d1579fe	0.036493294
44	0x3e1319e3	0.14365344
45	0x3cdbad88	0.026816145
46	0xbe169682	-0.14705852
47	0x3c1704db	0.009217466
48	0xbcfef79c	-0.031123929
49	0xbcf87df6	-0.0303335
50	0x3de426d6	0.1114022
51	0xbd694df3	-0.056959104
52	0x3d07fc86	0.03319981
53	0x3d99d976	0.075121805
54	0x3d0417cf	0.03224927
55	0x3b61769a	0.0034402967
56	0xbda0b3d8	-0.078468025
57	0x3d5d97a0	0.05409968
58	0x3d8d1b53	0.06889977
59	0xbb975335	-0.0046180733
60	0xbdc4221f	-0.095768206
61	0xbda0863b	-0.078381024
62	0xbdebb6a5	-0.11509446
63	0xbd4c1e13	-0.04983337
64	0x3d905a18	0.07048434
65	0x3cd366c5	0.02580584
66	0x3e4edf45	0.20202358
67	0xbdb6ed2c	-0.08931956
68	0xbd8f7810	-0.07005322
69	0xbd9151b9	-0.070956655
70	0xbe0e24e8	-0.13881266
71	0xbcbeeaac	-0.02330526
72	0xbe1100d2	-0.14160469
73	0x3d8c807d	0.06860445
74	0x3c6ce903	0.014459851
75	0xbde33d18	-0.11095637
76	0x3daff0c9	0.08590848
77	0xbdd140fe	-0.102174744
78	0xbd2fd48c	-0.04292731
79	0x3dc0cbce	0.09413873
80	0xbce372e5	-0.027764747
81	0x35e14f71	1.6786927e-06
82	0xbd81c3eb	-0.063361965
83	0xbde2e4bd	-0.110787846
84	0x3a4ce5e8	0.0007816241
85	0xbe14059b	-0.14455263
86	0x3ce6331a	0.028100539
87	0x3e1eeb13	0.15519361
88	0x3da93cc0	0.0826354
89	0xbe0fbc07	-0.1403657
90	0xbd1befb4	-0.038070396
91	0x3de191cc	0.11014137
92	0xbdef34c0	-0.11679983
93	0x3b66fe50	0.0035246797
94	0x3de604d2	0.11231388
95	0xbb3665a3	-0.0027831576
96	0xbb531a7b	-0.0032211829
97	0xbbcb2e32	-0.0062005753
98	0x3db4aa2e	0.08821522
99	0x3956c1d3	0.00020480836
100	0xbca11e47	-0.019667758
101	0xbdfc2b29	-0.1231292
102	0x3ce308b6	0.027714115
103	0x3d997bbf	0.07494306
104	0x3d6e9353	0.058245968
105	0x3dcac7b2	0.0990137
106	0xbdd9d06a	-0.10635455
107	0xbca5573d	-0.0201832
108	0xbcf6aa71	-0.03011057
109	0xbd1de962	-0.03855265
110	0xbd9b427c	-0.0758104
111	0xbd895c96	-0.067071125
112	0xbd124000	-0.035705566
113	0xbda96d18	-0.08272761
114	0xbd379ee8	-0.04482928
115	0xbe10bbd0	-0.14134145
116	0xbb06ec2a	-0.0020587542
117	0x3dcb952e	0.09940563
118	0x3d8783c5	0.0661693
119	0x3d1972c4	0.037462965
120	0xbc2fb9d8	-0.010725461
121	0xbd649dbb	-0.055814486
122	0x3dbdd766	0.092695996
123	0xbca7e8dd	-0.02049678
124	0xbcd90371	-0.026490899
125	0x3df2d165	0.11856345
126	0x3b87864b	0.004135882
127	0x3d25d4af	0.040486034
128	0xbbf105f7	-0.0073554474
129	0xbddb72f0	-0.10715282
130	0xbd140e27	-0.03614631
131	0x3a6dd4ea	0.0009072559
132	0x3df6fe3b	0.12060209
133	0x3d006982	0.03135062
134	0xbc18189f	-0.009283214
135	0xbd31613c	-0.04330562
136	0x3daa69f2	0.08320989
137	0x3df37898	0.11888236
138	0xbd891492	-0.066933766
139	0xbd2177de	-0.039420955
140	0x3d08c7eb	0.03339378
141	0xbd1ffb52	-0.039058037
142	0x3d5e2cf6	0.054242097
143	0x3cd752d3	0.02628461
144	0x3d59b214	0.053148344
145	0x3cadab04	0.02119971
146	0x3d4802e9	0.0488309
147	0xbddeba3f	-0.108753674
148	0xbd07868d	-0.033087302
149	0xbd23261d	-0.03983127
150	0x3dee8acf	0.116475694
151	0xbe34b104	-0.17645651
152	0xbdbb8cf3	-0.09157743
153	0xbb0c039b	-0.0021364454
154	0xbe068633	-0.1313713
155	0xbd7d76c9	-0.06188086
156	0x3d805a0e	0.062671766
157	0xbd3383e1	-0.04382694
158	0xbd400f54	-0.046889618
159	0xbdfa51ee	-0.12222658
160	0x3d05ea4b	0.032694142
161	0x3d9cc514	0.07654777
162	0xbe028606	-0.12746438
163	0xbd87e11d	-0.06634734
164	0xbdeb3e76	-0.11486523
165	0x3e268afa	0.16263953
166	0x3c7b7643	0.01534802
167	0x3cf1cf24	0.029517718
168	0x3db53851	0.08848632
169	0x3c229b6b	0.00992475
170	0x3c9392f2	0.018014405
171	0x3dd96af8	0.10616106
172	0x3b85eec3	0.0040873005
173	0x3c698af1	0.014254318
174	0x3d93dd29	0.07219917
175	0x3d91a644	0.07111791
176	0x3da97286	0.08273797
177	0xbba26318	-0.0049556606
178	0xbcb1ce50	-0.021704823
179	0xbdb1c10b	-0.08679398
180	0x3de2a84d	0.11067257
181	0xbe055d3a	-0.13023844
182	0xbc3a52df	-0.011372297
183	0xbdada445	-0.084785976
184	0x3cda2727	0.026629997
185	0xbdf85b83	-0.121268295
186	0x3db957d5	0.09049956
187	0x3d85f503	0.06540873
188	0xbd05e1c2	-0.032686003
189	0x3d5f20bf	0.05447459
190	0xbca5699d	-0.020191962
191	0xbd277f86	-0.0408931
192	0x3dbf873d	0.093519665
193	0xbe0bf5c1	-0.13667966
194	0x3dac3a0e	0.084095106
195	0x3da28763	0.07935979
196	0xbba422fe	-0.005009054
197	0xbb38d5bc	-0.0028203567
198	0xbdfa8f67	-0.12234383
199	0xbd4880df	-0.048951026
200	0x39fbe520	0.00048045162
201	0x3d14c185	0.036317367
202	0x3e107df5	0.14110549
203	0xbb32f435	-0.0027306203
204	0xbd877dfd	-0.06615827
205	0xbdae22ab	-0.08502706
206	0x3b5d0911	0.0033727328
207	0xbdcf8637	-0.10133021
208	0x3da18244	0.07886174
209	0xbdef22c7	-0.11676555
210	0x3dc2c096	0.09509389
211	0xbcfec1b0	-0.031098217
212	0x3d91ca5c	0.07118675
213	0xbdb4e110	-0.0883199
214	0xbdf4389a	-0.119248584
215	0x3d4c068e	0.04981094
216	0xbdad576a	-0.084639385
217	0x3c5b8755	0.013398965
218	0x3cd6d48c	0.026224397
219	0xbdeb7438	-0.11496776
220	0xbda175ec	-0.0788382
221	0xbd644bff	-0.055736538
222	0xbdeb7d7d	-0.11498544
223	0xbccdaae8	-0.025105909
224	0x3dd3f0a3	0.10348632
225	0xbd813e93	-0.06310763
226	0x3d652789	0.055945907
227	0x3e34b62a	0.17647615
228	0x3cfe5096	0.031044286
229	0xbdb18103	-0.08667185
230	0x3ca992a3	0.020699805
231	0xbd0a0936	-0.03370019
232	0xbdc1881d	-0.0944979
233	0x3dd85ecc	0.10564956
234	0xbd415c48	-0.047207147
235	0xbdfee672	-0.12446298
236	0x3d852c77	0.065026216
237	0xbdb41791	-0.087935574
238	0x3dcf38c5	0.1011825
239	0x3d3f1c12	0.04665763
240	0xbc455fe2	-0.012046786
241	0xbd41d52b	-0.047322433
242	0xbd90fc1a	-0.070793346
243	0x3d7e2945	0.062051076
244	0x3dd3319f	0.10312199
245	0x3e16ba0c	0.14719409
246	0xbdbc4c7d	-0.091942765
247	0xbc84c74c	-0.016208313
248	0xbdc3baa1	-0.09557081
249	0xbdec3db7	-0.11535209
250	0x3cd66b75	0.026174286
251	0x3d4382bf	0.04773211
252	0x3e278b8f	0.16361831
253	0x3cb1d6cd	0.02170887
254	0xbcc8b6da	-0.024501253
255	0x3d48a851	0.048988644

actor.2.bias f4 [64]
0	0xbd076035	-0.033050735
1	0xbd2f0c21	-0.042736176
2	0xbc441f1b	-0.011970307
3	0x3e04220f	0.12903617
4	0xbdde2b1e	-0.10848068
5	0xbd7d5068	-0.06184426
6	0xbc48411d	-0.0122225555
7	0xbb93d061	-0.0045109247
8	0x3cd66085	0.026169071
9	0xbd631262	-0.055437453
10	0xbcee8b62	-0.029119197
11	0xbd289689	-0.041159187
12	0x3dd41e8a	0.10357387
13	0xbda3e3a9	-0.08002407
14	0xbcff9a93	-0.031201636
15	0xbdbd4c9e	-0.09243129
16	0x3ce98802	0.028507236
17	0x3d3c9ed7	0.04604992
18	0x3aef5418	0.0018259315
19	0x3dcbd9cf	0.09953653
20	0xbbad7b94	-0.0052942727
21	0x3d58d3f8	0.052936524
22	0xbdd3e0a6	-0.10345583
23	0xbca57e4e	-0.020201828
24	0xbb129a72	-0.0022369889
25	0x3da7e517	0.08197992
26	0x3d6c1b81	0.057643417
27	0x3bcca804	0.006245615
28	0xbd530427	-0.05151763
29	0x3dbeacae	0.0931028
30	0xbd8dad2c	-0.069177955
31	0x3dba3222	0.09091593
32	0x3c873902	0.016506676
33	0x3dd2333e	0.1026368
34	0xbde3acff	-0.11116981
35	0x3db1032e	0.086431846
36	0x3d2c3e67	0.0420517
37	0x3db7f6b7	0.08982604
38	0x3b9e5199	0.0048315045
39	0xbc7bbe52	-0.0153652
40	0x3d84c62a	0.06483109
41	0x3c77546b	0.01509581
42	0xbdb8d546	-0.09025054
43	0x3dd4072f	0.10352933
44	0xbccdf6c8	-0.025142089
45	0x3c66847b	0.014069672
46	0xbb70a04a	-0.0036716633
47	0x3dd7fa9b	0.10545846
48	0x3d9e65fb	0.07734295
49	0xbd7ff4c6	-0.062489294
50	0xbd5cda57	-0.053919163
51	0x3dafe4c5	0.08588556
52	0x3d212c10	0.039348662
53	0x3d9a66b1	0.07539118
54	0xbd29a65f	-0.04141843
55	0x3df7981e	0.12089561
56	0xbdb57e9f	-0.08862042
57	0x3add8dad	0.0016903185
58	0xbdc6c3e2	-0.097053304
59	0xbd2b3972	-0.04180283
60	0xbdb02968	-0.086016476
61	0x3c277320	0.010220319
62	0x3dddee9c	0.10836527
63	0x3d130aea	0.03589908

actor.4.weight f4 [2, 64]
0	0xb958c3bc	-0.00020672282
1	0xbc923d28	-0.017851427
2	0xbd13e72e	-0.036109142
3	0xbda32067	-0.07965165
4	0x3d7fa31b	0.06241141
5	0xbd2e3bd2	-0.042537518
6	0xbd370f87	-0.044692542
7	0xbdeaa371	-0.11456955
8	0x3bf51ef8	0.0074804984
9	0xbd88e08f	-0.06683456
10	0xbdbc1d08	-0.09185225
11	0x3dc1048f	0.094246976
12	0xbbdb3614	-0.006689796
13	0xbda4b622	-0.080425516
14	0xbb739e75	-0.0037173305
15	0xbdc2a886	-0.095047995
16	0x3dd8d6f1	0.10587872
17	0xbd9b2774	-0.075758845
18	0xbdafeb91	-0.085898526
19	0xbd0029f8	-0.031290025
20	0x3d9a136e	0.07523237
21	0xbd8beb55	-0.068319954
22	0xbdc95353	-0.09830346
23	0x3c71e9cd	0.014765215
24	0xbd363f8b	-0.044494193
25	0xbc82b7dc	-0.015956812
26	0x3c7fff41	0.015624822
27	0x3d733249	0.059374128
28	0x3dfe3c6f	0.124138705
29	0xbcf44bf5	-0.029821375
30	0x3cdfeac9	0.027333634
31	0x3dbf8967	0.09352379
32	0x3dc1ad48	0.09456879
33	0xbdec6ddf	-0.11544394
34	0xbdaa7a14	-0.08324066
35	0xbd8a8dc6	-0.067653224
36	0xbd1bdddb	-0.038053375
37	0x3d0e2f52	0.034713097
38	0x3de6dbab	0.11272367
39	0xbc9c496e	-0.019077983
40	0xbd9798f7	-0.074022226
41	0xbba7818f	-0.00511188
42	0x3b8e9300	0.00435102
43	0x3d316542	0.043309458
44	0x3dcefe0c	0.10107049
45	0xbd8d6d43	-0.06905606
46	0x3df6d2af	0.120519035
47	0x3dd65427	0.104652695
48	0x3dbb45ad	0.09144149
49	0xbd484acc	-0.048899457
50	0xbda29e72	-0.07940377
51	0xbdba7235	-0.091038145
52	0x3d9b7d7d	0.07592294
53	0xbc67ebcc	-0.014155339
54	0xbd9ca042	-0.07647754
55	0xbc969962	-0.018383685
56	0x3d6d75c0	0.057973623
57	0x3e06cd26	0.13164195
58	0x3d85c171	0.06531037
59	0xbdc4860d	-0.09595881
60	0xbd993fb0	-0.074828506
61	0xbcbab84e	-0.022792961
62	0x3da91a2a	0.082569435
63	0x3e095d9c	0.13414615
64	0x3b1826bd	0.002321645
65	0xbdf61c98	-0.120171726
66	0x3d6e27de	0.05814349
67	0xbdd4c99b	-0.10390016
68	0xbdbeb46a	-0.09311755
69	0xbdeae679	-0.114697404
70	0xbe1626ea	-0.14663282
71	0xbd243644	-0.040090814
72	0xbb533791	-0.0032229165
73	0x3c95604e	0.018234398
74	0x3d856c07	0.06514745
75	0xbc0866ee	-0.008325322
76	0xbe02e345	-0.12782009
77	0x3db77a73	0.08958902
78	0x3c6a519a	0.014301682
79	0xbc5b598d	-0.01338805
80	0x3d32595e	0.04354226
81	0x3cf99b37	0.03046952
82	0xbcea8796	-0.028629106
83	0xbdc62c88	-0.096764624
84	0x3dbb6e61	0.091519125
85	0xbdfa9496	-0.12235372
86	0x3c36cf3c	0.011157807
87	0xbe033e7d	-0.12816806
88	0xbd10a8a4	-0.03531708
89	0x3dc0bd2a	0.0941108
90	0xbc5afb15	-0.013365527
91	0xbda4b3a7	-0.080420785
92	0x3de2fdea	0.110835865
93	0xbe1b7372	-0.15180758
94	0xbda4b5c6	-0.08042483
95	0xbd9e98e0	-0.07744002
96	0x3d85c106	0.06530957
97	0x3cb2402d	0.021759117
98	0x3dc51337	0.096228056
99	0x3deaea48	0.11470467
100	0x3be7f458	0.0070786886
101	0x3db2ef6b	0.087370716
102	0x3e16ae78	0.14714992
103	0xbcbd01f3	-0.023072219
104	0xbd7c2b12	-0.061564513
105	0x3dbe4c4e	0.09291898
106	0xbd3af1ee	-0.04564088
107	0xbd8a63da	-0.067573264
108	0x3d91b5bf	0.071147434
109	0x3d807683	0.06272604
110	0x3c8adfc7	0.016952408
111	0x3d84d690	0.06486237
112	0xbde13a77	-0.109974794
113	0x3d116958	0.035500854
114	0xbd73b47a	-0.059498288
115	0x3d4de8d1	0.05027086
116	0xbc88f858	-0.016719982
117	0x3d32ed12	0.04368312
118	0xbd851d12	-0.06499685
119	0xbdf4642e	-0.1193317
120	0x3dd48be0	0.103782415
121	0xbdca6c9a	-0.09883995
122	0x3e0f73ce	0.1400902
123	0x3d86c813	0.0658113
124	0xbd607fb6	-0.054809295
125	0xbdbf8a6b	-0.09352573
126	0x3db95276	0.09048931
127	0xbd81d82f	-0.06340062

actor.4.bias f4 [2]
0	0xbdbf7061	-0.093476065
1	0x3d82a7c2	0.063796535

critic.0.weight f4 [64, 18]
0	0xbdc0ad60	-0.09408069
1	0xbc31f0eb	-0.010860662
2	0x3f1c9f00	0.61180115
3	0x3e293db2	0.16527441
4	0xbe083ec4	-0.13305193
5	0xbe93de3d	-0.28880492
6	0xbe31f1e2	-0.17377427
7	0x3e2bfa3c	0.16794676
8	0xbdb01b89	-0.08599002
9	0xbd00bd46	-0.031430505
10	0xbd874d84	-0.06606582
11	0xbe803cab	-0.25046286
12	0x3d91f3f5	0.07126609
13	0xbd8a7940	-0.06761408
14	0x3cf0c908	0.029392734
15	0x3d8f0146	0.06982665
16	0xbc8a65b8	-0.016894206
17	0x3c820288	0.015870348
18	0x3e2e0490	0.16993928
19	0xbe20c0f1	-0.15698601
20	0x3df39f45	0.118956126
21	0x3e379f20	0.17931795
22	0xbd2b9310	-0.041888297
23	0xbe10b8ad	-0.14132948
24	0xbdd2875a	-0.102797225
25	0xbe58370c	-0.21114749
26	0xbd94f2ed	-0.07272897
27	0x3e276952	0.1634877
28	0xbe2868d0	-0.16446233
29	0xbe8cee3c	-0.27525508
30	0xbd3401fc	-0.043947205
31	0x3d45d064	0.04829444
32	0xbe5c62fc	-0.21522135
33	0x3e679601	0.22615816
34	0xbdce63dc	-0.100776404
35	0x3e3ce057	0.18444954
36	0xbe5d823d	-0.21631713
37	0x3ddc2478	0.10749143
38	0xbe99060d	-0.2988743
39	0xbdd341f7	-0.10315316
40	0xbe18b996	-0.14914545
41	0xbdbe874f	-0.09303152
42	0xbdad1119	-0.08450527
43	0xbc916d88	-0.017752424
44	0xbe937241	-0.28798106
45	0x3980ee38	0.0002459155
46	0x3da9a7b7	0.08283942
47	0x3c23d8f8	0.01000046
48	0xbe31d6f4	-0.17367154
49	0xbd902366	-0.07038002
50	0xbe0dc7e3	-0.13845782
51	0xbe0844f6	-0.13307557
52	0x3e4360a7	0.19079839
53	0x3e3405e7	0.17580377
54	0xbe566c30	-0.20939708
55	0x3e6b438e	0.22974989
56	0xbdffa21c	-0.12482092
57	0x3e04c2c2	0.12964919
58	0x3e6562ea	0.22401014
59	0xbdc70b0e	-0.097189054
60	0xbd337ae4	-0.04381837
61	0x3dd6c4a1	0.10486723
62	0xbb485f8d	-0.003057453
63	0x3dd89a44	0.10576299
64	0x3e65934c	0.2241947
65	0x3e9e834b	0.30959544
66	0xbe1f09a6	-0.15531024
67	0x3daee42a	0.085396126
68	0xbdbdeeae	-0.0927404
69	0x3e625a69	0.22104801
70	0xbe6ba21e	-0.23011062
71	0xbe16e5f4	-0.14736158
72	0x3e191880	0.14950752
73	0xbd0c0abf	-0.034189936
74	0x3dd74ad1	0.10512317
75	0xbdab0227	-0.0835002
76	0x3ea59216	0.32338017
77	0x3e01d652	0.12679413
78	0xbcdf9946	-0.027294766
79	0x3b6850ee	0.0035448628
80	0xbe111f8f	-0.14172195
81	0xbda91f34	-0.08257905
82	0x3df41031	0.11917151
83	0xbe34b398	-0.17646635
84	0x3e486e2c	0.19573277
85	0x3d7e6804	0.062110916
86	0xbd06876c	-0.032843992
87	0xbd784414	-0.0606118
88	0xbe384ae5	-0.1799732
89	0x3e2fa3bf	0.17152308
90	0xbda2bd75	-0.07946292
91	0x3e757bef	0.23973058
92	0xbee63af0	-0.4496684
93	0xbdcd42da	-0.100225165
94	0x3d0e452d	0.03473394
95	0xbd9cae1d	-0.07650397
96	0x3da06747	0.078321986
97	0x3e7c3386	0.2462903
98	0xbe435d99	-0.19078673
99	0xbe4f50b3	-0.20245628
100	0x3ca58cc3	0.020208722
101	0x3e63e880	0.2225666
102	0x3cab4955	0.02090899
103	0xbd7e14b0	-0.062031448
104	0x3dcc36da	0.099713996
105	0xbddc692a	-0.10762246
106	0xbdbe892c	-0.09303507
107	0xbe14c1aa	-0.14527002
108	0xbe5bdc65	-0.21470793
109	0x3e55e79c	0.20889133
110	0xbefb1285	-0.49037567
111	0x3df3454b	0.11878451
112	0xbe457da3	-0.19286208
113	0xbe0e7258	-0.13910806
114	0x3e045574	0.12923223
115	0xbd07be71	-0.033140603
116	0x3e0514d0	0.1299622
117	0xbd09efae	-0.033675842
118	0x3e5f15cf	0.21785663
119	0x3cec3cdf	0.02883762
120	0xbdf68184	-0.12036422
121	0xbe35d804	-0.17758185
122	0xbe57eef1	-0.21087243
123	0xbdae3dfa	-0.08507915
124	0xbdd0c18a	-0.10193165
125	0x3e1e58c1	0.15463544
126	0xbe1ea5db	-0.15492956
127	0xbe289908	-0.16464627
128	0xbf2112c1	-0.6291924
129	0xbd6fc339	-0.05853579
130	0xbd83d2cf	-0.06436693
131	0xbd5238d1	-0.051323716
132	0x3e020bd1	0.1269982
133	0x3dca21f3	0.098697565
134	0x3e31af13	0.17351942
135	0xbe48bfa7	-0.1960436
136	0xbe681bc4	-0.22666842
137	0xbe02a2ca	-0.12757412
138	0xbe659ff7	-0.22424303
139	0xbdbe1f26	-0.09283285
140	0x3e5dd989	0.21665014
141	0x3dca820a	0.09888084
142	0x3c962b58	0.018331215
143	0x3e316545	0.17323788
144	0xbc882411	-0.01661876
145	0xbe90437b	-0.28176484
146	0x3e56eb89	0.20988287
147	0xbd3d1611	-0.046163622
148	0x3dc90a2d	0.09816394
149	0x3db8731e	0.09006332
150	0xbb99b786	-0.004691067
151	0x3cd76643	0.02629388
152	0x3de02253	0.10944047
153	0xbb001f47	-0.0019549893
154	0x3d47358f	0.04863506
155	0xbcc4b0c4	-0.02401007
156	0x3e3a878b	0.18215768
157	0xbe0af4d9	-0.13569964
158	0xbe0621c1	-0.13098814
159	0x3c8fe088	0.01756312
160	0x3dc5ef0a	0.09664734
161	0x3d1a57e4	0.037681475
162	0x3e818aee	0.25301307
163	0x3e5a6957	0.21329246
164	0xbe7ef75f	-0.24899052
165	0x3dce7926	0.10081701
166	0xbec02c33	-0.3753372
167	0xbdb2bcc4	-0.087274104
168	0x3de22b05	0.110433616
169	0xbe25c653	-0.16188936
170	0x3d8c640b	0.06855019
171	0x3e745599	0.23860778
172	0xbe01f707	-0.1269189
173	0xbe8b44f6	-0.2720105
174	0x3e670bbf	0.22563075
175	0x3e2f9feb	0.17150848
176	0xbd81c534	-0.06336442
177	0xbe23b15e	-0.15985629
178	0x3e71553f	0.23567675
179	0xbe5c3e38	-0.2150811
180	0xbe2b69ab	-0.16739528
181	0x3cec743a	0.028864015
182	0x3bcbac6f	0.006215624
183	0xbe3fe960	-0.18741369
184	0xbd957cf5	-0.07299224
185	0x3e7515d4	0.23934108
186	0x3d8db6a0	0.069195986
187	0x3ce40962	0.027836505
188	0xbd8286df	-0.06373381
189	0xbe792c7d	-0.24333377
190	0xbdae2d69	-0.08504755
191	0xbd7f8ca1	-0.062389974
192	0x3dad7f20	0.08471513
193	0x3e69e1ab	0.22839992
194	0x3da88416	0.082283184
195	0x3d4fc2b4	0.050722793
196	0x3e0f6dfb	0.14006798
197	0x3d8c9aea	0.06865485
198	0x3d55e26e	0.052217893
199	0xbdf6a421	-0.12043024
200	0xbea38b19	-0.3194206
201	0x3e1af420	0.15132189
202	0xbd9165b8	-0.070994794
203	0xbe60b11e	-0.21942565
204	0xbe3ae4eb	-0.18251388
205	0xbb414ece	-0.0029496434
206	0xbd75f0d4	-0.060044125
207	0xbe02dfd9	-0.12780704
208	0xbd53054c	-0.051518723
209	0x3cc77fcd	0.024352932
210	0xbdcf1a65	-0.10112456
211	0x3de0c72e	0.109754905
212	0x3e4a7ddf	0.19774579
213	0x3e3417f3	0.17587261
214	0xbe4b3655	-0.19844945
215	0xbd862ae6	-0.06551151
216	0xbe8c4f94	-0.27404463
217	0x3dd11885	0.10209755
218	0xbeed7f26	-0.4638607
219	0xbe07cdf9	-0.13262166
220	0xbe4a06a1	-0.19729091
221	0xbdde982d	-0.10868869
222	0x3dd504f9	0.10401339
223	0x3de65a48	0.112476885
224	0x3e1d5272	0.15363482
225	0x3dc9b594	0.098490864
226	0x3d5d1cc0	0.053982496
227	0xbdb4ad22	-0.08822085
228	0x3c2e0617	0.010621569
229	0x3e41ce01	0.1892624
230	0x3e612c37	0.21989523
231	0xbe3513bc	-0.1768331
232	0x3b484fc0	0.0030565113
233	0x3dfe3fda	0.124145225
234	0xbc9b54c4	-0.018961318
235	0x3e216029	0.15759338
236	0x3e90dc5d	0.28293124
237	0x3da61c2c	0.08110842
238	0xbe0c0f6a	-0.13677755
239	0xbd343afd	-0.044001568
240	0x3ca4174f	0.020030646
241	0xbd981924	-0.0742667
242	0xbcb5c2b2	-0.022187565
243	0xbe59731f	-0.21235321
244	0x3e860a33	0.26179656
245	0xbe9eb3d6	-0.3099658
246	0x3d92fd13	0.07177176
247	0xbb9845e0	-0.0046470016
248	0x3d748e44	0.059705988
249	0xbe5a026e	-0.2128999
250	0x3e3828a3	0.17984252
251	0xbe448b80	-0.1919384
252	0x3c9ee10e	0.019394424
253	0xbdf338d2	-0.11876072
254	0x3d905a3b	0.0704846
255	0x3d8b89b5	0.06813375

critic.0.bias f4 [64]
0	0x3dd04a98	0.10170478
1	0xbe37e7c3	-0.17959504
2	0xbeb8c30b	-0.36086306
3	0x3dd3aa3c	0.10335204
4	0xbe91a8d0	-0.28449106
5	0x3d19921d	0.03749286
6	0x3db790e8	0.089631855
7	0xbe02e1c7	-0.1278144
8	0xbe40e1fb	-0.18836205
9	0xbe11dbc4	-0.1424399
10	0x3eafd1f6	0.34339875
11	0x3e1a7db2	0.15087011
12	0x3e71bedb	0.23607962
13	0xbe2ade4b	-0.1668636
14	0xbe9c61aa	-0.30543262
15	0xbe20896a	-0.1567742
16	0xbdc91a4a	-0.09819467
17	0x3e48a7d4	0.19595271
18	0x3dfa8aeb	0.12233528
19	0x3e91773c	0.2841128
20	0x3cb13881	0.021633388
21	0x3e0b0e3f	0.13579653
22	0x3e97aa0d	0.29621926
23	0xbed8487c	-0.422428
24	0xbe3c45a2	-0.18385938
25	0x3e8f0e83	0.2794076
26	0x3e10f243	0.14154916
27	0xbcbc2872	-0.022968505
28	0x3dc2fc37	0.095207624
29	0xbe65c560	-0.22438574
30	0xbcdc2a42	-0.026875619
31	0x3ebbe88f	0.36700866
32	0xbeab0e2f	-0.3340926
33	0x3e653c4f	0.22386287
34	0x3ec48588	0.38383126
35	0x3d36dd6c	0.044644758
36	0x3e6e7ebe	0.23290536
37	0xbea7c702	-0.32769018
38	0xbe8a3241	-0.26991466
39	0xbec77bcf	-0.38961646
40	0x3dd82b9f	0.10555195
41	0x3e7aa7b8	0.24478042
42	0xbe71e2fb	-0.23621742
43	0x3d06b610	0.032888472
44	0xbe1d7dd3	-0.1538003
45	0x3d4f1aea	0.050562777
46	0xbdd4e882	-0.1039591
47	0xbe89c4bf	-0.26907918
48	0xbe4e4b13	-0.20145826
49	0xbeb0bd2b	-0.34519324
50	0xbe75b14b	-0.23993413
51	0x3d424608	0.04743007
52	0x3de84fca	0.113433436
53	0xbdf508dd	-0.11964581
54	0x3d47a061	0.048736934
55	0x3e9c4404	0.30520642
56	0xbdd13cc9	-0.10216672
57	0xbec39c28	-0.38205075
58	0x3e012085	0.12610061
59	0xbe90a3a8	-0.2824986
60	0xbe516029	-0.20446838
61	0x3d79067d	0.060797203
62	0x3d38726a	0.04503099
63	0xbe8bb2d5	-0.27284876

critic.2.weight f4 [64, 64]
0	0x3d863c9f	0.06554531
1	0xbd43ef85	-0.047835846
2	0xbd20ab47	-0.039225843
3	0x3d931b40	0.07182932
4	0xbe35306f	-0.17694257
5	0x3d241559	0.04005942
6	0x3cfb4fdb	0.030677726
7	0x3d4a702e	0.04942339
8	0x3d06029c	0.032717332
9	0xbcbe9adf	-0.023267208
10	0xbb6e9d13	-0.0036409541
11	0x3d8d1443	0.0688863
12	0xbc2f0232	-0.010681676
13	0xbe4fc79d	-0.2029099
14	0xbe303fb3	-0.172118
15	0xbdeeb5fc	-0.116558045
16	0x3d02ddac	0.031949684
17	0xbdbe86cf	-0.093030564
18	0xbd36f7f8	-0.044670075
19	0x3e017030	0.12640452
20	0xbc4fed78	-0.012690894
21	0x3c9b904a	0.0189897
22	0x3e25d7a7	0.16195546
23	0xbd084229	-0.03326622
24	0x3d192bcf	0.037395295
25	0xb8d53058	-0.00010165636
26	0xbc6660d3	-0.014061171
27	0xbdedd108	-0.11612135
28	0xbde54406	-0.11194615
29	0x3d8a6074	0.06756678
30	0xbd86afae	-0.06576477
31	0x3dbd3613	0.092388295
32	0xbe35e4c7	-0.17763053
33	0x3c8cf242	0.017205361
34	0x3e19963f	0.1499872
35	0x3d2382e3	0.039919745
36	0x3e9209f0	0.28523207
37	0xbe0a6355	-0.13514455
38	0x3c8a320f	0.016869573
39	0xbe00aff5	-0.12567122
40	0x3dc32fce	0.095306024
41	0xbcb55bcf	-0.022138504
42	0xbd124765	-0.03571262
43	0xbd9a22af	-0.075261466
44	0x3dd97bb0	0.10619295
45	0x3e057f17	0.13036762
46	0xbd94766b	-0.07249149
47	0xbe23d444	-0.15998942
48	0xbc86312e	-0.016380873
49	0x3d047a2b	0.03234307
50	0x3da70924	0.0815604
51	0xbcbb8ba3	-0.022893732
52	0x3dc1cef9	0.09463305
53	0xbbeaace6	-0.0071617244
54	0x3d571ad2	0.052515812
55	0x3b14a8ce	0.0022683623
56	0xbdef5fa1	-0.11688162
57	0xbddf0868	-0.10890275
58	0xbd6d7806	-0.05797579
59	0xbe142888	-0.14468586
60	0xbb4d6451	-0.003134031
61	0x3c883e7c	0.016631357
62	0xbe1229ad	-0.1427371
63	0xbd04ba9b	-0.032404523
64	0xbdeefc39	-0.116692014
65	0xbdad81e1	-0.08472038
66	0x3dcd5077	0.10025113
67	0x3d703d57	0.05865225
68	0x3dcf21ba	0.10113855
69	0x3cdf021b	0.027222684
70	0xbd7f80b9	-0.06237862
71	0xbde79d9d	-0.11309359
72	0xbc207da7	-0.009795583
73	0xbd727a0f	-0.059198435
74	0xbdbc6a91	-0.092000134
75	0x3d0fb054	0.03508027
76	0x3d1b89a2	0.037973054
77	0x3daab5e1	0.08335472
78	0x3c08b1ee	0.008343203
79	0xbdbb224d	-0.09137402
80	0x3dfbce6e	0.12295233
81	0xbe0bfa54	-0.13669711
82	0x3c97fcad	0.018553102
83	0xbdbe5e2f	-0.09295308
84	0x3d229183	0.039689552
85	0xbae3a2ab	-0.0017367204
86	0xbe23e60c	-0.16005725
87	0xbd33a66d	-0.043859888
88	0xbcc1271e	-0.023578223
89	0xbe064f65	-0.13116224
90	0xbdab6969	-0.08369715
91	0x3dca21cb	0.09869727
92	0x3d13af4d	0.03605585
93	0xbbec1d37	-0.007205631
94	0xbd19d5b5	-0.037557323
95	0xbe40f1d6	-0.18842253
96	0x3d03f4ad	0.032215763
97	0xbdd06253	-0.10175004
98	0xbe2e43b1	-0.1701801
99	0xbdbc4e0c	-0.09194574
100	0xbc539195	-0.012913127
101	0x3e10bff9	0.14135732
102	0xbbef1091	-0.007295676
103	0x3dcdc426	0.10047178
104	0xbcd9d2d8	-0.026589796
105	0xbcc4cce1	-0.024023475
106	0xbc7c5b55	-0.015402635
107	0xbda42c11	-0.080162175
108	0x3daf5ea5	0.08562974
109	0xbc568ba6	-0.013094818
110	0xbd54e6a0	-0.051977754
111	0x3d5b106d	0.05348246
112	0x3e170d37	0.14751135
113	0x3d09ccfa	0.033642747
114	0x3bee81ea	0.0072786706
115	0x3d4001fa	0.046876885
116	0x3adc82a4	0.0016823602
117	0x3dad6713	0.084669255
118	0x3d2d6f35	0.042342383
119	0xbd5c47e1	-0.053779487
120	0x3d25297c	0.040322766
121	0xbd2157b4	-0.03939028
122	0xbd827e90	-0.06371796
123	0x3e23404f	0.159425
124	0x3dfc9b93	0.12334361
125	0xbd8876e5	-0.06663302
126	0x3d66fe87	0.05639508
127	0x3e259241	0.16169073
128	0xbd426c09	-0.04746631
129	0xbd4bc371	-0.049746934
130	0x3d430460	0.047611594
131	0xbda74680	-0.08167744
132	0x3d9213e5	0.07132701
133	0xbd123d8a	-0.03570322
134	0x3c4faee9	0.012675979
135	0x3ce3bbfd	0.0277996
136	0xbd2a2ab2	-0.041544624
137	0x3c5a2025	0.013313328
138	0x3c76279e	0.015024094
139	0x3cdd5bcc	0.027021311
140	0xbe2d8571	-0.16945435
141	0xbb9a7181	-0.0047132378
142	0x3e51e463	0.20497279
143	0x3d2a8684	0.04163219
144	0x3d342e16	0.043989263
145	0xbdd95b41	-0.106131084
146	0x3d7f1838	0.062278956
147	0xbdf82cd7	-0.121179275
148	0x3c95456f	0.018221585
149	0x3dae737c	0.08518121
150	0xbd1c27e3	-0.038123976
151	0x3d29c927	0.0414516
152	0xbd4c95a0	-0.04994738
153	0xbe19ca6e	-0.15018627
154	0xbcf6b633	-0.030116176
155	0x3d9eb641	0.07749606
156	0x3dba7934	0.09105149
157	0x3e1b720c	0.15180224
158	0x3e03be4d	0.12865563
159	0xbd0b92b7	-0.034075465
160	0x3b841fa2	0.0040320912
161	0xbd7359b7	-0.05941173
162	0x3ccb9681	0.02485204
163	0xbdcedb86	-0.101004645
164	0xbe6b34e9	-0.22969402
165	0x3e2f9b9a	0.17149201
166	0x3e38f9d2	0.18064049
167	0x3dfcd386	0.123450324
168	0xbd457109	-0.0482035
169	0xbe0aead1	-0.13566138
170	0xbd9e3383	-0.07724669
171	0x3c2ce8dd	0.010553566
172	0x3d8a5427	0.06754332
173	0x3df21cc0	0.1182189
174	0x3d5986a0	0.053106904
175	0x3e4fac08	0.20280468
176	0x3cfa7118	0.030571505
177	0x3e481b4e	0.19541666
178	0x3e1f554f	0.15559886
179	0xbc8d68fd	-0.017261976
180	0xbd3e813b	-0.046509963
181	0x3d9091dc	0.070590705
182	0x3e118623	0.14211325
183	0xbe57a1d4	-0.21057826
184	0xbc5026d6	-0.012704572
185	0x3d8e9309	0.069616385
186	0xbdaed9ed	-0.0853766
187	0x3cc78616	0.02435593
188	0x3dbdd4d1	0.09269107
189	0x3df58d35	0.11989824
190	0xbbe7926a	-0.0070670145
191	0x3df51ced	0.11968408
192	0xbbe0b0b8	-0.006857004
193	0x3cb623e9	0.02223392
194	0x3c748451	0.014924125
195	0x3ccf4625	0.025302002
196	0xbe737f97	-0.2377914
197	0xbde7dbe1	-0.113212354
198	0xbd39fdf4	-0.045408204
199	0xbca8ed3c	-0.020620935
200	0xbdbfe963	-0.09370687
201	0x3d0782cc	0.033083722
202	0x3e2fb4df	0.1715884
203	0xbdc73e25	-0.0972865
204	0x3e17a75e	0.1480994
205	0xbd15bbb9	-0.03655598
206	0xbe201198	-0.15631711
207	0x3db89772	0.09013261
208	0xbd379ae6	-0.044825457
209	0x3d9deba2	0.07710959
210	0xbdecd8cf	-0.115647905
211	0x3ceb343e	0.028711434
212	0x3dd132b7	0.10214751
213	0xbca98d7e	-0.020697352
214	0x3e22552c	0.15852803
215	0xbda26893	-0.07930102
216	0xbd966ed1	-0.07345355
217	0xbcac2a54	-0.021016277
218	0xbd669714	-0.056296423
219	0x3c43b0b5	0.011943986
220	0x3bc1c5f3	0.00591349
221	0xbdfb6467	-0.122750096
222	0xbe029539	-0.12752236
223	0x3e69f21c	0.22846264
224	0x3be0b9f8	0.0068581067
225	0x3da6d8e8	0.0814684
226	0x3e3c9dfe	0.18419644
227	0xbbfb6a5c	-0.007672591
228	0x3df33208	0.11874777
229	0xbe5cffc3	-0.2158194
230	0xbdaa2fc4	-0.08309892
231	0xbd88c5f6	-0.06678383
232	0xbcc2d5c7	-0.023783578
233	0x3dcac6f8	0.099012315
234	0x3cf451ab	0.029824099
235	0x3e43ff50	0.19140363
236	0x3d6833ad	0.056689907
237	0xbdfd5da1	-0.12371374
238	0x3c1edf3a	0.009696776
239	0xbd8132f9	-0.063085504
240	0xbd0544fe	-0.0325365
241	0xbdd7b5e7	-0.10532742
242	0xbe2e31e0	-0.17011213
243	0x3d036620	0.032079816
244	0x3e2d7497	0.16939007
245	0x3dcbb9c9	0.09947545
246	0xbe08404a	-0.13305774
247	0x3d4571bc	0.04820417
248	0xbbb6eb92	-0.0055822814
249	0xbe165692	-0.14681461
250	0xbe1d1aa5	-0.15342195
251	0xbd59c772	-0.05316872
252	0x3b5c7f05	0.0033645045
253	0xbdf15735	-0.117842115
254	0x3e3bcaf0	0.18339133
255	0x3cbeb62b	0.023280224

critic.2.bias f4 [64]
0	0x3cade6dd	0.021228248
1	0xbe220754	-0.15823108
2	0xbe1f9795	-0.15585168
3	0x3d748c08	0.059703857
4	0x3e752025	0.23938043
5	0xbcbb4ebf	-0.022864698
6	0xbdb6194d	-0.088915445
7	0x3dffd0f3	0.12491026
8	0x3d69650f	0.056981143
9	0x3d52ee80	0.051496983
10	0x3de646fd	0.11244009
11	0xbe344957	-0.17606102
12	0xbe6dda7c	-0.23227876
13	0xbcfc8f74	-0.030830123
14	0xbe721b1c	-0.23643154
15	0xbabd516f	-0.0014443825
16	0xbe347460	-0.17622519
17	0x3e357225	0.17719324
18	0x3dc90c5b	0.0981681
19	0x3e451475	0.19246085
20	0x3e0d638c	0.13807505
21	0x3e812a96	0.25227803
22	0x3e018cbe	0.12651345
23	0xbe1b99ee	-0.15195438
24	0x3dcefee2	0.10107209
25	0xbe75900f	-0.23980735
26	0x3dba2ba1	0.09090353
27	0xbddc0f03	-0.10745051
28	0x3e4d418b	0.20044534
29	0x3e25555a	0.1614584
30	0x3dcd647d	0.10028932
31	0xbdba0a39	-0.09083981
32	0x3c6dd49a	0.01451602
33	0xbd5381c8	-0.05163744
34	0x3dd778e9	0.10521109
35	0x3dcca6f3	0.099927805
36	0x3ce153d8	0.0275058
37	0xbe032085	-0.12805374
38	0xbe62f936	-0.22165379
39	0xbe83d2de	-0.25746816
40	0xbd887ea5	-0.066647805
41	0x3c4a1063	0.012333008
42	0xbda0545c	-0.0782859
43	0xbdadd4e9	-0.08487875
44	0xbddc4b6d	-0.10756574
45	0xbe19fb7f	-0.15037344
46	0xbdb781a5	-0.089602746
47	0xbe07b75d	-0.13253541
48	0x3d139d67	0.036038782
49	0xbde77e96	-0.11303441
50	0x3de09236	0.109653875
51	0xbe334259	-0.17505778
52	0x3d873323	0.066015504
53	0xbd0bc557	-0.034123745
54	0xbe01e059	-0.12683238
55	0xbd524bf9	-0.051341984
56	0xbdf05e2f	-0.11736714
57	0xbe718ca7	-0.23588811
58	0xbe5228cd	-0.20523377
59	0xbc205e8e	-0.009788169
60	0x3d2c8686	0.04212048
61	0x3d7561b8	0.059907645
62	0xbdefc6ff	-0.11707877
63	0x3e6a74a7	0.22896062

critic.4.weight f4 [1, 64]
0	0xbda23007	-0.07919317
1	0x3dfbf25e	0.12302087
2	0x3e599d28	0.21251357
3	0xbd99838d	-0.074957944
4	0xbec8c7d3	-0.39214954
5	0x3e8cd6ef	0.2750773
6	0x3dad31cf	0.08456766
7	0xbdfcd2e1	-0.123449095
8	0x3e047eed	0.12939043
9	0xbe158269	-0.14600529
10	0xbd683c2b	-0.056698006
11	0x3e048680	0.12941933
12	0x3e4ab9db	0.1979746
13	0x3e1daa96	0.15397105
14	0x3e3fe34c	0.1873905
15	0xbdca314c	-0.09872684
16	0x3e072ff7	0.13201891
17	0xbdc61775	-0.09672443
18	0x3ec5ae9b	0.38609776
19	0xbe2f7167	-0.17133103
20	0xbe4ac79a	-0.19802704
21	0xbe643a37	-0.22287832
22	0xbe69cd4c	-0.22832221
23	0x3e7622f9	0.24036779
24	0xbe3db0ef	-0.18524526
25	0x3def865f	0.11695551
26	0xbe14421c	-0.14478344
27	0x3e28a779	0.16470136
28	0xbe479164	-0.19489056
29	0xbe269120	-0.16266298
30	0xbe8584d8	-0.26077914
31	0x3e419d45	0.1890765
32	0xbe7e4a27	-0.24832974
33	0x3e403d33	0.18773346
34	0xbe502543	-0.20326714
35	0xbddbe96c	-0.10737881
36	0xbe37ae6e	-0.17937633
37	0x3da8273c	0.08210608
38	0x3e4ce7a7	0.20010243
39	0x3dca0b2f	0.09865414
40	0x3e4958a9	0.19662727
41	0x3df30341	0.11865855
42	0x3dc3bb4f	0.09557211
43	0x3e444063	0.19165187
44	0x3e228fc3	0.15875153
45	0x3e3e06b1	0.1855724
46	0x3d990f27	0.07473593
47	0x3e607176	0.21918282
48	0xbe6253e1	-0.2210231
49	0x3e53965d	0.20662828
50	0xbe1de2bc	-0.15418524
51	0x3e770ced	0.24126025
52	0x3ec71e61	0.38890365
53	0xbe10f383	-0.14155392
54	0x3dfcec98	0.12349814
55	0xbe66f755	-0.22555287
56	0x3e3610d3	0.17779855
57	0x3e26c0c0	0.16284466
58	0x3e45a978	0.19302928
59	0x3e4a551e	0.19759032
60	0xbd886a2a	-0.06660874
61	0xbea3353b	-0.3187655
62	0x3dc68f19	0.096952625
63	0xbe4a7792	-0.19772175
