models/001_AimMastery/001_AimMastery_latest.pth (torch, 46994 bytes, 11 tensors)

actor.0.weight f4 [64, 15]
0	0xbe53bdc9	-0.20677866
1	0x3e1d5774	0.15365392
2	0x3e8c0faf	0.27355716
3	0xbe8f2318	-0.27956462
4	0xbf2dafc7	-0.6784634
5	0x3d529808	0.05141452
6	0x3df635f7	0.12022012
7	0x39c87b09	0.0003823864
8	0x3e7a3afd	0.24436565
9	0x3e35ecfa	0.1776618
10	0xbeabe8e5	-0.33576122
11	0x3b4e1000	0.0031442642
12	0xbe57f6d8	-0.21090257
13	0xbdebc8e2	-0.11512925
14	0xbe063891	-0.13107516
15	0x3e482bfd	0.1954803
16	0x3e9e8c79	0.30966547
17	0xbcd48145	-0.025940547
18	0x3d4bfb70	0.049800336
19	0x3f6068b1	0.87659746
20	0x3df5dbc1	0.12004805
21	0xbdbd09db	-0.092303954
22	0xbe2779f0	-0.16355109
23	0xbd51fc1d	-0.051265825
24	0x3e8431fb	0.25819382
25	0x3df71e4f	0.12066328
26	0xbe5554b8	-0.20833099
27	0xbe02b304	-0.12763602
28	0xbd36d464	-0.044636145
29	0xbe077d49	-0.13231386
30	0x3d8522a2	0.06500746
31	0x3e95ee48	0.29283357
32	0x3e630b78	0.22172344
33	0x3ec26964	0.37971032
34	0xbe6a3289	-0.2287084
35	0x3ded5f15	0.11590401
36	0xbe021bfd	-0.12705989
37	0x3eaaa094	0.33325636
38	0xbe073dfb	-0.13207237
39	0x3bc4ebb6	0.0060095442
40	0x3e2e0ad3	0.16996317
41	0x3e83cd9d	0.25742808
42	0x3c702a40	0.014658511
43	0xbe7fbd25	-0.24974497
44	0x3d3b9fc8	0.045806676
45	0xbddb463a	-0.10706754
46	0x3e44eb15	0.19230302
47	0xbeb96fec	-0.36218202
48	0xbe0a0b51	-0.1348088
49	0x3d427f8b	0.047484916
50	0x3e23de84	0.16002852
51	0xbaff135e	-0.0019460728
52	0xbda131a2	-0.07870795
53	0xbed72763	-0.42022237
54	0xbe41f6c8	-0.18941796
55	0x3e3068d8	0.17227495
56	0x3d7f8318	0.06238088
57	0xbe62aaaa	-0.22135416
58	0x3e333b34	0.17503053
59	0x3da62858	0.08113164
60	0x3d10852e	0.03528326
61	0xbe45e375	-0.19325049
62	0x3e112f5e	0.14178225
63	0x3da57aee	0.080800876
64	0xbe5571d2	-0.208442
65	0xbe345587	-0.17610751
66	0x3e53101f	0.20611618
67	0xbe9ec812	-0.31012017
68	0x3f02dd17	0.51118606
69	0x3dd57236	0.10422175
70	0xbdc6f1e3	-0.09714105
71	0xbe55652a	-0.20839372
72	0x3e68f9f8	0.22751606
73	0x3e2b3514	0.16719466
74	0xbe62d14c	-0.22150153
75	0x3e0e3a11	0.13889338
76	0x3e3f07aa	0.18655267
77	0xbec47e5b	-0.38377652
78	0xbe710689	-0.23537649
79	0xbeff6237	-0.4987962
80	0x3dbb88e8	0.09156972
81	0xbd9685d9	-0.07349748
82	0xbe054cc8	-0.13017571
83	0x3e2ac8ee	0.16678211
84	0xbe8b577c	-0.27215183
85	0xbe369b3a	-0.17832652
86	0x3cad21e0	0.021134317
87	0xbdb3b65c	-0.08775017
88	0x3e80406f	0.2504916
89	0xbe7cf339	-0.24702157
90	0xbe2fd5b2	-0.17171362
91	0xbe2585ae	-0.16164276
92	0x3ea1dd70	0.31614256
93	0xbdee50e3	-0.11636522
94	0xbeef171f	-0.46697327
95	0xbcdd8ed6	-0.027045649
96	0x3e2b2257	0.16712318
97	0xbe55ae76	-0.20867333
98	0x3ea5c15b	0.3237408
99	0xbe1d77b5	-0.15377696
100	0x3e088f10	0.13335824
101	0xbdf09dd8	-0.11748856
102	0x3dc86084	0.09784034
103	0x3dc5fd38	0.09667438
104	0x3e48ea12	0.1962054
105	0xbd0766c1	-0.033056978
106	0x3e0d3c7e	0.13792607
107	0x3df0df5d	0.11761353
108	0x3e9d3f3f	0.30712315
109	0x3f874f2c	1.0571036
110	0xbe3c8d64	-0.18413311
111	0xbc028292	-0.007965701
112	0xbddbbfd1	-0.107299455
113	0x3e12f4be	0.14351174
114	0xbe35de89	-0.17760672
115	0x3e63e7a5	0.22256334
116	0xbc870d88	-0.016485944
117	0xbcc46730	-0.023974985
118	0xbdcd0c98	-0.10012168
119	0xbe83f395	-0.25771776
120	0x3ded6c63	0.11592939
121	0x3e7655b5	0.24056132
122	0xbe387c7d	-0.18016239
123	0x3e841be0	0.25802517
124	0x3f0aa39f	0.54155916
125	0x3e97512a	0.2955411
126	0xbdbacb03	-0.09120753
127	0x3e0de803	0.13858037
128	0xbe3d14f2	-0.18465021
129	0x3e9b951f	0.30387208
130	0x3cc16292	0.023606572
131	0xbd87953e	-0.066202626
132	0xbdf25aa0	-0.118336916
133	0xbd33d8c4	-0.043907896
134	0x3e4202ae	0.18946335
135	0xbe87c946	-0.26520747
136	0xbe724c1e	-0.23661849
137	0x3e0982b2	0.13428763
138	0xbe2359b2	-0.15952185
139	0xbe555771	-0.20834137
140	0xbeace218	-0.33766246
141	0x3da8f9a6	0.08250742
142	0xbe8761e4	-0.26441872
143	0x3e8c8509	0.27445248
144	0xbc45ed4c	-0.012080502
145	0xbeb85301	-0.36000827
146	0xbe2b18fb	-0.16708748
147	0xbd831ebe	-0.06402348
148	0x3df384c8	0.118905604
149	0x3cf15fe0	0.029464662
150	0x3dc723a4	0.09723595
151	0x3eafc291	0.3432813
152	0x3c116fc9	0.008876749
153	0xbdc1f991	-0.09471429
154	0x3f43e650	0.76523304
155	0x3ea4f699	0.3221939
156	0xbdabd889	-0.0839091
157	0xbcc60364	-0.024171539
158	0xbebabbf1	-0.36471513
159	0x3e561008	0.20904553
160	0x3e19a85e	0.15005633
161	0x3e006ee0	0.12542295
162	0xbd8a17de	-0.067428336
163	0x3e823cf9	0.25437143
164	0xbe61d5fc	-0.22054285
165	0x3df3f3ba	0.119117215
166	0x3ea9e094	0.33179152
167	0xbebb5bb5	-0.36593404
168	0x3e238af8	0.15970981
169	0xbf11f117	-0.570085
170	0xbd02cf24	-0.031935826
171	0xbde89eb6	-0.11358397
172	0x3ddc6a8a	0.10762508
173	0xbe94069d	-0.28911296
174	0x3ea8c09e	0.32959455
175	0xbe35b00f	-0.17742942
176	0xbdb45228	-0.088047326
177	0xbd928782	-0.07154752
178	0xbe44fba8	-0.19236624
179	0xbe32a2d3	-0.17444925
180	0xbeb5e43b	-0.3552569
181	0x3da27584	0.079325706
182	0x3d9e3040	0.07724047
183	0xbde2c47c	-0.11072633
184	0xbf04368e	-0.51645744
185	0xbebaa469	-0.3645356
186	0x3da17e3e	0.07885407
187	0xbe25c0b0	-0.16186786
188	0xbdf4bf18	-0.11950511
189	0xbe83be53	-0.25731143
190	0xbee336a2	-0.4437762
191	0xbdc659f2	-0.096851245
192	0x3e62c5d0	0.22145772
193	0x3cbc0ac0	0.022954345
194	0xbd023080	-0.031784534
195	0x3e806a75	0.2508122
196	0x3e4c78b7	0.19967924
197	0x3d679baa	0.056544937
198	0x3e9693df	0.29409692
199	0x3f3464bc	0.7046621
200	0x3e7fbe1c	0.24974865
201	0xbcf45271	-0.029824467
202	0x3e51ca94	0.20487434
203	0xbe0773bc	-0.13227743
204	0x3e1dd5a7	0.15413533
205	0xbdb6f688	-0.08933741
206	0xbe31d1e0	-0.17365217
207	0xbe27d524	-0.163899
208	0xbd8b9a32	-0.0681652
209	0xbe00b370	-0.1256845
210	0x3e781eef	0.2423055
211	0x3edc84df	0.43070123
212	0x3e0cab94	0.13737327
213	0x3d882d9e	0.06649326
214	0xbf4372d9	-0.7634712
215	0x3eb2735d	0.3485364
216	0xbdce573c	-0.100752324
217	0x3e6c1bd0	0.23057485
218	0x3d884431	0.066536315
219	0x3e421975	0.18955024
220	0x3c7da2c0	0.015480697
221	0xbe30b57e	-0.17256734
222	0x3d9881bc	0.0744662
223	0x3e3ecdc0	0.18633175
224	0x3c50c920	0.012743264
225	0x3e815c67	0.2526581
226	0x3c50ffbd	0.012756285
227	0xbdc7cff9	-0.097564645
228	0x3e41f141	0.18939687
229	0xbf64a2c8	-0.89310884
230	0xbd5438dd	-0.05181204
231	0xbd3b1b07	-0.045680072
232	0xbe2817b9	-0.164153
233	0xbe864fa6	-0.26232642
234	0x3da377a1	0.07981802
235	0x3d78ac11	0.06071097
236	0x3d764720	0.060126424
237	0xbd01bde4	-0.031675234
238	0xbe021310	-0.12702584
239	0xbd8db5cc	-0.069194406
240	0x3ddcb321	0.107763536
241	0x3d366e2d	0.044538666
242	0xbe139d25	-0.14415415
243	0x3e0a1e1b	0.13488047
244	0x3f6d0c30	0.9259672
245	0xbd505853	-0.050865483
246	0xbd640ebf	-0.055678125
247	0x3e0eb31b	0.13935511
248	0xbd5fd421	-0.05464566
249	0x3c0df9b0	0.008665487
250	0x3ec33bc8	0.38131547
251	0x3e70eb74	0.23527318
252	0x3e3e616c	0.18591851
253	0x3d8e4d84	0.06948379
254	0x3defadcc	0.11703071
255	0x3df6a68f	0.12043487

actor.0.bias f4 [64]
0	0xbd17221c	-0.036897764
1	0xbc795541	-0.01521808
2	0x3e16f4fc	0.14741892
3	0x3e334422	0.1750646
4	0xbe4d1da7	-0.20030843
5	0x3d276252	0.04086525
6	0x3e5044e1	0.20338775
7	0xbe47dba2	-0.19517377
8	0xbdd3db23	-0.103445314
9	0x3e0ae32a	0.13563219
10	0x3d8b801e	0.06811546
11	0x3e357cb9	0.17723359
12	0x3d550d57	0.052014675
13	0xbe30dae2	-0.17270997
14	0xbd9b3d87	-0.07580095
15	0xbe63a25c	-0.22229904
16	0x3c8f866f	0.017520158
17	0x3e147e09	0.14501204
18	0x3d5fb96d	0.054620195
19	0xbe75cb36	-0.240033
20	0xbe8827ae	-0.26592773
21	0xbe645424	-0.22297722
22	0xbc9534e4	-0.018213697
23	0x3e658a2c	0.2241599
24	0xbe6084a8	-0.21925604
25	0x3e64df5c	0.2235083
26	0xbe9e3381	-0.3089867
27	0xbea2b163	-0.3177596
28	0x3ccc368d	0.024928356
29	0xbe336beb	-0.17521636
30	0xbe87a5d0	-0.26493692
31	0xbe2148c6	-0.15750417
32	0xbd29a49e	-0.041416757
33	0x3e674e41	0.22588445
34	0x3e9f56f6	0.31121033
35	0xbe3b13c8	-0.18269265
36	0x3e7ce797	0.2469772
37	0xbd1fa421	-0.038974885
38	0x3e67b179	0.22626294
39	0x3e2525e0	0.1612773
40	0xbe5e80ca	-0.21728817
41	0x3df962d7	0.12177055
42	0xbd64e99b	-0.055886846
43	0x3e838662	0.25688463
44	0xbe2defb8	-0.16985977
45	0xbe810a05	-0.25202957
46	0xbdf06838	-0.11738628
47	0xbe809ba0	-0.25118732
48	0xbe5f2b20	-0.21793795
49	0xbdd60472	-0.104500666
50	0xbd85e047	-0.06536918
51	0xbe51956a	-0.20467153
52	0xbd1cd006	-0.038284324
53	0x3e6a8d03	0.22905354
54	0x3c4fe785	0.012689476
55	0x3dac4b37	0.084127836
56	0xbe0e52c0	-0.13898754
57	0xbd9b7859	-0.07591314
58	0x3e536a6f	0.2064607
59	0xbd8cbf84	-0.06872466
60	0x3e7de0ab	0.24792735
61	0xbe6de8a5	-0.23233278
62	0x3e68182c	0.22665471
63	0x3e8383ee	0.25686592

actor.2.weight f4 [64, 64]
0	0xbb46ad6e	-0.0030315774
1	0x3d8e2255	0.06940142
2	0xbd5b5159	-0.053544376
3	0x3de6de4d	0.11272869
4	0xbe13a1b0	-0.14417148
5	0xbdcccbec	-0.099998325
6	0x3dbd504b	0.0924383
7	0x3e48b238	0.19599235
8	0xbe16e5eb	-0.14736144
9	0xbd694f36	-0.056960307
10	0x3dc4bfc0	0.09606886
11	0xba768e47	-0.0009405356
12	0xbd09a838	-0.03360769
13	0xbce02d8f	-0.027365474
14	0x3d9c16f4	0.076215655
15	0xbdfb6a8e	-0.12276183
16	0xbb34c19b	-0.0027581218
17	0xbdf3bd67	-0.1190136
18	0xbd729c92	-0.05923135
19	0x3cc72eb0	0.024314255
20	0x3e1ec5dc	0.15505165
21	0xbe222924	-0.15836006
22	0x3dc01297	0.09378546
23	0xbd5478c4	-0.051872984
24	0x3d67c363	0.05658282
25	0xbd4fdbb2	-0.050746627
26	0x3df46359	0.119330116
27	0xbd699669	-0.057028208
28	0x3d2bbc05	0.041927356
29	0x3e01a9d9	0.12662448
30	0xbd87def9	-0.066343255
31	0x3d7d3eda	0.061827518
32	0x3cccbf8e	0.024993684
33	0xbdb8ee9c	-0.09029886
34	0x3d84ad35	0.06478349
35	0xbd069afb	-0.032862645
36	0xbb8f74d9	-0.004377943
37	0xbd42c938	-0.04755518
38	0xbdb434a5	-0.08799104
39	0xbd1d4f1d	-0.038405526
40	0x3beefbbd	0.007293193
41	0x3e0c348f	0.13691925
42	0xbd9dc7c4	-0.07704118
43	0x3caa4aff	0.020787714
44	0xbe0c5eac	-0.1370799
45	0x3d1a6056	0.03768953
46	0xbcf2ab65	-0.029622743
47	0x3d5e47a8	0.054267555
48	0xbbd35c22	-0.006450192
49	0x3d1fa0c0	0.038971663
50	0x3db64816	0.08900468
51	0xbd40bf6d	-0.047057558
52	0x3dfb4420	0.12268853
53	0x3cdbcdc2	0.026831511
54	0x3b562754	0.003267725
55	0x3ae6bf2c	0.0017604581
56	0x3dd3a1e4	0.103336126
57	0x3ce5a498	0.028032586
58	0x3bca4c22	0.0061736265
59	0xbcdeb4fb	-0.027185908
60	0x3de28b9b	0.11061784
61	0xbdcb33f4	-0.09922019
62	0x3e2e2f1b	0.17010157
63	0x3dae4148	0.08508545
64	0xbe188d78	-0.14897716
65	0x3d81f15b	0.06344863
66	0xbd503485	-0.050831337
67	0xbd859dc1	-0.0652423
68	0xbae6a79d	-0.001759756
69	0xbd4b95b0	-0.0497033
70	0xbd1f7e2b	-0.038938683
71	0x3e15046c	0.14552468
72	0xbb341b6a	-0.002748216
73	0x3db4a617	0.088207416
74	0x3d12f5e2	0.035879023
75	0xbda2e1c3	-0.07953217
76	0xbd219f61	-0.039458636
77	0x3c78b7db	0.015180553
78	0x3c490218	0.012268566
79	0xbd8a5a04	-0.0675545
80	0x3ccbdb3d	0.024884814
81	0x3d8510dd	0.06497357
82	0xbdb02825	-0.08601407
83	0xbdf784d3	-0.12085881
84	0xbc823b67	-0.015897466
85	0x3d00650b	0.031346362
86	0x3db88a93	0.09010806
87	0xbd29b583	-0.04143287
88	0x3d6a977f	0.057273384
89	0xbd41d8b5	-0.04732581
90	0xbda5168e	-0.080609426
91	0xbd0a7d36	-0.033810817
92	0x3df6d636	0.12052576
93	0xbe08a594	-0.13344413
94	0x3d619c75	0.05508085
95	0x3dd0f158	0.10202283
96	0xbdbbd08a	-0.09170635
97	0x3db57dfc	0.0886192
98	0x3d7be2ea	0.0614957
99	0x3d8d94a9	0.0691312
100	0x3da21cff	0.07915687
101	0x3df480cd	0.11938629
102	0xbd2ea7ba	-0.042640425
103	0xbc7e8296	-0.015534064
104	0xbd67c8e8	-0.056588084
105	0xbd35c416	-0.044376455
106	0xbe585017	-0.21124302
107	0x3dccb20b	0.099948965
108	0x3d9d224a	0.07672556
109	0xbdbd9f63	-0.09258916
110	0xbe109a58	-0.14121377
111	0x3cbaadb3	0.022787904
112	0xbca6ad9c	-0.020346455
113	0x3d43d2ad	0.047808338
114	0xbd6d9e95	-0.058012564
115	0xbda72ef6	-0.08163254
116	0xbc9c65ca	-0.019091506
117	0xbde10755	-0.109877266
118	0xbc2e1977	-0.0106261885
119	0x3da9e08c	0.08294782
120	0x3d39803c	0.04528831
121	0xbde267d6	-0.110549614
122	0x3d831b9e	0.06401752
123	0x3d41b91c	0.047295675
124	0xbdcaf7f7	-0.09910577
125	0x3e34e0a1	0.17663814
126	0x3dfb7821	0.12278772
127	0x3db16a1c	0.08662817
128	0xbe2ebe85	-0.17064865
129	0x3de65c8d	0.112481214
130	0x3d2eb882	0.04265643
131	0xbd52a584	-0.05142738
132	0xbe0da5c8	-0.13832772
133	0x3be48b20	0.006974593
134	0x3d247427	0.040149834
135	0x3e6c4630	0.2307365
136	0x3d241948	0.040063173
137	0x3c9a5b54	0.018842377
138	0x3ddeb6e4	0.10874727
139	0xbe1231c5	-0.14276798
140	0xbdc450dc	-0.09585735
141	0xbd1ec69c	-0.038763627
142	0x3dba8172	0.09106721
143	0xbdbae62f	-0.09125935
144	0x3e2bd5d8	0.16780794
145	0xbdc9896e	-0.09840666
146	0x3d973bdc	0.07384464
147	0xbdc947cb	-0.098281465
148	0x3d21c533	0.039494704
149	0xbc83fb52	-0.01611105
150	0xbd6bec54	-0.057598427
151	0x3e0a4de7	0.1350628
152	0xbcb365a5	-0.021899054
153	0xbd5b39c4	-0.053521886
154	0x3a0caffd	0.00053668005
155	0xbcf44f35	-0.029822925
156	0x3d94ea5f	0.07271265
157	0x3d303d7b	0.043027382
158	0x3c9b87f4	0.018985726
159	0x3db4ad0f	0.08822071
160	0x3d04a736	0.032386027
161	0x3c949e94	0.018142022
162	0x3dc85df6	0.097835466
163	0xbc8fd07d	-0.01755547
164	0xbcb0cb6e	-0.021581378
165	0xbda1fd0e	-0.079095945
166	0x3dcd798e	0.1003295
167	0xbde4649b	-0.111520015
168	0x3d983a57	0.074330024
169	0xbd4c8887	-0.04993489
170	0x3d8636e2	0.06553437
171	0xbdd5d942	-0.10441829
172	0x3ce07b83	0.027402645
173	0xbd8752f0	-0.06607616
174	0xbc559a25	-0.013037239
175	0x3dae6abc	0.08516452
176	0x3ba61763	0.005068706
177	0xbc829fa1	-0.015945258
178	0xbd65aafc	-0.056071267
179	0xbd9fcc8b	-0.07802685
180	0xbd35aafb	-0.044352513
181	0xbd0a843f	-0.033817526
182	0xbc39533b	-0.011311348
183	0x3d837588	0.06418902
184	0xbd8223d7	-0.06354492
185	0x3e204ad7	0.15653549
186	0xbe32c6d7	-0.17458664
187	0x3d2a9128	0.041642338
188	0xbb9bf56e	-0.004759482
189	0x3e05f6e0	0.13082457
190	0xbd96c47c	-0.07361695
191	0x3c9af2f7	0.018914683
192	0xbce04cb8	-0.027380332
193	0xbe24f8cf	-0.16110538
194	0xbcf361cc	-0.02970972
195	0x3d9a0392	0.07520212
196	0xbd6947df	-0.056953307
197	0xbce0a7c4	-0.027423747
198	0x3d3bccb1	0.045849506
199	0x3da03832	0.078232184
200	0xbd323c69	-0.043514643
201	0x3ccb9158	0.024849579
202	0xbdbfa36a	-0.09357341
203	0xbe47a3d5	-0.1949609
204	0xbdad79b7	-0.08470481
205	0xbcb808ce	-0.022465136
206	0xbd52376b	-0.051322382
207	0x3b83ce8c	0.004022425
208	0x3e2cdc68	0.16880953
209	0x3d0b9624	0.034078732
210	0xbdfd88d6	-0.12379615
211	0xbd891492	-0.066933766
212	0x3e1c4ac9	0.15262903
213	0xbcc84efa	-0.024451721
214	0x3de3db62	0.11125828
215	0x3d919724	0.07108906
216	0x3d96e0d3	0.073671006
217	0xbc6a5f18	-0.014304899
218	0x3dd54e19	0.104152866
219	0xbc361479	-0.0111132795
220	0xbd58c9b6	-0.05292674
221	0xbd39e3ce	-0.045383267
222	0x3bec9638	0.007220056
223	0xbdd68e20	-0.10476327
224	0xbd2f80bd	-0.042847384
225	0xbdc5f398	-0.096656024
226	0xbe3d0f5b	-0.18462889
227	0x3d9f68fa	0.077836946
228	0x3e18f7dd	0.14938302
229	0x3d86e441	0.06586505
230	0x3d01d914	0.031701162
231	0xbd173210	-0.036912978
232	0xbda41211	-0.080112584
233	0x3dfb5da2	0.122737184
234	0xbd4a96ec	-0.049460337
235	0xbe0040b5	-0.12524684
236	0xbdac469e	-0.08411907
237	0x3d18c64f	0.037298497
238	0x3c328c39	0.0108976895
239	0xbe10f3f4	-0.1415556
240	0x3c3a354e	0.011365248
241	0x3d1348c6	0.035958074
242	0xbdb86294	-0.09003177
243	0x3d77a9b6	0.060464583
244	0xbd4873b9	-0.048938487
245	0xbd27af10	-0.040938437
246	0x3d73774d	0.059439946
247	0xbd0588c2	-0.032601126
248	0x3c76e68b	0.015069614
249	0xbcbacad2	-0.02280179
250	0xbd933d8d	-0.07189474
251	0x3e02a706	0.12759027
252	0xbcae5774	-0.021281935
253	0xbdfa5459	-0.12223119
254	0x3da9527c	0.08267686
255	0xbe16a800	-0.14712524

actor.2.bias f4 [64]
0	0xbe00e470	-0.12587142
1	0xbde4b4b1	-0.11167277
2	0xbd853b3c	-0.06505439
3	0xbc47eead	-0.012202901
4	0x3b172cd2	0.0023067486
5	0xbd66598f	-0.056237753
6	0xbcf86e02	-0.030325893
7	0x3d35305c	0.044235572
8	0xbdcdeb8a	-0.10054691
9	0x3caf684d	0.02141204
10	0xbdd15056	-0.10220401
11	0x3d15f907	0.036614444
12	0xbd62e8a6	-0.055397652
13	0xbd23003d	-0.03979515
14	0xbe050ad1	-0.12992407
15	0x3d8d864f	0.06910383
16	0xbd70e80c	-0.058815047
17	0xbd4f5e06	-0.050626777
18	0x3e3d9858	0.18515146
19	0xbd3fe6be	-0.046850912
20	0xbd462a29	-0.04838005
21	0x3c6d063b	0.0144668175
22	0x3dfb6f56	0.12277095
23	0x3d4b150d	0.049580622
24	0xbe52b503	-0.20576863
25	0xbd0a0425	-0.03369536
26	0x3d5c9815	0.053855974
27	0xbc997564	-0.018732734
28	0x3c685e4c	0.014182638
29	0x3e1cd341	0.15314962
30	0xbdc5f075	-0.09665004
31	0xbd4b634e	-0.04965525
32	0x3d69ce03	0.057081234
33	0x3cc51dc6	0.024062049
34	0xbdd9f709	-0.10642821
35	0xbc8b5f5a	-0.01701324
36	0x3ddebf43	0.10876324
37	0x3d9388ca	0.07203825
38	0xbd3c4efd	-0.045973767
39	0x3d4ab349	0.049487386
40	0xbcef9f47	-0.029250754
41	0xbe6277dd	-0.22116037
42	0x3d9ccaa6	0.076558396
43	0xbd8279b0	-0.06370866
44	0x3e2854ef	0.1643865
45	0x3c84006c	0.016113482
46	0xbdb60096	-0.088868305
47	0xbe1665e4	-0.14687306
48	0x3c5ef444	0.013608042
49	0x3c36804e	0.011138989
50	0x3d59e138	0.0531933
51	0xbd7a810a	-0.061158217
52	0x3df6f38d	0.120581724
53	0xbe27af4e	-0.16375467
54	0x3c994dc5	0.018713841
55	0xbd5ded9d	-0.054181684
56	0x3d0f2a67	0.034952547
57	0x3c4e21d5	0.012581308
58	0xbdbd67d5	-0.0924832
59	0xbd6a344c	-0.05717878
60	0xbd1cc660	-0.038275123
61	0xbd689f36	-0.05679246
62	0xbd1c33e5	-0.038135428
63	0x3e0b31cf	0.13593219

actor.4.weight f4 [2, 64]
0	0xbbf53cd3	-0.0074840575
1	0xbbb4df7a	-0.0055198045
2	0x3ba8c21e	0.0051500937
3	0x3bb49bef	0.005511753
4	0x3b5a5052	0.0033312035
5	0x3c8958bb	0.016765943
6	0xbd8a389f	-0.06749081
7	0xba9dd53d	-0.0012041699
8	0x3a2e6100	0.00066520274
9	0x3a7fb6a9	0.00097546965
10	0x3c649933	0.013952541
11	0xbd95116f	-0.07278716
12	0xbcf69d11	-0.030104192
13	0xbbdc2996	-0.0067188246
14	0xbd6c1c0d	-0.05764394
15	0xbb65322e	-0.0034972536
16	0x3aa4cd82	0.0012573453
17	0x3d5998ae	0.053124122
18	0x3d7cb1ed	0.06169312
19	0xbac362f9	-0.0014906815
20	0xbc740460	-0.014893621
21	0xbd06f2bf	-0.032946344
22	0xbc1614d1	-0.009160236
23	0xbd3a1f3f	-0.045439955
24	0xbb44892b	-0.0029988985
25	0x3c0c7851	0.008573608
26	0xbbc203ab	-0.0059208474
27	0xb9b79ff5	-0.00035023657
28	0x3cddc954	0.02707354
29	0xbd1660fe	-0.036713593
30	0xbb8aaa23	-0.0042317077
31	0xbaa0208e	-0.0012216733
32	0xbb4005f2	-0.0029300419
33	0xbc6bb927	-0.0143874055
34	0x3c909228	0.017647818
35	0xbd10e71d	-0.035376657
36	0x3ce5deb2	0.028060291
37	0xbbdee20a	-0.0068018483
38	0x3c6a952b	0.014317791
39	0xbb017a7a	-0.001975684
40	0x3d6e66cc	0.058203503
41	0x3c315df1	0.01082562
42	0x3d2f71d9	0.042833183
43	0x3dde2639	0.10847134
44	0xbc84d421	-0.016214432
45	0xbaaa457b	-0.0012990677
46	0x3c9782fe	0.01849508
47	0xbae52c5d	-0.0017484535
48	0x3cdf2a69	0.027241902
49	0x3c33efb3	0.010982442
50	0xbd29f7b4	-0.041495994
51	0x3c94954c	0.018137597
52	0x3c07596d	0.008261067
53	0x3cebd4a9	0.028787928
54	0x3bbad6d4	0.005701879
55	0x3cbc4454	0.0229818
56	0x3cccec0f	0.025014905
57	0xbb8275eb	-0.003981342
58	0xbc1afb06	-0.009459263
59	0xbd45966a	-0.04823915
60	0xb9eed121	-0.0004555071
61	0x3c420af1	0.011843429
62	0x3b999a47	0.0046875807
63	0x3c903fb5	0.017608503
64	0xba984d4b	-0.0011619715
65	0x3cc26136	0.023727994
66	0x3d0eb4df	0.03484046
67	0xbc8111d4	-0.015755571
68	0x3d8a32cf	0.06747972
69	0x3cd51d4f	0.026014952
70	0x3e6eba02	0.23313144
71	0xbca2a49e	-0.019853886
72	0xbcf8744c	-0.030328892
73	0x3e6389d5	0.22220547
74	0xbc9375e1	-0.018000545
75	0xbe46677d	-0.19375415
76	0x3c461c01	0.012091638
77	0xbc83943c	-0.016061895
78	0x3c44adac	0.012004297
79	0xbd281354	-0.041034058
80	0x3c5ec607	0.013597018
81	0x3d37f1b0	0.044908226
82	0x3e731e09	0.23741926
83	0x3e617def	0.22020696
84	0xbd3e344b	-0.04643659
85	0x3cd280ec	0.02569624
86	0xbd2fba0c	-0.042902038
87	0x3c1f487e	0.009721873
88	0xbe8a3d37	-0.26999828
89	0x3d474b33	0.0486557
90	0xbd4b8499	-0.049687
91	0x3d19a7e8	0.037513644
92	0xbe828930	-0.2549529
93	0xbd158f9a	-0.036513902
94	0x3d6883ff	0.056766506
95	0x3d71d4b3	0.059040736
96	0x3d08c1a4	0.033387795
97	0xbd063256	-0.032762848
98	0x3d0aa01f	0.03384411
99	0xbd432047	-0.047638204
100	0xbd3656d0	-0.044516385
101	0xbd1257c4	-0.03572823
102	0xbc8669f9	-0.016407954
103	0xbd215f67	-0.039397623
104	0xbdebafdd	-0.11508153
105	0x3c938f08	0.018012539
106	0x3ce45478	0.02787231
107	0xbd7f20f1	-0.062287275
108	0xbd464ce8	-0.048413187
109	0x3cf85fa2	0.030319039
110	0x3d551d78	0.052030057
111	0x3d1e3e10	0.038633406
112	0x3e875fbc	0.26440227
113	0xbddca81a	-0.1077425
114	0xbc376518	-0.011193536
115	0x3d7e2bae	0.062053375
116	0xbcc61bc5	-0.024183163
117	0x3d0396d5	0.032126267
118	0x3c439461	0.011937232
119	0x3df8ea63	0.12154081
120	0x3bc37113	0.005964407
121	0xbcf8beb0	-0.030364364
122	0xbd233bf4	-0.039852098
123	0x3d275853	0.040855717
124	0xbaab03c8	-0.0013047392
125	0xbd376175	-0.044770677
126	0xbce3e0d1	-0.027817162
127	0x3ccec7c5	0.025241742

actor.4.bias f4 [2]
0	0xbc7f69b4	-0.015589166
1	0x3d3f7f3b	0.046752196

critic.0.weight f4 [64, 15]
0	0x3db4dd86	0.08831315
1	0xbde1c6a5	-0.110242166
2	0x3b789dd5	0.0037935872
3	0x3df2f5c9	0.11863286
4	0x3ef9f014	0.48815978
5	0xbe491439	-0.1963662
6	0xbd58ff73	-0.05297799
7	0x3bc832f0	0.006109588
8	0xbe38f430	-0.180619
9	0xbcc948d2	-0.024570856
10	0x3f1e5b10	0.618577
11	0x3e088bd6	0.13334593
12	0x3e63231c	0.22181362
13	0xbdc2f87a	-0.095200494
14	0xbe436c22	-0.19084218
15	0xbe697818	-0.22799718
16	0xbc91aa3d	-0.017781371
17	0xbd0f99b1	-0.03505868
18	0xbe39f4d2	-0.18159798
19	0x3f17b87d	0.5926588
20	0xbdbb425b	-0.09143516
21	0x3e7a8afc	0.24467081
22	0xbe0e1712	-0.13875988
23	0x3f11bbe2	0.5692731
24	0x3e4ef829	0.20211853
25	0xbeb44ccb	-0.35214838
26	0x3e58f714	0.21188003
27	0x3dfc84d4	0.123300225
28	0x3e264e00	0.16240692
29	0xbd5c0130	-0.05371207
30	0x3e2d7612	0.16939571
31	0x3eb4eeeb	0.3533853
32	0xbc4f6057	-0.012657247
33	0x3da30fcd	0.07961998
34	0xbc593c74	-0.013259042
35	0xbdca5134	-0.098787695
36	0x3ec3b607	0.38224813
37	0xbe49479a	-0.1965622
38	0x3ea6bbe1	0.32565215
39	0x3dd7d9b7	0.10539573
40	0xbbfa52cf	-0.007639266
41	0x3e21f642	0.15816596
42	0x3de03204	0.1094704
43	0xbbc6efc0	-0.006071061
44	0xbe08cbb2	-0.13358954
45	0xbd572c18	-0.052532285
46	0xbe36183b	-0.1778268
47	0xbd6677e1	-0.05626667
48	0x3d2a6d5e	0.041608207
49	0x3ec667f0	0.38751173
50	0x3e740bf3	0.23832683
51	0xbe424ff8	-0.18975818
52	0x3dc2efee	0.09518419
53	0xbf2c17b6	-0.6722368
54	0xbe962d2f	-0.29331347
55	0x3d80f102	0.062959686
56	0xbe212576	-0.15736946
57	0x3db81d40	0.08989954
58	0xbe104ada	-0.14091054
59	0x3e690826	0.22757015
60	0xbe8cc39b	-0.27492985
61	0x3cf1ac81	0.029501202
62	0x3bacdc30	0.005275272
63	0x3e0662ca	0.13123623
64	0xbebb40f3	-0.3657299
65	0xbe14c18b	-0.14526956
66	0xbca0a50f	-0.019609956
67	0xbe04f2f2	-0.12983301
68	0xbcaa726d	-0.020806516
69	0x3e25aa10	0.16178155
70	0x3f241e89	0.6410909
71	0xbde6a23e	-0.11261414
72	0xbe3ce590	-0.18446946
73	0xbe62f30f	-0.22163032
74	0xbe06c68f	-0.13161682
75	0xbeb8e8fb	-0.3611525
76	0xbe74126b	-0.23835151
77	0x3adcd072	0.001684679
78	0x3d980caf	0.07424294
79	0xbe093e1c	-0.13402599
80	0x3d60a44e	0.054844193
81	0x3d348645	0.044073362
82	0xbe0704fe	-0.13185498
83	0x3e12e243	0.14344124
84	0xbe0e90a3	-0.13922362
85	0x3ef67c4e	0.48141712
86	0xbe002f2f	-0.12517999
87	0x3e341404	0.1758576
88	0xbe31a7b8	-0.17349136
89	0xbda40880	-0.08009434
90	0xbdba00f6	-0.090822145
91	0xbe2fe720	-0.17178011
92	0xbc9daaf9	-0.019246565
93	0x3adf9ba1	0.0017059931
94	0xbe099eef	-0.13439535
95	0x3eaffbea	0.34371883
96	0xbd1d4649	-0.038397107
97	0x3e582538	0.21107948
98	0x3e9378ee	0.288032
99	0x3d9ed20a	0.077549055
100	0x3f1eee3a	0.62082255
101	0x3e2bee44	0.1679011
102	0x3e733106	0.2374917
103	0xbe05c1ab	-0.1306216
104	0x3cd51930	0.026012987
105	0x3d95ea4b	0.073200785
106	0x3d4ac886	0.04950764
107	0xbba98393	-0.0051731556
108	0x3c5203c5	0.012818282
109	0x3ed5b816	0.4174201
110	0x3eb715f9	0.3575895
111	0xbe791dea	-0.24327818
112	0x3e69886b	0.22805946
113	0xbf070cb8	-0.5275378
114	0xbe02ed5d	-0.1278586
115	0xbc83dc22	-0.016096178
116	0xbe4a2577	-0.19740854
117	0xbc469cd0	-0.012122348
118	0xbe440a62	-0.19144586
119	0x3ddaae84	0.106778175
120	0xbde6126e	-0.11233984
121	0x3e2b713e	0.16742417
122	0x3bbc18da	0.005740267
123	0x3ebcf723	0.369073
124	0x3d27e1d2	0.040986843
125	0xbdbd490a	-0.09242447
126	0xbd83f9d2	-0.06444134
127	0x3e9ebea2	0.31004816
128	0xbf12f8f2	-0.5741111
129	0x3ea94cd4	0.33066428
130	0xbf207b5a	-0.6268822
131	0xbd4931f0	-0.04911989
132	0xbe1def42	-0.15423301
133	0xbe0cfd82	-0.1376858
134	0xbdf33b2a	-0.11876519
135	0xbd948347	-0.07251602
136	0x3d9634f5	0.073343195
137	0xbccb4803	-0.024814611
138	0x3d4b8949	0.049691472
139	0x3ec903d2	0.39260727
140	0xbe5471ec	-0.20746583
141	0x3cc667e1	0.024219455
142	0xbeb78c30	-0.35849142
143	0x3e3ac276	0.18238243
144	0x3dc94aee	0.09828745
145	0xbf078efe	-0.52952564
146	0xbd0b8f60	-0.03407228
147	0x3e32ba02	0.17453769
148	0xbe31d31a	-0.17365685
149	0x3e7b0332	0.24512938
150	0x3dcddaee	0.10051523
151	0xbba5656d	-0.0050474913
152	0xbcfafb07	-0.030637277
153	0xbd5d99ab	-0.054101627
154	0x3ec3f3b0	0.38271856
155	0xbe970076	-0.2949254
156	0x3cad950e	0.021189239
157	0xbe06f88b	-0.13180749
158	0x3edbe051	0.42944577
159	0x3e29be51	0.16576506
160	0x3edfcb98	0.43710017
161	0xbdddc63e	-0.10828827
162	0xbe7de5b0	-0.2479465
163	0xbddfde12	-0.109310284
164	0xbe244220	-0.1604085
165	0x3e1d7ce4	0.15379673
166	0xbe8b4291	-0.27199224
167	0xbc9714ed	-0.018442595
168	0x3c940fc7	0.01807393
169	0xbd9240ee	-0.071412906
170	0x3e53878e	0.20657179
171	0xbd67254b	-0.05643205
172	0x3e85c79b	0.2612885
173	0xbe416719	-0.18886985
174	0xbd94e1ac	-0.07269606
175	0x3f425006	0.75903356
176	0x3be93b00	0.007117629
177	0xbd7022c4	-0.058626905
178	0xbe7bee33	-0.24602585
179	0x3d6e3c88	0.058163196
180	0x3e2f4c6e	0.17119
181	0xbbd73a56	-0.0065682335
182	0x3c1526cc	0.009103488
183	0xbe84efeb	-0.25964293
184	0xbd663e77	-0.056211915
185	0xbebdbeb5	-0.3705956
186	0x3d71d814	0.05904396
187	0xbece1f88	-0.4025843
188	0x3d9a24e2	0.07526566
189	0x3ddb529f	0.10709118
190	0xbf657cfa	-0.89643824
191	0xbdf6da32	-0.12053336
192	0x3c856f00	0.01628828
193	0x3d3c05b0	0.04590386
194	0x3e73ec08	0.23820508
195	0xbdf2f4e1	-0.11863113
196	0x3d84dffe	0.064880356
197	0xbd376a31	-0.044779006
198	0xbe2bce7c	-0.16777986
199	0x3eb93f75	0.36181226
200	0xbdb58c71	-0.08864678
201	0x3eabe365	0.33571926
202	0xbe258c78	-0.16166866
203	0xbe84a9c4	-0.2591077
204	0xbdb521b3	-0.08844318
205	0x3c868aa1	0.016423525
206	0xbe1486d0	-0.14504552
207	0xbd4b57c4	-0.049644247
208	0xbcb52858	-0.022113964
209	0xbd6ca504	-0.05777456
210	0x3a0a5825	0.0005277417
211	0xbcf42282	-0.02980161
212	0xbbad5457	-0.005289595
213	0x3bf42667	0.007450867
214	0x3de71fb0	0.11285341
215	0x3e25317a	0.16132155
216	0xbdf85caa	-0.12127049
217	0x3d0a99dd	0.03383814
218	0xbec9fa99	-0.39449003
219	0xbd10b613	-0.03532989
220	0x3ea0f838	0.31439376
221	0xbe7b7459	-0.24556102
222	0x3d9614b0	0.073281646
223	0xbb2fe200	-0.0026837587
224	0x3e6e5c3a	0.23277369
225	0x3e3801e4	0.17969471
226	0x3e20bf75	0.15698035
227	0xbbc35d55	-0.005962054
228	0x3ef345da	0.4751423
229	0x3ed11cf2	0.40842396
230	0xbe00ae90	-0.1256659
231	0x3e110fc5	0.14166172
232	0x3e02c706	0.12771234
233	0xbf0180cb	-0.5058715
234	0x3d925167	0.071444325
235	0xbe1ef310	-0.15522408
236	0x3e14591c	0.14487118
237	0x3e069916	0.13144335
238	0xbdd897ca	-0.105758265
239	0x3da9b8f8	0.08287233
240	0x3dc876af	0.09788262
241	0x3e88a857	0.26690933
242	0xbc25a96e	-0.010111196
243	0xbddfa7a4	-0.10920647
244	0x3dd24d04	0.10268596
245	0xbe9b7dea	-0.30369502
246	0x3d1de076	0.03854414
247	0xbda0066d	-0.078137256
248	0x3dde4bd9	0.108543105
249	0xbd11b4fd	-0.035572995
250	0xbf25e094	-0.64795804
251	0xbdd3d5a4	-0.10343483
252	0x3e5a6438	0.21327293
253	0x3d725fb8	0.059173316
254	0xbdba84e2	-0.09107377
255	0xbcd3dc26	-0.02586181

critic.0.bias f4 [64]
0	0x3d903427	0.07041197
1	0xbe65e4cf	-0.22450565
2	0x3e39eb46	0.18156156
3	0xbe9ed378	-0.31020713
4	0xbcc9a071	-0.024612637
5	0x3d4805f0	0.048833787
6	0x3df1660c	0.11787042
7	0x3e56d849	0.20980944
8	0x3e47349e	0.19453666
9	0xbd918802	-0.071060196
10	0x3cd0c45d	0.025484258
11	0x3e0db08c	0.13836879
12	0xbdb3152e	-0.08744274
13	0xbe106ee2	-0.14104798
14	0x3dac09c3	0.084002994
15	0x3e77ac6c	0.24186867
16	0xbd5d4263	-0.05401839
17	0xbe1fb4b5	-0.15596278
18	0x3d9d3283	0.0767565
19	0x3dac8b7a	0.084250405
20	0x3de24f81	0.110503204
21	0xbe91842b	-0.2842115
22	0x3eb9c3e3	0.36282262
23	0x3d476d3d	0.048688162
24	0x3e56c39f	0.20973061
25	0x3e4218e1	0.18954803
26	0x3e86be6c	0.26317155
27	0x3daf2374	0.08551684
28	0xbe1f7ce6	-0.15574989
29	0x3dde158b	0.10843953
30	0x3e70864b	0.23488729
31	0xbd28382d	-0.0410692
32	0xbe90f5af	-0.28312442
33	0x3e3d3d7c	0.18480486
34	0xbef64c8e	-0.48105282
35	0xbe30129c	-0.17194599
36	0x3de3a858	0.111160934
37	0x3d1762bc	0.036959395
38	0x3e022e1c	0.12712902
39	0xbd0ee98c	-0.034890696
40	0xbe855974	-0.2604481
41	0xbe388b75	-0.18021949
42	0x3e0d7805	0.13815315
43	0xbe116706	-0.14199457
44	0x3eb9f2e2	0.36318117
45	0xbe323579	-0.1740321
46	0x3e24072e	0.16018364
47	0xbc14205f	-0.009040921
48	0xbe0267fc	-0.1273498
49	0xbc1156b1	-0.0088707665
50	0x3f62fa9c	0.8866365
51	0xbe2feaae	-0.17179367
52	0x3e1732c6	0.14765462
53	0x3e30172d	0.17196341
54	0xbe023b92	-0.12718037
55	0x3e5749db	0.21024267
56	0xbe9ee113	-0.31031093
57	0x3dc9712a	0.098360375
58	0x3c804839	0.015659438
59	0x3dcfbd7e	0.10143565
60	0x3e22f320	0.15913057
61	0xbea5ef59	-0.3240917
62	0xbe5398ea	-0.20663801
63	0x3df61360	0.12015414

critic.2.weight f4 [64, 64]
0	0xbdcc4011	-0.09973157
1	0xbe1189df	-0.1421275
2	0x3de22101	0.11041451
3	0x3d5cee03	0.053937923
4	0x3eb65273	0.3560978
5	0x3d56be7f	0.052427765
6	0xbdf4ba17	-0.11949556
7	0xbca1c0f7	-0.019745333
8	0x3e6e8fd7	0.23297058
9	0xbe0f40de	-0.13989589
10	0xbe489e35	-0.19591601
11	0x3dc713ee	0.09720598
12	0xbd239acf	-0.03994256
13	0xbd82d3e3	-0.063880704
14	0x3d184980	0.03717947
15	0x3e67d372	0.22639254
16	0xbb21b67d	-0.0024675422
17	0xbea13943	-0.31489
18	0xbdcffa65	-0.10155181
19	0xbde45fa8	-0.111510575
20	0xbe17402f	-0.14770578
21	0x3d809d38	0.06279987
22	0xbd20e13a	-0.039277293
23	0x3e59e67e	0.21279332
24	0xbd6c5962	-0.05770243
25	0xbdd1d90c	-0.102464765
26	0xbcec06e8	-0.028811887
27	0x3d65355b	0.055959087
28	0x3e729e9f	0.23693322
29	0xbd34bea3	-0.044127118
30	0x3e8fe57d	0.28104773
31	0xbcf9d20d	-0.030495668
32	0x3d31dd1d	0.04342376
33	0x3d302379	0.04300258
34	0xbde56154	-0.112002045
35	0xbe89fdd0	-0.26951456
36	0xbd7c3606	-0.06157496
37	0xbe0d8ad3	-0.13822488
38	0x3d9827d9	0.07429475
39	0xbd20c8bf	-0.039253946
40	0xbd058818	-0.032600492
41	0xbe4008de	-0.18753383
42	0xbbd13278	-0.00638419
43	0xbd3c28fa	-0.045937516
44	0x3d89fd7c	0.067378014
45	0xbe59457b	-0.21217911
46	0x3dbcba31	0.09215201
47	0xbe0d5513	-0.13801984
48	0xbcba5c41	-0.022749068
49	0x3d8edb89	0.06975467
50	0xbd1e7cb3	-0.03869314
51	0x3e1af9ca	0.1513435
52	0x3db5e2f1	0.08881176
53	0x3d1bc01c	0.038025007
54	0x3bab385c	0.0052252244
55	0x3e883e6c	0.26610124
56	0xbd34eed0	-0.04417306
57	0x3e313a72	0.17307451
58	0x3e79336d	0.24336024
59	0xbdb22897	-0.08699148
60	0x3e04d0c0	0.12970257
61	0xbd9cd767	-0.07658272
62	0xbcd410e4	-0.02588696
63	0xbdce8bfb	-0.10085293
64	0x3d3e1bca	0.04641322
65	0x3d17800b	0.036987346
66	0x3d622618	0.05521211
67	0xbd8c718b	-0.06857594
68	0x3dab044e	0.083504304
69	0x3e438f98	0.19097745
70	0x3e4c01b5	0.19922526
71	0xbe432b24	-0.19059426
72	0xbe390bfb	-0.18070976
73	0xbdef40d4	-0.11682287
74	0x3da64f14	0.08120552
75	0x3de63760	0.11241031
76	0xbd9cceed	-0.076566555
77	0x3e1d1905	0.15341575
78	0xbd8e1c10	-0.06938946
79	0x3d92ca53	0.071674965
80	0xbdfd8d06	-0.12380414
81	0x3d9be147	0.076113276
82	0xbc3a28de	-0.011362283
83	0xbe048679	-0.12941922
84	0xbcf214d3	-0.029550945
85	0x3ec3cd85	0.38242736
86	0x3b278856	0.002556344
87	0xbe86473a	-0.26226217
88	0x3be58fa6	0.0070056496
89	0xbe3c6ed8	-0.18401659
90	0x3e01482e	0.1262519
91	0xbd42699d	-0.047464002
92	0x3da4125d	0.08011315
93	0x3d8fa1c3	0.070132755
94	0x3de43843	0.111435436
95	0x3d08ca97	0.03339633
96	0x3e2fa31a	0.17152062
97	0x3cb78088	0.022400156
98	0xbdaf1198	-0.085482776
99	0xbdaa875e	-0.083266005
100	0xbd4bb0d4	-0.049729183
101	0xbe35aaf2	-0.17740992
102	0x3d5f10ca	0.05445937
103	0x3dbee5ab	0.093211494
104	0x3d5e524e	0.05427771
105	0xbc3f975b	-0.011693801
106	0x3e0ed022	0.13946584
107	0x3d9991a8	0.07498485
108	0x3cac5bc7	0.021039857
109	0x3d7dc484	0.06195499
110	0x3e2f1065	0.17096098
111	0xbb9e23c8	-0.004826043
112	0x3d867e23	0.065670274
113	0x3db556a3	0.08854415
114	0x3d07a055	0.03311189
115	0xbd4960d3	-0.049164604
116	0xbd6b6e36	-0.057478152
117	0xb9cc39ee	-0.00038953073
118	0x3d06545d	0.0327953
119	0x3d7168d0	0.058937848
120	0x3e12b16c	0.14325494
121	0xbe1ccbf2	-0.15312174
122	0xbd83aad4	-0.06429067
123	0xbe04d4ad	-0.12971754
124	0xbdab2651	-0.08356918
125	0x3cc91eb7	0.024550779
126	0x3e505405	0.20344551
127	0x3cf47287	0.029839767
128	0xbf38edd4	-0.72237897
129	0xbd31dee0	-0.04342544
130	0xba2adf01	-0.00065182155
131	0xbc822348	-0.015885964
132	0x3e34c36e	0.17652676
133	0x3dbaafeb	0.09115585
134	0x3e2e82c8	0.17042077
135	0xbdb7e9a2	-0.08980109
136	0xbea052ef	-0.31313273
137	0xbde15248	-0.11002022
138	0x3d83b370	0.06430709
139	0xbd70e61a	-0.058813192
140	0x3dd978c1	0.10618735
141	0xbe359118	-0.1773113
142	0xbec3e73b	-0.38262352
143	0xbeb4560d	-0.35221902
144	0xbd745876	-0.059654675
145	0xbe59f66d	-0.2128541
146	0x3c0823ba	0.008309299
147	0x3d88dd31	0.06682814
148	0xbd9755f4	-0.07389441
149	0xbde3826b	-0.1110886
150	0x3dd49661	0.10380245
151	0x3cfde743	0.030994063
152	0x3df9595f	0.12175249
153	0xbceabcec	-0.028654538
154	0xbd002355	-0.031283695
155	0x3d9622b7	0.0733084
156	0x3d8e4e05	0.06948475
157	0x3dad70de	0.08468793
158	0x3d735364	0.0594057
159	0x3c9578a4	0.018246002
160	0xbc592755	-0.013254006
161	0x3d59039d	0.05298196
162	0xbcf7f543	-0.030268317
163	0xbe13b871	-0.14425828
164	0xbd179e92	-0.03701646
165	0x3dbda09f	0.09259152
166	0x3d17dfd3	0.03707869
167	0x3bfe65ba	0.0077635916
168	0x3d808a3b	0.06276365
169	0xbe1a4f35	-0.15069278
170	0xbd3bd8cd	-0.045861054
171	0xbca4a831	-0.020099731
172	0x3d530b56	0.051524483
173	0x3f120be4	0.57049394
174	0x3cf9e224	0.03050334
175	0xbcd7f40c	-0.026361488
176	0x3e2c6642	0.16835883
177	0x3d31d63a	0.043417193
178	0x3e0c2dc1	0.13689329
179	0x3e8b7c0c	0.27243078
180	0x3e11541b	0.1419224
181	0xbdb3017f	-0.0874052
182	0x3c81d36f	0.01584789
183	0xbe8ced52	-0.2752481
184	0x3d190def	0.037366804
185	0xbcd6fdcc	-0.026244067
186	0x3cf37f29	0.02972372
187	0x3d533bde	0.051570766
188	0xbe34931d	-0.17634244
189	0xbdbaf158	-0.09128064
190	0x3e254957	0.16141258
191	0xbcfaa908	-0.030598179
192	0xbe2ab458	-0.16670358
193	0x3d0b0a54	0.033945397
194	0x3e586d86	0.2113553
195	0xbe10286c	-0.1407792
196	0x3e505428	0.20344603
197	0xbd33ba25	-0.043878693
198	0x3da72fba	0.081634
199	0xbcab73a5	-0.020929167
200	0x3ce4adcc	0.027914904
201	0xbcc4a80b	-0.02400591
202	0x3d828186	0.06372361
203	0x3d834a05	0.064106025
204	0xbe0f0abf	-0.13968943
205	0x3a619d3b	0.0008606498
206	0xbe1ab041	-0.15106298
207	0x3dad261c	0.084545344
208	0xbdd644fe	-0.10462378
209	0x3d873d77	0.0660352
210	0xbd80c24e	-0.06287061
211	0x3d0057ca	0.031333722
212	0xbdbde860	-0.09272838
213	0xbe6788ad	-0.22610731
214	0x3d20803a	0.039184786
215	0xbd24c52d	-0.040227104
216	0x3d759061	0.059952144
217	0xbde94108	-0.11389357
218	0x3e9a4282	0.30128866
219	0x3c7a29eb	0.015268783
220	0x3e22fd81	0.15917017
221	0xbe61a10b	-0.2203409
222	0x3e4be778	0.19912517
223	0xbd729950	-0.05922824
224	0xbda710a0	-0.08157468
225	0x3e628856	0.2212232
226	0xbdcd44e3	-0.10022905
227	0xbe223e9c	-0.15844196
228	0xbda60d1c	-0.08107969
229	0xbe0ac05e	-0.13549945
230	0x3e30405a	0.17212048
231	0x3dcfe78e	0.101515874
232	0xbe305960	-0.17221594
233	0xbd9a9b29	-0.07549126
234	0x3e05fa2b	0.13083713
235	0x3d75c23f	0.0599997
236	0xbc8aa335	-0.016923526
237	0xbe5087da	-0.20364323
238	0xbcf30f2e	-0.029670324
239	0x3d1b2bc1	0.037883524
240	0x3dcff477	0.1015405
241	0x3e37ca8d	0.1794836
242	0x3d86ded0	0.06585467
243	0xbe014cab	-0.12626903
244	0xbd002420	-0.03128445
245	0x3d36c00b	0.04461674
246	0x3e161e74	0.14660054
247	0xbcfbbd59	-0.030729936
248	0x3e06e771	0.13174225
249	0xbe125e4c	-0.14293784
250	0x3ccfb77a	0.025356043
251	0xbc09f505	-0.008420234
252	0xbe431e7c	-0.19054598
253	0x3dc8857f	0.09791087
254	0xbed47466	-0.41495055
255	0x3df12556	0.117746994

critic.2.bias f4 [64]
0	0x3e015aeb	0.12632339
1	0x3d80952a	0.06278451
2	0x3be216e1	0.0068997
3	0x3e279e36	0.16368946
4	0x3cbd57e8	0.023113206
5	0xbdb51085	-0.088410415
6	0x3d43cd8d	0.04780345
7	0xbe08fb34	-0.13377076
8	0xbdad92db	-0.08475276
9	0x3e65c7a6	0.22439441
10	0x3e51e2da	0.20496693
11	0x3d51a298	0.051180452
12	0x3d7d6050	0.06185943
13	0x3e0f34f7	0.13985048
14	0xbd0b91a4	-0.03407444
15	0x3df2e9c4	0.118609935
16	0xbe119b97	-0.14219509
17	0x3d454878	0.048164815
18	0xbc095b76	-0.008383622
19	0xbc85a348	-0.01631321
20	0x3a0a1419	0.0005267277
21	0xbde19763	-0.11015203
22	0xbe0cb89b	-0.13742296
23	0xbcb8a230	-0.022538275
24	0xbd544437	-0.051822867
25	0xbc9f59e3	-0.019452041
26	0x3d8fab0c	0.070150465
27	0xbd18468e	-0.03717666
28	0xbd58b59e	-0.05290758
29	0xbd0380ce	-0.03210526
30	0x3d19ce7e	0.037550442
31	0xbc3c6ab2	-0.0115000475
32	0xbd3c9e75	-0.046049554
33	0x3d6b4352	0.05743725
34	0xbc8671b7	-0.016411645
35	0x3c903f88	0.017608419
36	0x3d610f93	0.054946493
37	0x3bf61ad7	0.007510524
38	0x3e77cfba	0.24200335
39	0xbd82c272	-0.06384744
40	0x3da828d4	0.08210912
41	0xbdec4f78	-0.11538595
42	0xbd5bb43e	-0.05363869
43	0xbdbe7ef5	-0.09301559
44	0xbdf1ff76	-0.118163034
45	0xb988c27b	-0.0002608484
46	0xbe5a52f4	-0.21320707
47	0x3cc3c023	0.023895329
48	0x3e13e129	0.1444136
49	0xbe882a42	-0.2659474
50	0xbcd47232	-0.025933359
51	0x3dc2ae54	0.09505907
52	0x3c777543	0.015103641
53	0x3c9896ca	0.01862659
54	0xbd299462	-0.041401275
55	0xbb2ee754	-0.0026688175
56	0x3dd2e073	0.102967165
57	0xbcb67b6f	-0.022275655
58	0x3c2d3b48	0.010573216
59	0xbdcf5b25	-0.10124806
60	0x3c733dc1	0.014846266
61	0x3cd905b1	0.026491972
62	0xbd8db895	-0.06919972
63	0xbb090dd8	-0.0020912793

critic.4.weight f4 [1, 64]
0	0x3d32db80	0.043666363
1	0xbdc84050	-0.09777892
2	0x3d8fe01f	0.070251696
3	0x3e05aef0	0.13055015
4	0xbca164eb	-0.019701442
5	0xbdc274b0	-0.094949126
6	0x3ccee5ba	0.025256027
7	0x3bf7e3dc	0.0075650048
8	0xbe661ccd	-0.22471924
9	0x3de319b7	0.11088889
10	0x3e5b9a48	0.21445572
11	0x39d59ca4	0.00040743232
12	0x3c0798d0	0.008276179
13	0xb8d3e75e	-0.000101043595
14	0xbe3176db	-0.17330496
15	0x3e2730e4	0.16327244
16	0xbd560e65	-0.05225982
17	0x3d0446d5	0.032294113
18	0xbe5b904e	-0.21441767
19	0x3cfc12ff	0.030770777
20	0x3e1bc1e8	0.15210688
21	0xbdcaa7cb	-0.09895285
22	0xbe1301e7	-0.14356194
23	0x3cd7f8f1	0.026363822
24	0xbbf74711	-0.0075463136
25	0xba9929c8	-0.0011685425
26	0x3e29f840	0.16598606
27	0x3963223c	0.0002166116
28	0x3d75f655	0.060049374
29	0xbe20fb83	-0.15720944
30	0x3c06f413	0.008236903
31	0xbd04353a	-0.032277323
32	0xbdf44781	-0.11927701
33	0xbdc09b7a	-0.09404655
34	0x3df75d55	0.120783485
35	0x3d9e9012	0.07742323
36	0x3caa1f53	0.02076689
37	0x3e7492d6	0.23884138
38	0x3e25aed0	0.16179967
39	0x3e4145d7	0.18874298
40	0x3de0f4ce	0.10984193
41	0xbd04b315	-0.03239735
42	0x3d29d1f8	0.041460007
43	0xbd4f7e22	-0.0506574
44	0xbd125e82	-0.03573466
45	0x3ac68175	0.0015144782
46	0xbe00d52f	-0.12581323
47	0xbd1a39b4	-0.037652686
48	0x3dfa059c	0.12208101
49	0xbe0bce98	-0.13653028
50	0x3df63087	0.120209746
51	0x3e3ecb61	0.1863227
52	0x3e290795	0.16506799
53	0x3b4a969a	0.003091252
54	0xbc30fdff	-0.010802745
55	0x3daba450	0.083809495
56	0xbdea7d6b	-0.11449703
57	0xbe74e32c	-0.23914784
58	0x3c845bde	0.016157087
59	0x3cd9739e	0.026544388
60	0x3d36d68d	0.044638205
61	0xbbce4af6	-0.006295557
62	0xbdb12424	-0.086494714
63	0x3d052492	0.03250558
