models/001_AimMastery/001_AimMastery_best.pth (torch, 46962 bytes, 11 tensors)

actor.0.weight f4 [64, 15]
-0.21312307 0.14138514 0.2728744 -0.28462937 -0.73842597 0.054936137 0.11038934 0.0039039983
0.21293037 0.17684253 -0.36050174 0.0031442642 -0.21090257 -0.11512925 -0.13107516 0.2107775
0.31301376 -0.017323727 0.06248814 0.9125181 0.14077586 -0.08010342 -0.1428232 -0.024301346
0.2964883 0.15687554 -0.20833099 -0.12763602 -0.044636145 -0.13231386 0.10680085 0.32983175
0.19038416 0.42034057 -0.2237721 0.15455285 -0.08378282 0.3719046 -0.14587697 0.027630694
0.2379992 0.25742808 0.014658511 -0.24974497 0.045806676 -0.10826597 0.17197034 -0.3539242
-0.13761659 0.07538335 0.16311835 -0.0042999377 -0.07561812 -0.3574172 -0.17707849 0.18551843
0.06238088 -0.22135416 0.17503053 0.08113164 0.0707964 -0.1312668 0.1217238 0.1161117
-0.12529758 -0.14247818 0.23763885 -0.27649122 0.4439035 0.12203713 -0.07312176 -0.20839372
0.22751606 0.16719466 -0.22150153 0.14338857 0.23338157 -0.38531503 -0.23033053 -0.4925068
0.09798552 -0.07291703 -0.123760015 0.11707236 -0.24101509 -0.17271297 0.021134317 -0.08775017
0.2504916 -0.24702157 -0.17971414 -0.18077014 0.30890587 -0.12426343 -0.46330714 -0.039123558
0.16454083 -0.22075108 0.32640892 -0.15318924 0.11605758 -0.11748856 0.09784034 0.09667438
0.1962054 -0.04406194 0.1481657 0.10816959 0.29599333 1.0982026 -0.19922082 -0.011455441
-0.12238689 0.15096015 -0.20563781 0.22748798 -0.016485944 -0.023974985 -0.10012168 -0.25771776
0.1339884 0.36108226 -0.15418062 0.27264246 0.59155995 0.32505503 -0.07982753 0.16809383
-0.14628476 0.36128268 0.055747844 -0.066202626 -0.118336916 -0.043907896 0.18946335 -0.2677823
-0.28364503 0.102060996 -0.1590973 -0.24395685 -0.35498446 0.08753031 -0.28174067 0.23615293
-0.04926192 -0.37187323 -0.16708748 -0.06402348 0.118905604 0.029464662 0.10450793 0.3595304
0.022211451 -0.08959944 0.7988294 0.3363206 -0.08029269 -0.010045286 -0.35515627 0.231067
0.1763092 0.12542295 -0.067428336 0.25437143 -0.22054285 0.12128422 0.33654043 -0.35817972
0.16063356 -0.557709 -0.016873848 -0.118858434 0.12268701 -0.21080886 0.3448803 -0.16990668
-0.088047326 -0.07154752 -0.19236624 -0.17444925 -0.34026068 0.10527133 0.07944083 -0.09326566
-0.5542488 -0.36944133 0.10107279 -0.16677217 -0.16282381 -0.25643018 -0.44140992 -0.096851245
0.22145772 0.022954345 -0.031784534 0.23875119 0.19823135 0.033331804 0.28053945 0.75240237
0.24900751 -0.047910213 0.20413326 -0.12507385 0.16987742 -0.09189474 -0.17365217 -0.163899
-0.0681652 -0.1256845 0.26046556 0.46015927 0.117562294 0.08458809 -0.7859319 0.35599548
-0.07416978 0.23803404 0.089161575 0.197754 0.046249934 -0.17256734 0.0744662 0.18633175
0.012743264 0.25585708 0.011552614 -0.087140664 0.19278304 -0.912629 -0.04179132 -0.050523862
-0.15413192 -0.2850184 0.08317212 0.05883362 0.060126424 -0.031675234 -0.12702584 -0.069194406
0.104855485 0.04242918 -0.15222141 0.1301089 0.9750953 -0.044474855 -0.062616564 0.14574562
-0.0015111248 0.038058665 0.3946492 0.23527318 0.18591851 0.06948379 0.11703071 0.12287261
00000000: ef3c 5abe 44c7 103e 31b6 8b3e f1ba 91be
00000010: 7c09 3dbf b704 613d ce13 e23d 39da 7f3b
00000020: 6b0a 5a3e 3516 353e af93 b8be 0010 4e3b
00000030: d8f6 57be e2c8 ebbd 9138 06be 0fd6 573e
00000040: 5743 a03e 7dea 8dbc 90f3 7f3d c99a 693f
00000050: 8c27 103e 430d a4bd 3f40 12be 9e13 c7bc
00000060: 51cd 973e fba3 203e b854 55be 04b3 02be
00000070: 64d4 36bd 497d 07be 67ba da3d b5df a83e
00000080: 11f4 423e e136 d73e 8324 65be 1a43 1e3e
00000090: 5496 abbd 486a be3e c660 15be c459 e23c
000000a0: 10b6 733e 9dcd 833e 402a 703c 25bd 7fbe
000000b0: c89f 3b3d 8dba ddbd fe18 303e 8e35 b5be
000000c0: 5deb 0cbe 9662 9a3d 7f08 273e 7ee6 8cbb
000000d0: acdd 9abd 63ff b6be 1054 35be 8bf8 3d3e
000000e0: 1883 7f3d aaaa 62be 343b 333e 5828 a63d
000000f0: b4fd 903d ce6a 06be 544a f93d f9cb ed3d
00000100: 024e 00be cde5 11be 9957 733e 4290 8dbe
00000110: 5247 e33e 9aee f93d dcc0 95bd 2a65 55be
00000120: f8f9 683e 1435 2b3e 4cd1 62be 74d4 123e
00000130: 94fb 6e3e 0348 c5be c4db 6bbe da29 fcbe
00000140: a2ac c83d 8655 95bd e475 fdbd a2c3 ef3d
00000150: a9cc 76be abdb 30be e021 ad3c 5cb6 b3bd
00000160: 6f40 803e 39f3 7cbe fc06 38be cf1b 39be
00000170: e928 9e3e d37d febd 9836 edbe 0640 20bd
00000180: 647d 283e 920c 62be 121f a73e a4dd 1cbe
00000190: 99af ed3d d89d f0bd 8460 c83d 38fd c53d
000001a0: 12ea 483e 4b7a 34bd c0b8 173e 0588 dd3d
000001b0: 708c 973e e791 8c3f 8b00 4cbe 9aaf 3bbc
000001c0: faa5 fabd 4c95 1a3e b892 52be 9cf2 683e
000001d0: 880d 87bc 3067 c4bc 980c cdbd 95f3 83be
000001e0: 4134 093e c6df b83e 86e1 1dbe cb97 8b3e
000001f0: 7970 173f 9d6d a63e 9e7c a3bd ca20 2c3e
00000200: accb 15be 0bfa b83e da57 643d 3e95 87bd
00000210: a05a f2bd c4d8 33bd ae02 423e c31a 89be
00000220: ec39 91be 5b05 d13d 67ea 22be d3cf 79be
00000230: 86c0 b5be 1743 b33d 5040 90be 13d2 713e
00000240: dec6 49bd 2b66 bebe fb18 2bbe be1e 83bd
00000250: c884 f33d e05f f13c 4108 d63d 5e14 b83e
00000260: caf4 b53c e97f b7bd 1580 4c3f 3732 ac3e
00000270: 7e70 a4bd fc94 24bc 0bd7 b5be d49c 6c3e
00000280: 668a 343e e06e 003e de17 8abd f93c 823e
00000290: fcd5 61be dc63 f83d 074f ac3e 5563 b7be
000002a0: 207d 243e 04c6 0ebf 063b 8abc 0d6c f3bd
000002b0: 5443 fb3d 47de 57be 2794 b03e 04fc 2dbe
000002c0: 2852 b4bd 8287 92bd a8fb 44be d3a2 32be
000002d0: a636 aebe 7f98 d73d e0b1 a23d 1102 bfbd
000002e0: 40e3 0dbf 6a27 bdbe 40ff ce3d 53c6 2abe
000002f0: 49bb 26be d14a 83be 7b00 e2be f259 c6bd
00000300: d0c5 623e c00a bc3c 8030 02bd 317b 743e
00000310: 29fd 4a3e ee86 083d dea2 8f3e 719d 403f
00000320: d3fb 7e3e 803d 44bd 4f08 513e 5c13 00be
00000330: 59f4 2d3e 4f33 bcbd e0d1 31be 24d5 27be
00000340: 329a 8bbd 70b3 00be be5b 853e ff99 eb3e
00000350: 80c4 f03d 853c ad3d d532 49bf 0a45 b63e
00000360: 53e6 97bd 32bf 733e 589a b63d 0680 4a3e
00000370: 9270 3d3d 7eb5 30be bc81 983d c0cd 3e3e
00000380: 20c9 503c b3ff 823e 2d47 3d3c ce76 b2bd
00000390: eb68 453e 0ea2 69bf 602d 2bbd 1cf2 4ebd
000003a0: c2d4 1dbe efed 91be 2556 aa3d 86fb 703d
000003b0: 2047 763d e4bd 01bd 1013 02be ccb5 8dbd
000003c0: 79be d63d 38ca 2d3d eedf 1bbe 443b 053e
000003d0: d89f 793f 442b 36bd 1d3d 80bd 573e 153e
000003e0: ef10 c6ba 67e3 1b3d 760f ca3e 74eb 703e
000003f0: 6c61 3e3e 844d 8e3d ccad ef3d a3a4 fb3d

actor.0.bias f4 [64]
-0.051898338 -0.008127588 0.1844569 0.16869603 -0.15557589 0.06180975 0.18468274 -0.21613248
-0.08622157 0.13581552 0.06748876 0.17561826 0.07409228 -0.19538966 -0.055416152 -0.20722184
0.0084479125 0.15092336 0.05020408 -0.23956156 -0.26057643 -0.20056856 0.0015969472 0.22131246
-0.21882933 0.18992148 -0.31233868 -0.31118533 0.04520636 -0.15895991 -0.25092795 -0.16919315
-0.034660395 0.20809402 0.3032542 -0.18963645 0.24544969 -0.043507066 0.23006678 0.16618736
-0.23519729 0.110559426 -0.057174075 0.2565296 -0.17509381 -0.24192418 -0.12778735 -0.21251746
-0.2110085 -0.10460319 -0.060940064 -0.1886933 -0.10394867 0.22296108 0.012585854 0.08499805
-0.1585862 -0.096008606 0.21621025 -0.05910104 0.23608321 -0.22205752 0.23420727 0.26341927
00000000: 5a93 54bd 9329 05bc 45e2 3c3e a7be 2c3e
00000010: 494f 1fbe 382c 7d3d 791d 3d3e d551 5dbe
00000020: ef94 b0bd 3913 0b3e 8c37 8a3d 46d5 333e
00000030: b1bd 973d 3a14 48be 0cfc 62bd f631 54be
00000040: 1d69 0a3c a78b 1a3e cba2 4d3d a04f 75be
00000050: 466a 85be d861 4dbe a850 d13a bc9f 623e
00000060: cc14 60be c77a 423e dbea 9fbe af53 9fbe
00000070: 4e2a 393d 63c6 22be a179 80be f840 2dbe
00000080: 0ff8 0dbd 9916 553e 2244 9b3e 0f30 42be
00000090: 2a57 7b3e 7734 32bd a096 6b3e 052d 2a3e
000000a0: 8fd7 70be fb6c e23d 5d2f 6abd d957 833e
000000b0: cb4b 33be f9ba 77be b0da 02be 2d9e 59be
000000c0: 9d12 58be 333a d6bd 4a9c 79bd d138 41be
000000d0: 0ae3 d4bd e94f 643e e634 4e3c 7513 ae3d
000000e0: 6c64 22be 29a0 c4bd 3866 5d3e ef13 72bd
000000f0: ccbf 713e 0c63 63be 08d4 6f3e e4de 863e

actor.2.weight f4 [64, 64]
-0.0116880955 0.10688923 -0.07694056 0.11872564 -0.16144828 -0.09723843 0.097716734 0.2234666
-0.13757078 -0.07192673 0.11576432 -0.014940917 -0.09445669 -0.034684084 0.08381177 -0.12760948
0.036710046 -0.13111626 -0.03535166 -0.0031367014 0.15015449 -0.1588952 0.07412704 -0.033046175
0.0047213277 -0.043558832 0.16468844 -0.05647917 -0.0029658736 0.13780697 -0.07200598 0.07430687
-0.011724494 -0.052842293 0.042521868 -0.031153727 0.044884223 -0.036682576 -0.103763685 -0.065850385
0.029456131 0.14073712 -0.085684866 0.0058894106 -0.11551688 0.021041827 -0.03366932 0.0388992
0.0028575691 0.03393309 0.12509201 -0.047460232 0.13545068 0.04136919 -0.023502871 -0.011557801
0.09520966 0.064498976 -0.03635501 -0.036605805 0.11255042 -0.10015269 0.15280311 0.08581299
-0.13501845 0.07316549 -0.053367466 -0.08636677 0.001490006 -0.041037183 -0.03670573 0.15371315
-0.008141843 0.08712548 0.04928591 -0.09901489 -0.056503803 0.0112454835 0.018118182 -0.066503346
0.027789537 0.080798596 -0.09164605 -0.124225184 -0.025844904 0.03386193 0.08406911 -0.06408102
0.049755417 -0.05133382 -0.073976904 -0.02328573 0.12144772 -0.13046886 0.06470254 0.09206848
-0.09843433 0.09218819 0.05751785 0.057176173 0.08563003 0.09672763 -0.048807707 -0.021751434
-0.05443829 -0.043141276 -0.21906762 0.09419147 0.075511314 -0.08477446 -0.12937966 0.022716127
-0.010033206 0.047490682 -0.06088165 -0.07189693 -0.020873735 -0.12386534 -0.005395329 0.0809417
0.04119658 -0.10254684 0.047971927 0.06345229 -0.11043822 0.19364774 0.1356307 0.08467007
-0.16598052 0.12508799 0.02763188 -0.066810004 -0.14369997 0.021187942 0.041930143 0.23944193
0.03611777 0.014409817 0.12362214 -0.16150023 -0.11892488 -0.048518278 0.09443332 -0.08333573
0.17822167 -0.088668406 0.07346738 -0.10525646 0.03671796 -0.009252289 -0.06652761 0.11862607
-0.031941086 -0.057561 0.007774692 -0.018984362 0.06466314 0.04692962 0.029339254 0.08224581
0.021252425 0.035629217 0.07421925 -0.03181585 -0.010236957 -0.095227756 0.089058116 -0.11937965
0.07671321 -0.055195324 0.04626143 -0.114675105 0.038937878 -0.057265647 -0.0058332165 0.09170383
0.0129770255 -0.01984277 -0.046404548 -0.0670287 -0.045686368 -0.042465173 -0.010983616 0.058205172
-0.07525134 0.16146882 -0.18683414 0.05006377 -0.012891662 0.14590165 -0.07191515 0.016966064
-0.053935695 -0.17767234 -0.043133337 0.09529204 -0.06783191 -0.032359794 0.045785096 0.06977947
-0.037439663 0.018037232 -0.10741842 -0.18410283 -0.07388553 -0.02684237 -0.06739703 0.012326602
0.18143119 0.02327889 -0.10642164 -0.07616403 0.16751924 -0.024431579 0.11883726 0.097931266
0.07626687 -0.009404383 0.09148426 -0.019787548 -0.06523696 -0.048298646 -0.0012224911 -0.10073481
-0.03601539 -0.09836915 -0.19994861 0.082373425 0.14506994 0.09153496 0.022238903 -0.039648756
-0.082985304 0.11789419 -0.05815807 -0.1193167 -0.070962064 0.032472935 -0.0034792956 -0.13977711
0.005233593 0.032066822 -0.07810833 0.053064156 -0.040457714 -0.025381528 0.049452808 -0.034781702
0.0073302025 -0.03226021 -0.05584354 0.108100854 -0.019022223 -0.13787788 0.07228183 -0.14293687
00000000: 6d7f 3fbc bee8 da3d 0393 9dbd 6e26 f33d
00000010: b352 25be f124 c7bd b61f c83d 6ed4 643e
00000020: 5bdf 0cbe 524e 93bd d815 ed3d bfca 74bc
00000030: 8272 c1bd e610 0ebd 81a5 ab3d 0fac 02be
00000040: 465d 163d 5743 06be e7cc 10bd 1e91 4dbb
00000050: 19c2 193e 6cb5 22be ebcf 973d 6d5b 07bd
00000060: 5eb5 9a3b bf6a 32bd 16a4 283e b456 67bd
00000070: 1a5f 42bb 451d 0d3e df77 93bd 332e 983d
00000080: 1818 40bc 2971 58bd 692b 2e3d 1a36 ffbc
00000090: 85d8 373d 7840 16bd 0e82 d4bd 91dc 86bd
000000a0: fc4d f13c 641d 103e 8c7b afbd f5fb c03b
000000b0: 1d94 ecbd e95f ac3c d7e8 09bd c454 1f3d
000000c0: 0e46 3b3b 6cfd 0a3d 1f18 003e a965 42bd
000000d0: 95b3 0a3e bd72 293d 1889 c0bc ee5c 3dbc
000000e0: 48fd c23d 0a18 843d fee8 14bd f8ef 15bd
000000f0: d680 e63d db1c cdbd 6b78 1c3e b9be af3d
00000100: 4742 0abe cad7 953d d897 5abd 10e1 b0bd
00000110: 4e4c c33a 9b16 28bd bf58 16bd fb66 1d3e
00000120: 5d65 05bc d86e b23d 06e0 493d 52c8 cabd
00000130: 8870 67bd fa3e 383c 956c 943c e832 88bd
00000140: e2a6 e33c bc79 a53d edb0 bbbd c669 febd
00000150: b1b8 d3bc cfb2 0a3d 6d2c ac3d e93c 83bd
00000160: 56cc 4b3d 6943 52bd 3481 97bd b7c1 bebc
00000170: 95b9 f83d a199 05be c482 843d 668e bc3d
00000180: f097 c9bd 29cd bc3d d697 6b3d 9031 6a3d
00000190: cc5e af3d 2319 c63d 97ea 47bd 1030 b2bc
000001a0: affa 5ebd e8b4 30bd 4353 60be 75e7 c03d
000001b0: ada5 9a3d 3b9e adbd 1a7c 04be 2c17 ba3c
000001c0: 5162 24bc 9785 423d 095f 79bd b33e 93bd
000001d0: 65ff aabc 1dad fdbd 4dcb b0bb c3c4 a53d
000001e0: bfbd 283d 1404 d2bd 367e 443d 46f3 813d
000001f0: 6f2d e2bd 984b 463e c6e2 0a3e 8067 ad3d
00000200: ccf6 29be 1117 003e 415c e23c afd3 88bd
00000210: 1626 13be 5692 ad3c f1be 2b3d 4430 753e
00000220: 3af0 133d 2717 6c3c 9b2d fd3d 5160 25be
00000230: e38e f3bd 1abb 46bd 4266 c13d ecab aabd
00000240: be7f 363e c897 b5bd 1176 963d b390 d7bd
00000250: 9265 163d ea96 17bc a13f 88bd 3af2 f23d
00000260: a8d4 02bd 15c5 6bbd d8c2 fe3b 1885 9bbc
00000270: 1c6e 843d 4639 403d e058 f03c 7e70 a83d
00000280: 9119 ae3c f1ef 113d 4300 983d 5651 02bd
00000290: e9b8 27bc c506 c3bd 1a64 b63d 517d f4bd
000002a0: d11b 9d3d 7e14 62bd a07c 3d3d c8da eabd
000002b0: 537d 1f3d 628f 6abd 9124 bfbb 38cf bb3d
000002c0: 979d 543c 4e8d a2bc b212 3ebd 5846 89bd
000002d0: a121 3bbd f6ef 2dbd a0f4 33bc 8c68 6e3d
000002e0: 601d 9abd 1558 253e 7351 3fbe ab0f 4d3d
000002f0: 8d37 53bc 3e67 153e 4048 93bd 6afc 8a3c
00000300: adeb 5cbd bdef 35be 95ac 30bd 7928 c33d
00000310: 75eb 8abd b48b 04bd 2789 3b3d 8ae8 8e3d
00000320: 555a 19bd d1c2 933c 30fe dbbd 7485 3cbe
00000330: 4c51 97bd 88e4 dbbc 7407 8abd 84f5 493c
00000340: 19c9 393e 5fb3 be3c 97f3 d9bd e3fb 9bbd
00000350: 2a8a 2b3e bc24 c8bc f360 f33d 3090 c83d
00000360: ce31 9c3d d714 1abc 1a5c bb3d 7f19 a2bc
00000370: f59a 85bd cdd4 45bd ff3b a0ba 0d4e cebd
00000380: e084 13bd c475 c9bd 54bf 4cbe 66b3 a83d
00000390: 378d 143e ae76 bb3d 5c2e b63c bc66 22bd
000003a0: 33f4 a9bd 8272 f13d 2837 6ebd 505c f4bd
000003b0: 8f54 91bd 5702 053d e504 64bb bb21 0fbe
000003c0: 8f7e ab3b 8058 033d 43f7 9fbd cd59 593d
000003d0: fdb6 25bd ecec cfbc 078f 4a3d 4277 0ebd
000003e0: 3232 f03b 4823 04bd 32bc 64bd fb63 dd3d
000003f0: 7ed4 9bbc dc2f 0dbe 7f08 943d 0b5e 12be

actor.2.bias f4 [64]
-0.15768433 -0.12540959 -0.094229795 -0.006930943 -0.020245241 -0.074870154 -0.040107302 0.040439963
-0.07809497 0.01801553 -0.09770387 0.0192917 -0.06405297 -0.020518525 -0.13571991 0.0880497
-0.054489583 -0.07473478 0.22468543 -0.04698833 -0.03984559 -0.0070120534 0.14851123 0.042681877
-0.19098422 -0.05759105 0.070210144 -0.038623996 0.027969737 0.17621587 -0.11720751 -0.06925389
0.0296832 0.042881496 -0.1313086 0.0002975893 0.15210891 0.08205688 -0.036163155 0.07254399
-0.041341234 -0.23842892 0.03979205 -0.0389448 0.17364167 0.00021659822 -0.10486956 -0.16569114
0.0109089045 0.024769234 0.07142539 -0.078267425 0.14608553 -0.1885698 0.02511797 -0.06466935
5.4560653e-05 0.027861373 -0.07496289 -0.08018763 -0.018828152 -0.0352894 -0.023172578 0.11481789
00000000: 0078 21be 5f6b 00be 8dfb c0bd f71c e3bb
00000010: 59d9 a5bc 8655 99bd 8e47 24bd 60a4 253d
00000020: 41f0 9fbd 4e95 933c f718 c8bd a109 9e3c
00000030: 342e 83bd 7716 a8bc 29fa 0abe 6753 b43d
00000040: 7830 5fbd 8c0e 99bd f013 663e d676 40bd
00000050: 2135 23bd 5ec5 e5bb 5413 183e 31d3 2e3d
00000060: 5e91 43be 98e4 6bbd 56ca 8f3d 3234 1ebd
00000070: ca20 e53c ef71 343e 7e0a f0bd fcd4 8dbd
00000080: 2f2a f33c 82a4 2f3d c375 06be c205 9c39
00000090: 70c2 1b3e 700d a83d d11f 14bd f291 943d
000000a0: 6d55 29bd b626 74be fdfc 223d 9584 1fbd
000000b0: 1fcf 313e a41e 6339 dac5 d6bd f0aa 29be
000000c0: 43bb 323c d9e8 ca3c 7a47 923d ac4a a0bd
000000d0: 7297 153e 7118 41be 33c4 cd3c 5d71 84bd
000000e0: 0ed8 6438 893d e43c 2586 99bd 6a39 a4bd
000000f0: 7f3d 9abc 9e8b 10bd 6bd4 bdbc a425 eb3d

actor.4.weight f4 [2, 64]
0.026260044 -0.0031061464 0.023390444 0.024710681 0.027582597 -0.0172871 -0.07759603 0.024889208
0.00998098 0.02360064 0.02842586 -0.09364 -0.041971833 -0.013226549 -0.06511673 -0.020391552
-0.02804368 0.06989402 0.09368972 -0.0052412967 -0.011930975 -0.031253558 0.0049895286 -0.041342083
-0.024199963 0.011507615 -0.017467072 -0.003495527 0.027164597 -0.06114369 -0.01371666 0.004617486
-0.005921155 -0.021837942 0.060638633 -0.0540932 0.03845399 -0.027440459 0.0059939255 -0.0071820267
0.08988751 0.014291279 0.059920084 0.106053166 -0.029481295 -0.010384276 -0.0012174168 0.00034802998
0.0212605 0.011881388 -0.05208445 0.0428538 0.0003305055 0.03800844 -0.019485207 0.04402402
0.025294157 0.011951419 -0.02184116 -0.055441033 -0.014173876 0.012163266 0.0033774185 0.02641983
-0.0021340197 0.025092226 0.037753537 -0.0119311195 0.036798835 0.032803427 0.2133752 -0.021378817
-0.044284582 0.2019225 -0.024563655 -0.1871858 -0.008458572 -0.021503184 0.024421796 -0.035144612
0.025389314 0.030739402 0.2296497 0.20475626 -0.0118283145 0.0086280005 -0.037050504 0.009680769
-0.2476151 0.040287506 -0.03745534 0.04249676 -0.24258372 -0.025292568 0.06744413 0.063854255
0.03976265 -0.0050790785 -0.0075765564 -0.051676735 -0.025523517 -0.023307271 0.001890001 -0.029195234
-0.13432859 0.02859228 0.030894091 -0.043677963 -0.03886423 0.040589042 0.0507666 0.038624004
0.24773782 -0.087017015 0.013536324 0.05497657 -0.02278571 0.015738599 0.024111645 0.1076872
0.021267276 -0.03718284 -0.008279784 0.017327748 -0.012606883 -0.040055707 -0.02430745 0.022712361
00000000: 4e1f d73c 7d90 4bbb 519d bf3c 0e6e ca3c
00000010: e6f4 e13c ad9d 8dbc abea 9ebd 74e4 cb3c
00000020: 4487 233c 2156 c13c 59dd e83c 54c6 bfbd
00000030: a8ea 2bbd 2bb4 58bc ec5b 85bd 2f0c a7bc
00000040: dcbb e5bc 9924 8f3d 65e0 bf3d 2fbf abbb
00000050: 237a 43bc bb03 00bd 337f a33b 5156 29bd
00000060: 003f c6bc 708a 3c3c 1b17 8fbc 3615 65bb
00000070: 4a88 de3c ce71 7abd d8bb 60bc 484e 973b
00000080: 4006 c2bb 7ce5 b2bc 3760 783d d590 5dbd
00000090: ee81 1d3d d0ca e0bc b168 c43b 3557 ebbb
000000a0: f116 b83d f825 6a3c c36e 753d 6732 d93d
000000b0: c282 f1bc cf22 2abc bb91 9fba cb77 b639
000000c0: 802a ae3c 27aa 423c 8156 55bd 7787 2f3d
000000d0: b347 ad39 bdae 1b3d 719f 9fbc 8852 343d
000000e0: b135 cf3c e2cf 433c 3bec b2bc 2316 63bd
000000f0: 8b39 68bc 6f48 473c ae57 5d3b 666e d83c
00000100: e9da 0bbb 368e cd3c 74a3 1a3d be7a 43bc
00000110: 60ba 163d e35c 063d 077f 5a3e a122 afbc
00000120: c063 35bd c6c4 4e3e b839 c9bc a2ad 3fbe
00000130: d395 0abc 7227 b0bc 3810 c83c ccf3 0fbd
00000140: 40fd cf3c 33d1 fb3c 4a29 6b3e a0ab 513e
00000150: 8ccb 41bc 755c 0d3c 45c2 17bd 179c 1e3c
00000160: d08e 7dbe 8304 253d c56a 19bd 1511 2e3d
00000170: de67 78be 5c32 cfbc 2620 8a3d 05c6 823d
00000180: 29de 223d 666e a6bb c344 f8bb fcaa 53bd
00000190: b216 d1bc e4ee bebc e9b9 f73a d82a efbc
000001a0: 6f8d 09be 5b3a ea3c 9b15 fd3c aae7 32bd
000001b0: 1930 1fbd b240 263d a3f0 4f3d 3434 1e3d
000001c0: fcae 7d3e fa35 b2bd 75c7 5d3c 1d2f 613d
000001d0: 19a9 babc 3cee 803c c985 c53c 1b8b dc3d
000001e0: b638 ae3c 094d 18bd eea7 07bc ecf2 8d3c
000001f0: 1a8d 4ebc 7411 24bd 6b20 c7bc 460f ba3c

actor.4.bias f4 [2]
-0.0082522305 0.01856402
00000000: 5d34 07bc 9213 983c

critic.0.weight f4 [64, 15]
0.09491763 -0.10797279 0.026106182 0.11752881 0.35680196 -0.29522616 -0.0008319559 -0.09274961
-0.2072867 0.34345025 0.75687236 0.13334593 0.22181362 -0.095200494 -0.19084218 -0.2563697
-0.15443005 -0.01681708 -0.2029619 0.73471516 -0.116928816 0.23364608 -0.16425306 0.576185
0.30486664 -0.46413434 0.21188003 0.123300225 0.16240692 -0.05371207 0.19565204 0.29460087
-0.0059835915 0.106865376 -0.08838334 -0.054681525 0.37824017 -0.15246025 0.29632178 0.5858533
-0.036707446 0.15816596 0.1094704 -0.006071061 -0.13358954 0.014012991 -0.069206856 -0.039420232
0.10362701 0.33185455 0.32189655 -0.15402396 0.17875214 -0.74141914 -0.61271703 0.24942505
-0.15736946 0.08989954 -0.14091054 0.22757015 -0.30217996 0.087819465 0.012162681 0.10919834
-0.5054467 -0.17736323 -0.030549847 -0.16192676 0.10173027 0.6357327 0.53084457 -0.11261414
-0.18446946 -0.22163032 -0.13161682 -0.4178794 -0.24022919 0.003053541 0.009512807 -0.13255404
-0.06579337 0.028430793 -0.25249213 0.32567906 0.062876165 0.45140353 -0.12517999 0.1758576
-0.17349136 -0.08009434 -0.113730244 -0.17492735 -0.017937128 -0.009071994 -0.12823454 0.3473875
-0.05325922 0.21474878 0.41843024 0.56148535 0.48968095 0.1679011 0.2374917 -0.1306216
0.026012987 -0.04896099 -0.13681747 0.017165717 -0.1117748 0.16677396 0.23219237 -0.34644735
0.10266437 -0.48264307 -0.34857544 -0.10503488 -0.19740854 -0.012122348 -0.19144586 0.106778175
-0.039839737 0.18881427 0.0008172416 0.4542273 -0.10408547 0.06346835 -0.012307679 0.46594125
-0.59615916 0.74254364 -0.67358917 -0.04911989 -0.15423301 -0.1376858 -0.11876519 -0.078996666
-0.0043763216 -0.039474893 0.04536035 0.28939396 -0.15834525 -0.006800623 -0.30937093 0.05222833
-0.28876474 -0.57885504 -0.03407228 0.17453769 -0.17365685 0.24512938 0.09667631 -0.09820057
-0.027038688 -0.0502475 0.46507263 -0.3087512 0.033485495 -0.14563279 0.5085247 0.56054306
0.3425965 -0.10828827 -0.2479465 -0.109310284 -0.1604085 0.13046914 -0.19838981 -0.0030839003
-0.011706911 -0.067176655 0.0785328 -0.03781127 0.13325036 -0.08654589 0.28919363 0.86456984
0.007117629 -0.058626905 -0.24602585 0.058163196 0.15782987 -0.012132055 0.02672926 -0.28088588
-0.090282135 -0.39366037 0.04132248 -0.42564917 -0.014485822 -0.267713 -0.8220175 -0.12053336
0.01628828 0.04590386 0.23820508 -0.0380135 0.03528125 -0.034227386 -0.089998454 0.17518117
0.0029496346 0.381538 -0.07007476 -0.67450285 -0.004632343 0.10768632 -0.14504552 -0.049644247
-0.022113964 -0.05777456 4.4108925e-05 0.10464042 0.021494905 0.008619287 0.09540883 0.11391983
-0.08751183 -0.013563646 -0.30625948 0.3891041 0.40783247 -0.24556102 0.073281646 -0.0026837587
0.23277369 0.13757056 -0.103174336 0.036705684 0.427759 0.44352385 -0.15817107 0.068356365
0.095208354 -0.86358225 -0.11718053 -0.09345065 0.14487118 0.13144335 -0.105758265 0.08287233
0.13279578 0.21931805 -0.01996557 -0.08451428 0.13613316 -0.27268177 0.05539393 -0.047123943
-0.01855976 -0.5480708 -0.54732436 -0.10343483 0.21327293 0.059173316 -0.09107377 0.064485274
00000000: 2d64 c23d d720 ddbd a2dc d53c f2b2 f03d
00000010: bfae b63e e227 97be 9e17 5aba 82f3 bdbd
00000020: f742 54be b6d8 af3e 63c2 413f d68b 083e
00000030: 1c23 633e 7af8 c2bd 226c 43be e442 83be
00000040: e922 1ebe f9c3 89bc 3fd5 4fbe 4b16 3c3f
00000050: 6078 efbd eb40 6f3e f431 28be dc80 133f
00000060: 7b17 9c3e 04a3 edbe 14f7 583e d484 fc3d
00000070: 004e 263e 3001 5cbd 0259 483e edd5 963e
00000080: 0112 c4bb 3cdc da3d 5302 b5bd bcf9 5fbd
00000090: b2a8 c13e 8a1e 1cbe 7db7 973e 7bfa 153f
000000a0: 8c5a 16bd 42f6 213e 0432 e03d c0ef c6bb
000000b0: b2cb 08be bf96 653c 53bc 8dbd 1c77 21bd
000000c0: 663a d43d d7e8 a93e a0cf a43e 75b8 1dbe
000000d0: cd0a 373e a5cd 3dbf 06db 1cbf 4869 7f3e
000000e0: 7625 21be 401d b83d da4a 10be 2608 693e
000000f0: 55b7 9abe b1da b33d fb45 473c 61a3 df3d
00000100: f464 01bf b59e 35be ac43 fabc 21d0 25be
00000110: f657 d03d 61bf 223f 6ee5 073f 3ea2 e6bd
00000120: 90e5 3cbe 0ff3 62be 8fc6 06be 4af4 d5be
00000130: a4fe 75be eb1d 483b 9bdb 1b3c 3fbc 07be
00000140: adbe 86bd b2e7 e83c a646 81be 68bf a63e
00000150: 38c5 803d 5d1e e73e 2f2f 00be 0414 343e
00000160: b8a7 31be 8008 a4bd 67eb e8bd 2820 33be
00000170: e2f0 92bc b3a2 14bc ea4f 03be c6dc b13e
00000180: 5726 5abd 1be7 5b3e 7d3c d63e 81bd 0f3f
00000190: 76b7 fa3e 44ee 2b3e 0631 733e abc1 05be
000001a0: 3019 d53c 528b 48bd e119 0cbe 1e9f 8c3c
000001b0: 30ea e4bd cbc6 2a3e d6c3 6d3e 8c61 b1be
000001c0: b241 d23d fe1c f7be 7b78 b2be 871c d7bd
000001d0: 7725 4abe d09c 46bc 620a 44be 84ae da3d
000001e0: fe2e 23bd 8758 413e 283c 563a 7b90 e83e
000001f0: c32a d5bd b2fb 813d 26a6 49bc da8f ee3e
00000200: e39d 18bf 5717 3e3f 5770 2cbf f031 49bd
00000210: 42ef 1dbe 82fd 0cbe 2a3b f3bd 01c9 a1bd
00000220: 3f67 8fbb 6db0 21bd c6cb 393d 722b 943e
00000230: 4225 22be c3d7 debb de65 9ebe 60ed 553d
00000240: f9d8 93be d82f 14bf 608f 0bbd 02ba 323e
00000250: 1ad3 31be 3203 7b3e 3bfe c53d 611d c9bd
00000260: 3d80 ddbc 53d0 4dbd 001e ee3e a314 9ebe
00000270: 1628 093d c320 15be ad2e 023f c07f 0f3f
00000280: cf68 af3e 3ec6 ddbd b0e5 7dbe 12de dfbd
00000290: 2042 24be b499 053e b326 4bbe 431b 4abb
000002a0: 58ce 3fbc ea93 89bd ced5 a03d fedf 1abd
000002b0: c872 083e f93e b1bd 3011 943e 7354 5d3f
000002c0: 003b e93b c422 70bd 33ee 7bbe 883c 6e3d
000002d0: 279e 213e 87c5 46bc 52f7 da3c 46d0 8fbe
000002e0: d7e5 b8bd da8d c9be c341 293d b0ee d9be
000002f0: f155 6dbc ae11 89be bd6f 52bf 32da f6bd
00000300: 006f 853c b005 3c3d 08ec 733e 0bb4 1bbd
00000310: 1283 103d 0432 0cbd 1c51 b8bd b162 333e
00000320: a84e 413b f358 c33e 5b83 8fbd 38ac 2cbf
00000330: e9ca 97bb a58a dc3d d086 14be c457 4bbd
00000340: 5828 b5bc 04a5 6cbd 9901 3938 b74d d63d
00000350: 1516 b03c e937 0d3c b465 c33d cd4e e93d
00000360: 6739 b3bd 0e3a 5ebc 0bce 9cbe a738 c73e
00000370: 6bcf d03e 5974 7bbe b014 963d 00e2 2fbb
00000380: 3a5c 6e3e 4cdf 0c3e 114d d3bd b358 163d
00000390: 3a03 db3e 8f15 e33e 99f7 21be 6cfe 8b3d
000003a0: 99fc c23d ba13 5dbf 59fc efbd 0e63 bfbd
000003b0: 1c59 143e 1699 063e ca97 d8bd f8b8 a93d
000003c0: 9efb 073e e994 603e d68e a3bc d315 adbd
000003d0: 7e66 0b3e f29c 8bbe bfe4 623d 0905 41bd
000003e0: a30a 98bc 5e4e 0cbf 731d 0cbf a4d5 d3bd
000003f0: 3864 5a3e b85f 723d e284 babd db10 843d

critic.0.bias f4 [64]
0.042195383 -0.3321567 0.4381784 -0.26135188 -0.0269824 -0.008231923 0.107672326 -0.15340106
0.29442334 -0.17268138 -0.006640993 0.1718034 -0.123051025 -0.2267158 0.17222407 0.035497915
-0.026764583 -0.10796577 0.11880079 0.11759402 0.21760233 -0.29641372 0.3084915 0.11146401
0.15023331 0.302144 0.3157684 0.120627366 -0.18908565 0.1336438 0.22764002 -0.11875347
-0.37014207 0.11676384 -0.33473602 -0.10134711 0.14844878 0.010813134 0.057783168 0.11499174
-0.6074583 -0.37454304 0.07628932 -0.29414612 0.54417473 -0.16187857 0.088715136 -0.029717611
-0.16271494 -0.11016493 0.69973034 -0.14715551 0.24482886 0.3639208 -0.16155635 0.17780545
-0.4257207 0.12547973 0.0064494433 0.28137496 0.1838728 -0.43768093 -0.17286797 0.5311317
00000000: 11d5 2c3d 7110 aabe eb58 e03e eacf 85be
00000010: 320a ddbc 30df 06bc 4f83 dc3d 2b15 1dbe
00000020: a8be 963e 63d3 30be b09c d9bb 3bed 2f3e
00000030: 2d02 fcbd 3028 68be 825b 303e 4366 113d
00000040: 6641 dbbc 281d ddbd d44d f33d 22d5 f03d
00000050: 25d3 5e3e 8ac3 97be 99f2 9d3e 3e47 e43d
00000060: c3d6 193e 9eb2 9a3e 65ac a13e 7b0b f73d
00000070: ab9f 41be ecd9 083e 771a 693e 0535 f3bd
00000080: 4383 bdbe e121 ef3d 8562 abbe 138f cfbd
00000090: f502 183e 9229 313c 0bae 6c3d ca80 eb3d
000000a0: 6382 1bbf 1bc4 bfbe 933d 9c3d 529a 96be
000000b0: 094f 0b3f 7fc3 25be 48b0 b53d 5972 f3bc
000000c0: bf9e 26be 279e e1bd 8721 333f efaf 16be
000000d0: 6bb4 7a3e d453 ba3e 076f 25be a212 363e
000000e0: 10f8 d9be c27d 003e da55 d33b 6110 903e
000000f0: 2749 3c3e b717 e0be 4d04 31be 3ff8 073f

critic.2.weight f4 [64, 64]
-0.24693449 -0.11563136 -0.07002036 0.2134681 0.5364635 0.0052436637 -0.14419378 0.0945355
0.18384463 0.012105942 -0.20140125 -0.04376175 0.13463521 -0.17341088 0.08436228 0.066853024
0.0012193604 -0.28616023 -0.005916312 -0.012439177 -0.30528104 0.058818854 -0.17502557 0.16259626
-0.1118151 -0.22491963 -0.23719811 -0.056103945 0.3592062 -0.020620862 0.18980017 -0.08331677
0.03720567 -0.015669964 -0.008755456 -0.15527265 -0.14884542 -0.028169941 -0.010329392 -0.16740985
0.16134772 0.009262636 -0.1200813 -0.060976062 0.045724876 -0.13655591 0.04630632 -0.09618158
0.13712132 0.041364815 -0.2011265 0.23111942 0.073482394 0.004763888 0.07764447 0.0800834
-0.14233169 0.0051473943 0.29306766 -0.03980633 0.093566015 0.013691964 0.04436795 -0.3149396
0.25023487 -0.043043442 0.15178749 -0.12809929 0.20396242 0.14244823 0.29173496 -0.22573428
-0.009653002 -0.20633681 0.20901695 0.21530704 -0.17824817 0.2255762 0.11144172 0.17763914
-0.23567016 0.0040138885 -0.05331618 -0.27020767 0.018368997 0.28459296 0.10980734 -0.25581774
0.1326336 -0.060261086 0.23594244 -0.00837996 0.25212383 -0.039696354 -0.0037023418 -0.08825577
0.10619896 0.14065051 -0.16648847 -0.16942172 -0.20405689 -0.24115269 0.060237404 0.16301969
-0.069110096 -0.14030728 0.06953279 0.043658294 0.08595911 -0.18873276 0.2027678 0.15608509
-0.035882067 0.12735726 0.115977086 -0.19624071 -0.20271973 0.08515879 0.107458785 0.21252745
0.21328095 -0.037896764 0.037284687 -0.12183975 0.0040558362 -0.038406644 0.097166196 0.16105114
-0.92513394 -0.008602418 -0.05693413 0.034863107 0.08406396 0.02996428 0.13033113 -0.059636474
-0.27878383 -0.04135824 0.058576435 -0.16277698 0.17555213 -0.1926139 -0.40725031 -0.40980494
0.03795797 -0.18176529 0.019978544 0.13303055 -0.024287129 -0.09734918 0.045285802 0.100867845
0.07196467 -0.070339 -0.10848934 0.02741242 0.043920033 0.14529607 -0.09751932 0.012290805
0.0017294761 0.015198828 0.0070810337 -0.08158891 0.031264614 0.14433192 0.019948112 -0.024519876
0.12504269 -0.08420173 -0.05141915 -0.005689024 0.026713645 0.68046933 -0.00867146 -0.06431879
0.21075524 0.04328918 0.06477204 0.37802893 0.09461146 -0.070644766 -0.014015508 -0.3635246
0.021634392 -0.068917505 0.17347784 0.05413279 -0.23291902 -0.07099462 0.23089023 -0.108628005
-0.34134775 0.0797007 0.06630454 -0.070014335 0.4156307 -0.041163772 0.082551606 0.041798994
0.10681912 0.045454826 0.04664773 -0.0494929 0.027819728 -0.0775627 -0.11642875 -0.058550067
-0.12614669 0.011313422 -0.015041927 0.09679505 -0.22940466 -0.24213092 0.015244472 -0.05627582
0.026474096 -0.26810232 0.13317557 -0.05562126 0.3624491 -0.13179503 0.051566113 -0.16415869
-0.09161667 0.24848077 -0.07762542 -0.055633772 -0.18366663 -0.059513178 0.09617407 0.030632272
-0.014064398 0.050244413 0.041588455 0.10494916 -0.0250485 -0.18777801 -0.027347904 0.1298926
0.21920693 0.20410004 -0.014703856 -0.08580374 -0.030158944 0.06534656 0.20024414 -0.1807414
0.07163634 -0.25763607 0.19968647 0.03852391 -0.23204832 0.19119129 -0.35876015 -0.04886879
00000000: 65dc 7cbe 22d0 ecbd d666 8fbd 6297 5a3e
00000010: ac55 093f 0ad3 ab3b 89a7 13be d49b c13d
00000020: c441 3c3e 0058 463c 213c 4ebe 853f 33bd
00000030: d0dd 093e 9f92 31be 22c6 ac3d 3dea 883d
00000040: f2d2 9f3a 9883 92be 9fdd c1bb b1cd 4bbc
00000050: cc4d 9cbe 0aec 703d e739 33be a27f 263e
00000060: 51ff e4bd 5551 66be 10e4 72be 40cd 65bd
00000070: e0e9 b73e 15ed a8bc fa5a 423e fca1 aabd
00000080: f964 183d 4c5e 80bc 0b73 0fbc cbff 1ebe
00000090: ef6a 18be a6c4 e6bc 9c3c 29bc 7d6d 2bbe
000000a0: 5638 253e 50c2 173c 2fed f5bd 09c2 79bd
000000b0: 024a 3b3d 50d5 0bbe b2ab 3d3d d9fa c4bd
000000c0: 8869 0c3e 276e 293d 1bf4 4dbe 92aa 6c3e
000000d0: f07d 963d 641a 9c3b 1004 9f3d c402 a43d
000000e0: 66bf 11be 79ab a83b f70c 963e f60b 23bd
000000f0: 8a9f bf3d 4254 603c 2bbb 353d c33f a1be
00000100: c91e 803e 524e 30bd 2e6e 1b3e 762c 03be
00000110: 86db 503e f3dd 113e 495e 953e e326 67be
00000120: a027 1ebc f549 53be 8a08 563e 7379 5c3e
00000130: b086 36be 73fd 663e 8e3b e43d 09e7 353e
00000140: 8553 71be f086 833b 1162 5abd a958 8abe
00000150: 947a 963c 2bb6 913e ace2 e03d 8bfa 82be
00000160: 1ad1 073e 54d4 76bd e59a 713e 1a4c 09bc
00000170: 6016 813e a598 22bd fda2 72bb 71bf b4bd
00000180: d77e d93d b006 103e f47b 2abe e37c 2dbe
00000190: 4af4 50be bbf0 76be 7fbb 763d a2ee 263e
000001a0: 9889 8dbd b6ac 0fbe 3567 8e3d 0ad3 323d
000001b0: 540b b03d 2943 41be 5da2 4f3e c5d4 1f3e
000001c0: 13f9 12bd f169 023e 6585 ed3d 53f3 48be
000001d0: c395 4fbe bb67 ae3d 5a13 dc3d cca0 593e
000001e0: 5266 5a3e a339 1bbd d4b7 183d 1e87 f9bd
000001f0: d2e6 843b 4950 1dbd 12ff c63d 97ea 243e
00000200: 94d5 6cbf 28f1 0cbc c333 69bd 9ecc 0e3d
00000210: ba29 ac3d a677 f53c 8675 053e 6045 74bd
00000220: c1bc 8ebe 4267 29bd d8ed 6f3d 02af 26be
00000230: f0c3 333e 943c 45be 1d83 d0be f4d1 d1be
00000240: d179 1b3d ae20 3abe 0baa a33c 2939 083e
00000250: cdf5 c6bc 025f c7bd 9b7d 393d cd93 ce3d
00000260: 3762 933d e50d 90bd a92f debd 0390 e03c
00000270: 7ee5 333d 7ec8 143e 36b8 c7bd 5f5f 493c
00000280: 97af e23a 8104 793c 0408 e83b 1618 a7bd
00000290: 530f 003d bfcb 133e 396a a33c e8dd c8bc
000002a0: 310b 003e f571 acbd e39c 52bd fe6a babb
000002b0: 93d6 da3c 3d33 2e3f bd12 0ebc 92b9 83bd
000002c0: 39d0 573e ff4f 313d 34a7 843d 028d c13e
000002d0: a7c3 c13d 34ae 90bd 4da1 65bc e51f babe
000002e0: 9c3a b13c 9f24 8dbd 2da4 313e 58ba 5d3d
000002f0: 5382 6ebe a165 91bd 7d6e 6c3e 5c78 debd
00000300: 22c5 aebe 1f3a a33d adca 873d ad63 8fbd
00000310: 8ccd d43e 589b 28bd d110 a93d 6c35 2b3d
00000320: fcc3 da3d d72e 3a3d b111 3f3d 11b9 4abd
00000330: 33e6 e33c 31d9 9ebd 3272 eebd 32d2 6fbd
00000340: 992c 01be ee5b 393c 6a72 76bc 7c3c c63d
00000350: 0ee9 6abe 2bf1 77be f3c3 793c 7981 66bd
00000360: 34e0 d83c b544 89be 2d5f 083e 1ed3 63bd
00000370: ee92 b93e 47f5 06be fd36 533d 3719 28be
00000380: 85a1 bbbd be71 7e3e 14fa 9ebd 3de0 63bd
00000390: 1b13 3cbe 17c4 73bd e9f6 c43d 88f0 fa3c
000003a0: 5c6e 66bc 16cd 4d3d a858 2a3d 96ef d63d
000003b0: 8332 cdbc e148 40be b608 e0bc 9102 053e
000003c0: c877 603e 9aff 503e 71e8 70bc dfb9 afbd
000003d0: e40f f7bc 6bd4 853d cd0c 4d3e 4614 39be
000003e0: 13b6 923d e0e8 83be 9c7a 4c3e 3fcb 1d3d
000003f0: 139e 6dbe a6c7 433e 69af b7be a42a 48bd

critic.2.bias f4 [64]
-0.11853887 0.17663693 -0.08140277 -0.027534297 0.13539866 0.03851714 -0.064211674 -0.25668415
-0.08329729 0.08410792 0.19282635 -0.05194958 0.14814124 0.110297725 -0.033702202 0.123872995
0.04784873 -0.055169947 0.028494734 -0.10527819 -0.033230964 -0.03216384 -0.13234618 -0.1441422
0.032773614 0.077459835 0.04675566 0.085029095 -0.14696878 0.060089994 -0.1597189 0.13024458
0.06814967 0.019471979 -0.113921136 -0.04484634 -0.121247806 -0.013717308 0.17746338 -0.13459288
-0.0042750407 -0.004593051 -0.20535375 0.044818997 -0.016783418 -0.0028736861 -0.22250754 0.12540351
0.15058213 -0.11113591 -0.12057594 0.19740003 -0.102901034 -0.16148081 0.112756416 -0.112785004
0.06098451 -0.008924305 -0.0901354 -0.25985202 -0.11665865 0.1131642 0.06975605 -0.104154415
00000000: 82c4 f2bd 50e0 343e 7fb6 a6bd 9b8f e1bc
00000010: f2a5 0a3e 26c4 1d3d 6981 83bd 1b6c 83be
00000020: c597 aabd c640 ac3d 4574 453e 15c9 54bd
00000030: 56b2 173e c6e3 e13d 520b 0abd 20b1 fd3d
00000040: 08fd 433d e2f9 61bd ca6d e93c 179c d7bd
00000050: 311d 08bd 3bbe 03bd c285 07be 039a 13be
00000060: a03d 063d 43a3 9e3d dd82 3f3d bc23 ae3d
00000070: fc7e 16be ed20 763d 5a8d 23be d65e 053e
00000080: 0e92 8b3d b383 9f3c 7c4f e9bd ccb0 37bd
00000090: c550 f8bd 8fbe 60bc f6b8 353e b7d2 09be
000000a0: a415 8cbb 4e81 96bb 4148 52be 2094 373d
000000b0: 617d 89bc 7454 3cbb 04d9 63be c769 003e
000000c0: 3432 1a3e 399b e3bd 85f0 f6bd 3c23 4a3e
000000d0: c7bd d2bd 3a5b 25be d6ec e63d d3fb e6bd
000000e0: e5ca 793d 4037 12bc e998 b8bd 530b 85be
000000f0: bbea eebd a2c2 e73d 43dc 8e3d e94e d5bd

critic.4.weight f4 [1, 64]
0.12462397 -0.17485113 0.14101246 0.19798127 -0.17397653 -0.1707354 0.21145879 0.28232443
-0.23646583 0.16653506 0.26801294 0.29417032 -0.20819683 0.103810154 -0.25512096 0.16396034
-0.07564766 0.20200682 -0.22690032 0.012004484 0.17613424 -0.13917916 -0.17302431 0.13448413
-0.12377316 -0.1668785 0.20306046 -0.1849284 0.26754537 -0.19156149 0.13183004 -0.14530964
-0.15893687 -0.2065278 0.1367872 0.12832077 0.109381855 0.25994578 0.27192613 0.2965219
0.09972255 -0.15833691 0.11230272 -0.12520619 -0.15293725 0.0883219 -0.29602012 -0.1727128
0.08010538 -0.19391967 0.17253469 0.28785563 0.13634141 0.15215077 -0.21369036 0.10631676
-0.1703743 -0.26730546 0.12078198 0.09454573 0.08888094 -0.1238124 -0.14592208 0.18490148
00000000: da3a ff3d 2d0c 33be 9265 103e 9abb 4a3e
00000010: e726 32be 43d5 2ebe a788 583e d48c 903e
00000020: 1924 72be 2b88 2a3e fe38 893e 7e9d 963e
00000030: 8d31 55be 6b9a d43d 379f 82be 38e5 273e
00000040: 29ed 9abd e0da 4e3e 8f58 68be 75ae 443c
00000050: 895c 343e fb84 0ebe 492d 31be 35b6 093e
00000060: c87c fdbd 33e2 2abe 15ef 4f3e df5d 3dbe
00000070: b5fb 883e b228 44be 74fe 063e 0dcc 14be
00000080: 59c0 22be 067c 53be f211 0c3e 8566 033e
00000090: 9803 e03d 9d17 853e e739 8b3e b8d1 973e
000000a0: 563b cc3d 1223 22be f8fe e53d 0d36 00be
000000b0: 959b 1cbe 1de2 b43d f38f 97be a0db 30be
000000c0: 4a0e a43d e192 46be efac 303e d061 933e
000000d0: 159d 0b3e 69cd 1b3e a5d1 5abe 9abc d93d
000000e0: 9a76 2ebe 43dc 88be 8b5c f73d 31a1 c13d
000000f0: 3607 b63d 5b91 fdbd 996c 15be d056 3d3e
