models/001_AimMastery/001_AimMastery_best.pth (torch, 46962 bytes, 11 tensors)

actor.0.weight f4 [64, 15]
00000000: 3c88 55be 2517 143e cb53 863e 6cc7 8fbe
00000010: 774f 3ebf a88f ed3c 5a40 0c3e c97d b4bc
00000020: a308 1d3e abac 2c3e 365a aabe 0010 4e3b
00000030: d8f6 57be e2c8 ebbd 9138 06be c3e9 443e
00000040: 059c 9b3e 8afa 9cbb 21dc 363d 46b8 5d3f
00000050: 6386 073e 88e7 cebd a8e1 1abe 7659 75bd
00000060: 8741 813e 01a0 f13d b854 55be 04b3 02be
00000070: 64d4 36bd 497d 07be d961 7b3d 3e4a 913e
00000080: e864 713e 62ad bf3e f87a 92be 86f7 ac3d
00000090: f8c6 edbd f886 9a3e 1f5b 0ebe fb12 48bb
000000a0: 8a07 393e 9dcd 833e 402a 703c 25bd 7fbe
000000b0: c89f 3b3d bb6e d7bd ec77 443e 7b1f a6be
000000c0: 684b 0abe 42ee 5c3d 1ae2 313e 13cd 71bb
000000d0: c92a 85bd 11b8 d9be f169 42be c406 2f3e
000000e0: 1883 7f3d aaaa 62be 343b 333e 5828 a63d
000000f0: ffed d53c 596b 4fbe 5bca e93d 793e 8e3d
00000100: cee4 6ebe 78c7 41be 7123 4c3e 4481 a5be
00000110: e346 f93e 3863 c23d ba53 debd 2a65 55be
00000120: f8f9 683e 1435 2b3e 4cd1 62be 3dcb fd3d
00000130: ee03 3a3e dcad b6be 3b0f 80be 70ed dfbe
00000140: a296 c23d 9372 d8bd c0c5 01be bf21 713e
00000150: cdd9 8dbe 1bbc 49be e021 ad3c 5cb6 b3bd
00000160: 6f40 803e 39f3 7cbe b1cb 35be dc78 33be
00000170: cc54 993e e834 f9bd 1dd0 09bf c55e 5ebd
00000180: 5f4f 3a3e 4294 71be bbd8 6c3e e36a 2bbe
00000190: bb74 093e d89d f0bd 8460 c83d 38fd c53d
000001a0: 12ea 483e 1908 d1bc f4cd 103e d4a4 cf3d
000001b0: bb54 a13e 2043 833f 02c7 40be 3d3d dc3b
000001c0: 3f33 e4bd 6973 063e 134d 32be 5cca 6b3e
000001d0: 880d 87bc 3067 c4bc 980c cdbd 95f3 83be
000001e0: 652e d23d 1a94 693e ed18 e6bd a6b1 783e
000001f0: f87d 103f f2ce 9c3e 7a9a e5bd d3e3 183e
00000200: edc9 3cbe 4c34 953e d83c 113c 3e95 87bd
00000210: a05a f2bd c4d8 33bd ae02 423e d435 82be
00000220: f87e 66be c5ab 983d e631 16be 9997 68be
00000230: ffd6 b0be d521 ca3d c356 8bbe 0e62 8d3e
00000240: 0b43 11ba c4f2 b3be fb18 2bbe be1e 83bd
00000250: c884 f33d e05f f13c bd0c ad3d 3b20 a83e
00000260: a7b3 f63c 2c29 dfbd cab2 413f 9539 a23e
00000270: 945c c7bd dfd0 f1bc ce01 c1be c8cb 463e
00000280: 99d9 0d3e e06e 003e de17 8abd f93c 823e
00000290: fcd5 61be b847 e53d bfda a53e 9420 aabe
000002a0: 6f84 1a3e d4de 0fbf d8d5 bebc b7a3 00be
000002b0: 321c ee3d 86cd 97be c9ba a43e 0a42 40be
000002c0: 2852 b4bd 8287 92bd a8fb 44be d3a2 32be
000002d0: e75b aabe da52 d43d dcce 9d3c 447a afbd
000002e0: 3f4e 06bf b3ed b7be c9ba d53d c353 20be
000002f0: 1b96 0ebe 498e 6ebe fa80 dcbe f259 c6bd
00000300: d0c5 623e c00a bc3c 8030 02bd 4615 6d3e
00000310: b003 303e 55a5 a03d acb5 8b3e 1e88 2b3f
00000320: e5cb 643e f3fa 28bd 63d8 363e af4f 27be
00000330: a060 013e faf1 bbbd e0d1 31be 24d5 27be
00000340: 329a 8bbd 70b3 00be cff5 743e 6b8d da3e
00000350: f469 0b3e ac4d 813d 2ac9 48bf ad77 ae3e
00000360: 7568 cfbd 4f24 643e 3db2 a33d 842a 3e3e
00000370: 5799 e13c 7eb5 30be bc81 983d c0cd 3e3e
00000380: 20c9 503c c1d9 7b3e d1b5 493c d0c1 aebd
00000390: 30ef 3a3e b589 57bf 6ca8 39bd d4c3 79bd
000003a0: bc73 21be fee7 68be 808e a23d 9cdf 493d
000003b0: 2047 763d e4bd 01bd 1013 02be ccb5 8dbd
000003c0: 1088 c63d 85a0 043d 3484 e6bd 2504 fa3d
000003d0: 145d 743f 3c41 2bbd 7cf2 96bd 9bf8 173e
000003e0: f1f9 1cbd 5df3 64bb f304 bf3e 74eb 703e
000003f0: 6c61 3e3e 844d 8e3d ccad ef3d ef9b fb3d
-0.2085275 0.14461954 0.26235804 -0.28081834 -0.74340004 0.028999165 0.13696423 -0.022032635
0.15335326 0.16862743 -0.3327195 0.0031442642 -0.21090257 -0.11512925 -0.13107516 0.19229798
0.3039247 -0.004790609 0.044643525 0.86609304 0.13234858 -0.10102755 -0.15125144 -0.05989977
0.25245306 0.117980964 -0.20833099 -0.12763602 -0.044636145 -0.13231386 0.06137261 0.28376955
0.23573649 0.37436968 -0.28609443 0.08445649 -0.11610216 0.30181098 -0.13901947 -0.0030528891
0.18069282 0.25742808 0.014658511 -0.24974497 0.045806676 -0.10519167 0.19186372 -0.32445893
-0.13505328 0.053938158 0.17371407 -0.0036895915 -0.06502301 -0.42523244 -0.18985726 0.17092425
0.06238088 -0.22135416 0.17503053 0.08113164 0.026114462 -0.20255794 0.11415549 0.069455095
-0.2332947 -0.18923748 0.19935395 -0.32325184 0.48686895 0.09491581 -0.10855813 -0.20839372
0.22751606 0.16719466 -0.22150153 0.1239228 0.18165562 -0.3567952 -0.2501162 -0.43735838
0.09501387 -0.10568728 -0.12673092 0.2354803 -0.2770523 -0.19700663 0.021134317 -0.08775017
0.2504916 -0.24702157 -0.17753483 -0.17526573 0.29947507 -0.12168294 -0.5383318 -0.054289598
0.1819434 -0.23591712 0.23129551 -0.16739993 0.13423435 -0.11748856 0.09784034 0.09667438
0.1962054 -0.025516557 0.14141065 0.1013886 0.31509957 1.025486 -0.18825915 0.0067211674
-0.11142587 0.13129963 -0.17412214 0.23026413 -0.016485944 -0.023974985 -0.10012168 -0.25771776
0.10262755 0.22810403 -0.11235223 0.24286518 0.56442213 0.30626637 -0.11211105 0.14930658
-0.18436404 0.29141462 0.008864604 -0.066202626 -0.118336916 -0.043907896 0.18946335 -0.25431693
-0.22509372 0.074546374 -0.14667472 -0.2271408 -0.3453903 0.09869734 -0.2721463 0.27613872
-0.0005541301 -0.35146153 -0.16708748 -0.06402348 0.118905604 0.029464662 0.08449695 0.3283709
0.030114962 -0.10896525 0.75663435 0.31684557 -0.09734455 -0.029518543 -0.3769669 0.19413674
0.13852538 0.12542295 -0.067428336 0.25437143 -0.22054285 0.1119532 0.32393453 -0.3322798
0.15089582 -0.56199384 -0.023295328 -0.12562452 0.116264716 -0.2964899 0.32173756 -0.18775192
-0.088047326 -0.07154752 -0.19236624 -0.17444925 -0.3327324 0.10367365 0.019263677 -0.08568242
-0.52463144 -0.35923538 0.10436017 -0.15656953 -0.13924448 -0.23296465 -0.4306715 -0.096851245
0.22145772 0.022954345 -0.031784534 0.23152646 0.17188907 0.078440346 0.27287042 0.67004573
0.22343405 -0.04125495 0.17855982 -0.1633899 0.12634516 -0.09177013 -0.17365217 -0.163899
-0.0681652 -0.1256845 0.23921894 0.42686018 0.13614637 0.06313643 -0.7843195 0.3407568
-0.101273455 0.22279476 0.07992981 0.18570906 0.027538938 -0.17256734 0.0744662 0.18633175
0.012743264 0.24594785 0.012311415 -0.085330606 0.18255305 -0.841945 -0.045326635 -0.060977772
-0.15766805 -0.22744748 0.07937336 0.049285516 0.060126424 -0.031675234 -0.12702584 -0.069194406
0.096939206 0.032379646 -0.112556845 0.12207822 0.95454526 -0.04181026 -0.07370469 0.14840929
-0.0383243 -0.0034935095 0.37308463 0.23527318 0.18591851 0.06948379 0.11703071 0.12285601

actor.0.bias f4 [64]
00000000: 3523 3cbd 06af abbc 60ad 0d3e fad0 323e
00000010: 8ca5 56be 6f52 133d b551 423e 294a 44be
00000020: 345e edbd 4fb0 163e eaee 593d 1f71 2d3e
00000030: f563 9c3d e64f 4dbe 821a a3bd c716 64be
00000040: 84ac af3b 0841 183e f64e 6c3d 4cb4 65be
00000050: a207 83be 3b35 79be e608 4dbc fc50 6a3e
00000060: 0acf 5bbe b5fb 683e d146 99be 5d69 9cbe
00000070: 5783 d83c 22d1 27be 2e51 81be 7da5 18be
00000080: 75e1 f7bc 3a3d 5b3e d91e 9e3e ccbd 44be
00000090: d058 793e 94d0 13bd 542b 723e 10c3 2f3e
000000a0: 1a27 62be 6dcb 013e b770 51bd c4b0 813e
000000b0: 9829 31be 8f93 80be 08f2 04be 8be9 65be
000000c0: ca23 59be d202 debd 5851 82bd 42ae 48be
000000d0: a98c febc 60dd 603e ce13 bb3c 3d19 c03d
000000e0: 0d4d 12be 1b71 b7bd e3aa 523e 4236 8cbd
000000f0: b064 773e 7f90 5fbe 8ea9 643e f4f7 893e
-0.045932014 -0.020957481 0.13835669 0.1746253 -0.20961589 0.035967287 0.18976481 -0.19168915
-0.115902334 0.14715694 0.05320636 0.16937684 0.07636253 -0.2005001 -0.0796404 -0.22274314
0.0053611416 0.14868557 0.05769249 -0.22432059 -0.2559176 -0.24336712 -0.012514329 0.22882456
-0.21465698 0.22752269 -0.2993684 -0.30549136 0.026429815 -0.16388372 -0.25257248 -0.14906879
-0.030258873 0.21410075 0.3088291 -0.19213027 0.24350286 -0.036087587 0.23649341 0.17164254
-0.22085229 0.12675257 -0.051132884 0.25330174 -0.17301023 -0.25112578 -0.12982953 -0.22452371
-0.21205059 -0.10840382 -0.06363171 -0.19597724 -0.031072931 0.21959448 0.022836592 0.09379814
-0.14287205 -0.0895712 0.20573 -0.06846286 0.24159503 -0.21832465 0.22330305 0.26946986

actor.2.weight f4 [64, 64]
00000000: 0382 54bc d3a0 8c3d 98b8 59bd afbb d53d
00000010: c042 1cbe a932 b9bd 8d37 a63d 03a2 433e
00000020: 09f2 1bbe f8c2 6dbd f692 c13d e56f efbb
00000030: 2de0 20bd ff38 c9bc 3c58 903d d01c e7bd
00000040: 93e9 cbb9 6603 e3bd f115 7dbd 4692 e03c
00000050: e389 253e 8454 16be 1ae9 e33d d851 7dbd
00000060: 3505 703d df2a 6fbd ff2d f53d dea7 5bbd
00000070: 1572 233d 363d fd3d 2270 4abd 0e81 443d
00000080: 2055 a43c 4dc3 adbd e842 833d 1cd1 49bd
00000090: a587 d2bc fd82 60bd 28b7 bfbd e5ac 45bd
000000a0: ca52 603b 32cf 043e d53a 8bbd 2025 9a3c
000000b0: a422 04be b7c0 663d 36f5 10bd d0d3 653d
000000c0: 2828 50bb 4a68 f03c d465 ca3d fb26 04bd
000000d0: 37e6 fb3d 9455 c23c 3461 783b b317 7dbb
000000e0: ee4f e63d f921 263d 6b6d 86bc ad81 c4bc
000000f0: bd9b d73d 088d cabd 2a1d 253e 6f01 c73d
00000100: ae90 10be 8b65 133d fd1d 96bd 4707 62bd
00000110: fc92 433c d783 3abd 37bb e2bc 528d fb3d
00000120: e5a7 c3bb d2ff b33d d9ee 7d3c b69c 98bd
00000130: fb70 b4bc f169 e7ba 6830 b7bb bffa 3bbd
00000140: ebe4 7f3c 900d 453d 0867 96bd f325 e3bd
00000150: 29f9 6abc 4fa8 663c ce18 8b3d 888b 04bd
00000160: 19da a43d ba92 f4bc 0656 93bd a691 fabc
00000170: b601 f63d a1ab 02be 57e1 4b3d 0185 fb3d
00000180: f4e5 a4bd dac9 ae3d bb9c 0f3d 3641 9e3d
00000190: 78db a13d 6474 013e c0e1 6dbd 9c86 edba
000001a0: 8c64 9fbd 2233 8cbd 14f9 51be b648 d83d
000001b0: b378 be3d 5151 c7bd 7ec8 08be 81aa 133d
000001c0: d882 103b 4af2 6a3d 6796 60bd 710f b6bd
000001d0: fee2 2abc 71ad cabd c6d3 9bbb 628b 933d
000001e0: 7011 6a3d 8932 0fbe eb6d aa3d 3597 233d
000001f0: 7dbc efbd 7157 243e e4e4 0e3e a2d0 8d3d
00000200: f76a 2dbe f5d9 a93d 0e0a d43c 0dd4 2abd
00000210: dd5d 0abe 66ec 4a3c 4d02 3c3d 3194 5a3e
00000220: d51d 183d e87a 9d3c 1b39 be3d b160 10be
00000230: a999 9ebd 5268 68bd 485d 933d c5b7 8fbd
00000240: 745c 273e 8d66 e7bd ead1 c03d 90f1 bbbd
00000250: 9619 3f3d 21b0 11bd c26a 9bbd acb7 123e
00000260: f1ab 883b febc 0cbd a8a4 573b 015c cdbc
00000270: 4fbe 943d dc1d 6a3d b8db 8c3c 4478 de3d
00000280: 7bff 313d 8540 c43c a13a 893d 4e95 55bc
00000290: 446c 08bd eb0b 92bd 12f6 a03d 3682 d3bd
000002a0: 0d9f 683d 7b45 8fbd c334 7b3d a5b7 d9bd
000002b0: 1674 2d3d 2966 88bd 14b3 15bc c939 d83d
000002c0: fd8c b03c 9d8d 2bbc 7bf1 28bd a106 a8bd
000002d0: a8db 2ebd 7023 d1bc fb8d e6bb ae93 673d
000002e0: b660 4cbd d2d7 023e 113b 14be 2b97 0c3d
000002f0: 9507 a1bc 1c60 f23d 857d 61bd f1d7 d13b
00000300: 4aa0 1cbd 8e5c 13be 4f75 61bc cafa 853d
00000310: eeb8 8fbd 6565 f9bc 2d3e 0c3d 11b5 d83d
00000320: 3a06 44bd 0bee 053d c141 aabd 06d1 50be
00000330: 4968 c1bd 5590 56bc 28e4 38bd 1db9 9dbc
00000340: d874 373e b72b 4f3d 8c63 01be be53 96bd
00000350: 5675 253e 94f2 e1bb 07f0 063e 70c1 793d
00000360: 4277 713d 1dbb 00bd 934e d83d 94e5 1ebc
00000370: 68ec 60bd 9f90 1ebd a06c 643c 534c ffbd
00000380: 4099 42bd 154e b5bd 059d 2bbe f824 8f3d
00000390: 9ad2 093e 3703 6f3d 4701 1d3d f70b 52bd
000003a0: 0fd9 76bd 12aa 183e a5cb 4fbd cfe0 10be
000003b0: 7e55 c5bd be87 313d f349 fd3a b315 17be
000003c0: 2650 26bb 1c42 d83c cdec a6bd f925 8d3d
000003d0: f01a 6abd 4fe1 59bd 43ac 633d 1fd5 93bc
000003e0: 6067 903c db4a 203b 8f89 b3bd 4c1e 093e
000003f0: 3a93 fdbb 1cea d3bd 4bd4 863d 5795 06be
-0.01297045 0.06866612 -0.053154558 0.104361884 -0.15259838 -0.09042866 0.08116064 0.19104771
-0.15229048 -0.058047265 0.09451859 -0.00730704 -0.03927629 -0.02456331 0.07048079 -0.112847924
-0.00038893204 -0.110846326 -0.061788503 0.027413499 0.16165881 -0.14680678 0.11128445 -0.06184563
0.058598716 -0.058390494 0.11971664 -0.053626888 0.03990372 0.12365191 -0.049423344 0.04797464
0.020060122 -0.08484516 0.06409246 -0.049271688 -0.025699446 -0.05481242 -0.09361106 -0.04826059
0.0034229034 0.12969664 -0.06798331 0.01881653 -0.1290384 0.05633613 -0.0353901 0.056110203
-0.0031762216 0.029346604 0.098827034 -0.032263737 0.12299769 0.023722447 0.0037899734 -0.0038618862
0.11245714 0.040559743 -0.016409596 -0.023987615 0.105277516 -0.09890181 0.16124406 0.0971707
-0.14117691 0.03598551 -0.073299386 -0.05518272 0.011936899 -0.04553589 -0.027677162 0.12282814
-0.0059709423 0.08789028 0.01549884 -0.07451765 -0.02202653 -0.0017655474 -0.0055904873 -0.045893427
0.015618543 0.048108637 -0.073438704 -0.110912226 -0.014341631 0.014078214 0.067918405 -0.03235963
0.08049411 -0.02985512 -0.07194142 -0.030587029 0.12012045 -0.12760784 0.049775448 0.12281228
-0.080516726 0.08534594 0.03506158 0.07727282 0.079031885 0.12642056 -0.05807662 -0.0018121782
-0.0778285 -0.0684569 -0.20505172 0.105607435 0.09300365 -0.09732307 -0.13357732 0.036051277
0.0022050645 0.05735997 -0.054830935 -0.08889664 -0.010430096 -0.098963626 -0.00475547 0.072043195
0.057145536 -0.13984121 0.083217464 0.039939124 -0.11705873 0.16048981 0.13954502 0.06924559
-0.16935335 0.08293525 0.0258837 -0.041706134 -0.13512369 0.012385463 0.04590063 0.21345593
0.037137825 0.019223645 0.09288236 -0.14099385 -0.07744152 -0.056740113 0.07195526 -0.07017473
0.16343862 -0.11298857 0.09415038 -0.09176934 0.04665526 -0.03556836 -0.07588722 0.14327878
0.0041708876 -0.034359924 0.003290454 -0.025068285 0.07262861 0.057157382 0.017194614 0.108627826
0.043456536 0.023956547 0.06700636 -0.013036085 -0.033306375 -0.071311794 0.07859434 -0.1032757
0.056792308 -0.06995674 0.061329614 -0.106307305 0.042347036 -0.066601105 -0.009136934 0.10557897
0.021551603 -0.010470775 -0.04124592 -0.08204389 -0.04268995 -0.025529593 -0.0070359684 0.056537323
-0.04989692 0.12777641 -0.14475657 0.034323853 -0.019656936 0.11834738 -0.055051345 0.006403916
-0.0382388 -0.14390776 -0.013760879 0.06541975 -0.070176944 -0.030443856 0.034238983 0.10581411
-0.0478575 0.03269772 -0.08313323 -0.20392236 -0.09443719 -0.013095935 -0.04513946 -0.019253308
0.17915666 0.0505788 -0.1263563 -0.07340191 0.16158041 -0.0068953726 0.131775 0.060975492
0.058951624 -0.031428445 0.10561862 -0.00969829 -0.054912955 -0.03871214 0.013941914 -0.124657296
-0.04750943 -0.088527836 -0.16759117 0.06989473 0.13459244 0.058352675 0.038331296 -0.05128094
-0.060265597 0.14908627 -0.05073132 -0.14148258 -0.09635447 0.043342344 0.0019324407 -0.14754371
-0.0025377362 0.02639871 -0.08150635 0.06892008 -0.057154596 -0.053193387 0.055584203 -0.01804596
0.017627418 0.002445868 -0.087664716 0.13390464 -0.007738498 -0.10347387 0.065834604 -0.13142906

actor.2.bias f4 [64]
00000000: fbb2 07be 1d24 fdbd e308 b2bd 20a7 28bc
00000010: ca00 59bc cc9e 85bd a5b4 e0bc 007b 4c3d
00000020: acf0 bfbd c1b6 a43b b023 d1bd 0e13 3d3c
00000030: 964f 9fbd 13de 69bd b5c8 ebbd d0f7 bb3d
00000040: a659 53bd 0bc1 8ebd 0d25 443e 24f6 5abd
00000050: c286 07bd a394 b3b8 3013 073e 20d1 413d
00000060: b9d2 44be 6264 63bd dc3b 763d a052 f6bc
00000070: f554 683c d1a7 303e 2d13 e1bd 64a9 71bd
00000080: 643e 053d 27bb 1f3d 08d2 f8bd 1922 093c
00000090: 1d64 0b3e 329c a03d efff 08bd fbf8 6e3d
000000a0: ab1a 1bbd 38be 70be 6275 723d 45a2 2abd
000000b0: 6fd3 343e 16e4 a63c 7c7e cfbd 4423 1ebe
000000c0: 706c cb3b 075f e13c 1823 8c3d 8e79 a6bd
000000d0: e1e5 083e 788b 35be 5795 dc3c 2864 18bd
000000e0: 131f 083d 663a 4e3c 69f8 a5bd 1160 a9bd
000000f0: c222 41bd 2f7c 54bd b76f febc 5771 f43d
-0.1325187 -0.12360404 -0.08693101 -0.010293752 -0.013244817 -0.06524429 -0.027429888 0.04992199
-0.093720764 0.005026669 -0.10211885 0.0115401875 -0.07778852 -0.057096552 -0.11512891 0.09178126
-0.051599167 -0.06970414 0.19154759 -0.053457394 -0.0330875 -8.563071e-05 0.13190913 0.047318578
-0.1922101 -0.055515654 0.06011568 -0.030068696 0.014180412 0.17251517 -0.109899856 -0.058999434
0.032530203 0.03899684 -0.12149435 0.008369946 0.13612409 0.07842292 -0.033447202 0.058342915
-0.03786723 -0.23510063 0.059193976 -0.04165866 0.1765878 0.020372432 -0.10131547 -0.1544314
0.006207995 0.027511133 0.06842631 -0.081286535 0.13368942 -0.17728984 0.02692668 -0.03720489
0.03323276 0.012587165 -0.08104021 -0.08270276 -0.04715229 -0.051876243 -0.03105913 0.1193568

actor.4.weight f4 [2, 64]
00000000: cd71 583c 15ec 033b a871 623c 6327 6d3c
00000010: dfe1 403c c37c 813b 4896 84bd dd37 e73b
00000020: 3678 6b3b f96e 6b3c f2f3 0e3c abb6 9ebd
00000030: 105b edbc 01cb e73a 6843 3cbd e276 70bc
00000040: a537 62bc 4320 493d 1e81 5c3d 573c 343b
00000050: 0eb8 b6bc b62b 10bd da32 09bc 0e71 4dbd
00000060: 1787 9cbc 67ce 753c de90 bcbb 300f 3cb8
00000070: 901c a53c bd23 eebc a20f 25bb 9e0b 3e3a
00000080: 9e11 3b3c e292 ecbb 8000 d83c c5cf 23bd
00000090: 37ee 193d 7646 0cbc 097a 05bc 2e84 c1bb
000000a0: 663f a63d 4c74 853c 786a 653d 4d46 de3d
000000b0: 8573 bcbc 42a4 12bc 4aca 743c 4d9f 80b9
000000c0: 3bc3 f93c f8b1 483c 65bc 3bbd b392 d33c
000000d0: 5c60 c1bb f2bb 8a3c ecb7 59bc aeaf 053d
000000e0: 5e6b d33c 3965 f13b 1fac 0abc cdb9 5dbd
000000f0: 6f91 6eba 2064 6a3b fc9c 3bbb 9500 963c
00000100: a7ca 8fbb 38e1 bd3c 9357 033b 901d b7bc
00000110: d4c9 c93c dccf 233c de24 683e 66d8 a7bc
00000120: 95b9 013c 91d7 763e c516 85b9 b743 47be
00000130: 115e 223d c16a 823c 91b6 473a 16d1 81bc
00000140: 6d6b 8b3b 5e59 f03c d119 763e 7b09 5c3e
00000150: 549d 2cbd f665 623d 2eee 20bd 844f 073d
00000160: 28d8 8fbe 691d 1a3b bd4c 37bd 4274 693c
00000170: 1266 7cbe fc67 04bd 0f39 2d3c 6064 2b3d
00000180: 8d95 e63b b12e 26b9 c961 b73c 5889 24bd
00000190: dc7c 8bbd 62eb 1cbd 60f6 92bc 9b64 0bbd
000001a0: a426 0bbe cd10 1c3d a117 343c 8a60 abbd
000001b0: 327c 45bd 73f7 c73c 751e 373d 02ad 173d
000001c0: 90c3 823e 4a8a d6bd 9fb0 e3bc 891a 073d
000001d0: fa27 09bd 7380 1a3d 5a8c a0bb 8047 113e
000001e0: b547 9abc 524e 253c eeee 60bd bf62 793d
000001f0: 52c5 8d3c 5803 67bc a54e 10bd ceed 44bc
0.013210726 0.002012973 0.013821043 0.014474723 0.011772602 0.0039516403 -0.064739764 0.00705622
0.0035929806 0.01436972 0.008725153 -0.07749685 -0.028974086 0.0017684401 -0.04596272 -0.014676781
-0.013807212 0.049103033 0.053834073 0.0027501786 -0.022304561 -0.035197936 -0.00837394 -0.050156645
-0.019107385 0.015002823 -0.005754574 -4.4836837e-05 0.020155221 -0.029069776 -0.002518632 0.0007249656
0.0114177745 -0.0072196582 0.026367426 -0.039993066 0.037580695 -0.008561721 -0.008146771 -0.0059056496
0.08117561 0.016290806 0.05600974 0.108532526 -0.023004303 -0.008950295 0.014940808 -0.0002453275
0.030488601 0.012249462 -0.045833964 0.025826788 -0.0059013795 0.016935322 -0.013288479 0.032638244
0.025808033 0.007366803 -0.008463888 -0.05413227 -0.0009100651 0.0035765246 -0.0028627506 0.018310824
-0.0043881717 0.023178682 0.0020041212 -0.022352964 0.024632372 0.009998288 0.22670314 -0.020488929
0.007917781 0.2410567 -0.000253847 -0.19459425 0.03964049 0.015920045 0.0007618452 -0.01584677
0.0042547495 0.029339489 0.24033286 0.21487992 -0.042142227 0.05527302 -0.039289646 0.033034816
-0.28094602 0.0023516065 -0.044750918 0.014248909 -0.24648312 -0.03232573 0.010572686 0.041843772
0.007036871 -0.00015848388 0.022385495 -0.040170044 -0.068109244 -0.038310416 -0.017939746 -0.03403149
-0.13588959 0.03810196 0.010991962 -0.08368023 -0.048214145 0.024409985 0.04470678 0.037030227
0.25539827 -0.10475595 -0.02779418 0.03298429 -0.03348539 0.037720155 -0.0048995437 0.14187431
-0.01883302 0.010089474 -0.05491536 0.060885187 0.017306004 -0.014099918 -0.03523125 -0.012019588

actor.4.bias f4 [2]
00000000: 3fe0 b2bc 30b3 0d3d
-0.021835444 0.034594715

critic.0.weight f4 [64, 15]
00000000: 8aae a53d 8f5d f3bd 4c15 a53b e82e dd3d
00000010: 3bca f73e ab2a 68be 2c66 77bd 67a3 c6bc
00000020: 7417 60be 70d2 07bd f84b 1e3f d68b 083e
00000030: 1c23 633e 7af8 c2bd 226c 43be 436b 7abe
00000040: e91b 18bd 5496 25bd 306a 4cbe 609d 2d3f
00000050: 4b83 e7bd ffda 7c3e 2437 24be a147 ff3e
00000060: 4f26 3b3e 8c57 a6be 14f7 583e d484 fc3d
00000070: 004e 263e 3001 5cbd 65ce 133e f1a1 9f3e
00000080: 3a0c 913a 588b 533d 4167 833d 363b fdbd
00000090: bc8e b13e 269d 62be a8db 713e e1a6 823d
000000a0: 0237 11bd 42f6 213e 0432 e03d c0ef c6bb
000000b0: b2cb 08be 2882 b7bc 877d 0ebe e336 12bd
000000c0: 3443 963d cb89 da3e 7e73 8a3e 7d07 2ebe
000000d0: 6a52 023e 5ab1 42bf 2660 82be ba0c a43d
000000e0: 7625 21be 401d b83d da4a 10be 2608 693e
000000f0: dbdd 8abe 5a80 fd3c 56dd 133c 6ee1 063e
00000100: 90db b4be 24b8 22be 6bad a5bc b7e9 12be
00000110: 6bcd 9bbc b224 273e ab60 223f 3ea2 e6bd
00000120: 90e5 3cbe 0ff3 62be 8fc6 06be 1909 b4be
00000130: 7daf 6cbe 1a4a 85bb eb1d a33d f5d7 bbbd
00000140: 230e 723d 0345 3f3d 77aa 02be fa8b 1e3e
00000150: b52d 07be 799a f23e 2f2f 00be 0414 343e
00000160: b8a7 31be 8008 a4bd 1ded b2bd 3004 2ebe
00000170: cde6 97bc 7c3b f53a 8d8d febd b70c a73e
00000180: 14d2 1ebd 1f47 463e b796 8c3e 4697 a23d
00000190: 5af3 1f3f 44ee 2b3e 0631 733e abc1 05be
000001a0: 3019 d53c 5b7a cb3d 8e4c 9d3d e7d6 d43b
000001b0: 7a92 213d af3b 8e3e 100d c53e 4218 63be
000001c0: 00bb 823e da61 08bf 70f2 cdbd 24dd eb3c
000001d0: 7725 4abe d09c 46bc 620a 44be 84ae da3d
000001e0: aa76 00be 8bca 1f3e 6ed5 a83b c1b9 b73e
000001f0: a1ba 963c 9ee6 ebbd 02ed 88bd 3517 933e
00000200: 843a 16bf 3779 a33e 6bc9 21bf f031 49bd
00000210: 42ef 1dbe 82fd 0cbe 2a3b f3bd d424 a7bd
00000220: c9bd 863d 786f ecbc fbe5 2e3d ecd6 c03e
00000230: e705 50be f26d af3c 6a56 b5be d207 263e
00000240: ccd3 b93d e898 06bf 608f 0bbd 02ba 323e
00000250: 1ad3 31be 3203 7b3e a5fa ce3d 9400 d9bb
00000260: 5c4f c1bc b4f8 65bd 1944 c53e 2a44 97be
00000270: 9d14 a63c 4b80 07be f4b6 c83e 7321 283e
00000280: 6971 e53e 3ec6 ddbd b0e5 7dbe 12de dfbd
00000290: 2042 24be f872 223e 8a29 89be b6c2 cdbc
000002a0: 44a6 a43c 847d 9dbd a7f3 483e 05fd 68bd
000002b0: 7f7d 803e 6ac9 43be 0d7e 8cbd 1967 423f
000002c0: 003b e93b c422 70bd 33ee 7bbe 883c 6e3d
000002d0: 9fcf 2b3e 256e 06bc 5de8 2c3c 6862 85be
000002e0: 11a2 86bd ff4a b8be dfb9 793d d6ab c8be
000002f0: 0d06 933d adf8 d73d 5316 65bf 32da f6bd
00000300: 006f 853c b005 3c3d 08ec 733e f6b4 0fbe
00000310: 7396 4c3d 9011 56bd 5ad0 41be 8ea6 cd3e
00000320: b6b5 ecbd 50cc a33e 8920 41be a605 8dbe
00000330: 96b6 d3bd 9268 1ebc d086 14be c457 4bbd
00000340: 5828 b5bc 04a5 6cbd df47 ae3b 5b4c c3bc
00000350: 8960 873b 9809 5c3c 6c0c 923d aae8 173e
00000360: 82c7 e4bd 8ef1 aa3c 7c7d d3be e895 f0bc
00000370: 104c a33e 5974 7bbe b014 963d 00e2 2fbb
00000380: 3a5c 6e3e d7ba 273e 4424 163e 7135 8d3a
00000390: 00f2 ec3e 2c30 833e 0142 06be 1c02 003e
000003a0: 4665 fa3d b2dd d3be 1d37 7a3d 99a8 3bbe
000003b0: 1c59 143e 1699 063e ca97 d8bd f8b8 a93d
000003c0: 152b be3d 5f97 863e 9f68 59bc 67b1 e6bd
000003d0: 9f72 d03d 6cfb 95be 26b0 203d 07fd 89bd
000003e0: 13d0 d83d 523c 22bd ce59 25bf a4d5 d3bd
000003f0: 3864 5a3e b85f 723d e284 babd f925 23bd
0.08089931 -0.11883079 0.005037939 0.10799962 0.48396477 -0.22672527 -0.060400173 -0.024247838
-0.21883947 -0.033159673 0.6183467 0.13334593 0.22181362 -0.095200494 -0.19084218 -0.2445498
-0.037135992 -0.040426567 -0.19962382 0.6781826 -0.11304339 0.24692915 -0.1603666 0.49859336
0.18276332 -0.32488668 0.21188003 0.123300225 0.16240692 -0.05371207 0.14434202 0.3117824
0.0011066266 0.05164656 0.064161785 -0.12364809 0.3467921 -0.2213026 0.23618948 0.06379486
-0.03545285 0.15816596 0.1094704 -0.006071061 -0.13358954 -0.02240093 -0.13915072 -0.035696875
0.07337037 0.42683253 0.2704124 -0.16995044 0.12726751 -0.76051867 -0.2546398 0.0801024
-0.15736946 0.08989954 -0.14091054 0.22757015 -0.27122387 0.030944992 0.009024939 0.13171932
-0.35323763 -0.15890557 -0.020224294 -0.14346968 -0.01901885 0.16322592 0.63428754 -0.11261414
-0.18446946 -0.22163032 -0.13161682 -0.3516319 -0.23113818 -0.0040676715 0.07964691 -0.0917205
0.059095513 0.046696674 -0.1276034 0.15483084 -0.1320103 0.47383478 -0.12517999 0.1758576
-0.17349136 -0.08009434 -0.08736632 -0.16993785 -0.018542672 0.0018709744 -0.124293424 0.32626888
-0.038774565 0.19363068 0.27458736 0.07939009 0.624807 0.1679011 0.2374917 -0.1306216
0.026012987 0.09935447 0.07680617 0.006495345 0.03944633 0.2777991 0.38486528 -0.22177222
0.25533295 -0.5327431 -0.10056007 0.028791972 -0.19740854 -0.012122348 -0.19144586 0.106778175
-0.12545267 0.15604608 0.005152396 0.35883906 0.018399538 -0.11518596 -0.06685831 0.28728643
-0.5868304 0.31928417 -0.63197964 -0.04911989 -0.15423301 -0.1376858 -0.11876519 -0.08161321
0.065791674 -0.028861746 0.042699795 0.37663972 -0.20314752 0.02141473 -0.3541749 0.1621392
0.090736 -0.52577066 -0.03407228 0.17453769 -0.17365685 0.24512938 0.101064004 -0.0066223834
-0.023597412 -0.056145385 0.38528517 -0.29544193 0.020273501 -0.13232534 0.39202082 0.1641901
0.44813088 -0.10828827 -0.2479465 -0.109310284 -0.1604085 0.1586417 -0.26789504 -0.02511726
0.020098813 -0.07689956 0.19624196 -0.056881923 0.25095746 -0.19119802 -0.0685998 0.75938565
0.007117629 -0.058626905 -0.24602585 0.058163196 0.1677842 -0.008204971 0.010553447 -0.2605164
-0.065738805 -0.35994717 0.060968276 -0.391936 0.071788885 0.10545478 -0.8948719 -0.12053336
0.01628828 0.04590386 0.23820508 -0.14033875 0.049948167 -0.052262843 -0.18927136 0.40166134
-0.11558096 0.31991816 -0.18860067 -0.27543372 -0.1033756 -0.009668486 -0.14504552 -0.049644247
-0.022113964 -0.05777456 0.0053186263 -0.02384012 0.004131381 0.013430022 0.071312755 0.14834848
-0.111708656 0.020867135 -0.41306674 -0.029368356 0.3189397 -0.24556102 0.073281646 -0.0026837587
0.23277369 0.16379867 0.14662272 0.0010773373 0.4627838 0.2562269 -0.13111116 0.12500805
0.122263476 -0.41380078 0.061087716 -0.18326034 0.14487118 0.13144335 -0.105758265 0.08287233
0.09285561 0.26287362 -0.0132695725 -0.112643056 0.10178112 -0.29293382 0.03923049 -0.06737714
0.10586562 -0.039608307 -0.64590156 -0.10343483 0.21327293 0.059173316 -0.09107377 -0.039831135

critic.0.bias f4 [64]
00000000: 963a 7d3d a9b6 79be 3f52 0f3e 6d06 8bbe
00000010: dacc bdbc 3c91 653d 472b f53d 73cc 723e
00000020: e98d 3b3e 24ff a0bd 62dd c33c 41e2 113e
00000030: 216f b6bd 55b9 1fbe 783f b83d 3d11 6d3e
00000040: b8c9 6dbd a00e 2abe 256b aa3d 635a c93d
00000050: a880 d53d 9a81 8abe 8318 bb3e a319 413d
00000060: b029 573e 592b 2c3e c39a 863e 1431 8a3d
00000070: 79e2 1abe 69bb dd3d 268d 743e bec4 50bd
00000080: b81f 90be ed3e 353e 8339 e2be 1330 20be
00000090: 53e9 e23d e0a7 333d 227e f93d 8bbf 01bd
000000a0: 5b5f 58be 1f1c 2fbe 3ff3 083e ee56 1abe
000000b0: 6c78 a43e 2a14 35be d843 2c3e c56f 02bc
000000c0: db5c cabd 4fb6 01bd 84a0 673f e598 30be
000000d0: 2b9b 263e b38f 413e 23c3 fcbd 466e 5b3e
000000e0: ef17 9ebe 074b a33d e211 903c 5c77 d03d
000000f0: 39f5 1f3e 179f 9cbe d469 53be bf88 dd3d
0.06182345 -0.24386086 0.13996218 -0.2715334 -0.02316897 0.05604671 0.11971145 0.23710804
0.18315853 -0.07861164 0.023909274 0.14246465 -0.08907915 -0.15598042 0.08996481 0.23151107
-0.058053702 -0.16607141 0.083212174 0.09831693 0.1042493 -0.27052003 0.36542138 0.04714359
0.21011996 0.16813411 0.2628995 0.06747642 -0.15125455 0.10826761 0.23881969 -0.050968878
-0.281492 0.17699786 -0.44184503 -0.15643339 0.11079659 0.04386127 0.12182261 -0.03167681
-0.21130125 -0.17100571 0.13374041 -0.15072224 0.32123125 -0.17683473 0.16822755 -0.007961218
-0.09880992 -0.031668004 0.904793 -0.17245825 0.1627013 0.18902473 -0.12341907 0.21428785
-0.30877635 0.07973295 0.017586652 0.10179016 0.15620889 -0.30590126 -0.20645839 0.10817098

critic.2.weight f4 [64, 64]
00000000: 35b4 d5bd fd7c 25be 53f3 c03d e30e 853d
00000010: 3233 a73e a9b6 653c cc8e 0fbe 1b75 0fbc
00000020: 10c8 8f3e bca1 12be bda9 69be e286 c73d
00000030: 4664 dbbc 1d8f aabd 6e5f 5d3d f4da 553e
00000040: be30 f5b9 0ff2 a0be 685a b6bd bf79 acbd
00000050: bc23 f3bd 02c6 773c 129e 6bbd d561 693e
00000060: ee07 a2bd a320 aabd d137 2ebd c6e4 223d
00000070: 1ec6 743e 3b0a e3bc 6dcc 843e 9aeb 23bd
00000080: 4280 933c f294 e13c 12ac c0bd f796 84be
00000090: 751d 3fbd d69b e9bd eb17 773d 9f03 56bd
000000a0: 6ec4 a3bc 3187 51be 8810 11bd 5992 60bd
000000b0: c5d4 df3d bd35 64be 2b3a 473d 6007 17be
000000c0: 7e59 43bc a67e 4a3d 393f 6bbd 9dca 293e
000000d0: e034 e23d 222d 503d bf37 75bc e4f0 823e
000000e0: 29e2 77bd 6339 2a3e 98a6 8b3e 52c7 79bd
000000f0: 1943 253e e636 f3bd 73a5 edbb 9858 f4bd
00000100: a4f7 ec3d 9436 8e3c 21d0 433d f6b1 24bd
00000110: 545c 523d 5939 2b3e de17 2d3e 3f83 e2bd
00000120: 5f9d 15be 0ab5 e7bd d004 3a3d 84e7 ee3d
00000130: a916 96bd fa43 2a3e 7870 623c 3f9a 913d
00000140: 78e1 fcbd 63f2 bc3d b3ed 22bc 07ad 05be
00000150: 1a8e 3138 620b c13e 6e30 c038 16ab 6abe
00000160: f4cf 3eba c52e 28be 0e45 fa3d bdae 8fbd
00000170: 5be6 b03d 360a 983d 60ce d53d af1f 313d
00000180: d5cb 283e 3305 3f3d 49a2 a0bd 7956 aabd
00000190: e072 44bd 1d12 32be 3db2 893d 874e a83d
000001a0: 2bbb 9c3d 1e83 84bc 5380 d33d 6f0f aa3d
000001b0: 8be7 9c3c e1fa 9dbb 694b 493e db03 afba
000001c0: 9a6d 563d 265c 6c3d f052 ec3c 84fe 67bd
000001d0: b1ab 8dbd dcc9 45bc e4a3 8d3c cd0c 9a3d
000001e0: 4d7c 0c3e e4b8 82bd ef19 f7bc 362d 46be
000001f0: c7d3 3abd 3ad3 243d 407f 583e 6467 c23c
00000200: 7451 33bf b7ed 86bd 94f2 25bc 2632 b9bb
00000210: 62c8 073e 4547 c13c 7195 2d3e 4651 8cbd
00000220: 2d18 7fbe c9d4 d9bd a8ab 0f3d bb6a 31bd
00000230: 65e2 d93d 8281 4abe ceca b6be 6aa9 b9be
00000240: 3862 8bbd 72b0 46be b4b0 c23c 2e62 bd3d
00000250: 75df 32bd f12a 17be 68c9 b83d 7482 0d3d
00000260: ee0a e53d 53b5 1a3c acf1 19bd 1aaf 603d
00000270: b8d7 8f3d fbac b73d b5ba ac3b 7410 47bb
00000280: 11b8 3abd 54d4 1f3d c04a a8bc 990f 05be
00000290: 45ef 02bd fb8d ec3d 9218 7e3c cc1e b9ba
000002a0: d76d a83d 66ac 1ebe 7b14 a1bd b3f8 24bd
000002b0: 56fd ab3d d8d7 0c3f 4b7c 4cbb 142e c0bc
000002c0: 4b44 323e f243 9d3c e7ee 013e 08ed 8b3e
000002d0: 4830 1d3e 16f8 84bd 80e1 753c 9c97 8ebe
000002e0: c03b dd3c 66f5 0ebd a3c9 a43d d0e0 9a3d
000002f0: 4a78 0dbe af03 fcbd f60f 2b3e d820 29bd
00000300: 49ce 25be 067a 063d f136 413e 5c3f 02be
00000310: de50 603e f932 82bb 7126 a33d 2a13 08bd
00000320: 9792 4cbc c237 20bc de1b 943d 2d72 6b3d
00000330: f059 f3bd 5085 54bc 7d5d 22be 3f99 723d
00000340: afe3 cabd f1c5 8b3d 3b9c 65bd 075f 1c3d
00000350: c8a3 b1bd d0bc 58be 4720 5c3c 9439 8ebd
00000360: ce30 1f3d a800 05be 98dd 8c3e b5ad 083c
00000370: d419 073e 6612 48be 5db4 6c3e f80e 26bd
00000380: 70cd 9fbd bd90 473e 43f9 96bd d53e 12be
00000390: 0f4a 71bd f419 03be 2c6a 263e 43b9 bd3d
000003a0: 6670 25be 3f29 68bd 6977 0f3e c630 543d
000003b0: e99c e4bc 704c 25be 1ad0 26bd 8d3f 443c
000003c0: 671b f93d eefc 2f3e aba7 193d 5b19 d3bd
000003d0: f8c4 bebb 0abf 1f3d 25a1 0e3e c13e 71bd
000003e0: 3809 f53d 47c3 28be c183 53bc 98a3 633b
000003f0: 352b 54be 75a1 c23d 0134 c7be 4433 c23d
-0.104347624 -0.1616096 0.094214104 0.0649698 0.32656246 0.0140206 -0.14019316 -0.008755947
0.28082323 -0.1431951 -0.22818656 0.09742524 -0.026781213 -0.08328078 0.054046087 0.20884305
-0.00046766357 -0.31434676 -0.089039624 -0.08421659 -0.1187205 0.015122892 -0.057523794 0.22791226
-0.07911669 -0.08307006 -0.0425337 0.039768957 0.239037 -0.02771484 0.25937214 -0.04001961
0.018005494 0.027536843 -0.0940782 -0.25896427 -0.04665895 -0.114066765 0.060325544 -0.052249547
-0.019991126 -0.20461728 -0.035416156 -0.054827068 0.109292544 -0.22286125 0.048639458 -0.14748907
-0.011923192 0.049437188 -0.05743334 0.16581197 0.11045241 0.050824292 -0.014966904 0.2557441
-0.060518418 0.16623454 0.27275538 -0.060981102 0.16138877 -0.118757054 -0.007252389 -0.119309604
0.11570671 0.01736001 0.04780591 -0.04020878 0.051357582 0.16721095 0.16903636 -0.110601895
-0.14610814 -0.11313827 0.045414746 0.11665252 -0.07328541 0.16627494 0.01382076 0.07109498
-0.12347692 0.09225919 -0.009944367 -0.13054286 4.233243e-05 0.37703997 9.164294e-05 -0.22916827
-0.0007278912 -0.16424091 0.122202024 -0.070157506 0.08637687 0.074238226 0.104397535 0.043243106
0.16484006 0.046635818 -0.078434534 -0.083172746 -0.047961116 -0.17389722 0.067234494 0.08218103
0.07652887 -0.016175803 0.1032721 0.08303725 0.019153377 -0.004821167 0.19657673 -0.001335259
0.052350618 0.057705067 0.028848141 -0.05663921 -0.06917513 -0.012072053 0.017290063 0.07521973
0.13719292 -0.06382921 -0.030163733 -0.19353184 -0.045612123 0.040240504 0.21142292 0.023730941
-0.7004616 -0.06588309 -0.010128636 -0.00565173 0.13260034 0.023593554 0.16951539 -0.06851439
-0.24911566 -0.10636289 0.035075814 -0.043314677 0.106388845 -0.19775966 -0.35701603 -0.36262065
-0.06805843 -0.19403246 0.0237659 0.09247242 -0.043670136 -0.14762475 0.0902279 0.034548238
0.11183725 0.009442645 -0.037583992 0.05485449 0.07023567 0.0896854 0.0052712807 -0.0030374797
-0.045585696 0.03902085 -0.020543456 -0.12994231 -0.031966466 0.11550518 0.015508788 -0.0014123558
0.08224075 -0.15495452 -0.078652345 -0.04027624 0.08397929 0.5501685 -0.0031202014 -0.023459472
0.17408864 0.019197438 0.1268879 0.27329278 0.15350449 -0.06492631 0.015007377 -0.27850044
0.02700603 -0.034902 0.08046272 0.07562411 -0.13815418 -0.1230539 0.16705307 -0.041291088
-0.16191973 0.032831214 0.18868615 -0.12719482 0.21905848 -0.0039733616 0.079663165 -0.0332214
-0.012486122 -0.009778919 0.07231878 0.057481933 -0.118823886 -0.012971237 -0.15855975 0.059228178
-0.099067084 0.06824864 -0.056057196 0.038176563 -0.08673817 -0.21165776 0.01343543 -0.06944576
0.038864903 -0.12988532 0.27512813 0.008342196 0.13193446 -0.19538268 0.23115678 -0.04054162
-0.07802856 0.19488807 -0.07371762 -0.14281781 -0.05890852 -0.12802869 0.16251439 0.092638515
-0.16156158 -0.05667996 0.14010395 0.051804326 -0.027906852 -0.1614244 -0.040725805 0.011978042
0.1216343 0.17186329 0.037513416 -0.103075705 -0.0058218203 0.03900055 0.1392866 -0.058897737
0.11964649 -0.16480742 -0.012909831 0.003473496 -0.20719607 0.09503452 -0.38906863 0.094824344

critic.2.bias f4 [64]
00000000: bfb5 dc3d e327 6e3d ddc0 3bbb b377 0a3e
00000010: e643 c63c 6629 b9bd d96b 463d bfd4 0fbe
00000020: a7b4 c4bd 7d09 553e 484b 5d3e f495 3f3d
00000030: 368d 903d 8e7d f63d 9b68 18bd 58d3 093e
00000040: 4508 09be cfb8 483d d0c6 c3bc a3d4 97bc
00000050: de23 e43a ff46 cbbd 14be f8bd ccc9 cbbc
00000060: bc3e 6cbd 547f 82bc 0d85 9e3d 3c8a fbbc
00000070: 62aa 50bd 0aca 833b 38be 033d b356 6abc
00000080: 762c fdbc b434 f63c e15e 8ebc b1d8 a83c
00000090: 85a5 643d 339d 043b 041f 653e 3ea3 bdbd
000000a0: ae84 9a3d ea26 ecbd e15b 3bbd a701 c2bd
000000b0: b3a1 eebd 85b6 94bb 0204 61be 771b d53c
000000c0: 8e50 0e3e 6fdb 7ebe cf5d f4bc 69a5 9f3d
000000d0: b1ef 2e3c c17d bbba 04f3 07bd 3e8c d03c
000000e0: 8461 dd3d 2586 dabc 8fd1 953c 0101 c2bd
000000f0: 98b1 683c ecbc d13c ab8f 55bd efe6 a4ba
0.10776853 0.058143508 -0.002864889 0.13522224 0.024202298 -0.09041099 0.048442695 -0.14046
-0.09604769 0.208044 0.21610749 0.046773866 0.07058184 0.120356664 -0.037209135 0.13459527
-0.13382061 0.049004372 -0.023898512 -0.01853401 0.0017405709 -0.09925651 -0.121456295 -0.024876498
-0.057677016 -0.015929855 0.07740221 -0.030705564 -0.05094374 0.0040218877 0.03216383 -0.014302897
-0.03090499 0.030054428 -0.017379226 0.020611139 0.055821914 0.00202353 0.22375113 -0.092596516
0.07544838 -0.1153086 -0.04574192 -0.094729714 -0.116519354 -0.0045383596 -0.21974185 0.026014073
0.13897917 -0.24888395 -0.029829888 0.07795221 0.010677264 -0.0014304445 -0.033190742 0.025457498
0.10809615 -0.026675293 0.018288402 -0.09472848 0.014202498 0.02560278 -0.052138966 -0.0012581031

critic.4.weight f4 [1, 64]
00000000: 4ac0 613d 7a8b cbbd 8d13 873d ce56 023e
00000010: 36df 0cbb 041f cbbd cef3 393c 140d 3b3c
00000020: 8c5d 61be 5b8a db3d ddb0 593e bc6e 94bb
00000030: 62d2 f53b 005b 9abc 584f 2fbe e379 343e
00000040: 7fcc 48bd d974 ae3c e6d3 67be 2850 823c
00000050: 63af 1f3e 5668 c5bd 8eb0 25be c385 b83c
00000060: 6370 3ebb a557 9b3c e6c5 273e 8ea8 14bb
00000070: aced 413d 969f 21be 47b6 a83c 86b0 e3bc
00000080: c2bc ecbd 04af ccbd 5346 f73d 243d 8f3d
00000090: 210e c53c 8e85 753e 26d1 213e cbdb 443e
000000a0: 02b0 e43d e56e bfbc 4870 353d 1aa6 5abd
000000b0: dfbd 81bc 31c4 a9bc e66a fbbd bb8f aabc
000000c0: 1ef8 003e 8633 08be df95 ee3d 37f0 4a3e
000000d0: 966a 2b3e 5574 f5bc 71a4 95bc 9908 ae3d
000000e0: c73b 04be 81f5 72be bcae c83b 7302 d73c
000000f0: 2916 253d 6826 703c 3790 aebd 6398 8b3c
0.05511502 -0.099387124 0.06595526 0.12728426 -0.0021495349 -0.09918025 0.0113496315 0.011416692
-0.22008342 0.107197486 0.21258874 -0.004529802 0.007501886 -0.01884222 -0.17120111 0.17624621
-0.049023148 0.021295952 -0.22639427 0.015907362 0.15594248 -0.09639041 -0.16180632 0.02252472
-0.0029058687 0.01896269 0.16384086 -0.0022683474 0.047345802 -0.15783533 0.02059473 -0.027794134
-0.1155944 -0.09994319 0.1207396 0.069940835 0.024054589 0.23976728 0.1580244 0.1922447
0.11166383 -0.023368308 0.044296533 -0.053381063 -0.015837608 -0.020723434 -0.12276249 -0.02082049
0.12594649 -0.13300905 0.116496794 0.19818197 0.16739878 -0.029962698 -0.018266888 0.084977336
-0.12913428 -0.23726465 0.0061243456 0.026246285 0.040304337 0.014657594 -0.085236005 0.017040437
