models/010_Blitz_Krieg/010_Blitz_Krieg_best.pth (torch, 46978 bytes, 11 tensors)

actor.0.weight f4 [64, 15]
0	0xbe840950	-0.25788355
1	0x3d9ee689	0.07758815
2	0xbe8cdbdb	-0.27511486
3	0xbd736fa6	-0.059432648
4	0x3cbe95d6	0.023264807
5	0x3d25de05	0.040494937
6	0x3d6f7c33	0.058468055
7	0x3e45edd2	0.19329002
8	0x3d6a33a8	0.05717817
9	0xbe1037ea	-0.1408383
10	0xbe229d2a	-0.15880266
11	0x3cc78c30	0.024358839
12	0xbe823d41	-0.25437358
13	0xbcb1c5e0	-0.0217008
14	0x3e6e59c2	0.23276427
15	0xbd8eaaa3	-0.0696614
16	0xbe6ad441	-0.22932531
17	0xbe638bb2	-0.22221258
18	0xbbed5838	-0.0072431825
19	0x3c4f4b3e	0.0126522165
20	0x3e829876	0.25506943
21	0x3c27b5eb	0.010236244
22	0xbe29e9c4	-0.16593081
23	0xbde49632	-0.1116146
24	0x3e59bbfa	0.21263114
25	0xbd89523a	-0.067051366
26	0xbe5fcd22	-0.21855596
27	0x3e3a8680	0.1821537
28	0xbbdc2c00	-0.0067191124
29	0x3e23e2e0	0.16004515
30	0x3e55fd2f	0.20897363
31	0x3e1a6f56	0.15081534
32	0x3e6a4417	0.22877537
33	0xba2dea63	-0.00066343526
34	0x3dddae87	0.10824304
35	0xbc9ed452	-0.019388352
36	0x3d8ecec5	0.06973032
37	0xbd1ebc9f	-0.0387541
38	0xbe20ff08	-0.15722287
39	0xbe695222	-0.22785237
40	0x3d682a60	0.056681037
41	0xbe6438f4	-0.22287351
42	0xbe55492c	-0.20828694
43	0x3e813e0b	0.25242648
44	0xbdc3b4a0	-0.09555936
45	0x3da1bede	0.07897733
46	0x3e54a942	0.20767692
47	0xbe47e771	-0.19521882
48	0xbdfe9969	-0.124316044
49	0x3b7e8a9b	0.003883994
50	0x3d717542	0.058949716
51	0xbd4acdc4	-0.04951264
52	0x3db220ec	0.086976856
53	0xbdc66f22	-0.09689166
54	0x3c683b00	0.014174223
55	0x3e72f732	0.2372711
56	0xbe83e752	-0.2576242
57	0xbe1cb932	-0.15305021
58	0xbe80c416	-0.25149602
59	0xbd3537e4	-0.044242755
60	0x3d713477	0.058887925
61	0x3dca3ac4	0.0987449
62	0xbba7075b	-0.0050973124
63	0x3e448c7b	0.19194214
64	0xbe245dbb	-0.1605138
65	0x3e646de9	0.22307552
66	0x3e7e4d4e	0.24834177
67	0x3df31323	0.118688844
68	0xbc76d920	-0.015066415
69	0x3de847c8	0.11341816
70	0x3bd19700	0.0063961744
71	0xbe62c127	-0.22143994
72	0xbe797a87	-0.24363147
73	0xbd4fe2f4	-0.05075355
74	0x3e65d0e2	0.22442964
75	0xbe8be837	-0.27325603
76	0x3e23ff32	0.16015318
77	0x3e9d1eba	0.30687505
78	0xbe826180	-0.25465012
79	0x3e3f2b46	0.18668851
80	0x3da84428	0.08216125
81	0x3eb2ec55	0.34945932
82	0x3e22a9ce	0.15885088
83	0xbe094f74	-0.13409215
84	0x3df00224	0.11719158
85	0x3daf7d68	0.08568841
86	0x3e291e4e	0.16515467
87	0xbe68a3d9	-0.22718753
88	0xbd50abe4	-0.050945178
89	0x3e76e052	0.24109009
90	0x3c2aaaab	0.010416667
91	0x3e3bb2f5	0.18329985
92	0x3e4b5b21	0.19858982
93	0x3dad745d	0.0846946
94	0xbd6662b3	-0.05624647
95	0xbc3d4226	-0.011551416
96	0xbea02dfe	-0.3128509
97	0x3e5822c3	0.2110701
98	0xbbcad2c0	-0.006189674
99	0xbe839b5d	-0.2570447
100	0xbe8261dc	-0.25465286
101	0x3df834d4	0.12119451
102	0x3e76be6e	0.2409608
103	0x3d778828	0.060432583
104	0xbca49118	-0.020088717
105	0x3c83e169	0.016098695
106	0xbd32e747	-0.043677595
107	0xbd02157f	-0.03175878
108	0x37030d6d	7.811334e-06
109	0xbe52d162	-0.20587686
110	0x3e22ee8c	0.15911311
111	0x3db7fcea	0.089837864
112	0x3d4e38df	0.050347205
113	0xbe1bb0cc	-0.15204161
114	0x3e3bc8ee	0.18338367
115	0xbdf23d98	-0.11828154
116	0x3e417c0e	0.1889498
117	0xbdef77b2	-0.11692752
118	0xbdd43062	-0.10360791
119	0xbe0d90e6	-0.13824806
120	0xbd924e85	-0.07143883
121	0xbe889c25	-0.2668163
122	0x3e35cb0b	0.17753236
123	0x3df725e2	0.120677724
124	0x3cd6b597	0.026209636
125	0x3da74fbc	0.08169505
126	0x3e612bcd	0.21989365
127	0xbd0d71f6	-0.03453251
128	0x3ac1e500	0.0014792979
129	0x3e6da79e	0.23208472
130	0xbd909f44	-0.070616275
131	0x3d674a40	0.056467295
132	0x3c88a490	0.016680032
133	0x3df23a4c	0.118275255
134	0x3e3b15d2	0.18270043
135	0xbe623c2a	-0.22093263
136	0xbe467296	-0.19379649
137	0xbe165174	-0.1467951
138	0x3dc02b8f	0.09383308
139	0x3d148b17	0.03626546
140	0x3e2b3d65	0.16722639
141	0xbe409d5f	-0.18810032
142	0x3dca1dc9	0.09868962
143	0x3d9abff8	0.075561464
144	0xbda3077a	-0.079604104
145	0xbe633a6d	-0.22190256
146	0xbcd3c2f0	-0.02584979
147	0xbe4f967f	-0.20272253
148	0x3e71f834	0.23629838
149	0xbe0ecd6c	-0.1394555
150	0x3e331c46	0.17491254
151	0x3e888d26	0.26670188
152	0x3d096ced	0.033551145
153	0x3e8279bd	0.25483504
154	0xbe4fdffb	-0.20300286
155	0x3d9e8e40	0.07741976
156	0xbe5dea14	-0.21671325
157	0x3e3d6876	0.1849688
158	0xbe416af6	-0.18888459
159	0x3d417158	0.047227234
160	0xbe25acdf	-0.16179226
161	0x3e817567	0.25284883
162	0x3e19f630	0.1503532
163	0x3e8280cf	0.25488898
164	0xbe56ebea	-0.20988432
165	0x3e117573	0.1420496
166	0x3d5ddae9	0.054163847
167	0xbdfc954f	-0.12333166
168	0x3db8de08	0.09026724
169	0xbc2314eb	-0.009953718
170	0xbe7632a9	-0.24042763
171	0xbd947159	-0.07248182
172	0x3e95cb12	0.29256493
173	0x3e81d0c7	0.25354597
174	0xbc06ff20	-0.0082395375
175	0xbd538068	-0.05163613
176	0xbe8239bc	-0.25434673
177	0xbe12184a	-0.14267078
178	0x3d5f6638	0.054540843
179	0x3ced6b60	0.028981864
180	0xbdac1e3a	-0.08404203
181	0xbe6aabc0	-0.2291708
182	0x3e5748e9	0.21023907
183	0xbe3edd02	-0.18638995
184	0x3cdf0844	0.027225621
185	0x3e43f5b7	0.19136702
186	0xbeae22f3	-0.3401104
187	0x3e46d374	0.194166
188	0xbe1880a4	-0.14892823
189	0x3e38da3e	0.18052003
190	0xbe695b19	-0.22788657
191	0xbe7a8b88	-0.2446729
192	0xbe5f6f7c	-0.21819872
193	0x3d220668	0.03955689
194	0xbd828858	-0.06373662
195	0x3cf15b8f	0.029462604
196	0xbe3d8791	-0.18508746
197	0xbc2d69ed	-0.010584337
198	0xbd76c5a3	-0.060247075
199	0xbe66f158	-0.22553003
200	0xbe8125c1	-0.25224116
201	0xbd90b912	-0.07066549
202	0xbc267fcd	-0.010162306
203	0x3e6c37be	0.23068139
204	0x3ae03000	0.0017104149
205	0xbe1a629a	-0.15076676
206	0x3df25f3c	0.11834571
207	0x3de6b784	0.112654716
208	0x3dbb21f4	0.091373354
209	0xbce53e58	-0.02798383
210	0xbc6b647b	-0.014367218
211	0xbe3675f6	-0.17818436
212	0xbdc46862	-0.09590222
213	0x3e2f2d2d	0.17107077
214	0xbe812332	-0.25222164
215	0x3d4c3497	0.04985484
216	0xbdc86232	-0.09784354
217	0x3e199130	0.14996791
218	0xbd487260	-0.0489372
219	0xbd3b0950	-0.045663178
220	0xbe354528	-0.17702162
221	0x3e511bfe	0.20420834
222	0x3d8027f0	0.062576175
223	0x3db44578	0.088023126
224	0xbdd9e7a8	-0.10639888
225	0x3e09bacc	0.13450164
226	0xbc2dc431	-0.010605858
227	0x3e799a53	0.24375276
228	0x3c92b0b4	0.017906524
229	0xbc1fca39	-0.0097528035
230	0x3e0b4d31	0.13603665
231	0xbcea0598	-0.02856712
232	0xbe198068	-0.1499039
233	0x3d078788	0.033088237
234	0x3e3f52a6	0.18683872
235	0x3e101b08	0.14072812
236	0x3e672e2a	0.22576204
237	0xbc4477c0	-0.011991441
238	0xbe1fafe3	-0.15594439
239	0x3e7ce42a	0.24696413
240	0x3dd78804	0.1052399
241	0xbd674854	-0.05646546
242	0xbca5af4a	-0.020225186
243	0x3e14b265	0.14521177
244	0xbe151de5	-0.14562185
245	0x3e82c4cb	0.25540766
246	0xbebd73b6	-0.37002343
247	0xbd7350db	-0.05940328
248	0xbe0bc797	-0.13650356
249	0x3c3a2260	0.011360735
250	0xbe3e2fa3	-0.1857286
251	0xbdaa2a4c	-0.08308849
252	0xbd45d318	-0.048297018
253	0x3e81673d	0.25274077
254	0x3e73b4c6	0.23799428
255	0xbd9d7f2a	-0.0769027

actor.0.bias f4 [64]
0	0xbd977738	-0.07395786
1	0x3d8fe204	0.07025531
2	0xbe7d7466	-0.24751434
3	0xbd38e0fa	-0.04513643
4	0x3e4ce2cb	0.2000839
5	0xbe374e93	-0.17901067
6	0xbe3833be	-0.17988488
7	0xbe6f6187	-0.23377047
8	0x3c439567	0.011937476
9	0xbd8fa206	-0.070133254
10	0x3e0673ca	0.13130108
11	0x3dce2379	0.100653596
12	0xbdc53eeb	-0.09631141
13	0xbe89bae4	-0.269004
14	0x3d6adddf	0.0573405
15	0xbd0f755c	-0.035024032
16	0x3dfae20f	0.122501485
17	0x3d6d682b	0.05796067
18	0x3dce4df1	0.1007346
19	0x3e6b0b32	0.2295349
20	0x3ddf9891	0.109177716
21	0xbd9dd9f7	-0.07707589
22	0x3e66810e	0.22510168
23	0x3e429650	0.19002652
24	0x3d3d9c88	0.046291858
25	0xbe208fff	-0.1567993
26	0x3e1af5c0	0.15132809
27	0x3c9726d2	0.018451128
28	0x3db4a391	0.0882026
29	0x3d19e49d	0.03757154
30	0xbd8a057f	-0.067393295
31	0xbda4d7dd	-0.08048985
32	0xbe259dac	-0.16173428
33	0xbcc7a91e	-0.024372634
34	0xbe2c533c	-0.16828626
35	0xbe6b568d	-0.22982235
36	0xbda8429c	-0.0821583
37	0xbe062426	-0.13099727
38	0xbe09ca17	-0.13455997
39	0xbe13be14	-0.14427978
40	0x3d437df9	0.04772756
41	0x3e57c3b4	0.21070749
42	0xbd914732	-0.070936576
43	0x3e14cc7a	0.14531127
44	0xbe92ef74	-0.28698313
45	0x3e5581c3	0.20850281
46	0xbe739467	-0.2378708
47	0xbcb5d38b	-0.022195598
48	0x3e3b23ee	0.18275425
49	0x3e2a0161	0.16602089
50	0xbe4ee8b8	-0.20205963
51	0xbd25b718	-0.040457815
52	0xbe8b00e7	-0.27149126
53	0x3e474dbd	0.19463249
54	0xbc927bee	-0.01788136
55	0x3e03b21f	0.12860917
56	0x3e316f13	0.17327528
57	0x3da63004	0.08114627
58	0x3db523d6	0.08844726
59	0xbdd26c81	-0.10274602
60	0x3ceba5ad	0.028765524
61	0x3e5c7a23	0.21530966
62	0xbcc47635	-0.023982147
63	0xbc1141bc	-0.00886577

actor.2.weight f4 [64, 64]
0	0x3e1196c7	0.14217673
1	0xbd3bfe34	-0.045896724
2	0x3c609865	0.013708209
3	0x3ddcbabc	0.10777804
4	0xbda1a715	-0.078931965
5	0xbc5491eb	-0.012974243
6	0xbdc086eb	-0.094007336
7	0xbdebd182	-0.1151457
8	0xbda7b38d	-0.081885435
9	0x3d7595e3	0.059957396
10	0x3d60da92	0.054895945
11	0xbc5e501c	-0.013568904
12	0xbd5dc996	-0.054147325
13	0x3dbb1a4c	0.09135875
14	0x3d95f701	0.07322503
15	0x3c426997	0.011865995
16	0x3ce57255	0.02800862
17	0xbcd72455	-0.026262442
18	0x3c8b640f	0.017015485
19	0x3d42d514	0.04756649
20	0xbcfc99b0	-0.030835003
21	0x3db0f750	0.08640921
22	0xbd320958	-0.043465942
23	0xbdc940ae	-0.0982679
24	0xbd5b3d3b	-0.05352519
25	0xbcd1f226	-0.02562816
26	0x3dbe84a6	0.093026444
27	0x3d9fdf36	0.07806246
28	0xbdf7e3f3	-0.12104025
29	0xbde3e1dd	-0.111270644
30	0x3de2b066	0.110688016
31	0x3d52c75d	0.05145966
32	0x3d28a2f2	0.04117102
33	0x3d90cc2e	0.07070194
34	0xbd083aed	-0.03325932
35	0xbbf618a0	-0.0075102597
36	0x3ce63de4	0.028105684
37	0x3de6f4ef	0.11277186
38	0xbd863bd4	-0.0655438
39	0xbd4e8f2a	-0.0504295
40	0x3d1a1bdf	0.037624236
41	0xbdf9ccf9	-0.121972986
42	0xbdaab68b	-0.083355986
43	0xbda40326	-0.08008413
44	0x3d2a462f	0.04157084
45	0xbd834457	-0.06409519
46	0xbcc3391d	-0.023830945
47	0x3d9de4ef	0.07709681
48	0x3de6b3df	0.112647764
49	0x3dff5e68	0.124691784
50	0xbd7729ca	-0.060342588
51	0x3d75db6d	0.060023714
52	0xbc895a8f	-0.016766815
53	0xbc845d72	-0.01615784
54	0xbdcce5a1	-0.10004736
55	0xbda23d1c	-0.07921812
56	0x3dded94a	0.10881288
57	0x3de92fea	0.11386092
58	0xbb8250d2	-0.0039769197
59	0xbd9bd7f2	-0.07609548
60	0x3d474985	0.048654098
61	0x3de8b7cb	0.11363181
62	0x3dd4030b	0.10352143
63	0x3d1aa77d	0.037757386
64	0x3bfdcbc5	0.0077452385
65	0xbde67f2a	-0.11254723
66	0xbd9d80fc	-0.076906174
67	0xbd7287fd	-0.05921172
68	0xbd67a20a	-0.056551017
69	0xbd96fa3b	-0.073719464
70	0xbc827386	-0.015924226
71	0x3ccbf55d	0.024897272
72	0x3c91b338	0.017785653
73	0x3d8a2851	0.06745971
74	0xbdb52580	-0.08845043
75	0xbe054854	-0.13015872
76	0x3d79f511	0.06102473
77	0x3c2cd2d6	0.010548314
78	0x3dc5495d	0.096331336
79	0x3da8c16a	0.08240016
80	0xbd85575a	-0.065108016
81	0xbdd05db6	-0.10174124
82	0x3d34b0b6	0.044113837
83	0x3c883fce	0.016631987
84	0x3d49953f	0.049214598
85	0x3d1ba294	0.037996843
86	0xbc46a353	-0.0121239005
87	0xbd871353	-0.06595483
88	0x3cbf42fa	0.023347367
89	0x3de0f75b	0.10984679
90	0xbda61d6f	-0.08111083
91	0x3d80f720	0.06297135
92	0xbd1d12fe	-0.03834819
93	0x3dc351c3	0.09537079
94	0xbdef9cd7	-0.11699837
95	0x3d6e7a4f	0.05822211
96	0xbd4dfea6	-0.05029168
97	0x3db0daed	0.08635507
98	0xbda8d43a	-0.08243604
99	0xbbfb2eb2	-0.0076654786
100	0x3d95a740	0.07307291
101	0x3b8845bb	0.004158703
102	0xbdde9618	-0.10868472
103	0xbd3af1b6	-0.04564067
104	0xbd85a1e1	-0.065250166
105	0xbcbed29c	-0.023293786
106	0xbd8f24f3	-0.069894694
107	0xbdba07b7	-0.09083503
108	0x3db55a1e	0.08855079
109	0xbda159f4	-0.07878485
110	0xbd3b6204	-0.04574777
111	0xbd5f2257	-0.05447611
112	0x3b919f18	0.0044440143
113	0xbd9839b7	-0.07432883
114	0x3d864bc7	0.06557422
115	0x3c36fe05	0.011168961
116	0x3d15685f	0.03647649
117	0xbdb34ca2	-0.08754851
118	0x3dcfe836	0.101517126
119	0x3da4344f	0.080177896
120	0xbdbc3f9e	-0.091918215
121	0xbce6e318	-0.028184459
122	0xbcb9edba	-0.022696365
123	0xbde2b9e6	-0.110706136
124	0xbd13ba2b	-0.036066215
125	0xbc19e54d	-0.0093930485
126	0x3de54cab	0.11196264
127	0x3cd1715b	0.025566747
128	0xbdcdaf2c	-0.10043177
129	0x3d8f473b	0.06996008
130	0xbd04e079	-0.032440636
131	0x3de7ec61	0.113243826
132	0x3ddc8214	0.10766998
133	0x3d4ff4c8	0.05077055
134	0xbd976eef	-0.07394206
135	0xbe00ae30	-0.12566447
136	0xbd25ee24	-0.04051031
137	0xbdd349bf	-0.103168
138	0x3d0471da	0.03233514
139	0x3dae2e76	0.085049555
140	0xbd1cbd6f	-0.038266595
141	0xbd0ed46b	-0.034870546
142	0x3c0c9493	0.008580345
143	0x3d767f1c	0.060179815
144	0xbd5fdf9b	-0.054656606
145	0xbdc77d76	-0.09740727
146	0xbd346f96	-0.04405173
147	0x3d9c334d	0.07626972
148	0x3d4db8bc	0.050225005
149	0x3cbe444b	0.023225924
150	0xbcaade52	-0.020857964
151	0xbbce9a40	-0.006305009
152	0xbdcdb471	-0.10044182
153	0x3dd66e8a	0.104703024
154	0x3da6be82	0.08141805
155	0x3c242f41	0.010021032
156	0x3ce14e38	0.027503118
157	0x3e04e93a	0.12979594
158	0xbdad1eb7	-0.08453124
159	0xbde77337	-0.11301272
160	0xbd406835	-0.04697438
161	0x3db54364	0.08850744
162	0xbd9f1cde	-0.07769178
163	0x3df8db10	0.12151158
164	0xbda00879	-0.07814116
165	0xbd134d7d	-0.03596257
166	0x3c90b806	0.017665874
167	0x3dda17ed	0.10649095
168	0x3daffbae	0.08592926
169	0xbd4ff233	-0.05076809
170	0xbbc10d5f	-0.0058914865
171	0xbd88adeb	-0.06673797
172	0xbdbe40f2	-0.09289731
173	0xbc4d5f2b	-0.012534897
174	0x3d199da1	0.037503842
175	0x3ae4f197	0.0017467019
176	0xbd2434e0	-0.040089488
177	0xbd9d9a7c	-0.07695481
178	0x3d263e92	0.040587015
179	0x3d613f58	0.05499205
180	0xbdbff794	-0.09373394
181	0x3de89773	0.11357012
182	0x3da23bd4	0.079215676
183	0x3dfe028e	0.12402831
184	0xbd2f4626	-0.04279151
185	0xbd77e81c	-0.06052409
186	0x3dac6473	0.08417597
187	0xbd976e24	-0.073940545
188	0xbdf5017f	-0.11963176
189	0x3daf8cf0	0.085718036
190	0xbe08708a	-0.1332418
191	0x3c1d45b5	0.009599139
192	0x3de2703b	0.110565625
193	0xbc8b7403	-0.017023092
194	0xbdcbb78b	-0.099471174
195	0xbd65e066	-0.056122206
196	0x3d6ecf0c	0.058302924
197	0x3d2e9eab	0.042631786
198	0x3ddf5130	0.10904157
199	0xbdc64470	-0.09681022
200	0xbda15573	-0.07877626
201	0xbb255e1d	-0.0025233098
202	0x3d0ebf7d	0.034850586
203	0x3d1551f9	0.03645513
204	0x3dbb5d98	0.09148711
205	0x3b641d04	0.0034807334
206	0x3d34c4e0	0.044133067
207	0xbcec905f	-0.028877435
208	0x3cee35df	0.029078422
209	0x3dd69bd6	0.10478942
210	0xbd04d517	-0.03242978
211	0xbd8504bd	-0.064950444
212	0xbdaffbb4	-0.085929304
213	0x3dc79120	0.09744477
214	0x3da28204	0.07934955
215	0xbc32fdd3	-0.010924774
216	0x3d8e2ad0	0.069417596
217	0xbb5e1912	-0.0033889455
218	0x3ddff4ac	0.10935339
219	0x3dfb0a06	0.12257771
220	0xbda2ac3f	-0.079430096
221	0xbc9ecb1a	-0.019383956
222	0x3bd281ff	0.006424188
223	0xbd8b436d	-0.0679997
224	0x3c877471	0.016535016
225	0xbdb29e14	-0.08721557
226	0xbde831a6	-0.11337595
227	0x3df006f5	0.11720077
228	0x3b0828ae	0.00207762
229	0xbe016e25	-0.12639673
230	0x3d6f7aec	0.058466837
231	0xbd3b4e41	-0.045728926
232	0xbdbb81f8	-0.09155649
233	0x3d3200e0	0.043457866
234	0xbbe05906	-0.00684655
235	0x3d79edd8	0.06101784
236	0xbdcc8add	-0.099874236
237	0x3d8e77cf	0.069564454
238	0x3db78132	0.08960189
239	0x3d28f6e9	0.041251097
240	0xbddbdf42	-0.107359424
241	0xbc48aa8a	-0.012247691
242	0x3d68c53d	0.056828726
243	0xbbe891ad	-0.007097444
244	0x3daf7ce1	0.08568741
245	0x3da15c5a	0.07878943
246	0x3d7637ad	0.06011169
247	0xbd049bc6	-0.03237512
248	0x3d80c216	0.06287019
249	0x3d70a551	0.058751408
250	0xbcf7e684	-0.030261286
251	0xbd23a978	-0.03995654
252	0xbdafca61	-0.085835226
253	0x3d0469fd	0.03232764
254	0x3dbf15be	0.09330319
255	0xbe064be6	-0.1311489

actor.2.bias f4 [64]
0	0xbd131be9	-0.03591529
1	0xbdb7dad6	-0.089772865
2	0xbd968c36	-0.07350962
3	0x3d7369ae	0.059426956
4	0x3ddbd495	0.10733906
5	0xbd5d4839	-0.054023955
6	0xbd9c2254	-0.07623735
7	0xbd85e7e1	-0.06538368
8	0x3d353bfe	0.044246666
9	0xbd259a51	-0.04043037
10	0x3cf4aee4	0.02986855
11	0xbda2f260	-0.079563856
12	0x3dee7c42	0.11644794
13	0xbde3286b	-0.110916935
14	0x3de41740	0.11137247
15	0x3ddc2ff5	0.107513346
16	0x3d032d81	0.032025818
17	0xbdf49edf	-0.11944365
18	0x3da75506	0.08170514
19	0x3def09bc	0.116717786
20	0xbdb6a556	-0.08918254
21	0x3d909986	0.07060532
22	0xbdf72135	-0.120668806
23	0x3c6905d3	0.01422258
24	0x3db4adcc	0.088222116
25	0x3d9a4d07	0.07534223
26	0xbd9f6caf	-0.077844016
27	0x3c1f5951	0.009725885
28	0x3d6686c8	0.05628088
29	0x3b136e45	0.0022496146
30	0x3c8a00cb	0.016846081
31	0x3e02757b	0.12740128
32	0x3cf8f47a	0.030390013
33	0x3d90b5f3	0.07065954
34	0xbc6e1b00	-0.0145328045
35	0xbddc4bf5	-0.10756675
36	0xbd9204c3	-0.071298145
37	0x3e024a3d	0.12723632
38	0xbcc0021b	-0.023438504
39	0x3cce13e3	0.025155967
40	0x3d76a49c	0.060215577
41	0xbd4f2c47	-0.050579336
42	0xbdba29ad	-0.0908998
43	0xbc73fca8	-0.014891781
44	0x3d780031	0.060547058
45	0x3d2a278e	0.04154163
46	0xbc2f1fb7	-0.010688714
47	0x3dc067fc	0.093948334
48	0xbdb12f10	-0.086515546
49	0x3d034447	0.032047536
50	0x3d20f4e0	0.03929603
51	0xbdc7c99c	-0.09755251
52	0xbdd68e2e	-0.104763374
53	0x3dae4a38	0.0851025
54	0xbdb1d60d	-0.08683405
55	0xbd2d9a0a	-0.04238323
56	0xbda15a74	-0.07878581
57	0xbd55e2ab	-0.05221812
58	0xbdc7d05f	-0.097565405
59	0xbe0560f2	-0.13025263
60	0xbdddf74e	-0.10838185
61	0xbcd30754	-0.02576033
62	0xbc815bac	-0.015790783
63	0x3de15c41	0.11003924

actor.4.weight f4 [2, 64]
0	0xbd4c4786	-0.049872898
1	0x3d55c9b9	0.05219433
2	0x3d4ceff1	0.050033513
3	0xbdaef225	-0.08542279
4	0x3d127204	0.035753265
5	0xbb8d1579	-0.0043055383
6	0xbae7872c	-0.0017664186
7	0x3bd63482	0.006537021
8	0xbc977262	-0.01848716
9	0x3cfcdea2	0.030867878
10	0x3da24c10	0.07924664
11	0xbc572d9f	-0.0131334355
12	0xbdbb4f6a	-0.091460064
13	0x3c24beff	0.010055303
14	0x3d403209	0.046922717
15	0x3a0c7343	0.00053577515
16	0x3b236ac1	0.0024935456
17	0x3c19ca6c	0.00938664
18	0x3d1e79ac	0.038690254
19	0x3d8bcf99	0.068267055
20	0x3c9ffa8e	0.019528653
21	0x3dbb599e	0.091479525
22	0xbdc24948	-0.094866335
23	0xbd90380b	-0.07041939
24	0xbaf22c44	-0.0018476327
25	0xbb697ffd	-0.0035629265
26	0x3cafaa2c	0.021443449
27	0x3ac24193	0.0014820568
28	0x3dd56004	0.10418704
29	0x3cd4b206	0.025963794
30	0x3d80edeb	0.06295379
31	0xbcd807f4	-0.02637098
32	0xbc05f433	-0.008175897
33	0x3d740de3	0.059583556
34	0xbd877f95	-0.06616131
35	0x3da49dcd	0.080379106
36	0x3cc8f473	0.024530625
37	0xba976538	-0.0011550551
38	0x3d973664	0.07383421
39	0x3b947acb	0.0045312396
40	0xbc4f040b	-0.012635241
41	0xbccf4173	-0.025299763
42	0xb9cb38c0	-0.0003876146
43	0xbd51d686	-0.051229976
44	0x3d3b5e16	0.045744024
45	0xbcc7b371	-0.024377557
46	0x3800ab74	3.0677256e-05
47	0x3da2a418	0.07941455
48	0x3d9d7fb9	0.07690377
49	0x3d2ae872	0.041725583
50	0x3d3cf095	0.046127874
51	0xbda57f04	-0.08080867
52	0xbbc3782a	-0.0059652524
53	0xbc544d31	-0.012957857
54	0x3b85ed20	0.0040871054
55	0xbd30642f	-0.043064293
56	0x3cec1ebf	0.028823255
57	0xbc74d8f9	-0.014944308
58	0xbdd22b19	-0.102621265
59	0x3b114e50	0.0022171922
60	0xbd42739c	-0.047473535
61	0x3d1294cd	0.03578644
62	0x3c29bdf6	0.010360232
63	0xbb945c9e	-0.0045276424
64	0x3d835334	0.06412354
65	0x3c04689f	0.008081584
66	0x3cd47724	0.025935717
67	0x3c7faea0	0.015605599
68	0xbd8f23b0	-0.06989229
69	0x3bcaea5d	0.006192489
70	0xbbd2fe02	-0.0064389715
71	0xbb701710	-0.003663484
72	0xba5d8da8	-0.00084515894
73	0x3d8dbdd0	0.069209695
74	0xbcca1816	-0.024669688
75	0x3cfe59c7	0.031048669
76	0x3d9a7cc4	0.075433284
77	0xbd68d6c0	-0.056845427
78	0x3d650210	0.05591017
79	0x3bb2f469	0.005461265
80	0xbc07ade9	-0.0082812095
81	0xbc884a44	-0.016636975
82	0xbc37d232	-0.011219548
83	0x3db29035	0.087189116
84	0xbd1afa27	-0.03783622
85	0x3cc65aa0	0.024213135
86	0x3d9c6c49	0.07637841
87	0xbd210d4f	-0.039319333
88	0x3bd3379a	0.006445837
89	0x3b6d13f9	0.0036175235
90	0xbb45550b	-0.0030110504
91	0x3d725601	0.05916405
92	0x3de02972	0.10945405
93	0x3c35bd10	0.011092439
94	0xbccd9840	-0.025097013
95	0x3c2742e6	0.010208821
96	0x3bc4b66b	0.006003191
97	0xbcc9f417	-0.024652524
98	0x3dcbe841	0.09956408
99	0xbd7c428e	-0.06158691
100	0xbc8466f8	-0.01616238
101	0x3b8f48e1	0.0043727015
102	0xbdc872a7	-0.09787493
103	0x3baa7e73	0.005203062
104	0x3cf3c25b	0.029755762
105	0x3b9fb342	0.004873664
106	0xbbbe58be	-0.0058089187
107	0xbc495710	-0.012288824
108	0xbd8f10e2	-0.06985642
109	0x3c57599b	0.013143922
110	0x3b2aba8e	0.0026051137
111	0xbd70d4cf	-0.0587967
112	0x3d0b204c	0.033966348
113	0xbc32d175	-0.010914196
114	0xbbd6c31c	-0.0065540206
115	0x3cc39f4e	0.023879673
116	0x3d98c5e4	0.0745962
117	0x3b97b25d	0.004629417
118	0xbbc6cd8e	-0.0060669845
119	0x3b15bf73	0.0022849708
120	0x3c14bf52	0.009078817
121	0x3bccacb2	0.006246173
122	0x3d910403	0.07080843
123	0x3b6ebebd	0.0036429607
124	0x3dc0815a	0.09399672
125	0xbd46661b	-0.04843722
126	0xbc5b1742	-0.013372244
127	0x3be0b729	0.006857772

actor.4.bias f4 [2]
0	0xbd54a6a9	-0.051916752
1	0x3df0e561	0.117625006

critic.0.weight f4 [64, 15]
0	0xbdcb8ad3	-0.09938588
1	0x3da3974d	0.07987843
2	0x3da982ab	0.08276876
3	0x3e3c0d6a	0.18364492
4	0xbdd3f324	-0.1034911
5	0x3ee9b2b3	0.4564415
6	0x3e71bcb2	0.23607138
7	0x3d8975fb	0.06711956
8	0x3e036d88	0.12834752
9	0xbca79410	-0.020456344
10	0xbe02f15d	-0.12787385
11	0xbe10fd26	-0.14159068
12	0xbc9b96d8	-0.018992826
13	0x3dd34ddc	0.10317585
14	0x3e41b142	0.18915275
15	0xbd42aa01	-0.04752541
16	0xbb75938d	-0.003747198
17	0xbe0fdaf9	-0.14048375
18	0xbe13000d	-0.14355488
19	0x3d0088dc	0.03138052
20	0x3e82bf59	0.25536612
21	0xbea89c03	-0.32931527
22	0xbf8c43f3	-1.0958236
23	0xbe6e0807	-0.2324525
24	0xbdf949d8	-0.12172288
25	0x3d965708	0.07340819
26	0xbd4be8f8	-0.049782723
27	0x3e21cf42	0.15801719
28	0xbda3a87c	-0.0799112
29	0xbe50659c	-0.20351261
30	0x3e6130fc	0.21991342
31	0x3d9b2b1b	0.07576581
32	0xbe3d060d	-0.1845934
33	0x3e2a6641	0.1664057
34	0xbea726a1	-0.3264666
35	0xbdb3bd6e	-0.08776365
36	0xbe2e7ed5	-0.1704057
37	0xbfb0e137	-1.381873
38	0xbe5fd30e	-0.21857855
39	0x3e7abe5a	0.24486676
40	0x3cf06c00	0.029348373
41	0x3e49ffc0	0.19726467
42	0xbe241ef6	-0.16027436
43	0x3e4f25d0	0.20229268
44	0xbdab0040	-0.08349657
45	0xbe84b6db	-0.25920758
46	0xbe45fbbd	-0.19334312
47	0xbbc81f8a	-0.0061072754
48	0xbed07e70	-0.40721464
49	0x3daf7267	0.085667424
50	0xbf1b6d09	-0.6071325
51	0xbc4aeb50	-0.012385204
52	0xbde046d9	-0.10951013
53	0x3dbd4aa4	0.09242752
54	0x3e60cb4c	0.21952552
55	0x3d02b0e0	0.031906962
56	0x3e4b6834	0.19863969
57	0x3d1721d0	0.03689748
58	0xbe1af4d8	-0.15132463
59	0x3dae814c	0.08520755
60	0x3ba9db3b	0.005183605
61	0xbde6b941	-0.11265803
62	0x3e5b58b3	0.21420555
63	0xbd78ee3d	-0.060774077
64	0x3d19add7	0.037519302
65	0x3ea5e7fc	0.32403553
66	0x3cd3040c	0.025758766
67	0xbd3ba2f3	-0.045809697
68	0x3e81f3b5	0.25381246
69	0xbe2d2313	-0.16907911
70	0x3dc72794	0.09724346
71	0x3e1c66d6	0.15273604
72	0x3e23a920	0.15982485
73	0xbe317b6a	-0.17332235
74	0x3d16e1a8	0.036836296
75	0xbe1e942b	-0.15486209
76	0x3d8f3020	0.06991601
77	0x3d44f21f	0.048082467
78	0xbe360638	-0.1777581
79	0x3bdaf62f	0.0066821794
80	0x3e4e6fd1	0.20159842
81	0x3db7e219	0.089786716
82	0xbe096cbf	-0.1342039
83	0x3e72a4fc	0.23695749
84	0xbdaf90cc	-0.0857254
85	0xbd9a3e3e	-0.07531403
86	0x3d7393d8	0.059467167
87	0xbe128eb8	-0.14312255
88	0x3cab1e60	0.020888507
89	0x3db3689c	0.08760187
90	0x3da6c067	0.081421666
91	0x3df398b5	0.11894361
92	0x3e870ac6	0.26375407
93	0xbe3c555d	-0.18391939
94	0x3e942f23	0.28942212
95	0x3d95f0b8	0.07321304
96	0x3e608556	0.21925864
97	0xbf6c2b19	-0.9225326
98	0x3de0e25c	0.109806746
99	0xbe77bf08	-0.24193966
100	0xbe27c066	-0.16381988
101	0x3db4be2c	0.08825335
102	0xbe68ebca	-0.22746196
103	0x3d8a3188	0.067477286
104	0xbe6d7079	-0.23187436
105	0xbdb393ee	-0.0876845
106	0x3e15fa91	0.14646365
107	0x3d591657	0.05299982
108	0x3eb1bf38	0.347162
109	0x3e983f89	0.29735973
110	0x3e69d320	0.22834444
111	0xbdd8b498	-0.105813205
112	0x3faa7706	1.3317573
113	0x3da0c224	0.078495294
114	0x3e09e312	0.13465527
115	0x3e2ad5c4	0.16683108
116	0xbe75e5f2	-0.24013498
117	0x3d889594	0.06669155
118	0x3e5f5270	0.21808791
119	0x3e73a7fc	0.2379455
120	0xbd435a64	-0.047693625
121	0xbd03f77e	-0.03221845
122	0x3e8f187b	0.27948365
123	0x3ed8abc8	0.4231856
124	0xbd1a316d	-0.037644792
125	0x3ec669da	0.38752633
126	0x3ed538b4	0.41644824
127	0x3f999a8a	1.2000287
128	0xbe635879	-0.22201718
129	0x3e0e52be	0.13898751
130	0xbe81a72b	-0.25322852
131	0x3e5b4ee6	0.21416816
132	0x3e18ed68	0.14934313
133	0x3e4b0dcc	0.19829482
134	0xbd54a37c	-0.051913723
135	0xbe2a5ff6	-0.16638169
136	0xbd73c57c	-0.059514508
137	0xbe720645	-0.23635204
138	0xbdfdd227	-0.12393599
139	0x3e90baae	0.28267425
140	0x3e779cf0	0.2418096
141	0xbc044287	-0.008072502
142	0x3f7bfa60	0.98428917
143	0xbda16114	-0.07879844
144	0xbdfd0f64	-0.12356451
145	0xbe495f0c	-0.19665164
146	0xbdf498f2	-0.119432345
147	0x3e8036af	0.2504172
148	0xbdfbab3e	-0.12288521
149	0xbd371294	-0.04469545
150	0xbe251511	-0.16121317
151	0x3d84a46b	0.06476673
152	0x3e2a20ac	0.16614026
153	0xbe9e531d	-0.30922785
154	0x3bc24fe1	0.0059299325
155	0xbe0254aa	-0.1272761
156	0x3de79a9e	0.11308788
157	0xbf93947b	-1.1529688
158	0xbdbbecd0	-0.09176028
159	0xbd06461c	-0.032781705
160	0xbe647615	-0.2231067
161	0xbe73d5fc	-0.23812097
162	0x3dd3e490	0.10346329
163	0xbe0b244e	-0.13588068
164	0x3d655ec0	0.055998564
165	0x3d00a4d4	0.031407192
166	0x3d85dbf7	0.065360956
167	0xbec95cdc	-0.3932866
168	0x3cbbef97	0.022941394
169	0xbdb20cbf	-0.086938374
170	0x3e90fad9	0.28316382
171	0xbe0cb716	-0.13741717
172	0x3e948009	0.29003933
173	0xbd8f6762	-0.070021406
174	0x3e3eab22	0.1861997
175	0xbdccbaf8	-0.09996599
176	0xbd322684	-0.043493763
177	0xbd97b94c	-0.074083894
178	0x3d4a5fd8	0.04940781
179	0x3e04d1ea	0.12970701
180	0xbe0bb9ee	-0.13645145
181	0xbd59bfbb	-0.053161364
182	0xbe2a49af	-0.1662967
183	0x3ecfe851	0.4060693
184	0x3cb857f3	0.022502875
185	0x3ecc2b30	0.398767
186	0xbed51595	-0.41618028
187	0x3f0b8540	0.545002
188	0x3e64fd5a	0.22362271
189	0xbc41f3e0	-0.0118379295
190	0xbd0dec4c	-0.03464918
191	0xbe1e3b0c	-0.15452212
192	0xbe3b6aa2	-0.18302396
193	0x3e4f470a	0.20241943
194	0xbdccf65e	-0.10007928
195	0x3e2dd655	0.16976292
196	0x3e859c3d	0.26095763
197	0xbe891a07	-0.2677767
198	0x3ea24e59	0.317004
199	0xbc3a3e2d	-0.011367363
200	0x3e5013b3	0.20320015
201	0xbd89c9e9	-0.067279644
202	0x3f4406a7	0.7657265
203	0xbd81d6b4	-0.063397795
204	0xbe33b8ae	-0.17550918
205	0x3e4c9690	0.1997931
206	0x3e3b8c96	0.18315348
207	0xbe008f23	-0.12554602
208	0xbe821431	-0.2540603
209	0x3e534900	0.20633316
210	0x3d863fc2	0.065551296
211	0xbe1e7060	-0.15472555
212	0xbd0d5e7b	-0.03451393
213	0x3db90ee3	0.090360425
214	0xbca7c124	-0.020477839
215	0xbd865ac7	-0.06560283
216	0x3dc3c557	0.09559124
217	0x3f9e09b9	1.2346717
218	0x3c95f8d0	0.01830712
219	0xbdf6f06e	-0.12057577
220	0xbe64c5cf	-0.22341083
221	0x3e3bc768	0.18337786
222	0x3d0d0e90	0.034437716
223	0xbda6ee9c	-0.0815098
224	0xbd3d06ac	-0.04614894
225	0xbd2b2ae3	-0.041788947
226	0xbe4dfc56	-0.2011579
227	0xbb561471	-0.0032665993
228	0x3e6a3361	0.22871162
229	0xbe8843f7	-0.26614353
230	0xbe8735fb	-0.2640837
231	0xbdd250ec	-0.10269341
232	0x3f23b8a8	0.6395364
233	0xbe18ad55	-0.14909871
234	0xbd08c9c4	-0.033395544
235	0x3e71bbba	0.23606768
236	0xbd127ec8	-0.03576544
237	0xbdf9f344	-0.12204602
238	0x3be3f140	0.0069562495
239	0x3e7f4a2a	0.24930635
240	0x3e1e04a0	0.15431452
241	0x3e73009d	0.23730703
242	0xbd4829c5	-0.04886796
243	0xbceb03a2	-0.028688256
244	0xbcc21548	-0.023691788
245	0x3cce8716	0.025210898
246	0x3e86a9e3	0.26301488
247	0xbfa4481f	-1.283451
248	0x3da24dbc	0.07924983
249	0xbdd32ab6	-0.10310881
250	0xbc9553e8	-0.018228486
251	0xbc1a3cb0	-0.009413883
252	0xbc8a9268	-0.016915515
253	0x3e432b4e	0.19059488
254	0x3e4eb82c	0.20187443
255	0x3be6fcfb	0.0070492006

critic.0.bias f4 [64]
0	0x3ec5d061	0.38635543
1	0xbe843f2d	-0.2582945
2	0xbe0c548e	-0.1370413
3	0xbe52c63c	-0.20583433
4	0x3e4e74e4	0.20161778
5	0x3e408d84	0.18803984
6	0xbcfc3fae	-0.030792084
7	0x3e549b6c	0.20762414
8	0x3ef4f52d	0.47843304
9	0xbd38c1b6	-0.045106612
10	0xbd8dd085	-0.069245376
11	0x3e672af0	0.22574973
12	0xbddde564	-0.108347684
13	0xbe06ce27	-0.13164578
14	0x3e8bcc21	0.27304175
15	0x3e90a453	0.2825037
16	0xbe1a3a81	-0.1506138
17	0x3e8e96ac	0.2784933
18	0xbd8a6749	-0.06757981
19	0xbe90f83a	-0.28314382
20	0xbd59d52b	-0.05318181
21	0x3e315682	0.17318156
22	0x3ea6c28e	0.32570308
23	0x3e166b32	0.1468933
24	0x3e0f312b	0.139836
25	0x3e8b7782	0.27239615
26	0xbb896f5f	-0.0041941847
27	0xbd1a6265	-0.037691493
28	0x3deb6a54	0.1149489
29	0xbe80c942	-0.25153548
30	0x3e615f53	0.2200902
31	0xbd6a580a	-0.057212867
32	0x3eb6ed4b	0.35727915
33	0xbde76f52	-0.113005295
34	0xbe9121c9	-0.2834609
35	0xbd98612b	-0.07440408
36	0xbea7c11d	-0.3276452
37	0xbd97d815	-0.07414261
38	0x3ec0e020	0.37670994
39	0x3d186c96	0.03721293
40	0x3dc9269f	0.098218195
41	0xbde829b9	-0.11336083
42	0x3e161a57	0.14658485
43	0x3e1e6a84	0.1547032
44	0xbe4f1941	-0.20224477
45	0x3d8c0679	0.06837172
46	0x3dcf2d70	0.101160884
47	0x3cbe53e8	0.023233369
48	0xbbf857f8	-0.007578846
49	0xbdd35bf1	-0.10320271
50	0x3e0530f2	0.13006952
51	0xbd07bb8a	-0.033137836
52	0x3d3a6eea	0.045515932
53	0xbd3ad0b8	-0.045609206
54	0x3ba02067	0.004886675
55	0x3e045249	0.12922014
56	0x3e135ba3	0.14390425
57	0xbd0641fd	-0.032777775
58	0x3e871c5f	0.26388833
59	0xbd037d55	-0.032101948
60	0x3bda41b5	0.006660665
61	0xbe8a0cef	-0.26962993
62	0x3cbb4086	0.022857916
63	0xbe0068e0	-0.12540007

critic.2.weight f4 [64, 64]
0	0x3af64342	0.0018788355
1	0x3e23bd6e	0.1599023
2	0xbdab49e2	-0.083637014
3	0x3c4351d2	0.011921363
4	0x3c9a0586	0.018801462
5	0xbc15eedb	-0.009151186
6	0xbe31d0bc	-0.17364782
7	0x3dbcdc6e	0.09221731
8	0xbd8d525c	-0.069004744
9	0x3da094a4	0.07840851
10	0x3d97f68d	0.07420073
11	0xbdcc5971	-0.09977997
12	0x3d1a69fa	0.037698723
13	0xbdca4e5c	-0.09878227
14	0xbdd47a5b	-0.103749
15	0xbd299402	-0.041400917
16	0x3b927f36	0.004470731
17	0x3b8748f1	0.0041285683
18	0x3bffe9a9	0.007809837
19	0xbd2e1a87	-0.042505767
20	0x3d8e0f4b	0.06936511
21	0xbe2e0399	-0.1699356
22	0xbda80c93	-0.08205523
23	0x3e540986	0.20706758
24	0x3dd05796	0.10172956
25	0x3d4e9403	0.050434124
26	0xbcb10992	-0.021611009
27	0x3d411bb7	0.04714557
28	0x3da4a3cc	0.08039054
29	0xbd3e66bd	-0.046484698
30	0xbdc5b7f3	-0.09654226
31	0x3c4918de	0.012273995
32	0x3db7334e	0.089453325
33	0xbdc628b9	-0.09675736
34	0xbd362d6d	-0.044476915
35	0x3df982f1	0.12183178
36	0xbdb2a762	-0.08723332
37	0xbd9ca905	-0.076494254
38	0x3df3f963	0.11912801
39	0xbdda10b8	-0.1064772
40	0xbd659a96	-0.056055628
41	0xbd962503	-0.07331278
42	0xbe24c1d0	-0.16089559
43	0x3e72b202	0.23700717
44	0xbd98e6a2	-0.07465865
45	0x3ce63323	0.028100556
46	0x3d304e83	0.043043625
47	0x3e0d0745	0.13772304
48	0xbbf20676	-0.007386024
49	0xbe08729e	-0.13324973
50	0xbcae4760	-0.021274269
51	0x3cac9b70	0.021070212
52	0xbd3511f4	-0.044206575
53	0x3bf2e708	0.007412795
54	0xbd4b7949	-0.049676213
55	0xb6a79c2f	-4.99517e-06
56	0x3e218f96	0.1577743
57	0x3c55bec7	0.013045973
58	0x3cb5525c	0.022133999
59	0xbc9bb1a4	-0.019005604
60	0xbe11edfe	-0.14250943
61	0x3d893d32	0.06701125
62	0x3ce07c12	0.027402911
63	0x3dbe85b1	0.09302843
64	0x3d3d4ca2	0.04621566
65	0x3e015b18	0.12632406
66	0xbd9aaa7c	-0.075520486
67	0x3d104113	0.03521831
68	0xbdc41eaf	-0.09576165
69	0xbcc36b5d	-0.023854906
70	0x3d3a8d05	0.045544643
71	0xbdc2b976	-0.0950803
72	0xbd84321d	-0.06454871
73	0x3d16ebac	0.036845848
74	0x3eb5d3a6	0.35513037
75	0xbc977787	-0.018489612
76	0xbc7dbf6d	-0.015487534
77	0xbe15cb3b	-0.14628308
78	0xbf0ca2fb	-0.5493619
79	0xbc8944f9	-0.016756522
80	0x3e241f89	0.16027655
81	0x3d3e377a	0.046439625
82	0x3ec1ff7c	0.37890232
83	0xbc176e2a	-0.009242574
84	0x3dd26e74	0.102749735
85	0xbe7d6e2b	-0.24749057
86	0xbdede7b6	-0.11616461
87	0x3ea01630	0.31266928
88	0x3e00a0f9	0.12561406
89	0xbd9a89e7	-0.07545834
90	0x3e16ed0a	0.1473886
91	0xbd60c047	-0.05487087
92	0xbdb431dc	-0.087985724
93	0xbc28fe97	-0.010314605
94	0xbe382ee6	-0.1798664
95	0x3dbbbf5d	0.09167359
96	0x3d8ee5bc	0.06977412
97	0xbdb5e096	-0.08880727
98	0x3dc9959b	0.09842988
99	0x3e70d48a	0.23518577
100	0xbe05b6b9	-0.13057984
101	0xbdd26a5b	-0.10274192
102	0x3dcf46e9	0.10120947
103	0xbeaa0919	-0.33210066
104	0xbe1014df	-0.14070462
105	0xbed2ce29	-0.41172913
106	0xbf1bc7b6	-0.6085161
107	0x3ed5bb1c	0.41744316
108	0xbd27d232	-0.040971942
109	0x3e748af6	0.23881134
110	0x3cde4543	0.027132636
111	0x3d9c8206	0.076419875
112	0xbd100874	-0.03516431
113	0xbed2bf28	-0.41161466
114	0xbb67dc37	-0.003537906
115	0x3d500220	0.050783277
116	0xbc78f108	-0.015194185
117	0x3e888463	0.26663503
118	0x3d93a80b	0.07209786
119	0x3d337c06	0.04381945
120	0x3e8e08ff	0.27741238
121	0xbd15d2e1	-0.036578063
122	0xbd1e3112	-0.038621016
123	0xbd2dedb3	-0.042463016
124	0xbe6a0462	-0.22853234
125	0x3cdd201a	0.026992846
126	0x3dbe0e53	0.09280076
127	0x3dd7ce02	0.1053734
128	0xbd9af019	-0.07565326
129	0xbe38cec8	-0.18047631
130	0x3d886306	0.06659512
131	0xbdcda9cb	-0.10042151
132	0x3d4de3a0	0.05026591
133	0x3d7f3d79	0.062314484
134	0x3d60e6e6	0.054907702
135	0xbd19a742	-0.037513025
136	0x3d835b8d	0.06413946
137	0x3c906604	0.01762677
138	0xbe8d556e	-0.2760424
139	0x3c495670	0.012288675
140	0x3de87f17	0.113523655
141	0x3dd380a7	0.10327273
142	0x3eba4f69	0.3638871
143	0xbd7ee519	-0.062230203
144	0x3d1a0a12	0.03760726
145	0xbda2a493	-0.07941546
146	0xbea6ca86	-0.32576388
147	0xbd822c66	-0.063561246
148	0xbde005b4	-0.10938588
149	0x3dd1f260	0.102513075
150	0xbdf0cf13	-0.11758246
151	0xbd975cbb	-0.07390734
152	0x3b90a3b4	0.004414046
153	0xbdd0dc2d	-0.10198245
154	0xbdab5e1f	-0.083675615
155	0x3dca9a6a	0.098927334
156	0xbdffe0fb	-0.124940835
157	0xbe1ab5df	-0.15108441
158	0xbc16d8a3	-0.009206924
159	0xbda84ea9	-0.08218128
160	0xbd55e5ef	-0.052221235
161	0x3ddc9b70	0.10771835
162	0x3d802307	0.06256681
163	0xbe660367	-0.22462235
164	0x3b0edddb	0.0021799717
165	0xbd1dfe12	-0.03857238
166	0xbd96bc39	-0.073601194
167	0x3cebfcda	0.028807092
168	0x3d90c993	0.07069697
169	0x3e8190a5	0.25305668
170	0x3e8fbf1a	0.28075486
171	0xbeaa55b4	-0.3326851
172	0x3de5e67c	0.11225602
173	0xbde3e3a5	-0.11127404
174	0x3dcdc831	0.10047949
175	0xbe2accf0	-0.1667974
176	0xbcfe6f98	-0.031059071
177	0x3e1f7689	0.15572561
178	0x3dcdc13e	0.10046624
179	0xbc95a1ba	-0.018265594
180	0x3d23d0ac	0.039993927
181	0xbe2bb1fb	-0.16767113
182	0x3d8b805c	0.06811592
183	0x3dd06ddf	0.10177206
184	0xbe5a915a	-0.2134451
185	0x3c850865	0.016239354
186	0xbdf1dcb1	-0.11809672
187	0x3dca9caf	0.09893166
188	0x3ddb279d	0.10700915
189	0x3ddbef22	0.1073897
190	0xbde45789	-0.111495085
191	0x3d37d8df	0.04488456
192	0x3d67a98b	0.056558173
193	0xbe3eaeeb	-0.18621413
194	0xbc7c1aa6	-0.015387213
195	0x3e1cc514	0.15309554
196	0x3d338285	0.043825645
197	0xbd5a4179	-0.053285096
198	0x3e0fbd11	0.14036967
199	0xbd539382	-0.051654346
200	0xbdba7026	-0.09103422
201	0xbd4c0ed9	-0.049818847
202	0xbdd15b49	-0.102224894
203	0x3cd73661	0.026271047
204	0xbdf34375	-0.11878101
205	0xbb209852	-0.0024504852
206	0x3e82e848	0.25567842
207	0x3cfebd9a	0.031096268
208	0xbe027007	-0.12738048
209	0xbe160117	-0.14648853
210	0xbe6dd6d1	-0.23226477
211	0xbac3c3b4	-0.0014935643
212	0x3d1b04dc	0.03784643
213	0x3da92be4	0.082603246
214	0xbd860bf6	-0.0654525
215	0xbe597dbd	-0.21239372
216	0x3d516cd2	0.05112917
217	0x3dd2e138	0.10296863
218	0xb8978d40	-7.226551e-05
219	0x3d94266f	0.07233893
220	0xbd05a5fa	-0.03262899
221	0xbdf43ba4	-0.11925438
222	0x3c653aa0	0.013991028
223	0xbdb04687	-0.08607202
224	0xbd2df1b1	-0.042466823
225	0xbc553727	-0.013013638
226	0x3d8cb417	0.06870287
227	0xbd930954	-0.071795136
228	0xbc8d76d8	-0.017268583
229	0x3d84d973	0.06486788
230	0xbe007745	-0.12545498
231	0x3e32f185	0.17474945
232	0x3c4157d2	0.011800723
233	0x3e54b607	0.20772563
234	0x3e686e23	0.22698264
235	0xbe223ca8	-0.15843451
236	0x3d4385da	0.047735073
237	0xbdbf4368	-0.093390286
238	0xbd5aba68	-0.053400427
239	0xbd99f31c	-0.075170726
240	0xbd32b66c	-0.043631002
241	0x3e637e6e	0.22216198
242	0x3e2a5a6a	0.16636053
243	0x3d5cf8cd	0.053948212
244	0xbe06f4f2	-0.13179377
245	0xbd8c5f75	-0.068541445
246	0xbd9cea1c	-0.0766184
247	0xbd1e58b5	-0.038658816
248	0xbe3460df	-0.17615078
249	0xbdddca42	-0.10829593
250	0xbdf338c9	-0.11876065
251	0xbbbf3e49	-0.0058362824
252	0x3cf7561f	0.030192433
253	0x3c385ee2	0.011253091
254	0xbdd578ed	-0.104234554
255	0x3db6abf2	0.08919515

critic.2.bias f4 [64]
0	0x3c45fba0	0.012083918
1	0xbb94996d	-0.0045348913
2	0xbdc118f4	-0.094285876
3	0xbda54343	-0.0806947
4	0x3cd67ae1	0.02618164
5	0x3e0d21ec	0.13782471
6	0xbe1ff8a4	-0.15622193
7	0xbd453ac6	-0.048151754
8	0x3a8a86bc	0.0010568718
9	0xbd230854	-0.039802864
10	0x3d834014	0.06408706
11	0x3d4121d4	0.0471514
12	0xbce21da3	-0.027602023
13	0x3d771724	0.060324803
14	0x3cb56730	0.02214393
15	0x3e122d11	0.14275004
16	0xbd09c7ab	-0.033637684
17	0x3dae7aae	0.08519493
18	0x3c149774	0.009069312
19	0xbdc1168b	-0.09428128
20	0xbe06a042	-0.13147071
21	0x3daada75	0.083424486
22	0x3e21cf1b	0.1580166
23	0x3dd25ba2	0.10271384
24	0xbdd70bb2	-0.105002776
25	0xbe6c2868	-0.23062289
26	0x3d5b69e3	0.05356778
27	0xbd8caef3	-0.068693064
28	0x3c974664	0.018466182
29	0x3d930bba	0.07179971
30	0xbe2560d9	-0.16150226
31	0x3e3f2c5f	0.1866927
32	0xbd128154	-0.03576787
33	0x3dff0725	0.124525346
34	0xbd8a30e1	-0.06747604
35	0xbd3297a0	-0.043601632
36	0x3d2b8dcf	0.041883286
37	0xbd5ec85f	-0.054390308
38	0xbe1a66b9	-0.15078248
39	0xbd724985	-0.059152145
40	0x3db2dc7c	0.0873346
41	0xbc8d31fe	-0.017235752
42	0x3d4abafe	0.049494736
43	0x3e0cb833	0.13742141
44	0xbdd8d820	-0.105880976
45	0x3e1b6924	0.15176827
46	0xbd050d04	-0.032483116
47	0xbd468ff7	-0.04847714
48	0xbd22c6c8	-0.039740354
49	0xbd08998c	-0.03334956
50	0xbd3056cd	-0.04305153
51	0xbdb14ab0	-0.08656824
52	0x3dc5cc11	0.09658063
53	0xbe381ca8	-0.17979681
54	0xbd41921e	-0.04725849
55	0x3cb513a8	0.0221041
56	0x3e22aec1	0.15886976
57	0xbbde9b2b	-0.0067934
58	0xbdd71e0a	-0.10503776
59	0xbd3d3585	-0.04619362
60	0x3cb3be0d	0.02194121
61	0xbdd72b61	-0.10506321
62	0xbdccf412	-0.1000749
63	0x3c9362be	0.01799142

critic.4.weight f4 [1, 64]
0	0xbe3a030e	-0.18165228
1	0xbe5b8c6d	-0.21440287
2	0x3e77488c	0.24148768
3	0x3dc9a02f	0.09845006
4	0x3dd8db91	0.10588754
5	0xbe622845	-0.22085674
6	0x3dd27e77	0.102780275
7	0xbe569a14	-0.20957214
8	0xbe746f05	-0.23870476
9	0x3e36a708	0.17837155
10	0x3e433133	0.19061737
11	0x3e87b4cd	0.26505128
12	0x3e2b7860	0.16745138
13	0xbe813e84	-0.25243008
14	0xbdc8c0da	-0.098024085
15	0xbe3561cc	-0.17713088
16	0xbe992834	-0.29913485
17	0x3e280137	0.16406713
18	0x3dafd5db	0.085857116
19	0x3e26ad85	0.1627713
20	0x3dabfee0	0.08398223
21	0x3e5f4920	0.21805239
22	0xbe5fa1ae	-0.2183902
23	0xbe2eb7a4	-0.17062241
24	0xbe804e27	-0.25059626
25	0xbdfcc75e	-0.12342714
26	0xbea5c85e	-0.3237943
27	0xbe3f4027	-0.18676816
28	0x3e66c830	0.22537303
29	0xbe145c3a	-0.14488307
30	0x3e441f7e	0.19152638
31	0xbe14f9dd	-0.1454844
32	0x3ea72d80	0.326519
33	0xbe53b81d	-0.20675702
34	0x3dd4542d	0.10367618
35	0xbe738c52	-0.23783997
36	0x3e41a1a3	0.18909316
37	0x3dc2fd2c	0.09520945
38	0x3e6d9d88	0.23204625
39	0x3e180324	0.14844948
40	0xbdd4b1c5	-0.10385469
41	0xbe811630	-0.2521224
42	0xbe7a08ad	-0.24417372
43	0xbdad75d3	-0.08469739
44	0x3e560d60	0.2090354
45	0x3ebbb317	0.36660072
46	0x3eb6b78b	0.35686907
47	0xbe79c5b3	-0.24391823
48	0x3e80a961	0.25129226
49	0xbe837e87	-0.2568247
50	0xbe130bf7	-0.14360033
51	0x3e820070	0.2539096
52	0xbde31439	-0.110878415
53	0x3db91a82	0.09038259
54	0xbe0124e7	-0.12611733
55	0x3d580222	0.05273641
56	0xbe3f607a	-0.18689147
57	0xbe2c2517	-0.16811024
58	0xbe42b7ce	-0.19015428
59	0x3e2d1a67	0.16904603
60	0x3e19686b	0.14981239
61	0x3eaddb0e	0.33956188
62	0xbda82025	-0.08209256
63	0xbe36ebb8	-0.17863357
