models/019_All_Fixed/019_All_Fixed_best.pth (torch, 46946 bytes, 11 tensors)

actor.0.weight f4 [64, 15]
-0.034528486 -0.003635128 0.2683253 -0.087726206 0.18412542 0.18379316 -0.113789275 0.09090661
-0.07350841 0.050014827 0.026866252 -0.19934562 -0.09830998 -0.24605958 -0.039551765 0.008342518
0.20095302 -0.15180627 -0.104217604 -0.2530778 0.13965832 0.13196988 -0.06359877 0.084620595
-0.22308588 0.044816732 0.016668767 -0.109095275 -0.001519382 -0.21436769 -0.0737546 -0.1176817
0.004493919 0.042143755 0.1755547 -0.065099604 0.020192714 0.037997555 0.023342052 -0.03621097
0.105744496 -0.071572885 0.17609057 0.09153116 -0.23115054 0.15142676 -0.015212427 0.07110971
-0.090807825 -0.45302317 -0.23521371 -0.11137948 0.19740209 -0.26001236 0.1959262 0.16006273
-0.2512236 0.05132273 0.0087706745 -0.004475832 0.30950227 0.0703617 -0.024794113 0.098442525
-0.42443183 0.3463695 -0.074308716 0.34029853 0.23740135 -0.03630257 0.13417318 0.2521622
-0.08254507 -0.08774187 0.22809005 -0.15215366 -0.24693815 0.006229672 0.015250191 -0.7383663
-0.10556041 -0.085914895 0.18787913 0.16098396 0.2579682 0.17196779 -0.19089235 -0.057784185
0.11258733 0.061034024 -0.010987297 0.06768987 -0.05859511 0.29530442 0.71266013 0.2572782
-0.06538483 -0.07856674 -0.12524964 -0.103108026 0.00015152335 0.10771528 -0.06393185 0.06119433
-0.21734834 0.13311017 -0.112652235 0.27237383 -0.01658213 0.26516265 -0.32212797 0.21979946
-0.046467904 0.11355265 -0.08960413 0.00153724 0.18947849 -0.19337344 0.17135414 0.16654113
0.106734 0.12860061 -0.06498356 -0.29171488 -0.64644474 -0.03147109 0.060973722 -0.1264019
0.16480252 -0.032008074 -0.28389743 -0.19962513 0.21403679 0.24899837 0.10563594 0.2898144
0.083029084 0.2325096 0.12251813 0.13384734 0.25829646 -0.07915661 0.25216627 -0.26869866
-0.034868307 -0.1466838 -0.10189964 -0.121036336 -0.080822304 0.20073798 0.27935615 -0.082451396
0.13064796 0.17794514 0.50078297 -0.04974701 -0.19835083 -0.16461815 0.15763336 0.209673
0.15455933 0.22497037 -0.13797612 -0.034839943 -0.11094192 0.2562933 -0.09093946 -0.12305037
0.18112859 -0.3005451 -0.05262007 0.20991395 0.16475621 0.21105163 -0.1859344 -0.15048872
0.0095798075 0.2563286 0.22556946 0.1238316 0.21604235 0.16651548 -0.004005876 -0.08696327
0.28551382 -0.19827396 0.082141235 -0.2059497 -0.1689285 0.012745144 0.04035597 -0.1965714
0.09492791 -0.06113246 -0.22762066 0.16166359 0.1509363 0.023695808 -0.23122647 -0.47408983
0.16123824 -0.22122042 -0.011383623 0.16919981 0.20601872 0.23095685 0.23779213 0.09878343
0.060642987 -0.093244255 0.043714218 0.15819953 -0.18005335 0.07056535 -0.14345892 -0.071750745
-0.068927884 -0.264128 0.20706135 -0.08103571 -0.1463195 0.17908812 0.06176293 0.24481526
0.22108313 0.04960135 -0.07651312 0.08780911 0.3180361 -0.0062481845 -0.17017491 -0.023850922
-0.07187757 -0.04901743 0.00015045448 -0.036723506 -0.10363272 -0.053316817 0.20747757 0.12512112
-0.056643087 0.090372436 0.055303115 0.056707773 -0.061679095 0.16891643 0.023085639 0.18329006
-0.3260183 0.043852393 0.02733028 0.1241236 -0.14246535 0.20711452 0.25549838 -0.23274045
00000000: be6d 0dbd 543b 6ebb ef61 893e cca9 b3bd
00000010: 608b 3c3e 4634 3c3e 5a0a e9bd 3f2d ba3d
00000020: 948b 96bd 59dc 4c3d 9d16 dc3c 4221 4cbe
00000030: be56 c9bd 0bf7 7bbe 0801 22bd 0eaf 083c
00000040: a1c6 4d3e 1a73 1bbe 0a70 d5bd 6a93 81be
00000050: 9702 0f3e 1d23 073e 1240 82bd 904d ad3d
00000060: a070 64be c091 373d f08c 883c 586d dfbd
00000070: 0026 c7ba 3483 5bbe a70c 97bd 1a03 f1bd
00000080: ba41 933b ee9e 2c3d 9cc4 333e f152 85bd
00000090: 316b a53c 53a3 1b3d d537 bf3c f451 14bd
000000a0: 9290 d83d ce94 92bd 1651 343e b074 bb3d
000000b0: bab2 6cbe 9e0f 1b3e 8b3d 79bc f8a1 913d
000000c0: 74f9 b9bd a7f2 e7be dddb 70be ed1a e4bd
000000d0: c623 4a3e 5720 85be e1a0 483e 7ce7 233e
000000e0: 61a0 80be c837 523d e0b2 0f3c 00aa 92bb
000000f0: 1577 9e3e cc19 903d 061d cbbc 3c9c c93d
00000100: 214f d9be 5857 b13e 2b2f 98bd 9c3b ae3e
00000110: 5719 733e 01b2 14bd b264 093e 671b 813e
00000120: 640d a9bd 02b2 b3bd 7090 693e 2bce 1bbe
00000130: 5bdd 7cbe 4722 cc3b f0db 793c 9305 3dbf
00000140: 0e30 d8bd 26f4 afbd 6363 403e fbd8 243e
00000150: 6814 843e 5318 303e 4979 43be 1caf 6cbd
00000160: 3094 e63d d0fe 793d 1004 34bc fda0 8a3d
00000170: 6d01 70bd 2432 973e e570 363f f8b9 833e
00000180: 7be8 85bd 99e7 a0bd 7141 00be 4d2a d3bd
00000190: 3de2 1e39 d499 dc3d b4ee 82bd e8a6 7a3d
000001a0: 9090 5ebe 084e 083e 37b6 e6bd 9574 8b3e
000001b0: 3fd7 87bc 66c3 873e f5ed a4be 1c13 613e
000001c0: 2155 3ebd 4b8e e83d 5f82 b7bd 377d c93a
000001d0: a606 423e b003 46be 7677 2f3e c289 2a3e
000001e0: 5b97 da3d e1af 033e 1a16 85bd a75b 95be
000001f0: 677d 25bf d4e7 00bd 95bf 793d 806f 01be
00000200: fec1 283e e61a 03bd 015b 91be 886a 4cbe
00000210: 762c 5b3e 6ef9 7e3e a857 d83d 8e62 943e
00000220: 270b aa3d ff16 6e3e c9ea fa3d 470f 093e
00000230: 6f3f 843e dc1c a2bd f01b 813e df92 89be
00000240: 12d2 0ebd 4734 16be c2b0 d0bd e6e1 f7bd
00000250: 2a86 a5bd 428e 4d3e c507 8f3e 47dc a8bd
00000260: 94c8 053e 4037 363e 5033 003f 85c3 4bbd
00000270: 7b1c 4bbe a991 28be a46a 213e 85b4 563e
00000280: cd44 1e3e a25e 663e 9d49 0dbe 54b4 0ebd
00000290: 8435 e3bd e038 833e 783e babd d501 fcbd
000002a0: c679 393e 0ce1 99be 2488 57bd aff3 563e
000002b0: dab5 283e eb1d 583e 9665 3ebe b719 1abe
000002c0: a0f4 1c3c 813d 833e aefb 663e 6c9b fd3d
000002d0: 353a 5d3e 0983 2a3e b943 83bb cd19 b2bd
000002e0: de2e 923e 5408 4bbe aa39 a83d 7ae4 52be
000002f0: 98fb 2cbe 02d1 503c 4d4c 253d 034a 49be
00000300: 9069 c23d 0866 7abd 6415 69be 248b 253e
00000310: 0c8f 1a3e b61d c23c a2c6 6cbe e7bb f2be
00000320: a31b 253e 9b87 62be 6082 3abc b742 2d3e
00000330: 92f6 523e f47f 6c3e c87f 733e f84e ca3d
00000340: c864 783d d8f6 bebd ae0d 333d 0fff 213e
00000350: e85f 38be 9184 903d e5e6 12be 0ef2 92bd
00000360: 102a 8dbd c93b 87be e407 543e 0df6 a5bd
00000370: c7d4 15be e062 373e 20fb 7c3d dab0 7a3e
00000380: 9e63 623e c92a 4b3d e9b2 9cbd 43d5 b33d
00000390: a1d5 a23e 92bd ccbb 5542 2ebe 0263 c3bc
000003a0: 8c34 93bd 80c6 48bd 51c3 1d39 636b 16bd
000003b0: 643d d4bd bc62 5abd 0075 543e c01f 003e
000003c0: 9502 68bd 2f15 b93d 8585 623d 6946 683d
000003d0: 38a3 7cbd 6ef8 2c3e 181e bd3c 64b0 3b3e
000003e0: dfeb a6be 919e 333d c0e3 df3c 8434 fe3d
000003f0: 70e2 11be d415 543e afd0 823e 8353 6ebe

actor.0.bias f4 [64]
-0.14192666 0.030569684 0.053693354 0.08158996 -0.11399219 0.13041669 0.06740942 -0.19694516
0.19731297 -0.056937754 -0.10549205 0.20198782 -0.25657967 -0.05754779 0.0584635 -0.14183745
-0.22438158 -0.19065389 -0.15164308 -0.06849273 -0.24226546 -0.057753514 -0.1659464 0.023403984
-0.0400942 -0.191724 0.1271066 -0.22517045 -0.15451859 0.16408421 0.16462667 -0.18040128
0.08546697 -0.02191085 -0.1970828 0.08396993 -0.30350378 -0.1537098 -0.26352793 -0.1356003
-0.0052681905 -0.04537127 -0.02641401 0.014792362 0.0033739854 -0.003113855 -0.02999569 0.1610177
0.09049956 -0.1574537 0.16325894 -0.113680914 0.12365241 0.122417726 0.105017595 0.08787872
-0.2251671 0.06700522 0.19192567 -0.19669142 -0.1359985 0.05585044 -0.037785523 0.23242337
00000000: 3955 11be 466d fa3c 90ed 5b3d a318 a73d
00000010: bd74 e9bd f48b 053e f30d 8a3d feab 49be
00000020: 690c 4a3e 9037 69bd 370c d8bd e5d5 4e3e
00000030: 695e 83be 3bb7 6bbd 6c77 6f3d d63d 11be
00000040: 49c4 65be c63a 43be 5348 1bbe eb45 8cbd
00000050: 7014 78be f38e 6cbd daed 29be b6b9 bf3c
00000060: d139 24bd 4c53 44be 3c28 023e 1593 66be
00000070: 1f3a 1ebe b105 283e e593 283e 1dbb 38be
00000080: 4f09 af3d 627e b3bc 13d0 49be 6df8 ab3d
00000090: d964 9bbe 1a66 1dbe 22ed 86be ceda 0abe
000000a0: c9a0 acbb 3ad7 39bd 3262 d8bc aa5b 723c
000000b0: 151e 5d3b d111 4cbb 85b9 f5bc d3e1 243e
000000c0: d557 b93d 8b3b 21be 5a2d 273e 8ad1 e8bd
000000d0: 7a3d fd3d 25b6 fa3d 7713 d73d c2f9 b33d
000000e0: 3492 66be 083a 893d 2a88 443e 7a69 49be
000000f0: 3143 0bbe 6ec3 643d fec4 1abd 6400 6e3e

actor.2.weight f4 [64, 64]
-0.051367138 -0.11361514 -0.039107 0.03304114 0.051033553 -0.08761321 -0.053590916 -0.11725712
-0.06001308 0.065553404 0.108949654 0.07261158 -0.08449526 -0.012088085 0.052605245 0.06397783
-0.14166358 -0.039487734 0.019418571 0.09282469 -0.11317972 0.026629815 0.01220341 0.04480808
0.05006793 0.06522706 -0.069475 -0.07411015 -0.021762826 -0.10940104 0.13203916 0.11932651
0.002122169 0.0626469 0.037640456 -0.09282638 -0.01714059 0.050762862 0.079446286 0.101330735
-0.11458838 0.057504848 0.0056857024 0.060173173 -0.11067875 -0.05894257 -0.11356917 -0.059548847
0.004827598 -0.060793616 -0.07058691 -0.049500916 -0.022402499 0.1328398 -0.11018874 0.11705711
0.06787495 0.02125512 0.021519778 0.099896036 0.002798203 -0.12590112 0.04479844 0.009281097
0.022879118 0.06381143 -0.0005117018 0.008629971 -0.11476696 -0.07685705 0.17257543 -0.02045468
0.06267298 -0.017279206 0.14972372 -0.1755939 -0.069792934 0.14567955 0.09958474 0.02584159
-0.10619321 -0.03455487 -0.15916064 0.07201601 -0.030780522 0.07372447 0.11335476 0.087226376
0.13443501 -0.09657217 0.117690586 0.08412909 -0.033478525 0.060245182 0.013387505 -0.08887301
0.016279308 0.081852295 -0.066985875 0.08128118 -0.06031704 -0.13581568 -0.1023386 -0.041461874
0.072243825 -0.07508501 -0.0765291 0.02994434 0.034437146 0.047606878 -0.089502156 -0.10455008
0.030426428 -0.07892054 -0.08556662 -0.007932644 0.03108042 0.025436081 0.028680723 0.05723431
0.017744582 0.06373002 -0.061605606 -0.117682815 -0.06558477 0.1184246 -0.0747299 0.1138176
0.093673125 0.01086894 -0.008973332 0.118547045 0.011941232 0.023762992 0.04522067 -0.07855604
0.14736456 0.05408813 -0.053653173 -0.06672532 -0.057323355 0.010191844 0.0030722742 0.05696825
-0.06804913 0.071941465 -0.05770088 0.1102284 0.037069205 0.043549825 0.008761643 0.06625175
-0.09226832 -0.032647848 0.06146398 -0.11867861 0.06951692 0.10526689 -0.041266926 -0.045329098
-0.031138701 -0.0049663177 -0.11371624 0.04656211 -0.086297154 0.06494358 -0.032611348 -0.008421254
-0.071004696 -0.0063844942 -0.03274136 0.08242058 0.035142064 0.07462508 -0.020787565 -0.02194673
0.009866801 -0.012548884 0.051196467 0.038839765 -0.032144636 0.08251551 0.023837183 -0.020058442
0.18585315 0.12878565 0.04829179 0.093150035 0.094003975 0.11361651 -0.09026253 -0.08850519
-0.117567316 0.13844447 0.045204144 0.026976194 0.031355143 -0.027431805 -0.0048470777 -0.09356465
-0.07943999 -0.072272226 -0.016464574 0.07866553 -0.022775613 0.006243841 -0.010394679 -0.027770879
-0.10159493 -0.010830382 0.11666575 -0.05720439 -0.06877634 0.08642023 -0.08896223 0.12586315
-0.06981803 0.048102114 0.07500901 -0.08442767 -0.0055526416 0.022418348 0.043421794 -0.0025230832
-0.07288615 0.042783104 0.0028234709 -0.061985698 0.01593291 0.104752004 0.047522556 -0.07200371
0.06732412 -0.006151302 0.10752923 -0.121772215 0.06659624 0.06699253 0.12014084 0.051322978
0.096416056 -0.05704969 0.05608608 0.026202088 0.034088127 -0.10433537 0.085921735 0.118144214
-0.0015903544 0.04266589 0.06814448 -0.006359827 -0.16122912 -0.011866256 0.097315446 0.020770168
00000000: 5966 52bd 0eaf e8bd a92e 20bd 2556 073d
00000010: 8f08 513d 8e6e b3bd 2682 5bbd 8024 f0bd
00000020: 46d0 75bd dd40 863d ff20 df3d 61b5 943d
00000030: da0b adbd 1a0d 46bc 9978 573d cf06 833d
00000040: 4210 11be e4bd 21bd b213 9f3c df1a be3d
00000050: c5ca e7bd c526 da3c d0f0 473c ad88 373d
00000060: 0814 4d3d c495 853d e948 8ebd 10c7 97bd
00000070: f447 b2bc a70d e0bd 4635 073e 7561 f43d
00000080: 1614 0b3b 054d 803d e12c 1a3d c21b bebd
00000090: 6c6a 8cbc b8ec 4f3d bcb4 a23d 7d86 cf3d
000000a0: 50ad eabd 348a 6b3d 214f ba3b 2578 763d
000000b0: 8aab e2bd c46d 71bd f496 e8bd 7ee9 73bd
000000c0: d430 9e3b ba02 79bd df8f 90bd 79c1 4abd
000000d0: 7285 b7bc 2807 083e a2aa e1bd a3bb ef3d
000000e0: 0602 8b3d 381f ae3c 3f4a b03c 4b96 cc3d
000000f0: 0e62 373b 39ec 00be 927e 373d be0f 183c
00000100: fd6c bb3c 91af 823d ba23 06ba b964 0d3c
00000110: f10a ebbd 3b67 9dbd 9db7 303e 9390 a7bc
00000120: b15a 803d 1f8d 8dbc 2d51 193e e3ce 33be
00000130: 99ef 8ebd 052d 153e 16f3 cb3d beb1 d33c
00000140: d37b d9bd 6889 0dbd 02fb 22be 217d 933d
00000150: 6f27 fcbc dbfc 963d 8a26 e83d bea3 b23d
00000160: 55a9 093e a1c7 c5bd c307 f13d df4b ac3d
00000170: c720 09bd a7c3 763d 4457 5b3c 0d03 b6bd
00000180: 2f5c 853c 2da2 a73d e42f 89bd bf76 a63d
00000190: 000f 77bd 4413 0bbe e696 d1bd edd3 29bd
000001a0: 92f4 933d 2bc6 99bd 4abb 9cbd d54d f53c
000001b0: f70d 0d3d 6eff 423d e84c b7bd 5a1e d6bd
000001c0: d840 f93c 18a1 a1bd 8d3d afbd ecf7 01bc
000001d0: 5d9c fe3c 545f d03c d6f3 ea3c 866e 6a3d
000001e0: 165d 913c e284 823d 2956 7cbd b003 f1bd
000001f0: 4f51 86bd 9988 f23d fd0b 99bd 3419 e93d
00000200: b2d7 bf3d a313 323c e204 13bc cbc8 f23d
00000210: 28a5 433c 9baa c23c 4f39 393d fde1 a0bd
00000220: bce6 163e 848b 5d3d 6ec3 5bbd 49a7 88bd
00000230: e5cb 6abd b1fb 263c 3558 493b 8a57 693d
00000240: 585d 8bbd 0c56 933d c257 6cbd 6dbf e13d
00000250: e1d5 173d 4d61 323d ff8c 0f3c ffae 873d
00000260: 2cf7 bcbd c0b9 05bd a7c1 7b3d c50d f3bd
00000270: e35e 8e3d 2b96 d73d 8207 29bd 01ab 39bd
00000280: 9716 ffbc 7ebc a2bb 0fe4 e8bd e9b7 3e3d
00000290: 90bc b0bd 2401 853d 7a93 05bd 4df9 09bc
000002a0: e96a 91bd 0535 d1bb ce1b 06bd 1fcc a83d
000002b0: 20f1 0f3d 09d5 983d af4a aabc a1c9 b3bc
000002c0: 5da8 213c d699 4dbc 63b3 513d 7216 1f3d
000002d0: 18aa 03bd e4fd a83d 3246 c33c 9a51 a4bc
000002e0: 4a50 3e3e 63e0 033e 9dcd 453d 72c5 be3d
000002f0: 2885 c03d c6af e83d 90db b8bd 3642 b5bd
00000300: 22c7 f0bd 63c4 0d3e fb27 393d 2efd dc3c
00000310: 406e 003d aab8 e0bc 3cd4 9ebb d39e bfbd
00000320: 6fb1 a2bd 7603 94bd b7e0 86bc 651b a13d
00000330: ec93 babc 2299 cc3b 724e 2abc c17f e3bc
00000340: 0111 d0bd ea71 31bc 74ee ee3d 274f 6abd
00000350: 9cda 8cbd 17fd b03d d431 b6bd 45e2 003e
00000360: c1fc 8ebd b906 453d 539e 993d 6ae8 acbd
00000370: eff2 b5bb afa6 b73c 0ddb 313d 505a 25bb
00000380: 5545 95bd 563d 2f3d fb09 393b b7e4 7dbd
00000390: bc85 823c 3888 d63d 03a7 423d ae76 93bd
000003a0: 3ae1 893d dc90 c9bb 4938 dc3d b663 f9bd
000003b0: 9c63 883d 6133 893d 670c f63d 0b38 523d
000003c0: c875 c53d f0ac 69bd 84ba 653d c3a5 d63c
000003d0: fe9f 0b3d c8ad d5bd bcf7 af3d 98f5 f13d
000003e0: 7073 d0ba 6ec2 2e3d 558f 8b3d 1866 d0bb
000003f0: 3f19 25be af6a 42bc 524d c73d 3326 aa3c

actor.2.bias f4 [64]
-0.0025296612 -0.05563915 -0.055777498 0.07542534 0.08831683 -0.06461355 -0.11188339 -0.09808796
-0.0004061018 -0.023657767 -0.08291936 -0.00094122277 0.1268214 -0.09894947 -0.060335264 -0.075003155
0.047178358 0.040482204 0.04509156 -0.033966206 -0.10578263 0.06808833 0.054235775 -0.05267944
-0.07389294 -0.070003755 -0.049737602 -0.01916435 -0.09413396 -0.014205672 -0.11124161 0.0945729
-0.10302688 0.020525679 0.07570056 0.06248369 0.013959561 -0.09023544 0.05030305 0.09738826
-0.060417 -0.10280033 0.05350029 0.010546018 -0.05289561 0.048302643 0.002440358 -0.13089141
0.03077566 -0.13156982 0.09614383 0.03353703 0.077035725 -0.0414495 0.0567875 0.07818198
-0.088876665 0.0014567474 -0.04020251 0.032800626 -0.06866131 -0.030974658 -0.030852158 -0.04850035
00000000: acc8 25bb e1e5 63bd f276 64bd 9a78 9a3d
00000010: 74df b43d 1c54 84bd 1e23 e5bd 57e2 c8bd
00000020: 10ea d4b9 efcd c1bc a0d1 a9bd 64bc 76ba
00000030: 78dd 013e 05a6 cabd 1c22 77bd 419b 99bd
00000040: 183e 413d abd0 253d edb1 383d 2620 0bbd
00000050: 90a4 d8bd e571 8b3d 5526 5e3d 65c6 57bd
00000060: 2f55 97bd 215e 8fbd a8b9 4bbd 8efe 9cbc
00000070: 4ec9 c0bd e8be 68bc a4d2 e3bd 70af c13d
00000080: c2ff d2bd 7825 a83c e508 9b3d e6ee 7f3d
00000090: a4b6 643c 5ccd b8bd 920a 4e3d 7f73 c73d
000000a0: d177 77bd fb88 d2bd 1f23 5b3d 35c9 2c3c
000000b0: 11a9 58bd fed8 453d 6aee 1f3b 6608 06be
000000c0: 3d1d fc3c 3dba 06be 0ee7 c43d 205e 093d
000000d0: e8c4 9d3d f3c6 29bd 029a 683d e01d a03d
000000e0: f804 b6bd 55f0 be3a 63ab 24bd f359 063d
000000f0: 4d9e 8cbd 91be fdbc aabd fcbc 4ea8 46bd

actor.4.weight f4 [2, 64]
0.056043513 0.06833743 -0.08018246 0.06426903 -0.07923358 0.067338094 0.013656846 0.052578945
-0.015092626 0.011312931 -0.0030295933 0.027712712 -0.07552953 -0.039018206 0.050715085 0.07292603
0.0666002 -0.0022573473 0.0054968265 0.06271529 0.040360585 -0.00045380872 0.00202217 0.036883622
-0.008167366 0.016839614 -0.052236937 -0.012850862 0.028033096 0.026920065 0.025797674 0.00052702107
-0.0019742611 -0.03318316 0.003777298 -0.012585003 -0.03466263 -0.08495301 0.0068102228 -0.030904599
-0.02042349 -0.058165137 -0.07481572 -0.012700196 -0.041620325 -0.039781794 0.056556504 -0.01129448
0.047266264 -0.03393029 -0.043614127 0.026083414 0.088541836 0.019185822 -0.067465566 0.0007355188
0.03983454 -0.00802055 0.055945486 0.0040740957 -0.07702086 0.059313502 -0.0047675692 0.013652069
0.023827821 -0.093815684 0.050834283 -0.039228447 -0.022489564 -0.05530783 0.10963537 0.051448032
-0.0030781985 -0.0096756695 0.010722867 -0.037804704 -0.02958164 0.01899082 0.037755888 -0.091103576
-0.035606526 0.00091600046 0.0040751146 0.011541433 0.044538014 -0.018313667 -0.055841025 -0.0034145075
-0.0072055385 0.007586909 0.07824658 -0.003630813 -0.041166406 -0.07818253 0.053450774 -0.005576313
-0.0032382198 -0.006868634 -0.032512814 -0.0035373701 -0.001532034 -0.05863049 0.0047265613 0.0015243103
0.047404375 0.007080021 -0.058668036 0.012910046 0.031838745 0.001030232 -0.03067452 0.06767946
0.04835448 0.06477092 -0.021249067 0.0050432673 0.00063282694 0.006198926 -0.030088384 -0.01857422
-0.038182363 -0.0017342553 0.05297728 -0.05305859 0.0418924 0.044801943 0.009308487 -0.018924389
00000000: e28d 653d 7ff4 8b3d b436 a4bd 7b9f 833d
00000010: 3745 a2bd 8ee8 893d f7c0 5f3c 055d 573d
00000020: 1047 77bc df59 393c 248c 46bb c505 e33c
00000030: 3aaf 9abd 8ed1 1fbd 9fba 4f3d 3e5a 953d
00000040: b065 883d 01f0 13bb b91e b43b e070 803d
00000050: 2451 253d 2ded edb9 6286 043b 4813 173d
00000060: 6ad0 05bc 3bf3 893c 66f6 55bd 6c8c 52bc
00000070: aaa5 e53c 7887 dc3c a555 d33c c927 0a3a
00000080: 9b62 01bb 11eb 07bd 8b8c 773b 5431 4ebc
00000090: 67fa 0dbd d8fb adbd 4a28 df3b a42b fdbc
000000a0: 2a4f a7bc 913e 6ebd fc38 99bd 7c14 50bc
000000b0: 137a 2abd 3cf2 22bd cba7 673d 7c0c 39bc
000000c0: 459a 413d 7dfa 0abd baa4 32bd e2ac d53c
000000d0: 6c55 b53d 962b 9d3c 632b 8abd d5cf 403a
000000e0: 8b29 233d a068 03bc 1827 653d fe7f 853b
000000f0: 1dbd 9dbd b7f2 723d 4539 9cbb edac 5f3c
00000100: 9032 c33c 7022 c0bd 9c37 503d 02ae 20bd
00000110: 093c b8bc 778a 62bd 8288 e03d 2cbb 523d
00000120: 9abb 49bb b386 1ebc f7ae 2f3c 1bd9 1abd
00000130: 3255 f2bc a392 9b3c eba5 1a3d 8394 babd
00000140: 26d8 11bd c01f 703a 8a88 853b 4718 3d3c
00000150: 7e6d 363d 8b06 96bc 8fb9 64bd eec5 5fbb
00000160: 701c ecbb 9b9b f83b be3f a03d eff2 6dbb
00000170: 1b9e 28bd 2a1e a0bd 33ef 5a3d 81b9 b6bb
00000180: 5038 54bb 4712 e1bb 282c 05bd 39d3 67bb
00000190: 88ce c8ba 8626 70bd 45e1 9a3b 5ecb c73a
000001a0: 172b 423d 85ff e73b e54d 70bd a884 533c
000001b0: 5869 023d d908 873a 2249 fbbc 879b 8a3d
000001c0: 590f 463d 9ea6 843d 8612 aebc fe41 a53b
000001d0: 4ce4 253a 5c20 cb3b ea7b f6bc f628 98bc
000001e0: 1c65 1cbd f44f e3ba b4fe 583d f753 59bd
000001f0: 5d97 2b3d 3e82 373d a082 183c 5207 9bbc

actor.4.bias f4 [2]
0.044574752 0.06443849
00000000: 0494 363d 54f8 833d

critic.0.weight f4 [64, 15]
-0.2173727 -0.011414475 0.034547325 0.05632836 -0.0924901 -0.6548595 0.07342241 -0.5036675
-0.2096099 -0.09189569 -0.26895025 -0.2567781 -0.14536554 -0.095690325 0.087215036 0.052298144
0.21034321 -0.025748447 -0.18882719 0.7291497 0.066026025 -0.11634545 -0.008114979 0.4909494
0.12584276 -0.13639776 -0.23852277 0.10858908 0.039367437 0.16639724 -0.15653372 0.24853502
0.039245848 0.38244146 -0.030871768 -0.30203095 -0.023369307 -0.075258836 -0.06910395 -0.2344659
0.13917446 0.15284917 0.07632688 -0.21543014 0.15124846 -0.15553325 0.21295524 0.018409912
-0.26075613 -0.17970929 -0.037433676 0.066275254 0.1530792 -0.038146608 -0.20336807 -0.20624343
0.0745357 0.017722249 -0.051521435 0.16426131 0.16200064 0.077162676 -0.026336014 -0.42765263
-0.43355933 0.02526922 0.049659677 -0.20012975 0.2594696 -0.20538642 -0.19981812 -0.06031917
-0.03726755 0.20354807 -0.0906634 -0.22106385 -0.13924071 -0.130876 0.27630365 -0.14636233
0.07642745 -0.21448718 0.054594994 0.054947592 0.09816648 -0.13334839 0.21985817 -0.07634531
0.026864976 0.16645071 0.11882007 -0.2152599 -0.1484403 -0.32824287 -0.23485592 0.023221469
0.00043279142 0.18779954 -0.000873228 0.16239375 -0.057513334 0.082788855 -0.19462645 0.14957952
-0.005907297 0.19539607 -0.17436932 0.08670343 0.31066906 -0.8699298 -0.28516552 0.02704193
-0.18621267 -0.4666201 0.19880404 0.025034744 0.2126728 -0.16865481 -0.17278135 -0.21110182
0.106088966 -0.028932199 -0.0068473215 0.06917642 0.062460896 -0.167986 0.2211463 -0.2043776
0.28372815 0.01623547 -0.20650983 -0.033627883 0.0072108805 -0.07788229 -0.25614882 0.20909439
0.11957159 0.04452202 0.39491776 0.06742513 0.17747271 -0.14603575 0.4031923 -0.16442464
-0.18303086 0.26570284 -0.20441197 0.04796776 0.12608758 -0.12886561 -0.20038268 0.10715017
0.018638493 0.01587076 -0.16680652 -0.1704873 -0.27698922 -0.3078183 -0.044748288 -0.07891619
-0.18368222 -0.11180571 0.11384961 -0.1650992 -0.18883242 0.0045162453 0.1392279 0.010596472
0.3602252 0.011880382 0.20269775 0.3101004 0.15025276 0.12613028 0.14025952 0.041757666
0.08676568 0.14383602 -0.22215118 0.14528978 0.014943927 -0.15929309 0.025296519 0.20113988
-0.16378133 0.24539268 -0.01994828 -0.28536028 0.32172564 0.16486737 0.07298733 0.10952103
-0.16960418 0.113584906 0.1453352 0.027377924 0.17710617 -0.15143132 0.023392385 -0.28785247
-0.31526467 -0.10153092 -0.10995751 0.13343863 -0.25686705 0.06771787 0.1916427 -0.014722794
0.012335867 -0.031183109 0.027464345 -0.11792378 -0.009391733 0.26991254 0.90194875 0.047645975
0.12794992 -0.089073695 0.6957811 -0.11429997 0.0062404047 -0.06182708 -0.17282116 0.23831066
-0.13927463 0.026502222 0.10709091 0.012001075 -0.23995167 0.3439185 -0.68836164 0.053433932
-0.4070073 0.038947724 -0.14965354 0.14955013 -0.17424841 -0.23340137 -0.08592524 0.052730262
-0.1624036 0.010115444 0.00624302 0.058042306 -0.2803202 -0.11633666 -0.01708272 -0.03228241
-0.32256833 -0.20044394 0.1214894 0.11612356 0.2346164 0.07293522 -0.049791217 -0.053037684
00000000: f396 5ebe c703 3bbc 7f81 0d3d 91b8 663d
00000010: 736b bdbd dfa4 27bf 7d5e 963d 5af0 00bf
00000020: faa3 56be cf33 bcbd d9b3 89be 6b78 83be
00000030: b4da 14be 4af9 c3bd cc9d b23d 9436 563d
00000040: 3664 573e 68ee d2bc ea5b 41be 8ea9 3a3f
00000050: a738 873d 8646 eebd b0f4 04bc b85d fb3e
00000060: eddc 003e dbab 0bbe 503f 74be f463 de3d
00000070: c03f 213d 0a64 2a3e 604a 20be f77f 7e3e
00000080: 41c0 203d 5ecf c33e cae6 fcbc cda3 9abe
00000090: fd70 bfbc 4e21 9abd 5f86 8dbd d417 70be
000000a0: c083 0e3e 7e84 1c3e 4451 9c3d b899 5cbe
000000b0: e0e0 1a3e 1c44 1fbe f010 5a3e 62d0 963c
000000c0: d481 85be b605 38be 0e54 19bd 52bb 873d
000000d0: cbc0 1c3e 9e3f 1cbd b83f 50be 7a31 53be
000000e0: 2ca6 983d 402e 913c 2408 53bd 1e34 283e
000000f0: 7fe3 253e 7707 9e3d a0be d7bc 49f5 dabe
00000100: 7dfb ddbe 6501 cf3c f267 4b3d d0ee 4cbe
00000110: 33d9 843e d150 52be 1f9d 4cbe 3c11 77bd
00000120: dca5 18bd e86e 503e bcad b9bd 905e 62be
00000130: 1e95 0ebe 5c04 06be ac77 8d3e 02e0 15be
00000140: ff85 9c3d 87a2 5bbe 009f 5f3d ba10 613d
00000150: 820b c93d 7b8c 08be 8022 613e ee5a 9cbd
00000160: f013 dc3c 0e72 2a3e f057 f33d 176d 5cbe
00000170: bc00 18be 730f a8be 127e 70be f33a be3c
00000180: 48e8 e239 864e 403e 57e9 64ba 8c4a 263e
00000190: 1a93 6bbd 348d a93d 284c 47be 602b 193e
000001a0: 0092 c1bb e815 483e df8d 32be 9191 b13d
000001b0: 0410 9f3e b8b3 5ebf 3701 92be 0a87 dd3c
000001c0: 89ae 3ebe d4e8 eebe 4993 4b3e aa15 cd3c
000001d0: e6c6 593e d9b3 2cbe 98ed 30be 132b 58be
000001e0: 2c45 d93d 3803 edbc 7f5f e0bb 5eac 8d3d
000001f0: ffd6 7f3d 8604 2cbe 2d74 623e 5d48 51be
00000200: d144 913e 4000 853c 5077 53be 64bd 09bd
00000210: 4049 ec3b c080 9fbd f025 83be d71c 563e
00000220: f3e1 f43d b95c 363d a932 ca3e 3016 8a3d
00000230: 68bb 353e 658a 15be 396f ce3e ef5e 28be
00000240: 716c 3bbe 340a 883e 5f51 51be d879 443d
00000250: 1a1d 013e 59f5 03be 1e31 4dbe 8c71 db3d
00000260: c1af 983c 6503 823c 54cf 2abe 3994 2ebe
00000270: 88d1 8dbe 5c9a 9dbe fb49 37bd d09e a1bd
00000280: 3117 3cbe 64fa e4bd fc29 e93d c40f 29be
00000290: 495d 41be 03fd 933b c291 0e3e d39c 2d3c
000002a0: 706f b83e efa5 423c 0090 4f3e 7bc5 9e3e
000002b0: dcdb 193e 4c28 013e 31a0 0f3e 160a 2b3d
000002c0: 34b2 b13d c049 133e 997b 63be d8c6 143e
000002d0: 5fd7 743c ba1d 23be a53a cf3c 9df7 4d3e
000002e0: 4bb6 27be 3848 7b3e 936a a3bc be1a 92be
000002f0: 39b9 a43e fed2 283e 627a 953d 904c e03d
00000300: b8ac 2dbe 349f e83d c0d2 143e ab47 e03c
00000310: 525b 353e d010 1bbe 63a1 bf3c 6661 93be
00000320: 5f6a a1be 71ef cfbd 6731 e1bd 23a4 083e
00000330: 1484 83be abaf 8a3d fc3d 443e e037 71bc
00000340: 601c 4a3c b873 ffbc e8fc e03c 0682 f1bd
00000350: c9df 19bc fa31 8a3e 1de6 663f 6d28 433d
00000360: 4e05 033e 456c b6bd b61e 323f 1a16 eabd
00000370: 4f7c cc3b 643e 7dbd 08f8 30be b607 743e
00000380: 029e 0ebe 301b d93c 7b52 db3d 28a0 443c
00000390: e4b5 75be 1616 b03e 7838 30bf 8add 5a3d
000003a0: 4363 d0be a687 1f3d c73e 19be ab23 193e
000003b0: 2d6e 32be c500 6fbe 92f9 afbd b0fb 573d
000003c0: 214d 26be 3fbb 253c 3f92 cc3b c5bd 6d3d
000003d0: 2186 8fbe ea41 eebd 0ff1 8bbc 8f3a 04bd
000003e0: ad27 a5be 2d41 4dbe 6fcf f83d 30d2 ed3d
000003f0: 483f 703e 105f 953d e0f1 4bbd 0b3e 59bd

critic.0.bias f4 [64]
-0.086002 0.10017249 -0.24154541 -0.032448415 0.09578805 -0.09224274 0.08693203 -0.052147947
-0.0892486 0.06339934 -0.09614017 0.23072304 0.019575918 -0.23864381 -0.19442648 -0.24549444
0.14362785 0.04906779 0.17251827 0.07706823 0.10757999 -0.104207955 -0.02401475 0.12717682
0.20341098 -0.23532578 -0.2182831 -0.06998605 0.12522285 0.20578435 -0.2592623 0.08515759
0.2758078 0.19340415 0.1889442 -0.15725347 -0.018860243 0.040606257 -0.049687207 0.234577
0.16914819 -0.15636568 -0.10329054 -0.08175202 -0.19530255 -0.19418192 -0.09158117 -0.04225807
-0.2585433 0.109473795 -0.031903468 0.12118583 -0.13922383 0.0077133127 0.13512488 -0.14372386
0.12211367 0.15683883 -0.1782962 -0.02768338 0.19412781 0.1974432 -0.051629346 0.17494
00000000: d121 b0bd 3c27 cd3d ae57 77be a1e8 04bd
00000010: 862c c43d c3e9 bcbd 6c09 b23d 1699 55bd
00000020: f8c7 b6bd 83d7 813d 23e5 c4bd a942 6c3e
00000030: ad5d a03c 0b5f 74be bc17 47be e562 7bbe
00000040: 2e13 133e 4ffb 483d a1a8 303e f3d5 9d3d
00000050: e652 dc3d fb6a d5bd 95ba c4bc a43a 023e
00000060: f84a 503e 3ef9 70be 9b85 5fbe d954 8fbd
00000070: 6b3a 003e 22b9 523e 07be 84be 1a67 ae3d
00000080: ae36 8d3e bd0b 463e 977a 413e 0e07 21be
00000090: cc80 9abc bf52 263d d084 4bbd f434 703e
000000a0: 2f35 2d3e 531e 20be fe89 d3bd 9a6d a7bd
000000b0: 64fd 47be a0d7 46be e98e bbbd cc16 2dbd
000000c0: ca5f 84be cc33 e03d 36ad 02bd 4730 f83d
000000d0: b190 0ebe f5bf fc3b 2d5e 0a3e 592c 13be
000000e0: bb16 fa3d 5c9a 203e 4793 36be 41c8 e2bc
000000f0: 71c9 463e 8d2e 4a3e 4b79 53bd 7923 333e

critic.2.weight f4 [64, 64]
0.13564147 -0.14592254 0.052663874 -0.0017773431 0.13047011 -0.022150906 0.08769402 -0.06110963
0.01826395 -0.00824148 0.02461833 -0.17121346 0.051815283 0.04993092 0.10706521 0.06883726
0.022705603 -0.025123507 -0.006773069 -0.015054944 0.099658065 -0.0790178 -0.078973435 0.14474276
-0.075421244 0.06303367 -0.00061937317 0.028879 -0.0019904342 -0.16220757 0.14379984 -0.10297259
-0.020181939 0.010239637 -0.04242775 -0.092391446 0.15612926 -0.080274284 0.016430829 0.02469532
0.10829248 -0.18282 -0.08487621 0.04563491 0.08399589 0.04677066 0.074993186 0.09797554
0.24452356 -0.23502368 0.08656531 0.017915133 -0.06213804 -0.03643244 0.07122445 0.12121908
0.12499154 0.059181873 0.118200794 0.008423579 0.051335674 0.05556475 0.14313553 0.02158287
-0.16737518 -0.10749225 0.041923225 -0.0766881 -0.13739547 -0.08434829 0.0161418 0.012646956
0.017622147 -0.057586174 -0.017525014 -0.100412 -0.08388621 -0.04773559 0.07111392 -0.012438444
0.1383531 0.099571824 -0.037908737 -0.10412789 0.045029752 -0.051233836 0.026097724 -0.05589207
-0.06532879 0.028349105 -0.025942627 -0.07039794 0.12953916 0.05474779 -0.11599234 -0.008786338
-0.06449975 0.028462833 -0.057374183 0.08920069 -0.042095423 0.06390284 -0.09319111 0.10264901
-0.07177683 0.071172334 0.122214414 0.020884065 0.011394147 -0.111591764 0.096655846 -0.11815632
-0.08442658 -0.0690806 0.028364459 -0.042169634 0.00038742996 -0.059676006 0.10317393 0.08388352
0.050839048 -0.07985603 -0.0039818394 0.061595198 -0.008744445 0.015517499 -0.06895383 -0.14170718
0.10611721 0.08080537 0.06259148 0.050933294 -0.012472225 -0.078317456 0.011333399 0.041842747
-0.029014021 -0.067995876 -0.0033891604 -0.09194671 0.07443305 -0.03234431 0.03576055 0.16187634
-0.13097943 0.14312556 -0.030951975 -0.14006932 0.14930633 -0.010612411 0.1536626 0.008623181
-0.0386017 0.12003131 0.11733158 0.04418784 0.03792593 -0.12782826 0.10008888 -0.010131561
-0.034472242 0.019464599 -0.010842965 0.13030018 0.0396855 -0.11558727 -0.06617473 -0.028902637
-0.056532506 -0.12184694 -0.11173171 -0.12605865 0.08902383 0.021004777 0.043123733 0.08602289
0.17888357 -0.084312454 0.08300311 -0.01984419 0.005289056 0.022367967 0.13722095 -0.029616388
0.12260114 0.061155893 -0.08329097 0.0675371 -0.1450473 -0.06877862 0.099112175 0.00021703767
-0.12074243 0.04964258 -0.013221984 -0.20168398 -0.10821359 0.14414647 -0.120127164 0.17340645
0.12431765 0.15359366 -0.08306366 0.049902055 0.04672892 -0.06542691 -0.051176846 -0.11911509
0.00024163583 0.04975512 0.023603324 0.15516175 -0.1079778 -0.13252552 0.027413793 -0.10018319
-0.050177645 -0.030890204 -0.114224195 -0.08585292 0.0033135037 0.028979467 -0.0062895827 -0.06546229
0.11964672 -0.02307304 0.1386616 0.05652675 -0.16632259 0.034444854 0.036452286 -0.0029869543
0.13730587 0.009824837 -0.019497998 0.062327575 -0.13454933 0.08426538 -0.087373875 -0.033008747
-0.15204097 0.22340758 -0.11425367 0.029988384 0.00025211414 -0.017402891 -0.19275014 -0.1120318
-0.04539266 -0.057544127 0.065044776 -0.042408645 0.070776455 0.0040471996 0.08696054 -0.10246104
00000000: 99e5 0a3e b86c 15be 13b6 573d bdf5 e8ba
00000010: f599 053e d175 b5bc ec98 b33d 174e 7abd
00000020: 479e 953c 4607 07bc 61ac c93c 9552 2fbe
00000030: 433c 543d 5d84 4c3d 0145 db3d 8dfa 8c3d
00000040: 1a01 ba3c d0cf cdbc 9ff0 ddbb 03a9 76bc
00000050: 8719 cc3d 16d4 a1bd d3bc a1bd 7237 143e
00000060: 7476 9abd cc17 813d 6e5d 22ba a793 ec3c
00000070: f271 02bb be19 26be 4440 133e 4be3 d2bd
00000080: 9854 a5bc 27c4 273c b8c8 2dbd ba37 bdbd
00000090: 59e0 1f3e d866 a4bd f299 863c d74d ca3c
000000a0: 73c8 dd3d 2b35 3bbe 94d3 adbd aceb 3a3d
000000b0: 0a06 ac3d 9792 3f3d 0796 993d 66a7 c83d
000000c0: 6264 7a3e 0caa 70be 2749 b13d c2c2 923c
000000d0: 7584 7ebd 2f3a 15bd 20de 913d b641 f83d
000000e0: 91fb ff3d b168 723d 4213 f23d 0d03 0a3c
000000f0: 5b45 523d dd97 633d 1f92 123e 8fce b03c
00000100: 6664 2bbe e624 dcbd b0b7 2b3d a70e 9dbd
00000110: 66b1 0cbe ccbe acbd cf3b 843c 2e35 4f3c
00000120: 525c 903c 7bdf 6bbd 9e90 8fbc cfa4 cdbd
00000130: 89cc abbd 6586 43bd 2da4 913d 9eca 4bbc
00000140: 6fac 0d3e 50ec cb3d 3146 1bbd 0141 d5bd
00000150: 1e71 383d 92da 51bd e5ca d53c 15ef 64bd
00000160: 1acb 85bd 623c e83c a285 d4bc cc2c 90bd
00000170: eaa5 043e 383f 603d 648d edbd 93f4 0fbc
00000180: 7218 84bd e32a e93c 3101 6bbd daae b63d
00000190: 406c 2cbd 7edf 823d fbda bebd a539 d23d
000001a0: bbff 92bd cdc2 913d 8d4b fa3d 0f15 ab3c
000001b0: 84ae 3a3c 398a e4bd 80f3 c53d f1fb f1bd
000001c0: d8e7 acbd 217a 8dbd 955c e83c 11ba 2cbd
000001d0: f81f cb39 d46e 74bd da4c d33d 1fcb ab3d
000001e0: 9b3c 503d 8f8b a3bd 177a 82bb 3f4b 7c3d
000001f0: dc44 0fbc 1c3d 7e3c aa37 8dbd b01b 11be
00000200: fb53 d93d 497d a53d f62f 803d 6e9f 503d
00000210: 4e58 4cbc e764 a0bd b9af 393c 4d63 2b3d
00000220: d0ae edbc 6c41 8bbd ad1c 5ebb 8f4e bcbd
00000230: 5b70 983d 787b 04bd a879 123d e9c2 253e
00000240: 791f 06be 828f 123e ff8e fdbc 556e 0fbe
00000250: c2e3 183e aedf 2dbc bb59 1d3e 3e48 0d3c
00000260: d11c 1ebd fad2 f53d 8a4b f03d 4ffe 343d
00000270: 3858 1b3d 69e5 02be 66fb cc3d d9fe 25bc
00000280: c432 0dbd 3974 9f3c b1a6 31bc 696d 053e
00000290: 438d 223d 05b9 ecbd 9e86 87bd 39c5 ecbc
000002a0: a18e 67bd e38a f9bd 98d3 e4bd 8515 01be
000002b0: 2052 b63d 3612 ac3c 83a2 303d c52c b03d
000002c0: 412d 373e 02ac acbd 89fd a93d 4890 a2bc
000002d0: d14f ad3b 073d b73c a683 0c3e 119e f2bc
000002e0: 4e16 fb3d 9a7e 7a3d 7594 aabd e450 8a3d
000002f0: 4887 14be cedb 8cbd 53fb ca3d 9b94 6339
00000300: cf47 f7bd 0556 4b3d 05a1 58bc 3f86 4ebe
00000310: 169f ddbd 229b 133e 3b05 f6bd 7691 313e
00000320: 419a fe3d a847 1d3e 481d aabd 1966 4c3d
00000330: d366 3f3d 8bfe 85bd d09e 51bd 9df2 f3bd
00000340: a05f 7d39 06cc 4b3d c25b c13c b9e2 1e3e
00000350: 7723 ddbd c5b4 07be e492 e03c d82c cdbd
00000360: 1387 4dbd 740d fdbc 60ee e9bd a8d3 afbd
00000370: 5e27 593b 5966 ed3c d818 cebb 1811 86bd
00000380: 5709 f53d ac03 bdbc 4efd 0d3e 9888 673d
00000390: 7850 2abe 0c16 0d3d fe4e 153d c7c0 43bb
000003a0: e999 0c3e 5af8 203c 44ba 9fbc 334b 7f3d
000003b0: 4dc7 09be 5493 ac3d 13f1 b2bd 2e34 07bd
000003c0: a1b0 1bbe f5c4 643e d4fd e9bd 33aa f53c
000003d0: 302e 8439 8290 8ebc 4b60 45be ee70 e5bd
000003e0: a7ed 39bd 64b3 6bbd 3236 853d b0b4 2dbd
000003f0: 3ff3 903d 5f9e 843b 5e18 b23d 18d7 d1bd

critic.2.bias f4 [64]
-0.10793543 0.13378893 0.07604786 -0.07050437 -0.07487707 -0.061283756 -0.06568344 0.12704939
0.14664333 0.033163887 -0.020405587 0.06261242 -0.009832007 -0.035771705 0.09937894 0.04021838
-0.071860835 0.027645519 -0.00698776 -0.059276287 -0.06142506 -0.058135442 -0.07398275 -0.010477771
-0.14943576 -0.015626887 0.049557235 -0.074992985 -0.0902934 -0.09645048 0.034184184 -0.05891994
0.1223592 0.024788909 -0.051983066 -0.03221202 -0.05870592 -0.0510856 -0.13543943 -0.087158926
-0.11315791 0.029096324 -0.03601543 0.0007572178 0.0019502941 0.07175983 0.05296463 -0.049156155
-0.05672931 0.11957599 0.13547678 0.0906668 -0.014262241 -0.049408782 -0.007077921 0.034297965
-0.117853284 0.07724094 0.007826069 -0.11479147 -0.1264961 0.049727287 -0.05869045 0.031247027
00000000: 400d ddbd f7ff 083e fbbe 9b3d 9864 90bd
00000010: 2659 99bd ad04 7bbd 0a85 86bd 3c19 023e
00000020: ab29 163e dbd6 073d 9e29 a7bc f13a 803d
00000030: 6d16 21bc 5a85 12bd 3087 cb3d 07bc 243d
00000040: c62b 93bd db78 e23c 94f9 e4bb b1cb 72bd
00000050: d898 7bbd 6e1f 6ebd 4584 97bd f5aa 2bbc
00000060: b005 19be f503 80bc 87fc 4a3d ec95 99bd
00000070: bfeb b8bd d487 c5bd b704 0c3d 0956 71bd
00000080: 7697 fa3d 1c12 cb3c 32ec 54bd c0f0 03bd
00000090: 9e75 70bd 223f 51bd a2b0 0abe 6180 b2bd
000000a0: 56bf e7bd 6a5b ee3c ea84 13bd 0780 463a
000000b0: 03a1 ff3a d1f6 923d 71f1 583d f757 49bd
000000c0: fe5c 68bd 42e4 f43d 6dba 0a3e 84af b93d
000000d0: 2dac 69bc dd60 4abd e8ed e7bb 067c 0c3d
000000e0: 105d f1bd 7f30 9e3d ea38 003c ca17 ebbd
000000f0: 3288 01be d7ae 4b3d 6665 70bd c4f9 ff3c

critic.4.weight f4 [1, 64]
0.1263298 0.015754225 0.12058762 -0.14264055 0.023339821 0.008836647 -0.05641673 -0.018712807
-0.10679866 0.015600158 -0.028540509 -0.013208842 -0.06666431 -0.05970367 -0.0675494 -0.0888212
-0.02184176 0.07756357 0.059857126 -0.017623154 0.102274805 -0.049003232 0.06981677 0.009128608
0.035527885 0.008701407 -0.12823285 -0.024256045 0.08477526 0.10745976 -0.02502084 0.016231632
-0.07509035 -0.15564802 0.07850106 0.07557735 0.12979318 0.0727233 0.03544128 0.08439719
0.08740982 -0.0553662 0.09711223 -0.0905829 0.11075119 -0.06528362 0.068162955 -0.014439594
-0.012488999 -0.13607384 -0.077628955 -0.11408766 -0.11466626 -0.07686096 -0.09521108 0.08838385
0.09931467 -0.12062088 -0.077681705 0.013351254 0.09197718 -0.0133185405 0.14328827 -0.06807789
00000000: 995c 013e 010f 813c a4f6 f63d 5d10 12be
00000010: 2733 bf3c 95c7 103c 3b15 67bd 9a4b 99bc
00000020: 41b9 dabd ce97 7f3c c9cd e9bc e669 58bc
00000030: 4c87 88bd d68b 74bd 5757 8abd e4e7 b5bd
00000040: 7eed b2bc a6d9 9e3d bf2c 753d 6f5e 90bc
00000050: 7475 d13d 9db7 48bd 18fc 8e3d 2890 153c
00000060: b085 113d 5990 0e3c 794f 03be 9db4 c6bc
00000070: a79e ad3d dd13 dc3d 81f8 ccbc 33f8 843c
00000080: f8c8 99bd 3262 1fbe 2ac5 a03d 4cc8 9a3d
00000090: 81e8 043e f4ef 943d e02a 113d 6fd8 ac3d
000000a0: eb03 b33d abc7 62bd c7e2 c63d 8783 b9bd
000000b0: 85d1 e23d 6bb3 85bd 0599 8b3d 0c94 6cbc
000000c0: a99e 4cbc f156 0bbe eefb 9ebd cba6 e9bd
000000d0: 25d6 eabd 4769 9dbd 07fe c2bd 9802 b53d
000000e0: 7d65 cb3d 1408 f7bd 9617 9fbd 38bf 5a3c
000000f0: 885e bc3d 0236 5abc 29ba 123e 6c6c 8bbd
