models/007_Curriculum_P1_Aim/007_Curriculum_P1_Aim_best.pth (torch, 47138 bytes, 11 tensors)

actor.0.weight f4 [64, 15]
0	0x3d15e20a	0.03659252
1	0xbe4016d3	-0.18758707
2	0x3eb04a45	0.34431663
3	0x3e1208d7	0.14261185
4	0x3e0bae63	0.13640742
5	0xbe8bf6fd	-0.27336875
6	0xbd83bd63	-0.06432607
7	0xbd1173b5	-0.035510737
8	0xbe291417	-0.1651157
9	0xbd151e20	-0.036405683
10	0x3d685d28	0.056729466
11	0x3dbe1f34	0.09283295
12	0xbe82da6d	-0.2555727
13	0xbe500447	-0.20314132
14	0xbda94074	-0.082642466
15	0x3e399969	0.18124928
16	0xbe636d81	-0.22209741
17	0xbe857b69	-0.26070717
18	0xbdfc897e	-0.12330912
19	0xbc97f3cc	-0.018548869
20	0x3cafef96	0.021476548
21	0xbd942f8a	-0.0723563
22	0x3c3092bf	0.0107771745
23	0x3e5d617c	0.21619219
24	0xbdbe991a	-0.093065456
25	0xbe61361a	-0.21993294
26	0xbe0dcf50	-0.13848615
27	0xbdcbe7d0	-0.09956324
28	0xbad01c00	-0.0015877485
29	0x3caf0f70	0.021369666
30	0xbdc93f96	-0.09826581
31	0x3cc1b233	0.023644542
32	0x3c348301	0.011017562
33	0x3d4f00e5	0.050537962
34	0x3e3559a4	0.17709976
35	0x3e3e5555	0.18587239
36	0x3e586597	0.21132503
37	0x3d8a7aa0	0.0676167
38	0x3c80ea70	0.015736789
39	0xbd46d0f0	-0.048539102
40	0x3e7bd88e	0.24594328
41	0xbd3a152c	-0.045430347
42	0x3b01f800	0.0019831657
43	0xbe201df4	-0.15636426
44	0xbe80cff5	-0.2515866
45	0xbe99a2d9	-0.30007055
46	0x3e908314	0.28225005
47	0x3e8e3ae4	0.27779305
48	0x3e2b3de5	0.1672283
49	0xbe4187fa	-0.18899527
50	0x3e3dd63c	0.18538755
51	0x3e5f0d5d	0.21782441
52	0x3e595f89	0.2122785
53	0x3daa053c	0.0830178
54	0xbc2868c0	-0.010278881
55	0x3e63aa62	0.22232965
56	0xbc393680	-0.011304498
57	0x3d8617fc	0.065475434
58	0xbe693e4d	-0.22777672
59	0x3d0d7358	0.03453383
60	0xbd2d1660	-0.042257667
61	0x3e21ea7f	0.1581211
62	0xbeb40799	-0.35162047
63	0x3c1ea5f7	0.009683124
64	0x3db35924	0.087572366
65	0xbd854ae0	-0.06508422
66	0xbbaee168	-0.005336929
67	0xbe03eaff	-0.12882613
68	0xbe729626	-0.2369009
69	0xbe3670c2	-0.17816451
70	0xbe1e9bc8	-0.15489113
71	0xbe0ab24b	-0.13544576
72	0xbe21fd9f	-0.15819405
73	0x3e7dd8ee	0.24789783
74	0xbe517c10	-0.20457482
75	0x3e0f470d	0.13991947
76	0x3db3394f	0.08751165
77	0xbd813e00	-0.06310654
78	0x3e28f8db	0.16501181
79	0xbd4435f0	-0.047903
80	0x3d2ca943	0.042153608
81	0xbddfefa4	-0.1093438
82	0xbe86a2df	-0.26296136
83	0xbe4cf563	-0.20015483
84	0xbdf015aa	-0.11722882
85	0x3d920d9c	0.07131502
86	0x3e61179a	0.2198166
87	0x3df28ee8	0.118436635
88	0x3e2311ac	0.1592471
89	0xbe0c7070	-0.13714767
90	0x3e8178f6	0.25287598
91	0x3d28dfd5	0.041229088
92	0xbe668362	-0.22511056
93	0xbdbe9a08	-0.09306723
94	0x3db16e46	0.08663611
95	0xbe327cc6	-0.1743041
96	0x3e5e271d	0.21694608
97	0xbe0acaee	-0.13553974
98	0xbe72be95	-0.23705514
99	0xbd52080c	-0.051277205
100	0x3d629998	0.05532226
101	0xbd8b524a	-0.06802805
102	0xbe798c10	-0.24369836
103	0xbdd8dcbc	-0.10588977
104	0xbe571021	-0.21002246
105	0xbe317425	-0.17329462
106	0x3d585eff	0.05282497
107	0x3e00c1df	0.12573956
108	0xbe7bb668	-0.24581301
109	0x3c4d161e	0.01251748
110	0x3e496038	0.19665611
111	0x3e5f92cc	0.21833342
112	0x3da69d70	0.081354976
113	0x3d422a58	0.047403663
114	0x3aaabf00	0.0013026893
115	0xbdb24a10	-0.087055326
116	0xbe3e0f0e	-0.1856043
117	0xbe21f2c5	-0.15815265
118	0x3e1b3806	0.1515809
119	0x3cffdec0	0.031234145
120	0xbd256d74	-0.040387586
121	0x3e17055a	0.14748135
122	0xbe27c9a2	-0.1638551
123	0x3e80eca4	0.25180542
124	0xbdd0a2b8	-0.10187286
125	0x3e76248e	0.24037382
126	0xbe046787	-0.12930118
127	0xbe2c6629	-0.16835846
128	0xbdedcc92	-0.11611284
129	0xbd305754	-0.043052033
130	0xbe2f4744	-0.1711703
131	0xbe0728cc	-0.13199157
132	0xbe602cd4	-0.218921
133	0xbe80e9ce	-0.2517838
134	0xbe1a6252	-0.15076569
135	0xbe889e07	-0.26683065
136	0x3e302e36	0.17205128
137	0x3e749619	0.23885383
138	0x3e15ee1b	0.14641611
139	0x3d8ec1e7	0.06970578
140	0x3e0a6a1e	0.13517043
141	0xbe7c03b5	-0.24610789
142	0xbddee3bd	-0.108832814
143	0x3a91a300	0.00111112
144	0xbe6d1d84	-0.2315579
145	0xbe5fcf56	-0.21856436
146	0xbdec932e	-0.1155151
147	0x3e4ab908	0.19797146
148	0x3d9209c0	0.07130766
149	0x3e547838	0.20748985
150	0xbe12a6d9	-0.1432146
151	0x3d9436a6	0.07236986
152	0xba901b6e	-0.0010994503
153	0x3e2b7549	0.1674396
154	0x3d47425d	0.048647273
155	0xbd4f4ba3	-0.050609242
156	0x3de1742c	0.11008486
157	0x3db03e4e	0.08605634
158	0x3e5b1846	0.21395978
159	0xbe2146bc	-0.1574964
160	0x3c897050	0.016777188
161	0x3cdb24e0	0.026750982
162	0xbd30ab78	-0.043132275
163	0x3d18cf20	0.037306905
164	0x3d0c8828	0.034309536
165	0x3c993522	0.018702094
166	0xbe92946a	-0.28628856
167	0x3e4ccb15	0.19999345
168	0xbdfdc777	-0.123915605
169	0x3dba1982	0.090868965
170	0xbe7ef0bb	-0.24896519
171	0xbe834498	-0.2563827
172	0xbde586e2	-0.112073675
173	0x3e08e8a8	0.13370001
174	0xbd7d7060	-0.061874747
175	0xbe608b2e	-0.21928093
176	0xbd9c79f6	-0.0764045
177	0xbdcf22c6	-0.101140544
178	0xbe7b3bd3	-0.2453454
179	0x3d4485c8	0.047979146
180	0xbe718ad1	-0.2358811
181	0xbe3d6b1e	-0.18497893
182	0xbe4b970c	-0.19881839
183	0xbe50978f	-0.20370315
184	0xbd9c0465	-0.07618026
185	0xbe18dc5a	-0.14927807
186	0xbe581e2e	-0.21105263
187	0x3e6bb94e	0.23019907
188	0x3d4dd4b0	0.050251663
189	0xbe6ed042	-0.23321632
190	0xbe7edd8d	-0.24889202
191	0x3e7b089e	0.24515006
192	0xbe6cbf74	-0.23119909
193	0xbe104bd2	-0.14091423
194	0xbe71fa20	-0.23630571
195	0xbe9652dd	-0.29360095
196	0x3d19632d	0.037448097
197	0xbdd42a12	-0.10359587
198	0x3e1b76fb	0.15182106
199	0xbd90605b	-0.07049628
200	0x3de0bc6f	0.10973441
201	0x3e082f68	0.13299334
202	0xbdecd08d	-0.115632154
203	0xbb466a00	-0.0030275583
204	0x3e4c28f8	0.19937503
205	0x3e2ee9f2	0.1708143
206	0x3e5786e2	0.21047547
207	0xbe61162e	-0.21981117
208	0xbbd707c0	-0.006562203
209	0x3e61aafc	0.22037882
210	0xbd63ec7d	-0.055645455
211	0x3d5c1eab	0.053740185
212	0xbce776f3	-0.028254962
213	0xbdaf1632	-0.08549155
214	0xbd9b554e	-0.0758463
215	0xbc9a41fb	-0.01883029
216	0xbcf97630	-0.030451864
217	0xbdacaa6c	-0.08430943
218	0xbd985f7e	-0.07440089
219	0x3d8866ac	0.06660208
220	0xbe250aaa	-0.1611735
221	0xbe3327a4	-0.1749559
222	0xbdf288d0	-0.11842501
223	0x3db4b580	0.08823681
224	0xbdbcc670	-0.092175364
225	0xbe177f7b	-0.14794724
226	0x3e6303a9	0.22169365
227	0xbe862234	-0.2619797
228	0xbd7c8cbb	-0.06165765
229	0xbc51108c	-0.012760293
230	0xbe772975	-0.24136908
231	0x3e651605	0.22371681
232	0xbc80e926	-0.015736174
233	0xbd384008	-0.04498294
234	0xbe253cc8	-0.16136467
235	0xbded8fb2	-0.11599673
236	0x3e3eb17c	0.18622392
237	0x3d90c3bc	0.07068583
238	0x3d922a20	0.07136941
239	0x3e6da81e	0.23208663
240	0x3b90bbda	0.004416925
241	0x3e6e49cd	0.2327034
242	0xbea31a9f	-0.31856248
243	0xbdf64ded	-0.12026582
244	0x3e4e5382	0.20149043
245	0x3d39d321	0.045367364
246	0x3e03228d	0.12806149
247	0x3e7af4da	0.24507466
248	0x3e46e274	0.19422323
249	0xbdc05f68	-0.09393197
250	0xbc551eb0	-0.013007805
251	0xbe6ad6c3	-0.22933488
252	0x3df25bfc	0.11833951
253	0xbe00f8d4	-0.1259492
254	0x3c044180	0.008072257
255	0x3e1f6416	0.15565524

actor.0.bias f4 [64]
0	0x3d179741	0.03700948
1	0x3e3428ab	0.17593639
2	0xbe488442	-0.19581702
3	0x3e1374dc	0.14400047
4	0xbdf1ede5	-0.11812953
5	0xbe487060	-0.19574118
6	0xbe5dd255	-0.21662267
7	0x3da77746	0.081770465
8	0x3d2c1916	0.04201611
9	0xbe4d2346	-0.20032987
10	0x3da480fe	0.08032416
11	0x3d93d215	0.07217804
12	0x3cdaf87e	0.026729818
13	0x3e60a71b	0.21938746
14	0xbe1e3205	-0.15448768
15	0xbdb0e1cf	-0.086368196
16	0x3d501a75	0.05080648
17	0xbe6d6a61	-0.23185112
18	0x3dd31adc	0.103078574
19	0x3e8d3697	0.2758071
20	0xbdbb33b7	-0.09140723
21	0xbdfa1a0a	-0.12211998
22	0x3dc7a5eb	0.09748443
23	0x3de30c7e	0.11086367
24	0xbe1f8417	-0.15577732
25	0xbe3f06ff	-0.18655013
26	0x3df00cac	0.11721167
27	0x3da3738b	0.079810224
28	0x3d8b3564	0.06797293
29	0x3d17d1fe	0.0370655
30	0xbac89c2f	-0.0015305335
31	0x3e3f332b	0.18671863
32	0x3d348311	0.044070307
33	0xbdff2490	-0.124581456
34	0x3e83d3bc	0.25747478
35	0x3ca1c195	0.019745627
36	0x3e838940	0.2569065
37	0x3e31cf4c	0.17364234
38	0x3e41a39d	0.1891007
39	0x3e6b22ab	0.22962444
40	0x3e1dbaca	0.15403286
41	0x3e5a1d43	0.21300225
42	0xbe28163a	-0.16414729
43	0xbe2a6b28	-0.1664244
44	0x3def50f4	0.116853625
45	0xbdbdc601	-0.09266282
46	0x3c27d646	0.010243958
47	0x3df7f8bf	0.121079914
48	0x3e98667a	0.29765683
49	0x3e5ea645	0.21743114
50	0xbe0ac54c	-0.13551825
51	0x3e626a6a	0.22110906
52	0xbe20c09c	-0.15698475
53	0xbd5e4543	-0.054265272
54	0x3e5bec77	0.21476923
55	0x3bfbfce7	0.0076900604
56	0xbe22878f	-0.15872024
57	0x3e774c6b	0.24150245
58	0xbad1f7b8	-0.001601926
59	0xbd2acb52	-0.041697808
60	0x3d099f3e	0.03359913
61	0xbe1c0d34	-0.15239412
62	0x3e573f78	0.21020305
63	0x3d426a72	0.047464795

actor.2.weight f4 [64, 64]
0	0x3d359316	0.044329725
1	0x3da2db87	0.07952028
2	0x3d34e578	0.04416415
3	0xbda24fa2	-0.07925345
4	0xbaab7479	-0.0013080976
5	0x3dd22c45	0.1026235
6	0xbcfb2b35	-0.030660251
7	0x3df4335a	0.11923857
8	0xbd2fad76	-0.042890035
9	0xbdd7c2f0	-0.10535228
10	0x3dc8cae8	0.09804326
11	0xbd49b3db	-0.04924379
12	0xbdfafac5	-0.12254862
13	0x3c846e10	0.016165763
14	0xbe01d025	-0.12677057
15	0x3da2ec1b	0.0795519
16	0xbcd0c2cc	-0.025483511
17	0xbde9d1ca	-0.11416967
18	0x3dea5715	0.11442391
19	0xbb0984c3	-0.0020983673
20	0xbc78faa1	-0.015196473
21	0x3d09ca61	0.03364027
22	0x3dfe2f3f	0.12411355
23	0x3dff95e4	0.12479761
24	0xbcceb680	-0.025233507
25	0x3da9fed3	0.08300557
26	0xbdbd154b	-0.09232577
27	0xbd9352ce	-0.07193528
28	0xbcc50392	-0.024049554
29	0x3dfbd2b3	0.12296047
30	0xbd6989dd	-0.057016242
31	0xbdf06ba4	-0.11739281
32	0x3db351b6	0.087558195
33	0xbb963c21	-0.0045848046
34	0x3d818c86	0.06325631
35	0x3d0ca362	0.0343355
36	0x3dc259fc	0.094898194
37	0xbd7d050f	-0.061772402
38	0xbd5bc550	-0.05365497
39	0x3d651040	0.0559237
40	0xbdc61ba9	-0.096732445
41	0xbcb1af7e	-0.021690127
42	0x3d3b84fd	0.045781124
43	0x3dade47f	0.08490848
44	0x3d73c15b	0.05951057
45	0x3d8a7dce	0.067622766
46	0xbdafe84b	-0.08589228
47	0xbdc6cab7	-0.097066335
48	0x3c9036a2	0.017604176
49	0x3dad6a59	0.0846755
50	0x3da6ede3	0.08150842
51	0x3cb429f4	0.021992661
52	0xbdcc5502	-0.099771515
53	0xbd9b0c4e	-0.07570706
54	0x3c2b1793	0.010442632
55	0xbde5be00	-0.1121788
56	0x3d7ddb9c	0.061977014
57	0xbcb58a3c	-0.022160642
58	0x3da58c88	0.08083445
59	0xbdc68e9a	-0.09695168
60	0xbd551040	-0.05201745
61	0x3d43756b	0.0477194
62	0xbd8cf722	-0.06883074
63	0x3d68a274	0.056795552
64	0xbdc135a6	-0.09434061
65	0xbd074c0d	-0.033031512
66	0xbc18eac5	-0.009333317
67	0x3d27c22f	0.040956672
68	0x3d8e5cbd	0.06951282
69	0xbc825a84	-0.015912302
70	0x3dd97934	0.10618821
71	0xbd855319	-0.0650999
72	0x3d720d85	0.059094924
73	0x3d2e7279	0.04258964
74	0xbd1625c5	-0.036657114
75	0x3dcc4ce0	0.099756
76	0x3dfcbdc7	0.12340885
77	0x3e097088	0.13421834
78	0x3d196c31	0.037456695
79	0xbd113465	-0.035450358
80	0x3d974316	0.073858425
81	0x3d03110c	0.03199868
82	0x3da53a36	0.080677435
83	0x3d51b0e1	0.051194075
84	0x3d8b46dd	0.068006255
85	0x3df50efe	0.1196575
86	0x3d8948e0	0.06703353
87	0x3cf1cdb5	0.029517034
88	0x3c74ca87	0.014940864
89	0x3dbe71a6	0.092990205
90	0x3d96f6c6	0.07371287
91	0xbdb95da8	-0.09051067
92	0x3dc035f5	0.093852915
93	0xbdeeec9e	-0.11666225
94	0xbd9b6452	-0.07587494
95	0x3d82efda	0.06393404
96	0xbae590af	-0.0017514433
97	0x3ccaf12c	0.024773203
98	0x3d8a5fee	0.067565784
99	0x3d4e2a0b	0.050333064
100	0x3da281da	0.079349235
101	0x3d8595ce	0.065227136
102	0x3dc24c87	0.09487253
103	0xbdb5181f	-0.08842491
104	0xbd4e2106	-0.050324462
105	0x3d0240d6	0.031800114
106	0xbd886b32	-0.06661071
107	0xbd848f30	-0.06472623
108	0xbd1968a3	-0.037453305
109	0x3d22f910	0.039788306
110	0xbc49a73b	-0.012307937
111	0x3d306829	0.043068085
112	0x3d57451a	0.052556135
113	0x3d954cff	0.072900765
114	0x3d76fa4b	0.06029729
115	0xbddf2bcb	-0.10897025
116	0x3db37723	0.08762958
117	0xbb11bd24	-0.002223798
118	0x3d8786c7	0.066175036
119	0xbd239add	-0.03994261
120	0xbd58103c	-0.052749857
121	0xbd7fe31c	-0.062472448
122	0x3d293408	0.041309386
123	0xbda8bb8b	-0.08238896
124	0x3caa3cf2	0.020781014
125	0xbdf3e9ed	-0.11909852
126	0xbcb35e26	-0.02189548
127	0x3cde894d	0.02716508
128	0xbdafd309	-0.08585174
129	0xbdfb4340	-0.12268686
130	0x3d9a4ad9	0.07533807
131	0xbc1333b7	-0.008984498
132	0xbd3953bf	-0.045245882
133	0x3dfaff10	0.122556806
134	0x3db31030	0.08743322
135	0x3d9c1f88	0.076232016
136	0x3d74a57d	0.059728134
137	0xbcebb647	-0.02877344
138	0x3d914c09	0.07094581
139	0xbdc163dd	-0.094428755
140	0x3c967684	0.01836706
141	0x3df80244	0.12109807
142	0x3cf8e277	0.030381424
143	0xbd8b6583	-0.06806471
144	0x3cb02d21	0.021505894
145	0x3d2c5a6f	0.04207843
146	0xbd198bbd	-0.03748678
147	0xbcefd7f0	-0.029277772
148	0x3d907252	0.07053055
149	0xbdc27d41	-0.094965465
150	0x3d1628ed	0.036660124
151	0x3d074526	0.03302493
152	0x3dd41986	0.10356431
153	0xbc045e2a	-0.008079091
154	0xbd3fc2d2	-0.046816655
155	0xbda3acdd	-0.079919554
156	0x3d2e94bc	0.042622313
157	0xbc851305	-0.01624442
158	0x3da77bfc	0.08177945
159	0xbcab7708	-0.020930782
160	0x3d96fb1a	0.073721126
161	0xbde79a76	-0.11308758
162	0xbc29d249	-0.010365077
163	0xbc56be4a	-0.013106892
164	0xbdcd33a8	-0.10019618
165	0xbdbacfda	-0.09121676
166	0xbd4b0085	-0.049561042
167	0x3d040cce	0.032238774
168	0x3dc540a9	0.096314736
169	0xbd209c88	-0.03921178
170	0x3d9bc059	0.07605047
171	0x3d45dbf3	0.048305463
172	0x3ab1077f	0.0013506262
173	0x3be2fe23	0.006927268
174	0xbd23b33d	-0.039965857
175	0xbd9a7ee5	-0.075437345
176	0xbd8f5080	-0.06997776
177	0x3d86978f	0.06571876
178	0xbd8ba0d5	-0.06817786
179	0x3debd67c	0.11515519
180	0xbd65c7fd	-0.056098927
181	0xbc0100a3	-0.007873687
182	0x3d895e85	0.06707481
183	0xbd2e1a36	-0.042505465
184	0xbd1bc717	-0.038031664
185	0xbdfb6814	-0.12275711
186	0x3db13295	0.08652226
187	0x3d035f73	0.03207345
188	0xbd26914d	-0.040665913
189	0x3c5902b0	0.01324527
190	0xbd58a9a1	-0.052896146
191	0x3c55929f	0.0130354455
192	0xbdc967f3	-0.0983428
193	0xbe0ca9dc	-0.13736671
194	0xbda287cd	-0.07936058
195	0x3d9a0588	0.07520586
196	0xbdb97997	-0.090563945
197	0xbcd94a86	-0.026524793
198	0xbd3de6df	-0.046362754
199	0x3dc4c026	0.09606962
200	0xbde05fbb	-0.10955759
201	0x3d1662bc	0.036715254
202	0x3d96c545	0.07361845
203	0xbc14ffcb	-0.009094189
204	0xbd8e9b38	-0.069631994
205	0x3de74e0f	0.11294185
206	0x3de79c7f	0.11309146
207	0xbe032a95	-0.12809213
208	0x3d813efd	0.06310842
209	0x3dbf7e64	0.09350279
210	0x3d35ec1e	0.044414632
211	0x3c99f700	0.018794537
212	0xbdb2cac2	-0.08730079
213	0x3de07110	0.10959065
214	0x3d27db82	0.040980823
215	0x3d1a4ae0	0.037669063
216	0xbd6c5f04	-0.0577078
217	0x3cf937c5	0.0304221
218	0x3dac7894	0.08421436
219	0xbd9a97ac	-0.0754846
220	0xbcd307dc	-0.025760584
221	0xbdd77395	-0.105200924
222	0x3dbe8857	0.093033485
223	0x3d94b3d8	0.07260865
224	0xbd8ac410	-0.06775677
225	0xbd1db6c1	-0.038504366
226	0xbc1224a3	-0.008919868
227	0xbd4f4967	-0.05060711
228	0xbdbcd230	-0.092197776
229	0x3d8a17e6	0.067428395
230	0x3be7e3b6	0.007076706
231	0xbd666162	-0.056245215
232	0x3d97693a	0.07393117
233	0x3da47d38	0.08031696
234	0xbd8536f6	-0.065046236
235	0xbc9e9195	-0.019356528
236	0xbd9debe0	-0.07711005
237	0xbdffde39	-0.124935575
238	0x3df30e69	0.11867983
239	0x3cfb28dd	0.030659134
240	0xbd57fbf1	-0.052730504
241	0x3ccf230e	0.02528527
242	0xbd9fdff4	-0.078063875
243	0xbd82b551	-0.063822396
244	0xbddd6194	-0.10809627
245	0x3b4d7608	0.003135087
246	0x3db8cc61	0.09023357
247	0x3d58ef96	0.052962862
248	0x3d7ace43	0.061231863
249	0xbd54005a	-0.051758148
250	0x3df45b3b	0.11931463
251	0x3cb2d8ed	0.021831954
252	0x3d0aad41	0.033856634
253	0xbd0ed2be	-0.03486895
254	0xbd13c9c3	-0.036081087
255	0x3b7e4409	0.0038797876

actor.2.bias f4 [64]
0	0x3c13dc5b	0.009024705
1	0xbb632cf1	-0.0034664238
2	0x3d81ce91	0.063382275
3	0x3d2ad44f	0.04170638
4	0xbc51b5b0	-0.012799665
5	0x3c46a118	0.012123369
6	0x3dacac89	0.08431346
7	0xbd1a6204	-0.03769113
8	0x3d11bd48	0.035580903
9	0x3cb78deb	0.022406539
10	0xbd0bd7a2	-0.03414119
11	0x3cd0eb25	0.02550275
12	0x3d70dd0d	0.05880456
13	0x3d00eb26	0.031474255
14	0xbdedb6f5	-0.11607162
15	0xbca8f1ee	-0.020623174
16	0xbbc32925	-0.0059558325
17	0xbd73c5d3	-0.05951483
18	0x3d2514e6	0.040303133
19	0x3d9e45fa	0.07728191
20	0x3df45afd	0.11931417
21	0xbe011584	-0.12605864
22	0x3b2afe9e	0.0026091705
23	0x3df89455	0.12137667
24	0xbdd85b85	-0.10564331
25	0x3d2e9155	0.04261907
26	0xbd84e648	-0.06489235
27	0x3e021e99	0.12706985
28	0xbdbd5c24	-0.0924609
29	0xbdf5763c	-0.11985442
30	0xbdc2059a	-0.09473725
31	0x3dafa58e	0.08576499
32	0x3cfe78ca	0.031063456
33	0x3ca3755d	0.019953424
34	0xbdcf413c	-0.10119864
35	0x3d916343	0.07099011
36	0xbce0e2c5	-0.027451882
37	0x3d031b52	0.032008477
38	0xbdc69489	-0.096962996
39	0x3d921938	0.07133716
40	0x3dbd2ace	0.0923668
41	0x3d3cdb34	0.046107486
42	0x3b9c5d2f	0.0047718505
43	0x3d4c1307	0.049822833
44	0xbdbb36d9	-0.09141321
45	0x3c9b9d0c	0.018995784
46	0xbd01fcb7	-0.03173515
47	0x3e00509f	0.12530755
48	0xbd292cca	-0.04130248
49	0xbd097ef6	-0.033568345
50	0x3c9c8092	0.019104276
51	0x3c997b4d	0.018735552
52	0xbd5babec	-0.053630754
53	0x3c3a1a2b	0.011358778
54	0x3d9e4900	0.077287674
55	0x3d30134d	0.042987157
56	0x3dbcd898	0.092209995
57	0x3d16f468	0.036854178
58	0xbb811e4a	-0.0039403783
59	0xbde4e6ed	-0.11176858
60	0x3d8754d3	0.06607976
61	0xbc61ad68	-0.013774253
62	0xbd83f307	-0.06442838
63	0x3d1ada7a	0.03780601

actor.4.weight f4 [2, 64]
0	0xbce06b6c	-0.027394973
1	0x3d80abef	0.06282794
2	0x3c2972f5	0.010342349
3	0xbc8ed4b8	-0.017435417
4	0x3b630dbb	0.0034645635
5	0xbce3afe4	-0.027793832
6	0xbc9ff539	-0.019526111
7	0x3cc22054	0.023697056
8	0xbcc53494	-0.024072923
9	0x3db21a18	0.08696383
10	0x3c4fafb0	0.0126761645
11	0xbd275a40	-0.040857553
12	0xbcb0af31	-0.021567913
13	0xbc09a29a	-0.008400584
14	0x3c03a117	0.008034012
15	0xbd857678	-0.06516737
16	0xbd0d7c97	-0.034542646
17	0x3c865738	0.016399011
18	0x3c369a14	0.0111451335
19	0xbb777de8	-0.0037764255
20	0x3d60aca9	0.05485216
21	0xbcd080fd	-0.025452131
22	0x3d887195	0.06662289
23	0x3db1dbd7	0.08684509
24	0xbcad29e6	-0.021138143
25	0xbb1ba467	-0.0023749114
26	0xbd117a4d	-0.035517026
27	0x3d855ecb	0.06512221
28	0xbd95bf9d	-0.07311938
29	0x3da8138f	0.082068555
30	0x3dacf621	0.08445383
31	0xbcf45e01	-0.02982998
32	0x3dac38ae	0.08409248
33	0xbc44daa1	-0.012015016
34	0xbd64e8d1	-0.055886094
35	0x3addae98	0.0016912995
36	0xbc1974b1	-0.0093662
37	0x3d8e7baf	0.069571845
38	0xbd8acd56	-0.06777446
39	0x3cdb6317	0.026780648
40	0xbd2e276d	-0.042518068
41	0xbc2174be	-0.009854494
42	0x3d8d97f1	0.06913746
43	0xbb17d25c	-0.0023166155
44	0xbdd11563	-0.10209157
45	0x3c34484f	0.011003568
46	0x3dba4574	0.090952784
47	0x3c202355	0.009774049
48	0xbd3b756c	-0.04576628
49	0x3d24dba8	0.040248543
50	0x3c4d9f7d	0.012550232
51	0xbc8aa8df	-0.016926227
52	0xbd22c17d	-0.039735306
53	0xbd6969a2	-0.056985505
54	0x3c736380	0.014855266
55	0x3a3aadc9	0.0007121233
56	0x3b54bd2f	0.0032461395
57	0xbc354d95	-0.01106586
58	0xbdb0704a	-0.086151674
59	0xbc2a7585	-0.010403995
60	0x3d06df6c	0.032927915
61	0x3be49721	0.006976024
62	0x3db3d799	0.08781356
63	0x3d33e221	0.043916825
64	0xbdb1c635	-0.08680383
65	0xbae0f8a1	-0.0017163941
66	0x3b908880	0.0044108033
67	0x3d3f6db7	0.04673549
68	0xbd10486c	-0.035225317
69	0x3a4f78b3	0.0007914409
70	0xbdc26c61	-0.09493328
71	0x3d34cc7a	0.044140317
72	0x3d32f479	0.04369018
73	0xbd3f3ece	-0.046690755
74	0x3b6d42aa	0.0036203065
75	0xbd81b09a	-0.06332512
76	0xbbbcdbdb	-0.0057635135
77	0xbbc84cc2	-0.006112666
78	0xba2b6cc2	-0.00065393385
79	0x3cc8e6a6	0.024524044
80	0xbdb24761	-0.08705021
81	0x3d2c3568	0.04204312
82	0xbbc30e11	-0.0059526046
83	0x3bcd780d	0.0062704147
84	0x3d2ef7de	0.042716853
85	0x3da91f69	0.08257944
86	0xbd8fc7b5	-0.07020513
87	0xbb323ef0	-0.0027198158
88	0xbcfb625d	-0.030686552
89	0x3ac1c962	0.0014784748
90	0x3d2d688e	0.04233604
91	0xbd915014	-0.07095352
92	0x3deb079a	0.11476059
93	0x3da46d34	0.08028641
94	0xbcc6d0dc	-0.024269514
95	0x3d6f73e1	0.05846012
96	0xbd2b0a62	-0.04175795
97	0x3c5b62cb	0.013390253
98	0x3d52b87b	0.051445466
99	0x3c4bd52f	0.012440964
100	0x3d541c98	0.05178508
101	0x3b252817	0.0025200897
102	0xbd80492a	-0.06263955
103	0xbcf00a06	-0.029301655
104	0xbd5841d1	-0.052797142
105	0xbb92395e	-0.004462405
106	0x3de5639e	0.11200641
107	0x3bb1c5d1	0.005425193
108	0xbca85c9e	-0.020551976
109	0x3bbc348b	0.0057435683
110	0x3d0bcf4c	0.03413324
111	0xbd448897	-0.047981825
112	0xbdb718be	-0.08940266
113	0x3d900520	0.070322275
114	0x3bee8931	0.007279538
115	0xbd1f631d	-0.03891288
116	0xbd88f62a	-0.06687577
117	0x3ddc100b	0.107452475
118	0x3c50581c	0.012716319
119	0x3b9aa95e	0.004719897
120	0x3c72ba33	0.014814901
121	0xbba69d12	-0.005084642
122	0x3d9964e6	0.07489948
123	0x3c99959e	0.0187481
124	0x3d009768	0.031394392
125	0x3daecdbf	0.08535337
126	0xbd2bf484	-0.041981235
127	0x3ca75fbf	0.020431397

actor.4.bias f4 [2]
0	0x3d4ad2c8	0.049517423
1	0x3dd76822	0.10517909

critic.0.weight f4 [64, 15]
0	0xbd36b8a3	-0.044609677
1	0x3eabd7ec	0.33563173
2	0xbdc6aa7a	-0.097004846
3	0xbe6656c8	-0.22494042
4	0xbd77324d	-0.060350705
5	0xbe3f5981	-0.18686487
6	0xbe9762a1	-0.29567435
7	0x3e0b7405	0.13618477
8	0xbd8a91cc	-0.0676609
9	0x3e6f4c16	0.23368868
10	0xbc74e920	-0.014948159
11	0x3e2084a2	0.15675595
12	0x3e5a7d36	0.21336827
13	0x3d310dd0	0.043226063
14	0xbe2bd2a6	-0.16779575
15	0xbde19869	-0.11015398
16	0x3d0f48f8	0.034981698
17	0xbde9414f	-0.1138941
18	0x3d47c90f	0.04877573
19	0x3d8f7a2a	0.07005723
20	0xbdbc35fa	-0.09189983
21	0xbccee703	-0.02525664
22	0x3e70969f	0.23494957
23	0x3dc0173c	0.093794316
24	0x3d0d3a40	0.03447938
25	0x3e82744f	0.2547936
26	0xbe467aca	-0.19382778
27	0x3ca4fcd0	0.020140082
28	0x3e60e6ca	0.21963039
29	0xbc3ea3c0	-0.011635721
30	0x3e029546	0.12752256
31	0x3e919d4c	0.2844032
32	0xbdc21cd9	-0.094781585
33	0xbe2a60d8	-0.16638505
34	0x3d27afcf	0.04093915
35	0x3cb79eba	0.022414554
36	0xbe94feb4	-0.29100573
37	0x3b45e181	0.0030194225
38	0x3e555b32	0.2083557
39	0x3e25479e	0.16140601
40	0xbe6b9523	-0.2300611
41	0xbdeb81c4	-0.1149936
42	0xbe5bd232	-0.21466902
43	0xbe501cba	-0.20323458
44	0xbe3cb8c2	-0.18429855
45	0xbd2573f1	-0.040393773
46	0xbe7305e2	-0.23732713
47	0xbe2516b5	-0.16121943
48	0x3ea9074f	0.3301339
49	0xbd460119	-0.04834089
50	0xbe00efaa	-0.12591425
51	0xbdbc382b	-0.09190401
52	0x3dce9887	0.10087686
53	0xbd46efa0	-0.048568368
54	0x3d549e10	0.051908553
55	0x3e2030fa	0.15643683
56	0x3e7f6182	0.2493954
57	0xbe428edb	-0.18999808
58	0x3c5ef480	0.013608098
59	0x3e3f269a	0.18667069
60	0xbed32564	-0.41239464
61	0x3ca28482	0.019838575
62	0x3ed55437	0.41665813
63	0x3d2989c1	0.041391138
64	0x3d5f0266	0.054445647
65	0xbd7b46e7	-0.061346915
66	0x3ed0984e	0.407412
67	0x3dcb6327	0.09931021
68	0x3d5ecfc0	0.054397345
69	0xbe82ef61	-0.25573257
70	0x3e6f7f8c	0.23388499
71	0xbe08a330	-0.13343501
72	0xbe1da790	-0.15395951
73	0xbe577fd3	-0.21044855
74	0x3da20e94	0.07912937
75	0x3e560daf	0.20903657
76	0x3d568a2b	0.05237786
77	0x3e71542e	0.23567268
78	0x3ddc2ac9	0.10750348
79	0xbdfa44c5	-0.12220148
80	0xbe887f25	-0.26659504
81	0x3e1c2792	0.1524947
82	0xbe905163	-0.28187093
83	0x3e1adefa	0.15124121
84	0xbd8f69b8	-0.07002586
85	0x3e52b604	0.20577246
86	0xbb3eea00	-0.0029131174
87	0x3e277508	0.16353238
88	0xbe5f1a35	-0.21787341
89	0xbe3d8674	-0.18508321
90	0xbe924d9d	-0.2857484
91	0xbd344ada	-0.044016697
92	0xbd93642e	-0.07196842
93	0x3df12c7f	0.11776065
94	0xbdc27bb6	-0.09496252
95	0x3dcbbbd2	0.09947933
96	0xbe5d694b	-0.21622197
97	0xbe9516a9	-0.2911885
98	0xbe21deba	-0.1580762
99	0x3e23c502	0.15993121
100	0xbdeb9808	-0.11503607
101	0xbdfdc310	-0.12390721
102	0xbd46e7cc	-0.048560902
103	0x3ca10560	0.019655883
104	0x3ccae270	0.024766177
105	0xbe5b6ea4	-0.21428925
106	0xbc7ae171	-0.0153125385
107	0xbcfd864c	-0.030947827
108	0x3cdd4233	0.027009105
109	0x3e0abd26	0.13548717
110	0x3e63b452	0.22236755
111	0x3dddbb47	0.10826736
112	0x3e8775d8	0.26457095
113	0x3e82c041	0.25537303
114	0xbe6a5d9e	-0.22887275
115	0x3e841cd9	0.2580326
116	0x3e103c38	0.14085472
117	0x3ddaa848	0.10676628
118	0xbd978bb0	-0.0739969
119	0x3cb08ad0	0.021550566
120	0xbe14adba	-0.14519396
121	0x3d5fe1e4	0.054658785
122	0xbe7401b0	-0.23828769
123	0x3d6b7aa1	0.057489995
124	0xbe169816	-0.14706454
125	0xbe7bd7c3	-0.24594025
126	0xbe3af2e2	-0.18256715
127	0xbc893ea2	-0.016753498
128	0xbbd7d780	-0.006586969
129	0xbe42d0c9	-0.19024958
130	0xbe1cfdf0	-0.15331244
131	0xbe411001	-0.18853761
132	0x3e417aa6	0.18894443
133	0xbb0d1680	-0.0021528304
134	0x3e617bb2	0.22019842
135	0xbcafec38	-0.021474943
136	0xbe78d2d1	-0.2429917
137	0x3e98a132	0.29810482
138	0x3ed9031c	0.42385185
139	0xbd51c39b	-0.051211935
140	0x3e688513	0.22707014
141	0xbdba2e8f	-0.090909116
142	0x3e86f0cd	0.2635559
143	0xbe022abf	-0.12711619
144	0x3ddf2b1c	0.10896894
145	0xbe073933	-0.13205414
146	0x3e39b04a	0.18133655
147	0xbdb75226	-0.089512154
148	0x3c72cf80	0.01481998
149	0x3dd62ee0	0.104581594
150	0xbddf9029	-0.10916168
151	0xbe983633	-0.2972885
152	0xbe82f5d6	-0.25578183
153	0xbdff190e	-0.12455951
154	0x3d854158	0.06506604
155	0xbdc364cc	-0.0954071
156	0xbe650197	-0.22363888
157	0xbdede4f8	-0.11615938
158	0x3e44ed7e	0.19231221
159	0x3e65dd90	0.224478
160	0xbe378083	-0.17920117
161	0x3d102980	0.035195827
162	0xb913e800	-0.00014105439
163	0x3e542d0c	0.20720309
164	0xbde74354	-0.11292139
165	0xbe7d6c8c	-0.24748439
166	0x3d5869e1	0.05283535
167	0xbe87f6aa	-0.26555377
168	0x3eac7724	0.33684647
169	0xbe5b025c	-0.21387619
170	0x3edc4f35	0.4302918
171	0x3d4ff058	0.05076632
172	0x3ee00d09	0.43759945
173	0xbddb223e	-0.106998906
174	0x3e1b50bc	0.15167516
175	0xbe36ebc0	-0.17863369
176	0xb9e67c00	-0.00043961406
177	0xbd739f34	-0.059478
178	0x3c489400	0.012242317
179	0xbe2b2c62	-0.1671615
180	0x3d5c247b	0.053745728
181	0x3dc17119	0.094454
182	0xbe03bfc7	-0.12866126
183	0x3d9796c8	0.07401806
184	0x3cc701c5	0.024292836
185	0xbbc9f739	-0.0061635044
186	0x3ea020e2	0.31275088
187	0xbe24f3ce	-0.16108629
188	0xbe81b739	-0.253351
189	0x3e0328da	0.12808552
190	0xbe80523b	-0.25062737
191	0x3e5e5e2a	0.21715608
192	0xbe40cca3	-0.18828063
193	0x3e71705a	0.23578015
194	0x3e42a2a6	0.19007358
195	0xbe780b0a	-0.24222961
196	0x3e645762	0.22298959
197	0xbe77fd8e	-0.24217817
198	0x3e86288a	0.26202804
199	0xbe29d32b	-0.1658446
200	0x3e6cb063	0.23114161
201	0xbe684a83	-0.22684674
202	0x3d4144f2	0.047184892
203	0xbdae74ae	-0.08518349
204	0xbc0b42b0	-0.008499786
205	0xbc32be00	-0.010909557
206	0x3dd37b64	0.10326269
207	0xbddaa6ae	-0.10676323
208	0xbd97e728	-0.074171364
209	0x3e7a893a	0.2446641
210	0xbc028a5e	-0.00796756
211	0x3e4fbf0a	0.2028772
212	0xbcf4cd6e	-0.029883113
213	0xbddc9d57	-0.10772198
214	0x3d31fde7	0.04345503
215	0x3bf9743f	0.0076127346
216	0xbe2f9e54	-0.17150241
217	0x3df39ac9	0.11894757
218	0xbdbbba38	-0.09166378
219	0xbe7db798	-0.24777067
220	0x3d472b08	0.048625022
221	0x3d7343d8	0.059390873
222	0x3b0d6180	0.0021573007
223	0x3e796f46	0.24358854
224	0x3e271518	0.1631664
225	0x3e038a15	0.12845643
226	0xbe88bdee	-0.26707405
227	0x3e1d387a	0.15353575
228	0xbd8c9a52	-0.06865372
229	0xbe0a7ba6	-0.1352373
230	0xbeab9115	-0.33509126
231	0x3e5b7419	0.21431006
232	0xbe515df7	-0.20446001
233	0xbe6f6477	-0.23378168
234	0x3deedf1c	0.116636485
235	0xbe56a369	-0.20960774
236	0xbe46053e	-0.19337937
237	0xbcf58d18	-0.029974505
238	0xbe105026	-0.14093074
239	0x3e2c513c	0.16827863
240	0x3a984343	0.0011616725
241	0x3d092f67	0.033492472
242	0x3dbec425	0.09314755
243	0xbd7a03c4	-0.061038747
244	0x3e8b51d2	0.2721086
245	0x3d2582b8	0.040407866
246	0x3d53749c	0.05162488
247	0x3e852cb7	0.26010677
248	0xbe761caf	-0.2403438
249	0xbe655d36	-0.22398838
250	0x3e08bea0	0.13353968
251	0x3d165028	0.036697537
252	0xbe3fec6c	-0.18742532
253	0x3e787316	0.24262652
254	0x3dbf78c8	0.09349209
255	0x3cee348a	0.029077787

critic.0.bias f4 [64]
0	0x3e43daa9	0.19126381
1	0xbc87f8d7	-0.016598148
2	0xbe8534cd	-0.26016846
3	0x3d758452	0.059940644
4	0xbcb4b8b6	-0.022060733
5	0x3cdd3e62	0.027007286
6	0xbdf8c019	-0.12146015
7	0xbddeeae1	-0.10884643
8	0xbe33d742	-0.17562583
9	0x3e649585	0.22322662
10	0xbdb312fc	-0.08743855
11	0x3c2f5e1b	0.010703589
12	0x3e37a379	0.17933454
13	0x3e9e44c8	0.3091185
14	0xbe25cf4d	-0.1619236
15	0xbec3e680	-0.38261795
16	0x3d7b304a	0.06132535
17	0xbc508dee	-0.012729151
18	0x3dfbc776	0.122939035
19	0xbd6ad05e	-0.05732762
20	0x3db055b8	0.086100996
21	0x3d50f5f0	0.051015794
22	0xbd2aa921	-0.0416652
23	0x3db81ac7	0.089894824
24	0xbde48b15	-0.1115934
25	0x3e0efd8f	0.13963912
26	0x3e7407b8	0.2383107
27	0xbe1f062b	-0.15529697
28	0xbe62865f	-0.22121571
29	0xbecb7edf	-0.39745232
30	0xbde206f0	-0.110364795
31	0xbe3f4521	-0.18678714
32	0xbe6e2e9d	-0.23259969
33	0x3e850cee	0.25986427
34	0x3e2d1821	0.16903736
35	0x3e47ee1b	0.19524424
36	0x3e7c04d0	0.24611211
37	0xbe4adbe4	-0.19810444
38	0x3cbde348	0.023179665
39	0x3eadac53	0.33920535
40	0xbd44755c	-0.047963485
41	0x3e2491dc	0.16071266
42	0xbe404731	-0.18777157
43	0x3d852dd5	0.065028824
44	0x3e630086	0.22168168
45	0x3d8d8607	0.06910329
46	0xbdcc2f9b	-0.099700175
47	0xbe1bf26e	-0.15229198
48	0x3e38bc4f	0.18040584
49	0x3e262eeb	0.16228835
50	0xbe132591	-0.14369799
51	0xbe11b136	-0.14227757
52	0x3d7c68af	0.06162327
53	0x3de925b3	0.11384144
54	0xbdced49c	-0.10099146
55	0x3e02ae87	0.1276189
56	0xbad048bb	-0.0015890816
57	0xbe4138e1	-0.18869354
58	0x3e981a86	0.29707736
59	0x3cb63180	0.0222404
60	0x3e5e5227	0.21711026
61	0x3dc91374	0.098181635
62	0xbdedc28f	-0.11609375
63	0x3de88b9e	0.11354755

critic.2.weight f4 [64, 64]
0	0x3e17ace8	0.14812052
1	0x3dd15ec6	0.10223155
2	0xbc8b876c	-0.017032348
3	0x3c3f4d1c	0.011676099
4	0xbd9fb2de	-0.07797788
5	0xbd01c42b	-0.03168122
6	0x3d6107c1	0.054939035
7	0x3da534f4	0.08066741
8	0xbdf0d331	-0.117590316
9	0xbe128530	-0.1430862
10	0x3d036580	0.03207922
11	0x3dfb1d05	0.122613944
12	0x3bf53593	0.007483193
13	0x3d446a05	0.04795267
14	0x3dc3d27d	0.09561632
15	0x3bfdabd1	0.0077414294
16	0xbc2ec849	-0.010667869
17	0x3cefc10f	0.029266862
18	0xbd84f306	-0.064916655
19	0xbdc4a1cf	-0.09601175
20	0xbb615839	-0.003438486
21	0xbde28eff	-0.110624306
22	0x3d17c707	0.03705504
23	0xbd9d709d	-0.07687495
24	0xbd806cc5	-0.06270746
25	0x3d0f81ec	0.035036013
26	0x3dcda5a0	0.10041356
27	0x3bfee12c	0.0077783074
28	0x3d078abc	0.03309129
29	0xbda26085	-0.07928566
30	0x3c3d96e0	0.011571616
31	0xbc5f8573	-0.013642657
32	0xbd0e045c	-0.034672126
33	0x3c857801	0.016292574
34	0x3d323f19	0.043517206
35	0x3dcea5cd	0.10090218
36	0xbdb9915f	-0.090609305
37	0x3e009157	0.12555443
38	0x3a4ad9e5	0.00077381573
39	0x3cf187df	0.029483734
40	0x3d4be99b	0.04978333
41	0x3d181ee5	0.03713884
42	0x3d8bed77	0.06832402
43	0x3c738213	0.014862555
44	0x3dea7701	0.114484794
45	0x3cc13c0e	0.023588207
46	0xbda4d439	-0.08048291
47	0xbd74eca5	-0.059795994
48	0x3d596675	0.053076226
49	0x3dfd7042	0.12374927
50	0x3dfe7b69	0.12425882
51	0x3db146c6	0.08656077
52	0x3e02dbc7	0.12779151
53	0x3dc37f17	0.09545725
54	0x3d8f164f	0.06986677
55	0xbca265e7	-0.019823981
56	0x3c2865ea	0.010278204
57	0xbd97ac4e	-0.074059114
58	0xbd8103bf	-0.06299543
59	0xbcb1602f	-0.02165231
60	0x3e175bda	0.14781132
61	0x3cd28d5c	0.025702171
62	0xbc7be77e	-0.015375016
63	0xbdddd288	-0.10831171
64	0xbe17ba0c	-0.14817065
65	0x3d8f8f73	0.07009783
66	0x3d5f07c2	0.054450758
67	0x3da6b7a8	0.081404984
68	0xbd918e36	-0.07107203
69	0x3df94099	0.12170524
70	0xbb038082	-0.002006561
71	0xbdd18ce7	-0.10231953
72	0x3cac1c73	0.02100966
73	0x3dba4c56	0.09096591
74	0xbe0ee804	-0.13955694
75	0xbdf5d5ef	-0.12003695
76	0xbdb13c05	-0.08654026
77	0xbde3bf5f	-0.111204855
78	0xbe0b8233	-0.13623886
79	0x3c63ccb3	0.013903785
80	0x3c00d1cd	0.00786252
81	0x3d48221d	0.048860658
82	0xbe470a51	-0.19437529
83	0x3d9897fc	0.07450864
84	0xbdf4beaf	-0.119504325
85	0x3d131e37	0.035917487
86	0x3dce94b9	0.1008696
87	0xbdacf671	-0.084454425
88	0x3d34819a	0.04406891
89	0x3e0cecee	0.13762257
90	0x3ce1d562	0.02756757
91	0x3dfc502e	0.123199806
92	0x3ca9755b	0.020685842
93	0x3ded4d99	0.11587066
94	0xbc902977	-0.017597897
95	0xbe292e0c	-0.16521472
96	0xbbf00512	-0.007324823
97	0xbc0815bf	-0.008305966
98	0x3bd37068	0.006452609
99	0xbdcc8b72	-0.099875346
100	0x3da535d9	0.08066911
101	0xbe29502c	-0.1653449
102	0x3db93aaa	0.090443924
103	0xbbc3306b	-0.0059566996
104	0x3ca2b6f7	0.019862635
105	0x3ce70748	0.028201714
106	0xbd44feaa	-0.04809443
107	0x3c4ac0c9	0.012375065
108	0x3d9567ac	0.072951645
109	0xbba7d882	-0.0051222453
110	0x3d1891ae	0.037248306
111	0x3d0669a8	0.032815605
112	0xbc44ed16	-0.012019416
113	0x3a9033b5	0.0011001738
114	0x3b9681bd	0.0045931027
115	0xbd503675	-0.050833184
116	0xbcec92ea	-0.028878648
117	0x3d6e4124	0.05816759
118	0xbd1fdde3	-0.039029967
119	0xbda5d266	-0.08096771
120	0xbd117339	-0.035510276
121	0x3de1bb21	0.1102202
122	0xbbd3bb1c	-0.006461514
123	0x3d988a40	0.07448244
124	0xbcd18589	-0.02557637
125	0x3bf0252c	0.00732865
126	0xbd90f546	-0.07078032
127	0xbd2acc4d	-0.041698743
128	0x3c10b739	0.008832746
129	0xbcb44efd	-0.02201032
130	0x3c8fa054	0.017532505
131	0x3d60eb7c	0.054912075
132	0x3daa3ff0	0.08312976
133	0x3ca7ab88	0.020467535
134	0xbccf4cf7	-0.025305254
135	0xbdb0590e	-0.08610736
136	0x3db8fcf0	0.09032619
137	0x3e394b3c	0.18095106
138	0xbdec137c	-0.11527154
139	0x3dbedefe	0.09319876
140	0x3db97304	0.090551406
141	0x3d720490	0.059086382
142	0xbd0542c1	-0.032534365
143	0xbc5f79a6	-0.013639843
144	0x3db38b90	0.08766854
145	0xbd5f201a	-0.054473974
146	0xbdc70245	-0.0971723
147	0xbc846b04	-0.01616431
148	0xbe0c0bfb	-0.13676445
149	0xbdc72305	-0.09723476
150	0xbcd18aa4	-0.025578804
151	0x3daa4c84	0.083153754
152	0x3cb71339	0.022348033
153	0x3e22212b	0.15832965
154	0x3d8b8d2c	0.06814036
155	0x3d687db3	0.0567605
156	0xbc4bb635	-0.012433578
157	0xbd1629bc	-0.036660895
158	0xbd0f276e	-0.034949712
159	0x3d47f858	0.048820823
160	0x3d483e38	0.04888746
161	0xbd604fe3	-0.054763686
162	0x3ddbcfbc	0.107329816
163	0x3d5adf05	0.053435344
164	0xbcd66f6e	-0.02617618
165	0x3da79f76	0.08184712
166	0xbd795812	-0.060875006
167	0xbb7c1e46	-0.0038470193
168	0xbd56a4c8	-0.05240324
169	0x3c056fd5	0.008144339
170	0x3cacc4b9	0.021089898
171	0xbc634beb	-0.013873081
172	0x3d0ade40	0.03390336
173	0x3e0078c0	0.12546062
174	0x3dbe6046	0.092957065
175	0x3d4a4598	0.049382776
176	0x3d4e1645	0.050314207
177	0x3bb899e8	0.0056335814
178	0x3d791aee	0.060816698
179	0xbda69c99	-0.081353374
180	0xbd27d332	-0.040972896
181	0xbd8714f9	-0.06595797
182	0x3cb6862e	0.022280779
183	0x3d94c4e6	0.07264118
184	0xbe0599d4	-0.13046962
185	0x3d8a2d02	0.06746866
186	0xbd6cf692	-0.057852335
187	0x3dcbfa06	0.099597976
188	0xbd2ba7a2	-0.041907914
189	0x3dab0f01	0.08352471
190	0xbda6d19a	-0.08145447
191	0xbd55d322	-0.052203305
192	0x3a455fe2	0.0007529241
193	0xb9f6470a	-0.00046973705
194	0x3dae6d12	0.08516897
195	0xbdaaaf34	-0.083341986
196	0xbdb4620a	-0.08807762
197	0xbd3ec449	-0.04657391
198	0xbda2185a	-0.07914801
199	0xbd028897	-0.031868543
200	0xbd226f02	-0.039656647
201	0x3e3eadb0	0.18620944
202	0xbddef7b7	-0.108870916
203	0xbdf97a50	-0.121815324
204	0x3de7220b	0.1128579
205	0xbca601da	-0.020264555
206	0xbd46789c	-0.048454866
207	0x3c5d5773	0.013509619
208	0x3d803e2b	0.062618576
209	0x3b944c99	0.0045257327
210	0xbe139047	-0.14410506
211	0xbc8eba4a	-0.017422814
212	0xbddd24f7	-0.10798066
213	0x3d4c04da	0.049809314
214	0x3d2e9a04	0.04262735
215	0x3dcc84da	0.09986277
216	0xbc992d85	-0.018698463
217	0x3db42584	0.08796218
218	0x3d28949e	0.041157357
219	0x3e1bea32	0.15226057
220	0x3d4b7efa	0.04968164
221	0x3e013679	0.12618436
222	0xbdacf0ec	-0.0844439
223	0x3db4d66e	0.08829962
224	0xbc2789f4	-0.010225762
225	0x3d6e8214	0.05822952
226	0xbd5d991e	-0.054101102
227	0xbddf02ea	-0.10889228
228	0x3de7a671	0.11311043
229	0xbdb0f17e	-0.08639811
230	0x3d86a183	0.06573775
231	0x3de9db28	0.11418754
232	0xbd2dc8ad	-0.042427707
233	0x3ddb8810	0.10719311
234	0xbdebbb7a	-0.11510368
235	0xbe5bf0f0	-0.21478629
236	0xbdfd84fe	-0.12378882
237	0x3dd86a63	0.10567167
238	0x3c46b894	0.012128968
239	0xbd63551a	-0.05550108
240	0x3d2acbc4	0.041698232
241	0x3d7cfed1	0.06176645
242	0x3c8fab89	0.017537849
243	0xbdd1bac1	-0.102406986
244	0x3c14ee2b	0.009089987
245	0xbd9bb577	-0.07602971
246	0xbdca651c	-0.09882566
247	0xbc39c1ae	-0.011337681
248	0x3d83d912	0.06437887
249	0xbd79e465	-0.06100883
250	0x3d76e15b	0.06027351
251	0x3de3f387	0.111304335
252	0xbce82d8d	-0.028342033
253	0x3ce17664	0.027522273
254	0x3d67afc8	0.056564122
255	0xbcf29fb2	-0.029617164

critic.2.bias f4 [64]
0	0xbd69de12	-0.05709655
1	0xbca02f50	-0.01955381
2	0x3bc2deae	0.0059469556
3	0xbdb3186f	-0.08744895
4	0x3c03d5bc	0.008046564
5	0x3df53aaf	0.11974084
6	0xbda93b55	-0.0826327
7	0x3bafc4f7	0.005364056
8	0xbdaba387	-0.083808
9	0x3c8cba49	0.017178671
10	0xbde5b840	-0.112167835
11	0xbd4397f2	-0.04775233
12	0x3c8f8ea0	0.017524064
13	0xbd350755	-0.044196445
14	0xbe0f4620	-0.13991594
15	0xbcf588ca	-0.029972453
16	0x3cb9aa7c	0.022664301
17	0x3b941fe3	0.0045204028
18	0xbd97cf0c	-0.07412538
19	0x3c0df181	0.008663536
20	0x3be1e2cb	0.006893491
21	0x3cf24e3d	0.029578323
22	0xbc23973a	-0.009984786
23	0xbd2dec4b	-0.042461675
24	0xbd8be800	-0.0683136
25	0x3d85202b	0.06500276
26	0x3de48da9	0.11159832
27	0xbd84d96e	-0.06486784
28	0x3e24c8a7	0.16092168
29	0x3e0dd8fa	0.13852301
30	0x3cf4168f	0.029795913
31	0xbd914020	-0.07092309
32	0xbd1e267e	-0.038610928
33	0xbe01bef9	-0.12670507
34	0xbda6baf2	-0.08141126
35	0xbbb456cb	-0.0055035106
36	0xbe0a9e0d	-0.13536854
37	0xbe2907d3	-0.16506891
38	0x3ba812d3	0.005129197
39	0xbda49819	-0.08036823
40	0xba33541e	-0.00068408425
41	0x3d874359	0.066046424
42	0xbdc15188	-0.09439379
43	0xbd9f72a2	-0.07785536
44	0xbe416ccb	-0.18889157
45	0xbd4ddb8f	-0.050258216
46	0x3e29d191	0.1658385
47	0xbd67b6b4	-0.056570724
48	0x3c99cc49	0.018774169
49	0xbe2dffe3	-0.16992144
50	0x3d8ea62e	0.0696529
51	0x3c6f93c0	0.014622629
52	0x3d81563e	0.063152775
53	0xbb8f2e50	-0.0043695346
54	0x3e1d530e	0.15363714
55	0xbce21711	-0.02759889
56	0xbc9d6b02	-0.019216064
57	0xbcd35f54	-0.025802292
58	0xbd5839e1	-0.052789573
59	0xbda39d84	-0.07989028
60	0xbd7c4a63	-0.06159438
61	0xbe170b82	-0.14750484
62	0x3dfe9325	0.12430409
63	0xbbe8d877	-0.0071058827

critic.4.weight f4 [1, 64]
0	0xbe0f6880	-0.14004707
1	0x3d8060c1	0.06268454
2	0x3e02b477	0.12764154
3	0x3d422f46	0.047408365
4	0x3cd3b2cd	0.025842095
5	0xbdc368ef	-0.09541499
6	0x3d82521e	0.06363319
7	0x3df0eb6f	0.117636554
8	0x3e02c402	0.12770084
9	0xbd131334	-0.035906985
10	0x3e08c161	0.13355018
11	0xbe0e00e0	-0.13867521
12	0xbe17eda3	-0.14836745
13	0xbd38c768	-0.045112044
14	0x3d497721	0.049185876
15	0x3e33f598	0.17574155
16	0x3e23d386	0.15998659
17	0x3bd1a750	0.006398119
18	0xbe0d9f57	-0.13830315
19	0xbd4b0ca5	-0.049572606
20	0xbe0fe7c2	-0.14053252
21	0xbe1b83ee	-0.15187046
22	0xbd990d18	-0.074732006
23	0xbe1c3275	-0.15253623
24	0x3da3ce1f	0.07998299
25	0xbd955f27	-0.072935395
26	0xbe242f40	-0.1603365
27	0x3d96c7f1	0.073623545
28	0xbe0c5203	-0.1370316
29	0xbe0fecec	-0.14055222
30	0xbda627a9	-0.08113033
31	0x3e0a6bee	0.13517734
32	0x3dcbdf34	0.09954682
33	0x3e40c6ae	0.1882579
34	0x3e03f5fa	0.12886801
35	0x3c272b39	0.010203176
36	0x3e125a74	0.14292318
37	0x3e290917	0.16507374
38	0xbd3af899	-0.045647237
39	0xbd27215a	-0.04080329
40	0x3d8b951e	0.06815551
41	0x3dcc6d46	0.0998178
42	0x3e180188	0.14844334
43	0x3ddbb31c	0.10727522
44	0x3d07685f	0.03305852
45	0xbda2fc93	-0.07958331
46	0xbd2924fd	-0.04129504
47	0xbda797c9	-0.081832476
48	0x3e115b36	0.1419495
49	0x3d3df0d6	0.046372257
50	0x3e02c57f	0.12770651
51	0xbd618021	-0.055053834
52	0xbdeb1f31	-0.11480559
53	0xbd9e8676	-0.0774049
54	0xbd9e98f8	-0.0774402
55	0xbdedb149	-0.1160608
56	0x3df7cde6	0.12099819
57	0xbd8f7627	-0.07004958
58	0x3d8e6715	0.06953255
59	0xbddb64be	-0.107125744
60	0x3d6edd0f	0.058316287
61	0x3d99ed19	0.07515926
62	0xbe32b9be	-0.17453668
63	0xbe08a40a	-0.13343826
