models/021_Fast_Curriculum/021_Fast_Curriculum_latest.pth (torch, 47138 bytes, 11 tensors)

actor.0.weight f4 [64, 15]
000000 90 f8 e8 bc 7a fa 11 be a1 21 0b 3e fa 9f 21 be
       -0.028438836 -0.14255705 0.13587047 -0.15783682
000010 f6 86 1f 3e 6b 8e cb 3d 0f 8c ce 3d 76 ce 9b 3d
       0.15578827 0.099392734 0.10085308 0.07607739
000020 6b a1 42 3e ef 43 25 bd f8 b8 37 bd 74 73 1e 3e
       0.19006889 -0.04034799 -0.044854134 0.1547373
000030 ae a5 df bd 10 9e cf 3c 79 b6 82 be 1d 3d 5a 3e
       -0.10920273 0.025343925 -0.2552984 0.21312375
000040 7a 1d bb 3d ea 8f f0 bc 04 d7 b2 3d 3b 13 4a 3a
       0.091364816 -0.029365499 0.08732417 0.0007708554
000050 34 97 b4 3e 5b f8 4c bd 48 73 cb bd c4 fc 2f 3d
       0.3527161 -0.050041538 -0.099340975 0.042965665
000060 a8 8d 20 3e cb 36 66 3c a8 81 52 3e fe 80 53 3e
       0.15679038 0.01405115 0.20557272 0.20654675
000070 4e 28 23 3e a8 01 65 3e 6a cc 53 bd af e8 e0 3c
       0.15933344 0.22363913 -0.051708616 0.027454702
000080 5e a5 7e 3e e5 1d 8a 3e ae cd 68 be 1f 20 93 3e
       0.2486777 0.26975933 -0.2273471 0.28735444
000090 fc d1 a3 bd 72 69 55 3e c4 8a 2f 3c a6 4b 85 3d
       -0.07999036 0.20841005 0.010714237 0.065085694
0000a0 47 37 36 3d c8 9a 8a 3d 9e d4 3a 3e c6 47 51 3e
       0.04448631 0.067678034 0.1824517 0.20437536
0000b0 97 7b 20 be 85 98 3e 3e 43 a3 7d 3c 06 2e 79 3e
       -0.15672146 0.18612869 0.015480819 0.24333963
0000c0 42 3f db 3d ff bd f5 3e cc 41 4c bd e3 7f 19 be
       0.10705425 0.47996518 -0.049867436 -0.14990191
0000d0 3e f8 08 3e 88 72 df bd ab 18 31 3e 4b 75 9e 3e
       0.13375947 -0.10910517 0.17294566 0.30948862
0000e0 4a 7a 7e 3e c4 68 30 bd c0 3d d6 bb 94 7f f8 3d
       0.24851337 -0.043068662 -0.006538123 0.121337086
0000f0 58 d6 65 be 6b 87 d2 3d b2 9c 5e 3d 72 73 86 3d
       -0.22445047 0.10279735 0.054348655 0.06564988
000100 c5 74 5e 3e 19 f4 49 be 80 43 9d 3d ec f2 6e 3d
       0.21724232 -0.19722022 0.0767889 0.058337137
000110 b8 54 ab be 2b 5a 8b 3d 84 db 02 3e d2 79 49 3e
       -0.33463073 0.068043076 0.12779051 0.19675377
000120 48 e4 1e 3e e0 93 84 3d 7c e1 5c 3e 39 60 0f 3e
       0.1551677 0.064735174 0.2157039 0.1400155
000130 7a bb 98 bd 1a 9e b2 3d 60 e0 94 be 5f 50 97 3e
       -0.07457633 0.08721562 -0.29077435 0.29553506
000140 98 b6 1c be e0 d7 c3 3d 76 80 65 bd 5b c7 85 be
       -0.15304029 0.09562659 -0.056030713 -0.2612866
000150 3e 48 b7 bd bd d2 92 bd 8a 58 3d be ba 01 14 be
       -0.08949326 -0.071691014 -0.18490806 -0.14453784
000160 e8 2e 7c 3d 60 27 78 be 2f cb 3e bc c2 33 92 bb
       0.06156817 -0.2423377 -0.011645122 -0.0044617364
000170 b2 23 26 be 47 c5 82 bd 4f 9c 86 bd 7b 76 e2 bd
       -0.16224554 -0.06385284 -0.06572782 -0.110577546
000180 80 fe 42 bd d7 8e d7 bd 46 ae 8d bc 75 23 e6 bb
       -0.04760599 -0.105252914 -0.017295014 -0.00702327
000190 fa 4f eb bd 6e 3a 19 3e 72 e3 24 be d0 b2 f2 3c
       -0.11489864 0.14963695 -0.16102389 0.02962628
0001a0 74 d5 f3 3d 4c a4 5e 3e 83 b2 0e 3e 63 47 fe bd
       0.11905947 0.21742362 0.13935284 -0.1241596
0001b0 b8 96 84 be c9 b6 e1 3e 8a 30 da 3d 36 20 29 bd
       -0.2589624 0.44084767 0.10653789 -0.041290484
0001c0 8a 1e fc 3d 45 46 84 bd 49 c7 94 bd 47 d8 6c be
       0.12310512 -0.06458715 -0.07264573 -0.23129378
0001d0 e8 52 6e be 80 bc 2a 3b 5c ed dd 3d de 9f 08 3e
       -0.23273814 0.0026052296 0.10836288 0.13342234
0001e0 52 5f 00 3d 06 9e ef bc 65 a3 bd 3d 28 d6 02 be
       0.031340905 -0.029250156 0.09259681 -0.12777007
0001f0 e6 62 1e 3f 5b 19 68 3e 17 f9 12 3d 16 0b 2b 3d
       0.6186966 0.22665922 0.03588208 0.04175862
000200 59 49 f9 bb c5 30 b7 bc d3 b4 12 be 6e 99 62 3e
       -0.0076076207 -0.022362122 -0.14326791 0.22128841
000210 21 5b 31 be fc bd 6c 3e 82 93 39 be 32 28 83 3e
       -0.17319919 0.23119348 -0.18122676 0.25616604
000220 03 f9 f2 bd 6b ea b5 bd 81 ae d5 3d 00 13 74 3e
       -0.118639015 -0.08882602 0.104336746 0.23835373
000230 ef 72 24 3e 14 41 68 bc 5b 34 ac 3d df 34 74 bd
       0.16059469 -0.014175672 0.084084235 -0.059620734
000240 d8 8b aa 3d ac 83 76 3d 28 97 21 be cd 09 36 be
       0.08327454 0.060184166 -0.15780318 -0.17777176
000250 f4 ac 57 be 5a 0a 81 bd 82 69 61 3b d3 65 33 3e
       -0.2106207 -0.063008025 0.0034395163 0.17519312
000260 a9 04 1c 3e 0f f9 1e 3e ac d7 d4 be 3f 9e 84 3e
       0.15236153 0.15524696 -0.41570795 0.25901982
000270 c6 bd 42 3d 72 40 ae 3d 30 b3 ab 3d 15 9c 03 3e
       0.047544263 0.08508386 0.08383787 0.1285251
000280 78 76 99 bd d2 50 5a 3e e0 1a 6e 3d 30 66 cd bd
       -0.07493299 0.21319893 0.0581311 -0.10029256
000290 f5 16 84 3e f2 1e 88 3e 17 95 5b bd dc 90 89 bc
       0.25798765 0.2658611 -0.05360898 -0.016792707
0002a0 87 a1 00 3e c1 83 65 bf f6 ff 37 be 01 05 88 3e
       0.12561618 -0.89654166 -0.17968735 0.26566318
0002b0 92 1c 7a be 9d 54 1a 3e 5d 57 22 be 6f ae 3d 3e
       -0.24424961 0.1507134 -0.15853639 0.18523572
0002c0 74 35 e1 bd 40 76 1e be 96 40 00 3e 62 51 4b 3e
       -0.109965235 -0.15474796 0.12524638 0.19855264
0002d0 6f ce 54 3d 5d 8b 7f 3e 38 90 f1 3d db 34 0b 3e
       0.051954683 0.24955507 0.11795086 0.13594382
0002e0 3e cd 11 3f 6c 9f 49 bc fb dd ca bd 1f d1 be 3d
       0.569538 -0.012306076 -0.09905621 0.093172304
0002f0 f7 e8 e3 bd 0b 60 47 bd a5 02 22 b8 24 b4 74 be
       -0.11128419 -0.048675578 -3.8626273e-05 -0.23896843
000300 95 16 72 be b8 d1 31 bd 70 94 15 bc 85 01 57 3d
       -0.23641427 -0.043412894 -0.009129629 0.052491684
000310 d2 a0 fa bc 04 21 dd 3d 55 6c 19 3e ed 8e db 3e
       -0.030594263 0.10797313 0.14982732 0.4288248
000320 3c b7 c6 bd c9 c9 7b bd aa e0 95 bb fb 25 76 3e
       -0.09702918 -0.061471734 -0.004573901 0.24037926
000330 4a 9b 86 bd 3b 8f 51 3e 3e a4 e9 bd 00 f7 1a 3c
       -0.06572588 0.20464794 -0.1140828 0.009458303
000340 30 5c a8 3d b4 82 29 3e 21 40 da bd 3a 0d bc 3a
       0.08220708 0.16553766 -0.10656763 0.0014347204
000350 6b 0e 98 bd a2 6a d1 bd 46 1a 5b 3c 91 c2 90 be
       -0.07424625 -0.10225417 0.013372963 -0.28273442
000360 91 ca 9e 3d 19 5d ad be 3e 4b 70 bd 16 b0 64 be
       0.0775348 -0.3386009 -0.058665507 -0.22332796
000370 59 96 73 be e2 19 55 be 50 07 3d 3d c0 e4 c4 3b
       -0.23787822 -0.20810655 0.046149552 0.0060087144
000380 0c e4 d1 3d 60 7c 3c 3d b5 1e 9e 3d 0a 58 e3 3d
       0.102485746 0.04601705 0.07720701 0.111007765
000390 56 5c 18 3e 17 13 78 bd d9 4c ef 3d 21 db 9e 3e
       0.14878973 -0.06056508 0.116845794 0.31026557
0003a0 95 3a 8f bd fa c5 36 3e a0 c2 b8 3c da 87 7c bd
       -0.069935955 0.1784896 0.022553742 -0.061652996
0003b0 64 98 10 3e d8 c2 7b 3d 40 c3 06 bd f8 89 5e be
       0.14120632 0.061465114 -0.03290105 -0.21732318
0003c0 cc b3 d5 3d c6 49 13 be 6b aa 7f be 4d 8f f6 3b
       0.10434684 -0.14383611 -0.24967353 0.007524407
0003d0 b6 5c 86 bd 7e b1 76 3e d8 db 64 3e 40 81 f4 3c
       -0.06560652 0.24091145 0.22349489 0.029846787
0003e0 5a ee 16 3e 53 18 67 ba fa ef 01 be 70 fd db bd
       0.14739361 -0.0008815575 -0.126892 -0.10741699
0003f0 e9 dd 75 be bd 9e 0b be 80 02 04 3b 2d d1 dc bd
       -0.24010433 -0.13634773 0.0020143092 -0.107820846

actor.0.bias f4 [64]
000000 b4 55 19 3e 6a 4c 5e be db 96 19 be cf 20 a2 3d
       0.149741 -0.21708837 -0.14998953 0.07916414
000010 74 c5 24 be e4 69 11 3d d6 5e 6d 3c a9 cf 0e 3e
       -0.16090947 0.035501376 0.014487943 0.13946404
000020 61 d0 03 bd e8 6d a2 3c b0 6f 8c be eb 6a 22 be
       -0.032181147 0.019827798 -0.2742896 -0.15861098
000030 dd 49 24 be e2 27 51 3e 13 81 34 3e 92 bf ae 3c
       -0.16043802 0.2042537 0.17627363 0.021331582
000040 d1 1f a4 bd 1a d4 a3 bd ae b2 b7 3d b8 c5 e0 3d
       -0.08013881 -0.079994395 0.08969627 0.10975212
000050 0a 3f 0a be 42 23 57 3e a3 28 d7 bd 92 a6 87 3d
       -0.1350061 0.21009544 -0.10505798 0.06623568
000060 73 a7 14 be 3b d0 72 bc c7 9e a1 3d e5 87 de 3d
       -0.14517002 -0.014820154 0.078916125 0.108657636
000070 30 68 2d be 23 9c 40 be dd 49 02 3d e7 cb 59 bc
       -0.16934276 -0.18809561 0.031808723 -0.013293243
000080 98 38 0a be 81 8e f6 3c 98 12 05 be 11 1e dc bb
       -0.13498151 0.030097248 -0.12995374 -0.0067174514
000090 12 71 1d 3e 2f 64 1d be cc ca fd 3d 80 6e 6d 3c
       0.15375164 -0.15370248 0.12392196 0.014491677
0000a0 47 1f 07 3e fa 6e 42 be fd 4f 3b 3e de a8 53 bd
       0.13195525 -0.18987647 0.18292232 -0.051674716
0000b0 5b 48 67 bd d0 14 98 bc 45 e1 cf bd e2 f9 dd 3d
       -0.056465488 -0.018564612 -0.10150389 0.10838677
0000c0 ac 45 91 3d 40 ec dc bd 28 fa 7f be ba 6d 45 3e
       0.07093367 -0.107872486 -0.24997771 0.19280139
0000d0 13 a1 00 3e e2 56 3b 3e a9 91 c6 3c ab c8 45 3e
       0.12561445 0.18294862 0.024239378 0.1931483
0000e0 e5 82 e6 bd 26 bd 64 3e 17 d7 1d be ce 89 46 3e
       -0.11255435 0.2233778 -0.15414082 0.19388506
0000f0 39 d0 5f 3c 44 55 15 3e ce 50 56 be 5b 0f d9 3d
       0.013660484 0.14583308 -0.20929262 0.10598632

actor.2.weight f4 [64, 64]
000000 76 cf 4d 3c 65 0e 87 bd 7f cd 8c bd c0 d6 be 3c
       0.01256167 -0.065945424 -0.06875133 0.02329576
000010 53 fb c9 bd 88 33 63 3c 6b 6e 65 3c 22 db 84 3d
       -0.098623894 0.0138672665 0.0140033765 0.06487109
000020 df 7d 92 3d 1b 30 b2 bd 05 a4 2e bd ea 00 3e 3d
       0.07152914 -0.08700582 -0.04263689 0.04638759
000030 72 69 67 3d 87 90 67 bd 02 10 2b 3d 81 c9 0c 3d
       0.056497045 -0.056534316 0.041763313 0.034371857
000040 f2 f5 91 bd a0 54 58 3b 96 c7 b4 bd fb d1 08 bd
       -0.071269885 0.0033009425 -0.088271305 -0.033403378
000050 4e c3 a0 bc f6 d0 5c bd a3 fb 07 be 3c e1 ff 3d
       -0.019624379 -0.05391022 -0.13279586 0.12494132
000060 94 03 96 3c f7 90 bf bd 2b 2e 93 38 4e 56 55 bc
       0.018312253 -0.09353822 7.018106e-05 -0.013021065
000070 c3 c4 3b 3d 58 4c e1 3d 75 b0 e7 bd 68 0e d9 bb
       0.045841943 0.110008895 -0.113129534 -0.006624032
000080 91 e5 be 3d 94 4b 0a bd 5e 78 b8 3d ab a3 30 bd
       0.0932113 -0.033763483 0.09007333 -0.043124836
000090 74 98 5a bd c0 9b 1c ba 13 b8 f3 3d 22 4e d1 3d
       -0.053368047 -0.00059741363 0.11900344 0.10219981
0000a0 f5 1e fe 3c 8b 2e e9 3d 0f 49 fc bd 7f 8d 9f 3d
       0.03102062 0.113858305 -0.12318622 0.0779066
0000b0 48 27 be 3d c7 40 b2 bd 8b 8a 80 bc d2 c8 f5 bc
       0.09284836 -0.087037615 -0.015691062 -0.030002985
0000c0 ee a6 26 bd 42 19 19 bd f3 22 bf bd 95 f3 b5 3b
       -0.04068654 -0.037377603 -0.09332838 0.005552719
0000d0 e1 b6 75 bd 84 f2 d2 3d b4 f5 e3 3d 11 59 9c bd
       -0.05998886 0.103001624 0.111308485 -0.076341756
0000e0 28 07 b6 bd c8 db bf 3b de 39 d1 bd 88 ce 78 bd
       -0.08888084 0.0058550574 -0.102161154 -0.06074384
0000f0 d0 02 ec 3d ec 4f cd bc ef 8a 9f 3d 74 d7 77 bd
       0.11523974 -0.025062524 0.07790171 -0.060508206
000100 75 0f c6 39 ec f0 16 3d 3c 95 92 3c c7 88 c8 bd
       0.0003777702 0.036850855 0.017893426 -0.09791713
000110 b9 af 00 3d f5 11 d0 3d 74 35 87 bd f9 26 ed bd
       0.031417582 0.10159675 -0.06601992 -0.11579699
000120 ba cb 46 bc eb 54 fb bd b5 20 f3 3d 3d 01 7a bd
       -0.012133533 -0.12272056 0.11871473 -0.061036337
000130 8a 06 f0 3d 88 d0 a8 3d b3 ff 85 3d e6 e0 84 bd
       0.11719997 0.08242899 0.065429114 -0.064882085
000140 71 d2 e3 3c 2a 91 cf bc 24 09 a1 bd 04 da 45 bd
       0.027810307 -0.025337774 -0.078630716 -0.04830362
000150 36 5f 7c bd f5 7a fa bd f9 86 0c bd bb 03 eb bd
       -0.061614238 -0.122304834 -0.034308407 -0.11475321
000160 ad 27 d5 bd b0 ff 63 3a 05 53 c4 bd 74 fc a2 bd
       -0.10407958 0.0008697463 -0.09586147 -0.07958308
000170 04 96 ff bd ac 2e 80 3d 53 0f 73 3d 99 16 45 3c
       -0.12479785 0.06258902 0.059340786 0.0120293135
000180 6f 51 89 bc 0d 15 da bd 59 a6 a8 3c a9 69 21 bd
       -0.016762463 -0.10648546 0.020587133 -0.039407406
000190 f3 86 08 3c e6 14 08 3e 86 77 13 bd 63 43 97 3d
       0.008332956 0.13289222 -0.03600266 0.073859
0001a0 d0 9c b3 3d 61 36 94 bd 08 d5 82 3c 12 82 df 3d
       0.08770144 -0.072369345 0.015970722 0.10913481
0001b0 87 5d 3e 3d 56 32 ed 3c b9 14 f2 3d 50 04 3b bd
       0.046475913 0.028954666 0.11820359 -0.04565841
0001c0 18 1a bc 3d 28 42 bc bd c3 88 b2 3d 82 c0 08 be
       0.091846645 -0.09192306 0.087174915 -0.13354686
0001d0 5e 39 0c 3d f8 65 bc bd e5 3a a0 bd 45 f2 17 bc
       0.034234397 -0.091991365 -0.07823733 -0.00927407
0001e0 50 42 8e bc 40 90 40 3c a0 0b 5d 3c e7 15 83 3d
       -0.017365605 0.011753142 0.013491541 0.06400662
0001f0 21 ef e2 bd 3b 6b 59 3d 37 73 8f bd b0 60 b7 bc
       -0.110807665 0.05308078 -0.07004397 -0.022384971
000200 7f 05 87 bc a7 57 9d 3d 14 35 50 bd 26 82 6e bd
       -0.016482113 0.07682734 -0.05083187 -0.058229588
000210 af 8d 0a 3c e2 b1 05 bd e0 59 2e 3c 65 1e d6 3d
       0.008456632 -0.032640345 0.010641545 0.10455016
000220 4a e4 4d 3d d2 ac 28 be 3b 20 08 be c8 d6 11 be
       0.05026654 -0.16472176 -0.13293545 -0.14242089
000230 26 1f 1b 3e 9e c2 65 3d a0 77 d8 bc 43 6a 0c be
       0.15148601 0.056093805 -0.02642423 -0.1371241
000240 9f dc a8 bd dd d3 26 bd 2f a3 fa 3d c1 36 8b bd
       -0.08245205 -0.040729392 0.12238156 -0.06797553
000250 7a 1a 7d bd cc af fc 3c 80 61 1e be 3e a1 a0 bd
       -0.06179283 0.030845545 -0.15466881 -0.078432545
000260 90 e7 89 3d 62 92 10 bd 8c b4 fa bd b4 14 4b bc
       0.0673362 -0.03529585 -0.12241468 -0.012395073
000270 60 20 15 be 4f 7f b4 bd 94 3b b5 bb 51 c7 59 bd
       -0.14563131 -0.08813345 -0.005530784 -0.0531686
000280 28 1b 02 3e 4c 30 18 3e f8 be b7 bd f0 c4 c3 3d
       0.12705672 0.14862174 -0.08971971 0.09559047
000290 cf e5 10 ba 72 8c 57 bd af c5 5c 3d 82 23 01 3e
       -0.0005527408 -0.052624173 0.053899463 0.12611201
0002a0 2e 6f f1 ba e9 03 bb 3c a4 c0 b0 bd 94 e0 96 bc
       -0.0018419975 0.022829013 -0.08630493 -0.018417634
0002b0 59 eb a2 3d 25 e5 8c bd f9 19 8c bd 7e f7 19 3e
       0.07955045 -0.06879643 -0.068408914 0.15035817
0002c0 9d 21 a6 3d ae 76 b5 bc dd 92 a5 bd 4c 5f 0b 3d
       0.0811188 -0.022151317 -0.080846526 0.03402643
0002d0 f3 ce 01 3e bf bf c7 3d 09 c0 e2 bd 81 ec 1f 3d
       0.12676601 0.097533695 -0.11071784 0.039043907
0002e0 9e d4 ec 3d bf 21 84 bc 5b 65 17 bd 86 0d c8 3c
       0.11563991 -0.016129373 -0.036961894 0.024420511
0002f0 19 5c a6 bd d7 b5 a1 39 be bc ce 3d 48 8f d6 3d
       -0.08123035 0.00030843794 0.100945935 0.104765475
000300 7d 61 0e be 08 0a 3d 3d 7a 11 e7 3d be 43 0b be
       -0.13904376 0.046152145 0.1128263 -0.1360006
000310 70 14 ec 3c 31 90 fe bc a1 bf c3 bc a5 f8 09 be
       0.02881834 -0.031074615 -0.023895087 -0.13473757
000320 0f 6b 48 bd 67 e4 8a bd e2 43 fe 3d 57 eb 1c bb
       -0.048930224 -0.067818455 0.12415291 -0.0023943984
000330 7a da c5 3d e0 39 a2 bd c1 f4 6c 3c 17 41 86 bc
       0.09660812 -0.07921195 0.014462651 -0.01638846
000340 83 dd ab 3c d9 1d 24 be 57 60 c2 bd b5 9b 8e 3d
       0.020979648 -0.16027011 -0.094910316 0.069632925
000350 a8 48 b1 3b 3b 7d 86 bd 29 f1 13 3d 82 50 65 3c
       0.0054102726 -0.065668546 0.03611866 0.013996245
000360 a8 47 8f bc e5 78 a7 bd 2e 30 21 bd 71 4a df bd
       -0.017490223 -0.08177356 -0.03935259 -0.109028704
000370 e1 ef ed bc 4d 20 36 bd 67 4f a7 bd 7f 36 46 be
       -0.029045047 -0.0444644 -0.08169442 -0.19356726
000380 75 42 5a 3d 83 9a d3 bc 60 af 01 3b ef 5e 02 3d
       0.053286035 -0.025830513 0.001978837 0.031828817
000390 aa d9 5d bd b3 f3 9b 3d 30 23 3a bd 09 33 12 be
       -0.05416266 0.07614841 -0.045443714 -0.14277281
0003a0 90 54 0f 3c 81 42 47 3b 2e 02 60 3d 36 83 3a bd
       0.008748189 0.003040463 0.05468958 -0.04553529
0003b0 c8 b6 3a 3d 74 f4 fa 3d 8f d8 d9 3c ea 2e 8b bd
       0.04558447 0.12253657 0.026592521 -0.067960575
0003c0 83 c1 85 bd b7 e1 23 bd 50 6e ae 3c 7c e7 c1 bd
       -0.0653105 -0.04001018 0.021292835 -0.0946798
0003d0 59 19 af 3d 96 58 ef bd 30 ca fd bc 92 4b 95 3d
       0.085497566 -0.11686818 -0.0309802 0.072898045
0003e0 88 d8 99 3d 00 2f 17 be 4a 92 69 3d c3 a1 0a 3c
       0.07512003 -0.14764023 0.057024278 0.008461419
0003f0 50 fc 6e bd 7f 5c 0f be eb b8 fc bd fe 60 40 3c
       -0.058346093 -0.14000128 -0.12339958 0.011741875

actor.2.bias f4 [64]
000000 36 83 0c 3e 44 ea 53 3d 3a 13 d2 3c 95 fe 05 be
       0.13721928 0.051737085 0.025643934 -0.13085397
000010 23 ba d4 3c 96 82 94 bd 6e fa 3a 3d ea 78 f5 bd
       0.025967663 -0.0725147 0.045648985 -0.11985953
000020 f8 ac 19 bb 99 6d db 3c 23 d7 01 be da 00 58 3d
       -0.0023449045 0.026785659 -0.12679724 0.052735187
000030 36 69 9e bd 3e 5d 18 bd 5c ef 04 3d f2 37 3f 3d
       -0.07734911 -0.037198298 0.032454833 0.046684213
000040 91 43 ac 3d d1 9a da 3c 3e 12 92 3d e7 ae 4b 3c
       0.08411325 0.02668515 0.07132386 0.012431837
000050 fb cc ed bd 19 12 ce 3d 91 36 ec 3d 46 77 69 bd
       -0.116113625 0.100620456 0.11533845 -0.056998514
000060 69 43 4b 3d 2e c5 af bd 7b d4 e1 bd 95 f9 81 3c
       0.049624834 -0.08582531 -0.110268556 0.01586608
000070 ec 6c 42 3c e3 d5 bc 3d 24 ed 67 3c ac d9 43 3d
       0.011866789 0.09220483 0.01415566 0.04781501
000080 23 8b d1 bd c2 28 5b bd e5 8e c2 bd 44 1f 10 bd
       -0.10231616 -0.053505667 -0.09499911 -0.035186067
000090 31 01 26 bd 39 2f f4 3d 72 f7 b7 bd 8e 78 ec 3c
       -0.04052848 0.119230695 -0.08982743 0.028866079
0000a0 89 32 81 bb 6e f1 35 3b 8a 8e 98 bd f5 27 d4 3d
       -0.003942792 0.0027762312 -0.07449062 0.10359184
0000b0 1d 22 5a bd 4f 77 aa bc 85 88 82 bc b4 1a ce 3d
       -0.05325519 -0.020808844 -0.015934238 0.10063687
0000c0 b8 f2 c5 bc d1 b1 a8 bd 18 e4 80 bc 34 62 7b bc
       -0.024163589 -0.08237041 -0.015733764 -0.015343238
0000d0 d1 77 c3 3d 6e 89 76 bd 82 16 19 bd 2a f9 b7 3c
       0.095443375 -0.060189657 -0.03737498 0.022457678
0000e0 81 66 82 bd 7f 6f 8c bd d6 ad f6 bc c4 46 44 3d
       -0.06367207 -0.06857204 -0.030112188 0.04791905
0000f0 46 9e aa 3c 72 ba 00 be b4 b6 6e bc 88 f8 a3 3d
       0.020827424 -0.12571123 -0.014569927 0.08006388

actor.4.weight f4 [2, 64]
000000 c3 c7 c7 3b ee e2 01 3d d1 e0 db 3d d0 28 a8 bd
       0.0060968115 0.031710558 0.1073624 -0.08210909
000010 5a 46 28 3d 40 9f e0 3a 27 40 3d bc db 33 83 bc
       0.041082717 0.0017137304 -0.01155094 -0.016015938
000020 03 ba e3 bc 3e f7 9b bb 60 6d 10 bd 0e bf a8 3c
       -0.027798658 -0.004759698 -0.035260558 0.020598914
000030 15 9b 18 3c 21 22 d8 bc 76 f5 2b 3d d3 0d 45 3c
       0.009314318 -0.026383461 0.041982137 0.012027222
000040 15 0e 4e 3d 01 81 ce bc 1b 79 02 bd 17 cf 23 bd
       0.0503064 -0.025207998 -0.031853776 -0.03999242
000050 7a 62 c9 bc 41 4a 3e 3d 57 60 d6 3c 89 53 2d 3c
       -0.02458309 0.046457533 0.026168985 0.010578998
000060 ee a1 30 3d 27 57 43 3b ab 59 bf bb e1 7d 75 3d
       0.04312318 0.0029806586 -0.0058395467 0.0599345
000070 20 d7 09 bb 39 1d 32 3c 47 24 b0 bb 52 47 ca 3c
       -0.0021032766 0.010871225 -0.0053754183 0.024692211
000080 14 d0 4c 3d 73 fd 06 bd b0 a0 a2 bc 70 25 fa 38
       0.050003126 -0.03295655 -0.019852012 0.00011927902
000090 d1 e7 93 bd 3c cc a6 3d e2 83 af bd 08 8e f2 bb
       -0.0722195 0.08144423 -0.085700765 -0.0074021854
0000a0 07 dc 20 bd 21 75 35 3c b2 79 04 be f1 a8 07 3d
       -0.039272334 0.011075289 -0.12937048 0.0331201
0000b0 81 a6 b4 3c 60 97 79 3c 41 ef cd bc 46 4f 55 3d
       0.022052051 0.0152338445 -0.0251385 0.052077554
0000c0 57 b5 3b bd f7 79 8e bd cd eb 03 3c 78 16 df 3b
       -0.045827236 -0.06956857 0.008051825 0.0068080984
0000d0 6b 1d 0d 3d 26 06 e3 bb fb 7d a9 bc be 74 a6 3c
       0.034451883 -0.006928223 -0.020689955 0.020319339
0000e0 0c b7 b2 3c 9f c0 bc bc eb 62 07 bb ed f4 a7 bd
       0.0218158 -0.023041068 -0.0020658325 -0.08201013
0000f0 13 05 de 3c 7b 49 89 bd 75 e8 11 bd 24 10 1f 3d
       0.027102029 -0.067034684 -0.03562208 0.038833752
000100 42 7a 4a 3c a9 07 d7 bc c1 29 42 bd cc 2e 1f bd
       0.01235825 -0.02624877 -0.0474031 -0.03886299
000110 8c 53 52 3c fb 4d 11 bc c1 a6 0e 3c e8 1a b2 39
       0.012837302 -0.00886869 0.008706749 0.00033970852
000120 34 78 1a 3c 90 04 a0 3c 7c c0 be 3b 58 9d 06 3d
       0.009428073 0.019533426 0.005821286 0.0328649
000130 a5 c7 c8 bb 54 c7 04 3d 6c 65 a9 3c fe 3a 12 bc
       -0.006127315 0.032416657 0.020678245 -0.008925198
000140 78 ee d3 bc b7 36 78 3c d6 73 62 bc b4 95 53 bd
       -0.025870547 0.015149764 -0.013821563 -0.05165644
000150 67 b4 ce ba 52 c4 cb 3c ed 09 22 bc bf 64 29 bb
       -0.0015770317 0.024873886 -0.009890062 -0.0025847403
000160 51 04 8e 3d c3 63 40 bd 5d 2a 11 3c 55 b8 45 3c
       0.06934417 -0.04697014 0.008860198 0.012067874
000170 41 f9 96 bc be 07 a7 bc 72 89 83 bb 63 88 aa 3c
       -0.0184294 -0.020389434 -0.0040141875 0.020816987
000180 7c b3 2d bd b5 bd 1a bc ed 85 ba 3c 9b 53 eb ba
       -0.042407498 -0.009444644 0.022768939 -0.0017953994
000190 21 9a 8b bd fd d3 94 3d 65 37 4b bc 52 06 89 3c
       -0.06816507 0.07266996 -0.012403344 0.016726647
0001a0 73 06 d7 bc 9b eb d5 bc 8b f0 cd 3d 82 a4 94 bd
       -0.026248192 -0.026113322 0.100556456 -0.0725794
0001b0 e1 c6 c2 bb 7a f4 8f bc 57 df 3b 3d ee 03 12 3d
       -0.0059441184 -0.01757263 0.04586729 0.03564828
0001c0 e6 2d c6 37 14 04 c1 bd 9c 19 b0 3c 02 38 93 ba
       2.3624812e-05 -0.09424606 0.021496587 -0.0011231902
0001d0 87 b8 2c bd d2 d9 34 bb 83 9a e0 bd a1 90 9b 39
       -0.042168166 -0.0027595651 -0.10966971 0.0002967166
0001e0 e1 ac 37 3c 1b 61 04 3d 21 1b c1 bc fb 97 b1 bd
       0.011210651 0.03231917 -0.023572506 -0.08671566
0001f0 7c a5 50 3c b3 24 bc bb 8e 54 22 bb 7e 89 5a 3b
       0.012734767 -0.0057416796 -0.0024769637 0.0033346112

actor.4.bias f4 [2]
000000 4d b5 c8 3d d1 2a ac bd
       0.098002054 -0.08406604

critic.0.weight f4 [64, 15]
000000 b3 5f 0f 3e d0 42 66 3e d1 de 43 3e d9 e7 4d 3e
       0.1400135 0.22486424 0.19127966 0.20107974
000010 41 64 8c 3e 35 16 ab be f1 aa 00 be c6 12 39 be
       0.27420238 -0.3341538 -0.12565209 -0.18073568
000020 ea 68 05 be 70 ab 59 be 40 b1 83 3e a4 8c 11 be
       -0.13028303 -0.21256804 0.2572117 -0.14213806
000030 1c a2 d2 3d 34 88 12 3e 34 8b 22 be 90 80 48 3e
       0.10284826 0.1430977 -0.15873414 0.19580293
000040 cc 3c 08 be c9 6b e2 3d 99 9d 86 3d 97 5e 92 3e
       -0.13304442 0.11055715 0.06573028 0.2858779
000050 58 15 0b 3e 14 e5 ba bd 15 5b 47 be 34 23 65 bd
       0.1358236 -0.091257244 -0.19468339 -0.055941775
000060 cb 53 01 be 31 fd 79 3e 62 06 5b 3e 42 b3 18 be
       -0.1262962 0.24412991 0.21389154 -0.14912131
000070 5a 8d 2e be 1e bf 5d 3e 10 cd 27 3e a2 52 61 3d
       -0.17046109 0.21654937 0.16386819 0.055010445
000080 ba 20 fb 3d 14 a7 be 3e 05 de 6d bd 97 89 0a 3e
       0.122621015 0.37236845 -0.058073062 0.13529049
000090 73 4e e5 bd 28 4b 40 bd 5f 42 bf 3e 62 24 0c bd
       -0.111966036 -0.046946675 0.37355325 -0.034214385
0000a0 72 e4 d1 bd f0 84 26 3d e4 6e 28 be 64 65 2e bd
       -0.102486506 0.040654123 -0.16448551 -0.042577162
0000b0 98 a4 67 be 4a b6 91 be db 01 c9 3d 4c c0 90 3a
       -0.22621381 -0.28459388 0.09814807 0.0011043637
0000c0 eb e7 93 bd e0 67 29 3f 2c 05 b9 be b1 b2 33 3d
       -0.07221969 0.66174126 -0.36136758 0.043871585
0000d0 6b 53 ef 3d 57 8a 2b be a7 8c c1 bc b8 92 3a 3e
       0.116858326 -0.16751991 -0.023626639 0.18220031
0000e0 92 bc 7c 3e 3e 32 3a be 90 7c 32 bc 87 cb 83 3e
       0.24681309 -0.18183228 -0.010893956 0.25741217
0000f0 3d fd 3d 3e 3d fb df 3d 7a 5c e4 bb 85 c7 38 bc
       0.18553634 0.10936592 -0.006969032 -0.011278038
000100 dd 82 13 3f 90 de 92 bd 45 8f ec 3c 1b a9 61 3e
       0.57621557 -0.07171357 0.02887691 0.22037165
000110 5a 85 09 3e 91 fd 09 be e5 9b 0d be 4c 72 1e be
       0.13429776 -0.13475634 -0.13829 -0.15473288
000120 48 3f cd bc 2c fc c6 3d b2 ee fc bd 01 15 54 bc
       -0.025054589 0.09716067 -0.12350215 -0.012944461
000130 dc 25 bb bd dc 05 c5 3d 47 eb 96 3e 62 e2 76 3e
       -0.091380805 0.09620258 0.29476377 0.24109796
000140 e9 41 d5 3c ca b7 0d 3e 64 90 68 3e d6 b6 28 be
       0.026032405 0.13839641 0.2271133 -0.16475996
000150 a5 6f 75 3d 05 7d ad bd bc 95 09 be 80 cc c9 bd
       0.059920926 -0.08471111 -0.13436025 -0.098534584
000160 70 8b c7 3c b4 fb 7a be 32 10 1d 3e fc 22 46 be
       0.024358481 -0.2451008 0.1533821 -0.19349283
000170 47 76 03 3e 33 76 39 3e 51 07 7a 3e 1a 48 1a be
       0.12838088 0.18111496 0.24416853 -0.15066567
000180 58 07 34 3e 33 3c 82 3c 46 e2 9a be fd fb e5 3d
       0.17580926 0.015897846 -0.30250758 0.112297036
000190 17 83 c3 bd 25 c4 80 3e e2 3c 4b be f1 d1 0b be
       -0.09546488 0.25149646 -0.19847444 -0.13654305
0001a0 48 8f 79 3d 78 b5 0d 3e 8b ef 48 be 89 a8 f8 3c
       0.06092766 0.13838756 -0.19622628 0.030353801
0001b0 b9 d1 53 bc ee 21 1a 3c 78 8b 98 bd 1f a3 72 bd
       -0.01292842 0.0094075035 -0.074484766 -0.059237596
0001c0 a8 d5 a5 bc da 2c 11 3f 72 09 37 bd 53 19 80 3e
       -0.02024348 0.56709063 -0.044686742 0.2501932
0001d0 8a 3c 3e 3e a0 62 3f be dc 0f fc bd 88 54 00 be
       0.18577781 -0.18689966 -0.123077124 -0.12532246
0001e0 a4 f7 08 bd a6 5b 80 3e 6f 6d 18 3e 04 f8 41 be
       -0.033439294 0.25069922 0.14885496 -0.18942267
0001f0 1b b7 11 3e f4 6b 77 3d 7d e4 80 be 7f ec 9d 3d
       0.14230005 0.060405686 -0.25174323 0.07711124
000200 35 30 8f be a3 aa 80 bc 8c 2b 9e bd 00 49 0f bc
       -0.27966467 -0.015706366 -0.0772315 -0.008745432
000210 88 40 e5 bc e2 92 bc bd 30 c4 a4 3d 81 12 95 3d
       -0.027984872 -0.09207703 0.08045232 0.0727892
000220 f2 50 c1 3d 88 3c 5c bd 37 0f bc be f5 d9 14 be
       0.09439267 -0.053768665 -0.36730358 -0.14536269
000230 c8 9c 4a 3d 27 e9 5f 3d c6 49 82 bd 0a 2d 4b bc
       0.049465925 0.05466571 -0.063617274 -0.012400875
000240 4b c5 16 bd 37 a0 aa bb d0 a7 e7 bd 28 bd 27 3d
       -0.036809247 -0.0052070874 -0.113113046 0.040951878
000250 26 e9 6d 3e c8 90 89 3d 32 bf 3e be 4b 79 c1 ba
       0.2323347 0.06717068 -0.18627623 -0.001476088
000260 2c 7b 1a 3d 48 18 10 3d fa 02 46 be c2 32 9c bd
       0.037715122 0.035179406 -0.19337073 -0.07626869
000270 3b 58 9c be 03 e0 1e 3e 39 62 c8 be 2a b2 1d bd
       -0.30536065 0.15515141 -0.39137438 -0.03849999
000280 72 21 2b be a8 40 b1 bc 60 0d 0d 3d 32 49 1c be
       -0.16711977 -0.021637276 0.034436584 -0.15262297
000290 74 50 54 3e e7 87 ab bd 5f 3c af bd c7 af a1 bd
       0.20733815 -0.08375531 -0.08556437 -0.07894855
0002a0 01 7e 3d be 8f 1c aa 3d ba 36 02 3e af 5f 92 3e
       -0.18505098 0.08306228 0.12716189 0.28588626
0002b0 67 b2 82 3e 38 8f d9 3c 59 2f 6a 3d d2 4d 8c 3e
       0.25526735 0.02655755 0.05717406 0.27403122
0002c0 2a 54 6c be e8 87 1f bd 2a 82 51 3e 58 24 e7 bc
       -0.23078981 -0.03894797 0.2045981 -0.028215572
0002d0 48 c1 44 be 0b e4 87 3b ff 6e f0 3c 24 73 54 be
       -0.19214356 0.004147058 0.029349802 -0.20747048
0002e0 ac 83 02 3d 30 5b f9 be 0f ce 4f 3d d0 a4 23 be
       0.031863853 -0.48702383 0.050733622 -0.1598084
0002f0 2e 43 10 3f c1 fe 3f 3d df 73 83 be 26 5c 24 be
       0.5635251 0.04687381 -0.2567434 -0.16050777
000300 84 0a 03 bd f0 2f 05 bd 58 41 63 3e f7 ad 3d be
       -0.03199245 -0.03251642 0.22192895 -0.18523394
000310 72 5f 19 3d e2 1e 8f 3b bc a9 b1 bd e6 0e 4d 3f
       0.03744454 0.004367695 -0.086749524 0.8010086
000320 c5 65 c0 be 4b 60 e3 3d 73 fe 0c be b2 30 3e 3f
       -0.37577644 0.11102351 -0.1376894 0.74293053
000330 8f 7e 2d bc 4b e6 e7 bd 2b 93 83 3e 5c 26 d3 bd
       -0.010589256 -0.11323222 0.25698218 -0.10310051
000340 aa 00 53 3e bf 72 6f be ce fc ed 3c 80 50 86 be
       0.20605722 -0.23383616 0.02905121 -0.26233292
000350 71 c3 ce bd 88 0a 31 3e b0 56 88 3e c2 e9 d0 bc
       -0.10095871 0.17289174 0.26628637 -0.02550209
000360 b6 35 c0 bd b8 84 78 3b 20 19 1f 3e cd 87 8b be
       -0.093852445 0.0037920903 0.15536928 -0.27252045
000370 c8 a2 59 3b d0 cc 2e 3d a0 72 7f 3d f6 3b e1 bd
       0.0033208597 0.042675793 0.062365174 -0.10997765
000380 1a 2e 04 3e aa c7 43 be 64 fe 9e 3d c4 f3 b6 bd
       0.12908211 -0.19119135 0.07763365 -0.08933213
000390 55 88 0f 3e 7c d8 c3 3e d8 48 28 be 54 bf 03 bd
       0.1401685 0.38251102 -0.16434038 -0.032164887
0003a0 34 90 32 3c 42 91 e6 3d 7c 1e 2e be 30 ec 3b be
       0.0108986385 0.112581745 -0.17003816 -0.18351817
0003b0 94 fa f8 3d 40 c5 b8 bc 3e 46 60 3e 8e eb f6 bd
       0.12157169 -0.022554994 0.21901795 -0.12056647
0003c0 59 3a 31 3e 87 cf c2 ba c8 35 ef 3d b9 15 ed 3d
       0.17307414 -0.0014862873 0.1168018 0.11576409
0003d0 7c ff 80 3d a2 b1 65 3e 70 b8 0d 3d 81 c3 c5 bb
       0.0629873 0.22431043 0.03459972 -0.006035269
0003e0 6b 86 41 be be c8 bc bc 4d fe 6b 3e 70 e8 f7 bc
       -0.18898933 -0.02304494 0.23046227 -0.030262202
0003f0 25 a3 13 be 4d 8a 62 be 74 a7 98 bd a8 55 65 bd
       -0.14417703 -0.2212307 -0.07453814 -0.05598989

critic.0.bias f4 [64]
000000 e7 ea 2b bc a0 cf 7d 3e 15 27 87 bd 03 ae 8c bd
       -0.010493017 0.24786234 -0.06599251 -0.068691276
000010 95 50 11 3d 48 98 5f 3c d0 a1 d9 3d c7 bd 5b 3e
       0.03547724 0.0136471465 0.106265664 0.21459113
000020 b9 02 7b 3e d3 92 8c bd e9 6e bc bd a5 b4 89 bd
       0.24512757 -0.06863942 -0.09200842 -0.06723908
000030 25 8d 33 bd db 56 7f bb 09 aa 66 3d fc b6 6c be
       -0.043835778 -0.0038961682 0.056314502 -0.23116678
000040 63 f0 3c be 0f f7 90 bd 42 c8 52 be 88 3f 80 bd
       -0.18451075 -0.07078373 -0.20584205 -0.062621176
000050 59 2a 2e 3e bc c8 51 3d 9e 2d 0a 3d db 51 50 be
       0.17008342 0.051216826 0.03373491 -0.20343725
000060 78 3e 1a 3e 6c 82 02 be 60 1e da bd 27 ad ff 3d
       0.15062892 -0.12745064 -0.10650325 0.12484198
000070 05 0a 1e 3e a6 4b 12 bd f4 84 84 3d 20 e9 3c be
       0.1543351 -0.035716675 0.06470671 -0.18448305
000080 98 c0 e2 3d 6b be 9d bd 72 68 6b be c4 be 59 3e
       0.110718906 -0.07702335 -0.22989061 0.21264178
000090 f4 b9 03 be 2b 06 a5 bd b9 f6 dd 3d d1 d1 1c be
       -0.12863904 -0.08057817 0.10838074 -0.15314414
0000a0 4f ee 98 3d 90 b9 7b 3d 06 f5 15 3e f8 6e a4 bd
       0.07467329 0.061456263 0.1464425 -0.08028978
0000b0 f6 03 65 be 46 a1 95 bd 71 f8 81 3e f0 c3 4f 3e
       -0.22364792 -0.07306151 0.25384858 0.20289588
0000c0 2e 94 73 3d f6 37 70 bd a4 50 89 bd e5 05 84 be
       0.059467487 -0.05864712 -0.06704834 -0.25785747
0000d0 98 9f cf 3d cd be 81 3d 12 ab 6e 3d 3a 7a d1 3d
       0.10137862 0.063352205 0.058268614 0.10228391
0000e0 c1 98 1a be 05 ef 0e be fb 84 70 3e 9a e2 87 be
       -0.15097333 -0.13958366 0.23488228 -0.2654007
0000f0 dd fb 50 be 14 72 55 3e 50 b8 6a be ee 5e 27 be
       -0.20408578 0.20844299 -0.22921872 -0.16344807

critic.2.weight f4 [64, 64]
000000 37 d6 89 bd 05 77 ff 3d eb f2 02 3e cb 54 f8 3d
       -0.06730311 0.12473873 0.12787978 0.12125548
000010 14 40 3a 3e 41 60 71 3d 76 a3 55 bc 40 a6 e1 bc
       0.18188506 0.058929686 -0.01303946 -0.027545094
000020 f9 08 17 3c 57 46 d9 bd 0d 4d da bd 31 c9 eb bc
       0.009218448 -0.106091194 -0.106592275 -0.028782459
000030 56 80 06 be 94 5f 36 3e 29 e2 e5 3d cc 6e 06 3e
       -0.13134894 0.17809898 0.11224777 0.13128203
000040 3a a9 c8 3d 8f d9 80 3c 80 e7 a8 3d e8 15 16 be
       0.097979024 0.01572874 0.0824728 -0.14656794
000050 08 19 7e 3d 8e c5 48 bd cb f4 13 bd 25 da e8 bc
       0.06203559 -0.049016528 -0.036122125 -0.028424332
000060 bb 7f 9c bc b0 48 b9 ba 39 94 b9 bd 94 9b 11 3e
       -0.019103875 -0.0014136042 -0.09061474 0.14219505
000070 ea 2a 14 3e 7c 0a de 3d 67 40 78 bd e2 ff 0f 3b
       0.14469495 0.108418435 -0.060608294 0.0021972586
000080 8e e4 24 3d c3 1c c4 3d 4a c9 77 3d a5 36 8b 3a
       0.04025703 0.09575798 0.0604947 0.0010621144
000090 b3 07 d0 bd 6e 5e c2 bd 3c 20 36 be ad 36 b2 bc
       -0.101577185 -0.09490667 -0.17785734 -0.021754587
0000a0 bb 15 9d bd ba 8f 15 3e 8a 89 b1 bd ce ea ae bd
       -0.076701604 0.14605609 -0.086688116 -0.08540879
0000b0 18 e8 21 bd 26 1a cf bd 2b 0f 9c 3d 09 e6 61 3d
       -0.039527982 -0.10112409 0.076200806 0.05515102
0000c0 02 6e 9f 3c 52 72 c9 3d 2f 1a aa bd 21 5e 56 3d
       0.019461636 0.09836258 -0.083057754 0.052335862
0000d0 08 bc bf 3d df 84 2e bd d3 4b 53 bd 16 b9 b3 3d
       0.09362036 -0.042607184 -0.051585983 0.08775537
0000e0 ea f7 56 3d 0d 3d 19 3c f4 d5 dc 3b 92 5d 37 3d
       0.052482523 0.009352935 0.0067393724 0.04476697
0000f0 ee cb 89 3c e0 18 d1 3d 3a e6 29 3d a5 91 e3 3d
       0.016820874 0.10209823 0.041479327 0.11111764
000100 69 ab 09 be 33 01 b4 3c 8a 15 d5 3d c4 06 3f be
       -0.13444294 0.021973228 0.10404499 -0.18654925
000110 02 56 11 3e 2e 5b cc bc fb a0 67 bd 6b fd d4 3d
       0.14192966 -0.024945822 -0.056550007 0.10399898
000120 96 70 90 bd 45 29 98 3d ec e1 89 3d 62 ae ac bd
       -0.07052724 0.074297465 0.06732544 -0.084316984
000130 6f 13 23 3e 0f e9 c2 ba 73 78 05 be 2f a1 72 3d
       0.15925382 -0.0014870482 -0.13034229 0.059235748
000140 0d 99 d9 bd 5d cd b1 3d bb 1b d0 3d 72 a8 bf 3d
       -0.10624895 0.08681748 0.10161539 0.093583
000150 8a 82 70 bd eb b7 d7 3c 27 4c 07 3b 9a dc c4 3d
       -0.05871824 0.026332816 0.0020644756 0.09612389
000160 c4 f5 0a 3d 27 89 21 be 35 fb ae 3d 64 76 be bd
       0.033925787 -0.15774976 0.08544008 -0.09299925
000170 78 3c cd b9 bf 77 2a 3e 11 cb 29 be f9 2c ff bd
       -0.000391457 0.16647242 -0.1658137 -0.1245975
000180 06 f2 d0 3d 99 72 d6 3c 86 57 93 bd b5 7f a6 bd
       0.10202412 0.026177691 -0.07194428 -0.08129827
000190 3d b7 be 3d 81 99 83 bd 93 53 a4 bd e9 a5 5b 3d
       0.09312294 -0.06425763 -0.08023753 0.05362502
0001a0 2c be c1 bd 16 55 ab 3d cc 68 82 3c 22 c5 d2 bd
       -0.094601005 0.08365838 0.015919112 -0.10291506
0001b0 ff da 81 bc 7e 51 c9 bd 15 e7 63 3e 14 62 ff bc
       -0.015851496 -0.098299965 0.2225612 -0.031174697
0001c0 15 58 0c 3c 48 f0 1c bd e4 b0 2f bc c8 2b a5 3d
       0.008565922 -0.038315088 -0.010723326 0.08064991
0001d0 a4 11 cc 3d 28 64 a3 3d ea ab 88 3d c4 01 cc 3d
       0.09964302 0.07978088 0.06673415 0.09961274
0001e0 f0 6d 49 3d fb 73 a9 3d 31 77 5e 3d 33 26 ac 3a
       0.04917711 0.08274075 0.05431289 0.0013133943
0001f0 f1 ef b7 bd 5e a6 b4 bd 63 9d 71 bd d4 bc 96 bd
       -0.08981312 -0.088207945 -0.058987986 -0.07360235
000200 6e 99 99 3c fa 67 32 bd 7d 62 3d bd 62 54 29 3e
       0.018749919 -0.04355619 -0.046236504 0.16536096
000210 90 22 e7 3d 9b f0 93 ba f2 db 9a 3c ec 5b e1 bd
       0.11285889 -0.0011286916 0.018903706 -0.11003861
000220 ee 99 94 3d 5f 1b fd bd 90 4f b5 3d 03 c7 01 be
       0.07255922 -0.12358736 0.08853066 -0.12673573
000230 f8 83 33 bc 3e 01 96 3e 77 46 c8 3d 7a 24 d8 bd
       -0.010956757 0.29297823 0.09779065 -0.10553832
000240 37 43 45 bd 87 78 c6 bc 3e a4 f5 bd 60 c1 ec 3d
       -0.048159804 -0.024227394 -0.11994217 0.11560321
000250 65 f0 02 3e 13 28 98 3c 4d 03 ed bd 70 53 73 bd
       0.12787016 0.018573796 -0.11572895 -0.059405744
000260 9f c9 26 3d 71 ee 0c 3e e2 54 26 bc a6 31 34 bd
       0.040719625 0.13762833 -0.010152074 -0.04399266
000270 5f 75 1d 3d 9c e5 c0 bc f0 4d 79 b8 72 a3 85 bc
       0.038442012 -0.023546986 -5.943881e-05 -0.016313288
000280 3b 10 ec bd 60 14 e8 bd 6f f9 51 bc 82 76 a1 3d
       -0.11526533 -0.11332011 -0.012815817 0.07883932
000290 be 25 1b be d8 75 66 bd 23 3f 26 be ae c2 df bc
       -0.15151116 -0.05626473 -0.16235022 -0.02731451
0002a0 1c 7b f5 bd d0 39 d8 bd 60 63 a6 bd ec 2f 25 3d
       -0.11986372 -0.10557902 -0.08124423 0.040328905
0002b0 31 62 30 3d 85 60 e4 3d fa 2e de 3d f3 d8 86 3d
       0.043062393 0.11151222 0.10848804 0.065843485
0002c0 e7 db 06 bd 92 c4 a4 3c e6 4f 41 bd cc bd 1d 3d
       -0.03292456 0.020113263 -0.047195338 0.038511083
0002d0 c5 a7 1a 3d 23 82 3a ba 36 c6 e9 bd 55 e6 94 3d
       0.037757654 -0.0007114729 -0.11414759 0.07270495
0002e0 29 0a 2e 3e a6 50 86 3c eb 74 d6 bb b8 6f dd bd
       0.16996063 0.016395878 -0.0065446994 -0.10812324
0002f0 3a 46 7e 3c b6 1f 56 3d 11 d9 40 bd fe f7 0d bd
       0.015519673 0.052276336 -0.04708201 -0.034660332
000300 27 9d 67 3d ff 54 c7 3d 4f 67 06 bb 57 21 d8 bc
       0.056546357 0.097330086 -0.0020508354 -0.026383085
000310 24 9e 1a 3d 2c b0 dc bd 8e 58 5a bd 96 54 16 bd
       0.03774847 -0.107757896 -0.05330711 -0.03670176
000320 3a d0 b1 3b ba ff 0d bd 75 48 2a 3d a5 ee 05 3d
       0.005426434 -0.034667708 0.041573007 0.032698292
000330 09 36 41 bb 9d 46 8a 3d 31 31 4f bd ee 87 52 bd
       -0.002948167 0.0675175 -0.050584022 -0.051399164
000340 e1 73 00 3e 0e 63 88 bd 86 de 57 3d da 0c de 3d
       0.12544204 -0.06659518 0.05270245 0.10842295
000350 fd b1 04 3e ff 38 a7 3d c2 73 77 3d c2 e1 e8 3c
       0.12958522 0.08165168 0.06041313 0.028427962
000360 7e f4 38 3c 8c ac 71 3d 4d fd 31 3d f7 df c0 bd
       0.01128876 0.059002444 0.043454457 -0.09417718
000370 20 55 b0 bd 3a 17 22 bd a1 4f 33 3e 0b ca ea 3d
       -0.08609986 -0.03957293 0.17510845 0.11464318
000380 10 57 e1 bd 93 49 21 3c 68 f1 dc 3d 51 3c 81 bd
       -0.11002934 0.009844202 0.10788232 -0.063103326
000390 a1 d5 a9 3d 1f b0 2a 3d 3e de 2c 3d 48 6f 2e 3c
       0.082926996 0.04167187 0.042204134 0.010646649
0003a0 40 11 0f bd 96 7e ac bd 30 ae f0 bc 44 ed 1e be
       -0.03492856 -0.08422582 -0.029379934 -0.15520197
0003b0 70 a4 60 3c 01 b0 c4 3d 83 53 19 bd a8 17 91 bd
       0.01371108 0.096038826 -0.03743316 -0.0708459
0003c0 73 82 f3 3d f3 b9 51 3d 66 bd fc bd 1a 95 0a bd
       0.118901156 0.051202726 -0.123408124 -0.0338336
0003d0 02 7b f8 bd db 07 00 3c 1a af a5 3d 4a 03 99 3d
       -0.12132837 0.007814373 0.080900386 0.074713305
0003e0 07 64 a4 bd 3b 0e 05 bd ef 4c c3 3c 29 99 48 bd
       -0.08026891 -0.032484274 0.023840396 -0.04897419
0003f0 9d 91 35 bd 94 18 a4 3d e6 ee 62 bd 88 57 c5 bc
       -0.04432832 0.080125004 -0.055403613 -0.02408959

critic.2.bias f4 [64]
000000 cb 96 4c 3d f4 14 6c bd 18 10 04 3e 20 95 9a 3c
       0.049948495 -0.05763717 0.12896764 0.018869936
000010 5d 3d 26 3d 02 0c 22 be 1c 9a 94 bc d8 bb d6 bd
       0.040585864 -0.15824893 -0.018139891 -0.10485047
000020 58 dc 85 bd c8 5f 99 3d 85 ab f1 3d e3 16 ab bd
       -0.06536168 0.07488972 0.11800293 -0.08353975
000030 06 48 04 bd 3f 60 53 3c b5 4a b2 3d d3 c3 d6 bd
       -0.03229525 0.012901365 0.087056555 -0.10486569
000040 9a ea 47 bd 7f 57 a0 bc 91 20 10 bb fc f5 09 bc
       -0.048807718 -0.019572971 -0.0021992067 -0.008420464
000050 39 2e ef bc 8b 55 5e 3c 24 d3 75 3d ca 01 50 3b
       -0.029196845 0.0135702 0.060015813 0.0031739348
000060 92 f8 e9 bd c2 5b c7 bc f0 fa c2 bc a3 c9 40 bd
       -0.11424364 -0.024335746 -0.023801297 -0.047067296
000070 97 59 71 3d 4a 50 51 3d b1 db 3d bd 25 1d d4 b8
       0.05892333 0.05110196 -0.046352092 -0.00010114376
000080 4f a7 ad bd 82 12 e8 3c c3 46 b7 bd 7a b0 f2 bc
       -0.08479177 0.028329138 -0.089490436 -0.029625166
000090 67 cc da 3d fd 55 b7 3c 50 85 05 be 00 6f 97 bc
       0.10683518 0.02237987 -0.13039136 -0.018485546
0000a0 74 1a 74 bd bd 27 8d 3c 25 37 14 3e 16 70 ba bc
       -0.05959554 0.017230863 0.14474161 -0.022758525
0000b0 d4 77 98 bd 4d 2e 35 be 4c dc b4 3c d0 60 f7 bd
       -0.074447304 -0.17693444 0.022077702 -0.120790124
0000c0 7f 01 24 be d5 c3 b5 3d 2b f9 a7 bc 7f 94 aa 3d
       -0.16016196 0.088752426 -0.020504555 0.08329105
0000d0 f7 c2 8d 3c 73 f8 98 3d 8f 68 ec 3d 21 b9 96 3c
       0.01730488 0.07469263 0.115433805 0.018398823
0000e0 39 45 a3 3d f4 af 23 bc 20 7c fb bd 31 f1 d5 bd
       0.079721875 -0.009990681 -0.12279534 -0.10446394
0000f0 7b fa 7d bd 1f 20 a7 3c fc 37 b5 bc 35 40 c7 bd
       -0.062006455 0.020401059 -0.022121422 -0.097290434

critic.4.weight f4 [1, 64]
000000 00 b5 1f 3c b8 6b 84 bc a9 cc 08 3d c0 32 69 3b
       0.009747744 -0.016164646 0.033398304 0.0035583228
000010 e1 c7 6a bc 05 d3 f7 bd a8 d8 53 3b cf 14 cd bd
       -0.014329881 -0.12100796 0.0032325182 -0.100137345
000020 5b 19 58 3d 24 29 7a 3c 0b 84 a5 3d 85 8c cd bc
       0.052758556 0.015268598 0.08081826 -0.025091419
000030 df eb 34 3c f0 e2 85 3d 66 b0 8a 3c 36 cf 40 bd
       0.011042564 0.065374255 0.016929816 -0.04707261
000040 73 14 8f 3c 1d b6 db bd 2c f5 70 3d 1a cb a2 bc
       0.017465806 -0.10728095 0.058827564 -0.019872237
000050 ba 68 e9 bb 27 ef a5 bd f8 72 ba 3d fc 42 38 3c
       -0.00712308 -0.08102255 0.0910396 0.011246439
000060 8e 94 9f 3c ab b3 6f bc 6e 39 55 3d fd f5 2a 3d
       0.019480016 -0.0146302385 0.052056722 0.0417385
000070 62 51 a1 bd 23 b7 a6 bd 0d ca aa 3b 27 0e 6a bd
       -0.07876851 -0.08140399 0.0052120746 -0.057142403
000080 4f bb 9a bd d8 b4 3a bc 04 ae 71 bc bc b6 6c 3b
       -0.075552575 -0.011395656 -0.014750961 0.003611966
000090 fb cf 10 3d 41 87 06 3e bd 15 2b bc ff a0 68 bc
       0.035354596 0.13137533 -0.0104421945 -0.014198541
0000a0 2c 97 76 3c 39 57 df bd 56 6e 08 3e cb 30 2a 3d
       0.015050691 -0.10905308 0.1332334 0.04155044
0000b0 60 b4 6a bd 7e 64 0b be 9d c7 10 3e 07 41 d7 bc
       -0.057300925 -0.13612553 0.14138646 -0.026276125
0000c0 64 7d 6e bd 23 1c f2 3c c3 fb d1 3c 05 47 42 bd
       -0.05822505 0.029554432 0.025632745 -0.04743101
0000d0 13 81 df 3c fb 3f 5c 3c 6d 4c b8 bc eb 8b c1 bc
       0.027283227 0.0134429885 -0.02249738 -0.023626288
0000e0 8a 05 5d 3c 2f 3c 92 3d 97 18 c0 b9 a9 ea ef bd
       0.01349009 0.07140385 -0.00036639415 -0.1171468
0000f0 88 62 28 3d df 00 fc 3d e9 89 39 3d 56 1a 5c bc
       0.04110959 0.12304854 0.045297537 -0.013434013
