models/015_Radar_Enabled/015_Radar_Enabled_best.pth (torch, 47074 bytes, 11 tensors)

actor.0.weight f4 [64, 15]
000000 cf a2 6f 3e 75 7a 86 be b8 65 16 bd 6a 49 bf bd
       0.2340195 -0.26265302 -0.0367181 -0.093401745
000010 19 f5 d1 3d cf 06 87 3e da de a4 bc a3 e6 68 be
       0.10251827 0.26372382 -0.020125795 -0.22744231
000020 d5 9c 78 be 81 21 34 be 2c 60 2c bd a6 f3 be bd
       -0.24278577 -0.17590906 -0.042083904 -0.09323816
000030 5a fd 28 3e 62 4e 92 bd 80 98 13 be f7 0d 5f be
       0.16502896 -0.071438566 -0.14413643 -0.21782671
000040 ac cc 36 be 8d 4f 6b bd 1a 8d 02 bc 23 b5 7a 3e
       -0.17851514 -0.057448912 -0.007968212 0.2448316
000050 6a 93 60 3e e0 ea 05 bd 13 03 5c 3e 2a ee dc bb
       0.21931234 -0.032694697 0.21485548 -0.0067422586
000060 cf e9 ae 3d 26 28 82 bd 18 c3 c6 bd f6 b1 17 be
       0.08540689 -0.06355314 -0.0970518 -0.1481398
000070 00 2b 76 3e 10 1d 1c bd ce 65 3a be d2 0c 7a 3d
       0.2403984 -0.038113654 -0.18202898 0.061047383
000080 6c 0a 3a be e5 94 4c be 37 2b 04 be e2 ec 7b be
       -0.18168038 -0.19978674 -0.1290711 -0.24602082
000090 ff 79 44 3e 4d c1 cf 3d 48 d9 8c 3c f6 e9 15 3d
       0.19187163 0.10144291 0.017193452 0.036600076
0000a0 47 81 03 be a8 e7 e0 3d 4c 6f a4 3d b3 d4 82 3e
       -0.12842284 0.10981685 0.08029041 0.25552902
0000b0 c0 bf f9 3b e4 7a 8f 3d 01 36 83 be 0f 19 58 3e
       0.0076217353 0.070058614 -0.2562714 0.21103309
0000c0 46 c7 2c 3e 82 62 02 be b1 57 2c 3e 2a 99 bf 3d
       0.16872892 -0.1273289 0.16830327 0.093553856
0000d0 f7 08 8b be 43 66 5c 3c 39 19 ae bd c8 1b 2c 3e
       -0.27155277 0.0134521155 -0.085009046 0.16807473
0000e0 08 2a 8d bc 80 aa 85 3b a8 38 43 be 9a 53 45 3e
       -0.017231956 0.004079163 -0.19064581 0.19270173
0000f0 f5 bb 04 be ee ec 0d 3e 13 6b ce bd 35 6d e8 bd
       -0.12962325 0.13859913 -0.100790165 -0.113489546
000100 e1 88 68 be 01 2b 9b 3c f6 5f d5 3d 3c ad 70 3e
       -0.22708465 0.018941404 0.10418694 0.23503584
000110 5d e5 72 3e 99 69 8e 3e d7 5f ed bd e8 d5 8b bd
       0.23720308 0.2781494 -0.115905456 -0.06827909
000120 d3 66 68 be e0 20 d7 3c a2 e0 3f 3e 24 94 13 be
       -0.22695474 0.026260793 0.18738034 -0.1441198
000130 f1 8a 97 be b1 71 51 be 20 81 27 be a7 1b 90 3d
       -0.2959819 -0.20453526 -0.16357851 0.07036524
000140 79 9f c6 3d 3b 03 c7 3d 92 9b 3e 3e a0 87 06 3e
       0.09698386 0.09717413 0.18614033 0.13137674
000150 86 47 80 3c 48 b3 59 be a6 84 ef bd 56 3f 42 be
       0.015659105 -0.21259797 -0.116952226 -0.18969473
000160 d4 a1 73 3e 8c 7c f5 3d 9f e2 80 be 43 3e 8b be
       0.23792201 0.11986646 -0.25172898 -0.2719594
000170 96 fa 23 3d 35 bd a6 b8 71 8f 8a 3e 70 7c 26 3d
       0.0400339 -7.9507394e-05 0.27062562 0.040646017
000180 53 a2 ae 3d d0 35 04 be 99 40 c8 bd ed ac 26 be
       0.08527055 -0.12911153 -0.09777946 -0.16276903
000190 aa 0d 46 bd 78 3b 1a 3e 70 8c 76 bc dc 1b ea 3d
       -0.048352875 0.15061748 -0.015048131 0.11431095
0001a0 30 4b b8 3d e6 b4 8e be 2c 52 8b be 5e 13 17 3b
       0.08998716 -0.2787239 -0.2721113 0.0023052315
0001b0 32 5f 0e 3e 30 8c 4d be 0a 7c ef bc 64 76 c8 3d
       0.13903502 -0.20073009 -0.029233951 0.09788206
0001c0 79 b8 a5 bd 00 8e 70 be 65 33 96 3e 9b 2e 0e 3d
       -0.08091826 -0.23491669 0.29336086 0.034712415
0001d0 22 c2 25 be 35 98 40 be 64 de 59 be b4 2c 48 be
       -0.16187337 -0.18808062 -0.21276242 -0.19548303
0001e0 99 ee 42 3e 95 af c8 be 0f 7f 93 be e7 8f 9b bd
       0.1903633 -0.39196458 -0.28807876 -0.075958066
0001f0 21 f9 01 3e ae 72 ba bc 13 62 37 3e f6 89 20 be
       0.12692691 -0.022759762 0.17908506 -0.15677628
000200 87 b8 10 3e b1 23 91 be 09 6f 25 bd a8 3f 15 be
       0.14132892 -0.28347543 -0.040389095 -0.14575064
000210 af 78 03 be c8 0e 14 3d b0 90 fc 3d 68 02 a6 3d
       -0.12839006 0.03614691 0.123322845 0.08105928
000220 bf 2b 5c 3c eb e4 17 be 57 d0 53 3e 20 58 c7 3d
       0.013438164 -0.14833419 0.20684944 0.097336054
000230 b7 4d 31 3e fd e7 1b bd df 9c 5f be 12 23 3a be
       0.17314802 -0.03806304 -0.21837185 -0.18177441
000240 bd 5e 48 bd e7 39 6b 3e 72 d7 82 be 2c 84 62 bd
       -0.048918474 0.22971307 -0.25554997 -0.05530183
000250 34 ee de 3d b4 c0 9a 3d 16 95 0e 3e 4d 4b f7 3d
       0.108852774 0.075562865 0.1392406 0.12074909
000260 ec 92 0b be 96 a7 14 be 0d cc 01 be e3 80 6e be
       -0.13630265 -0.14517054 -0.12675495 -0.23291354
000270 8c b4 38 3e 04 4a 86 be 74 33 44 be 2b d8 6d 3e
       0.18037623 -0.26228344 -0.19160253 0.23226993
000280 1e f7 28 be 80 9c 7d bc a0 2d 82 3d dc 8a 0a 3e
       -0.16500518 -0.015479207 0.063563585 0.13529533
000290 a0 9c f4 3c 32 8d 53 bd d3 90 48 be 1c 5b 5b bd
       0.02985984 -0.051648326 -0.19586496 -0.053553686
0002a0 cb 0a a4 3d 7b 7b 74 3e 36 17 96 bd da 4c e9 3d
       0.08009871 0.23875229 -0.07328646 0.113916114
0002b0 ee d7 61 3b b0 96 2c be 41 1f 89 be 42 cb 5c be
       0.003446098 -0.16854358 -0.26781657 -0.21561912
0002c0 1c c2 28 3e 72 b5 51 be be e6 fd bd 9c a5 bf 3d
       0.16480297 -0.20479372 -0.12397526 0.09357759
0002d0 80 12 f8 3d 07 af 76 be 8c d8 1f be 2c 74 1b be
       0.121129036 -0.24090205 -0.1560995 -0.15181035
0002e0 7c cf 9b be e7 d8 90 3d ab 5b e4 bd 0b 6a 1d be
       -0.30431736 0.07072621 -0.11150297 -0.15372483
0002f0 33 7e 89 3c 83 7d 18 3e 84 ae b8 3d ec 7f 26 be
       0.01678381 0.14891629 0.09017661 -0.16259736
000300 bc a0 5f bd 74 4b 5a be 04 74 d8 3d 99 df 38 be
       -0.054596648 -0.21317846 0.10569003 -0.18054046
000310 a0 02 5b 3d 48 75 22 be 56 34 8c bc 6a c8 3f be
       0.0534693 -0.15865052 -0.0171148 -0.18728796
000320 e7 4e 5d bd 94 91 86 3e 3f 49 40 be e4 09 4d be
       -0.054030325 0.26282942 -0.18777941 -0.20023304
000330 bb 34 08 be cb 2b f6 bd bc 5c a3 bd 91 cf 82 3e
       -0.13301365 -0.120200716 -0.07976672 0.25548986
000340 6c c0 9e bd 7c fa 06 3e ec 6a 7a 3e ad 69 ff bd
       -0.07751545 0.1318149 0.2445485 -0.12471328
000350 72 93 18 be c1 f9 59 3e 43 2b 88 3e ce 0c fc bd
       -0.14899996 0.2128668 0.26595506 -0.1230713
000360 1c 5e 05 bd 5e 80 47 3e 02 ad 4e 3e 98 61 26 be
       -0.032560453 0.19482562 0.20183185 -0.16248167
000370 0d da 15 3e a0 7a 86 bd 96 91 42 be 09 67 57 be
       0.14633961 -0.065663576 -0.19000849 -0.21035399
000380 01 46 81 3e 36 1e 18 3e 0f 82 23 3e 49 d6 e1 bd
       0.2524872 0.14855275 0.15967582 -0.110272
000390 67 29 9b be 5b 4e 07 3c b6 7a 00 3e 76 7f 1a 3e
       -0.30305025 0.0082584275 0.1254681 0.15087685
0003a0 2e 93 3c 3d 52 c9 db bd 7a 25 ed bd 5a b6 57 be
       0.0460388 -0.10731758 -0.11579414 -0.21065655
0003b0 c6 d8 09 be 38 b0 c5 bc 0a 73 1c 3e 8e 08 0f be
       -0.13461599 -0.02413188 0.15278259 -0.13968107
0003c0 dd 2d 25 be b7 27 5e 3e a2 fd 3a 3e 09 4b fa b8
       -0.16130777 0.21694838 0.18260816 -0.00011934905
0003d0 aa fc 0d be b6 60 15 be c8 14 df bd 9e 91 02 be
       -0.13865915 -0.14587674 -0.108926356 -0.12750861
0003e0 07 fc d3 3d 6f 29 b9 3c 07 96 1c be 2b 4b 82 3e
       0.10350805 0.022602765 -0.15291606 0.25447974
0003f0 78 d1 dd bd b8 45 5c be 00 54 1c 3d d2 32 42 bc
       -0.108309686 -0.2151097 0.038166046 -0.011852937

actor.0.bias f4 [64]
000000 17 25 44 3e 38 38 50 3e 80 ee 18 be 0e b9 c2 bd
       0.19154774 0.20333946 -0.1493473 -0.09507953
000010 59 5c bd bd e4 19 0b be 1d c4 5c 3d c9 94 d9 bd
       -0.092461295 -0.13584095 0.053897966 -0.10624082
000020 16 16 23 3e 17 5c ee 3d 28 4e 0a 3e a7 2b 75 3e
       0.15926394 0.116386585 0.13506377 0.23942433
000030 c4 b2 4f 3e 80 25 a7 bd a0 04 16 3d 9d 14 13 be
       0.20283037 -0.081614494 0.036625504 -0.14363332
000040 16 c9 d4 3c 1f ad 60 be dc 05 75 3e 6f fb ea 3d
       0.025974791 -0.2194104 0.23928016 0.114737384
000050 29 cb f0 3d 46 a9 84 bd 79 bd 06 3e 9a 83 c3 bd
       0.117575 -0.06477599 0.13158216 -0.095465854
000060 cc a3 ed bd a3 43 82 be ee 3b ee 3d 9c 13 ba bd
       -0.116035074 -0.25442228 0.116325244 -0.090857714
000070 96 ce 17 bb 97 b0 49 3e e4 28 9d bd 58 d3 2e 3e
       -0.0023163906 0.1969627 -0.07673815 0.17072809
000080 be 46 06 3e a4 c1 3b 3e da 7b 91 3c af 90 97 be
       0.13112924 0.18335587 0.017759252 -0.29602572
000090 e1 12 1d bd c9 7d 1d be 22 95 7b bd 50 fa 98 bc
       -0.038348082 -0.15380014 -0.06142152 -0.018674046
0000a0 f5 03 c4 3c d1 db 7a bd 91 d1 87 3e a3 32 25 be
       0.023927668 -0.06124479 0.26527074 -0.16132598
0000b0 c7 08 56 be 99 b0 78 be c0 ca 40 3e 79 b2 6d bd
       -0.20901786 -0.24286117 0.18827343 -0.058031533
0000c0 17 36 c7 bd 4b f6 ce bc 62 2d aa 3d 0d 5d 6d be
       -0.09727114 -0.025263926 0.08309437 -0.23180027
0000d0 19 12 f4 3c 86 b6 2b be bd bd 4e be ad 30 ab bd
       0.029793786 -0.16768846 -0.20189567 -0.083588935
0000e0 d6 ca 32 be 29 32 51 3e b3 49 55 3e 5e 92 6d be
       -0.17460188 0.20429291 0.20828895 -0.23200366
0000f0 b8 46 1c 3c c5 2d b9 bd 7a 76 71 bb 19 91 47 3e
       0.009538345 -0.09041933 -0.00368443 0.19488944

actor.2.weight f4 [64, 64]
000000 a2 bf df bd 54 6d d6 3d 6a e7 c5 3d d0 f2 79 bd
       -0.10925223 0.104700714 0.09663279 -0.06102258
000010 5c 27 e0 3d c7 10 15 bd 88 b8 b3 3d 30 07 77 bd
       0.10945007 -0.036392953 0.08775431 -0.06030959
000020 c2 dd b6 3c b2 28 2c 3d 0d 3b ef 3d 87 55 0a bd
       0.02232254 0.042030998 0.11681185 -0.03377297
000030 aa 83 70 3c 1e a9 c4 3d 95 3e 93 bc d2 8d 15 bd
       0.014679829 0.09602569 -0.017974177 -0.036512204
000040 57 7c 27 bd a4 40 9f 3c 82 6b 68 3d b4 31 99 bd
       -0.040890064 0.019440003 0.056743152 -0.07480183
000050 a1 e5 a4 bd 33 5c 78 3d 6b 3e e5 3c ca 3d d2 3d
       -0.08051611 0.060634803 0.027983865 0.102656916
000060 fc 09 97 bd 2a 16 2f bd 3d 9f 7d 3d 6b 9a a8 3d
       -0.07374951 -0.042745747 0.06191944 0.08232578
000070 42 ff 1e 3d a1 1f d3 bd a6 e3 fa 3b 4e b0 d7 bd
       0.03881765 -0.10308767 0.0076565323 -0.10531674
000080 97 80 af 3c 17 c2 b8 bd 46 aa 80 3d 02 30 bf bd
       0.021423621 -0.09021395 0.06282477 -0.09335329
000090 99 9d 02 3d 85 a4 06 3d 08 38 4b 3d 0e 9b 91 3d
       0.031888578 0.03287174 0.049613982 0.071096525
0000a0 c2 d1 ca 3d 82 5d a8 3d 30 8a 3e 3d e7 66 87 bc
       0.099032894 0.0822096 0.046518505 -0.01652856
0000b0 01 9d 22 bd 11 a8 6c 3d 7f f4 38 bd bf f6 63 bd
       -0.03970051 0.057777468 -0.045155045 -0.055655237
0000c0 3a c8 0d bb b7 a2 01 3c 27 60 04 3e d3 56 8a bd
       -0.0021634237 0.007912329 0.12927304 -0.06754842
0000d0 82 74 8c 3d 30 e0 b8 ba 70 4f c8 bd 25 68 25 3d
       0.068581596 -0.0014104899 -0.097807765 0.040382523
0000e0 04 8b ae bd 10 12 1c bc 98 ec 5d 3d e0 22 9a 3c
       -0.08522609 -0.009525791 0.05418071 0.018815458
0000f0 cf e7 ad 3d ae fe 76 bd 42 64 cc 3d 37 79 c3 3d
       0.084914796 -0.060301475 0.0998006 0.09544604
000100 a9 c6 c8 3b 47 12 bc 3d 75 96 36 3a 58 44 7b bd
       0.0061271978 0.091831736 0.0006965169 -0.061344475
000110 45 3e 8a 3d 68 88 f1 bb d2 84 39 3d 26 d0 fe 3d
       0.06750158 -0.007370997 0.045292683 0.12442045
000120 9c e1 ec bb de 28 c3 3d 6e e5 be bd 39 7f ca 3d
       -0.007229043 0.09529279 -0.09321104 0.09887547
000130 33 76 08 bd b3 28 2b 3d b4 30 45 3d 58 64 94 3d
       -0.03331585 0.04178686 0.04814215 0.072457016
000140 2c 44 be bd 3c dd b4 bd 7c 6a c3 bd bc 3e 9a 3d
       -0.092903465 -0.088312596 -0.09541795 0.07531497
000150 b4 44 00 be c6 a6 ae 3d a3 b2 c7 3d 3b da e2 bc
       -0.12526208 0.08527903 0.09750869 -0.027691951
000160 56 73 7f bd 48 05 c9 bc c4 25 e8 bb f7 0f d2 bd
       -0.062365852 -0.024538651 -0.00708458 -0.10256951
000170 0a 59 92 bd 05 57 a7 bd c4 1f 85 bd 1e 69 2b bd
       -0.07145889 -0.081708945 -0.065001994 -0.041848294
000180 e8 89 4f 3d 52 84 a7 3d 13 9b 6b 3d 28 40 e3 bd
       0.050668627 0.08179535 0.057520937 -0.11096221
000190 fd 91 c1 3d cc 7e 43 3d d9 de 7d 3d 77 bf ab bd
       0.09451673 0.047728345 0.061980102 -0.083861284
0001a0 2b 2a 5c 3d 74 b5 05 3c 1c 72 1e bd f7 be d5 bb
       0.053751152 0.008160938 -0.038683042 -0.006523009
0001b0 1a be b8 bd 7c 8a b9 3c 4d f0 ad 3c 70 b8 3c 3c
       -0.09020634 0.022649042 0.021232748 0.011518583
0001c0 f0 8e 89 bd 56 b4 cc bc 97 ce 1a bc f0 7c 2c bd
       -0.06716716 -0.024988335 -0.009448669 -0.042111337
0001d0 1d 9f 12 3e da df e8 3d f7 70 d3 3d 56 49 0c bd
       0.1431851 0.11370821 0.10324281 -0.034249626
0001e0 52 b8 bd 3d 4d f3 7f 3d 49 7a 17 3c 66 e5 d9 bd
       0.09263672 0.06248789 0.009245464 -0.106394574
0001f0 56 20 1d 3c 6c 8a ea 3d da 0c ef bd f4 d4 f9 3c
       0.009590229 0.11452183 -0.11672373 0.030497052
000200 b6 92 35 3c 26 92 ac 3d f5 c2 11 3d 90 40 73 3d
       0.011082342 0.08426313 0.035586316 0.059387743
000210 a6 96 df bd 0b 3f 00 3c 44 8f bf 3d 83 b9 94 bc
       -0.10917406 0.007827531 0.093534976 -0.018154865
000220 74 6a 30 3d 8f b7 cf bd 10 5e 2b bc a8 89 36 bd
       0.04307027 -0.10142433 -0.010459438 -0.044564873
000230 3b a0 a2 3d d7 37 d3 3d 5b 34 d2 bd 0a 99 a7 3d
       0.07940718 0.10313385 -0.10263892 0.08183487
000240 80 07 ef bd 70 a8 0d 3e 55 89 eb 3c 3f f9 cc bd
       -0.116713524 0.13833785 0.028752008 -0.100084774
000250 04 ef 3b bd 64 a0 84 bd 4b 72 e0 3d 84 06 e0 bb
       -0.04588224 -0.064759046 0.109593 -0.006836714
000260 05 0b d6 bd c7 e8 a6 3c 80 b9 c0 bd f7 ec 27 3d
       -0.104513206 0.020374669 -0.09410381 0.04099747
000270 c8 0a ae bd b6 33 b6 bd 59 45 37 bd 09 e7 4e 3d
       -0.0849815 -0.08896582 -0.04474387 0.0505133
000280 d7 96 8b 3d 31 46 2c 3d 88 4e 01 3d 65 59 84 bd
       0.0681588 0.042059127 0.031569034 -0.06462363
000290 a3 18 8e 3c 76 02 37 bd da d9 58 bd 28 28 81 bb
       0.017345732 -0.04468008 -0.052942134 -0.0039415546
0002a0 c7 ac d7 3d ac 29 92 3b f0 95 d1 3d 5e 0a a3 3d
       0.105310015 0.004460534 0.102336764 0.07960962
0002b0 90 c3 58 3d f8 1c 3b bd f0 5f e3 bd 09 b8 1c bc
       0.052920878 -0.045681924 -0.11102283 -0.009565362
0002c0 68 05 09 3e 1d 61 a0 3d 4b 5d f2 bd 66 38 03 be
       0.13380969 0.07831023 -0.118342005 -0.12814483
0002d0 de 53 a5 bd bb 09 ec 3d 5c 89 b1 bc c4 a8 82 3b
       -0.08072637 0.115252934 -0.021671943 0.0039874036
0002e0 d2 68 23 3d df eb 4a 3d 40 b5 73 3d 32 bc f2 3d
       0.039894886 0.04954135 0.059499025 0.11852302
0002f0 49 ac ab bd e8 d2 1a 3d ba 27 a7 bd 4f bc e5 3d
       -0.0838247 0.037798792 -0.08161874 0.11217558
000300 f5 ae af 3d 3d 84 bf bd 3a aa 05 3d f1 c8 b4 3d
       0.08578292 -0.09351394 0.032633044 0.08827389
000310 6b e1 a0 bd 4c e6 6c 3d 50 9d bc 3d 99 4a ae 3d
       -0.07855495 0.057836816 0.092096925 0.08510322
000320 87 5f 86 bd 8e 1c d2 bb 06 d8 98 3d 26 58 83 bd
       -0.06561189 -0.0064120954 0.07463078 -0.06413297
000330 94 ac 34 3c 77 75 1b bc 09 2a b6 bd 89 b1 3e bc
       0.011027474 -0.009488455 -0.08894736 -0.011639007
000340 dc 33 02 be 95 7f ec 3c 58 ef 59 bd 01 b4 ce 3c
       -0.12715095 0.02886943 -0.05320677 0.025232317
000350 a6 cc e7 bc ae 1a a8 bd 1f 3f 9c 3d a6 1b ff 3d
       -0.028295826 -0.08208214 0.07629227 0.124564454
000360 82 6c ea 3d 1c db b8 bd 80 bc 7a bd 9e 57 87 bb
       0.114464775 -0.09026167 -0.061214924 -0.004130318
000370 bd 5b 90 bd e3 88 c9 bd c4 4b b4 3d e2 a4 02 bd
       -0.07048748 -0.09840562 0.08803514 -0.031895526
000380 54 1d fe 3d 2d 04 60 bc 67 65 00 bd 61 04 cf bd
       0.12407938 -0.013672871 -0.031346705 -0.10108257
000390 18 fd 96 3d e6 e2 24 bd 7f 34 d6 3d ab d8 3b 3a
       0.073724926 -0.04025545 0.104592316 0.000716577
0003a0 66 d6 fe bc ef 57 1e bd 14 a0 00 be 1d ef ef bd
       -0.031108093 -0.03865808 -0.12561065 -0.11715529
0003b0 6b c4 94 bd a4 aa e6 3d c7 d9 bb bd b0 99 62 bd
       -0.07264026 0.11263016 -0.09172397 -0.05532235
0003c0 11 cb fc bd ec 25 fd bc 8b 0b a1 bd 2a ef b7 bd
       -0.12343419 -0.030901872 -0.0786353 -0.08981164
0003d0 17 86 c8 3d f4 ee 88 bd 49 c7 07 3c 47 08 b2 3b
       0.097912006 -0.06686202 0.008287259 0.0054331156
0003e0 bc 64 bc bd 1f f6 83 bd 8c 15 8c bd d5 8b c3 bd
       -0.09198901 -0.06443428 -0.06840047 -0.09548155
0003f0 72 19 cd 3d fc f1 c3 bd fd 43 b4 bd 56 59 ab bc
       0.10014619 -0.09567639 -0.0880203 -0.020916622

actor.2.bias f4 [64]
000000 ea 71 09 bd b1 28 41 bd cb df 78 3c a5 75 b9 3d
       -0.033555903 -0.047157947 0.015190075 0.09055642
000010 ff 59 bd 3d 9a 86 b4 bd c5 8d a4 3d 35 81 61 3d
       0.09245681 -0.08814736 0.08034853 0.055054862
000020 d0 84 4e bd 82 f0 d5 3d 89 3b f1 bc a0 d8 a7 3d
       -0.05041963 0.10446264 -0.029447334 0.08195615
000030 8c 57 07 bd ee cc c7 3d 5d 3f d1 3d e6 d6 cd bd
       -0.033042476 0.09755884 0.10217164 -0.10050754
000040 d5 25 cf bd ef 46 84 bd 79 48 8e bc 07 0d 3d 3d
       -0.10114638 -0.06458842 -0.017368542 0.046155002
000050 72 7f 70 bc 94 ff 9f 3d 99 23 83 3d 74 a1 d2 3d
       -0.014678823 0.078124195 0.06403274 0.10284701
000060 6c d1 1d bd bd f1 9d 3c a6 d5 db 3d 18 7e 41 bc
       -0.0385298 0.019280309 0.107341096 -0.011809848
000070 6d 00 c6 bd 08 8e 80 3d dd 21 b6 ba dd 91 4a bc
       -0.0966805 0.0627709 -0.001389559 -0.012363878
000080 ff d4 81 bc 9c c6 06 3d 4c 5b b2 bd 72 21 e9 3d
       -0.015848635 0.032904252 -0.0870882 0.11383332
000090 88 ca 2a bd e3 0a 77 bd 77 12 80 3d ef d4 08 be
       -0.041697055 -0.060313117 0.06253522 -0.13362478
0000a0 4a fa 14 3d 63 21 99 3d c9 d6 f2 bd 25 8d 7e bd
       0.036371507 0.07477071 -0.11857373 -0.062146325
0000b0 67 83 2f 3c ce 1e d8 3b 80 ca 35 bd 62 a9 90 bd
       0.010712481 0.006595469 -0.044382572 -0.07063557
0000c0 93 4e b1 bd 52 ea 69 bd 31 17 d0 bc d0 cd 92 3d
       -0.08657565 -0.05710823 -0.025401684 0.07168162
0000d0 50 e6 29 3d fe 8a 01 3c 4c ba e5 3d d5 e1 9b bd
       0.04147941 0.0079066735 0.11217174 -0.076114334
0000e0 a0 47 9f bd 10 9a cc bd 58 7d cb bc 85 a1 03 bd
       -0.07777333 -0.099903226 -0.024840042 -0.03213646
0000f0 0f 01 45 3d e2 01 f7 3d e8 33 b7 bd 55 d8 39 3c
       0.048096713 0.12060906 -0.08945447 0.0113430815

actor.4.weight f4 [2, 64]
000000 ab 84 17 3b aa e4 5b 3b a1 6a 35 3c cd c0 94 bb
       0.0023119848 0.0033553042 0.011072786 -0.004539585
000010 ce 85 b5 3d c2 85 ae bb 86 8f cc bb fb b5 85 bd
       0.08863412 -0.005326004 -0.0062426953 -0.06528851
000020 61 e0 89 3d 2e c2 d2 bd f7 62 da 3c 39 80 d3 bd
       0.0673225 -0.10290943 0.026658518 -0.10327191
000030 ca 8c 25 bd 9e 3d e9 3d a8 b1 8d bb a9 42 11 3d
       -0.04041747 0.11388706 -0.004324157 0.035463963
000040 31 c7 4a 3d e4 b9 c3 3d 14 7b 09 bd 07 0c 57 3d
       0.04950637 0.0955694 -0.033564642 0.052501705
000050 bc c3 6a 3d 05 32 28 3c 46 17 21 3d 7c 96 ce 3d
       0.057315573 0.010265832 0.039328836 0.10087296
000060 ee 2e c0 bd 64 f3 46 3c f1 32 f6 3c 0f 86 c4 39
       -0.09383951 0.01214299 0.030053588 0.00037483915
000070 e0 ee e3 3c 34 03 fa bb f6 13 59 3c 78 6c 45 39
       0.027823865 -0.0076297764 0.013249388 0.00018827792
000080 de e5 e2 bd 3b fa 1d 3d 93 e8 a0 3d 95 1c 5b bd
       -0.11079 0.038568716 0.0785686 -0.053494055
000090 eb bf 1d bd 78 b0 d4 bd 6a 32 51 bd e1 22 db bd
       -0.038513105 -0.10385221 -0.05107347 -0.10700012
0000a0 96 a0 44 3d 35 db 25 bd 7b 2d a7 bb ac 81 2d 3d
       0.04800471 -0.040492255 -0.0051018572 0.042359993
0000b0 d4 bc 1b bb 8c da de ba 1e 61 02 bd 70 33 98 3d
       -0.0023763673 -0.0017002388 -0.0318309 0.07431686
0000c0 36 b0 0a bc 74 b5 20 3c 60 d1 95 3d f1 e4 16 3d
       -0.0084648635 0.009808887 0.07315326 0.03683943
0000d0 85 7f 49 3d 76 fb 94 3d fc dc 72 3c 0d 61 44 3c
       0.049193878 0.07274525 0.014823195 0.011986029
0000e0 0c c9 04 bd 33 a5 a8 3b 1d fe db bc 16 f5 7e 3c
       -0.032418296 0.0051466464 -0.02685457 0.015561363
0000f0 f1 42 11 3c d3 59 07 3d 31 04 48 3c cd 51 72 bd
       0.008866058 0.033044647 0.012208031 -0.059160043
000100 b7 ff 6a 3a c9 96 48 38 93 0c ee 3a 9d e3 68 3b
       0.0008964496 4.7824145e-05 0.0018161706 0.0035536059
000110 e2 e0 d9 bd 75 55 ed bc 08 9e d9 3d 9e 06 91 bd
       -0.10638596 -0.028971413 0.10625845 -0.0708134
000120 f3 f2 3a bd 67 19 c5 bc 27 97 88 bd 3c cb cb bd
       -0.04564185 -0.024059964 -0.06669455 -0.09950873
000130 92 be c3 bd 51 6e 5b bc a0 6e d8 3c 75 55 89 3c
       -0.09557833 -0.013393001 0.026419938 0.016764382
000140 ac 26 7d bc 73 cf 21 3d e0 85 41 3d 23 0b 12 3d
       -0.015451115 0.03950448 0.047246814 0.035655152
000150 80 7c 50 3d 62 b4 25 3a 7a 7e 85 bc ac 67 c5 bd
       0.050899982 0.00063211296 -0.01629566 -0.096389145
000160 cf d9 8c 3c 14 db 50 bd bc 55 f4 bc ad 3b 53 3c
       0.017193703 -0.05099018 -0.029826038 0.012892646
000170 1c fc 49 3d 1e 01 47 bb 49 b1 35 bd 4f da 6d bd
       0.049312696 -0.0030365656 -0.044358525 -0.058069523
000180 de 62 c7 3d 5b 11 ef 3d b6 ba 3a bd 63 c2 07 bd
       0.09735654 0.11673232 -0.045588218 -0.033144366
000190 7a 07 80 bd ab bd ee 3d 61 b7 dc 3d ec 50 a4 3c
       -0.06251426 0.1165727 0.10777164 0.020058118
0001a0 82 5b 02 bd 92 79 b9 bd 6b e3 fd bb 9e 34 83 bd
       -0.03182555 -0.09056391 -0.0077480576 -0.0640652
0001b0 4a 59 87 3d 30 a9 c4 3c f1 68 cc 3d 79 a6 93 3d
       0.066088274 0.024006456 0.099809535 0.072094865
0001c0 3c 03 cf 3a 3b 42 f9 bc 77 e5 39 3d 94 8f 40 bd
       0.0015793811 -0.030427089 0.04538485 -0.047011927
0001d0 f8 25 0f bd 0a 94 9d bd 1f 8c e7 3a 47 6b b8 3d
       -0.03494832 -0.07694252 0.0017665661 0.090048365
0001e0 d0 59 ac 3c 35 20 a7 3c 9a 3f 9c bd c7 23 2d 3c
       0.02103892 0.0204011 -0.076293185 0.010567612
0001f0 13 e5 89 3d d1 aa bf 3d bc 5d 1d 3d 72 fe 5d bc
       0.067331456 0.093587525 0.03841947 -0.013549434

actor.4.bias f4 [2]
000000 5d 75 00 3e d3 57 81 bd
       0.1254477 -0.06315579

critic.0.weight f4 [64, 15]
000000 d3 0d 88 be 41 4f e0 be c7 4b eb bd 3b 3f 60 be
       -0.26573047 -0.43810466 -0.11489063 -0.2189912
000010 7a 39 25 3e 85 ff 7f be 12 5f 4d 3e 04 d4 8f be
       0.16135207 -0.24999817 0.20055798 -0.28091443
000020 7f 5d ee bd 1b 74 65 be 84 3d 6a bc 8a a3 41 be
       -0.11638927 -0.22407572 -0.014296893 -0.18910041
000030 14 6a 07 bd 10 18 aa 3c d0 2d b3 3c 80 69 00 be
       -0.03306015 0.020763427 0.021872431 -0.12540245
000040 28 5e 6e 3e 5e b3 2b 3e 0c 83 24 3d 4f 2c 8c 3c
       0.23278105 0.16767642 0.04016404 0.017110972
000050 93 90 47 3e 79 fb 84 3d 52 0f 8a 3e f1 16 01 3d
       0.19488744 0.06493277 0.26964813 0.03151602
000060 23 a9 de bc 18 ed 4b be 3c 4a 05 3e f3 5c 1b be
       -0.02718026 -0.19914663 0.130166 -0.15172176
000070 3e cd 64 be 34 29 8b 3d e0 42 8c 3d a9 b4 5b 3e
       -0.22343919 0.06794968 0.06848693 0.21455635
000080 7c 1e ac 3d 67 35 22 bd c2 01 e6 bd d2 ca 51 bd
       0.08404252 -0.03960171 -0.11230804 -0.051218815
000090 d9 3b 55 3c 6d da ed 3c d1 31 54 bd e7 24 35 bf
       0.013014757 0.029034818 -0.05180532 -0.70759434
0000a0 66 8a 61 be d4 1b c5 3d 88 5e 63 be 68 80 26 bd
       -0.22025451 0.096244484 -0.2220403 -0.0406498
0000b0 c0 15 8b bb 43 2e 77 3d 9e ac 07 3e 0c 2a 24 bd
       -0.004244536 0.060346853 0.13249442 -0.04007916
0000c0 b2 db 6f 3e f5 df 50 be d2 1c 75 3d 0b 7a 01 3c
       0.23423651 -0.20397933 0.05984194 0.0079026325
0000d0 b2 ed b5 3b df f7 4a 3e ef 41 0a 3f 3d 0a 12 be
       0.005552017 0.19821118 0.54006857 -0.14261718
0000e0 06 04 24 3e d0 d2 4a 3d 14 11 e4 3d 64 9a 94 3d
       0.1601716 0.049517453 0.1113607 0.0725601
0000f0 bd 74 96 3e cb 66 69 be 21 d3 f7 3d 8f 82 b4 3d
       0.2938594 -0.22793119 0.121008165 0.088139646
000100 97 6c 40 be c6 7e 5e bd cb 2b 9a 3d 11 f8 a3 3e
       -0.18791424 -0.05432012 0.07527884 0.32025197
000110 d5 8b 61 be 77 db 13 3f 8e 85 5d bd 30 80 3c 3d
       -0.22025998 0.5775675 -0.054082446 0.046020687
000120 70 7e db bd b2 b1 23 be f2 c4 e7 bd 5d 5b 35 3d
       -0.107174754 -0.15985754 -0.11316861 0.044276584
000130 bf 7c 28 3e 23 21 97 bc 62 a8 3a bd d8 20 24 bd
       0.16453837 -0.018448418 -0.04557074 -0.040070385
000140 ac 76 26 3e 90 7a 93 3e c8 a5 02 b8 3b 57 6e 3e
       0.16256207 0.28804445 -3.114881e-05 0.23275463
000150 05 28 9b 3f ed 4e 84 3e 6d 38 6d be 38 e4 51 3d
       1.2121588 0.25841466 -0.23166056 0.051243037
000160 f8 f0 9d 3d 27 0a 5a be f4 4b 18 3d c0 cf 7b 3e
       0.07711977 -0.21292935 0.03718181 0.24590969
000170 45 23 16 be de 6d 23 be 23 7b 90 3c c3 0d 12 3e
       -0.14661892 -0.1595988 0.017636841 0.14263062
000180 76 ec 8d be 2e 3f 15 bd f5 ad 8a 3c e9 4e 16 3f
       -0.27719468 -0.036437206 0.016928652 0.5871416
000190 d4 1d 24 be 98 08 78 3d 90 a4 0e 3d ff 17 08 be
       -0.16027004 0.06055507 0.034824908 -0.13290404
0001a0 f8 a0 51 be 73 b0 53 be ad cd 25 bc 7d ad 11 bd
       -0.20471561 -0.20672779 -0.010119838 -0.035565842
0001b0 69 f5 dd 3d d0 93 20 be b0 99 a2 be 0b a3 e5 3c
       0.10837824 -0.15681386 -0.3175788 0.028031847
0001c0 e5 28 99 bd 7c fc 77 be 71 d8 29 bf 41 85 1b be
       -0.07478503 -0.24217409 -0.6634589 -0.15187551
0001d0 0c e9 01 bd e0 2b 02 be aa 36 44 be 68 da 16 be
       -0.03171639 -0.1271205 -0.19161478 -0.14731753
0001e0 4d a3 74 be 07 7e c1 bc c1 be 1b 3e 8e b0 8e be
       -0.2389042 -0.023619665 0.15209486 -0.27869076
0001f0 2e f0 40 be 89 af 8c be 36 c6 93 be 10 fd 0f 3e
       -0.18841621 -0.27477673 -0.2886216 0.1406138
000200 d5 d9 3c be 1f 22 e7 3e 0c 95 45 3c a5 e3 5a be
       -0.18442471 0.4514322 0.012059461 -0.21375902
000210 50 df 1b 3d 62 22 ca bd 5c 7b 39 bd c0 1a 4b 3e
       0.038054764 -0.09869839 -0.04528366 0.19834423
000220 bf c9 23 3d 49 d4 db 3d db 83 cc bd c9 2a 43 3e
       0.039987322 0.107338496 -0.09986087 0.1905929
000230 39 d2 67 3e 76 a5 99 bd 1d ca 62 be 44 10 73 3d
       0.22638787 -0.07502262 -0.22147413 0.059341684
000240 e6 eb d4 3d 14 41 02 be fe 91 b8 bd 2e 67 06 3e
       0.103965566 -0.12720138 -0.09012221 0.13125297
000250 60 5b 6b 3c 1c c4 74 3e 7f a3 1e 3e f9 d3 25 3e
       0.014365047 0.23902935 0.15492056 0.16194142
000260 7e f4 8b 3d f2 cb 78 3e ab 8f 1a be 02 23 7e be
       0.068337426 0.24296549 -0.15093867 -0.24818042
000270 60 3d ca bd 78 f5 6a be c7 e8 c9 3d 6f 98 31 bf
       -0.098749876 -0.22945201 0.09858852 -0.6937322
000280 53 9a 0a 3e bc 49 81 3d f9 fc 3d be 10 b4 6a bc
       0.13535433 0.06312892 -0.18553533 -0.014325157
000290 0b 2b 4b be 47 8a af 3d 09 db b0 3e ca cd 29 bb
       -0.19840638 0.08571296 0.3454211 -0.0025910013
0002a0 91 71 15 bd c9 f1 73 bb 43 b9 a6 3e cf 4b 2d bc
       -0.03648526 -0.0037222973 0.32563218 -0.010577156
0002b0 1e 7c ac 3e 67 5c b0 bc 35 46 66 3f 85 68 5e 3e
       0.33688444 -0.021528436 0.8995088 0.21719559
0002c0 86 b9 24 be 9a eb 1f 3e 80 5f 0a 3e 50 2d 86 3d
       -0.16086397 0.15617219 0.13512993 0.065516114
0002d0 28 75 d6 3d f4 8e 3b be 6e d3 09 be 20 eb 9f 3e
       0.104715645 -0.18316251 -0.1345956 0.31234074
0002e0 4e 93 2c 3e e2 d4 c8 3d df 5a 16 bd 19 bd 72 3e
       0.16853067 0.09806229 -0.036707755 0.23704948
0002f0 41 2f 38 3e c6 53 d1 bd fc a3 79 3e 4a 82 48 3e
       0.17986776 -0.10221057 0.24378961 0.19580951
000300 5c e8 10 3e c8 61 5a be 68 47 c9 bc 14 50 a2 bd
       0.14151138 -0.21326363 -0.024570182 -0.0792543
000310 94 fb 7d be 1d ab 1f 3e 18 4a 2e be 27 13 b9 be
       -0.24803 0.15592618 -0.17020452 -0.36147425
000320 95 96 8e be dd 77 4b bd 47 fd e5 bb 25 8e 95 3d
       -0.2784926 -0.049674857 -0.0070187184 0.073025025
000330 9a 80 5d 3b 71 07 c0 bd 06 34 0f 3e f0 17 ba 3c
       0.0033798576 -0.09376419 0.13984689 0.022716492
000340 24 ed 1c be 60 1a 4d 3c 15 ed 53 3e 34 ea 60 bd
       -0.15324837 0.012518495 0.20695908 -0.054910854
000350 09 cf 06 bd d5 83 4c be 34 3b a1 bd 8c c5 70 be
       -0.032912288 -0.19972165 -0.0787262 -0.23512858
000360 33 3e b0 3c f0 3c 97 bd f7 74 9b 3d af 67 35 bf
       0.021514034 -0.0738467 0.07590669 -0.70861334
000370 f8 82 06 3d 80 71 08 3d d3 55 36 be 5e 6e 21 be
       0.032839745 0.033311367 -0.17806177 -0.15764758
000380 a4 c7 23 be 4b 1a 8e 3d 01 8f a4 be 44 31 b6 bd
       -0.15994126 0.06938609 -0.32140353 -0.088961154
000390 a0 e5 4b be 04 91 75 3e ee 56 8a be d6 27 21 3e
       -0.19911814 0.239811 -0.27019447 0.15737852
0003a0 7b 22 ea be 1c 97 7c be 26 9c d6 be 57 3a 41 be
       -0.45729432 -0.24667019 -0.41916007 -0.18869911
0003b0 10 48 da 3c 83 d1 14 be c6 11 4f 3e fe d0 3a be
       0.02664569 -0.14533047 0.20221624 -0.18243787
0003c0 82 e8 3c bd 73 6a 34 3e 79 ae 88 be b1 33 8f 3d
       -0.046120174 0.17618732 -0.26695612 0.06992281
0003d0 71 ac 8f 3e f9 79 eb 3d 03 d9 4a be f1 0e c7 bd
       0.2806125 0.11497874 -0.19809346 -0.09719647
0003e0 a6 85 04 3e 2e bf 73 bf 59 59 c3 bc fc ac 2b 3e
       0.12941608 -0.9521359 -0.023846315 0.16765207
0003f0 6a 6d e8 bd 40 73 42 be d0 36 3d 3e 9b 28 50 be
       -0.11348994 -0.18989277 0.1847794 -0.2032799

critic.0.bias f4 [64]
000000 7f 2c 92 be 3a e2 33 3e bc 99 44 be ef 07 96 bd
       -0.28549573 0.17566767 -0.1919927 -0.07325732
000010 41 d2 49 3e d3 c3 f9 bd e8 a0 d7 3d 90 b9 41 bd
       0.19709112 -0.12195554 0.10528737 -0.047296107
000020 ba 92 b1 3a 32 1c 23 bd ba 18 98 3d 3f ee 0c be
       0.0013547756 -0.03982181 0.07426591 -0.13762759
000030 0c 09 92 3e 76 67 58 3d 1a 94 14 be fd b9 91 be
       0.28522527 0.052833043 -0.14509621 -0.2846221
000040 11 7d 0a be cf 94 ad 3e 69 86 5e be f8 35 47 3d
       -0.13524272 0.33902594 -0.21730961 0.048635453
000050 b2 2a f8 bd b9 3e 82 bd b6 6e 7a be fb 01 8a bd
       -0.121175185 -0.0635962 -0.24456295 -0.06738659
000060 79 e5 ab be c7 7e 26 3d 70 95 20 3e 22 60 43 be
       -0.3357351 0.040648248 0.15682006 -0.1907964
000070 ff 8a a7 bd 9c 1e 6d 3e 6d de 5e be 0b a4 2b 3e
       -0.08180808 0.23156208 -0.21764536 0.16761796
000080 b7 89 a5 be 9c f0 b5 3d 7e 4c 7e be c0 0b 93 3d
       -0.3233163 0.08883783 -0.24833867 0.071799755
000090 64 e7 7e be 92 3e 85 bd 5f d4 3c 3e 1a 0f 94 3e
       -0.24892956 -0.06506075 0.18440388 0.28917772
0000a0 b2 fa 31 be ce 3c ee bd b2 93 7b bd 60 87 e3 3e
       -0.17380789 -0.11632691 -0.06142015 0.4443922
0000b0 03 9b be bd 8e 53 12 3e a1 87 a4 bd c9 df 0a 3e
       -0.0930691 0.14289686 -0.08033682 0.1356193
0000c0 d4 a2 08 3e 40 e1 9d bd fd d7 2a 3e 7e cb aa 3e
       0.13343364 -0.07708979 0.16683955 0.33358377
0000d0 a6 7e 84 3e 6c a8 82 3e 3f 22 9b be 09 ee 7b 3d
       0.25877875 0.2551912 -0.30299565 0.061506305
0000e0 50 7c 88 bd f2 99 88 3d 46 34 33 be 30 57 97 3e
       -0.06664336 0.06669988 -0.1750041 0.29558706
0000f0 f2 f1 c5 bc 85 52 82 be 82 1b 45 3e 4a 2c f0 bd
       -0.02416322 -0.25453582 0.19248775 -0.117271975

critic.2.weight f4 [64, 64]
000000 f0 20 1f 3e 8f 6b 01 bd c0 69 b6 3d 2c e7 6e 3d
       0.15539908 -0.031596716 0.08906889 0.05832593
000010 c4 3b 14 be 26 3d 61 3d 30 bd d8 bd 2a 83 48 bd
       -0.14475924 0.054989956 -0.1058296 -0.048953213
000020 1b 8b 6a 3d c2 cd 9a 3d b5 bf 80 3d bd 05 40 3e
       0.057261568 0.075587764 0.06286565 0.18752189
000030 61 cb 74 3c 73 60 86 bd 44 1d de 3c 9f fe cd 3d
       0.014941067 -0.06561365 0.027113564 0.10058331
000040 e9 d4 b0 bc 92 3f 2d 3d e0 92 aa 3d 12 7f 83 3c
       -0.021585898 0.042296953 0.083287954 0.016051803
000050 95 cf 2e 3e fc b2 c0 3b 72 47 af 3d 4a a3 c7 3d
       0.17071374 0.0058807116 0.08558549 0.09747942
000060 c3 c4 ae 3c f5 d9 27 3e a5 22 88 bd 75 65 9c ba
       0.021334058 0.16391738 -0.06647233 -0.0011932092
000070 7a 05 0a 3d 8b 09 cb bc 89 40 eb 3c 19 60 e3 3d
       0.03369663 -0.024784824 0.028717296 0.111023135
000080 cb 4d 97 bc 80 78 da 3d 1e 76 95 bd a5 78 84 3c
       -0.018469712 0.10667515 -0.0729792 0.016170809
000090 1b 4b a0 3d fd 3c 92 3d 32 de 13 be 3b ff c6 3c
       0.07826825 0.07140539 -0.1444023 0.024291625
0000a0 03 5f b6 3d ea 29 52 3d 80 09 2c 3e b3 92 a9 bd
       0.08904841 0.051309504 0.16800499 -0.08279934
0000b0 f2 58 cd bd 63 e3 98 3d 64 1d ff bb 48 12 90 be
       -0.100267306 0.074652456 -0.007785486 -0.28138947
0000c0 9b 59 8a bd 10 24 15 bd 2e 06 bc 3b a9 04 a6 bd
       -0.06755372 -0.036411345 0.0057380414 -0.081063576
0000d0 cc 37 16 bd 86 02 e1 bd ba 95 45 bc 86 84 3d bd
       -0.036674306 -0.109868094 -0.012059623 -0.046268962
0000e0 59 90 de bd fb a4 02 be 79 75 2b 3c 6b 4a be bd
       -0.10867376 -0.12758248 0.010465019 -0.09291538
0000f0 80 6a 0f 3d 99 a7 99 3d cc 2c 0e bd 06 ca 1f bd
       0.035013676 0.0750267 -0.03471069 -0.039011024
000100 ef d9 d9 bd 26 05 85 bd ec 07 ab bd 3e d9 e1 3d
       -0.10637271 -0.064951226 -0.0835112 0.11027764
000110 6b 77 68 bd 7c 34 05 bd 17 3d cc bd fe e1 e4 3c
       -0.05675451 -0.032520756 -0.099725895 0.027939793
000120 7a 7e e5 bd a8 76 e4 bd 8f c4 0c be 38 5d 52 3e
       -0.11205764 -0.111554444 -0.13746856 0.20543373
000130 6e 81 08 3c 1f 6e 12 bd e7 6d 03 bd f9 f0 b9 3b
       0.00833164 -0.03574955 -0.032087233 0.005674478
000140 94 3e f4 bc f2 36 d9 3b d7 4c 0e 3e ed 38 98 bd
       -0.029814996 0.0066288644 0.138965 -0.07432733
000150 21 3d b0 3d 67 16 d9 bd 8a 75 95 bd 43 2c a7 bd
       0.086054094 -0.10599976 -0.072978094 -0.08162739
000160 87 16 97 3d 21 99 f7 3d 90 2e d7 bd 34 93 d6 3d
       0.073773436 0.12089754 -0.10506928 0.104772955
000170 d8 b9 84 bc 38 0a 54 bd dc eb c0 bd b2 26 91 3d
       -0.016201898 -0.051767558 -0.094199866 0.07087459
000180 a8 95 0f 3d eb f8 87 bb 25 b5 13 be 2c d7 64 3d
       0.035054833 -0.0041495464 -0.1442457 0.055869266
000190 32 f7 0a 3d df a3 9e bd f9 b7 84 3d f6 02 30 b9
       0.03392715 -0.077461 0.064804025 -0.00016785771
0001a0 59 91 00 be cf 02 0a 3e 42 b9 0c bc e7 7a 0c 3d
       -0.12555446 0.13477634 -0.008589091 0.034296896
0001b0 5b d5 4c 3d 50 11 fe 3d 39 b1 b0 3d be ee cf bb
       0.05000816 0.12405646 0.086275525 -0.006345599
0001c0 97 d1 f1 bd 5b a9 b4 bd 13 bf 26 bc b5 40 48 bc
       -0.11807554 -0.088213645 -0.010177392 -0.012222459
0001d0 02 6c 6a bd 6a 53 04 be 6b 9d c6 bd 5e 3e 9d 3d
       -0.05723191 -0.12922445 -0.09697994 0.07677911
0001e0 a6 f7 26 3d 7a 8b 1b 3d 04 06 a0 3d 73 1c 08 bd
       0.04076352 0.037974812 0.078136474 -0.033230256
0001f0 d3 53 63 3d 37 7a 8a bd 26 82 09 be 90 7f 94 bd
       0.055499863 -0.06761592 -0.13428554 -0.07250893
000200 2f 0c 01 3d 9e 1f b4 3d 85 52 26 bd ac 4e 44 be
       0.03150576 0.08795093 -0.04060604 -0.19170636
000210 07 5d d4 bd 6c db 9e 3d 05 4b ec 3d d9 49 eb 3c
       -0.10369306 0.07756695 0.11537746 0.028721737
000220 ca 19 0b 3e 76 7a ce 3c a1 54 95 3d b1 ce 4b be
       0.13584056 0.025204878 0.07291532 -0.19903065
000230 b5 5d d2 bd 9b 26 4d bb 54 0e cc 3c 84 41 87 3d
       -0.102717794 -0.0031303528 0.024909176 0.06604293
000240 78 b2 28 bd 9e d2 24 3d 11 6e 5f 3d 9c 0e 22 3e
       -0.041185826 0.040239923 0.054548327 0.15825886
000250 d2 cd d5 3b 58 90 c4 bd 29 d6 62 3d 23 bc d9 bd
       0.00652478 -0.09597844 0.05538002 -0.10631587
000260 3e 72 06 be 8f 46 36 be 1a dc 3b 3d 30 b8 40 3d
       -0.13129517 -0.17800353 0.045864202 0.047050655
000270 fe c1 2e 3d b0 31 6f 3d b5 de 07 3d 97 f5 b1 bd
       0.042665474 0.058396995 0.033171374 -0.08689421
000280 a8 47 31 bd 1e 58 be bd 9b ba 50 3e 5e 8e 81 3d
       -0.043281227 -0.09294151 0.20383684 0.063259825
000290 41 17 8f 3d 6d 53 94 3d 8e 8e 90 bd 76 23 d7 bd
       0.06986857 0.07242475 -0.0705844 -0.105048105
0002a0 47 09 4b bd ec f4 1f be 84 21 4c be 35 cc 51 3d
       -0.049569394 -0.15620774 -0.1993466 0.051220138
0002b0 1f 97 c6 3c 38 33 68 3c b7 63 dc 3d c7 15 2a 3e
       0.024241982 0.014172368 0.107612066 0.1660987
0002c0 e0 e2 80 bd 41 ab 12 3d 77 4f 03 bd 0a 6a 34 3d
       -0.06293273 0.03580785 -0.032058205 0.04404644
0002d0 c0 1d b4 ba 12 ff 8d 3d 70 06 38 3d 23 44 f2 3c
       -0.0013741776 0.069334164 0.044928014 0.029573506
0002e0 9c bb ab bd 2c 90 a6 bd 50 db 18 be 59 09 a5 3d
       -0.08385393 -0.08132967 -0.14927411 0.080584235
0002f0 3b 46 4a 3d 1c 57 9d 3d 67 53 d7 3d 9e 41 03 be
       0.049383383 0.076826304 0.105139546 -0.12818
000300 ae 28 14 bd c9 79 d8 3d 5d 2b 2b 3d cd 37 4c 3e
       -0.036171608 0.10570104 0.0417894 0.19943161
000310 91 70 00 be f4 05 2a 3c f7 da cb bd e3 c1 01 bd
       -0.1254294 0.010377396 -0.099538736 -0.031679045
000320 dd 19 0c be bd f8 b9 bc c7 92 cf bd 90 c0 e9 3d
       -0.13681741 -0.022701615 -0.101354174 0.114136815
000330 e5 40 d1 bd 7b 0b de bd 29 e9 3c bb c6 29 ee 3d
       -0.10217456 -0.108420335 -0.0028825498 0.116290614
000340 2e f0 fd 3d 0b ee 43 bd 4e 71 3c bd fa 45 7a 3c
       0.12399326 -0.047834437 -0.046006493 0.015275473
000350 39 10 3a 3d 30 b1 2e bd 83 b8 44 bd fa 4b 53 3d
       0.045425627 -0.042649448 -0.048027527 0.05158613
000360 83 55 bf bd 67 c9 3a 3e 1a 84 ef bd 48 73 ef 3d
       -0.09342482 0.18240891 -0.11695118 0.1169191
000370 cf fb 34 3d f0 49 de bd a5 17 71 bd 0b 04 24 3e
       0.044185456 -0.10853946 -0.05886044 0.16017167
000380 6f d5 8f 3c 5c c9 91 3c bb 8f b0 bd 5b 11 99 3d
       0.017557828 0.017796211 -0.086211644 0.074740134
000390 d3 ef dc bd 11 88 d4 bd 15 85 ff bd ea 2c 08 3e
       -0.1078793 -0.10377515 -0.12476555 0.13298383
0003a0 48 d6 de bd 72 66 b2 3d f6 31 16 3d d2 be f2 bd
       -0.10880715 0.08710946 0.03666874 -0.11852802
0003b0 47 52 35 3d 1c 97 50 bd c0 39 8f 3c 0a ab 7f be
       0.04426792 -0.05092536 0.017483592 -0.2496759
0003c0 72 37 7c bb 31 0b 1d 3b b0 52 d8 bd 7e 9a 68 bc
       -0.0038485196 0.002396297 -0.105626464 -0.01419699
0003d0 e3 2f 7c bd c9 d8 b0 bd 97 c4 17 bc 11 ec 55 3d
       -0.061569106 -0.086350985 -0.009263179 0.052227084
0003e0 a8 1e a1 3d 60 8a 57 bd 60 bb 5b bd ee fe 76 bb
       0.07867175 -0.0526222 -0.05364549 -0.003768857
0003f0 c5 e5 3f bd 84 13 21 3d c2 7d e5 bb 92 3d 88 bd
       -0.046849985 0.039325252 -0.007003517 -0.066523686

critic.2.bias f4 [64]
000000 a0 4f ed bd f9 d7 ed bd 8b 29 63 3a 50 c0 76 bd
       -0.11587453 -0.11613459 0.0008665553 -0.060241997
000010 2b 21 12 bd 13 38 30 be ee c9 19 bd bb 43 c9 bd
       -0.035676163 -0.1720889 -0.03754609 -0.09827372
000020 24 5c bb 3c f2 00 22 bc b1 d1 97 3d a8 da 75 bd
       0.022871085 -0.009887921 0.07413042 -0.06002298
000030 28 8d 0b bc 97 a1 f3 bd 1a 34 43 3d c1 e6 ab bd
       -0.008517541 -0.11896055 0.04765711 -0.08393622
000040 44 94 ff 3c 9a 47 df 3c 8e 31 72 bd 3b a0 d3 bb
       0.031198628 0.027255822 -0.05912929 -0.00645831
000050 e1 71 f6 bd 88 cb 08 3d 70 ac bc 3d f7 ea 80 3d
       -0.120334394 0.033397228 0.09212577 0.06294816
000060 16 61 2b be f4 86 cd bd 58 79 cf 3d 8b 6f 62 bd
       -0.16736254 -0.10035506 0.10130566 -0.055282157
000070 72 30 3d 3d 54 b3 d2 bd 85 0a 37 be c1 c9 0b bd
       0.04618878 -0.102881104 -0.17875107 -0.034127954
000080 63 b9 93 bd ea dc 03 be 42 c8 d5 bc b0 ad 39 3d
       -0.07213094 -0.12877241 -0.026096467 0.045331657
000090 66 a5 18 be 3d a6 35 3e 01 12 01 3d c3 9e fc bc
       -0.14906844 0.17739196 0.03151131 -0.030837422
0000a0 66 96 35 3e 7c 96 23 be 87 37 7b 3d 97 61 58 3d
       0.17733154 -0.15975374 0.061332252 0.052827444
0000b0 e5 a9 ce bd 84 eb cf 3b 61 a0 5f bc 31 e8 91 3c
       -0.100909986 0.0063452143 -0.013649077 0.017810913
0000c0 90 be b9 3c 2e e5 a0 bc 12 da 72 bd 34 35 d3 3c
       0.022673875 -0.019640531 -0.05929 0.025782205
0000d0 27 79 8b 3d b4 9e e9 3d d5 2d ab bd f5 8e 19 3d
       0.06810217 0.11407223 -0.08358351 0.03748985
0000e0 a1 59 0c 3e 78 2a 7f bc 65 5e 1b 3e e0 4a 7c 3d
       0.13706066 -0.01557409 0.15172727 0.061594844
0000f0 4b ba b3 3c 26 e7 79 bd c1 03 80 bc 5f 7d e0 3b
       0.021939417 -0.061011456 -0.01562679 0.006850883

critic.4.weight f4 [1, 64]
000000 a4 44 c0 3d a4 34 32 3e 24 5b 58 be 89 31 e2 3d
       0.09388092 0.17402893 -0.21128517 0.11044604
000010 a5 96 12 be d8 11 12 3e 58 a6 c5 3d 62 26 46 3e
       -0.14315279 0.1426462 0.09650868 0.1935058
000020 11 59 49 be 2f 00 d6 3d 9a b6 dc bd 3f 41 e5 3d
       -0.19662882 0.10449254 -0.10777016 0.11194085
000030 ac 7e 0a be 7a 33 51 3e f6 b4 39 be fc 4a ba 3e
       -0.13524884 0.20429793 -0.18135437 0.36385334
000040 cb ea 2f be db 6b 14 3e b8 81 3e be 4f 13 f7 3c
       -0.1717941 0.14494269 -0.18604171 0.030160574
000050 51 c4 10 3e 1f f5 51 3e a1 e4 35 3e 1d 38 a4 3e
       0.14137389 0.20503663 0.17762996 0.3207406
000060 f1 eb 26 3e a1 56 8d 3e f8 b1 20 3e 60 90 c6 3c
       0.16300942 0.27605155 0.1569289 0.024238765
000070 04 2e f7 3d f4 cd a5 3e 72 b5 89 3d e7 26 5a 3e
       0.12069324 0.32383692 0.06724061 0.21303903
000080 fc 2b 62 3e 8c f7 25 be 57 ed 80 be 02 b0 7b be
       0.22087091 -0.16207713 -0.25181076 -0.2457886
000090 48 ff 09 3e 14 65 0d be cd 1a 9c be 6c 38 a6 be
       0.13476288 -0.1380809 -0.30489197 -0.3246492
0000a0 57 31 07 bd 79 4b da 3e 37 f7 96 3e 1d f6 89 3e
       -0.03300604 0.42635706 0.29485485 0.26945582
0000b0 e1 fa 83 3d 3e c9 58 bd e7 52 88 3e c8 35 c7 3d
       0.06444336 -0.052926295 0.2662575 0.09727055
0000c0 9e 35 56 be 02 4c 0d 3e b1 89 32 be 5e 2a e1 3d
       -0.20918891 0.13798526 -0.17435338 0.10994409
0000d0 2e 57 52 3e 28 09 12 be d0 b4 83 be db 79 45 3e
       0.20541069 -0.14261305 -0.25723886 0.19284765
0000e0 e6 fb 1f be 6a c5 86 3e 4c ae 16 3e 8f 98 9f 3e
       -0.15623435 0.2632249 0.14714926 0.3117108
0000f0 4a 72 44 3e 5b d0 ed bd 7a 26 bc 3d 5b 58 2f 3e
       0.19184223 -0.11612006 0.09187026 0.17123549
