models/017_Curriculum_Aim/017_Curriculum_Aim_latest.pth (torch, 47122 bytes, 11 tensors)

actor.0.weight f4 [64, 15]
0	0x3e14ad4f	0.14519237
1	0x3d510294	0.05102785
2	0xbe8610d6	-0.2618472
3	0xbe273469	-0.16328587
4	0x3e67928e	0.226145
5	0x3d68a544	0.056798235
6	0x3c164750	0.009172276
7	0x3e80baa7	0.25142404
8	0xbe19c3cd	-0.15016098
9	0x3e4e9d76	0.20177254
10	0xbdf9e674	-0.122021586
11	0x3dc787d0	0.09742701
12	0xbcab5460	-0.020914257
13	0xbe1d9d36	-0.15392002
14	0x3d03d9d0	0.032190144
15	0x3d8cda6a	0.06877597
16	0x3d081d43	0.03323103
17	0x3e8e5175	0.27796522
18	0x3cd5f040	0.026115537
19	0x3e74dc24	0.23912102
20	0x3deacbf1	0.1146468
21	0xbdef8d57	-0.1169688
22	0x3e0bfe26	0.13671169
23	0x3d530b4f	0.051524457
24	0xbe32df82	-0.17468074
25	0x3e1da420	0.1539464
26	0xbe3d2af6	-0.1847342
27	0x3e39257a	0.18080702
28	0x3e2d2408	0.16908276
29	0x3d8b1b08	0.06792265
30	0xbea2300e	-0.31677288
31	0xbd8f8ef2	-0.070096865
32	0x3cc7e42a	0.02440079
33	0x3d27c6ca	0.040961064
34	0x3e8c759a	0.27433473
35	0xbd2ef9f5	-0.042718846
36	0x3d7956f5	0.060873944
37	0xbed952bf	-0.42445943
38	0x3ea64048	0.32470918
39	0xbdb05418	-0.086097896
40	0x3cc56a54	0.024098553
41	0x3e8406c7	0.2578642
42	0xbe130ede	-0.1436114
43	0xbdd11a2e	-0.102100715
44	0x3c0daa00	0.008646488
45	0xbbbf3420	-0.005835071
46	0x3e13062d	0.14357825
47	0x3e0de0d0	0.1385529
48	0xbe1425f4	-0.14467603
49	0x3cdd908d	0.027046466
50	0x3e7ea15b	0.2486624
51	0xbe56950f	-0.20955299
52	0x3e7a6e53	0.24456148
53	0x3daa3ee6	0.08312778
54	0xbe02254e	-0.12709543
55	0xbe297ec6	-0.16552266
56	0xbe1d5cc4	-0.15367419
57	0x3c11b4e0	0.008893222
58	0x3e181550	0.1485188
59	0x3e4263c8	0.18983376
60	0xbe482350	-0.1954472
61	0x3caf1cfb	0.021376124
62	0x3ed4d7cd	0.41570893
63	0xbe4c4fd6	-0.1995233
64	0x3d487f5c	0.048949584
65	0x3cb8c57c	0.022555105
66	0x3de43867	0.111435704
67	0x3e213943	0.157445
68	0x3da6ae69	0.08138735
69	0x3e107f17	0.14110981
70	0x3d03c503	0.032170307
71	0xbe826429	-0.2546704
72	0x3e62ed3e	0.22160813
73	0xbe2a7144	-0.1664477
74	0xbe28f6be	-0.16500375
75	0xbbfebcd0	-0.007773973
76	0xbd2b79f0	-0.041864336
77	0x3d818b11	0.06325353
78	0xbe93cecb	-0.28868708
79	0x3e0440ca	0.1291534
80	0xbdec7753	-0.11546197
81	0x3e1097c7	0.14120398
82	0x3da5876c	0.0808247
83	0x3ea19197	0.3155639
84	0xbca0c7c3	-0.019626504
85	0x3d9f9704	0.07792476
86	0x3e20fbc6	0.15721044
87	0xbe1a6820	-0.15078783
88	0xbe3f5828	-0.18685973
89	0x3d4c7e88	0.049925357
90	0xbe3e9832	-0.18612745
91	0xbe7e9d8a	-0.24864784
92	0x3e902bae	0.28158325
93	0xbd99a7f8	-0.075027406
94	0xbed7fbcb	-0.4218429
95	0x3ea24eac	0.31700647
96	0x3d6005dd	0.05469309
97	0x3de08769	0.109633274
98	0xbe22ecf1	-0.15910698
99	0x3d7531ac	0.059861824
100	0x3dac8297	0.084233455
101	0x3daa3768	0.08311349
102	0xbe7cdcd7	-0.24693619
103	0x3db29060	0.087189436
104	0x3d9495ac	0.0725511
105	0xbcb7290e	-0.022358444
106	0xbe29f8fe	-0.16598889
107	0xbb839dcf	-0.004016615
108	0xbd2fc621	-0.04291356
109	0xbd98cea0	-0.074612856
110	0xbd940ff0	-0.07229602
111	0xbdbdecc5	-0.09273676
112	0x3d9e22a9	0.07721455
113	0x3de09012	0.10964979
114	0x3e27d5ee	0.16390201
115	0x3e671ae4	0.22568852
116	0xbe74c9a3	-0.23905043
117	0x3e2a3cb0	0.16624713
118	0x3e1c6f98	0.15276945
119	0x3e2d1ed0	0.16906285
120	0x3e896ca7	0.26840708
121	0xbe0b0a19	-0.1357807
122	0x3e6c5860	0.23080587
123	0x3cacf290	0.021111757
124	0xbdff6ee9	-0.12472326
125	0x3c9bfabe	0.019040462
126	0xbd8a0084	-0.067383796
127	0xbe36c203	-0.17847447
128	0x3d838b14	0.064230114
129	0x3e1ec98e	0.15506575
130	0xbb666662	-0.003515624
131	0xbe09661a	-0.13417855
132	0x3e33d8b8	0.1756314
133	0x3c1d90e0	0.00961706
134	0x3e134e5c	0.1438536
135	0x3d5a2af2	0.053263612
136	0xbd20159d	-0.039083112
137	0xbeb43d45	-0.35202995
138	0x3dc9f62a	0.09861405
139	0x3dde814d	0.10864506
140	0xbdcf16fb	-0.10111805
141	0x3dbc68b9	0.09199662
142	0x3d2a781f	0.041618463
143	0x3e279077	0.16363703
144	0xbe4c8a74	-0.1997469
145	0xbe873016	-0.26403874
146	0xbe79b53a	-0.24385539
147	0xbdc2b000	-0.095062256
148	0xbd132c00	-0.035930634
149	0xbd225370	-0.039630353
150	0xbd5110b8	-0.051041335
151	0xbdb29e09	-0.08721549
152	0x3eb7bd38	0.3588655
153	0x3d445c05	0.04793932
154	0xbd96af76	-0.07357685
155	0xbe6b5554	-0.22981769
156	0x3dc6c16d	0.09704862
157	0xbe4758a2	-0.19467404
158	0x3e27c15f	0.16382359
159	0x3dd5713e	0.1042199
160	0xbc69d531	-0.01427202
161	0x3e093414	0.13398772
162	0x3e047370	0.12934661
163	0x3e018c14	0.12651092
164	0xbbda2580	-0.0066573024
165	0xbdd91315	-0.10599343
166	0xbd19616b	-0.03744642
167	0xbeb6d965	-0.35712734
168	0xbdd1c272	-0.102421656
169	0xbdf0a781	-0.11750699
170	0xbe0fe4d9	-0.14052142
171	0x3dc0a4d4	0.094064385
172	0xbf0cb71f	-0.5496692
173	0x3e84b903	0.25922403
174	0xbe12e3a7	-0.14344655
175	0xbd9bcea6	-0.076077744
176	0xbde8b584	-0.11362746
177	0xbe3ab7e8	-0.18234217
178	0x3e2700f0	0.16308951
179	0xbe2b3a35	-0.16721423
180	0xbe2619d5	-0.16220792
181	0x3e0b60b0	0.13611102
182	0xbe2c8b4e	-0.16850016
183	0x3e2d1d28	0.16905653
184	0x3eb70c66	0.35751647
185	0xbda37132	-0.07980575
186	0x3d437a80	0.047724247
187	0xbe3a21de	-0.18176982
188	0x3e81125b	0.25209317
189	0x3c9b5b8e	0.018964555
190	0xbe852a72	-0.26008946
191	0xbddd18c0	-0.10795736
192	0x3e0915e0	0.13387251
193	0xbc37aeb0	-0.011211082
194	0x3da33a28	0.07970077
195	0x3bc71c33	0.0060763597
196	0x3b7e35d7	0.0038789415
197	0xbd984532	-0.07435073
198	0xbe8632dc	-0.26210678
199	0x3eb8c951	0.36091092
200	0xbe30dc7f	-0.17271613
201	0x3d7822a5	0.060579915
202	0xbeeec876	-0.46637315
203	0x3d82c9ce	0.063861474
204	0x3c1d1c70	0.0095893
205	0xbe884e64	-0.26622307
206	0x3e8020ab	0.25024924
207	0xbe1841dc	-0.14868873
208	0xbe472cd6	-0.19450697
209	0x3dd0d340	0.10196543
210	0xbca60e15	-0.020270387
211	0xbdda768b	-0.106671415
212	0xbe9268a6	-0.28595465
213	0xbc3248cc	-0.010881614
214	0xbd930ae4	-0.071798116
215	0x3eab524b	0.33461222
216	0xbc992540	-0.01869452
217	0x3de92a94	0.11385074
218	0xbd85aa82	-0.065266624
219	0xbd0f8f98	-0.03504905
220	0x3da4778a	0.08030613
221	0xbe0a5d58	-0.1351217
222	0x3e432fa0	0.19061136
223	0x3e2ac996	0.16678461
224	0x3e0f23fe	0.13978574
225	0xbddb0d06	-0.106958434
226	0xbda5894e	-0.080828294
227	0xbcfedda8	-0.031111553
228	0xbdfcc781	-0.1234274
229	0x3d93e4fa	0.07221408
230	0xbeb1841e	-0.3467111
231	0x3ca30837	0.019901378
232	0xbe85ec59	-0.2615688
233	0xbe900c7a	-0.2813452
234	0x3e46c679	0.19411649
235	0x3e16c4d5	0.14723523
236	0x3d3f8120	0.046754003
237	0x3e056c88	0.13029683
238	0x3e806853	0.25079593
239	0x3db13978	0.086535394
240	0xbe14f21c	-0.14545482
241	0x3e4a11ef	0.19733404
242	0xbdbbe867	-0.091751866
243	0x3e8e8062	0.27832323
244	0x3e609b60	0.21934271
245	0x3d0fa516	0.035069548
246	0xbe3aa49f	-0.1822686
247	0x3e82136c	0.25405443
248	0xbda81f11	-0.082090504
249	0x3c2dc994	0.010607142
250	0x3dc48480	0.09595585
251	0x3de1ab88	0.11019045
252	0xbe70121d	-0.2344441
253	0x3e5c128e	0.21491453
254	0xbe68769e	-0.22701499
255	0x3e3b961f	0.18318985

actor.0.bias f4 [64]
0	0xbe3c4cab	-0.18388622
1	0x3e3d3bf5	0.18479903
2	0x3e282c37	0.16423117
3	0x3d632cb2	0.055462547
4	0xbe3336ab	-0.17501323
5	0x3dcea3b9	0.10089821
6	0x3df4befb	0.11950489
7	0xbbc8d88c	-0.00612933
8	0xbcc8f8a3	-0.024532622
9	0x3e5092e5	0.20368536
10	0xbd39b29f	-0.045336362
11	0x3da908f1	0.082536586
12	0x3d94ab7e	0.07259272
13	0x3d5a57ae	0.053306274
14	0x3e2bd1bf	0.1677923
15	0xbdc4470a	-0.09583862
16	0xbe77d0d7	-0.2420076
17	0xbdee10ae	-0.11624275
18	0xbcb961e5	-0.022629688
19	0xbe2e5c4a	-0.17027393
20	0xbe04d0a5	-0.12970217
21	0xbdf9849a	-0.12183495
22	0x3db7ecf4	0.08980742
23	0x3e5d066c	0.21584481
24	0x3d5cb5c5	0.053884286
25	0xbd594b85	-0.053050537
26	0x3dbf2e7b	0.09335037
27	0x3e1e0614	0.15432006
28	0xbcd64dad	-0.026160086
29	0x3c030001	0.007995606
30	0x3e87c369	0.26516274
31	0xbe4ba637	-0.19887625
32	0xbdcd3eb4	-0.10021725
33	0x3d8f1635	0.069866575
34	0xbd4e520b	-0.05037121
35	0xbe208f40	-0.15679646
36	0xbb6934eb	-0.003558452
37	0xbd8452d9	-0.064611144
38	0xbe22b56b	-0.15889518
39	0xbe35f126	-0.17767772
40	0x3de877d8	0.113509834
41	0x3e1f14d1	0.15535285
42	0xbd4d7597	-0.05016097
43	0x3e6ef147	0.23334228
44	0xbe3cccf1	-0.18437554
45	0x3d22b367	0.039721873
46	0x3d1c5d73	0.038175058
47	0xbe4f6da1	-0.20256664
48	0xbe0c9c80	-0.13731575
49	0x3d38e072	0.045135923
50	0x3d3f5485	0.046711463
51	0xbc0a0055	-0.008422931
52	0x3d0bcb15	0.03412922
53	0x3e2762c8	0.16346276
54	0x3da80b9b	0.082053386
55	0x3e3171a5	0.17328508
56	0xbe7792e5	-0.2417713
57	0xbdcb5daf	-0.09929978
58	0x3a5db00e	0.0008456715
59	0xbde83a59	-0.11339254
60	0x3e1b6676	0.15175804
61	0x3da31a58	0.07964009
62	0x3d8262d3	0.063665055
63	0xbdac7e26	-0.084224984

actor.2.weight f4 [64, 64]
0	0x3d997a9c	0.07494089
1	0xbd8f24d4	-0.06989446
2	0x3d098a89	0.033579383
3	0x3c5c47ac	0.013444822
4	0x3e08f18d	0.13373394
5	0xbdac8a8d	-0.08424864
6	0xbdc07e8f	-0.09399139
7	0xbd1864fa	-0.037205674
8	0x3d2855fc	0.041097626
9	0xbd2bbb6f	-0.041926797
10	0x3e250b1c	0.16117519
11	0xbd7985ae	-0.060918503
12	0xbc8b4b3b	-0.017003646
13	0xbdbb6bd3	-0.09151425
14	0xbcd22917	-0.025654359
15	0xbd458ad6	-0.048228107
16	0xbce5622c	-0.028000914
17	0x3dfdec6c	0.123986095
18	0x3debaf90	0.11508095
19	0x3d867313	0.065649174
20	0xbda9e645	-0.082958736
21	0x3dde6cce	0.108605966
22	0x3d3435e8	0.04399672
23	0x3dfbb2b4	0.12289944
24	0x3c998e9f	0.018744765
25	0x3d8d4d7d	0.06899545
26	0x3cf2a0d1	0.029617699
27	0x3dbb6b82	0.09151365
28	0xbdee5ae4	-0.1163843
29	0xbba40c94	-0.0050063822
30	0x3d980e71	0.074246295
31	0xbd1aa3f0	-0.037754
32	0xbdaffa17	-0.08592623
33	0xbd937fc5	-0.072021045
34	0xbb08d669	-0.0020879752
35	0xbb9e3cd4	-0.0048290286
36	0xbe0651d7	-0.13117157
37	0x3de0c4c1	0.10975028
38	0xbdcca827	-0.0999301
39	0xbda511df	-0.08060049
40	0xbd6b1206	-0.057390235
41	0xbd9cbffc	-0.076538056
42	0xbbc50bf2	-0.006013387
43	0xbd9c2c83	-0.076256774
44	0xbdbbe617	-0.091747455
45	0xbd381748	-0.044944078
46	0x3d62df67	0.055388834
47	0x3da23680	0.07920551
48	0xbbfd6d13	-0.00773395
49	0x3d58a2a3	0.052889477
50	0x3cd349e3	0.025792068
51	0xbdb51aa6	-0.088429734
52	0xbd9d464d	-0.076794244
53	0xbc5786f3	-0.013154733
54	0x3dd1493a	0.10219045
55	0x3bd9d2e8	0.0066474564
56	0x3d29f5df	0.041494247
57	0x3cd157cb	0.025554558
58	0xbd17f368	-0.037097365
59	0xbd00e3dc	-0.031467304
60	0xbdf29a18	-0.11845797
61	0x3dd9ea57	0.106404
62	0xbd7979e4	-0.06090726
63	0x3d24c8a4	0.04023041
64	0xbbdcf962	-0.006743596
65	0x3dc6fda9	0.097163506
66	0x3dc04553	0.093882225
67	0xbdac3a38	-0.08409542
68	0x3e037b9b	0.1284012
69	0x3d75ccf6	0.06000992
70	0x3dd1b29c	0.10239145
71	0xbca47f90	-0.020080358
72	0x3deb726a	0.11496432
73	0x3da47309	0.08029754
74	0xbd815fd5	-0.06317107
75	0xbd3bb0ad	-0.045822788
76	0x3e10f8e4	0.14157444
77	0x3de1ed3d	0.11031578
78	0xbd093c38	-0.033504695
79	0x3d95f1a5	0.07321481
80	0xbc66cf22	-0.01408747
81	0xbd21da55	-0.03951486
82	0x3d887daf	0.06664597
83	0xbdadf2c9	-0.08493573
84	0xbddd8cd4	-0.108178765
85	0xbd7f061b	-0.062261682
86	0xbdaa5ddd	-0.08318684
87	0x3d49822b	0.049196403
88	0x3e167f8c	0.14697093
89	0x3c80e010	0.015731841
90	0xbdb74a01	-0.08949662
91	0x3cfe6ca9	0.031057673
92	0xbd986b75	-0.07442371
93	0x3d838263	0.06421354
94	0x3d0bd6d0	0.034140408
95	0x3d06d5db	0.032918792
96	0x3dc60ed4	0.09670797
97	0xbd4f92dc	-0.050677165
98	0x3d6eef98	0.058333963
99	0x3c9ee06c	0.019394122
100	0xbc6c7e87	-0.014434463
101	0x3e0a70f6	0.13519654
102	0x3e1e00ea	0.15430036
103	0x3dd6370e	0.104597196
104	0xbc948615	-0.018130342
105	0x3c6fbb15	0.014632006
106	0xbe120607	-0.14260112
107	0xbb1d600c	-0.0024013547
108	0x3dd88ce2	0.10573746
109	0xbd95a12c	-0.07306132
110	0x3bbc4645	0.0057456815
111	0xbc93334b	-0.017968794
112	0x3dcdad5a	0.1004283
113	0xbdf42546	-0.11921172
114	0xbd6c5796	-0.057700716
115	0xbd993054	-0.07479921
116	0x3d8a068e	0.067395315
117	0x3d71a1d9	0.05899224
118	0x3dae6ad3	0.08516469
119	0xbd6330a5	-0.055466313
120	0x3db2ed12	0.08736624
121	0xbb8db8e7	-0.0043250206
122	0x3d4c69a4	0.049905434
123	0x3dad6659	0.08466787
124	0xbbee3a42	-0.0072701285
125	0x3d96399e	0.07335208
126	0x3d8104ac	0.06299719
127	0x3ded3354	0.11582056
128	0x3d8b5462	0.06803204
129	0x3d66bef0	0.056334436
130	0xbdf0ebcf	-0.11763727
131	0xbd89c3a1	-0.067267664
132	0x3c546323	0.012963089
133	0x3bcd2a69	0.006261159
134	0x3d8e0d85	0.069361724
135	0xbcee53d5	-0.029092709
136	0x3e014428	0.12623656
137	0xbda7ef82	-0.08199979
138	0xbe06ab3e	-0.13151261
139	0xbdae0b48	-0.084982455
140	0xbd0b10a3	-0.033951413
141	0xbdad7d31	-0.08471144
142	0x3e192da8	0.14958823
143	0xbd7922e5	-0.060824294
144	0x3dd1c5f8	0.10242838
145	0x3dbda8ff	0.09260749
146	0xbcb8cad0	-0.022557646
147	0xbd01df3b	-0.03170703
148	0xbdec20a2	-0.11529662
149	0x3e0ea812	0.13931301
150	0xbd639cbf	-0.055569407
151	0xbb81c92b	-0.0039607487
152	0xbdc3228b	-0.09528073
153	0x3c5bb42e	0.013409657
154	0x3dd9d3b2	0.10636081
155	0xbd1dd22f	-0.038530525
156	0x3ce01457	0.027353449
157	0x3d217999	0.039422605
158	0x3e093c10	0.13401818
159	0xbdc6c4f5	-0.09705535
160	0x3d5e445a	0.054264404
161	0xbd9a3130	-0.07528913
162	0x3d145444	0.036213174
163	0x3bda3ee6	0.00666033
164	0xbcec64f7	-0.028856738
165	0x3dbb525c	0.09146568
166	0xbc6a43b2	-0.014298366
167	0x3dadf083	0.084931396
168	0x3b3ac6c7	0.0028499828
169	0x3db03766	0.086043164
170	0xbdc3cd10	-0.09560597
171	0x3d9e5dc8	0.07732731
172	0x3d9241ee	0.07141481
173	0x3d84db87	0.06487184
174	0xbd85d881	-0.065354355
175	0xbd833faf	-0.06408631
176	0xbcf358cd	-0.02970543
177	0xbe0e7f10	-0.13915658
178	0x3de60590	0.1123153
179	0x3d200c6a	0.03907434
180	0xbdb320e6	-0.08746509
181	0x3d8c41cd	0.06848488
182	0x3b58e0c1	0.0033092948
183	0x3dab9455	0.083779015
184	0xbd9c10e9	-0.07620413
185	0xbd4e9fcb	-0.05044536
186	0x3db11d56	0.086481735
187	0x3cab7450	0.020929486
188	0x3d9210a2	0.07132079
189	0x3c609f2e	0.013709826
190	0x3cc7d34f	0.024392752
191	0x3dd491d6	0.103793785
192	0xbbbb06b9	-0.0057075885
193	0x3c1a0c56	0.009402355
194	0x3ccf5b8e	0.025312211
195	0x3d128027	0.035766747
196	0x3de64cc2	0.11245109
197	0xbdb928be	-0.09040974
198	0xbd9efa22	-0.07762553
199	0xbdc97823	-0.098373674
200	0x3dc073e7	0.093971066
201	0x3e038081	0.12841989
202	0x3da04421	0.078254946
203	0xbdb042fa	-0.08606525
204	0xbdcba2b1	-0.0994314
205	0x3d520e13	0.051282953
206	0xbd898eee	-0.06716715
207	0x3e25aaa0	0.1617837
208	0x3d3ed778	0.046592206
209	0xbdda5073	-0.10659876
210	0x3df38a36	0.11891596
211	0x3deb15fd	0.11478803
212	0xbda04ce4	-0.07827166
213	0x3d8153e7	0.06314831
214	0xbddae2b2	-0.1068777
215	0x3dc4609c	0.09588739
216	0x3c927001	0.017875673
217	0xbdb6b085	-0.08920387
218	0xbe03f551	-0.1288655
219	0x3d70db2c	0.05880277
220	0x3d8da6d9	0.06916589
221	0xbd669f4f	-0.056304272
222	0xbde468fa	-0.11152835
223	0xbdf8744f	-0.12131559
224	0x3b5a02a8	0.0033265743
225	0x3d785f6d	0.06063788
226	0xbe093468	-0.13398898
227	0x3cc3cf93	0.02390269
228	0xbd89e94a	-0.067339495
229	0x3c884209	0.01663305
230	0x3cd96776	0.026538592
231	0xbceb234e	-0.028703358
232	0x3e03398c	0.12814921
233	0x3de56cbb	0.11202379
234	0xbceb7cd6	-0.02874605
235	0x3d2d2555	0.04227193
236	0xbd37902b	-0.044815224
237	0x3de3da83	0.11125662
238	0x3d9b37e9	0.075790234
239	0xbcb8b90b	-0.022549173
240	0xbcdd982f	-0.027050106
241	0x3e10789e	0.14108512
242	0xbe012a41	-0.12613775
243	0x3dec1818	0.11528033
244	0x3d89cf66	0.06729011
245	0x3d6af79b	0.05736504
246	0x3dbdfca9	0.09276707
247	0xbdf4337f	-0.119238846
248	0x3ca53c9b	0.0201705
249	0xbd1c480f	-0.038154658
250	0x3db40c87	0.08791452
251	0xbd54f7e4	-0.05199422
252	0xbb850c3e	-0.0040602973
253	0xbc37300e	-0.011180891
254	0xbd5e1be6	-0.054225825
255	0x3db4ae0e	0.08822261

actor.2.bias f4 [64]
0	0xbd290ecf	-0.04127389
1	0x3e087ec1	0.13329603
2	0x3c4de8cf	0.012567713
3	0x3d02efcc	0.03196697
4	0x3d9a6d98	0.075404346
5	0x3d28743b	0.04112647
6	0x3d149043	0.03627039
7	0x3d0b02e7	0.033938315
8	0xbdbe021b	-0.09277745
9	0xbddcd678	-0.10783094
10	0xbd79b27e	-0.06096124
11	0xbda705e9	-0.08155424
12	0xbdc01e22	-0.093807474
13	0xbd68bcad	-0.05682056
14	0xbb7701be	-0.0037690247
15	0x3d860a05	0.0654488
16	0x3d645291	0.055742804
17	0x3df59ee0	0.119931936
18	0xbd4fefeb	-0.050765913
19	0x3d8cc001	0.06872559
20	0xbde2f91c	-0.1108267
21	0xbc84f6fa	-0.016231049
22	0xbc23f130	-0.010006234
23	0x3ddeeeaa	0.10885365
24	0xbda37f6b	-0.079832874
25	0xbd44bb99	-0.04803047
26	0xbdaaac9f	-0.08333706
27	0xbc592b47	-0.013254947
28	0x3d214efd	0.03938197
29	0xbd5efead	-0.054442097
30	0xbdadffa3	-0.084960245
31	0x3d0f3f6c	0.034972593
32	0x3c88e689	0.01671149
33	0x3ce649e7	0.028111411
34	0xbbca7a6b	-0.006179144
35	0xbdbc10c7	-0.091828875
36	0xbd81c6e5	-0.06336764
37	0x3dc78ae4	0.09743288
38	0xbd7b30c4	-0.061325803
39	0xbd12ecde	-0.035870425
40	0xbd38d572	-0.045125432
41	0x3d387004	0.0450287
42	0xbd49d4f4	-0.049275354
43	0xbc83c050	-0.016082913
44	0xbdddd6d1	-0.108319886
45	0xbb8401a9	-0.004028518
46	0x3d7342a7	0.059389737
47	0x3d88acad	0.0667356
48	0xbb2a86cd	-0.002602029
49	0xbd06d1ad	-0.032914806
50	0x3cd35570	0.025797576
51	0xbda738b6	-0.08165114
52	0x3c879bfb	0.01655387
53	0xbd4de042	-0.050262697
54	0xbd7fe0d8	-0.062470287
55	0xbda21e9f	-0.07915997
56	0x3acfee81	0.0015863926
57	0x3c5215b2	0.012822555
58	0x3ca98525	0.020693371
59	0x3cc4eeea	0.024039704
60	0x3d96d10e	0.07364093
61	0x3db4b0df	0.08822798
62	0x3dfd0d41	0.123560436
63	0xbd0b4cd1	-0.034008805

actor.4.weight f4 [2, 64]
0	0x3ba6efad	0.0050944895
1	0xbdb43c9e	-0.08800624
2	0x3c79f101	0.015255214
3	0xbcd603ea	-0.026124913
4	0xbc2c6ab9	-0.010523492
5	0xbb242394	-0.002504562
6	0x3d1b8f86	0.03797867
7	0xbcb8d9dc	-0.022564821
8	0xbc8457f8	-0.016155228
9	0x3c399ea4	0.011329327
10	0x3bb5fe43	0.005553992
11	0xbdaa13fb	-0.08304592
12	0x3d41395b	0.04717384
13	0x3c6354c6	0.013875192
14	0xbc956f9b	-0.018241694
15	0xbdb8b18b	-0.09018239
16	0xbc687f74	-0.014190543
17	0xbc910bcf	-0.017705826
18	0x3b15e1ff	0.00228703
19	0xbbf8b7cd	-0.00759027
20	0x3ce325f5	0.02772806
21	0x3d15401f	0.036438104
22	0x3d1c5823	0.03816999
23	0xbd8d0e51	-0.06887496
24	0x3daacdf6	0.08340065
25	0xbd00ec27	-0.031475212
26	0x3c25e24f	0.010124757
27	0x3b67a5e0	0.0035346672
28	0xbb46cc93	-0.0030334338
29	0x38784cef	5.9199458e-05
30	0x3d2db614	0.04240997
31	0xbda5e34f	-0.08099996
32	0x3c09653d	0.0083859535
33	0x3d04b942	0.032403238
34	0x3c4052f4	0.011738528
35	0x3dae78f5	0.085191645
36	0x3b7982d6	0.003807237
37	0xbcdb789f	-0.026790915
38	0x3c234d4d	0.00996716
39	0xbc8c635d	-0.017137224
40	0x3b624ed8	0.0034531858
41	0x3737ed59	1.0962912e-05
42	0x3bbcfc1f	0.00576736
43	0x3cdc9531	0.026926609
44	0x3d833c80	0.06408024
45	0xbcde2fea	-0.027122457
46	0xbc16253e	-0.009164153
47	0xbbdc1bba	-0.0067171725
48	0x3b821e0c	0.003970867
49	0x3cb23e7e	0.021758314
50	0x3b7c826b	0.0038529884
51	0x3c4b42c1	0.012406052
52	0x3d934735	0.07191316
53	0x3ade1852	0.0016944504
54	0x3ce57f6c	0.028014861
55	0x3d3ab2b2	0.045580573
56	0xbc1dc404	-0.009629253
57	0xbd1029a5	-0.035195965
58	0xbb499004	-0.0030756006
59	0xbdbacdf6	-0.09121315
60	0x3ca7b8ec	0.02047392
61	0x3c0c3483	0.008557442
62	0xbded70ce	-0.115937814
63	0xbb96290f	-0.0045825313
64	0x3bed0150	0.0072328225
65	0x3d9838b3	0.074326895
66	0xbc7c886e	-0.015413387
67	0x3c853723	0.016261643
68	0x3ce1f6ca	0.027583499
69	0xbc41a3b9	-0.01181882
70	0xbc11a7bc	-0.008890089
71	0x3d310c3d	0.043224562
72	0x3c7707fa	0.015077585
73	0xbcd03189	-0.025414245
74	0xbcc22fa4	-0.023704357
75	0x3d8038a4	0.06260803
76	0xbba94e15	-0.005166779
77	0x3d416d06	0.047223113
78	0x3cd0a507	0.025469316
79	0x3d80c1d0	0.06286967
80	0x3c884559	0.01663463
81	0x3d750e4b	0.059828084
82	0xbc915587	-0.017740978
83	0x3c0c8e9d	0.0085789235
84	0xbc96aef8	-0.018393978
85	0xbc2e730f	-0.010647549
86	0xbd46031c	-0.04834281
87	0xbd427f6d	-0.047484804
88	0xbd83d8c4	-0.06437829
89	0xbda76007	-0.08172613
90	0x3ae6007c	0.0017547752
91	0x3c299e9e	0.010352759
92	0xbc9d2008	-0.019180313
93	0x3c909604	0.017649658
94	0xbbf248a1	-0.007393912
95	0x3d179344	0.037005678
96	0xbba33be1	-0.0049815034
97	0xbd3d1ac4	-0.046168104
98	0xbc05db6b	-0.008169989
99	0x3c2cc1a3	0.0105442135
100	0xbc7253fb	-0.01479053
101	0x3c8ceea6	0.01720364
102	0xbd1397af	-0.03603333
103	0x3d189c31	0.03725833
104	0x3c33e84a	0.010980675
105	0x3cba9ce5	0.022779891
106	0xbcd40d25	-0.025885174
107	0x3a8efb52	0.001090864
108	0xbcf54ea7	-0.02994473
109	0xbd0a8a9d	-0.0338236
110	0x3d3b7f27	0.04577556
111	0x3c9d1910	0.01917699
112	0xbbf54fcd	-0.0074863196
113	0xbc7131d9	-0.014721357
114	0x3ce804b1	0.02832255
115	0xbca73cc5	-0.02041472
116	0xbd59609e	-0.053070657
117	0x3c4da4ba	0.012551481
118	0xbd23d669	-0.0399994
119	0xbc03abbb	-0.008036549
120	0x3c95d497	0.018289847
121	0x3d84dc2f	0.06487309
122	0xbbdf159d	-0.0068079964
123	0x3da1a703	0.07893183
124	0x3d99fc3c	0.07518813
125	0x3ccce0b7	0.025009496
126	0xbbffdddd	-0.0078084306
127	0x3cb22e1e	0.021750506

actor.4.bias f4 [2]
0	0xbe0e54cb	-0.13899533
1	0x3e1c4ae0	0.15262938

critic.0.weight f4 [64, 15]
0	0xbe59387f	-0.21212958
1	0x3dd4bc12	0.10387434
2	0xbdf9a9d4	-0.12190595
3	0xbe81dba1	-0.25362876
4	0xbdb9b71e	-0.0906813
5	0x3ed6f5cb	0.419844
6	0x3dad8d1f	0.08474182
7	0xbc9be1ac	-0.019028507
8	0xbe186322	-0.14881566
9	0x3e5f9860	0.2183547
10	0xbd973e71	-0.07384957
11	0xbe5599c0	-0.20859432
12	0xbe5f8117	-0.21826588
13	0x3e3c8ab6	0.18412289
14	0xbd8f0740	-0.06983805
15	0x3e111d9a	0.14171448
16	0x3e32bf0f	0.17455696
17	0xbd264c12	-0.04059989
18	0x3de2037c	0.11035821
19	0xbd3dbc8f	-0.0463224
20	0x3e54e85c	0.20791763
21	0xbcdfe41f	-0.027330456
22	0x3e1cb3d2	0.15302971
23	0x3d666f94	0.056258753
24	0x3e4f2751	0.20229842
25	0x3d29c1cd	0.04144459
26	0xbd8a5620	-0.06754708
27	0xbe042bbd	-0.1290731
28	0x3d1551a8	0.036454827
29	0x3d415278	0.04719779
30	0x3e149948	0.14511597
31	0x3e82ae5e	0.25523657
32	0xbd29650c	-0.04135613
33	0x3e4ed2a4	0.2019754
34	0x3db83d93	0.08996119
35	0x3e94f3a3	0.2909213
36	0x3dfee35c	0.12445709
37	0x3ecb6a8a	0.3972972
38	0xbde45d55	-0.11150614
39	0x3d90eb49	0.07076127
40	0x3e362a0a	0.17789474
41	0xbcd4e2d0	-0.025987059
42	0xbe6ecd65	-0.2332054
43	0x3e558b98	0.20854032
44	0x3d77cfe0	0.06050098
45	0xbe0b573e	-0.13607499
46	0x3d651333	0.055926513
47	0x3e6c1ba7	0.23057424
48	0x3dd45cd1	0.10369266
49	0xbe4bf44a	-0.19917408
50	0xbe3588a8	-0.17727911
51	0xbea65d87	-0.3249323
52	0x3e03619f	0.12830208
53	0xbe86228a	-0.26198226
54	0x3c484c1b	0.012225176
55	0xbda55bc7	-0.08074146
56	0xbe67584c	-0.22592276
57	0x3da3d8c0	0.08000326
58	0xbe284462	-0.16432336
59	0xbd172ac0	-0.036906004
60	0x3c4db78e	0.01255597
61	0x3e821636	0.2540757
62	0xbd022174	-0.031770185
63	0x3d77908b	0.06044058
64	0x3d2fa436	0.042881213
65	0x3ee9ce2c	0.4566511
66	0xbd2bd451	-0.041950528
67	0x3e9137b1	0.28362802
68	0xbd6ac97b	-0.057321053
69	0xbd368175	-0.044557054
70	0xbc3ab34c	-0.011395287
71	0xbe41c1da	-0.18921605
72	0xbe7505f3	-0.2392805
73	0x3df6e7b0	0.1205591
74	0xbe3fced6	-0.18731245
75	0x3e1149da	0.14188328
76	0x3cb95614	0.022624053
77	0xbe85aedf	-0.2610998
78	0xbbe24b1e	-0.0069059273
79	0xbe6cecde	-0.23137233
80	0xbea95287	-0.33070776
81	0xbdd9b01d	-0.10629294
82	0x3d5080ac	0.05090396
83	0x3dfd3712	0.123640195
84	0xbdab0923	-0.08351352
85	0x3e9b005a	0.30273706
86	0x3e1b46d6	0.1516374
87	0xbdda9422	-0.10672785
88	0x3e03feec	0.12890214
89	0x3e47e746	0.19521818
90	0xbe05aae3	-0.1305347
91	0x3e0d5c2b	0.1380469
92	0xbd664f70	-0.0562281
93	0x3d1218b1	0.03566808
94	0x3e009d30	0.12559962
95	0x3e44c07a	0.19214049
96	0xbe389f95	-0.18029626
97	0x3e265e53	0.1624692
98	0x3df14069	0.117798634
99	0x3e241cc5	0.160266
100	0x3d850592	0.06495203
101	0x3d8395b0	0.06425035
102	0xbdb9a502	-0.09064676
103	0x3e490ebc	0.19634527
104	0x3d232170	0.03982681
105	0x3c8a261d	0.016863877
106	0x3dde6a0a	0.10860069
107	0xbd68a84b	-0.05680112
108	0xbdb3756e	-0.08762632
109	0x3ec68ac7	0.38777754
110	0xbd2292cc	-0.039690778
111	0xbc9ab562	-0.018885318
112	0xbd63b69b	-0.055594068
113	0xbedb5eec	-0.42845857
114	0xbe22a48f	-0.15883087
115	0x3e44fc37	0.19236837
116	0x3e52414a	0.20532718
117	0xbe1e3426	-0.1544958
118	0x3e4382dc	0.19092888
119	0xbdda70a6	-0.10666017
120	0x3e23e62a	0.1600577
121	0x3e583e7f	0.2111759
122	0xbc4904d1	-0.012269215
123	0x3e689df8	0.2271651
124	0xbcee0200	-0.029053688
125	0x3e2aed66	0.16692123
126	0x3e3ec1cc	0.18628615
127	0x3e977d45	0.2958776
128	0x3afd241a	0.0019313127
129	0x3e1caf9c	0.15301365
130	0x3d2a4347	0.041568067
131	0xbde238bc	-0.110459775
132	0x3e3a7dda	0.18212071
133	0xbe0ae8a0	-0.13565302
134	0x3d815ca4	0.06316498
135	0xbc9e0d2e	-0.019293394
136	0xbc29cf4e	-0.010364367
137	0x3e4c0e6c	0.19927377
138	0x3db9957e	0.090617165
139	0xbe0afd9d	-0.13573308
140	0xbe3dfcfc	-0.18553537
141	0x3e2a618e	0.16638777
142	0x3e240b4c	0.16019934
143	0x3ddf5d6e	0.10906492
144	0xbe288271	-0.1645601
145	0xbe141b30	-0.14463496
146	0x3dd06818	0.10176104
147	0xbe50abc7	-0.20378028
148	0x3c97b7d0	0.018520266
149	0x3e1db7dc	0.15402168
150	0xbe924322	-0.28566843
151	0xbe818bee	-0.2530207
152	0xbcac4bc7	-0.021032227
153	0x3e66d695	0.22542794
154	0xbbc3fb4c	-0.0059808847
155	0xbeecc946	-0.4624731
156	0x3dda8ddf	0.10671591
157	0xbec3590e	-0.3815388
158	0x3e3a2253	0.18177156
159	0xbd3aa8f8	-0.045571297
160	0xbe93d799	-0.28875425
161	0xbdd2f648	-0.10300881
162	0x3d4185e0	0.047246814
163	0xbe1a84af	-0.15089677
164	0x3e1bbc4c	0.15208548
165	0x3e4cdbe4	0.20005757
166	0x3dcf0d82	0.10109998
167	0xbe8a698a	-0.27033645
168	0xbe2849a4	-0.16434342
169	0xbe30c51a	-0.17262688
170	0x3dd67d00	0.104730606
171	0xbd3565da	-0.044286586
172	0xbd9398b5	-0.07206861
173	0xbe6b4b5f	-0.2297797
174	0x3d84d0e5	0.06485156
175	0xbd12b505	-0.035817165
176	0x3e4a98d6	0.19784865
177	0x3b894680	0.0041893125
178	0xbe0caf1d	-0.13738675
179	0x3df03210	0.11728299
180	0x3e8ecb4d	0.2788948
181	0x3dfafc82	0.12255193
182	0x3e0d8e2d	0.13823767
183	0xbd9a90d9	-0.07547159
184	0xbd1954d7	-0.037434425
185	0x3e8895df	0.26676843
186	0x3ce675ad	0.028132284
187	0xbb8bd750	-0.0042676106
188	0xbd201b3a	-0.039088465
189	0x3def817b	0.11694618
190	0xbda09b56	-0.07842128
191	0xbd14792c	-0.03624837
192	0xbe1f4862	-0.15554956
193	0xbe79bab7	-0.24387632
194	0x3e2e9fce	0.17053148
195	0xbe29cdbd	-0.16582389
196	0x3e95e3f8	0.2927549
197	0x3c20aaac	0.009806316
198	0x3dd8d6a6	0.10587816
199	0xbdb44c5c	-0.08803627
200	0x3efb8ec5	0.49132362
201	0xbdabe53a	-0.08393331
202	0x3ec8708c	0.39148366
203	0x3d7ca824	0.06168379
204	0x3d1c5e27	0.03817573
205	0x3e742f5b	0.2384619
206	0xbe81704a	-0.25280982
207	0x3dd8d008	0.10586554
208	0x3e6e581e	0.23275802
209	0x3c8da800	0.017292023
210	0xbe299e5b	-0.16564314
211	0xbb5616d5	-0.0032667418
212	0xbb86d276	-0.0041144444
213	0x3e887c53	0.26657352
214	0xbd98afa6	-0.07455377
215	0xbec91472	-0.3927341
216	0xbd9f9d0b	-0.077936254
217	0xbe81a07e	-0.25317758
218	0x3e108180	0.141119
219	0xbe1396b3	-0.14412956
220	0x3da124b7	0.07868331
221	0xbe024868	-0.12722933
222	0x3e1e4804	0.1545716
223	0xbe26f78b	-0.16305368
224	0xbe2a6273	-0.16639118
225	0x3c5df3af	0.013546868
226	0xbde63aff	-0.11241721
227	0xbcc892f6	-0.024484139
228	0xbdcacf05	-0.09902767
229	0xbcdb4800	-0.02676773
230	0xbe2603e8	-0.16212428
231	0x3e60053a	0.21876994
232	0xbe8ec9bb	-0.27888283
233	0x3d6c75a7	0.05772939
234	0x3e78a869	0.24282993
235	0xbe23c3cf	-0.15992664
236	0x3e77dd66	0.2420555
237	0x3c935440	0.01798451
238	0x3e72db42	0.23716453
239	0x3c58bfe0	0.01322934
240	0xbe57a0da	-0.21057454
241	0xbe4a303d	-0.19744964
242	0xbabddb07	-0.0014484831
243	0xbec1550a	-0.37760192
244	0x3dd465c2	0.10370971
245	0xbea4dca5	-0.32199588
246	0xbecec944	-0.40387928
247	0xbea81ae3	-0.32833013
248	0x3e48df6f	0.19616483
249	0xbe7e5c67	-0.24839936
250	0xbe2a06a6	-0.16604099
251	0x3e4701ec	0.19434327
252	0xbe0b271c	-0.13589138
253	0x3e68164c	0.22664756
254	0x3e7a69ce	0.24454424
255	0x3cf639bf	0.030056832

critic.0.bias f4 [64]
0	0xbd5dfd82	-0.054196842
1	0xbda9da2c	-0.08293566
2	0x3d1480fa	0.036255814
3	0xbe087d1c	-0.13328975
4	0x3e1e5e82	0.1546574
5	0x3d5b2d63	0.05351008
6	0xbde68e40	-0.11257601
7	0x3d470c60	0.048595786
8	0xbdf97818	-0.12181109
9	0xbc6f5404	-0.014607433
10	0xbe939b1a	-0.2882927
11	0x3d2e45a6	0.04254689
12	0x3e07630e	0.1322138
13	0x3e866d3e	0.2625522
14	0x3ce9aed6	0.028525751
15	0xbe4568d1	-0.19278266
16	0x3dcf53c3	0.10123398
17	0x3e769ee1	0.24084045
18	0xbd97dc86	-0.074151084
19	0xbe38fe9b	-0.18065874
20	0x3e582c65	0.21110685
21	0xbd970d59	-0.07375593
22	0x3d3d89a2	0.046273835
23	0x3e5825d2	0.21108177
24	0xbd3bfa7e	-0.045893185
25	0x3c053862	0.0081311185
26	0x3da606cb	0.081067644
27	0xbaf57b0f	-0.0018728691
28	0xbe4c3d1a	-0.19945183
29	0x3e29ccd7	0.16582046
30	0xbcf95bf1	-0.030439349
31	0x3e5e4cf2	0.2170904
32	0x3de5a0b6	0.11212294
33	0x3d22df9f	0.039764043
34	0xbe69972f	-0.22811578
35	0x3dbdb05c	0.092621535
36	0x3da72027	0.081604294
37	0xbdf0ef75	-0.11764423
38	0x3d204f2d	0.039138008
39	0xbe09586e	-0.1341264
40	0x3e88d493	0.2672468
41	0xbc97991d	-0.018505627
42	0x3e18ca5f	0.14920948
43	0xbe1f0fea	-0.15533414
44	0xbe3cce2d	-0.18438025
45	0xbe811afa	-0.25215894
46	0xbdc8dd60	-0.09807849
47	0x3e264d90	0.16240525
48	0xbe490734	-0.19631654
49	0xbdccca8f	-0.099995725
50	0x3d63208d	0.055450965
51	0x3e03aa3b	0.12857907
52	0xbe4376a9	-0.19088234
53	0x3dc85217	0.097812824
54	0xbe5e57cb	-0.21713178
55	0xbd942da8	-0.07235271
56	0xbd1a3ff3	-0.037658643
57	0x3e396196	0.18103632
58	0x3cf37928	0.029720858
59	0x3e13bd61	0.14427711
60	0xbb5168d2	-0.0031953347
61	0x3cf0e798	0.029407308
62	0xbc730084	-0.014831666
63	0xbe895c37	-0.26828167

critic.2.weight f4 [64, 64]
0	0xbdb63573	-0.088969134
1	0xbdc8b125	-0.09799413
2	0xbe06d1fc	-0.1316604
3	0x3d0a499e	0.033761613
4	0xbe010878	-0.12600887
5	0xbde8a4cd	-0.11359558
6	0xbb59873f	-0.0033192185
7	0x3e08f9db	0.13376562
8	0xbe0214d4	-0.12703258
9	0x3b899166	0.004198241
10	0x3e491b34	0.19639283
11	0x3d915e19	0.07098026
12	0xbdc8953f	-0.097940914
13	0x3d1f86a2	0.038946755
14	0x3cba4b71	0.022741051
15	0xbda40005	-0.08007816
16	0x3d10b7cb	0.03533153
17	0x3dcbe500	0.09955788
18	0x3cf3c289	0.029755848
19	0x3dbaf825	0.09129361
20	0xbd415c6e	-0.04720729
21	0x3cb78b94	0.022405423
22	0xbdd0ebcd	-0.102012254
23	0xbdc01d79	-0.093806215
24	0x3d483a6c	0.04888384
25	0x3c4c7f99	0.0124815935
26	0xbde91cc7	-0.11382442
27	0xbc981097	-0.018562598
28	0xbd1d4df0	-0.038404405
29	0x3c6b1c10	0.014349952
30	0xba71024e	-0.0009193764
31	0xbdf82899	-0.121171184
32	0xbda24603	-0.0792351
33	0xbddb2a5e	-0.1070144
34	0x3d135725	0.03597178
35	0x3d913ff3	0.070922755
36	0xbd213c53	-0.03936417
37	0xbc458842	-0.012056412
38	0x3e0be2f3	0.13660793
39	0x3c81466e	0.015780654
40	0x3c37d96f	0.011221274
41	0xbd996cd6	-0.07491462
42	0x3c1ffb8c	0.009764563
43	0xbc0ab2cd	-0.008465481
44	0x3cdbed1b	0.02684646
45	0xbdaa531b	-0.08316632
46	0xbc6e75b6	-0.014554432
47	0xbdab9480	-0.083779335
48	0xbbe5034b	-0.006988918
49	0x3df89146	0.12137084
50	0x3d788604	0.060674682
51	0x3da78a37	0.08180659
52	0x3e43afaa	0.1910998
53	0xbdc42820	-0.09577966
54	0x3dbcef78	0.092253625
55	0xbd5de991	-0.054177824
56	0xbd9c042b	-0.076179825
57	0x3ce12de0	0.027487695
58	0xbdb26988	-0.08711535
59	0xbceb059c	-0.028689198
60	0xbd468323	-0.048464905
61	0x3cc55ff0	0.024093598
62	0x3df1f8c5	0.11815027
63	0xbd9d7557	-0.076883964
64	0xbcd3fda1	-0.025877776
65	0xbd3b4895	-0.045723516
66	0xbd97b8f8	-0.07408327
67	0xbb95cb58	-0.0045713596
68	0xbdbb41cc	-0.09143409
69	0xbbcb831b	-0.0062106973
70	0x3d3a2961	0.04544962
71	0x3d4e05e7	0.050298598
72	0x3d88b695	0.0667545
73	0x3e0025bc	0.12514395
74	0xbd9068ff	-0.070512764
75	0x3d9d4c33	0.076805495
76	0x3e016377	0.12635599
77	0xbd1a65fc	-0.037694916
78	0xbe069c6a	-0.13145605
79	0x3d006c79	0.031353448
80	0x3d84bd72	0.06481446
81	0xbc8f6398	-0.017503545
82	0xbd1deb43	-0.03855444
83	0x3d2c558c	0.04207377
84	0x3c4870d6	0.012233933
85	0x3dbae267	0.09125214
86	0x3d308802	0.043098457
87	0x3e0171f4	0.12641126
88	0xbbc93024	-0.006139772
89	0x3e0f6010	0.14001489
90	0x3dd9bc6d	0.106316425
91	0x3dd7c3d3	0.105353974
92	0xbd1115f3	-0.035421323
93	0xbdc357a8	-0.095382035
94	0xbd8736d2	-0.06602253
95	0x3d5bdddc	0.05367838
96	0x3d830b2c	0.06398615
97	0xbc3cd78b	-0.011525999
98	0x3ceeb7f9	0.02914046
99	0xbd17e2ab	-0.0370814
100	0xbd81ef27	-0.06344443
101	0xbdbb1d1d	-0.09136412
102	0xbd924655	-0.07142321
103	0xbc8e5182	-0.01737285
104	0xbda1568e	-0.07877837
105	0xbba7a62d	-0.0051162452
106	0xbccfcdb9	-0.02536665
107	0x3d406518	0.04697141
108	0x3dba4a9a	0.0909626
109	0xbc9fcda7	-0.019507242
110	0x3d71ba2f	0.05901545
111	0xbc96337c	-0.018335097
112	0xbe025067	-0.12725984
113	0xbc073fde	-0.008254973
114	0x3db3b39f	0.087744944
115	0xbcfd4a98	-0.030919358
116	0x3d73ec60	0.059551597
117	0x3da11249	0.07864816
118	0x3d791824	0.060814038
119	0x3cd42ab2	0.025899265
120	0xbe0b475a	-0.13601437
121	0x3d8e217a	0.06939979
122	0x3da6efc5	0.08151201
123	0xbcbbb4cc	-0.02291336
124	0x3d806ad0	0.06270373
125	0xbe006fa2	-0.12542585
126	0xbdb67c1e	-0.08910392
127	0x3cdf1db1	0.027235838
128	0xbcdbdf70	-0.026839942
129	0x3cc2bef3	0.023772692
130	0xbd066c53	-0.03281815
131	0xbde2919d	-0.1106293
132	0x3ca94db6	0.020666938
133	0xbd13eb0a	-0.036112823
134	0xbc3ad43f	-0.0114031425
135	0xbd5eadc4	-0.054364935
136	0xbda06c17	-0.078331165
137	0x3c07ee87	0.008296615
138	0x3df58ae3	0.11989381
139	0x3e0083fa	0.12550345
140	0xbca94bd0	-0.020666033
141	0xbdb05bfb	-0.08611294
142	0xbdb002a6	-0.08594255
143	0x3cac4c20	0.021032393
144	0x3da66863	0.08125379
145	0x3d953945	0.07286314
146	0x3e0deea9	0.13860573
147	0x3dc608b1	0.096696265
148	0x3d60d834	0.054893687
149	0x3d70b052	0.058761902
150	0xbc153fd1	-0.009109453
151	0xbd98af7e	-0.074553475
152	0xbd9388c0	-0.07203817
153	0x3d04407f	0.03228807
154	0xbca56430	-0.020189375
155	0xbc99f208	-0.018792167
156	0x3d2e062d	0.04248636
157	0x3c481e2f	0.012214228
158	0xbd6ae2f1	-0.057345334
159	0xbdb61990	-0.088915944
160	0x3d1ff3cc	0.039050862
161	0xbdeb309a	-0.114838794
162	0xbd797023	-0.060897958
163	0x3dbaa253	0.09112992
164	0xbdcd36f8	-0.1002025
165	0xbdaad9a7	-0.08342295
166	0xbd314b5f	-0.04328477
167	0xbd2495cb	-0.040181916
168	0xbdeadf6a	-0.11468394
169	0xbbf43f66	-0.0074538467
170	0x3de566dd	0.1120126
171	0xbe05646c	-0.13026589
172	0x3dbc3ff4	0.091918856
173	0xbdc82d2e	-0.09774242
174	0x3d29598b	0.04134516
175	0xbc32890d	-0.010896933
176	0xbde97018	-0.11398333
177	0x3c1dff99	0.009643459
178	0xbde18ed4	-0.110135704
179	0x3d804f1d	0.0626509
180	0x3ce650f4	0.028114773
181	0xbbc8d05b	-0.0061283535
182	0x3ca06e33	0.019583797
183	0xbd1b53b2	-0.037921615
184	0xbd5050d7	-0.050858345
185	0x3d975500	0.07389259
186	0x3d4d8374	0.05017419
187	0x3d346ee8	0.04405108
188	0xbc87a0e7	-0.016556216
189	0x3c33c131	0.010971353
190	0x3d06db6c	0.0329241
191	0x3d79438e	0.06085544
192	0x3c02b60a	0.007977972
193	0xbbb583f4	-0.0055394117
194	0xbe0c6bfe	-0.13713071
195	0x3dfbe115	0.1229879
196	0xbcce5fef	-0.02519223
197	0x3cb4554f	0.022013335
198	0xbda9e207	-0.082950644
199	0x3cfe9fed	0.031082118
200	0xbdcb534e	-0.099279985
201	0x3da39d81	0.07989026
202	0xbd6be081	-0.05758715
203	0xbddc3838	-0.107529104
204	0x3afb2313	0.0019160233
205	0x3d67893f	0.056527372
206	0x3e23ad00	0.15983963
207	0xbcb8a974	-0.022541739
208	0xbd39a2fb	-0.045321446
209	0xbc95d874	-0.01829169
210	0xbdbca61f	-0.092113726
211	0xbd950dc6	-0.07278018
212	0xbdd4a76d	-0.103834964
213	0x3d2b053d	0.041753042
214	0xbd504295	-0.050844748
215	0xbcae0bd9	-0.021245884
216	0x3d83ba54	0.06432024
217	0xbd4f4379	-0.050601456
218	0xbddc7eb4	-0.10766354
219	0x3da11d07	0.07866865
220	0xbd98e8bb	-0.07466265
221	0xbd6178bd	-0.055046786
222	0x3e064a9e	0.13114402
223	0xbd2382e7	-0.03991976
224	0xbd6cda31	-0.05782527
225	0x3dd94de5	0.1061056
226	0x3df49df3	0.11944189
227	0xbda15946	-0.07878356
228	0x3cab4a72	0.020909522
229	0x3d58e162	0.052949317
230	0x3deaa43c	0.114571065
231	0x3e189dad	0.14903899
232	0xbc582f95	-0.013194938
233	0xbe0b6917	-0.13614307
234	0xbc761ef9	-0.015022033
235	0xbdab9f55	-0.083799995
236	0x3d3834a9	0.044972096
237	0xbd67b814	-0.056572035
238	0xbdc2306a	-0.094818905
239	0xbce47709	-0.027888792
240	0xbd058353	-0.032595944
241	0xbd4a8d88	-0.04945138
242	0x3e18577e	0.14877126
243	0xbb2fccb0	-0.0026824884
244	0xbd399126	-0.04530444
245	0xbe07a578	-0.13246715
246	0xbb792463	-0.0038016073
247	0x3c33b303	0.010967973
248	0x3d9afd00	0.07567787
249	0x3e26a077	0.1627215
250	0xbdc69f31	-0.09698332
251	0x3e11750b	0.14204805
252	0x3d2aecf5	0.041729886
253	0x3dc670d7	0.09689491
254	0xbda6a2c2	-0.08136512
255	0x3e062dc8	0.13103402

critic.2.bias f4 [64]
0	0xbcffe4a2	-0.03123695
1	0x3d2029aa	0.039102234
2	0x3be01666	0.0068386076
3	0x3cc09266	0.023507308
4	0x3d593a64	0.0530342
5	0x3cdb8ce5	0.026800582
6	0xbe2520e4	-0.16125828
7	0x3dcb1320	0.09915757
8	0xbc93ef8d	-0.018058563
9	0xbd5d31c4	-0.05400254
10	0xbe14dbb3	-0.14536934
11	0x3e06f72c	0.13180226
12	0xbcfc76fa	-0.030818451
13	0x3bd6a663	0.0065505966
14	0xbba10a2c	-0.0049145427
15	0x3c4fe9b3	0.012689996
16	0xba3d5331	-0.00072221743
17	0xbcf2d54e	-0.029642727
18	0xbd85c188	-0.06531054
19	0xbd2d2a6e	-0.042276792
20	0xbd72fd53	-0.05932362
21	0x3d83a05f	0.06427073
22	0xbdae407c	-0.08508393
23	0x3d2fc419	0.042911623
24	0xbd5dd1ee	-0.054155283
25	0xbd85e4a7	-0.065377526
26	0x3dd32da0	0.10311437
27	0x3d6fd3fc	0.058551773
28	0xbd903d77	-0.070429735
29	0x3a99d4bd	0.0011736375
30	0x3c6b3a1a	0.014357114
31	0x3d847a60	0.06468654
32	0x3d6f0571	0.0583548
33	0x3dcf775c	0.10130188
34	0xbd97ffc8	-0.07421833
35	0x3d8f6f54	0.07003656
36	0x3d1007de	0.035163753
37	0x3d64f665	0.055899043
38	0xbdb36eef	-0.08761393
39	0xbdcb61a5	-0.099307336
40	0xbe2e3e93	-0.17016058
41	0x3b6199e8	0.003442401
42	0x3da0c95b	0.078509055
43	0xbc92e970	-0.017933577
44	0x3e069ab3	0.1314495
45	0xbdd7266d	-0.10505376
46	0xbcc967de	-0.02458566
47	0x3d767448	0.06016949
48	0xbdca58f2	-0.09880246
49	0x3c863a07	0.016385091
50	0x3ba6552a	0.0050760703
51	0x3e1605ed	0.14650698
52	0xbc434756	-0.011918863
53	0xbda2181c	-0.07914755
54	0x3e2b285b	0.16714613
55	0x3d82077e	0.06349085
56	0xbd8be340	-0.06830454
57	0xbd9ebaa9	-0.07750446
58	0x3da0b646	0.07847266
59	0x3d56fd36	0.052487575
60	0x3b8d8dbd	0.004319875
61	0x3d32ed75	0.043683488
62	0xbc22fff3	-0.009948718
63	0xbd804dea	-0.06264861

critic.4.weight f4 [1, 64]
0	0x3db7e663	0.0897949
1	0xb9f359ca	-0.0004641547
2	0x3d1326b2	0.035925575
3	0x3d648853	0.05579407
4	0xbaa4e176	-0.00125794
5	0xbd97a59e	-0.07404636
6	0x3d50375a	0.050834037
7	0xbde45e5a	-0.11150809
8	0xbdcebf7a	-0.10095115
9	0x3a945e65	0.0011319636
10	0x3d43764c	0.04772024
11	0xbde0caf8	-0.10976213
12	0xbdc95616	-0.09830873
13	0xba44326f	-0.0007484322
14	0x3dbad83e	0.09123276
15	0xb9edd490	-0.00045362534
16	0xbdc5cf34	-0.096586615
17	0x3d65a52c	0.056065723
18	0x3dde34ee	0.10849939
19	0x3d92f8cc	0.071763605
20	0x3dcda0fc	0.10040471
21	0x3a65e5dd	0.0008769909
22	0xba5b5a8d	-0.000836768
23	0xb9717d3b	-0.00023030203
24	0x3d997917	0.07493799
25	0xbd98644c	-0.07441005
26	0xbde67ae9	-0.11253912
27	0xbe0ca7ab	-0.13735835
28	0x3cd3e541	0.025866153
29	0xba22ae30	-0.00062057655
30	0x3e06f767	0.13180314
31	0x3d99fe23	0.07519176
32	0xbd75679b	-0.05991326
33	0xbdacc4ab	-0.08435949
34	0x3a1be0aa	0.00059462583
35	0x3d7e2f58	0.06205687
36	0x3ac0aab9	0.0014699317
37	0x3ad38e16	0.0016140367
38	0x3a241dd7	0.000626055
39	0x3d5ddc1b	0.054164987
40	0x3d7eb658	0.062185615
41	0xbe26267b	-0.16225617
42	0xbd82de47	-0.06390052
43	0x3bc47121	0.0059949313
44	0xbc877285	-0.0165341
45	0x3d1bb53c	0.038014635
46	0xbb39b97d	-0.002833932
47	0x3c32a56a	0.010903696
48	0x3d8f519c	0.06997988
49	0xbbebf4d3	-0.007200816
50	0xb99d3770	-0.00029986678
51	0xbdf41bc7	-0.119193606
52	0x3db762ed	0.089544155
53	0x3d656d69	0.056012545
54	0xbe12a6d9	-0.1432146
55	0x3d88ba4c	0.06676158
56	0xbd0d6402	-0.034519203
57	0xbe0ecd6c	-0.1394555
58	0x3d79cae9	0.060984526
59	0xb801f580	-3.0984636e-05
60	0xbd1a7284	-0.037706867
61	0x3b0897f0	0.0020842515
62	0x3aad0fe6	0.0013203591
63	0x3c68dd25	0.014212881
