models/017_Curriculum_Aim/017_Curriculum_Aim_best.pth (torch, 47090 bytes, 11 tensors)

actor.0.weight f4 [64, 15]
0.13091317 0.04990031 -0.26515698 -0.17748241 0.24047022 0.05273146 -0.0056652953 0.23917206
-0.15214562 0.20064531 -0.13630086 0.09742701 -0.020914257 -0.15392002 0.032190144 0.05892871
0.035696093 0.27740043 0.0124921575 0.21412218 0.08680343 -0.12295796 0.115058936 -0.016247999
-0.17221548 0.14409958 -0.1847342 0.18080702 0.16908276 0.06792265 -0.31764913 -0.07145196
0.023994168 0.0417742 0.30033007 -0.014854056 0.057021804 -0.39319545 0.34751585 -0.08745299
0.023222523 0.2578642 -0.1436114 -0.102100715 0.008646488 -0.005465499 0.14450008 0.1550415
-0.15778585 -0.016538855 0.23433861 -0.20017563 0.22620012 0.011270936 -0.1261736 -0.16515282
-0.15367419 0.008893222 0.1485188 0.18983376 -0.19212392 0.022300484 0.41281208 -0.19705611
0.06956722 0.030486727 0.11461424 0.12979332 0.11112179 0.14203417 0.03549329 -0.2546704
0.22160813 -0.1664477 -0.16500375 -0.009678595 -0.042766463 0.07185672 -0.28250492 0.15733872
-0.094297335 0.13554485 0.09247324 0.3481908 -0.020528583 0.07602013 0.15721044 -0.15078783
-0.18685973 0.049925357 -0.17626677 -0.24757479 0.29391557 -0.06693919 -0.4365209 0.31873524
0.064884655 0.12147927 -0.15398543 0.060934562 0.09409436 0.08311349 -0.24693619 0.087189436
0.0725511 -0.02413781 -0.15615062 -0.0004812506 -0.044180576 -0.07129457 -0.080349594 -0.093897864
0.083193704 0.10019571 0.17374028 0.22390908 -0.23905043 0.16624713 0.15276945 0.16906285
0.26458007 -0.1312608 0.24421974 0.012812984 -0.15754373 -0.018684395 -0.067281514 -0.21429242
0.033442494 0.15958565 -0.0073420987 -0.13417855 0.1756314 0.00961706 0.1438536 0.0557451
-0.043083344 -0.35770133 0.109131895 0.1595203 -0.07025849 0.09095836 0.059546843 0.21550196
-0.20374694 -0.26155686 -0.24385539 -0.095062256 -0.035930634 -0.039630353 -0.06149789 -0.0880416
0.36571732 0.037739575 -0.024143072 -0.21607791 0.0848763 -0.19464603 0.21398361 0.103393786
-0.024728667 0.13398772 0.12934661 0.12651092 -0.0066573024 -0.09452574 -0.043326687 -0.3780098
-0.08299242 -0.07032168 -0.084079996 0.100015625 -0.4963461 0.3009964 -0.14932695 -0.06461006
-0.11362746 -0.18234217 0.16308951 -0.16721423 -0.1737356 0.13450466 -0.17431875 0.16087595
0.39199382 -0.06471037 0.03316548 -0.17881012 0.26616398 0.017358383 -0.27161765 -0.10795736
0.13387251 -0.011211082 0.07970077 0.00035504857 0.001189373 -0.07519255 -0.26582402 0.39856237
-0.14434879 0.051272564 -0.42695102 0.09523873 0.0068997275 -0.2719444 0.25024924 -0.14868873
-0.19450697 0.10196543 -0.026457742 -0.10855878 -0.28601706 -0.016139569 -0.05247509 0.35673365
-0.028309371 0.14820966 -0.04747486 -0.036936324 0.07411881 -0.1351217 0.19061136 0.16678461
0.13978574 -0.10570905 -0.08669101 -0.04835861 -0.11952743 0.119951926 -0.30670255 0.01652217
-0.22567613 -0.22483112 0.18825333 0.14848503 0.046754003 0.13029683 0.25079593 0.086535394
-0.15259695 0.20177265 -0.10593612 0.2596402 0.20312876 0.01074517 -0.18460768 0.23731966
-0.108812034 0.01504527 0.088813424 0.11019045 -0.2344441 0.21491453 -0.22701499 0.18996988
00000000: 1a0e 063e 4464 4c3d a8c2 87be f3bd 35be
00000010: d33d 763e f2fc 573d f1a3 b9bb 85e9 743e
00000020: 10cc 1bbe f775 4d3e 7492 0bbe d087 c73d
00000030: 6054 abbc 369d 1dbe d0d9 033d 3b5f 713d
00000040: 1136 123d 6e07 8e3e e8ab 4c3c d842 5b3e
00000050: ffc5 b13d 62d1 fbbd 05a4 eb3d 861a 85bc
00000060: 4159 30be d78e 133e f62a 3dbe 7a25 393e
00000070: 0824 2d3e 081b 8b3d e8a2 a2be 6855 92bd
00000080: 6b8f c43c 6c1b 2b3d ddc4 993e 6d5e 73bc
00000090: b28f 693d ea50 c9be 99ed b13e 8e1a b3bd
000000a0: 293d be3c c706 843e de0e 13be 2e1a d1bd
000000b0: 00aa 0d3c ee17 b3bb d4f7 133e 33c3 1e3e
000000c0: 9d92 21be 7e7c 87bc 76f6 6f3e d7fa 4cbe
000000d0: 01a1 673e bba9 383c a733 01be d21d 29be
000000e0: c45c 1dbe e0b4 113c 5015 183e c863 423e
000000f0: 22bc 44be 81af b63c 1b5c d33e 14c9 49be
00000100: 4279 8e3d 4dbf f93c dfba ea3d 8ae8 043e
00000110: d293 e33d 6871 113e 6961 113d 2964 82be
00000120: 3eed 623e 4471 2abe bef6 28be f892 1ebc
00000130: e32b 2fbd 9e29 933d 7ca4 90be 671d 213e
00000140: f61e c1bd 45cc 0a3e 9c62 bd3d 1146 b23e
00000150: 8f2b a8bc 71b0 9b3d c6fb 203e 2068 1abe
00000160: 2858 3fbe 887e 4c3d 477f 34be 3f84 7dbe
00000170: 1a7c 963e 6a17 89bd ab7f dfbe 4431 a33e
00000180: 3fe2 843d 20ca f83d 5bae 1dbe 8596 793d
00000190: 8bb4 c03d 6837 aa3d d7dc 7cbe 6090 b23d
000001a0: ac95 943d a8bc c5bc f3e5 1fbe 5d50 fcb9
000001b0: b1f6 34bd e302 92bd 548e a4bd 864d c0bd
000001c0: 7661 aa3d 6933 cd3d f9e8 313e 6c48 653e
000001d0: a3c9 74be b03c 2a3e 986f 1c3e d01e 2d3e
000001e0: 0a77 873e 3b69 06be bd14 7a3e 8ded 513c
000001f0: 2553 21be 0410 99bc e4ca 89bd 796f 5bbe
00000200: fffa 083d 6c6a 233e fd95 f0bb 1a66 09be
00000210: b8d8 333e e090 1d3c 5c4e 133e f954 643d
00000220: 2978 30bd a124 b7be 8b80 df3d 4a59 233e
00000230: afe3 8fbd 6048 ba3d 64e7 733d 8cac 5c3e
00000240: 0aa3 50be c8ea 85be 3ab5 79be 00b0 c2bd
00000250: 002c 13bd 7053 22bd 36e5 7bbd 284f b4bd
00000260: 4d3f bb3e d094 1a3d b1c7 c5bc 8743 5dbe
00000270: a0d3 ad3d 4a51 47be 851e 5b3e 1fc0 d33d
00000280: c693 cabc 1434 093e 7073 043e 148c 013e
00000290: 8025 dabb b696 c1bd 5377 31bd 808a c1be
000002a0: eef7 a9bd d004 90bd 2232 acbd fed4 cc3d
000002b0: 1321 febe 331c 9a3e 2ae9 18be 4752 84bd
000002c0: 84b5 e8bd e8b7 3abe f000 273e 353a 2bbe
000002d0: bfe7 31be 97bb 093e 9d80 32be aabc 243e
000002e0: 6ab3 c83e df86 84bd 87d8 073d 001a 37be
000002f0: a546 883e 2b33 8e3c 7811 8bbe c018 ddbd
00000300: e015 093e b0ae 37bc 283a a33d d025 ba39
00000310: bce4 9b3a 8dfe 99bd 161a 88be 5e10 cc3e
00000320: 2bd0 13be 2e03 523d 5399 dabe 860c c33d
00000330: 1c17 e23b 4c3c 8bbe ab20 803e dc41 18be
00000340: d62c 47be 40d3 d03d e8bd d8bc 1154 debd
00000350: d470 92be 2137 84bc 1ff0 56bd cba5 b63e
00000360: 0ee9 e7bc 46c4 173e 0075 42bd 8b4a 17bd
00000370: 9acb 973d 585d 0abe a02f 433e 96c9 2a3e
00000380: fe23 0f3e fd7d d8bd 0e8b b1bd ae13 46bd
00000390: ccca f4bd 5ba9 f53d 1e08 9dbe 8059 873c
000003a0: a517 67be 213a 66be 7bc5 403e 760c 183e
000003b0: 2081 3f3d 886c 053e 5368 803e 7839 b13d
000003c0: 6042 1cbe 7d9d 4e3e 09f5 d8bd 8fef 843e
000003d0: fc00 503e 820c 303c cc09 3dbe ed03 733e
000003e0: d8d8 debd 7080 763c d0e3 b53d 88ab e13d
000003f0: 1d12 70be 8e12 5c3e 9e76 68be 7787 423e

actor.0.bias f4 [64]
-0.18501344 0.18726431 0.16287598 0.05638447 -0.17408887 0.09999604 0.12057751 0.0037089216
-0.020012727 0.19968532 -0.04616225 0.07665643 0.07098659 0.050616905 0.16590479 -0.10170135
-0.23756899 -0.12040248 -0.027012885 -0.16747531 -0.13013145 -0.12257219 0.09809759 0.21416706
0.05175105 -0.05511003 0.09874991 0.1525434 -0.026534524 0.00540536 0.2649111 -0.19890034
-0.09544087 0.06534867 -0.04904197 -0.16065657 -0.001289969 -0.07170712 -0.1613024 -0.1752482
0.117569715 0.16324048 -0.054412518 0.2334949 -0.18191159 0.033356093 0.03673216 -0.1985713
-0.13682383 0.044765085 0.058554154 -0.010826499 0.034139875 0.16683263 0.08077345 0.17433968
-0.24027348 -0.09634347 -0.0053593935 -0.11808782 0.15559056 0.07967686 0.066756964 -0.091644324
00000000: 2a74 3dbe 37c2 3f3e f6c8 263e 67f3 663d
00000010: 5a44 32be b9ca cc3d 57f1 f63d 6111 733b
00000020: bbf1 a3bc 4f7a 4c3e a114 3dbd 0cfe 9c3d
00000030: 6b61 913d ac53 4f3d f2e2 293e cc48 d0bd
00000040: 4945 73be 9395 f6bd 204a ddbc a67e 2bbe
00000050: 2e41 05be 2107 fbbd 64e7 c83d 9c4e 5b3e
00000060: e9f8 533d 0ebb 61bd 653d ca3d 5634 1c3e
00000070: ee5e d9bc 721f b13b 6da2 873e 88ac 4bbe
00000080: 8176 c3bd 86d5 853d 3ce0 48bd 2883 24be
00000090: 2d14 a9ba 2fdb 92bd 752c 25be 4474 33be
000000a0: 64c8 f03d 8328 273e a9df 5ebd 4919 6f3e
000000b0: 0847 3abe 66a0 083d 7674 163d 4656 4bbe
000000c0: 8c1b 0cbe 985b 373d 7bd6 6f3d a161 31bc
000000d0: 41d6 0b3d 2cd6 2a3e 8d6c a53d 1a86 323e
000000e0: 400a 76be ba4f c5bd da9d afbb 07d8 f1bd
000000f0: 2253 1f3e 9f2d a33d e0b7 883d 05b0 bbbd

actor.2.weight f4 [64, 64]
0.076205686 -0.061140805 0.057101082 0.016560104 0.12655981 -0.07905458 -0.104351215 -0.040210266
0.045676533 -0.049727965 0.15479672 -0.06734883 -0.010976088 -0.080301784 -0.02715272 -0.038921203
-0.034946155 0.11545966 0.102632284 0.06348781 -0.09008212 0.114558466 0.04769191 0.12422089
0.02763251 0.06790924 0.020606702 0.08492426 -0.11924508 -0.014867226 0.07870958 -0.04243708
-0.08442775 -0.075807504 -0.009876221 0.005161551 -0.12659824 0.102343924 -0.09473787 -0.08625665
-0.052474353 -0.083537675 -0.0016932632 -0.067844525 -0.08578024 -0.04279434 0.061247475 0.07434451
-0.012508914 0.04584195 0.027639983 -0.08710233 -0.074038565 -0.018179987 0.10719682 0.014804553
0.031218598 0.03482001 -0.038326662 -0.03761293 -0.11986587 0.11223257 -0.069730766 0.040708356
-0.007430583 0.09492774 0.12845676 -0.08761278 0.12629484 0.066636376 0.09978353 -0.023089102
0.11277448 0.084694624 -0.06181956 -0.04050541 0.13848399 0.106503025 -0.032666154 0.0657153
-0.023236278 -0.04164882 0.06941805 -0.084381044 -0.1071341 -0.06544346 -0.08480707 0.045532767
0.14238253 0.0138134165 -0.07998769 0.03844879 -0.06123585 0.07137108 0.04402749 0.029118488
0.09693506 -0.043367423 0.062646516 0.01778867 -0.017053828 0.12537403 0.1513307 0.10846067
-0.01895808 0.01347578 -0.14650023 0.013106409 0.114212856 -0.07339223 0.0051120417 -0.03009486
0.104409255 -0.13446328 -0.051309668 -0.07927684 0.06340875 0.053049147 0.08181238 -0.055341315
0.08493852 -0.005959484 0.052846227 0.091391854 -0.008229711 0.068550184 0.06485992 0.11774232
0.063094676 0.054946385 -0.13014105 -0.06632099 0.019299874 0.0048621334 0.07834004 -0.02873513
0.13141665 -0.08635374 -0.12403194 -0.08633719 -0.03562966 -0.088480964 0.14343713 -0.057883482
0.10182798 0.09682933 -0.013965681 -0.024047958 -0.11493632 0.13036887 -0.054343034 -0.0017454947
-0.095143266 0.014601692 0.099832095 -0.034155495 0.0409504 0.045848154 0.13567565 -0.089187
0.054376945 -0.080930635 0.037980907 0.003061501 -0.024938611 0.098345734 -0.013053884 0.0860087
0.0033910307 0.08324307 -0.09676857 0.079936594 0.062180728 0.06650414 -0.06498492 -0.071762145
-0.030855069 -0.13953607 0.107775725 0.040650666 -0.08691257 0.05956363 0.0047011343 0.07512829
-0.0660683 -0.05247165 0.084164605 0.02540732 0.072852984 0.0111110965 0.026608968 0.10446614
-0.0034170956 0.016520739 0.03709903 0.040097564 0.10862989 -0.09246696 -0.08513147 -0.093719535
0.09428693 0.12772284 0.0723997 -0.08819173 -0.09867219 0.053501256 -0.06494653 0.15417661
0.05126787 -0.11655581 0.10992176 0.11131797 -0.08447852 0.072017714 -0.102037586 0.09161452
0.016472332 -0.09401406 -0.11792535 0.05307839 0.05666564 -0.0648337 -0.114471056 -0.12861234
0.006857555 0.06193267 -0.13706882 0.023237599 -0.0700394 0.0042803534 0.024164913 -0.02988423
0.13249573 0.12078555 -0.030322649 0.037982754 -0.034927372 0.10485288 0.07300121 -0.01473988
-0.030978967 0.14351603 -0.11627691 0.1117707 0.06427733 0.06627446 0.09079585 -0.11164597
0.011014505 -0.03160101 0.08578908 -0.05952319 -0.0003300979 -0.006645926 -0.051636122 0.082738236
00000000: ba11 9c3d c86e 7abd d3e2 693d 0ea9 873c
00000010: e598 013e 5ee7 a1bd 17b6 d5bd 85b3 24bd
00000020: 5117 3b3d 8daf 4bbd 0883 1e3e 2fee 89bd
00000030: 0dd5 33bc 4375 a4bd 626f debc d76b 1fbd
00000040: b323 0fbd 1d76 ec3d e030 d23d e605 823d
00000050: f97c b8bd a19d ea3d 9858 433d 8667 fe3d
00000060: 935d e23c 0014 8b3d 63cf a83c c5ec ad3d
00000070: c436 f4bd aa95 73bc 7d32 a13d 81d2 2dbd
00000080: 75e8 acbd f740 9bbd e0cf 21bc 3a22 a93b
00000090: f8a2 01be b199 d13d ee05 c2bd 54a7 b0bd
000000a0: 59ef 56bd cd15 abbd 7cf0 ddba 12f2 8abd
000000b0: 8dad afbd 1e49 2fbd a2de 7a3d ef41 983d
000000c0: 30f2 4cbc c5c4 3b3d 3f6d e23c b562 b2bd
000000d0: 88a1 97bd 32ee 94bc 028a db3d cc8e 723c
000000e0: 25be ff3c 6d9f 0e3d 6bfc 1cbd 0410 1abd
000000f0: 3d7c f5bd 31da e53d 01cf 8ebd cebd 263d
00000100: 3f7c f3bb 7a69 c23d 2b8a 033e 546e b3bd
00000110: 6f53 013e a778 883d 4f5b cc3d 5b25 bdbc
00000120: 4ef6 e63d 6074 ad3d 8236 7dbd 00e9 25bd
00000130: bfce 0d3e 421e da3d f2cc 05bd be95 863d
00000140: 025a bebc f497 2abd 0d2b 8e3d f8cf acbd
00000150: 1f69 dbbd 3907 86bd 54af adbd 9180 3a3d
00000160: bacc 113e ab51 623c 96d0 a3bd 7a7c 1d3d
00000170: 71d2 7abd 002b 923d 2b56 343d e589 ee3c
00000180: e485 c63d 0aa2 31bd d14c 803d 8bb9 913c
00000190: 78b4 8bbc 0d62 003e 6ff6 1a3e a120 de3d
000001a0: fa4d 9bbc 85c9 5c3c 2804 16be 44bc 563c
000001b0: 6ee8 e93d aa4e 96bd ea82 a73b 7f89 f6bc
000001c0: 85d4 d53d beb0 09be 162a 52bd e55b a2bd
000001d0: 72dc 813d 104a 593d 408d a73d 93ad 62bd
000001e0: 3ff4 ad3d c647 c3bb 4975 583d a72b bb3d
000001f0: e9d5 06bc 0a64 8c3d 47d5 843d e322 f13d
00000200: c837 813d 760f 613d b243 05be 4dd3 87bd
00000210: c51a 9e3c 8852 9f3b be70 a03d ef65 ebbc
00000220: 1692 063e 3bda b0bd 7504 febd 8dd1 b0bd
00000230: 68f0 11bd 8235 b5bd 2fe1 123e 3b17 6dbd
00000240: 308b d03d 754e c63d 50d0 64bc 3900 c5bc
00000250: bc63 ebbd 6b7f 053e cd96 5ebd 15c9 e4ba
00000260: 79da c2bd ef3b 6f3c c574 cc3d a2e6 0bbd
00000270: 9bbb 273d 46cb 3b3d 8fee 0a3e ada7 b6bd
00000280: 5cba 5e3d f6be a5bd de91 1b3d 77a3 483b
00000290: 0f4c ccbc 7d69 c93d f5df 55bc 5425 b03d
000002a0: 0e3c 5e3b 587b aa3d 9a2e c6bd ccb5 a33d
000002b0: 38b1 7e3d 5333 883d d016 85bd 08f8 92bd
000002c0: c5c3 fcbc 8be2 0ebe 85b9 dc3d 5081 263d
000002d0: 38ff b1bd fef8 733d f90b 9a3b dcdc 993d
000002e0: d14e 87bd 83ec 56bd 7e5e ac3d 0323 d03c
000002f0: f233 953d 510b 363c 0dfb d93c 58f2 d53d
00000300: 5af1 5fbb 8056 873c 27f5 173d 583d 243d
00000310: 5979 de3d 515f bdbd 6859 aebd 07f0 bfbd
00000320: 8219 c13d c7c9 023e 4b46 943d de9d b4bd
00000330: a514 cabd 2224 5b3d b002 85bd 79e0 1d3e
00000340: 42fe 513d d0b4 eebd a91e e13d adfa e33d
00000350: 1303 adbd 067e 933d 15f9 d0bd 65a0 bb3d
00000360: fcf0 863c 728a c0bd d982 f1bd ba68 593d
00000370: 3b1a 683d 88c7 84bd cd6f eabd f4b2 03be
00000380: 57b5 e03b 1dad 7d3d c55b 0cbe c75c be3c
00000390: d170 8fbd 3542 8c3b 7ff5 c53c c6cf f4bc
000003a0: f6ac 073e 6a5e f73d 3467 f8bc ce93 1b3d
000003b0: 0110 0fbd 1bbd d63d a981 953d 8a7f 71bc
000003c0: 9ac7 fdbc def5 123e 9722 eebd 09e8 e43d
000003d0: d5a3 833d e7ba 873d 2df3 b93d a4a6 e4bd
000003e0: 2f76 343c 1070 01bd 2fb2 af3d 97ce 73bd
000003f0: fd10 adb9 11c6 d9bb 6680 53bd aa72 a93d

actor.2.bias f4 [64]
-0.03662205 0.12825195 0.014091714 0.030552806 0.073914565 0.03714695 0.037834767 0.030679578
-0.09415309 -0.10635476 -0.06107086 -0.088081054 -0.09184521 -0.05870756 -0.0059797214 0.059952218
0.054964542 0.116336755 -0.050598726 0.06734569 -0.1075369 -0.013319965 -0.004798422 0.10856013
-0.07441455 -0.046203565 -0.07807309 -0.013289405 0.037879173 -0.054096937 -0.082419045 0.030749789
0.015540167 0.03193788 -0.0069571245 -0.08933583 -0.06570236 0.09617932 -0.059113186 -0.038893316
-0.04313451 0.045141686 -0.048479985 -0.014259311 -0.10417949 -0.0053007537 0.056946866 0.06588975
-0.0025723907 -0.03210081 0.025567818 -0.0807292 0.021795562 -0.04751949 -0.058769282 -0.0764343
0.00071431993 0.008725149 0.018409213 0.018145183 0.07206869 0.08916799 0.121361926 -0.033599626
00000000: 0101 16bd 7b54 033e efe0 663c e149 fa3c
00000010: 8560 973d 6627 183d a1f8 1a3d bd53 fb3c
00000020: 56d3 c0bd 86d0 d9bd 7025 7abd d763 b4bd
00000030: 5719 bcbd 5777 70bd 8af1 c3bb 7590 753d
00000040: 8022 613d f741 ee3d 9c40 4fbd 8aec 893d
00000050: 4e3c dcbd fc3b 5abc 153c 9dbb c654 de3d
00000060: a866 98bd f33f 3dbd c9e4 9fbd cebb 59bc
00000070: 3127 1b3d c094 5dbd 51cb a8bd fbe6 fb3c
00000080: 2f9c 7e3c 4bd1 023d 97f8 e3bb b4f5 b6bd
00000090: f58e 86bd aaf9 c43d ab20 72bd 994e 1fbd
000000a0: d0ad 30bd 7de6 383d f392 46bd e39f 69bc
000000b0: 0e5c d5bd f2b1 adbb 1e41 693d 35f1 863d
000000c0: 8e95 28bb 247c 03bd 9a73 d13c 5a55 a5bd
000000d0: 9b8c b23c cca3 42bd 0fb8 70bd 9689 9cbd
000000e0: 3341 3b3a edf3 0e3c ebce 963c 35a5 943c
000000f0: c098 933d b59d b63d 9a8c f83d c39f 09bd

actor.4.weight f4 [2, 64]
-0.015586754 -0.083018854 0.02556328 -0.030966077 -0.004724007 0.001991306 0.03880675 -0.02267831
-0.015411024 0.010732546 -7.779926e-05 -0.08586914 0.047816098 0.018240832 -0.020091953 -0.08794774
-0.028827656 -0.014422389 0.00484789 -0.00769407 0.022517089 0.037020028 0.035062365 -0.07984145
0.08243834 -0.034757663 0.0008915988 -0.013496357 -0.0069577517 -0.0003510842 0.03760669 -0.07561765
0.0027081347 0.027283423 0.02378139 0.08092829 0.0052123656 -0.034233823 0.012130445 -0.014338855
-0.010221041 0.0070474343 0.0056629847 0.027066775 0.061112616 -0.03643221 -0.009370929 -0.009821406
0.018753057 0.026328932 0.0020320597 0.01051215 0.06726721 -0.0047918083 0.030926432 0.046109486
-0.01978457 -0.037489515 -0.011773263 -0.08850122 0.02165792 0.010427083 -0.1134009 -0.0056661475
-0.0037341714 0.07322255 0.005947623 0.0019297835 0.03162 -0.0070980615 -0.004800138 0.043008074
0.015812408 -0.026528578 -0.026401628 0.07123475 0.0010476137 0.057004094 0.0245376 0.060907654
0.0040882067 0.059571095 -0.01610942 -0.0018466222 -0.017827934 -0.0072443895 -0.049117733 -0.07035884
-0.06258298 -0.07987532 -0.0011880214 -0.0055596773 -0.026357554 0.021578468 -0.0049951402 0.03489037
-0.007952349 -0.048701454 0.006234816 0.017810455 -0.015808417 0.0073962454 -0.035624854 0.045177948
-0.004550767 0.027888522 -0.02610096 0.0045185103 -0.027516339 -0.04524509 0.04700506 0.014117209
0.008578051 -0.0039165295 0.028468816 -0.017079517 -0.052710667 0.014418328 -0.03945464 -0.004870059
0.01295312 0.066281244 -0.021656295 0.07725977 0.07732262 0.028592877 -0.01391128 0.024102213
00000000: 965f 7fbc ca05 aabd 156a d13c 92ac fdbc
00000010: d8cb 9abb 9280 023b d4f3 1e3d ddc7 b9bc
00000020: 857e 7cbc 90d7 2f3c 2928 a3b8 29dc afbd
00000030: d0da 433d cc6d 953c e197 a4bc f21d b4bd
00000040: fa27 ecbc e24b 6cbc 0ddb 9e3b 8a1e fcbb
00000050: c275 b83c 50a2 173d 8e9d 0f3d ea83 a3bd
00000060: 6fd5 a83d 0d5e 0ebd 2fba 693a d31f 5dbc
00000070: dafd e3bb b911 b8b9 7909 1a3d 6ddd 9abd
00000080: f67a 313b 7c81 df3c 31d1 c23c bbbd a53d
00000090: 7ecc aa3b c438 0cbd c6be 463c 84ed 6abc
000000a0: 2776 27bc 2aee e63b 8f90 b93b 24bb dd3c
000000b0: 3951 7a3d f139 15bd 8688 19bc f6e9 20bc
000000c0: 03a0 993c c6af d73c 4e2c 053b 273b 2c3c
000000d0: 64c3 893d 9a04 9dbb 6e59 fd3c 4ddd 3c3d
000000e0: 4013 a2bc 9b8e 19bd a5e4 40bc 2140 b5bd
000000f0: f36b b13c 5bd6 2a3c bb3e e8bd 17ab b9bb
00000100: 00b9 74bb b4f5 953d 47e4 c23b caf0 fc3a
00000110: f983 013d db96 e8bb 7a4a 9dbb 3c29 303d
00000120: 0689 813c 7652 d9bc 3a48 d8bc 86e3 913d
00000130: 1550 893a 207d 693d 1403 c93c 4e7a 793d
00000140: 5df6 853b d200 743d e7f7 83bc 5c0a f2ba
00000150: e30b 92bc 5862 edbb ad2f 49bd 4c18 90bd
00000160: 812b 80bd ac95 a3bd 62b7 9bba f42d b6bb
00000170: cceb d7bc 54c5 b03c 46ae a3bb 34e9 0e3d
00000180: 924a 02bc 2d7b 47bd 6d4d cc3b 3be7 913c
00000190: a780 81bc 345c f23b 5eeb 11bd 830c 393d
000001a0: 9a1e 95bb 7876 e43c aed1 d5bc 0310 943b
000001b0: f269 e1bc ea52 39bd 6188 403d de4b 673c
000001c0: f48a 0c3c 3b56 80bb 6f37 e93c 58ea 8bbc
000001d0: 24e7 57bd da3a 6c3c 309b 21bd 0495 9fbb
000001e0: 5339 543c 76be 873d 8b68 b1bc 5f3a 9e3d
000001f0: 525b 9e3d 9c3b ea3c 23ec 63bc 0172 c53c

actor.4.bias f4 [2]
-0.13464709 0.14788784
00000000: ede0 09be e96f 173e

critic.0.weight f4 [64, 15]
-0.21270628 0.10541827 -0.12586865 -0.25133863 -0.05415116 0.39706522 0.086096585 -0.041218918
-0.10765275 0.21989855 -0.074426204 -0.20859432 -0.21826588 0.18412289 -0.06983805 0.13987494
0.17460687 -0.045431245 0.110111885 -0.02112663 0.1972438 -0.02726145 0.1421018 0.091467336
0.20234834 0.039605 -0.06754708 -0.1290731 0.036454827 0.04719779 0.13868155 0.25459918
-0.058281217 0.19977397 0.12137006 0.28019848 0.118953034 0.3864316 -0.081201136 0.070123866
0.17146032 -0.025987059 -0.2332054 0.20854032 0.06050098 -0.13359904 0.063525096 0.21885885
0.11242979 -0.16585082 -0.16784792 -0.32777965 0.12921502 -0.24504738 0.019823622 -0.078265086
-0.22592276 0.08000326 -0.16432336 -0.036906004 0.011948116 0.25401893 -0.032936513 0.061563518
0.072747104 0.44081068 -0.040556643 0.26898772 -0.021278331 -0.044614036 -0.0120031405 -0.18921605
-0.2392805 0.1205591 -0.18731245 0.14778768 0.021392388 -0.28945133 0.002165367 -0.21458417
-0.2964758 -0.10757375 0.07743842 0.102497995 -0.08474516 0.3086406 0.1516374 -0.10672785
0.12890214 0.19521818 -0.13720007 0.14331265 -0.044824798 0.030261127 0.111099795 0.18964858
-0.189346 0.16034108 0.13236777 0.16553174 0.058286875 0.06425035 -0.09064676 0.19634527
0.03982681 0.017011203 0.10844651 -0.06637822 -0.09588357 0.34945944 -0.056222696 -0.015499157
-0.06848235 -0.40525296 -0.15898475 0.19251552 0.20532718 -0.1544958 0.19092888 -0.10666017
0.15160526 0.21055178 -0.010364857 0.22050229 -0.014453356 0.1551779 0.17983344 0.28197435
0.030907974 0.15238953 0.033115946 -0.110459775 0.18212071 -0.13565302 0.06316498 -0.016744696
-0.012413526 0.20199741 0.09298654 -0.13778354 -0.17982529 0.16796996 0.16553362 0.08823457
-0.16660894 -0.14208604 0.10176104 -0.20378028 0.018520266 0.15402168 -0.28417486 -0.25223392
-0.02439121 0.22544484 -0.035089176 -0.44729087 0.10630439 -0.3678227 0.14783959 -0.044784322
-0.28726068 -0.10300881 0.047246814 -0.15089677 0.15208548 0.18145306 0.10947062 -0.26363742
-0.18579426 -0.17977749 0.07775094 -0.061716333 -0.08553191 -0.19790973 0.0732222 -0.054421697
0.19784865 0.0041893125 -0.13738675 0.11728299 0.2771438 0.12281071 0.13666405 -0.07747071
-0.029541835 0.25534138 0.028962256 -0.016285615 -0.013994072 0.11720496 -0.08017234 -0.03624837
-0.15554956 -0.24387632 0.17053148 -0.16748859 0.2921979 0.010663897 0.10613885 -0.057398476
0.4751215 -0.08364624 0.3769459 0.097984135 0.03761865 0.2367972 -0.25280982 0.10586554
0.23275802 0.017292023 -0.16787353 -0.0022181594 -0.007930256 0.26191998 -0.098887004 -0.37854186
-0.08231393 -0.2397172 0.10458691 -0.14308132 0.07645328 -0.12722933 0.1545716 -0.16305368
-0.16639118 0.0123174535 -0.11488506 -0.028882373 -0.10103649 0.031992175 -0.16628323 0.22002931
-0.28429192 0.04090575 0.24036193 -0.16115637 0.2420555 0.01798451 0.23716453 0.01322934
-0.19625929 -0.19697873 -0.0014439281 -0.36390638 0.10103798 -0.30481794 -0.3940202 -0.30459118
0.17322056 -0.24792846 -0.15172574 0.19434327 -0.13589138 0.22664756 0.24454424 0.022096787
00000000: adcf 59be 89e5 d73d b6e3 00be 75af 80be
00000010: 9bcd 5dbd 224c cb3e 6853 b03d 2bd5 28bd
00000020: 0c79 dcbd 162d 613e c46c 98bd c099 55be
00000030: 1781 5fbe b68a 3c3e 4007 8fbd 603b 0f3e
00000040: 25cc 323e 1d16 3abd 5782 e13d c111 adbc
00000050: 47fa 493e 6853 dfbc 2283 113e 3a53 bb3d
00000060: 6734 4f3e da38 223d 2056 8abd bd2b 04be
00000070: a851 153d 7852 413d 8902 0e3e d35a 823e
00000080: 49b8 6ebd 8c91 4c3e de90 f83d 2d76 8f3e
00000090: a69d f33d 5dda c53e c84c a6bd 1a9d 8f3d
000000a0: 4b93 2f3e d0e2 d4bc 65cd 6ebe 988b 553e
000000b0: e0cf 773d 30ce 08be 7219 823d 891c 603e
000000c0: 9741 e63d ccd4 29be 53e0 2bbe bcd2 a7be
000000d0: f150 043e b3ed 7abe 2665 a23c 7249 a0bd
000000e0: 4c58 67be c0d8 a33d 6244 28be c02a 17bd
000000f0: 08c2 433c c50e 823e 70e8 06bd 072a 7c3d
00000100: 6ffc 943d f0b1 e13e b91e 26bd c2b8 893e
00000110: e54f aebc 35bd 36bd d2a8 44bc dac1 41be
00000120: f305 75be b0e7 f63d d6ce 3fbe a755 173e
00000130: 173f af3c f732 94be d4e8 0d3b f4bb 5bbe
00000140: adcb 97be a04f dcbd 0998 9e3d 78ea d13d
00000150: df8e adbd 2406 9e3e d646 1b3e 2294 dabd
00000160: ecfe 033e 46e7 473e 2d7e 0cbe 8dc0 123e
00000170: 359a 37bd 2fe6 f73c 4a88 e33d 3d33 423e
00000180: ebe3 41be 7430 243e 6b8b 073e 2781 293e
00000190: 38be 6e3d b095 833d 02a5 b9bd bc0e 493e
000001a0: 7021 233d 145b 8b3c 3419 de3d 4ef1 87bd
000001b0: 9b5e c4bd 59ec b23e c549 66bd 2df0 7dbc
000001c0: 7940 8cbd 517d cfbe e6cc 22be ca22 453e
000001d0: 4a41 523e 2634 1ebe dc82 433e a670 dabd
000001e0: 693e 1b3e e39a 573e 5cd1 29bc 5acb 613e
000001f0: c5cd 6cbc f5e6 1e3e 4226 383e f15e 903e
00000200: b832 fd3c 000c 1c3e 96a4 073d bc38 e2bd
00000210: da7d 3a3e a0e8 0abe a45c 813d 2c2c 89bc
00000220: 1a62 4bbc 69d8 4e3e ba6f be3d 2117 0dbe
00000230: 1f24 38be 5100 2c3e a581 293e 54b4 b43d
00000240: 899b 2abe 017f 11be 1868 d03d c7ab 50be
00000250: d0b7 973c dcb7 1d3e 5e7f 91be ce24 81be
00000260: 13d0 c7bc 03db 663e abb9 0fbd 4f03 e5be
00000270: 1eb6 d93d 4253 bcbe 4363 173e c46f 37bd
00000280: d513 93be 48f6 d2bd e085 413d af84 1abe
00000290: 4cbc 1b3e d5ce 393e 2232 e03d 7cfb 86be
000002a0: da40 3ebe 9717 38be e33b 9f3d 44ca 7cbd
000002b0: 5b2b afbd d9a8 4abe 85f5 953d 49e9 5ebd
000002c0: d698 4a3e 8046 893b 1daf 0cbe 1032 f03d
000002d0: cbe5 8d3e 2e84 fb3d a9f1 0b3e f7a8 9ebd
000002e0: b801 f2bc 1bbc 823e 4142 ed3c 6969 85bc
000002f0: 6447 65bc 2709 f03d 6531 a4bd 2c79 14bd
00000300: 6248 1fbe b7ba 79be ce9f 2e3e 2182 2bbe
00000310: f79a 953e a0b7 2e3c 535f d93d aa1a 6bbd
00000320: 2043 f33e b84e abbd 0eff c03e e8ab c83d
00000330: 0316 1a3d f77a 723e 4a70 81be 08d0 d83d
00000340: 1e58 6e3e 00a8 8d3c 0ae7 2bbe 8a5e 11bb
00000350: e8ed 01bc 601a 863e 4585 cabd 3dd0 c1be
00000360: 3594 a8bd 6d78 75be a931 d63d e983 12be
00000370: 8a93 9c3d 6848 02be 0448 1e3e 8bf7 26be
00000380: 7362 2abe 25cf 493c dc48 ebbd ba9a ecbc
00000390: 38ec cebd 3a0a 033d 2746 2abe 5d4f 613e
000003a0: b68e 91be ca8c 273d 7021 763e 2d06 25be
000003b0: 66dd 773e 4054 933c 42db 723e e0bf 583c
000003c0: 32f8 48be cbb4 49be 3042 bdba f051 babe
000003d0: 00ed ce3d 1911 9cbe 04bd c9be 60f3 9bbe
000003e0: bb60 313e f5e0 7dbe fe5d 1bbe ec01 473e
000003f0: 1c27 0bbe 4c16 683e ce69 7a3e 5204 b53c

critic.0.bias f4 [64]
-0.052653067 -0.082885794 0.035618313 -0.1256914 0.15460053 0.05227839 -0.10731012 0.048441585
-0.12243532 -0.016656581 -0.28750595 0.05091753 0.13247205 0.26199526 0.029574336 -0.19525066
0.101704605 0.2419122 -0.07047341 -0.18695149 0.21030961 -0.07484062 0.045426894 0.21059579
-0.04737723 0.008973547 0.09623188 -0.002097615 -0.19794321 0.16558097 -0.03171666 0.21648152
0.11402104 0.039536774 -0.22758389 0.094551586 0.08102612 -0.11704918 0.04004447 -0.13314979
0.26692685 -0.019385403 0.14806658 -0.15551552 -0.18377198 -0.25163618 -0.09885699 0.16222882
-0.19892825 -0.09926844 0.056092087 0.12941368 -0.18977031 0.099302396 -0.21579236 -0.07261636
-0.03638967 0.18169403 0.023103485 0.14523456 -0.004892059 0.029943857 -0.014335774 -0.26775086
00000000: beaa 57bd 07c0 a9bd 82e4 113d 3fb5 00be
00000010: 9a4f 1e3e dd21 563d 68c5 dbbd af6a 463d
00000020: 5ebf fabd 6273 88bc fb33 93be e68e 503d
00000030: c1a6 073e 3e24 863e e145 f23c caef 47be
00000040: 814a d03d d5b7 773e 5d54 90bd 3670 3fbe
00000050: 675b 573e 0a46 99bd 8d11 3a3d 6ca6 573e
00000060: a00e 42bd c905 133c 3815 c53d 2478 09bb
00000070: a0b1 4abe 0f8e 293e 54e9 01bd 55ad 5d3e
00000080: dd83 e93d 50f1 213d c00b 69be 43a4 c13d
00000090: 06f1 a53d 7bb7 efbd ac05 243d 6b58 08be
000000a0: a3aa 883e 23ce 9ebc c49e 173e 763f 1fbe
000000b0: b92e 3cbe 75d6 80be 8975 cabd 501f 263e
000000c0: d9b3 4bbe 404d cbbd d1c0 653d 0585 043e
000000d0: 2653 42be 0e5f cb3d acf8 5cbe e3b7 94bd
000000e0: 560d 15bd 000e 3a3e 8543 bd3c 5eb8 143e
000000f0: 914d a0bb d24c f53c 98e0 6abc a416 89be

critic.2.weight f4 [64, 64]
-0.08918456 -0.09759861 -0.13055013 0.033950724 -0.124498956 -0.114649855 -0.002689331 0.12712145
-0.12591246 0.0053610895 0.194021 0.06978245 -0.09722633 0.040605143 0.021474293 -0.080967925
0.034155615 0.09940653 0.028491158 0.093421675 -0.046060003 0.018827992 -0.10104519 -0.09282862
0.047395475 0.010124518 -0.1131712 -0.019021133 -0.01753737 0.015486804 -0.03248095 -0.12004783
-0.048217546 -0.10600573 0.034810577 0.07102538 -0.038160667 -0.0118333455 0.13615736 0.014658991
0.012238854 -0.07526726 0.010979844 -0.009228501 0.027838234 -0.08432352 -0.013329642 -0.08307593
-0.0055462862 0.12017182 0.07964241 0.0844695 0.1859147 -0.08495128 0.083329596 -0.049641874
-0.077300355 0.026302572 -0.08801981 -0.031607423 -0.0487649 0.023699556 0.11708956 -0.078052096
-0.038033273 -0.047630828 -0.077473074 0.006310134 -0.09058276 -0.06965775 0.053622458 -0.0105476435
0.062954344 0.13475606 -0.07300357 0.05905332 0.13038492 -0.035451155 -0.13059136 0.0042976853
0.0682626 -0.025297 -0.042431843 0.0890453 0.008268678 0.047294334 0.039556608 0.12860866
-0.07834712 0.14480433 0.10882067 0.10733876 -0.021929545 -0.0985333 -0.06969343 0.049861424
0.0655508 0.009523962 0.032451846 -0.032096393 -0.067100994 -0.11328908 -0.06971956 -0.0132777775
-0.08173516 -0.04423367 -0.029344782 0.078761995 0.08587538 -0.01615571 0.05516878 -0.0095374165
-0.14671925 -0.0045352387 0.063890494 -0.008438787 0.052226275 0.09674924 0.042786825 0.07145415
-0.13187116 0.07287241 0.07463072 -0.07470904 0.06508855 -0.14194497 -0.09084939 0.030572763
-0.029270006 0.022801528 -0.03292895 -0.10584238 0.020928903 -0.042168353 -0.01122434 -0.05181069
-0.07836337 0.011561359 0.11921691 0.1218931 -0.022101136 -0.08607434 -0.086194985 0.019164946
0.08130644 0.06851712 0.1360995 0.09569636 0.054895878 0.0536597 -0.0091875885 -0.07506323
-0.068071395 0.032644663 -0.02050617 -0.018065356 0.045267783 0.012031211 -0.069173634 -0.088898495
0.052223515 -0.112005755 -0.06078816 0.089366995 -0.10016198 -0.08338939 -0.042399596 -0.040279802
-0.11491956 -0.0090764975 0.11221142 -0.12951896 0.09398522 -0.097628325 0.041486055 -0.012339679
-0.11830884 0.009599776 -0.1051421 0.062049296 0.025347097 -0.0029355865 0.016147118 -0.034338325
-0.05112305 0.073930636 0.047272418 0.0406025 -0.0141873425 0.011466885 0.033531893 0.060948327
0.008554239 -0.0040560365 -0.13518858 0.12109458 -0.023382485 0.022445617 -0.08302749 0.027311292
-0.0970161 0.08084649 -0.059346754 -0.10774829 0.0028107115 0.058062825 0.15710995 -0.02218198
-0.04732386 -0.018882945 -0.09212267 -0.072899565 -0.1013524 0.037209604 -0.04840403 -0.01999527
0.06789709 -0.052887745 -0.108289145 0.07724193 -0.072866336 -0.053292517 0.11727002 -0.037582118
-0.036320835 0.105433255 0.11756184 -0.078075394 0.023151767 0.051984496 0.11249145 0.14616708
-0.011457964 -0.13325924 -0.012146632 -0.08286862 0.044671226 -0.058469903 -0.09225333 -0.02704825
-0.033377055 -0.05173449 0.15259747 -0.0022060634 -0.04831097 -0.12624498 -0.00737379 0.01085089
0.0721671 0.16069189 -0.096274346 0.14077032 0.041601706 0.09585009 -0.08261783 0.12912574
00000000: 65a6 b6bd c8e1 c7bd efae 05be ea0f 0b3d
00000010: 4ff9 febd 8bcd eabd 7d3f 30bb 202c 023e
00000020: 32ef 00be 14ac af3b 71ad 463e 1aea 8e3d
00000030: 991e c7bd 9451 263d dbea af3c 83d2 a5bd
00000040: c2e6 0b3d a795 cb3d 4a66 e93c dd53 bf3d
00000050: 6aa9 3cbd 293d 9a3c c8f0 cebd ee1c bebd
00000060: c221 423d 4ee1 253c 4dc6 e7bd 35d2 9bbc
00000070: 88aa 8fbc 5dbc 7d3c bf0a 05bd a3db f5bd
00000080: c37f 45bd 8819 d9bd 8995 0e3d c175 913d
00000090: 5c4e 1cbd a6e0 41bc d66c 0b3e 442c 703c
000000a0: 7985 483c b925 9abd cee4 333c 2333 17bc
000000b0: 020d e43c cfb1 acbd 9264 5abc b723 aabd
000000c0: 9fbd b5bb a51c f63d 8f1b a33d 58fe ac3d
000000d0: 6c60 3e3e f0fa adbd b5a8 aa3d 4755 4bbd
000000e0: a64f 9ebd 7e78 d73c bb43 b4bd c976 01bd
000000f0: b4bd 47bd 9225 c23c a7cc ef3d c7d9 9fbd
00000100: c7c8 1bbd 8b18 43bd 34aa 9ebd 3ec5 ce3b
00000110: 7483 b9bd b9a8 8ebd 39a3 5b3d 06d0 2cbc
00000120: 35ee 803d 7efd 093e e582 95bd e5e1 713d
00000130: a083 053e 3b35 11bd beb9 05be 99d3 8c3b
00000140: 43cd 8b3d a73b cfbc 03cd 2dbd 625d b63d
00000150: 5979 073c b4b7 413d 1c06 223d fdb1 033e
00000160: 7474 a0bd 9647 143e 5fdd de3d 6cd4 db3d
00000170: 97a5 b3bc d4cb c9bd 6ebb 8ebd 7e3b 4c3d
00000180: 7f3f 863d 640a 1c3c 3aec 043d 8277 03bd
00000190: 3f6c 89bd 1b04 e8bd 21c9 8ebd 098b 59bc
000001a0: c364 a7bd 5d2e 35bd 7864 f0bc f84d a13d
000001b0: 6edf af3d fb58 84bc a9f8 613d d342 1cbc
000001c0: 923d 16be 579c 94bb 05d9 823d d742 0abc
000001d0: 38eb 553d 7724 c63d 3d41 2f3d 8e56 923d
000001e0: 3c09 07be 213e 953d fed7 983d 0e01 99bd
000001f0: 254d 853d 065a 11be 3f0f babd bb73 fa3c
00000200: a7c7 efbc 45ca ba3c 82e0 06bd e4c3 d8bd
00000210: 1773 ab3c b9b8 2cbd 4be6 37bc 7237 54bd
00000220: f97c a0bd db6b 3d3c ff27 f43d 17a3 f93d
00000230: 710d b5bc be47 b0bd ff86 b0bd ceff 9c3c
00000240: fe83 a63d b452 8c3d ab5d 0b3e 74fc c33d
00000250: 80da 603d 46ca 5b3d 8a87 16bc c0ba 99bd
00000260: 0469 8bbd 69b6 053d 8efc a7bc ccfd 93bc
00000270: b66a 393d 8e1e 453c e8aa 8dbd 6a10 b6bd
00000280: 53e8 553d 4663 e5bd 01fd 78bd 0b06 b73d
00000290: b921 cdbd 0ec8 aabd 33ab 2dbd 6ffc 24bd
000002a0: f25a ebbd 97b5 14bc 1acf e53d 9ea0 04be
000002b0: 537b c03d 5cf1 c7bd 48ed 293d 5d2c 4abc
000002c0: e84b f2bd 6148 1d3c be54 d7bd 6727 7e3d
000002d0: b7a4 cf3c f862 40bb f646 843c 58a6 0cbd
000002e0: 6766 51bd f268 973d b9a0 413d cf4e 263d
000002f0: 0772 68bc 9adf 3b3c bd58 093d f4a4 793d
00000300: 1427 0c3c 80e8 84bb e06e 0abe 6f00 f83d
00000310: a08c bfbc dfdf b73c 510a aabd eebb df3c
00000320: 61b0 c6bd d892 a53d 9515 73bd 23ab dcbd
00000330: ea33 383b 49d3 6d3d 6ee1 203e fcb6 b5bc
00000340: aad6 41bd 68b0 9abc cfaa bcbd 5e4c 95bd
00000350: d991 cfbd 1969 183d 4e43 46bd 1fcd a3bc
00000360: a10d 8b3d d2a0 58bd b3c6 ddbd 0431 9e3d
00000370: f23a 95bd 4149 5abd 442b f03d b5ef 19bd
00000380: 28c5 14bd 64ed d73d 43c4 f03d fee5 9fbd
00000390: c6a8 bd3c b2ed 543d eb61 e63d d3ac 153e
000003a0: 2fba 3bbc 1c75 08be ab02 47bc 06b7 a9bd
000003b0: 2df9 363d 237e 6fbd 50ef bcbd 4b94 ddbc
000003c0: 61b6 08bd 8be7 53bd 8342 1c3e 9a93 10bb
000003d0: b9e1 45bd 5d46 01be d59f f1bb eec7 313c
000003e0: 58cc 933d 6a8c 243e 7c2b c5bd 1826 103e
000003f0: 8d66 2a3d 0d4d c43d 8933 a9bd 8a39 043e

critic.2.bias f4 [64]
-0.03009839 0.03650785 0.0065279943 0.025006222 0.05463372 0.025212055 -0.15966354 0.09733975
-0.018508246 -0.052521106 -0.14472853 0.13034669 -0.03240256 0.0064541614 -0.0037207585 0.01388342
-0.0022868789 -0.028300902 -0.06384631 -0.040904503 -0.057850692 0.0643871 -0.08490958 0.042486295
-0.05297692 -0.06715856 0.101806946 0.056796316 -0.069580816 -0.0007315633 0.016056208 0.065406434
0.057142776 0.099634975 -0.07566629 0.07127024 0.035599012 0.057489417 -0.08902714 -0.097956106
-0.1682911 0.0017474467 0.07718907 -0.01874893 0.13135949 -0.10481544 -0.023850163 0.059267014
-0.09761296 0.018205732 0.006292383 0.14492998 -0.010313751 -0.077617116 0.16569881 0.064829916
-0.06919285 -0.07913483 0.0797599 0.054774664 0.0028004458 0.04117819 -0.009512465 -0.06275535
00000000: e690 f6bc 4189 153d c9e8 d53b d9d9 cc3c
00000010: 9cc7 5f3d 8389 ce3c d77e 23be 105a c73d
00000020: 9b9e 97bc 5f20 57bd b733 14be 9a79 053e
00000030: 8cb8 04bd 6e7d d33b f8d7 73bb 4977 633c
00000040: 76df 15bb 4bd7 e7bc dbc1 82bd 7b8b 27bd
00000050: d9f4 6cbd 62dd 833d 13e5 adbd 1c06 2e3d
00000060: 54fe 58bd 6d8a 89bd 2980 d03d 41a3 683d
00000070: 6380 8ebd 62c6 3fba 4f88 833c cff3 853d
00000080: 8b0e 6a3d 6c0d cc3d eef6 9abd 22f6 913d
00000090: 45d0 113d 067a 6b3d dc53 b6bd 369d c8bd
000000a0: 8154 2cbe 950a e53a 4e15 9e3d 5b97 99bc
000000b0: 1a83 063e 7aa9 d6bd 6b61 c3bc f8c1 723d
000000c0: 4ee9 c7bd 3024 953c 5630 ce3b 8668 143e
000000d0: 02fb 28bc b9f5 9ebd f3ac 293e 8cc5 843d
000000e0: fbb4 8dbd 7111 a2bd 2959 a33d 665b 603d
000000f0: af87 373b 76aa 283d 2cda 1bbc e085 80bd

critic.4.weight f4 [1, 64]
0.0896567 -0.0013532058 0.0425558 0.05647063 0.0017785124 -0.07437804 0.050622202 -0.11118054
-0.10398753 0.00050807715 0.05096552 -0.10964752 -0.09839781 -0.001433243 0.09099326 3.551008e-05
-0.097380124 0.057089493 0.10927097 0.07179135 0.1004076 0.00012318675 0.0022976839 0.00010921631
0.074903294 -0.07429888 -0.112510905 -0.13695723 0.026354779 0.0040459903 0.1316658 0.07814524
-0.060573075 -0.08419113 -0.001622771 0.06209018 8.5478445e-05 0.00028789928 -0.00038182255 0.05413658
0.06180513 -0.16209473 -0.06372791 0.017367277 -0.016933717 0.042009518 0.0005928997 0.013200109
0.07071346 -0.013811811 0.000994112 -0.119029805 0.09022231 0.056193896 -0.14282998 0.06717828
-0.0344933 -0.13988566 0.06169926 0.0010439932 -0.037970994 -0.00079569675 0.00028342856 0.016609348
00000000: ef9d b73d 0d5e b1ba fe4e 2e3d bf4d 673d
00000010: f91c e93a 8453 98bd 3a59 4f3d 9fb2 e3bd
00000020: 6af7 d4bd 7b30 053a 39c1 503d e18e e0bd
00000030: ca84 c9bd a8db bbba ad5a ba3d a8f0 1438
00000040: 3b6f c7bd acd6 693d 75c9 df3d 5807 933d
00000050: 80a2 cd3d b12b 0139 bd94 163b 0f0b e538
00000060: e666 993d 032a 98bd 1e6c e6bd 843e 0cbe
00000070: fae5 d73c 3a94 843b 66d3 063e 9d0a a03d
00000080: 791b 78bd 666c acbd 29b3 d4ba 4652 7e3d
00000090: e442 b338 30f1 9639 5b2f c8b9 52be 5d3d
000000a0: 6027 7d3d 29fc 25be c783 82bd d245 8e3c
000000b0: 94b8 8abc 2c12 2c3d d36c 1b3a 4545 583c
000000c0: 38d2 903d ef4a 62bc dd4c 823a e6c5 f3bd
000000d0: 79c6 b83d 922b 663d 0642 12be c494 893d
000000e0: d948 0dbd 303e 0fbe 5db8 7c3d 99d6 883a
000000f0: 7987 1bbd 4e96 50ba 2399 9439 5410 883c
