models/020_Progressive/020_Progressive_latest.pth (torch, 47074 bytes, 11 tensors)

actor.0.weight f4 [64, 15]
000000 54 52 66 3d 8a 3d 26 3e bb 6b 2f 3e 14 d6 35 3e
       0.056230858 0.16234413 0.1713094 0.17757446
000010 c8 ad 35 3e c3 80 25 3e f0 f3 12 be f1 81 e5 bb
       0.17742074 0.161624 -0.14350867 -0.0070040156
000020 22 3e 81 3d 84 b3 45 3e ae 2c 7d 3e 6c 6f 30 3e
       0.06310679 0.19306761 0.24724075 0.17230004
000030 92 29 7c 3e 70 42 9c bc d8 8e dd 3d ee 99 33 be
       0.24625233 -0.019074649 0.10818261 -0.17539188
000040 0a 52 6b 3e 5c b4 35 3e 93 7a 75 be fc f8 97 be
       0.22980514 0.17744583 -0.2397254 -0.29682148
000050 c1 77 7e 3d 4a 1e 1a 3c ff 2c 34 3e 26 3f 99 be
       0.062125925 0.009406636 0.1759529 -0.2993099
000060 d6 a3 38 3c 1d 1f 50 3e 6c 1f 6f be ae c0 8b bd
       0.01126953 0.20324369 -0.2335183 -0.0682386
000070 f8 35 09 3d a0 de 9d 3d d6 e0 1f 3c 9d 2b 84 be
       0.033498734 0.07708478 0.009758195 -0.25814524
000080 c7 41 b8 3d e5 5e 3e be 8b dd 12 3f 15 c8 e9 bd
       0.08996921 -0.18590887 0.573693 -0.11415116
000090 a7 3f 10 3e f7 d8 19 3d ea b3 6b bd 6b 14 34 be
       0.14086781 0.03756043 -0.057544626 -0.17585914
0000a0 a3 a4 0c be 45 52 7c be 54 12 ec 3d 44 39 17 be
       -0.13734679 -0.24640758 0.11526933 -0.14767939
0000b0 80 a4 7f bb 83 c8 6e be 09 bb ca 3d f0 f5 45 be
       -0.0039007962 -0.23318677 0.098989554 -0.19332099
0000c0 46 4c ca 3a 9f 42 ef be e8 37 1f 3e c0 40 30 bd
       0.0015434108 -0.46730515 0.1554867 -0.0430305
0000d0 d1 fa 45 3e c5 5d 47 bd 5f 89 58 3e 27 ee 1e be
       0.1933396 -0.04867341 0.21146153 -0.15520535
0000e0 fc 42 4f be 2a 13 7b 3e c2 4c 29 be 0c 4b 23 bd
       -0.20240396 0.2451903 -0.16533187 -0.039866492
0000f0 a7 33 56 3c 3b 08 10 be 92 ac 4a 3d 63 7d c8 bd
       0.013073838 -0.1406564 0.049480982 -0.097895406
000100 d4 b6 2c bf 14 48 4f 3e 48 50 64 bb f8 08 5f bd
       -0.67466474 0.2024234 -0.003483789 -0.054451913
000110 3a bc d7 3d 07 fa 24 be 72 2b 35 3e ca 14 5e 3e
       0.10533948 -0.16111003 0.17692354 0.21687618
000120 f0 75 6c 3e 91 cd 74 be 8e f0 76 3e 13 bc 10 3e
       0.23091865 -0.23906542 0.24115202 0.14134245
000130 74 d6 62 be d2 9a 6b be 75 02 19 be da 4a 44 3e
       -0.2215212 -0.23008278 -0.14942344 0.19169179
000140 1d dc 13 bd b5 c7 31 3e 46 4c 80 be ee 36 7a be
       -0.03609859 0.17361338 -0.25058192 -0.24435017
000150 f3 4b 1d be d1 8e 17 be 80 22 c2 3b 08 fb a1 bd
       -0.15361004 -0.14800574 0.005924523 -0.079092085
000160 80 f1 a5 3b 64 76 b2 bd 89 39 8a 3d a8 5e 10 3e
       0.0050641894 -0.087139875 0.06749255 0.14098608
000170 36 17 9f be 3d f9 33 3d 42 08 d7 be d6 4f 6f bc
       -0.31072396 0.043938864 -0.41998488 -0.014606437
000180 fb 33 d0 bd f6 19 3e 3e 3b b6 4c be d4 38 82 3e
       -0.101661645 0.18564591 -0.1999139 0.2543398
000190 de 3b 85 bb b0 9a 36 bd bb 91 80 3e 22 c8 fa bd
       -0.0040659746 -0.044581115 0.25111184 -0.122452036
0001a0 c0 a8 27 bd dd 63 f8 bd 6c 0c 81 3d 4d 45 e2 3d
       -0.040932417 -0.121284224 0.063011974 0.11048374
0001b0 4e bf 74 3e f5 5f 03 3f e2 5a 62 3e 10 b0 ba bc
       0.23901102 0.51318294 0.22104982 -0.022789031
0001c0 e0 de 40 be b2 53 94 3e 1d 37 92 3d 7e 2d 47 be
       -0.1883502 0.28970104 0.07139418 -0.19450948
0001d0 36 5f 3f be 88 7f 87 bc 18 ef fc 3d 08 ae 3f 3d
       -0.18688664 -0.016540304 0.12350291 0.04679683
0001e0 f2 db e3 bd 34 84 93 3b 40 b6 06 be a3 d9 b3 be
       -0.111259356 0.004501844 -0.1315546 -0.3512698
0001f0 3a f9 26 3f 74 6e 7d 3e 35 5a 07 be 7e 6c 82 3e
       0.6522404 0.24749166 -0.13218005 0.25473398
000200 49 82 dc 3c c3 04 19 3e aa 12 7e bc 90 4b 68 be
       0.026917594 0.14943223 -0.01550738 -0.22685075
000210 1c bf bf bd d6 f8 ea bd 7e 52 67 3e 08 38 eb bd
       -0.09362623 -0.11473243 0.22590062 -0.114852965
000220 75 0a 54 3c 22 f6 8e be f1 02 c9 3d 77 f6 05 3e
       0.012941946 -0.2792216 0.09815014 0.130823
000230 d9 d7 32 3d f0 a0 31 bc e4 c1 38 be 28 20 70 3d
       0.04366288 -0.010841593 -0.18042713 0.058624417
000240 17 e4 16 3e 60 b1 f7 bd 70 d0 c6 bd ce 5a 1c be
       0.14735447 -0.120943785 -0.09707725 -0.15269014
000250 17 f5 11 be e6 4d 0f be 87 05 17 be c9 e6 50 be
       -0.1425365 -0.1399456 -0.14748202 -0.20400538
000260 95 9b 49 be 37 30 41 3e 83 f3 e8 be 03 3b 2e be
       -0.19688256 0.18866049 -0.45498285 -0.17014699
000270 71 23 e8 3d 09 cf 39 3d 36 58 a0 3e d8 3f 5a bb
       0.11334885 0.04536346 0.313173 -0.0033302214
000280 28 66 d0 3d 20 ca 39 3c 72 ce 1e be 40 ad 0e 3c
       0.10175735 0.011339694 -0.1550844 0.008708298
000290 7c 35 6a be e2 1c 59 be 31 52 a6 bc b8 2f 9d bd
       -0.22871965 -0.21202424 -0.020302864 -0.07675117
0002a0 fe 52 99 be 27 a6 91 be 8a 4a 31 be b2 f7 26 3e
       -0.2994613 -0.28447077 -0.1731359 0.16305426
0002b0 08 fc 4e 3e 6c 74 29 3d 08 8f 90 bd 5c 75 49 be
       0.2021333 0.041370794 -0.07058531 -0.19673675
0002c0 d8 4f 36 3d 70 a0 cf bc fe 7c 78 be 9d 0e 69 be
       0.04450974 -0.025345057 -0.2426643 -0.22759481
0002d0 8f ce 84 3d 36 6b 75 be 83 26 63 be 50 c4 2c bd
       0.064847104 -0.23966679 -0.2218266 -0.042179406
0002e0 c0 e2 97 3d d8 95 ea 3d 85 b2 63 be a3 61 6a bd
       0.07416296 0.11454362 -0.22236069 -0.05722202
0002f0 17 42 76 3e 90 00 12 bd 91 5d 00 be 1c 1f d8 3d
       0.24048649 -0.035645068 -0.12535693 0.10552809
000300 a6 60 c8 bd 5c e7 ae 3d 47 e6 5a be ac e8 c3 bd
       -0.09784059 0.08540222 -0.21376906 -0.09565863
000310 6c f1 30 bc c6 7f a6 3e 00 43 5c 3d c3 aa 9a be
       -0.010799747 0.32519358 0.053774834 -0.30208406
000320 dc 03 cb 3d 40 7c 2c be bd ef 38 3e 45 6d 1f 3e
       0.099128455 -0.16844273 0.18060203 0.15569027
000330 76 b8 7c 3d 4c 7c 3b be 10 5d 07 bd 84 3f 47 be
       0.061699353 -0.18309134 -0.033047736 -0.19457823
000340 8c a9 3d 3e 4a 2e 57 be 23 fc 24 be 8f 8d 9d 3d
       0.18521708 -0.21013752 -0.16111808 0.07693016
000350 58 48 bf bc 84 22 17 be de 95 41 be 07 07 f5 bd
       -0.023349926 -0.1475926 -0.18904826 -0.11964231
000360 9e c1 86 be a6 52 2d 3e fe 79 0d be 8e 9f 25 3e
       -0.26319593 0.16926059 -0.13816068 0.16174147
000370 0a cc 45 3e 80 56 76 3d e2 13 7a 3e e0 17 c7 3c
       0.19316116 0.060141087 0.24421647 0.024303377
000380 7f ef 82 be 56 5e 8c be 97 6a 18 3d 40 8a 05 3d
       -0.25573346 -0.27415723 0.037211027 0.03260255
000390 1f a8 75 3e 0b 56 0a bf 15 1b 0d 3c 02 7c 88 3d
       0.23989914 -0.5403754 0.008612414 0.066642776
0003a0 09 d6 0c 3e e7 3d 58 3e 9e d8 e1 bb 74 35 c7 bd
       0.13753523 0.21117364 -0.006892278 -0.09726992
0003b0 c2 93 3f 3e 90 37 f2 bc 84 af 43 bd b2 8d 38 3e
       0.18708709 -0.02956751 -0.047774807 0.18022802
0003c0 95 e1 11 3c af d5 5b be 88 b4 5c 3c 90 ab a4 be
       0.008903881 -0.21468233 0.013470776 -0.32162142
0003d0 42 b8 31 3d 22 04 f8 3c f4 0c e4 3c c9 8c d5 3d
       0.043388613 0.030275408 0.027838208 0.10427243
0003e0 f4 40 1a 3d 9f 1d 2a 3e 86 23 47 be 77 32 81 3e
       0.0376596 0.16612862 -0.19447145 0.25233814
0003f0 d8 97 ac 3d 96 c9 5c be da 93 6c 3e 21 d3 62 be
       0.084273994 -0.21561274 0.23103276 -0.22150852

actor.0.bias f4 [64]
000000 69 d3 33 be ec 1d 10 3d 19 1b 10 3e 38 3b d5 3d
       -0.17561115 0.035184786 0.14072837 0.10411686
000010 d9 4e 12 3e e1 25 b3 3d 6b 4e 73 bd d0 2e 97 3d
       0.1428789 0.08747459 -0.059400957 0.07381976
000020 ed 6a 20 be ec 8c 0a be 3f 0b 23 bc 6e 8c 24 be
       -0.15665789 -0.1353032 -0.009951412 -0.16069195
000030 02 17 70 bd 9a b9 1c be 12 30 35 bd 01 4c 3b be
       -0.058615692 -0.15305176 -0.044235297 -0.18290712
000040 1a b7 2b 3e 4b aa 25 3e 3a 8c 68 3e 1b 61 d2 bd
       0.16769066 0.16178243 0.22709742 -0.10272428
000050 e4 81 66 bd d0 a8 0f bb 57 43 3b bd 19 1a 1d 3d
       -0.056276217 -0.0021920688 -0.045718517 0.038354967
000060 21 9a 87 bd e1 af 30 3e 0e 50 91 3c 26 5b 12 3e
       -0.06621195 0.17254592 0.017738368 0.14292583
000070 f7 3b 58 bd 89 de 04 be 6b 03 c9 3d 9a 71 c1 bd
       -0.052791562 -0.12975515 0.09815105 -0.09445496
000080 cd f8 5b be 91 28 a6 3d 5a d6 c1 bc 9a 19 1c 3e
       -0.21481629 0.08113206 -0.023661781 0.15244141
000090 93 68 8c 3d 7b fc e3 3c c7 29 8b bd fa e1 84 be
       0.068558834 0.027830353 -0.06795078 -0.25953656
0000a0 d1 7d a9 bd d9 22 61 be 84 c2 c0 bc 6d 16 e3 b9
       -0.08275951 -0.2198595 -0.023530252 -0.00043313522
0000b0 ab f4 22 be f4 20 f6 bd 77 88 85 bd a7 25 8b 3e
       -0.15913646 -0.12018004 -0.06520169 0.27177164
0000c0 49 28 f7 bd 25 01 7c bd 76 a8 c5 3b 2c 2c 27 3e
       -0.12068231 -0.06152453 0.006032045 0.16325444
0000d0 b5 57 a5 bd b0 e9 19 3e d9 16 13 be 2a 0e ce bd
       -0.080733694 0.15030551 -0.14364184 -0.10061295
0000e0 9f 61 b2 bd f1 37 4f 3e 94 3b 42 3e 98 4c 4b be
       -0.08710026 0.20236184 0.1896804 -0.19853437
0000f0 96 30 27 3e 02 dc 8c 3d 6c 5a de 3d 3d 8b 15 3e
       0.16327128 0.06877901 0.1085709 0.14603896

actor.2.weight f4 [64, 64]
000000 fd 35 71 bd 3b 80 d6 bc e1 32 ad 3c de 82 0a 3e
       -0.058889378 -0.026184192 0.021142425 0.13526484
000010 f7 94 f6 3d 07 be f3 bc d8 ad 84 bd f3 a3 e6 bd
       0.120401315 -0.029753698 -0.064784706 -0.112617396
000020 ee 1c 9d 3c db 4e c5 3c 50 cf 57 bc c0 45 89 bd
       0.019178834 0.024085453 -0.013171986 -0.06702757
000030 bf cd d1 bc 0d 66 94 3d f5 b9 01 3e 7d 48 da 3b
       -0.025610803 0.07246027 0.12668593 0.0066614733
000040 6e 21 bf bc 51 f5 f1 bc b7 d8 3b 3b 93 71 22 bd
       -0.02333137 -0.029535921 0.0028663108 -0.039659094
000050 e5 bd 0d be 5f dc d6 3c bb d6 3e 3d 7d 0a 44 3c
       -0.1384197 0.026228128 0.0465915 0.011965391
000060 5d b9 be 3d d1 02 d3 3c d1 ac 14 bd 80 11 5c 3d
       0.09312699 0.025758179 -0.036297623 0.053727627
000070 02 d2 3c bc d1 7d 2c bd 2f f7 ea bd 72 75 03 ba
       -0.011524679 -0.042112175 -0.11472928 -0.0005014754
000080 49 c0 f8 bd 5d a1 ad 3c d7 98 f2 bc ac 10 38 bd
       -0.121460505 0.021195108 -0.029613895 -0.044937775
000090 ac 3b f2 3c d7 b8 e5 bc 37 08 a2 3d c0 c5 10 3e
       0.02956947 -0.02804224 0.07911723 0.14137936
0000a0 5f 35 01 be b9 ba e6 3d 4d 67 3f bd 76 10 93 bd
       -0.12618016 0.11266083 -0.046729375 -0.07180874
0000b0 2d d7 b8 3c fa 00 16 3d 24 ee ca bd 77 32 b9 bd
       0.022563541 0.036622025 -0.09908703 -0.090428285
0000c0 a3 70 d3 3d eb 03 ba bd 72 3b 0d 3d 68 d3 09 3d
       0.10324218 -0.090827785 0.03448052 0.03364888
0000d0 96 e1 cc 3d 75 09 44 bd 9f 8c d6 3d f3 88 ac 3d
       0.100039646 -0.04786058 0.1047604 0.084245585
0000e0 8e a3 b2 bd 1c e3 19 3d 91 bf c7 bd 4b eb 84 bd
       -0.08722602 0.037570104 -0.09753335 -0.06490191
0000f0 4d 74 e1 3d ca 9b fa bd bc 1c 75 3d 3c fe cb bd
       0.11008511 -0.12236746 0.059841856 -0.09960601
000100 33 7f f7 3c ed 20 84 bd 3e 8b 36 be e9 86 09 3e
       0.03021202 -0.064515926 -0.17826554 0.1343037
000110 ff a5 83 3c 7f bc 12 be 10 44 11 bc 5c 05 b9 3d
       0.016070364 -0.14329718 -0.008866325 0.09034225
000120 3c 48 eb bd dd 81 29 bd 68 c1 7e 3d 30 73 c9 bd
       -0.11488387 -0.041383613 0.062196165 -0.098364234
000130 4c 69 f7 3c 35 c8 f9 3d 43 47 67 bd 8d 91 f3 3d
       0.030201577 0.121963896 -0.056464445 0.11892996
000140 78 66 0b 3d bd 80 0b bd d9 e0 1a 3e 09 6f 19 bc
       0.03403327 -0.03405832 0.15124835 -0.009364852
000150 71 e0 27 3d f2 99 a7 bc df e2 39 bd 24 7e c6 3c
       0.04098553 -0.020459149 -0.045382377 0.02423007
000160 cd 79 2d bc 7e b1 6b bd cd 32 c7 bd 0a 7c cc bd
       -0.010588122 -0.057542317 -0.09726486 -0.09984596
000170 ea e5 2c bd 45 ab f3 3d 4e 5b 8d 3d 2a c3 1e be
       -0.04221145 0.118979014 0.069021806 -0.15504137
000180 6b 37 03 bd 01 26 c7 bc b8 8a 7f 3d b0 e7 a5 bd
       -0.032035273 -0.024310114 0.062388152 -0.081008315
000190 f3 da 1a bd ba b2 88 bd 6b c9 d5 bb d5 a9 d6 3c
       -0.037806462 -0.066747144 -0.006524255 0.02620403
0001a0 df 61 04 bd e9 84 c0 bd 71 90 27 3d 7f 7a d4 3c
       -0.0323199 -0.094003506 0.040909234 0.025937317
0001b0 9d 47 be bd 8d ee 8a 3c a3 50 a6 3d 36 77 c4 bd
       -0.09291003 0.016959453 0.08120849 -0.0959305
0001c0 93 d6 bd ba e4 75 59 37 69 02 be 3c 60 16 b2 3c
       -0.0014483504 1.29616565e-05 0.023194509 0.021739185
0001d0 05 9d 13 be 73 11 19 3e 9c e8 18 ba 74 22 b3 bd
       -0.14415367 0.14948063 -0.00058330013 -0.08746806
0001e0 2b 42 4c bd cf cc b8 bc 38 7b 9a 3d 7f 08 2f bd
       -0.04986779 -0.022558598 0.07543033 -0.042732712
0001f0 47 9f 3b 3e c7 e1 aa bc 59 94 29 3e a5 f1 bf 3d
       0.18322478 -0.020859612 0.16560496 0.09372262
000200 54 1b 41 bc 2b ad 5a bd 21 3b 33 bd 2a 66 e4 bd
       -0.011786301 -0.053387802 -0.04375756 -0.11152299
000210 cb c7 9b bd df 78 cc 3c 8c 70 82 3c a5 2d 01 be
       -0.07606467 0.02495998 0.015922807 -0.12615068
000220 00 d8 0d 3d bb 76 c2 bc 0e 5a 5e 3d ad 9d 27 3e
       0.03462982 -0.023738256 0.0542851 0.16368742
000230 00 e1 ad 3c 27 e4 e9 bc d4 14 b3 bd bf 26 01 3e
       0.021225452 -0.028551174 -0.08744207 0.12612437
000240 1b dc b5 bc 2c 71 dd bd fd b8 02 be 6c b5 d8 bd
       -0.022199681 -0.108126014 -0.1276588 -0.105814785
000250 c3 51 8e bd 7d 97 c4 bd f9 3a 18 3e d0 d9 ff bd
       -0.069491886 -0.095992066 0.14866246 -0.12492716
000260 82 46 05 3e 01 60 cc bb c1 33 25 3d 9c 03 ca bd
       0.13015178 -0.0062370305 0.04033256 -0.0986397
000270 f4 dc d2 3d f1 b0 a7 bc 18 55 ed 3d 7b e8 ab bc
       0.1029605 -0.020470114 0.11588496 -0.020984879
000280 d0 43 ca 3b 76 da 9c 3c 2c ac 26 be 82 24 72 bd
       0.0061726347 0.019147139 -0.16276616 -0.059116848
000290 cb c0 d5 bd 09 29 d4 3d 3a 30 86 bd 77 e7 95 3d
       -0.10437163 0.10359389 -0.06552167 0.07319539
0002a0 3c fd b5 3c 9c a4 72 3c 5c 96 33 3b 97 0c 42 bd
       0.022215478 0.014809754 0.0027402854 -0.047375288
0002b0 71 27 87 3d 92 e3 02 be 48 90 9d 3c 84 00 e6 3c
       0.0659932 -0.12782124 0.019233838 0.028076418
0002c0 88 b3 91 3d 75 57 13 3e ea ca 7f bd b5 7c 27 3d
       0.07114321 0.14388831 -0.062449373 0.040890414
0002d0 fe 03 0e 3e 3f 33 e0 bd 5a 88 1e 3d 3c 79 e5 3d
       0.1386871 -0.109472744 0.038704254 0.11204764
0002e0 a8 a7 26 bd 1b 3d 82 bb 49 02 06 be 33 40 be 3d
       -0.040687233 -0.0039745695 -0.13086809 0.09289589
0002f0 92 56 19 be 6c 0b df 3d e4 7c 9c bd f5 5e b5 3d
       -0.1497443 0.108908504 -0.076410085 0.08856002
000300 cc 89 09 3d c6 4b bf bd 2b a2 05 3e 3a c0 89 bd
       0.03357868 -0.093406245 0.13050143 -0.067261174
000310 99 50 f6 bc 5e 87 08 3b e1 48 94 3d 59 4c bd bc
       -0.030067729 0.0020832638 0.07240463 -0.023107694
000320 5e 36 33 3d 2d 2f 14 3d 93 36 59 bd df 6a 9b bd
       0.04375302 0.036177803 -0.05303056 -0.075887434
000330 bf 4f 6d bd a1 c8 04 3c 45 ec 6a bb 2d 76 86 bd
       -0.05793738 0.008104474 -0.0035846394 -0.06565509
000340 d2 bb d9 bc 25 ea 2d 3e d9 b0 0a 3d 11 92 e6 3c
       -0.026578818 0.1698385 0.03386006 0.028145822
000350 a1 23 52 3d 51 e3 18 bd e7 d9 89 3d 0e 64 96 bc
       0.05130351 -0.03732616 0.06731015 -0.018358257
000360 78 08 e9 3d 49 a7 01 be 30 99 89 3d b0 58 c9 bd
       0.113785684 -0.1266147 0.06718671 -0.09831369
000370 52 b7 fd bc f5 07 8c bd 5c 07 19 be ab da 98 3d
       -0.030971203 -0.06837455 -0.14944214 0.074635826
000380 44 bd df bc 88 f8 95 3d 55 de 1e 3d a1 26 c3 bd
       -0.027311929 0.07322794 0.03878625 -0.09528852
000390 6a 57 0c be ed 8c a9 bd 5b 0e 3b 3d 28 ab c5 bb
       -0.13705221 -0.082788326 0.045667987 -0.0060323663
0003a0 ad bc fe 3c 53 68 de bc df 44 f7 3c d0 fe c1 bd
       0.031095827 -0.027149355 0.030184207 -0.0947243
0003b0 3c cb 63 3d bb 70 af bd 37 1e 15 3d 2d 9b 49 3c
       0.05561374 -0.085664235 0.03640577 0.012305063
0003c0 69 de 48 bd 64 89 c7 bd 8a 07 d7 bc b3 c5 fa 3d
       -0.04904023 -0.09743002 -0.026248712 0.122447394
0003d0 e2 75 06 3e 84 29 c9 bd 14 37 9b bd 00 5f e5 bd
       0.13130906 -0.098223716 -0.07578865 -0.111997604
0003e0 ef d8 61 3d 77 38 8b bd 0c cf f1 bd e9 8a 46 bd
       0.055138525 -0.06797879 -0.11807069 -0.04847232
0003f0 03 09 82 bd a0 15 59 bd a9 07 0b 3e cb c9 d5 bc
       -0.06349375 -0.05299914 0.13577141 -0.026097199

actor.2.bias f4 [64]
000000 f3 83 02 bd 45 0c 7b 3d 12 86 68 bd fc a7 8a bc
       -0.031864118 0.061290998 -0.056768484 -0.016925804
000010 e0 fb d3 3d 82 47 cb 3d 62 f3 8e bd d3 5e aa 3c
       0.10350776 0.099257484 -0.06980015 0.020797169
000020 25 21 fc bc b5 60 3e 3c 64 41 bd 3d 72 a1 e3 bd
       -0.030777523 0.011619736 0.09240988 -0.111147776
000030 ea f5 c0 3d 2d a8 c3 3d 7e 10 1a bc 06 b6 95 bd
       0.094219044 0.09553561 -0.009403346 -0.07310109
000040 a6 ad a5 3d be 3f 23 bd 4a b5 e9 bd 19 23 69 3d
       0.080897614 -0.03985571 -0.11411531 0.056918237
000050 5e 51 89 bd ae 58 27 3d 0b e7 be bd 96 34 77 bd
       -0.06704973 0.040856056 -0.09321412 -0.060352884
000060 02 a0 a6 3d 92 e6 8e 3d 7d 63 ca 3d 50 d5 c5 bd
       0.08135988 0.069775715 0.09882257 -0.09659827
000070 05 36 90 bd 1a 75 4d 3d 2c 37 fc 3c a3 c0 92 bd
       -0.070415534 0.050160505 0.030788027 -0.07165649
000080 ed 42 91 3d 20 cf ac bd f9 f1 07 bd 77 c8 75 3d
       0.07092843 -0.084379435 -0.033189747 0.06000563
000090 dc 9c c1 bd 78 c1 d8 3d e2 22 e9 bd b0 06 57 bb
       -0.09453747 0.10583776 -0.113836065 -0.0032810383
0000a0 f1 2f 67 3d 55 5d 55 bd 9e 20 ab bd 7c 18 46 3d
       0.056442205 -0.05209096 -0.083558306 0.048363194
0000b0 be 78 5a bd f2 26 16 3d d7 53 b1 3d 77 db 67 bd
       -0.053337805 0.036658235 0.08658569 -0.056605782
0000c0 f5 48 e9 3d 2f b0 35 3d 90 7a a7 3d 31 ef f9 3c
       0.113908686 0.044357475 0.08177674 0.030509563
0000d0 e8 90 24 bd e5 ad c8 3d e3 f1 e4 3d ba 0d f2 bd
       -0.040177256 0.09798793 0.11178949 -0.118190244
0000e0 45 d3 e5 3d b5 38 e1 3d 65 93 1c bd 4d 6f 8d 3d
       0.11221937 0.10997144 -0.038226504 0.069059946
0000f0 45 7f 53 3c ef a6 6d 3c ce d7 d5 bd 40 fc 99 3c
       0.012908761 0.014505132 -0.10441552 0.01879704

actor.4.weight f4 [2, 64]
000000 3e ee 37 bd 04 56 eb bd c4 19 aa 3b 1e ab fe b9
       -0.04490494 -0.114910156 0.00519106 -0.00048574148
000010 24 d6 f5 3b 84 18 b0 3b 6b 3c 1d bc be 8f 0e bc
       0.007502334 0.0053740162 -0.009596924 -0.008701263
000020 78 dd f5 bc 5f af 25 bd a0 a6 b9 ba 9c b3 b8 3d
       -0.030012831 -0.04045045 -0.0014164038 0.09018633
000030 90 c3 b0 bc 23 09 e3 3d dd df cd bc 06 f1 4c bc
       -0.021577626 0.11085727 -0.02513116 -0.012508636
000040 f6 fb db bc d8 ad e3 3c 96 d1 14 bc 1b 5d d0 3d
       -0.026853543 0.027792856 -0.009083172 0.101740085
000050 b4 f3 15 3c 5a c5 22 bd 9c 14 3d 3d 31 fb 6e 3d
       0.009152342 -0.03973899 0.046162233 0.058345024
000060 5e 36 fc bc 29 08 ae bc 2f 40 92 3c af ff 97 bd
       -0.030787643 -0.021244125 0.01785287 -0.07421815
000070 bf ec 80 3d 76 4f d2 bd e2 ff f1 bb d9 d8 b7 3d
       0.06295156 -0.10269062 -0.00738524 0.08976907
000080 fe 4f 10 bd 20 cf 3a 3a 76 82 5a bc 39 12 af 3d
       -0.035232536 0.0007126201 -0.013336768 0.085483976
000090 a3 e4 b0 ba be 36 25 bd 7c d4 d6 bb 4f b7 e5 3b
       -0.0013495873 -0.04033541 -0.006556092 0.0070103775
0000a0 36 8a b8 bc 89 ba e5 3a 5c 93 e5 bc 0f 78 b4 bb
       -0.022526842 0.0017526905 -0.028024368 -0.005507476
0000b0 1b a3 49 bc d4 6d 83 bc 72 1d 74 3d e8 e0 e7 3c
       -0.012306954 -0.016043581 0.059598394 0.028305486
0000c0 35 aa f4 3b 35 42 61 ba a3 12 49 3d 3b ae c4 bb
       0.0074665793 -0.00085929345 0.04909004 -0.006002215
0000d0 82 40 9a bd 97 75 76 3c 45 a9 e9 3c 6f 7d bb 3a
       -0.07531835 0.015042684 0.028523097 0.001430435
0000e0 82 c8 94 3d 17 8f 1e bb cb dd f4 3c cd 30 ae 3c
       0.07264806 -0.0024194175 0.029890915 0.021263504
0000f0 e8 11 c5 bc 5d b9 e6 3c 46 cf af 3d be ef b0 3d
       -0.02405639 0.02816456 0.08584456 0.08639477
000100 97 c2 36 3d d7 99 e6 bd d6 be a6 3d 8c e5 6d bb
       0.04461917 -0.11259811 0.08141868 -0.003630015
000110 f4 c6 95 3c bf af d1 3c ac d1 66 bb 20 2b a4 bc
       0.018283345 0.025596498 -0.003522019 -0.020040095
000120 1d 0d 82 3d f2 14 d9 3c ed 6d 91 bd 0a fd 86 bd
       0.063501574 0.026499245 -0.07101045 -0.06591232
000130 58 bf 85 3c e1 33 56 bd 90 25 73 39 08 ff b2 bc
       0.016326591 -0.05229557 0.00023188279 -0.021850124
000140 ec e0 69 bd d7 b3 b7 bd 48 52 86 bc cc be 9e 3d
       -0.057099268 -0.089698486 -0.016396657 0.07751235
000150 00 07 a2 bb c6 c6 90 bd 3d d6 40 3d 0a b1 6e 3c
       -0.004944682 -0.07069163 0.047079314 0.014568577
000160 1b a2 be 3c 75 4c e0 3b 0e 79 9d 3b 43 61 0e 3e
       0.023270657 0.006845052 0.0048056906 0.1390429
000170 62 2e a6 bd 28 c0 ee bd fe dd 4a bc f9 5f c7 3c
       -0.081143156 -0.11657745 -0.012382029 0.024337756
000180 8a 46 df 3d e3 bc 5d 3c cd a4 eb bc 98 a7 5a 3a
       0.10902126 0.013533804 -0.028765107 0.00083410135
000190 54 b5 33 3d 2a e2 db bd 6a a0 1f 3d 97 c7 bd bb
       0.0438741 -0.10736497 0.038971342 -0.005791615
0001a0 1d cc b5 3b bc 0b 39 bc 00 93 0b bd 96 9c f2 3b
       0.005548014 -0.011294302 -0.034075737 0.0074039204
0001b0 df d5 44 bd a7 79 b9 bc 49 be 17 3d 0c f3 4d bd
       -0.048055526 -0.022641016 0.037046704 -0.050280616
0001c0 fd 57 9f 3b 50 24 90 3c 70 56 14 3d 4a 5f 8e 3b
       0.004862784 0.01759544 0.036215246 0.0043448554
0001d0 91 ec 0c bb 71 d0 0d 3a 31 6d 43 bd 7e b0 97 3c
       -0.002150331 0.00054097833 -0.047711555 0.018516775
0001e0 c1 57 5e bd e5 ec 9c 3b ea a7 f0 bd e4 a9 cf bd
       -0.054282907 0.004788982 -0.11750777 -0.10139826
0001f0 ad d7 11 bd b6 b2 83 3d 6c e1 de bd 6a 1c bd 3d
       -0.035606075 0.06430571 -0.108828396 0.09233935

actor.4.bias f4 [2]
000000 73 c6 f1 3c 6e 7a 08 be
       0.029513573 -0.13327953

critic.0.weight f4 [64, 15]
000000 4e af 67 3e b2 1f 54 bd a3 85 1d 3e d6 f3 b4 bd
       0.22625467 -0.05178804 0.1538301 -0.088355705
000010 f2 aa 4b 3f 4b dc 33 bd ad e8 22 be b6 54 f6 bd
       0.79557717 -0.04391126 -0.15909071 -0.12027876
000020 a7 4d 20 3f 68 9d 20 be 64 c9 07 3d 36 3c 1d 3e
       0.6261849 -0.15685046 0.033151045 0.15355
000030 84 d3 74 bd 36 d7 2f be c0 6c f9 3d 41 66 da 3d
       -0.05977203 -0.1717194 0.121789455 0.10664035
000040 9a 41 4b 3e 7b 67 ad bc 49 2b 2e be 8c 33 0e 3f
       0.19849244 -0.021167507 -0.170087 0.55547404
000050 69 bf b0 3e 48 a8 1f 3e 0b cf a3 bc f3 73 21 bd
       0.34521034 0.15591538 -0.019996187 -0.03941722
000060 5c 52 53 3d 1f b6 9b 3e fe 64 37 be 40 4a 17 bd
       0.051592216 0.30412385 -0.17909619 -0.036936045
000070 96 97 1c be c0 e9 b3 3d 55 b5 bf 3d 56 fb 40 be
       -0.152922 0.08784819 0.09360758 -0.18845877
000080 77 63 d3 3d 04 67 65 3e 52 bb 83 3e 04 5d 3a be
       0.10321706 0.22402579 0.25728852 -0.18199545
000090 08 07 84 3e fb 40 f8 3d 9a 52 3f 3d 5a e0 3f bd
       0.25786614 0.12121769 0.046709634 -0.046844818
0000a0 e9 a2 bd 3d 98 5b f2 bc 35 f3 61 be ec 2c 1a be
       0.09259588 -0.02958469 -0.22065432 -0.15056199
0000b0 b8 94 b4 3d 52 72 36 3e 6f f3 6c be 1f 5e a6 bd
       0.08817428 0.17817047 -0.23139738 -0.08123421
0000c0 70 7e 0d be 83 d3 d7 be 33 69 6b be a8 bc 26 be
       -0.13817763 -0.42153558 -0.22989349 -0.16282904
0000d0 52 aa 20 be 4b 91 16 be 76 4b 3d bd 14 fb 58 be
       -0.15689972 -0.14703862 -0.046214543 -0.21189529
0000e0 c2 20 16 be 83 25 31 be 08 4a 23 3e c4 1e 46 be
       -0.14660934 -0.17299466 0.1594621 -0.19347674
0000f0 20 e7 86 be b1 ab e5 bd a7 7d 92 3c b6 dd a7 3c
       -0.2634821 -0.11214388 0.017882181 0.020491462
000100 7d 9a f9 be a6 48 ed 3d a3 59 4f be 62 1b 93 bc
       -0.48750678 0.11586122 -0.20249037 -0.017957393
000110 f1 1e 17 be 99 83 be 3d 6d 53 14 3d 60 86 02 3d
       -0.14757897 0.09302444 0.036212374 0.03186643
000120 06 9e ce bd c4 4c 4a be 1e 65 36 3e 8a 58 2f 3e
       -0.10088734 -0.19755846 0.1781201 0.17123619
000130 f1 4f 80 be 3a fc d0 3d f6 a9 0f be 2e f6 e0 be
       -0.2506099 0.102043584 -0.14029679 -0.4393782
000140 4c 85 0c be 22 63 2d 3e 7b d0 db bd ef 38 07 bf
       -0.13722724 0.16932347 -0.10733124 -0.5282125
000150 d9 5d 54 3e 22 e3 14 3e 84 71 73 3e de 74 20 be
       0.20738925 0.1453977 0.23773772 -0.15669581
000160 62 51 e4 bd 26 89 6f 3e d5 7b b3 3e b9 d9 06 3e
       -0.11148335 0.23392162 0.35055414 0.13168992
000170 91 8d b9 bc 3b 5b ff 3e a7 d0 67 be de d5 7f 3f
       -0.022650512 0.4987429 -0.22638188 0.9993571
000180 03 65 05 be 60 91 2f 3f 07 ab de bd e2 3e 09 be
       -0.13026814 0.685812 -0.108724646 -0.13402894
000190 bb 2e 07 3e 0a 35 6b 3e e2 1d 45 3e d6 91 e7 bd
       0.1320142 0.22969452 0.1924968 -0.11307113
0001a0 c2 aa 38 be db 16 8d 3d d5 4a 14 bd 13 82 df 3d
       -0.18033889 0.06889125 -0.036204178 0.109134816
0001b0 f4 e3 5e bd 6a 35 48 bf 35 82 e3 be c0 48 25 bd
       -0.05441661 -0.78206503 -0.44435278 -0.040352583
0001c0 d1 a1 64 be 18 d3 84 3e 7c 7c 7b bd bd 82 f6 3c
       -0.22327353 0.25942302 -0.061398014 0.030091638
0001d0 00 60 a5 bb 14 2f c8 3d 54 e2 25 be a0 84 88 3d
       -0.0050468445 0.097746044 -0.16199619 0.06665921
0001e0 41 37 20 be 1f 8b 03 3e 80 d1 cf bd 3c 12 b7 3e
       -0.15646078 0.12846039 -0.10147381 0.357561
0001f0 43 91 26 be 1e ac 95 3d a9 ad 6d 3d de 48 48 be
       -0.1626635 0.073082194 0.058026943 -0.19559047
000200 f6 33 ac bd 8c 34 68 bc c0 65 dc bd 70 2b c5 bc
       -0.08408348 -0.014172684 -0.10761595 -0.024068564
000210 04 90 b2 3d 8f d5 83 be 40 ba 18 bd c9 67 5e be
       0.08718875 -0.2574887 -0.037286997 -0.21719278
000220 d5 bf 4f 3d dc 97 9f bb d1 37 54 3e e9 af 27 be
       0.050720055 -0.004870398 0.20724417 -0.16375698
000230 0b 83 53 3e 00 8e 3f be 56 da 58 3c 96 e1 93 be
       0.20655458 -0.18706512 0.013235649 -0.28883046
000240 1b ce 45 3e 97 b4 0f bd 9a d5 f0 bd 04 95 2c be
       0.19316904 -0.035084333 -0.11759491 -0.1685372
000250 95 2a 47 be 3e ff 00 3e 66 ce 22 3e 02 58 9a bd
       -0.19449838 0.12597367 0.15899047 -0.075363174
000260 0c 0e 48 bd 7e a5 75 be 70 cc 13 be cd c1 b9 3e
       -0.04884152 -0.23988912 -0.14433455 0.3628067
000270 98 79 6d bd 29 2a a2 3e df b8 98 be 05 9d 76 3e
       -0.05797729 0.3167279 -0.29828545 0.24083336
000280 b2 1b 90 3e c8 b2 1a be f8 00 6e bd f8 69 3d 3e
       0.2814613 -0.15107262 -0.058106393 0.18497455
000290 00 d2 86 bb da 5f cf bc bc 3d 3e be fa 13 e9 3b
       -0.0041143894 -0.02531426 -0.18578237 0.007112977
0002a0 ea fc 38 be ea 0c 08 bf 94 4a 95 bd 53 e4 36 bd
       -0.18065229 -0.53144705 -0.07289615 -0.04465134
0002b0 24 a4 77 be 7d 95 75 bf ca bb 1e 3e 20 d5 aa bd
       -0.24183708 -0.95931226 0.15501323 -0.083414316
0002c0 01 12 60 be 40 38 41 3c e4 c3 66 be 70 7f e6 3c
       -0.21881868 0.011793196 -0.22535664 0.028136939
0002d0 68 10 3a be 9d be 28 bd 45 34 e0 bb 92 db 4b be
       -0.18170321 -0.041197408 -0.0068421685 -0.19907978
0002e0 91 8f 94 be 20 41 02 bf ad 87 02 3e 76 71 ae be
       -0.29015782 -0.5088062 0.12747069 -0.3407094
0002f0 ac a2 00 3f c5 79 d3 3d 30 58 35 be 24 7d 84 3d
       0.5024822 0.1032596 -0.17709422 0.06469181
000300 82 fc b3 bd d4 c8 3d 3e e0 29 b5 3c e4 90 89 3d
       -0.087883964 0.18533641 0.022114694 0.06717089
000310 80 98 2d be 68 b9 a9 3a 56 1b 25 be 63 c5 a4 3e
       -0.16952705 0.0012948932 -0.16123709 0.32181844
000320 40 c3 09 be d8 f3 53 be 57 52 53 bd d1 1b 0f 3e
       -0.13453388 -0.20698488 -0.051592197 0.13975455
000330 25 0d ed bc 3c 44 20 be 6c 45 57 bd ea e5 3d 3e
       -0.028936932 -0.1565103 -0.05255644 0.18544737
000340 40 d1 d3 bc 94 8d 0f be 52 df 62 3e 5a c9 02 bc
       -0.025856614 -0.14018852 0.22155502 -0.007982576
000350 dd 2b 97 bc 2f 29 89 be 0c f6 0e bf 8c 8a fb be
       -0.018453533 -0.26789233 -0.5584419 -0.4912914
000360 85 a9 bd 3a c2 66 f1 be cf 2e 25 bf 80 83 ed bc
       0.0014470076 -0.4714871 -0.6452455 -0.028993368
000370 89 57 1c be 26 ba c1 bd c8 31 2b be 8a 94 3d 3e
       -0.15267767 -0.09459333 -0.16718209 0.18513694
000380 e1 dc 34 be 10 f8 02 be 91 b0 e2 3d 02 90 e1 3c
       -0.17662384 -0.12789941 0.110688336 0.027534489
000390 dd 35 e8 3e bc 23 c5 3e 28 20 37 3f 12 d8 9a bd
       0.45353594 0.38503826 0.7153344 -0.075607434
0003a0 13 0d 31 3f 67 d9 21 3f f5 61 bd bd 32 f5 32 3e
       0.69160575 0.63222355 -0.092471994 0.17476347
0003b0 3c f4 41 bd 70 0f 8e bc b8 29 56 be 18 58 df 3d
       -0.04735206 -0.017341346 -0.20914352 0.109054744
0003c0 e4 91 1c 3e 78 b5 5f 3e a4 93 f0 3d 9c af 34 be
       0.15290028 0.21846569 0.1174691 -0.17645115
0003d0 cd f6 fb 3e bf b4 7d 3e aa 7b dc 3c 93 f2 46 bd
       0.49211732 0.2477598 0.026914436 -0.04857118
0003e0 a2 d8 34 be f3 2f 58 bd 41 6a b0 3d 91 6d 39 be
       -0.17660764 -0.052780103 0.08614016 -0.18108203
0003f0 78 87 f2 bc 4d 85 00 be c6 5c 6c 3e 28 ea ff 3d
       -0.029605612 -0.1255085 0.23082265 0.12495834

critic.0.bias f4 [64]
000000 c9 0f 50 be fc 2b 6b bd 87 a3 61 bd c2 7d fd bd
       -0.20318522 -0.057414994 -0.055087592 -0.12377502
000010 68 fc 19 be 99 be bb bd 68 a3 90 3d c0 63 d7 3d
       -0.15037692 -0.09167213 0.07062417 0.10517073
000020 91 13 43 3d 4a 5d 02 bd 99 8d 04 be f2 ab 33 3d
       0.04762608 -0.03182725 -0.1294464 0.04386515
000030 22 0b 81 be 6a 83 39 be 95 a1 41 be 36 99 28 3e
       -0.25203806 -0.18116537 -0.18909295 0.16464695
000040 62 0f 87 3e 7f 30 89 3d d0 3e 17 3e d1 8c 79 ba
       0.26378924 0.06698703 0.14770055 -0.00095195795
000050 ce 95 d2 3c 0e 5b b0 bb fa de 93 bd 14 76 a4 bb
       0.025706198 -0.0053819483 -0.07220264 -0.005018959
000060 14 31 b1 3c 8a 51 31 3e c7 9a 84 bd 8e b6 23 be
       0.021629848 0.17316261 -0.06474834 -0.15987608
000070 ff bf 54 bc 16 11 07 be fa 23 d5 bd b2 5c 87 3d
       -0.012985229 -0.13190112 -0.104072526 0.06609477
000080 b4 c9 90 bd 10 03 d3 3c ce 76 2a 3e bb 2d db bd
       -0.07069722 0.025758296 0.16646883 -0.10702082
000090 42 d0 0d be 71 e6 d8 3d aa 70 68 bd 65 88 80 bd
       -0.13848975 0.10590828 -0.05674807 -0.06276015
0000a0 db 4b df bd 8e c0 97 3d 40 3e d6 3d 2d 46 fe 3d
       -0.1090314 0.07409774 0.10461092 0.12415729
0000b0 6e 53 b0 3c 55 a0 44 be 79 72 42 3c e5 40 3d 3e
       0.021524157 -0.19201787 0.011868113 0.18481787
0000c0 df a6 dd bd da 76 77 be 90 05 97 bd 0f a9 a7 bd
       -0.10822844 -0.24166432 -0.07374108 -0.08186542
0000d0 76 36 3d 3e 39 f6 88 3d 51 1d 65 3e 8b 5f 41 bd
       0.18477806 0.06687588 0.22374465 -0.047210258
0000e0 30 eb 45 3e e1 c2 d9 3d 98 97 ca 3d 1d f0 98 3d
       0.19327998 0.10632873 0.098921955 0.07467673
0000f0 52 52 ab 3d 83 07 cc bd 4f 0e 54 3e e3 92 ae bd
       0.08365311 -0.0996237 0.20708583 -0.0852411

critic.2.weight f4 [64, 64]
000000 c6 ad ae bd f1 ad 6e bd 66 a1 f0 3d 9c f3 b9 3d
       -0.085292384 -0.058271352 0.11749534 0.09079668
000010 ef ce 02 be a7 97 bc 3c 7b 30 8d be d6 ac 0c 3e
       -0.12774251 0.023021532 -0.2757605 0.13737807
000020 f5 33 89 bd 29 3a 21 be 3d eb d7 bd e3 9c 15 3d
       -0.06699363 -0.15744843 -0.10542915 0.036526572
000030 b3 70 82 3e 71 3a 4e bd 55 c0 94 3d 7a 00 da bd
       0.25476608 -0.050348703 0.07263247 -0.10644622
000040 31 39 aa bd 35 5c 89 bb 57 4b 27 3e ab fe 68 be
       -0.0831169 -0.0041919 0.16337334 -0.22753398
000050 ef 4b 91 3e 1f 54 45 bd de be 94 3e d2 38 9b bd
       0.28378245 -0.048175927 0.2905187 -0.07579197
000060 d2 be d8 3d 1e 41 89 bc b9 71 b1 3d c0 f3 9b 3a
       0.10583271 -0.016754683 0.08664269 0.0011898205
000070 53 e0 49 3e 03 57 86 bd a2 02 e8 bc fe a5 4d 3e
       0.19714479 -0.06559565 -0.028321568 0.20082852
000080 51 dc 2c 3e fe 4a 5d 3d 60 3c 05 3e eb 4d 16 bc
       0.16880919 0.054026596 0.13011312 -0.0091738505
000090 0e bd 01 3e d3 32 c2 3c 88 ec 10 be 4b 0d 02 be
       0.12669775 0.023705876 -0.1415273 -0.12700383
0000a0 c7 53 f8 bc 74 44 1e 3e 7a 90 a0 3d fc 12 10 be
       -0.030313386 0.154558 0.07840057 -0.14069742
0000b0 b7 f2 8d bc 9a 75 ca 3d 7b 29 d7 bd f6 3b 97 bc
       -0.01732765 0.09885712 -0.10505959 -0.018461209
0000c0 b2 c2 2f 3d d8 34 a4 3d c1 70 be 3d 31 17 3a 3e
       0.042910285 0.08017892 0.0929885 0.1817291
0000d0 2b 91 34 3d f7 21 ad 3d 31 d6 17 be f4 23 83 bd
       0.044083755 0.08453744 -0.14827801 -0.06403342
0000e0 11 5e 27 be 2a 40 a4 bd 8a 12 b7 bd 4b da 3c bd
       -0.16344477 -0.08020051 -0.08939083 -0.046106618
0000f0 8b d1 9c be 5f 83 d1 3d 00 ab b4 bc a1 27 11 bd
       -0.3062862 0.10230135 -0.022054195 -0.035438184
000100 d7 9b ed bc 04 2f d9 3d d4 29 d3 bd ba 80 a9 bc
       -0.029004974 0.10604671 -0.103107125 -0.020691264
000110 95 88 ca 3c f1 25 02 3d 56 fb 3f be 9b 21 ec bc
       0.02472333 0.031774465 -0.18748221 -0.028824618
000120 d8 d4 96 bd 2c 6a 7f 3c 02 26 47 bd 13 e6 44 bd
       -0.073648155 0.015589278 -0.04862023 -0.04807098
000130 b0 7c 20 bd c9 47 40 bd 26 ef 69 3d f1 8c ba bd
       -0.03918141 -0.04694346 0.057112835 -0.09108914
000140 60 ef 0f 3d af dd f2 bd 7a 3b f5 3c c8 3b c2 bd
       0.035140395 -0.11858689 0.029935587 -0.094840586
000150 12 04 b8 3d e6 63 c1 3d 05 69 e5 3c 30 d0 24 be
       0.08985151 0.09442882 0.028004179 -0.16095042
000160 28 fd c2 3d 4e 35 c5 bc e6 42 cc bd 59 d5 b0 3c
       0.09520942 -0.02407327 -0.09973697 0.021586107
000170 32 7c cc 3d 1d 84 1d 3e 42 0d 1c 3c 65 b3 56 3e
       0.09984626 0.15382428 0.009524645 0.20966871
000180 e2 4f b0 3c c2 b4 87 bd 7f fd 7d 3d 61 df 8e 3d
       0.021522466 -0.06626274 0.06200933 0.069762
000190 ac 77 e0 3d 06 b6 d2 bd 5d 38 26 3d 83 12 25 be
       0.109603256 -0.102886245 0.040581096 -0.16120343
0001a0 18 e4 19 bd 04 33 f9 3d bd f0 8a bd 4a 13 94 bd
       -0.037571043 0.121679336 -0.067841984 -0.072302416
0001b0 b4 98 c6 bc e0 97 fb 3c 50 5d 10 be 75 55 23 be
       -0.024242736 0.030712068 -0.14098096 -0.15950568
0001c0 67 b4 d8 3d 73 7b 67 3e 54 eb dd 3d 95 48 a1 3d
       0.10581284 0.22605686 0.10835901 0.07875172
0001d0 72 b9 d5 bd 0d b3 74 bd b9 ed 74 bc 90 c3 f1 3d
       -0.104357615 -0.05974107 -0.014949256 0.11804879
0001e0 65 d8 15 be e7 b4 48 bd e3 2b 25 bd 60 2d 03 3e
       -0.14633329 -0.049000647 -0.040325057 0.12810278
0001f0 23 06 28 bd e7 bc 79 3d 05 12 81 3d 16 19 ac bb
       -0.041021477 0.060971167 0.06302265 -0.005252014
000200 20 50 11 be ed 0e c2 3d d9 12 c0 3d eb f3 b8 bd
       -0.14190722 0.09475503 0.09378595 -0.09030899
000210 e7 76 d8 bd b8 5f a9 bd 1e ba 86 bd 4d 33 1a 3e
       -0.10569554 -0.0827021 -0.06578468 0.15058632
000220 09 76 02 3d 2b 3b 8e bd 3e c9 7a be f4 e5 98 bd
       0.03185085 -0.06944879 -0.2449083 -0.07465735
000230 2b d5 52 3d 56 b8 09 be 09 2f 4f be 2c da 10 3e
       0.051472824 -0.13449225 -0.20232786 0.14145726
000240 67 21 3f 3c 0c 23 0d be 89 d1 fd 3b 83 97 08 3e
       0.011665679 -0.137829 0.007745926 0.13339047
000250 1d 25 42 3e de fe 33 3c 5d 70 79 3e 47 78 d8 be
       0.1895947 0.010986058 0.2435927 -0.42279264
000260 89 6d 3b be 73 0e 48 bd 09 5e c2 bc 3a 1d 09 3e
       -0.18303503 -0.048841905 -0.02372648 0.13390055
000270 4a 57 16 3d dd f0 e3 bc 93 28 e0 bd 0e 69 c6 be
       0.03670434 -0.027824814 -0.10945239 -0.38752025
000280 dc 15 6b 3d d6 32 2f 3e 62 94 f6 3d 86 8d 96 bd
       0.057393894 0.17109236 0.120400205 -0.07351212
000290 04 9c ac bc 76 a6 1b be 12 1d f8 3d 44 9f d4 bd
       -0.021070488 -0.15200219 0.1211492 -0.1038194
0002a0 47 97 0d be b3 9a 32 3e b9 af d4 bd 06 52 cc be
       -0.13827239 0.17441826 -0.10385079 -0.3990633
0002b0 62 04 11 be db cc 4a 3d 1d 2f a1 3c 3e 11 5c be
       -0.14161828 0.04951177 0.019675786 -0.21490952
0002c0 42 07 07 3f 03 d7 5f bd ba d3 77 bd 19 8b 5a 3e
       0.5274545 -0.05464841 -0.060504653 0.21342124
0002d0 10 f4 bd bd 90 22 50 bc 20 de 0b be d2 1e bc 3d
       -0.09275067 -0.012703553 -0.13658953 0.09185566
0002e0 2b 58 56 3d db 86 ad bc 66 fd 36 3b 6a 0d fc bc
       0.052330177 -0.021182468 0.0027922033 -0.030768115
0002f0 5b 39 61 3f 3d b5 42 3e df c5 d5 bc e2 52 bb bc
       0.8797814 0.1901445 -0.026095329 -0.02286667
000300 59 84 e5 3d 3c 3a 43 bb e0 6d 00 be eb f5 26 3d
       0.11206884 -0.002978935 -0.12541914 0.04076187
000310 e8 60 a6 bd da 3d c8 bd a1 e5 8c bd ed 1a 4c 3d
       -0.08123952 -0.09777422 -0.06879736 0.049830366
000320 1f 40 2e 3d 0f 12 fe bc cc ec 28 bd f6 d6 b8 bc
       0.04254162 -0.03101447 -0.041241452 -0.022563439
000330 dd 3f b3 bd 58 fa df bd e1 6a fb bd dc 68 e5 bd
       -0.08752415 -0.10936421 -0.12276245 -0.11201641
000340 10 58 ac 3d 41 47 8a 3d 8f 37 2d bc a0 6e 9c 3d
       0.08415234 0.06751872 -0.010572328 0.076382875
000350 11 2c 4f bd 22 4e 9f 3d 49 fe bf bd 7e 46 8d bd
       -0.050579134 0.077785745 -0.09374673 -0.06898211
000360 03 1d 66 3c 08 a2 2f 3b eb 0c 70 bd d0 40 0a 3c
       0.014045003 0.002679946 -0.05860607 0.008438304
000370 f8 41 c1 3d 82 ae e0 3d 5d 80 75 bb e6 61 17 3e
       0.09436411 0.10970785 -0.0037460544 0.14783439
000380 e6 e9 31 3b 27 44 b2 3d e2 17 09 3e f1 f4 f5 bd
       0.002714747 0.08704405 0.13388017 -0.120096095
000390 57 99 b2 3d 3c 03 78 bd b7 50 00 be 9b e9 b3 bd
       0.087206535 -0.06054996 -0.1253079 -0.08784791
0003a0 64 53 d8 bc 7e 11 05 3d ac f1 bf 3d 9a 50 6b 3d
       -0.026406951 0.032487385 0.09372267 0.057449915
0003b0 eb 99 3b 3d 49 0d 8b bc 19 2b 18 be be d8 08 bd
       0.045801084 -0.016974108 -0.1486019 -0.033409826
0003c0 18 fb 02 3e 97 df 8e 3e b7 de 27 3e af fd bb 3d
       0.12791097 0.2790496 0.16393553 0.09179246
0003d0 09 0a ef bc 0c da 88 bd 51 5d 02 bd fc 9f 98 3d
       -0.02917959 -0.06682214 -0.031827275 0.074523896
0003e0 33 7f 2f be ef 1e 94 bd c8 02 9b bb 0f 39 8b 3d
       -0.17138366 -0.072324626 -0.004730556 0.067979924
0003f0 ca 98 00 bc b0 44 b6 3d 98 f8 16 bd c4 50 b4 3b
       -0.007848928 0.0889982 -0.03685817 0.005502792

critic.2.bias f4 [64]
000000 2b d6 0c 3e 68 92 b9 3d 32 19 49 bd 71 0a 8d 3c
       0.13753574 0.09061128 -0.049096294 0.017216893
000010 70 41 1c bc 1c 97 06 3d d6 8b 1f 3d 6e e7 87 3c
       -0.009537086 0.032858953 0.038951717 0.016589846
000020 17 71 11 3e 31 91 bb 3d 05 f7 f9 3d 20 4d 9c bc
       0.14203297 0.091585524 0.12205318 -0.019079745
000030 21 31 2f 3d 14 28 26 be f1 99 a9 3c 0b ed 8b 3d
       0.042771462 -0.16226226 0.020703288 0.06832322
000040 2a af 3f bc ad bc 9d 3d 86 e9 14 3d cc 14 a9 bd
       -0.011699477 0.07702003 0.036355518 -0.0825592
000050 74 0e f1 bd 03 5d 23 bd 70 49 3a bd 4f 05 93 3d
       -0.11770335 -0.039883625 -0.04548019 0.07178747
000060 74 0d f7 3d ea db f6 bc 97 3c 8a bd b5 58 1f 3c
       0.12063113 -0.03013416 -0.06749838 0.009725739
000070 04 1a 99 bd 43 71 ce 3c ad b4 af 3d 9e f3 85 3d
       -0.07475665 0.025200492 0.08579383 0.06540607
000080 8e b8 c3 bd 46 e0 81 3d 41 4b d5 3d 82 ef 81 bd
       -0.095566854 0.06341605 0.10414744 -0.063445106
000090 2e ee 3c bd d7 a9 9b bd 4f e6 07 bd 6c ea 9a 3d
       -0.046125583 -0.07600754 -0.033178624 0.07564244
0000a0 a3 13 b9 bc 9b 94 00 3e aa 95 5b bd 8f 57 70 bc
       -0.022592371 0.12556688 -0.053609528 -0.014669313
0000b0 74 8f ff 3c 33 1a 99 3d 3f 8e 41 3d a6 8d e6 bb
       0.031196333 0.074757 0.047254797 -0.007035929
0000c0 b4 56 70 3d 0e f8 25 3c 12 5b 87 bd c3 36 bb bd
       0.058676437 0.010129942 -0.06609167 -0.09141304
0000d0 40 bd 12 3e 44 90 df bd b8 c8 82 3d 21 7c 84 3d
       0.14330006 -0.10916188 0.0638594 0.06468988
0000e0 cc ec ff 3b ff d0 18 3e 9e 1e 06 3d 47 35 e1 3d
       0.007810211 0.14923476 0.032744043 0.1099649
0000f0 1f fd 96 3d a2 c7 c2 bd c7 aa df bc 23 57 c2 3c
       0.07372498 -0.09510733 -0.027303113 0.02372319

critic.4.weight f4 [1, 64]
000000 32 af 59 be 1e 83 8f bd 4f c6 5b 3e de cf c1 bd
       -0.21258238 -0.070074305 0.21462367 -0.09463476
000010 d9 6c 0e 3e a1 8d 38 be 96 51 33 3e f3 ec 57 be
       0.1390871 -0.18022777 0.17511591 -0.21086483
000020 0f c3 56 bd 18 59 30 be 37 3e 9e bd eb f1 fd 3d
       -0.052432116 -0.17221487 -0.0772671 0.12399658
000030 8f f9 32 3e 25 0c d5 3d a7 2d f5 3d 4c e7 5a be
       0.17478012 0.10402707 0.11971598 -0.21377295
000040 c9 36 61 bd 05 97 40 be 13 e5 cb 3d ac 47 cb bd
       -0.054983888 -0.1880761 0.09955802 -0.0992578
000050 f7 46 44 3e 51 bd c0 3d 84 2e 71 3c ff e5 e0 bd
       0.19167696 0.09411109 0.014720563 -0.10981368
000060 81 8c 5d be e5 ae 66 3e 37 76 ad bd e2 6b c3 bd
       -0.21635629 0.22527654 -0.08469813 -0.095420614
000070 c6 4e 96 bd d1 36 96 be 78 c9 67 3e 7f 3a 5f 3e
       -0.073392436 -0.29338697 0.22635448 0.21799658
000080 ea 0b 01 3e 1b 96 33 be a2 9c 23 3e 1b 45 26 3e
       0.12602201 -0.1753773 0.1597772 0.16237299
000090 9f 2a 70 3d 06 71 13 be 65 ba 1c 3e 31 2d 6b bd
       0.058634397 -0.14398584 0.15305479 -0.057416145
0000a0 28 84 da bd af 23 8c bd 60 58 f2 3d 8e 15 59 3c
       -0.10669738 -0.068427436 0.118332624 0.013249768
0000b0 3a 12 e4 3d 9e 1d 6b be 15 f2 26 be f9 4f a3 3d
       0.11136289 -0.22960517 -0.16303284 0.07974238
0000c0 4f ff 4a 3e 01 bf c1 bd 69 6e 12 3d 7b 05 17 3e
       0.19823955 -0.09460259 0.035749827 0.14748184
0000d0 84 0e 1c be 52 d5 0c 3e 7e 35 fb bd 3c f2 19 be
       -0.15239912 0.1375325 -0.12266062 -0.15033811
0000e0 d7 8a d5 3d b6 6d 9d 3e 9e 97 7e 3e 0a 36 93 bd
       0.10426872 0.30747765 0.24862525 -0.071880415
0000f0 51 4e 30 3e a2 b6 08 3e cd 06 f8 3d 7f c4 0b be
       0.17217375 0.13350919 0.12110672 -0.13649176
