models/003_Aiming_God/003_Aiming_God_latest.pth (torch, 48530 bytes, 11 tensors)

actor.0.weight f4 [64, 18]
000000 80 a8 4d be 4b 4a 81 be 93 b1 4c be bf 0e 13 3e
       -0.20083809 -0.25251994 -0.19989614 0.14361094
000010 23 2a 7b bd c2 9c 4f be b0 95 1d 3d 0b c1 33 3e
       -0.06131948 -0.20274642 0.03847283 0.17554109
000020 19 db 1d be 10 bd d7 bd a2 37 1f 3e 16 ea 6a 3e
       -0.1541561 -0.10534108 0.15548566 0.22940859
000030 8d 22 c3 3a d1 55 0e 3e 82 a0 8e bd d7 48 20 3e
       0.0014887616 0.13899924 -0.06964208 0.15652786
000040 a3 9f 69 3e d9 53 08 3e f9 73 50 3e 19 8b 32 bc
       0.22814803 0.13313235 0.2035674 -0.010897421
000050 77 dd c7 3c 4e 63 a0 3d a5 77 82 be 22 16 55 be
       0.024397595 0.07831441 -0.25481907 -0.20809224
000060 b6 88 28 3e 7d ea 2e 3d 2a 6d 1d bd d0 38 f8 3d
       0.16458401 0.042704094 -0.038434185 0.12120211
000070 d5 a7 31 be cc 3b a8 be 57 4f 59 3e 65 fe 6b 3e
       -0.17349179 -0.3285812 0.21221672 0.23046263
000080 d8 fd eb bc 36 02 e6 3d 1f e7 20 3e f4 1e 99 bd
       -0.028807566 0.112308905 0.15713166 -0.07476607
000090 c2 65 c0 bd eb 3d 12 3e e1 92 a3 bd e2 7f d8 bc
       -0.09394409 0.14281432 -0.07986999 -0.026428167
0000a0 50 a2 bb bc be 90 59 bd cc 4d b6 bd b0 03 29 be
       -0.022904545 -0.053116553 -0.08901557 -0.16505313
0000b0 c7 f9 74 3c f5 0b 69 be e2 97 38 bd a9 92 be 3b
       0.01495213 -0.22758467 -0.04506672 0.005815823
0000c0 22 7b 28 3b f6 d2 23 be a7 84 42 3e 70 21 3b 3c
       0.0025708159 -0.15998444 0.18995915 0.011421546
0000d0 a0 d5 31 bc ae 77 20 be a3 fd 8f be 5d 7e a1 bd
       -0.010854155 -0.15670654 -0.28123197 -0.0788543
0000e0 a8 de 2d 3d e9 8f 29 3e 30 39 da bd 26 ef 84 be
       0.04244867 0.16558804 -0.10655439 -0.25963706
0000f0 87 98 04 3e 19 22 86 3c 1e 95 86 bd f0 ea f2 bd
       0.1294881 0.01637368 -0.065714106 -0.11861217
000100 fb 64 46 3e bd af a3 bb 2f 0d af 3b f4 0d 13 3d
       0.19374458 -0.004995315 0.005342148 0.03590198
000110 90 bb 02 be 74 d0 60 bd c5 02 3b 3e 0a db da 3d
       -0.12766862 -0.054886296 0.18262775 0.1068631
000120 51 ea 16 3d e4 ed ca bd e5 2e 67 be fb 6b 0d be
       0.036844555 -0.09908655 -0.22576483 -0.13810723
000130 01 d2 92 3e 9d 53 0f be 50 e9 1f be ab d6 76 3d
       0.28675845 -0.1399674 -0.15616345 0.060263317
000140 2d 39 21 be 59 b9 cc 3d a6 95 cd 3d fe 44 54 b8
       -0.15744467 0.0999629 0.10038309 -5.0608993e-05
000150 0f 01 0b be f4 d5 75 3d d4 17 4e 3d 48 a6 e0 bc
       -0.13574623 0.060018495 0.050315693 -0.02742304
000160 56 bb ff 3d af ff 0e 3e ce 88 11 be ef 23 32 3e
       0.12486903 0.13964723 -0.14212343 0.1739652
000170 a5 36 79 3e 36 7f c2 bd 6b 9f 88 bd e4 48 3c be
       0.24337251 -0.0949692 -0.066710316 -0.1838718
000180 fc 72 3b be eb 34 13 3e 65 15 0c 3e 57 41 3a be
       -0.18305582 0.14375655 0.13680036 -0.18188988
000190 60 0d 1d 3e e0 db 84 3e 80 c2 2a 3e e0 d2 40 3c
       0.15337133 0.25949 0.16675758 0.0117690265
0001a0 f2 f9 aa 3d b0 ba 21 bd 0c 68 2d be dc 6c db bd
       0.083484545 -0.03948468 -0.16934222 -0.10714123
0001b0 20 d2 8a be b0 6c 54 be 6e 5d 75 be 05 8d 50 3c
       -0.27113438 -0.20744586 -0.23961422 0.012728934
0001c0 7d 23 bd 3d b5 92 33 be ae 06 e2 3d 59 9f fe 3b
       0.092352845 -0.17536433 0.1103643 0.0077704606
0001d0 a8 10 53 3e 41 55 38 bd 1e 1d 83 be 25 a8 fa bd
       0.20611823 -0.04500318 -0.25608152 -0.12239102
0001e0 58 12 ae 3d 3a 3c 64 be 1f 63 54 be cf 38 02 3e
       0.084995925 -0.222886 -0.20740937 0.12716983
0001f0 15 69 5e 3e 87 ea 09 3e ba 0d 1c be c0 33 45 3d
       0.21719773 0.13468371 -0.15239611 0.048145056
000200 b8 39 76 be a4 d4 5f be 63 2b 57 be 33 00 61 3e
       -0.24045455 -0.2185846 -0.21012644 0.21972732
000210 12 00 12 3e 06 b3 29 3e 37 98 24 bd 42 11 0a be
       0.1425784 0.16572198 -0.040184226 -0.13483146
000220 c0 d8 86 bd 55 6d 8d 3e cc 2e 36 3e ca 52 9c 3d
       -0.065843105 0.27622476 0.17791289 0.07632978
000230 5d 23 3c 3e ec c3 46 3d 57 ec 29 be 4e 31 e3 3d
       0.18372865 0.04852669 -0.16594063 0.110933885
000240 e2 4b 0b 3d 8c 12 f5 bc ec b0 ae bc e2 d7 7b 3d
       0.034007914 -0.02991607 -0.021324597 0.06148518
000250 e4 48 24 be b3 0d 98 3d 1b 3c 2f be 02 6a 4c 3e
       -0.1604343 0.07424488 -0.17112772 0.19962314
000260 1f 36 d1 bd 25 ae 81 3e 52 17 2c be 3b b5 08 3c
       -0.10215401 0.25328174 -0.16805771 0.00834399
000270 30 69 b8 3d 67 12 28 be 92 b6 cc bd 31 96 22 3e
       0.09004438 -0.1641327 -0.0999576 0.15877606
000280 9c 37 33 3d 9c 30 dc bd 71 3c 2c be b9 6f 4d 3d
       0.043754205 -0.10751459 -0.16819932 0.050155375
000290 1a b0 5a 3c bf ba ee bd a0 58 81 be 9b 35 74 be
       0.01334765 -0.11656713 -0.25262928 -0.23848574
0002a0 73 64 75 3d f3 df 36 be a6 95 b7 bd be 95 56 3e
       0.05991025 -0.17858867 -0.0896409 0.2095556
0002b0 06 f2 06 3e 28 ee 02 be 8d 8a e3 bd b0 5a 6f 3c
       0.13178262 -0.12786162 -0.11110411 0.014609024
0002c0 40 24 4d bb 68 ad cd 3c 40 f1 69 3c f8 86 9e 3c
       -0.0031302124 0.0251071 0.01427871 0.019351467
0002d0 a6 63 04 be 55 b8 e1 bd bc 51 67 bd dd a1 a4 bd
       -0.12928638 -0.11021487 -0.056474432 -0.080386855
0002e0 8c 2e f2 bd 93 4f c3 3c 30 ab 48 be b3 7c bb bd
       -0.11825284 0.023841655 -0.19596553 -0.09154644
0002f0 82 69 69 3e 88 44 87 bc ad de e1 bd 65 4e 87 3e
       0.22794154 -0.01651217 -0.110288 0.26426998
000300 ea 8a 90 3e 3a 51 e9 3d 78 49 90 3c 6f 5b 4f 3e
       0.28230983 0.11392446 0.017613158 0.20249723
000310 79 ff f4 bd 80 6d e6 3a 9c 65 f5 3d ba 2a 4b 3e
       -0.1196279 0.0017580241 0.11982271 0.19840518
000320 bb 0d 61 3e c8 fb 14 3e f3 ba 69 be 97 e3 3d 3d
       0.21977894 0.14549172 -0.22825222 0.046359625
000330 a2 95 ff 3d 5f 96 13 be 57 21 f9 bd 17 1a f1 bd
       0.12479712 -0.14412831 -0.12164562 -0.11772554
000340 19 5d 38 be d6 d0 eb bd 9a 96 17 bd f0 8d 4d be
       -0.18004264 -0.11514442 -0.03700886 -0.20073676
000350 3a cf 18 be 24 85 89 bd 80 4d f5 ba a4 4b 4e be
       -0.149228 -0.06714848 -0.0018715113 -0.20146042
000360 85 f3 1a 3e 2e 2e 5a bc da a9 d9 3d 51 e8 50 3d
       0.15131958 -0.013316674 0.106281 0.051002804
000370 e6 d8 97 3b e4 96 36 be dc e5 61 3c c6 b2 67 bd
       0.0046340106 -0.17830998 0.013787713 -0.056566976
000380 75 36 ae 3d 2a 03 cc 3d 3b 6a 91 be a1 ca 23 be
       0.085064806 0.09961541 -0.2840136 -0.15995266
000390 c1 67 6f 3e a7 ed 0c 3e 8c 84 40 be 98 3a f9 bc
       0.23379423 0.13762532 -0.18800563 -0.030423447
0003a0 50 4f 11 be 37 3d f7 bd 53 32 04 3d a3 30 2f 3d
       -0.14190412 -0.12072223 0.032274555 0.042770993
0003b0 be 22 90 be 71 1d ab 3d a8 9d 78 be 2f 21 91 be
       -0.28151506 0.08355225 -0.24278891 -0.2834563
0003c0 1e d0 a9 3d d9 70 b5 bc e9 63 11 3e ba 92 57 be
       0.08291648 -0.022148537 0.14198269 -0.21052065
0003d0 9e ff 7c bb f0 7e 32 bd 93 f1 0f be f5 d0 3f be
       -0.0038604508 -0.04357809 -0.14056997 -0.18732055
0003e0 e8 c6 d3 bd ba c7 e7 3d 39 fc 48 3e 68 07 ac 3c
       -0.10340673 0.11317392 0.19627465 0.020999625
0003f0 9c 75 41 3d 5f 90 e2 bd 3a 5f 3c be c1 ff 21 be
       0.0472313 -0.11062693 -0.18395701 -0.15820219

actor.0.bias f4 [64]
000000 56 37 b1 3d 70 54 41 3c d8 d8 33 3e ac c6 21 be
       0.086531326 0.011799917 0.17563188 -0.15798444
000010 5b 59 40 be af e3 9c bd 8d 4c 3f 3d 26 ff 6e 3c
       -0.18784086 -0.07660615 0.046703864 0.014587199
000020 7b 2b 98 3d 12 25 fd 3c a0 72 88 bc 46 cd 79 3d
       0.07430168 0.030901466 -0.01665622 0.06098678
000030 f0 25 7a 3d b9 c1 c3 3d b9 41 f9 3c 3f be e6 bd
       0.061071336 0.09558434 0.030426847 -0.11266755
000040 20 54 fa 3c a0 c5 0e 3e b0 08 0a be d5 39 ff ba
       0.030557692 0.13942575 -0.13479877 -0.0019472191
000050 da b7 cc 3d ca 36 3c 3e 08 80 40 be f5 f9 0e be
       0.099960044 0.18380275 -0.1879884 -0.13962539
000060 21 41 24 3e fd 68 7b 3d 88 5d 40 3e 5e 87 40 be
       0.1604047 0.06137942 0.1878568 -0.18801638
000070 f7 7f 27 be 12 43 2c 3e 83 9f 01 3d 13 25 79 be
       -0.16357408 0.1682246 0.031646263 -0.24330549
000080 18 a3 11 be be ed a2 bd a3 09 52 be ee c9 47 be
       -0.14222372 -0.07955502 -0.20511489 -0.19510624
000090 d9 0c 25 bc 49 83 2a 3e e3 ea 27 3b 2d b7 fc bc
       -0.010073864 0.16651644 0.002562218 -0.030849064
0000a0 30 ce c5 3d 29 73 ea bd 3a 1a 1b be d5 d6 f1 3d
       0.09658468 -0.11447746 -0.15146723 0.11808554
0000b0 17 24 66 3e cc c8 45 3e d7 f0 8f bd ce 2d 37 3d
       0.22474705 0.19314879 -0.070283584 0.044721417
0000c0 8c c0 6e 3d e0 8d 03 be 3f 98 aa bc 71 6f c0 3d
       0.058289096 -0.1284709 -0.02082455 0.09396256
0000d0 87 09 1b 3e aa 8d 49 bb 32 eb 2f bb d0 6f 6d 3d
       0.15140353 -0.0030754604 -0.0026843068 0.05796796
0000e0 4f df 1e be dd 87 4b be 02 e6 ea bd 6f ce d0 bc
       -0.15514873 -0.19876046 -0.11469652 -0.02548906
0000f0 fe 3c 7b bd 0b ad 63 3e 33 d9 0c be 33 d3 53 3d
       -0.061337464 0.2223398 -0.1375473 0.051715087

actor.2.weight f4 [64, 64]
000000 4f e7 e5 3d d0 d1 2d bc de 6f cd bd 26 29 9a 38
       0.11225759 -0.010609105 -0.100311026 7.350957e-05
000010 16 9b a3 bc 16 bd 3d 3d e5 bc 3a 3b db 63 f0 bd
       -0.019971412 0.046322905 0.0028493938 -0.11737796
000020 7a 68 3f 3d f9 90 7d 3c be 83 ad 3d 86 45 9c 3d
       0.046730496 0.015476459 0.084723935 0.07630448
000030 94 97 a1 bd a2 1d a7 3d 43 d1 6e 3b 46 80 bc 3d
       -0.07890239 0.08159949 0.0036440648 0.09204154
000040 a7 fd bd bb ca 90 20 3d 2a 9f d0 3d 13 de 1c bd
       -0.00579806 0.03920058 0.10186608 -0.038297724
000050 21 56 29 bd 62 0f d8 bc 64 b1 27 bd 45 e3 be 3c
       -0.041341905 -0.026374523 -0.040940657 0.02330173
000060 0f 2b e6 bd 3e ea 61 bc 27 a9 5c 3d dd 25 95 3d
       -0.112386815 -0.013788758 0.053872254 0.072826125
000070 16 e9 8c bd 42 c2 ec 3d 62 7b d1 3d 18 ca 3e 3d
       -0.06880395 0.11560489 0.102286115 0.04657945
000080 23 35 be 3d 13 c2 43 bd d9 17 c9 3d 24 04 07 3e
       0.09287479 -0.047792505 0.09819002 0.13185173
000090 10 89 61 3d 90 d4 4d 3d ab 8e 64 3d 84 23 f1 3b
       0.055062354 0.050251544 0.05580012 0.00735897
0000a0 0f 38 e1 bd 14 ed 9a bd d6 d2 b0 bd 42 46 7d bd
       -0.109970205 -0.0756475 -0.08633964 -0.06183458
0000b0 b8 97 27 3c 79 57 c7 bd 94 63 9a 3d 89 c5 81 bd
       0.010229044 -0.09733481 0.07538524 -0.06336505
0000c0 20 83 cd 3b 51 7c bf 3b 88 ed 7c bc 13 9b 92 bd
       0.006271735 0.005843677 -0.015437491 -0.07158484
0000d0 29 b9 5e bd f1 f2 48 bd c8 e6 0f bd 53 ba c0 bd
       -0.0543758 -0.049059812 -0.0351322 -0.094105385
0000e0 1c ce e4 3d 7e 65 be 3d 56 e4 9d bd 8b 05 80 bd
       0.11172125 0.09296702 -0.07709567 -0.06251057
0000f0 ec 76 08 3d e6 05 7d 3d e6 40 91 3d 1f 4c 9a bd
       0.033316538 0.061773203 0.070924565 -0.0753405
000100 13 7f ed bd c4 02 18 be f0 26 ff 39 e4 76 db 3d
       -0.11596503 -0.14844805 0.000486664 0.10716036
000110 7e 57 47 b9 25 a9 c1 bd b8 ac 1b bd 3f 0f 75 3c
       -0.00019010712 -0.0945609 -0.038006514 0.014957248
000120 4a d1 1a 3d 55 4c e7 bd dc ba 13 3d ba aa e9 3c
       0.03779725 -0.11293856 0.036066875 0.028523792
000130 77 65 e2 bd 5a d3 cf bd 1b a4 48 3d ba 22 1e 3d
       -0.11054509 -0.10147734 0.04898463 0.038607337
000140 a1 34 f3 3d c6 bf 90 bd 4b b4 b2 3d eb c1 07 be
       0.118752725 -0.07067828 0.087257944 -0.13257568
000150 b1 d1 65 bc 75 1e bc 3d c9 98 b2 bd cf 91 5f bd
       -0.014027045 0.09185497 -0.08720548 -0.054582413
000160 cc 51 5f bd af 48 0e bd 07 16 c6 3c 9f a4 bc bd
       -0.054521367 -0.034737285 0.024180425 -0.092110865
000170 f0 46 b0 3d 75 b9 88 3d f7 56 a5 3d f4 f8 88 3c
       0.0860728 0.06675998 0.08073228 0.016720273
000180 5c 0c 8f 3c 94 95 c3 39 b8 17 c2 bd 4f eb 9b bc
       0.017461948 0.00037304743 -0.0947718 -0.019033102
000190 0f 29 20 bd e3 b8 72 3d 47 f4 f5 3c 05 ad bc bd
       -0.039101657 0.059258353 0.030023707 -0.09212688
0001a0 51 19 e7 bd e2 3c 67 3d 13 71 41 3d 9f 5c d6 bd
       -0.112841256 0.056454547 0.047226977 -0.10466885
0001b0 d8 6d 13 be 0b 14 b9 3d dc 73 c1 bd 7d 8f 9c 3d
       -0.14397371 0.09037026 -0.094459265 0.07644556
0001c0 e2 36 82 3b db 32 4e bd 23 ed c6 3d 6b b4 e6 3c
       0.0039738277 -0.05034147 0.09713199 0.028162202
0001d0 4a 0f 99 3d 2e 15 9e bd a3 e7 f2 bd 3c 58 af 3d
       0.07473619 -0.077188835 -0.118605874 0.08561751
0001e0 f9 bb 8c b9 d0 92 35 bd 90 0f cd 3d c3 a4 b7 bc
       -0.0002684293 -0.044329464 0.10012734 -0.022417432
0001f0 20 28 d8 3d f0 6f 83 bd 50 5b 08 bd 61 68 07 3e
       0.10554528 -0.06417835 -0.033290207 0.13223411
000200 d6 a5 76 bd 7b ab d0 3d b5 05 06 3e b5 4d 07 be
       -0.060216747 0.10188957 0.13088115 -0.13213237
000210 ef 86 f6 3c de 7a 8d 3d f4 5c bc 3d 88 bf d6 3d
       0.030093638 0.06908201 0.09197417 0.104857504
000220 3e 3d 90 3c f8 1a 8e bd 36 a6 b0 3d 77 dc f8 bd
       0.017607328 -0.06938738 0.08625452 -0.12151425
000230 fa ca 2e 3c 0c 7f c7 3d 51 1b 16 3d 0f 21 b3 bd
       0.010668511 0.09741029 0.036647145 -0.0874654
000240 f0 c2 c3 bd 61 dc 2a 3d de 2d bf 3c bb 64 8b bd
       -0.09558666 0.041714076 0.0233373 -0.06806322
000250 49 f4 f4 3d 32 6b 83 3c 55 f2 06 be 13 8e 50 3a
       0.11960656 0.016042326 -0.1317838 0.0007955741
000260 71 c3 0a 3c 0c e3 b0 bc c1 2a 24 bc 46 1a 24 bc
       0.008469448 -0.02159264 -0.010019959 -0.01001603
000270 a9 48 bb 3d eb 38 ea bd c1 66 89 bd c1 4c d3 bd
       0.09144718 -0.114366375 -0.06709052 -0.10317374
000280 fd 0e 47 3d 97 1f 54 3d ab 81 01 be 4d 3d 99 3d
       0.04859828 0.05178794 -0.1264712 0.07482395
000290 bf 95 64 bd e7 7e 0c 3e 43 59 00 3e cb 31 01 be
       -0.05580687 0.13720284 0.1253405 -0.12616651
0002a0 46 8e af 3d 70 30 02 be 62 66 e5 3d 60 71 d1 bd
       0.085720584 -0.1271379 0.112011686 -0.10226703
0002b0 62 d3 33 bd 6b 4f 83 3c fa 39 b5 bd 2f e6 28 bd
       -0.043902762 0.01602908 -0.08848949 -0.041235145
0002c0 3f 31 b0 3c d0 02 32 3d f7 c9 87 bc 96 4e 0f 3e
       0.021507857 0.043459713 -0.016575797 0.13994822
0002d0 8a 88 97 3d 00 6f 39 3d 6f 81 19 3d cc a7 0e 3e
       0.0739909 0.045271873 0.037476953 0.13931197
0002e0 7c 60 1b 3d d6 e9 9f 3d 28 ce 23 3c 7f c3 91 bd
       0.03793381 0.078082725 0.009997882 -0.07117366
0002f0 26 91 02 3c d8 be aa bd 9d 70 7b 3d ad 09 ae 3d
       0.007969176 -0.08337182 0.061386693 0.08497939
000300 a3 32 fa bc 17 65 5e bc e1 46 9a 3d bf e0 af bc
       -0.030541724 -0.013573906 0.0753305 -0.021469472
000310 1f 74 e4 bc d1 fd 56 bd 6f 50 16 3e 25 23 c9 3c
       -0.027887402 -0.052488152 0.1467912 0.024552891
000320 aa 03 87 bd e5 51 b7 3d 87 35 94 bb a9 fd 04 be
       -0.06592496 0.08951167 -0.0045229825 -0.12987389
000330 22 6f a8 3d 29 18 8c bd 28 9c 40 3d a8 11 06 3e
       0.08224322 -0.06840546 0.047023922 0.13092673
000340 2b 90 d7 3c f8 36 63 bd 71 94 4f 3d 66 13 a8 bd
       0.026313862 -0.055472344 0.050678674 -0.08206825
000350 25 b2 76 bd b7 3e 0c bc 3b 0d 4a 3d 60 39 78 bd
       -0.060228486 -0.008559874 0.049329024 -0.060601592
000360 65 20 fa bc fd b9 f7 bd d3 f0 a0 bc a0 fe b3 3d
       -0.030533025 -0.12096021 -0.019646084 0.087888
000370 99 7c ba bd 74 20 d6 3d d5 3b 84 3d 68 34 32 bc
       -0.09105796 0.10455409 0.064567246 -0.010876752
000380 51 2d 85 bd 79 0d 8f bd a3 59 4b 3d 1e 34 bb bd
       -0.06502784 -0.069849916 0.04964603 -0.091408
000390 e1 7d f4 bc d5 9c 99 3d 73 21 f4 bc c8 6a 6a bd
       -0.02984518 0.075006165 -0.029801106 -0.05723074
0003a0 d4 5f 24 3d 2e a1 cd 3c 06 80 ea 3d 20 a4 b2 3c
       0.04013045 0.02510127 0.114502 0.021806777
0003b0 54 87 c7 3d 16 53 2e 3c 9b 1b 11 3e c4 34 27 bd
       0.09742609 0.010639926 0.14170687 -0.040821806
0003c0 e0 f3 61 3d 2f a8 ab bd 63 78 9f 3d 50 ca 1b be
       0.055164218 -0.08381688 0.07786634 -0.15213895
0003d0 aa 25 89 3c 1a bf d8 bd 88 61 f1 bd 8e 2c 96 3d
       0.016741592 -0.10583325 -0.11786181 0.07332717
0003e0 1c 2b 39 bd 47 3d 42 3d 3b af 74 3c e3 d8 84 bd
       -0.045207128 0.04742172 0.014934356 -0.0648668
0003f0 cb 37 70 bd 3c 74 82 bd 7a 19 03 3e 3d f0 bb 3d
       -0.05864696 -0.06369826 0.12802687 0.09176681

actor.2.bias f4 [64]
000000 e0 df 72 3b 9b 6e b6 3b 9f 76 cf bd 72 43 72 bd
       0.003705971 0.0055673844 -0.10130047 -0.059146352
000010 c2 d0 16 bd 5e 83 cc bd d7 35 79 3c b8 02 34 3d
       -0.03682018 -0.09985994 0.01521059 0.043947905
000020 b4 4a 6e bd 5a 48 ee 3c 43 36 bd 3b d3 bc 61 bd
       -0.05817671 0.029087234 0.0057742908 -0.055111717
000030 7d d0 50 3d ee 4b 9c bd 41 63 97 3c 6f cf c5 3c
       0.05098008 -0.0763167 0.018479945 0.024146764
000040 36 d5 af 3d ab 93 b0 3b 01 cd 8b 3d d2 07 f1 3d
       0.08585589 0.005388697 0.06826211 0.1176907
000050 84 d4 22 3d 05 ea 75 3d 1c 44 01 3e 98 32 bd bb
       0.039753452 0.06003763 0.12623638 -0.0057738535
000060 f5 0e 5b bc 5e 05 91 3c ff e1 86 3c 22 6a ff 3c
       -0.013370265 0.017702755 0.016465185 0.031178538
000070 c5 1c e8 bd ec e0 29 3c 6e 67 b1 bd 08 70 d0 3d
       -0.11333612 0.010368567 -0.08662306 0.10177618
000080 33 41 b3 bc 7f f8 c1 bc e8 32 33 3b 4f 4c 3e bd
       -0.021881675 -0.023678062 0.0027343575 -0.046459492
000090 7d 85 0f 3b df b6 b0 3d 26 03 4f bd 7a 5a 3e 3d
       0.0021899634 0.0862863 -0.050540112 0.046473004
0000a0 03 2c 0c 3d e8 f4 f4 bd 07 a6 05 3e c8 7d 85 3d
       0.03422166 -0.11960775 0.13051616 0.065181315
0000b0 93 48 ce bd f1 a2 cb 3d 75 6c c2 bd d5 c8 bb 3d
       -0.10072436 0.09943188 -0.09493343 0.09169165
0000c0 e3 40 e4 3c 12 05 83 bd e1 9c cd 3d ac 9e fc 3d
       0.027862972 -0.063974515 0.10039688 0.12334952
0000d0 52 8b 20 bd eb 36 d4 bd 5a 60 1a bd d2 c4 53 bd
       -0.039195366 -0.10362037 -0.037689544 -0.051701374
0000e0 9f 01 cc 3c a1 fb b0 3c c6 9e 94 bd b1 37 85 3b
       0.024903117 0.021604361 -0.07256846 0.004065477
0000f0 44 57 67 3d 72 8e 00 3d 80 1e 40 3d 44 86 4a 3d
       0.056479707 0.031385846 0.046904087 0.049444452

actor.4.weight f4 [2, 64]
000000 50 34 ec ba 96 35 d0 bd 88 c4 be bd ad f0 0e bc
       -0.0018020961 -0.10166471 -0.09314829 -0.008724374
000010 c6 44 e8 bc 6e c9 04 bd 4c c9 95 3b 66 19 6e bb
       -0.028353106 -0.03241866 0.0045711156 -0.0036331057
000020 a9 fa 07 bc 88 0b 94 bc a3 19 61 bd ad a2 25 bd
       -0.008299508 -0.018071905 -0.05495609 -0.040438343
000030 7f 9f ce 3c 42 80 a2 3d 1b df 65 bc c9 f2 7b bd
       0.025222538 0.079346195 -0.014030243 -0.061510835
000040 88 7e 89 bc 42 43 bf bc dd 7c 3f 3d f8 87 d8 bd
       -0.016783968 -0.0233475 0.04674994 -0.10572809
000050 70 eb 97 3c 60 1e d7 3d 9d 72 8f bd 97 85 93 bb
       0.018544883 0.105038404 -0.070042826 -0.004502009
000060 d9 a3 48 bc f5 d5 f4 3c 1a 8d 73 bd 38 72 b9 bd
       -0.012246096 0.029887179 -0.059460737 -0.090549886
000070 81 d5 dc 3b 2c be 26 3d 9e 79 99 3c bb d3 a0 3c
       0.006739319 0.040708706 0.01873475 0.019632211
000080 ea 6f 1a bd 73 ad 14 bc 43 a7 87 bd 4f 9f 87 bd
       -0.037704386 -0.009074557 -0.066236995 -0.066221826
000090 79 bb 8a 3c ec f4 e7 3b e0 6c 95 bc a4 75 88 ba
       0.016935097 0.0070787575 -0.018240392 -0.0010411036
0000a0 dd ef b7 bc c0 a3 af bd 3c 86 66 3d 4b 0a 7b ba
       -0.022453243 -0.08576155 0.05628036 -0.0009576424
0000b0 12 f1 ce bb a0 01 c2 bd f6 68 d4 bd 44 81 01 bd
       -0.006315359 -0.09472966 -0.10371582 -0.031617418
0000c0 81 7f 78 bb 22 48 0a bd 35 1f 00 bd 0b ed 02 bd
       -0.0037917795 -0.033760197 -0.03127976 -0.031964343
0000d0 bc d3 b7 3c db 06 5d bd 09 46 b5 3d 9e bf de 3d
       0.02243983 -0.053961616 0.08851249 0.10876392
0000e0 bf 8a b5 3d 51 31 83 bd d2 c3 70 bb fd 04 55 3c
       0.08864354 -0.06405891 -0.0036737812 0.013001678
0000f0 7d a1 ec 3d 4c eb 1b 3d ed 07 d5 bc 10 76 65 bd
       0.11554239 0.038066193 -0.026004756 -0.056020796
000100 67 0f 82 3d 90 2b a3 3d 8f 3a aa bd 3c c8 cc 3c
       0.06350594 0.07967293 -0.083119504 0.024997823
000110 65 9d 09 3e 9b c3 bc bd 47 8c 0c 3d 73 a8 e5 3b
       0.13438947 -0.09216996 0.034313466 0.007008606
000120 1f 6f 0c bd 48 f3 a9 bd 35 1c cc bd b4 ca ca bd
       -0.03428566 -0.08298355 -0.099663176 -0.09901944
000130 77 f2 45 bc 63 d0 c0 3d 2a 50 5e 3a 15 fc 17 3b
       -0.012081734 0.094147466 0.00084805733 0.0023191024
000140 0f 2e 72 bc 92 38 19 3d 13 f3 f2 bd fb 26 a7 bd
       -0.014781489 0.037407465 -0.11862769 -0.08161732
000150 d1 38 b7 bd 83 0f f1 bc 65 e7 95 bd dc 73 4b 3d
       -0.08946384 -0.029426342 -0.07319526 0.04967104
000160 e2 b2 9e bc 4b 47 5d bc 86 a8 de bd 2b f1 fd bc
       -0.019372407 -0.013505767 -0.10871987 -0.030998787
000170 6f b5 0c 3e a8 6c 89 bd 74 ce 34 bc 4c 6b 92 3c
       0.13741086 -0.06710178 -0.01103555 0.017873429
000180 66 a9 2b bd ab f7 8d bd af 70 f2 bc d2 82 a7 bd
       -0.041909598 -0.069320045 -0.029594747 -0.08179249
000190 47 17 94 bd 38 53 44 bc 54 02 cc bd f7 83 22 bb
       -0.07231002 -0.0119827315 -0.099613816 -0.0024797895
0001a0 ef ae b8 3c 28 a8 0d 3d 1e 86 3b bd 7f 75 24 bd
       0.022544352 0.034584194 -0.0457822 -0.040151116
0001b0 1b 2d c7 bb e4 71 58 bd 48 ac cf bd 37 73 d2 bb
       -0.006078375 -0.05284299 -0.10140282 -0.006422426
0001c0 4d ea 9f bc 6f 2e 89 3d 52 64 62 3b 82 88 35 bd
       -0.019520903 0.0669831 0.003454466 -0.044319637
0001d0 f7 34 c0 3d ff 46 25 bd 10 d9 cc bd b8 e9 04 be
       0.09385102 -0.04035091 -0.10002339 -0.12979782
0001e0 19 7f 89 3d 23 5f 49 3d fd f3 f6 3c cc 13 3e bc
       0.06713695 0.049162995 0.03014564 -0.0116014
0001f0 40 b3 e6 bd 37 ce dd 3d fb 49 d0 bd 0e 2b 1e 3b
       -0.11264658 0.10830348 -0.10170361 0.002413455

actor.4.bias f4 [2]
000000 61 51 f0 b9 3b 71 40 3d
       -0.00045837 0.046982985

critic.0.weight f4 [64, 18]
000000 62 5c 4f bb 8a b5 3b be 37 09 5a 3f e4 27 b1 ba
       -0.0031640758 -0.1833097 0.8517031 -0.0013515917
000010 41 6e 25 3e 8b 3d 33 be ab 63 f1 bd 02 a5 c1 bc
       0.1615534 -0.17503946 -0.11786588 -0.023638252
000020 35 d9 1d 3e 5e db 62 ba c7 cf d3 3d 54 75 04 be
       0.15414889 -0.0008653904 0.10342365 -0.12935382
000030 ac 43 62 be 7f f7 62 3e f5 ad 34 3e 7c 51 78 bd
       -0.22096127 0.22164725 0.17644484 -0.060624585
000040 10 46 4d 3c 5b 6a 22 3e b6 54 e8 3b 98 2d b1 bd
       0.012528911 0.15860884 0.0070901765 -0.086512744
000050 06 4c a7 3e 44 db 27 3e e7 5a 2b bd f9 2c 83 be
       0.3267519 0.16392237 -0.041834738 -0.2562025
000060 6d ad 60 bc e8 45 43 3e a9 a3 f6 bd 60 7a 8b 3d
       -0.013713223 0.19069636 -0.120429344 0.068104506
000070 22 35 91 bd 37 f7 55 be 6c 1a c3 bd 5f e2 16 be
       -0.070902124 -0.20895086 -0.09526524 -0.14734791
000080 12 0d ac 3d fc 16 5f 3d 91 09 4d be ac 5c 58 bd
       0.084009305 0.05446528 -0.2002318 -0.052822754
000090 ce 3b 73 be e6 c5 d1 bb 50 bb 98 bd e8 27 8a 3d
       -0.23753282 -0.006401765 -0.07457602 0.06745893
0000a0 ab 78 19 be 08 98 60 3b a5 bc 36 bd e9 e3 10 be
       -0.14987437 0.0034270305 -0.0446135 -0.14149441
0000b0 72 83 09 be 5f e7 88 3d a7 f2 ff 3c 54 9a b2 be
       -0.13429049 0.066847555 0.031243635 -0.34883368
0000c0 b7 2c a7 bd 56 62 c4 3d 10 6a c0 bd 48 f8 c1 3c
       -0.081628256 0.095890686 -0.0939523 0.02367796
0000d0 01 45 67 be 8d c8 e5 bd 7f d3 10 bd db c9 e3 3d
       -0.22584917 -0.11219893 -0.03535795 0.11122485
0000e0 f4 d4 80 3c 43 3a 56 bd 40 8f e5 bd d6 df 3d 3e
       0.015726544 -0.052301656 -0.112089634 0.18542418
0000f0 48 2d 6a bd e1 94 8d bd 22 af cf bb 8c 36 2e bc
       -0.05717209 -0.06913162 -0.006338016 -0.010633122
000100 99 b3 e5 3b 45 30 dc 3d 15 77 72 3e 21 ac 68 3e
       0.007009935 0.10751394 0.23678239 0.22721912
000110 cb bf 40 3e fa 91 bf 3d 46 a0 d2 3d ea 54 a0 bd
       0.18823163 0.09354015 0.10284476 -0.07828696
000120 56 ec dc 3d b1 ca 73 bd 6a a2 80 be 76 f8 8c 3e
       0.10787265 -0.059519473 -0.25123912 0.2753331
000130 43 0e 92 bd b0 ea 20 be aa 30 e1 bd c4 ff 91 be
       -0.071316265 -0.15714526 -0.1099561 -0.28515446
000140 43 ae 5a be 96 6d 6a bd 84 ff c9 bd ab a9 ee bd
       -0.21355538 -0.057233416 -0.09863189 -0.11653455
000150 3c c9 59 3d 08 0f 4f be 9e 87 85 3d f5 a8 29 3e
       0.053170428 -0.20220578 0.065200076 0.16568358
000160 c5 1b fa bd a8 3d e4 bc d5 a3 54 be 25 fd 42 3e
       -0.12212328 -0.027861431 -0.20765622 0.1904188
000170 26 8b f3 3e 5d 22 1f be a7 62 2c bd 39 e2 c0 3e
       0.475671 -0.15540452 -0.04208627 0.37672594
000180 48 5b 11 bd 55 13 45 be 4f 70 ac 3d 5e 44 2b 3e
       -0.035487443 -0.19245656 0.08419859 0.16725299
000190 a0 2d 17 3d f6 a9 28 be 62 d6 f6 3d b9 0c 22 3e
       0.036908746 -0.16471085 0.12052609 0.15825166
0001a0 c9 68 64 3e a9 08 24 3e 66 52 e4 3d aa 34 ad 3d
       0.22305597 0.16018929 0.11148529 0.084573105
0001b0 e9 10 2d be 23 ac 4a be 6a 11 3c bf 99 ac 21 be
       -0.16900982 -0.19792227 -0.7346407 -0.15788497
0001c0 ce 16 3c 3e 2d 76 ce 3d 51 18 70 3d 68 3f 20 be
       0.18368074 0.10081134 0.05861694 -0.15649188
0001d0 ce 41 f8 bc 63 60 03 be d7 5e 20 be 62 c7 11 3e
       -0.030304816 -0.12829737 -0.15661179 0.14236215
0001e0 95 15 34 be 38 13 ee 3c 28 85 b2 3c 48 4b d4 bc
       -0.17586358 0.029061899 0.02179201 -0.025914803
0001f0 02 1d f0 3d 84 3c 72 3d 20 6b 67 3e c9 31 08 3d
       0.11724283 0.059139743 0.22599459 0.033250604
000200 c9 25 7b bf 3d cc 1e bd 79 71 1d bb c1 ec 02 bd
       -0.9810453 -0.038768996 -0.0024023934 -0.031964067
000210 55 17 2d 3e e1 88 84 be b8 0d 33 be 8d 86 85 bd
       0.16903432 -0.2588568 -0.17485702 -0.06519804
000220 42 c9 72 be f1 d6 eb bc fe 46 eb 3d 88 6d 88 bc
       -0.23709586 -0.028789015 0.1148815 -0.016653791
000230 d6 f7 95 bd 40 f2 43 3b 06 a0 b6 3d 4d 5d 1e 3e
       -0.073226616 0.002989903 0.08917241 0.15465279
000240 d6 a6 5d be bb 27 13 be 6b b2 53 3f f5 15 65 be
       -0.21645674 -0.14370625 0.8269412 -0.22371657
000250 b7 32 1e 3d 3c 42 55 3e 6f 40 01 be 51 d6 1a be
       0.038622584 0.20826048 -0.12622236 -0.15120818
000260 1f 65 3c be e6 cf f4 bd 20 fe 21 be de 65 e4 3d
       -0.1839795 -0.11953716 -0.15819597 0.11152242
000270 c5 a3 36 3e de be 9b 3d d5 b2 32 3e e0 4e f4 bb
       0.1783591 0.076047644 0.17451032 -0.0074556917
000280 a5 ad 4e 3e 60 34 53 be 24 20 00 be 68 cf ac bd
       0.20183428 -0.20625448 -0.1251226 -0.08437997
000290 10 07 89 3e 6e 70 bd bc 3f 21 74 3e a5 50 bb bd
       0.267632 -0.0231249 0.23840807 -0.09146241
0002a0 fe 4d 1f 3e b8 80 0f bc ae 8c 1e 3d 6e 70 52 3e
       0.15557095 -0.008758716 0.03870838 0.20550701
0002b0 16 1f 46 be 81 de 8e be 16 ac 3d 3e 28 85 26 be
       -0.19347796 -0.27904132 0.18522677 -0.16261733
0002c0 3d b1 29 be 32 09 b2 3d e4 f6 6f be 00 91 26 be
       -0.16571517 0.0869316 -0.23434025 -0.1626625
0002d0 f2 e6 f4 bc 63 1a 4c 3e dc be 07 3f 99 d3 19 3e
       -0.02989528 0.1993194 0.53025603 0.15022124
0002e0 3e 85 21 3c 62 8d 81 be dd cd 7a 3d a5 dd 01 be
       0.009858428 -0.2530318 0.061231483 -0.12682207
0002f0 2e c2 d2 bc 9f a0 da 3d 35 55 ae 3c 70 a9 e0 bc
       -0.025727358 0.10675167 0.021280864 -0.027424544
000300 f0 2c 77 3e f7 74 67 3e 56 ba 64 be 9d 1c 64 be
       0.24138236 0.22603212 -0.22336707 -0.2227654
000310 a9 c8 48 be 62 77 1f be b2 17 bb be bc df 1e 3e
       -0.19607796 -0.15572885 -0.36541516 0.15515035
000320 ea 88 85 be 78 01 1d be 7a 03 81 be a2 f7 94 bd
       -0.2608102 -0.15332592 -0.25197965 -0.07273795
000330 13 47 88 be 6d 85 00 3e 5a 65 9f be 8b 9d 23 3e
       -0.26616725 0.12550898 -0.31132013 0.15978067
000340 11 7f 5c bd cd a8 52 3d 2d 51 d7 bc 8a 92 41 be
       -0.053832117 0.051430512 -0.026283825 -0.18903556
000350 4c 3f 22 be b9 6d 1f 3e fe a3 12 be 21 27 60 3e
       -0.15844458 0.155692 -0.1432037 0.21889926
000360 2e 5a a9 bd 26 4e 24 3e c7 6f 56 bf 4f 37 bd 3d
       -0.082691535 0.16045436 -0.8376431 0.09239065
000370 47 11 ef bd 40 0c f5 bd 8d 1d 15 3e 27 9c cf 3c
       -0.11673217 -0.11965227 0.14562054 0.025343014
000380 be 7c 58 be e7 4f 71 3e aa 59 e5 3c 7d 0c 09 bd
       -0.21141335 0.23565637 0.027996857 -0.033459175
000390 b6 0d 4d 3e be de a8 3d 73 d8 2d 3e 4c 9f 5d 3d
       0.20024762 0.0824561 0.169771 0.054106995
0003a0 92 b2 0e be 82 92 df bd a2 7f 60 be fc 62 69 bd
       -0.13935307 -0.10916616 -0.21923688 -0.056979164
0003b0 2e 30 f1 3e 36 d3 da 3d e2 7b 78 3e ff 91 76 3d
       0.4710707 0.106848165 0.24266008 0.060197826
0003c0 d7 5c de bd 4c e6 44 3e 6f 22 c3 3d 50 70 9a 3d
       -0.108575515 0.19228476 0.09528052 0.07540953
0003d0 07 7a 33 3e 50 46 11 be 88 90 85 3e 8c 2e 5c 3d
       0.17527018 -0.14186978 0.2608683 0.053755328
0003e0 e2 25 2c be 95 5c 07 3e 4c b7 81 bd c0 19 8c bc
       -0.16811326 0.13218911 -0.06333789 -0.017102122
0003f0 6b d9 67 be 89 87 14 3e 83 9f 29 be 3a dd ed 3d
       -0.22641532 0.14504828 -0.16564755 0.11614461

critic.0.bias f4 [64]
000000 ca a5 81 3e 45 41 72 be 69 3d 62 be 02 8e 8c be
       0.253218 -0.23657711 -0.22093739 -0.27452093
000010 09 d7 38 3e 0f 2f 00 3e 68 dd f3 bc 20 2f b0 bd
       0.1805078 0.12517951 -0.02976866 -0.086027384
000020 49 12 6c 3e 91 ea 99 be a0 d2 60 be 50 0b 80 bd
       0.2305385 -0.30061772 -0.21955347 -0.06252158
000030 15 0a 84 be e5 48 22 be d4 c3 9c 3e c8 c2 e5 bc
       -0.25788942 -0.1584812 0.30618155 -0.02804698
000040 5b fc fa bd 41 01 81 3d f6 eb 9c be 24 2d 60 3d
       -0.12255164 0.06299067 -0.30648774 0.05473055
000050 23 b4 d1 3d 55 53 87 3e 4e 1d e2 3e 0b 48 4c 3e
       0.102394365 0.26430765 0.44162983 0.19949357
000060 1c 94 34 be 83 14 8b 3e 6a e8 44 3e 97 9a 17 3d
       -0.17634624 0.27164087 0.19229284 0.037012663
000070 c1 05 6e 3e 38 c3 8c 3e 35 fe 03 3e 90 39 51 3e
       0.23244382 0.2749269 0.12889941 0.20432115
000080 73 69 5b 3e d0 f0 6d 3e 1d 2d 83 3e ac aa 82 be
       0.21426944 0.23236394 0.25620356 -0.25520837
000090 6b 96 18 be 7a 6f cb 3d 85 72 95 3e 36 1f bc 3d
       -0.1490113 0.09933372 0.29188934 0.091856405
0000a0 be 7a df bd 2e 44 c6 bd 7f 12 6d be e5 fe 0e 3e
       -0.10912083 -0.09680973 -0.23151587 0.13964422
0000b0 49 73 a3 3e 07 ea a8 be 17 6e 39 be 7e d3 9c 3e
       0.31923893 -0.3299105 -0.18108402 0.30630106
0000c0 c6 e8 85 be 2c f1 e6 3d 5b 2f 67 3d 11 3a 24 be
       -0.26154155 0.11276469 0.056441646 -0.16037776
0000d0 0a d5 8f be 26 fa 6d 3e cc 4e 77 be aa d2 5b be
       -0.28092223 0.23239955 -0.24151152 -0.2146708
0000e0 78 0f 13 be d2 8f 84 3d 7c 0f e9 bb 2b 67 9b be
       -0.1436137 0.06472744 -0.0071124416 -0.30352148
0000f0 d0 4a de 3d 9c f3 94 be f7 9f a2 3e 6a b3 9d 3e
       0.10854113 -0.2909211 0.31762668 0.30800945

critic.2.weight f4 [64, 64]
000000 6a 2a d4 3e bc 3f 31 3e 31 81 9a bd 78 b9 a4 bd
       0.4143861 0.17309469 -0.075441726 -0.08043188
000010 1d 33 a1 be d2 9a 81 3e 33 e5 3b bf f4 ed 89 be
       -0.3148431 0.2531343 -0.73396605 -0.26939356
000020 36 4f 10 3f 07 bd 3e 3d 69 e9 1c 3f 44 3e 05 3e
       0.56370866 0.04656699 0.61293656 0.13012034
000030 70 6e db be 15 84 8d 3e 19 7f 13 bc 58 fe b4 be
       -0.42857695 0.27639833 -0.00900247 -0.353503
000040 c0 73 c0 3d bf 53 e3 3d 96 fe b3 bd a5 95 a1 bd
       0.093970776 0.11099958 -0.08788793 -0.078898706
000050 63 5a e2 bc 9e 02 6c bd ac d9 b0 3c c0 5f 68 3c
       -0.02763099 -0.057619683 0.021588169 0.014182985
000060 c2 61 f0 bd b7 f5 e5 bd 2c 14 11 3f 3f 71 61 bf
       -0.11737396 -0.11228507 0.56671405 -0.88063425
000070 c5 cf 5a be 68 03 09 3e c6 28 40 3f b4 7b 52 be
       -0.2136832 0.13380206 0.75062215 -0.20555001
000080 a6 5f 1d bd f4 f0 c2 3e 8b e4 4c 3e c2 00 94 3e
       -0.038421296 0.38074458 0.20009057 0.28906828
000090 64 3e 00 3f 99 79 08 bf 65 e8 0f be 0f 56 70 be
       0.500952 -0.53310543 -0.14053495 -0.23470329
0000a0 93 d5 b5 3d 40 8d 00 bf f9 57 12 be 2a f0 52 3f
       0.08878627 -0.5021553 -0.14291371 0.8239771
0000b0 7c 99 1b bd 49 34 9c bd 38 b9 db be a0 07 fe 3d
       -0.03798817 -0.0762716 -0.42914748 0.12403798
0000c0 2c e4 57 bd 98 94 e9 be d3 70 1a bf aa a4 1b 3d
       -0.052707836 -0.4562118 -0.60328406 0.037998833
0000d0 06 3a af bc 62 fd 46 be 30 96 92 be 70 d3 80 bc
       -0.021389972 -0.19432595 -0.2863021 -0.015725821
0000e0 5c 02 07 3e 98 2a 0b bd 9f 97 97 be 52 9e 4c bf
       0.13184494 -0.033976167 -0.29607865 -0.7992908
0000f0 fd ef db be f9 7c ed bc c9 8d 49 3e 3c e7 34 3e
       -0.42956534 -0.028990256 0.19682993 0.17666334
000100 32 67 8d 3c 6b 8e 17 bd af 3c 29 3e 26 f6 d3 3d
       0.017261121 -0.037001055 0.16527055 0.103496835
000110 78 fc 7d be 0e d3 1d bd 2c 7d 8c 3d b2 a1 41 3d
       -0.2480334 -0.038531356 0.06859812 0.047273345
000120 f4 78 1a be a8 ec 0a 3e d4 87 40 3d c4 59 b8 3d
       -0.15085202 0.1356684 0.047004536 0.090014964
000130 a3 82 25 3e b8 d4 4e 3d d3 cc c9 bd 47 9f 21 3d
       0.16163115 0.050495833 -0.0985352 0.03945854
000140 3b 70 48 3d 22 00 04 3e 6e 59 35 3e c8 45 f2 ba
       0.048935156 0.12890676 0.17709896 -0.0018483931
000150 1f e2 0c be 28 fa 11 be 28 88 d5 bd cb 77 c1 3c
       -0.13758133 -0.14255583 -0.1042636 0.023616692
000160 e2 1a 42 bd 7b 49 38 be 22 3b fe bc f7 b9 6d bd
       -0.04738892 -0.1799678 -0.031034056 -0.058038678
000170 59 8c 03 be 3a b8 14 be 5e c3 ce 3d dc 09 b1 bd
       -0.12846507 -0.14523402 0.10095857 -0.08644459
000180 d3 e7 d6 bc e6 82 fe bd ec 77 e4 bc 6c 61 7a bd
       -0.02623359 -0.12427311 -0.027889214 -0.061128065
000190 20 63 00 bc 09 44 6c bb d5 54 23 be 93 5e d0 bd
       -0.007836133 -0.0036051294 -0.1595033 -0.101742886
0001a0 5f c2 1c 3d 3a e3 87 bd 06 1d 73 bb 34 73 55 3d
       0.038271304 -0.06635137 -0.0037096157 0.05211182
0001b0 55 5a 5a be c3 cc 90 3d 33 78 b9 3d 10 3f 0a be
       -0.21323521 0.07070305 0.09056129 -0.13500619
0001c0 d4 53 ee 3d c9 14 50 bd cd 51 07 bd 59 46 ab 3b
       0.11637083 -0.050801072 -0.033036996 0.005226892
0001d0 19 a1 25 bc 52 7f 1b bd 4c f4 14 3e 66 53 f1 3d
       -0.010109209 -0.03796322 0.14546317 0.11783485
0001e0 5c 86 20 3c 9c 4b ba 3c eb 87 00 3e 15 f9 09 3e
       0.009797659 0.022741131 0.12551849 0.13473924
0001f0 fb df 2b be 02 cf 1b 3e 07 a7 85 bd e6 7b c9 3c
       -0.1678466 0.15215686 -0.065259986 0.024595212
000200 b5 f2 60 3d 06 7d 60 be 6a 3b e2 bd f5 d6 99 3d
       0.054918963 -0.21922693 -0.110464886 0.07511703
000210 23 9f fb 3d d2 1d 38 3e ec b4 cb 3d c5 a7 d2 bd
       0.12286212 0.17980126 0.099466175 -0.10285906
000220 bd c6 53 3d 52 e1 48 be bd c3 46 bd 5f 21 28 3d
       0.051703203 -0.19617203 -0.048526514 0.04104745
000230 27 b8 ba bd 9b be 83 bd e1 f1 86 3e f7 21 09 be
       -0.091171555 -0.064328395 0.26356414 -0.13391863
000240 12 b7 0e 3d 62 06 96 3b 8f 5f d1 bd f0 45 90 bc
       0.03484256 0.0045783976 -0.102233045 -0.017611474
000250 92 db eb 3d 89 8d 28 3d c9 2b 43 3e d0 59 f5 3d
       0.11516489 0.041150603 0.19059671 0.11980021
000260 d3 35 7c bd 7d 69 08 3e 4c 06 01 bd a3 ee de 3d
       -0.06157477 0.1332149 -0.031500146 0.1088536
000270 0d 77 c7 3d 2f f7 33 3e d1 d4 e2 bb 40 e7 96 bc
       0.09739504 0.17574762 -0.0069223423 -0.018420815
000280 56 b8 c9 3d 2e 3f 44 3d 16 4f 42 3d 32 de 05 be
       0.098496124 0.047911815 0.047438703 -0.13073042
000290 5d 55 8d bd 93 58 de 3d ea f2 f7 3d 32 08 41 bc
       -0.069010474 0.10856738 0.12106879 -0.011781739
0002a0 aa a1 34 3d c0 8b ea bc b6 db b6 bb 24 58 b2 bd
       0.044099487 -0.028631091 -0.005580391 -0.08708218
0002b0 c8 10 d5 3d 2f 23 b6 bd 44 4b 26 3d 32 56 62 ba
       0.104035914 -0.088934295 0.040599123 -0.000863406
0002c0 e0 45 aa 3d 2f 49 8d bd 53 16 d5 bd 4d c9 3b be
       0.08314109 -0.06898724 -0.10404649 -0.18338509
0002d0 cf 2d ca bd e1 94 5e 3e 74 3b 04 be 62 ae 68 bd
       -0.098720185 0.2173648 -0.12913305 -0.05680693
0002e0 be 9f 6d bd 17 b7 74 3c 4e 68 cf 3a 39 c1 1f be
       -0.05801367 0.01493623 0.0015823932 -0.15601052
0002f0 31 ab eb bb 91 25 18 be a6 1a 20 3e 26 62 9d 3c
       -0.0071920385 -0.1485808 0.15635166 0.01921184
000300 6b ee 50 3e 48 87 14 3e 49 32 ec bc 44 67 f6 3d
       0.20403449 0.1450473 -0.028832572 0.12031415
000310 8b 4a 4f be 0a 9d 36 3e 06 1e 8b be b0 94 47 be
       -0.2024328 0.17833343 -0.27171344 -0.19490314
000320 0e 87 a5 3e 6d da 7f 3e 62 3f 39 3e 75 bf d6 3d
       0.323296 0.24985667 0.18090585 0.10485736
000330 a9 ab 2e be 5f 3e 47 3c e2 46 95 3c a5 d9 26 be
       -0.1705767 0.0121608665 0.018222276 -0.16293962
000340 e4 b9 a9 bd 2f 38 05 3e 4f 3a 8c bd 50 94 20 be
       -0.08287409 0.13009714 -0.06847059 -0.15681577
000350 be 28 9a 3d 59 db f3 bd 8f 24 bf 3d 1b 14 82 3c
       0.07527302 -0.119070716 0.09333145 0.015878728
000360 46 1e ee 3c f9 c0 23 bd eb e8 63 3e 3a e8 91 be
       0.02906717 -0.039978955 0.2225682 -0.28497487
000370 95 8f a2 bd 8f d7 ec 3b 6e ee 80 3e c1 62 80 3d
       -0.07937542 0.007227845 0.25181907 0.06268836
000380 1d 0a b1 bc e4 06 87 3b e2 cc 70 bd 8c 97 8f 3d
       -0.021611268 0.0041206945 -0.05878914 0.07011327
000390 bc 25 e7 3d 32 9e 41 be 99 c5 3a bc e7 7a 27 3d
       0.11286494 -0.18908003 -0.01139965 0.040888693
0003a0 f2 4d 84 3c c7 c1 91 be 6d 5b d2 bd 27 01 59 3e
       0.016150448 -0.28468153 -0.10271344 0.21191846
0003b0 35 60 de 3d c3 49 e5 bd d0 7d 87 bd 34 8c 87 3a
       0.10858194 -0.111957096 -0.06615794 0.0010341466
0003c0 6e 7a 11 bb 7d ab 4f be cb 6a 63 be e6 eb 16 3e
       -0.0022198218 -0.20280261 -0.22208707 0.14738426
0003d0 9f 65 32 3e c0 06 25 be d6 f2 a6 bc a8 f8 08 3e
       0.17421578 -0.16115856 -0.020379465 0.13376105
0003e0 79 46 4f 3e ba ae e2 3d 2c 85 ee bd 09 7b cb bd
       0.20241727 0.11068483 -0.11646494 -0.099355765
0003f0 d0 0f 5d be 5c 10 26 3d 4a 75 ce bc 47 84 bc bd
       -0.21588063 0.040542945 -0.025202412 -0.092049174

critic.2.bias f4 [64]
000000 18 1e 95 bc 38 eb 35 be 31 d0 74 3e 2f f2 a0 3d
       -0.018202826 -0.1776551 0.23907544 0.07858693
000010 c5 42 9d bd 8b 5f b5 bd 1e 79 8d bc 0b 58 40 bb
       -0.07678751 -0.08856114 -0.017269667 -0.0029349353
000020 ff 68 cb bd 7f 1c 71 39 b0 9e 47 3d 38 32 0a 3e
       -0.09932136 0.00022994167 0.04873532 0.1349572
000030 01 ac 09 be 09 c1 ff bd ca 10 53 3e 39 e5 f0 bd
       -0.1344452 -0.124879904 0.20611873 -0.11762471
000040 6b 73 1e 3e c0 66 1a be 90 c0 f2 bd aa 7e 54 be
       0.15473716 -0.15078259 -0.11853135 -0.20751444
000050 ec c1 11 be cb 2e 31 3d 1f 69 b3 bc 8a d3 98 bd
       -0.14234132 0.043257516 -0.021900712 -0.07462223
000060 0c 22 ee 3d 94 18 f4 bd 06 99 19 3e 42 42 9d bd
       0.11627588 -0.119187504 0.1499978 -0.07678653
000070 51 a6 e0 3b 40 e0 ad 3c bc 43 cf bd 8f 70 43 3e
       0.006855764 0.021225095 -0.10120341 0.19085906
000080 98 3a 4e be e5 b7 d8 bd 51 06 24 3d 81 eb 8b 3c
       -0.20139539 -0.1058195 0.040045086 0.01708007
000090 84 af 2e bd 3a f8 e4 3c 6c f0 67 3d 37 c2 02 be
       -0.042647853 0.027950395 0.05662577 -0.127694
0000a0 51 78 8f 3b 2a d0 24 3d 63 8d af bd e5 ef 33 bd
       0.0043783565 0.040237583 -0.08571889 -0.043929953
0000b0 27 89 ed 3c e8 5d db 3d f8 bb 64 3e 35 42 34 be
       0.028996063 0.107112706 0.2233733 -0.17603381
0000c0 27 18 35 3e 81 2a d6 bd 9c 8b 89 bd 23 71 9b bd
       0.17684995 -0.10457326 -0.067160815 -0.075899385
0000d0 55 33 65 bc 97 9c 4b bd e5 38 c6 3d 41 2c 16 be
       -0.013989289 -0.049709883 0.096788205 -0.14665319
0000e0 2d d2 9c 3d 6c f7 a0 bd 33 96 6f 3d 81 bf d3 3d
       0.07657275 -0.07859692 0.05849285 0.10339261
0000f0 fb 22 69 3c ba 5f f5 3c 84 9d ab bd f2 c0 0f 3e
       0.014229531 0.029952873 -0.08379653 0.14038447

critic.4.weight f4 [1, 64]
000000 2f df e2 3e e3 21 31 3e aa 92 29 be 5a 65 20 3e
       0.443109 0.17298083 -0.16559854 0.15663663
000010 74 f2 5d 3e 5e 54 09 3e d9 fc 00 3e 14 e1 ab bd
       0.2167452 0.1341109 0.12596454 -0.083925396
000020 1b cb 06 3e 18 05 28 be f3 a1 c2 be cf 93 23 be
       0.13163416 -0.16408193 -0.38014182 -0.15974353
000030 e2 77 64 3e 1e 8e a9 3d ea 1f 35 be 67 f5 0d 3e
       0.22311357 0.0827906 -0.17687955 0.13863145
000040 f4 69 21 be 12 9d 38 3e cc c7 31 3e cd 70 14 3e
       -0.15763074 0.18028668 0.17361373 0.14496155
000050 d4 27 54 3e 4e c2 43 3e cb 99 2d be 9b e1 da 3d
       0.20718318 0.1911709 -0.16953199 0.10687562
000060 c8 1a 52 3e 36 2b 16 3e b6 81 3e be f3 e2 1e 3e
       0.20518029 0.14664921 -0.18604168 0.15516262
000070 2e 88 39 be 3d 5d 7d be cb 52 42 3e d0 3c 50 be
       -0.18118355 -0.24742599 0.18976896 -0.20335698
000080 87 fd 4a 3e e8 0b 40 3e 7d 94 72 be 08 91 a2 3e
       0.19823276 0.18754542 -0.23689456 0.31751275
000090 40 dc c5 3d 03 b2 34 be 6b ce 42 be 00 10 dc be
       0.0966115 -0.17646031 -0.19024055 -0.42980957
0000a0 90 ba af bd 45 d6 2b 3e cd 78 5b 3e 42 a2 73 be
       -0.08580506 0.16780956 0.214328 -0.23792365
0000b0 2a 8e 62 bd 54 eb 06 be 97 4b db bd 39 04 28 3e
       -0.05531136 -0.13175708 -0.10707777 0.16407861
0000c0 68 dd 23 be 7c 9b dc be 59 0c 30 3e d1 42 14 3e
       -0.16002429 -0.43087375 0.1719221 0.14478613
0000d0 5f 28 1b 3e 0e cb db 3d c2 bc 4b be 9f b7 cb 3d
       0.15152119 0.10732089 -0.19896224 0.09947132
0000e0 b2 d9 2f 3e 2a 3e b2 3e 06 bd 27 be 85 c6 00 be
       0.17172888 0.34813052 -0.163807 -0.12575729
0000f0 b3 f4 ea 3d 33 2a 52 be 8c ee 09 3e 9e 91 30 be
       0.11472454 -0.2052391 0.13469905 -0.17243049
