models/AsesAgent_Phase2/AsesAgent_Phase2_best.pth (torch, 47291 bytes, 11 tensors)

actor.0.weight f4 [64, 15]
0.28439206 -0.26244336 -0.060432497 0.20334364 1.4149954 0.6344618 -0.06509656 0.6449712
-0.23180509 -0.015609117 -0.020915123 -0.052962333 -0.23015429 0.15474549 0.22512347 -0.04199519
-0.5546532 0.027294181 -0.0592968 -1.7119292 -0.1807404 0.06566216 -0.16448893 -0.7659059
0.054822795 -0.35065302 -0.17459795 -0.18545835 -0.024869025 0.11627421 0.06072518 0.32282883
-0.014575516 -0.11475018 -1.973224 -0.057031784 0.0571794 -0.23522435 -0.52273285 0.083575845
-0.07797678 -0.23008043 0.20979932 -0.03288433 -0.007827818 0.08284612 -0.10866232 0.4531955
-0.20168 -0.08664567 -0.19336991 0.07134858 -0.1746007 0.46872 -0.0933267 0.37025633
0.13477215 -0.1251766 -0.05770737 0.2573553 0.10438056 -0.013502745 -0.29754338 -0.26759034
-0.5768442 0.1610308 -0.16118388 -0.08528019 0.4845423 -0.08050033 -0.4272507 0.12788233
0.041436106 -0.024651408 0.15856552 0.19014587 -0.012418856 0.30319065 0.3137785 0.51044565
0.16875836 -0.1157143 0.28424126 -0.40041384 0.34515166 -0.2686194 0.1701943 -0.12969248
-0.18421501 -0.065926775 -0.14994587 -0.043597236 0.68896514 0.32330453 -0.49814954 -0.11497825
-0.00024714108 -0.09634698 0.6053207 0.15688719 0.43456486 0.1563482 -0.24260543 -0.051225618
-0.111409485 0.077927224 -0.36451 -0.07373316 -0.12260379 1.5111269 0.27204737 -0.012142571
0.31866354 -0.96293396 -0.20057042 -0.074293286 0.19488102 0.18958709 0.00047266483 -0.019813672
-0.058255102 -0.38056916 0.12340676 0.29949105 0.45102522 0.14295113 0.22101207 0.45895734
0.13712412 0.24702641 0.3262194 0.1950391 0.24754962 -0.00015765429 0.10272661 0.2678928
-0.24671148 0.007718068 0.06635108 1.3567728 0.5035906 -0.11346528 0.4801812 -0.35262677
0.28333315 -0.13549332 -0.07053539 -0.13549861 -0.1539556 0.033046782 -0.32190958 -0.37146473
0.21619174 -0.3215795 -0.6250641 -0.3485399 0.0527076 -0.29319468 0.0906643 0.028575756
0.4951907 0.22101331 0.10587686 0.17287388 -0.09550336 0.058757875 0.49188715 0.3254139
0.27426365 -1.3916228 -0.013114721 -0.08428394 -0.17777212 -0.3213771 0.288346 0.5951771
0.05840999 -0.21737607 -0.15508176 -0.12467034 -0.04194181 0.021708941 0.85504043 -0.16119045
0.96759605 -0.029846447 0.09945686 -0.09005868 -0.17587581 -0.01136995 0.40397686 -0.19093782
0.21247256 -0.21638238 -0.15168615 0.0457716 -0.15319626 0.6001574 -0.2439337 0.6680733
-0.27403346 -0.22467192 -0.16510472 0.14655848 -0.078059316 -0.16883905 -0.068020254 -0.14312935
0.14816189 0.23176995 -0.25035885 0.18551825 0.0547261 -0.26650873 0.11069018 -0.47037476
0.2631631 -0.42924497 -0.9027646 -0.16284688 -0.07452893 -0.124861136 0.17500159 0.05639553
-0.22058289 0.22900464 0.6906358 0.2770717 0.0012228581 -0.5951664 0.31123763 0.0070595834
0.058481183 -1.0517302 0.36180326 0.20153464 0.048869997 0.20076737 -0.14327316 0.0012528598
-0.087678745 -0.072201476 -0.4321857 0.006685012 0.13764866 -0.34175798 -0.32090852 0.09982973
0.3565117 -0.4860341 -0.4960373 0.1317569 0.075137734 -0.16880412 0.16823646 -0.17124207
00000000: d69b 913e fa5e 86be 1188 77bd 5139 503e
00000010: 921e b53f 176c 223f 5851 85bd d51c 253f
00000020: 505e 6dbe 62bd 7fbc 3156 abbc 08ef 58bd
00000030: 91ad 6bbe 9a75 1e3e c486 663e 2603 2cbd
00000040: c1fd 0dbf 0c98 df3c 34e1 72bd 7f20 dbbf
00000050: 0314 39be e279 863d c96f 28be 6912 44bf
00000060: de8d 603d cb88 b3be cec9 32be cbe8 3dbe
00000070: 20ba cbbc 2c21 ee3d f7ba 783d d249 a53e
00000080: 25ce 6ebc 2402 ebbd 9b92 fcbf 299a 69bd
00000090: f234 6a3d a7de 70be d2d1 05bf d029 ab3d
000000a0: 4ab2 9fbd 349a 6bbe a2d5 563e b8b1 06bd
000000b0: 4040 00bc 3aab a93d 5a8a debd 3e09 e83e
000000c0: 3485 4ebe 4973 b1bd c302 46be 341f 923d
000000d0: 87ca 32be 11fc ef3e 1222 bfbd 3d92 bd3e
000000e0: b601 0a3e 4b2e 00be 905e 6cbd 13c4 833e
000000f0: 7ac5 d53d 9e3a 5dbc 9b57 98be 9a01 89be
00000100: 10ac 13bf 42e5 243e 630d 25be 61a7 aebd
00000110: ee15 f83e 5bdd a4bd 9bc0 dabe 96f3 023e
00000120: e8b8 293d c0f1 c9bc 005f 223e 99b5 423e
00000130: 7578 4bbc ce3b 9b3e 93a7 a03e 91ac 023f
00000140: fece 2c3e 9efb ecbd 1288 913e 0b03 cdbe
00000150: b8b7 b03e 7b88 89be 6a47 2e3e 1bce 04be
00000160: dca2 3cbe 9e04 87bd 698b 19be 0493 32bd
00000170: 0560 303f 2c88 a53e 750d ffbe b779 ebbd
00000180: b792 81b9 9151 c5bd 4cf6 1a3f 09a7 203e
00000190: 497f de3e be19 203e 8f6d 78be f4d1 51bd
000001a0: a82a e4bd 4f98 9f3d 0ea1 babe 6901 97bd
000001b0: b217 fbbd 9b6c c13f cb49 8b3e a2f1 46bc
000001c0: de27 a33e d782 76bf 5562 4dbe 1427 98bd
000001d0: e48e 473e 1e23 423e 00d0 f739 4850 a2bc
000001e0: e79c 6ebd f6d9 c2be afbc fc3d e456 993e
000001f0: c7ec e63e c861 123e fd50 623e 75fc ea3e
00000200: 446a 0c3e 7ef4 7c3e 3b06 a73e 54b8 473e
00000210: a67d 7d3e 0050 25b9 5462 d23d 3f29 893e
00000220: efa1 7cbe d9e7 fc3b 13e3 873d bbaa ad3f
00000230: 50eb 003f 7c60 e8bd 4fda f53e 7f8b b4be
00000240: 0b11 913e c3be 0abe dc74 90bd 26c0 0abe
00000250: 89a6 1dbe 105c 073d 55d1 a4be a030 bebe
00000260: 5e61 5d3e 11a6 a4be 3304 20bf d273 b2be
00000270: ede3 573d 9d1d 96be 34ae b93d b417 ea3c
00000280: a389 fd3e 5051 623e f8d5 d83d da05 313e
00000290: 4497 c3bd 19ac 703d a2d8 fb3e a79c a63e
000002a0: 496c 8c3e b220 b2bf 20df 56bc 0f9d acbd
000002b0: e509 36be 8a8b a4be 16a2 933e 875d 183f
000002c0: 503f 6f3d d597 5ebe c1cd 1ebe 2a53 ffbd
000002d0: 2dcb 2bbd f3d6 b13c eee3 5a3f 1c0f 25be
000002e0: 60b4 773f 8980 f4bc 0ab0 cb3d af70 b8bd
000002f0: ca18 34be 0749 3abc 0ed6 ce3e 3485 43be
00000300: 6892 593e 5893 5dbe 9d53 1bbe 007b 3b3d
00000310: 7bdf 1cbe eaa3 193f c1c9 79be da06 2b3f
00000320: 1d4e 8cbe 6510 66be 3611 29be 6d13 163e
00000330: 90dd 9fbd 25e4 2cbe 344e 8bbd 8090 12be
00000340: c0b7 173e 1a55 6d3e 092f 80be 7ff8 3d3e
00000350: 7a28 603d d573 88be 88b1 e23d f6d4 f0be
00000360: 50bd 863e ffc5 dbbe 951b 67bf 55c1 26be
00000370: a0a2 98bd 32b7 ffbd 9e33 333e 00ff 663d
00000380: 7be0 61be 3180 6a3e 82cd 303f 58dc 8d3e
00000390: 4f48 a03a d35c 18bf 8a5a 9f3e 1454 e73b
000003a0: f789 6f3d 189f 86bf 473e b93e 195f 4e3e
000003b0: e82b 483d f695 4d3e 33b6 12be 0037 a43a
000003c0: ea90 b3bd 5ede 93bd 7247 ddbe f20d db3b
000003d0: c5f3 0c3e e7fa aebe 1f4e a4be 8873 cc3d
000003e0: b488 b63e 76d9 f8be 9af8 fdbe 48eb 063e
000003f0: d0e1 993d fdda 2cbe 2e46 2c3e 155a 2fbe

actor.0.bias f4 [64]
-0.08441315 0.016699033 -0.19365305 0.029997611 -0.31158066 0.14512141 0.052165445 0.07947847
0.03699182 -0.17864701 -0.21637124 -0.10241189 0.2459035 -0.073666036 0.03248726 0.074290186
-0.05839173 -0.037099328 -0.06256434 0.10257185 -0.149762 0.40793657 -0.19411846 0.080975346
0.098429814 0.18667325 0.2554365 -0.22930513 -0.3133424 0.10126469 -0.2679925 0.07756154
-0.2970093 -0.11049882 0.11481446 -0.23443548 -0.08766062 0.05149326 0.40847075 -0.40387174
0.12300247 0.09138601 -0.05292878 -0.075052164 -0.45448226 0.33407474 0.11208852 -0.12484701
-0.22947454 -0.08600872 0.04828788 0.04753963 -0.20011482 -0.3923436 -0.05662719 0.01485302
-0.06599982 -0.06253061 -0.11289922 0.17833258 0.2305453 -0.26118207 0.16927218 -0.19631387
00000000: cde0 acbd 69cc 883c fc4c 46be 8dbd f53c
00000010: 8087 9fbe b59a 143e 6fab 553d 9cc5 a23d
00000020: bc84 173d 3eef 36be 6c90 5dbe 53bd d1bd
00000030: 21ce 7b3e 38de 96bd 5c11 053d 7425 983d
00000040: 2b2c 6fbd 77f5 17bd bc21 80bd 3111 d23d
00000050: 365b 19be 10dd d03e fdc6 46be 67d6 a53d
00000060: 9295 c93d 4627 3f3e 93c8 823e f7ce 6abe
00000070: 6a6e a0be dd63 cf3d 5036 89be 96d8 9e3d
00000080: 9a11 98be 354d e2bd d823 eb3d db0f 70be
00000090: 6987 b3bd 99ea 523d 1423 d13e 47c8 cebe
000000a0: b8e8 fb3d 9728 bb3d d9cb 58bd f3b4 99bd
000000b0: e6b1 e8be d80b ab3e aa8e e53d caaf ffbd
000000c0: 60fb 6abe 5725 b0bd 83c9 453d eab8 423d
000000d0: e6ea 4cbe 43e1 c8be eaf1 67bd 155a 733c
000000e0: ea2a 87bd 0c10 80bd b537 e7bd d19c 363e
000000f0: 1114 6c3e a8b9 85be b055 2d3e 8106 49be

actor.2.weight f4 [64, 64]
0.058523245 0.08006468 0.15258162 -0.2516928 0.416582 -0.23273847 0.0800612 0.1706973
-0.22363915 -0.13256046 -0.37766844 -0.10336783 0.03952838 0.21684784 -0.027099764 0.030572005
0.21130246 -0.33608776 -0.20962368 -0.26883417 0.2010267 -0.12771192 0.38966244 -0.020460203
0.34291235 0.2756274 0.30788657 0.15115622 0.27292648 -0.28142866 0.2097944 0.23606926
0.19707492 -0.04340407 -0.49422535 0.0015436909 -0.43813178 -0.05161088 -0.25253695 -0.014196181
-0.37368348 0.25075677 0.38788694 -0.49242494 0.10126381 0.1535208 -0.26118216 0.07208243
-0.12888469 -0.28554 0.22533977 -0.12089153 -0.25244415 0.13309959 -0.3825188 -0.10111439
-0.33772475 -0.26455107 -0.21746375 -0.057063803 -0.16512953 -0.082533196 0.13629232 0.031060623
-0.21714136 -0.012906333 -0.26725245 0.14841947 -0.11601761 -0.07987309 0.054230105 -0.35320175
-0.033266824 -0.36726245 0.08979057 0.19633412 0.06384093 0.110725164 0.07515105 -0.043255385
-0.26131374 0.25770012 0.30654263 0.06439526 -0.32186076 0.14871578 -0.36736363 0.03737025
-0.12663114 -0.56206787 0.060152795 -0.0101799425 -0.13896383 0.013593754 -0.17711975 -0.5318544
-0.69287443 0.3156253 0.44463837 0.18810652 0.45896557 0.060141724 0.09798165 0.0146370325
0.6277506 -0.19092141 -0.44606373 0.4246265 -0.04449927 -0.08373872 -0.110995166 0.2686248
-0.33268982 0.030008512 -0.18187402 0.018687304 0.15713793 -0.07717182 0.23689404 -0.20645179
0.43297926 0.4082706 0.074935965 -0.09075083 0.57607424 -0.08807387 0.08395697 0.16918921
-0.041870553 -0.3942549 -0.1793472 0.0781387 -0.21658865 -0.043901294 0.2185442 -0.14813365
-0.24315843 -0.002732491 -0.09977436 0.19458735 0.22091554 0.26726753 0.16088648 -0.12358204
-0.16216506 -0.10425028 -0.209129 -0.08831574 -0.28760958 -0.12571281 -0.28430662 0.5159746
0.009369184 -0.03617834 0.25880647 -0.31731832 -0.21536715 0.36391464 -0.19828133 0.06771826
-0.06311786 0.089925304 -0.059650593 0.001152878 0.12746496 0.14911836 0.19601883 0.10571894
-0.09552805 0.060714785 0.10958314 0.18799457 -0.2959239 0.27056137 0.1721775 -0.059616614
-0.4498854 0.18279216 0.067080885 -0.44937852 0.46250704 -0.081605986 0.57183635 0.0651088
0.5691501 0.5649041 0.087598525 -0.24384226 0.18377507 -0.12111204 -0.18513241 0.009967568
0.3929849 0.49329576 0.32673013 -0.27227262 0.1900631 -0.29969394 -0.30244341 0.11397869
0.020453788 0.13839452 0.10174331 -0.025708452 -0.106832445 -0.16811095 -0.0652288 0.054695874
0.19664742 -0.08818048 -0.044670846 -0.07348158 0.43126234 -0.28496987 0.6022856 -0.27878022
0.15930934 0.31090853 0.17621922 0.26291633 0.054314736 -0.22122121 0.23695146 0.1174331
0.15983714 -0.13677683 -0.29201907 -0.17747352 -0.10772484 -0.08435091 -0.14080139 0.12797152
-0.3505191 0.21908732 0.34314805 -0.10779534 0.07257653 -0.16907023 0.025725892 -0.3285591
0.64895123 0.09134284 0.08455744 0.20932028 -0.3882832 0.356967 -0.44357798 0.23159818
-0.45796 -0.27547678 -0.2085411 0.1631988 -0.3379527 0.20379184 0.05251592 -0.026063805
00000000: 12b6 6f3d f3f8 a33d 5b3e 1c3e e1dd 80be
00000010: 3c4a d53e fe52 6ebe 20f7 a33d 46cb 2e3e
00000020: a901 65be eebd 07be c25d c1be 83b2 d3bd
00000030: 83e8 213d 5c0d 5e3e 5300 debc 2472 fa3c
00000040: ac5f 583e b213 acbe 97a7 56be a2a4 89be
00000050: f1d9 4d3e eac6 02be d681 c73e 289c a7bc
00000060: 3592 af3e 091f 8d3e 4fa3 9d3e b2c8 1a3e
00000070: 05bd 8b3e 6b17 90be 58d4 563e 24bc 713e
00000080: 02ce 493e 77c8 31bd 1b0b fdbe ac55 ca3a
00000090: cf52 e0be ee65 53bd 864c 81be 1997 68bc
000000a0: 7153 bfbe 3163 803e 1e99 c63e 1f1f fcbe
000000b0: 6763 cf3d 8e34 1d3e abb9 85be f49f 933d
000000c0: 59fa 03be 4d32 92be 78bf 663e fa95 f7bd
000000d0: 5c40 81be 424b 083e 81d9 c3be 1015 cfbd
000000e0: 42ea acbe 3d73 87be d1ae 5ebe bcbb 69bd
000000f0: b717 29be 2a07 a9bd 3790 0b3e d972 fe3c
00000100: 4e5a 5ebe 1675 53bc 50d5 88be 46fb 173e
00000110: a49a edbd 8194 a3bd 6320 5e3d dcd6 b4be
00000120: cb42 08bd d309 bcbe 1ee4 b73d d00b 493e
00000130: 09bf 823d e0c3 e23d cbe8 993d 8f2c 31bd
00000140: eaca 85be 45f1 833e 28f3 9c3e a9e1 833d
00000150: efca a4be f348 183e 1617 bcbe 8c11 193d
00000160: 98ab 01be aee3 0fbf c762 763d c6c9 26bc
00000170: 894c 0ebe 56b8 5e3c e15e 35be 9c27 08bf
00000180: 3860 31bf a499 a13e a4a7 e33e ff9e 403e
00000190: 89fd ea3e 2b57 763d 9aaa c83d 2ad0 6f3c
000001a0: 43b4 203f e780 43be 7762 e4be a568 d93e
000001b0: de44 36bd 357f abbd 6f51 e3bd 3189 893e
000001c0: 5256 aabe 69d4 f53c 2f3d 3abe 1e16 993c
000001d0: c4e8 203e 420c 9ebd 5a94 723e 1968 53be
000001e0: 75af dd3e d808 d13e 0778 993d 92db b9bd
000001f0: 9a79 133f 1360 b4bd a2f1 ab3d f03f 2d3e
00000200: 7580 2bbd c7db c9be cba6 37be 2f07 a03d
00000210: 6ac9 5dbe d8d1 33bd 0dca 5f3e 59b0 17be
00000220: 86fe 78be 9713 33bb 8056 ccbd e841 473e
00000230: af37 623e 4ad7 883e 6dbf 243e 9518 fdbd
00000240: 990e 26be 2c81 d5bd ea25 56be e2de b4bd
00000250: 9041 93be dcba 00be a390 91be e916 043f
00000260: 3581 193c bd2f 14bd 4882 843e 8c77 a2be
00000270: 3589 5cbe 0553 ba3e 430a 4bbe dfaf 8a3d
00000280: f043 81bd c22a b83d 2e54 74bd 2b1c 973a
00000290: 2d86 023e 7cb2 183e 29b9 483e 2c83 d83d
000002a0: 36a4 c3bd 11b0 783d 206d e03d a681 403e
000002b0: 5683 97be 0587 8a3e 4c4f 303e 8d30 74bd
000002c0: 6157 e6be de2d 3b3e b461 893d f114 e6be
000002d0: b9cd ec3e 0a21 a7bd de63 123f c357 853d
000002e0: d2b3 113f 8e9d 103f db66 b33d c9b1 79be
000002f0: 882f 3c3e 9709 f8bd 5a93 3dbe 034f 233c
00000300: 5135 c93e 4391 fc3e 2c49 a73e 5167 8bbe
00000310: e79f 423e 7c71 99be ddd9 9abe a96d e93d
00000320: b48e a73c 4bb7 0d3e cc5e d03d 889a d2bc
00000330: f8ca dabd 4725 2cbe ad96 85bd c808 603d
00000340: f15d 493e f897 b4bd c7f8 36bd 837d 96bd
00000350: 6bce dc3e 92e7 91be 642f 1a3f 48bc 8ebe
00000360: fd21 233e 672f 9f3e d072 343e f89c 863e
00000370: 2179 5e3d d087 62be 67a3 723e c480 f03d
00000380: 59ac 233e 3a0f 0cbe 8683 95be 9ebb 35be
00000390: d79e dcbd 2bc0 acbd 3d2e 10be f70a 033e
000003a0: 3d77 b3be 6d58 603e 1ab1 af3e cec3 dcbd
000003b0: 01a3 943d bf20 2dbe 1bbf d23c e638 a8be
000003c0: ab21 263f f411 bb3d 732c ad3d 0e58 563e
000003d0: 0ecd c6be 61c4 b63e a71c e3be 1328 6d3e
000003e0: bc79 eabe 4b0b 8dbe cc8b 55be 961d 273e
000003f0: 2308 adbe cfae 503e ef1a 573d c383 d5bc

actor.2.bias f4 [64]
-0.17173615 0.006971239 -0.028662622 -0.21188581 -0.12569852 0.11484838 0.05245051 -0.064018875
0.22308277 0.40879196 0.025027286 -0.053555865 0.041245807 0.0652246 0.32074517 0.006375002
-0.23524173 -0.14797683 -0.038956445 -0.10587279 0.22860217 0.27945 0.19847299 -0.12904522
0.0141485855 -0.15397495 -0.0054330546 -0.08929892 0.19644459 -0.2876007 0.16873232 0.05652993
-0.08065119 0.06586748 -0.055618495 -0.12476043 -0.08745641 -0.018695807 0.21612918 -0.011973384
-0.1432164 -0.1880986 0.21508467 -0.061751697 -0.07386855 0.1098928 -0.32479787 -0.34058657
-0.29714686 0.05598924 0.056188773 0.10110982 -0.04432507 -0.27030444 0.057873838 0.0353029
-0.14252102 -0.36444172 -0.09458919 -0.088817514 -0.001921777 0.11545754 -0.07587716 0.0829932
00000000: 9adb 2fbe fe6e e43b e0cd eabc 98f8 58be
00000010: 1db7 00be a135 eb3d 59d6 563d 541c 83bd
00000020: cf6f 643e 2e4d d13e 0606 cd3c 655d 5bbd
00000030: 5df1 283d 7a94 853d b638 a43e 65e5 d03b
00000040: 35e3 70be 3d87 17be cb90 1fbd d5d3 d8bd
00000050: b016 6a3e 1214 8f3e 813c 4b3e 6e24 04be
00000060: 78cf 673c 9cab 1dbe c407 b2bb 5ae2 b6bd
00000070: c528 493e 6640 93be 2ac8 2c3e ee8b 673d
00000080: 732c a5bd 88e5 863d 38d0 63bd 6582 ffbd
00000090: 591c b3bd f327 99bc f850 5d3e 032c 44bc
000000a0: 52a7 12be eb9c 40be 283f 5c3e 59ef 7cbd
000000b0: 6548 97bd 7a0f e13d e84b a6be 5d61 aebe
000000c0: a223 98be f954 653d 3326 663d aa12 cf3d
000000d0: 348e 35bd 5865 8abe 1e0d 6d3d c699 103d
000000e0: 08f1 11be 1b98 babe fab7 c1bd f5e5 b5bd
000000f0: 23e4 fbba 0175 ec3d 7c65 9bbd 57f8 a93d

actor.4.weight f4 [2, 64]
0.0024079308 0.29187652 0.20710039 -0.07673684 -0.011772975 -0.026160747 0.06962454 0.16026333
0.045818537 -0.039502617 0.0025761656 -0.02783915 -0.091729246 -0.08873283 -0.07655621 -0.06731265
0.046231788 0.15745297 -0.007585888 0.13553864 -0.05718973 0.03794478 -0.0360865 -0.017770492
0.00721045 0.2554072 -0.03636487 0.026259907 0.076796845 -0.0117378915 -0.109340206 -0.07546842
-0.06715504 0.20618543 -0.10408816 0.010987559 0.066229224 -0.0037601728 0.11627716 -0.0522783
0.113594376 -0.06925837 -0.0809247 0.04557232 0.02196835 0.08377837 0.003278142 0.15020953
-0.10221377 0.06481463 -0.038514264 -0.012770313 0.030769907 -0.057189677 0.0031255397 -0.112401895
0.16523896 0.061531324 0.047333915 0.062771685 0.19050598 0.028304024 -0.030883025 -0.1525964
0.22205143 0.04170772 -0.08798289 -0.23977494 -0.0008230711 -0.16230388 -0.061786372 0.35763055
-0.026113112 0.04813451 0.11713248 0.061128847 -0.09833126 0.15297519 0.39597487 0.19517781
0.3066503 0.0799113 -0.14773455 0.2316073 0.1594447 0.09603807 -0.032160327 -0.059983723
-0.11207342 -0.019852955 0.060947195 0.2510484 -0.19104476 0.26017505 -0.067401476 0.011281348
0.5924683 0.07679243 -0.23940305 -0.14302613 -0.1172901 0.2088787 0.28476173 -0.02833471
0.2539609 0.085975304 -0.006167056 -0.013555091 0.5217466 -0.25807145 0.01245583 0.03850013
0.05680294 -0.0431768 0.33129194 0.045348927 0.14138708 -0.064767584 0.5261188 -0.28031388
0.12690544 -0.06617851 -0.2114467 0.29573867 0.019832322 -0.114715904 0.11968056 -0.2479115
00000000: 60ce 1d3b d770 953e 2012 543e 3428 9dbd
00000010: 70e3 40bc 104f d6bc 5097 8e3d 121c 243e
00000020: 38ac 3b3d 7fcd 21bd e3d4 283b ee0e e4bc
00000030: 8bdc bbbd 8fb9 b5bd 81c9 9cbd 37db 89bd
00000040: 8b5d 3d3d 5a3b 213e 0a93 f8bb a4ca 0a3e
00000050: c73f 6abd fc6b 1b3d 70cf 13bd 6c93 91bc
00000060: a345 ec3b bcc4 823e 54f3 14bd 041f d73c
00000070: aa47 9d3d 4950 40bc c2ed dfbd 308f 9abd
00000080: 9588 89bd 4622 533e 2c2c d5bd 2a05 343c
00000090: 30a3 873d 3b6d 76bb b822 ee3d c521 56bd
000000a0: 2ba4 e83d 55d7 8dbd d9bb a5bd 0baa 3a3d
000000b0: f8f6 b33c fe93 ab3d 19d6 563b 87d0 193e
000000c0: 7455 d1bd 88bd 843d 22c1 1dbd 933a 51bc
000000d0: 2c11 fc3c b93f 6abd dbd5 4c3b f732 e6bd
000000e0: 6734 293e 4508 7c3d 35e1 413d 718e 803d
000000f0: 0014 433e d7dd e73c 66fe fcbc 3b42 1cbe
00000100: 7361 633e b7d5 2a3d 6030 b4bd 9087 75be
00000110: 5ec3 57ba fd32 26be b513 7dbd 5a1b b73e
00000120: 2aeb d5bc b128 453d 27e3 ef3d 3e62 7a3d
00000130: e661 c9bd 87a5 1c3e 38bd ca3e b1dc 473e
00000140: 4501 9d3e 89a8 a33d ba47 17be 772a 6d3e
00000150: 7945 233e 9caf c43d 8cba 03bd 7eb1 75bd
00000160: c086 e5bd aaa2 a2bc c4a3 793d 6a89 803e
00000170: 3da1 43be aa35 853e c909 8abd 67d5 383c
00000180: 01ac 173f 5945 9d3d 1326 75be 7175 12be
00000190: cb35 f0bd 4ce4 553e 4acc 913e 321e e8bc
000001a0: 2a07 823e d213 b03d 0415 cabb 2c16 5ebc
000001b0: 2f91 053f f121 84be 8a13 4c3c 50b2 1d3d
000001c0: 33aa 683d 28da 30bd 199f a93e ccbf 393d
000001d0: c6c7 103e dea4 84bd b9af 063f 4d85 8fbe
000001e0: 80f3 013e 9988 87bd 7c85 58be 0f6b 973e
000001f0: 6577 a23c 2cf0 eabd 151b f53d 83dc 7dbe

actor.4.bias f4 [2]
-0.210067 0.059493616
00000000: ce1b 57be 94af 733d

critic.0.weight f4 [64, 15]
0.42700356 0.1646388 -0.117814906 0.6335449 -0.36930993 0.2787794 0.50139064 0.54852015
-3.178162 -0.08808956 0.71039426 0.10468614 -0.110511586 0.257902 0.19763517 -0.71688807
0.1586265 0.17010927 -0.7843854 1.6870892 -0.7719179 -0.54497206 -0.8081353 0.5726617
0.24006994 -0.9103706 -0.13637558 0.19638991 -0.21844098 0.11356574 0.4032232 -0.2532168
-0.04927445 0.74266416 -0.60624593 0.41003194 0.11944704 0.16504632 -0.3558669 0.3128475
0.06761689 0.09218952 -0.17233416 0.25320658 -0.21960193 -0.10129536 -0.026056122 -0.0086328
-0.093059435 -0.038042612 0.47781533 -0.20996313 0.56197935 0.75690323 0.27662963 -1.6379169
0.10739043 -0.0523701 -0.06576678 -0.24845462 0.014315334 -0.1566318 0.00522454 0.31793106
-0.060752593 0.78062373 -0.14851671 0.7353818 0.1278855 0.3923269 2.6079035 -0.10048272
0.008360326 0.18863273 0.22991201 -0.16888794 0.12506 -0.015687149 0.12808165 -0.94412047
0.2532087 0.12269019 0.07242786 1.7646588 0.2076213 -1.1337112 -0.124385715 0.092460155
-0.24552621 0.04370448 0.58559686 0.081758015 0.0041194838 0.54923457 -0.9513955 0.14431743
0.13037886 0.12946841 1.1652732 -1.0554552 0.9323363 -0.10298991 -0.053504303 -0.049548924
-0.043970928 -0.38835925 -0.23903956 0.0748801 -0.85735786 -0.024698874 -0.89503694 -0.36664602
-0.8124912 3.333948 0.36833385 -0.70323265 -0.121228054 0.11936289 0.16035584 -0.040282235
-0.078610756 0.028274754 -0.0012007322 0.29417652 -1.4513526 0.37146327 -0.103672825 0.19400342
-0.66449267 -0.93157333 0.46605474 0.034611106 0.25675216 0.08271238 0.07232568 0.11717998
0.017216811 0.007512328 0.15579666 -0.13122992 -0.43450883 -0.03467978 0.029749323 -1.0208161
-0.6605138 1.4688699 -0.23144156 0.125996 -0.22600925 -0.12981565 0.464859 -0.024000742
0.005241029 0.19264051 0.18367577 0.9044774 0.109470196 0.63115865 -3.176868 0.042170286
0.25859773 -0.012933627 -0.15325004 0.03857264 -0.17514801 0.361188 -0.11616111 -0.002778468
0.28059766 0.24873565 0.07421464 -0.04990027 -0.027990095 0.46461418 -1.6410106 0.18249385
0.13844863 -0.12832312 0.22195122 0.10008153 0.8765148 -0.5133975 -0.5049018 0.7720288
0.50488275 0.90459317 0.69965947 1.0606018 0.5334095 -0.12934287 0.6511908 -0.07902911
-0.010952011 0.1566476 0.25444058 0.5957662 0.27080047 0.11424799 0.25297698 0.028805846
0.13444665 0.5735707 0.3108083 1.2854462 -0.7911356 0.34853226 -0.17361918 0.11799684
-0.2280277 0.2226789 0.8425104 -0.39717704 -0.029678334 0.8808253 -0.60804135 0.735918
0.75659955 0.6074127 0.17760955 -0.15454304 1.0612731 -0.15452434 0.0363113 0.038760245
0.06917274 -0.32954302 0.08038564 0.016870439 -0.082023285 0.45399198 -0.7818972 -0.24382077
-0.57199585 1.8209282 0.6997722 -0.3149416 -0.23408505 -0.09343454 0.043323845 0.17750642
-1.5603987 -0.059388336 0.09614204 -1.2358216 0.32090476 -1.005421 -1.6243285 -0.78167844
0.7644245 0.7501053 -2.44761 0.030487955 -0.17145336 0.15518206 0.23713335 -0.3382672
00000000: 36a0 da3e 1397 283e f148 f1bd 0030 223f
00000010: 3116 bdbe 2cbc 8e3e 235b 003f d16b 0c3f
00000020: 0267 4bc0 4d68 b4bd 66dc 353f b065 d63d
00000030: e653 e2bd bb0b 843e e060 4a3e fa85 37bf
00000040: fc6e 223e 2031 2e3e 7bcd 48bf 8af2 d73f
00000050: 699c 45bf 4a83 0bbf f4e1 4ebf f599 123f
00000060: e5d4 753e 0c0e 69bf 0aa6 0bbe 701a 493e
00000070: feae 5fbe 2895 e83d 4573 ce3e a2a5 81be
00000080: 01d4 49bd 3d1f 3e3f ef32 1bbf b5ef d13e
00000090: a6a0 f43d e701 293e 3034 b6be 8c2d a03e
000000a0: b97a 8a3d dccd bc3d 5e78 30be 4ba4 813e
000000b0: 54df 60be f173 cfbd a673 d5bc 9670 0dbc
000000c0: f295 bebd 92d2 1bbd 36a4 f43e 9300 57be
000000d0: e1dd 0f3f 69c4 413f 66a2 8d3e 43a7 d1bf
000000e0: 84ef db3d 0882 56bd bcb0 86bd e36a 7ebe
000000f0: dd8a 6a3c 1664 20be 9e32 ab3b dcc7 a23e
00000100: b6d7 78bd f5d6 473f c414 18be fb41 3c3f
00000110: 6bf4 023e 12df c83e e4e7 2640 e2c9 cdbd
00000120: c0f9 083c f028 413e 0e6e 6b3e f6f0 2cbe
00000130: bb0f 003e 5682 80bc d627 033e e1b1 71bf
00000140: 92a4 813e ff44 fb3d 0f55 943d 57e0 e13f
00000150: ae9a 543e 731d 91bf f0bd febd c05b bd3d
00000160: 396b 7bbe 7803 333d ade9 153f bf70 a73d
00000170: bcfc 863b a39a 0c3f a88e 73bf f3c7 133e
00000180: 0982 053e 5e93 043e ac27 953f 2819 87bf
00000190: 97ad 6e3f 60ec d2bd 5427 5bbd d0f3 4abd
000001a0: dc1a 34bd 06d7 c6be c9c6 74be bd5a 993d
000001b0: ce7b 5bbf 4b55 cabc 2421 65bf 07b9 bbbe
000001c0: 6cff 4fbf 675f 5540 4196 bc3e 0e07 34bf
000001d0: 6a46 f8bd 8874 f43d 5234 243e fcfe 24bd
000001e0: adfe a0bd 75a0 e73c e361 9dba 4e9e 963e
000001f0: ecc5 b9bf 6f30 be3e 6b52 d4bd d5a8 463e
00000200: 311c 2abf 977b 6ebf ba9e ee3e 60c4 0d3d
00000210: 0575 833e 1c65 a93d 7c1f 943d 0ffc ef3d
00000220: 450a 8d3c fa29 f63b 2989 1f3e 2361 06be
00000230: f177 debe 630c 0ebd dab4 f33c 1aaa 82bf
00000240: 6f17 29bf ee03 bc3f 04ff 6cbe 1805 013e
00000250: f86e 67be 65ee 04be 0002 ee3e 349d c4bc
00000260: f0bc ab3b 8e43 453e 8015 3c3e d58b 673f
00000270: e931 e03d 9d93 213f ce51 4bc0 c0ba 2c3d
00000280: ec66 843e 90e7 53bc 94ed 1cbe 58fe 1d3d
00000290: 005a 33be a2ed b83e e0e5 edbd f516 36bb
000002a0: 7faa 8f3e 8fb4 7e3e d8fd 973d 3a64 4cbd
000002b0: 7c4b e5bc e9e1 ed3e a30c d2bf abdf 3a3e
000002c0: 7ac5 0d3e 2367 03be 2e47 633e 8cf7 cc3d
000002d0: 4663 603f 056e 03bf 3f41 01bf aea3 453f
000002e0: ff3f 013f 6b93 673f e21c 333f cdc1 873f
000002f0: 868d 083f 7572 04be 71b4 263f 04da a1bd
00000300: 1070 33bc 3a68 203e 0946 823e 2284 183f
00000310: 5ca6 8a3e dafa e93d 3386 813e 3dfa eb3c
00000320: 62ac 093e 88d5 123f 4422 9f3e 8089 a43f
00000330: dd87 4abf d272 b23e 3ac9 31be 54a8 f13d
00000340: 1880 69be f005 643e c3ae 573f ca5a cbbe
00000350: fa1f f3bc c47d 613f 99a8 1bbf 1f65 3c3f
00000360: 82b0 413f 667f 1b3f 47df 353e 8840 1ebe
00000370: ccd7 873f a13b 1ebe 28bb 143d 10c3 1e3d
00000380: 70aa 8d3d ddb9 a8be 3aa1 a43d e033 8a3c
00000390: d3fb a7bd a371 e83e 6a2a 48bf 27ac 79be
000003a0: 526e 12bf 2d14 e93f 4524 333f 0740 a1be
000003b0: feb3 6fbe 9c5a bfbd 5874 313d 3ec4 353e
000003c0: 25bb c7bf 2f41 73bd 1ee6 c43d 672f 9ebf
000003d0: a14d a43e a3b1 80bf ffe9 cfbf 141c 48bf
000003e0: 53b1 433f e706 403f a4a5 1cc0 e0c1 f93c
000003f0: 7891 2fbe 0ce8 1e3e 16d3 723e 5c31 adbe

critic.0.bias f4 [64]
-0.011569217 -0.018166384 -0.1818451 0.018301057 -0.2194599 -0.6024608 0.7200313 -0.11867748
0.28570518 0.25906825 0.14788085 0.8010833 0.87182707 0.34259057 -0.24273032 -0.58175564
0.14750172 -1.0581559 0.8250812 0.71207553 -0.8174212 0.73713666 0.086109824 0.19863233
-0.7598113 -0.4796927 -0.6537549 -0.3195015 -0.15899946 0.09789757 0.6409606 0.1228183
-0.7612274 0.29709956 0.16972089 0.0099939285 -0.13363898 0.17003182 -0.0661314 0.22127049
-0.68760395 -0.0676744 -0.27425048 -0.05517337 1.1043329 0.18462169 -0.39391106 -0.7481456
0.533742 0.9890501 -0.7531789 0.26784527 -0.37601325 -0.7733736 0.96723366 -0.027517779
0.005513045 0.36531597 0.12011653 0.037979376 0.20791191 0.41656548 -0.817281 -0.63404006
00000000: d08c 3dbc abd1 94bc 9a35 3abe 19ec 953c
00000010: 19ba 60be df3a 1abf f953 383f 2e0d f3bd
00000020: f347 923e 98a4 843e 146e 173e cc13 4d3f
00000030: 0f30 5f3f 0868 af3e 4c8e 78be f0ed 14bf
00000040: b10a 173e a771 87bf 8638 533f 954a 363f
00000050: 8442 51bf fdb4 3c3f 595a b03d 4666 4b3e
00000060: fe82 42bf 489a f5be 7b5c 27bf b395 a3be
00000070: c1d0 22be 857e c83d fe15 243f 2988 fb3d
00000080: cddf 42bf 6f1d 983e 50cb 2d3e 93bd 233c
00000090: a8d8 08be d21c 2e3e e66f 87bd bb94 623e
000000a0: d006 30bf e098 8abd 8f6a 8cbe 79fd 61bd
000000b0: c85a 8d3f 780d 3d3e b6ae c9be 7886 3fbf
000000c0: 51a3 083f 6332 7d3f 55d0 40bf 0423 893e
000000d0: cf84 c0be d0fb 45bf a09c 773f f76c e1bc
000000e0: c6a6 b43b b20a bb3e a8ff f53d 4390 1b3d
000000f0: dce6 543e 1248 d53e 5439 51bf 7350 22bf

critic.2.weight f4 [64, 64]
-0.3826306 -0.64355177 0.1014868 0.075609416 -0.075599015 0.06817721 0.42730147 0.4378311
0.57527345 -0.13983835 -0.9615442 0.9267484 -0.10031418 0.026859073 -0.19686481 0.088361576
-0.043489143 -0.11520979 0.46617594 0.13375987 -0.4054225 0.2023303 0.121496096 -0.12947345
-0.077768266 -0.75450146 0.16509357 -0.028827015 -0.004315731 -0.21389312 0.41378072 -0.12648962
-0.9696331 0.029910587 0.06402675 -0.70293856 1.283921 0.44877917 0.17270397 0.407156
-0.060390454 0.14068267 -0.31264287 -0.47389984 0.12124371 -0.395538 -0.068664 -0.01749594
0.8000167 -0.08442318 -0.3382428 -0.41798472 -0.022118244 -0.3869807 0.91617644 -0.13700846
0.09693831 0.03269197 0.60360044 -0.51283884 -0.3849355 0.30003846 -0.24213798 -0.0682442
0.2118874 -0.7275685 -0.25486144 -0.19207272 0.038030047 -0.11622589 0.895426 -0.1337919
0.27553234 0.5517568 0.031831626 1.2418015 0.13275968 0.54163474 0.25289807 -0.45536292
-0.28744638 -0.29676515 0.9894458 1.552172 -0.73801786 0.2240393 0.14885937 -0.32336846
-0.3373875 -0.99389815 -0.20940138 -0.12299354 -0.03023995 0.2543664 0.30735165 -0.088350624
-0.6828618 0.2819743 0.13597597 -0.017565493 -0.7796436 0.07528292 -0.39478242 0.27665862
-0.14927788 -0.20295285 -0.5957665 -0.599895 0.29713336 -0.24900323 -0.06789934 -0.2778772
0.5340397 0.22484057 -0.19262432 0.25700033 -0.45420268 -0.11650952 1.9433584 -0.07707118
-0.38174555 0.10537131 0.7491602 -0.33362356 -0.15565439 0.1278442 -0.5354479 0.16177636
0.26978472 -0.33631343 -0.19721994 -0.6151062 0.24994133 0.3043872 0.5179251 -0.37538898
1.996642 0.0229592 0.14927424 2.0008054 0.20618457 0.2675904 -0.03408226 -1.1447817
-0.39152682 0.12745588 1.0015078 0.82471764 -0.521065 0.29071382 0.8342508 0.23033671
-0.14595409 -0.82580304 -0.53747386 0.75438243 0.16651982 -0.116810545 0.80776364 0.012781524
-1.1719593 0.56853163 -0.32966793 0.60818785 -0.24037507 -0.4246694 0.13396801 -0.4179131
-0.5484518 0.44191244 -0.3187664 -0.5427335 -0.08091173 0.51637083 0.041561 -0.23537806
0.90502656 -0.054295387 -0.3107685 -0.4398724 -0.9494169 -1.379843 1.5644664 -0.019990565
0.10295715 -0.15189481 0.92191446 0.15375008 0.25194225 0.95938766 -1.6814964 -0.2275995
-0.5137083 -0.20977621 0.20977087 -0.28813985 0.7756013 -0.15502454 0.61493224 0.37940782
0.36506298 0.72887844 -0.20839584 0.28795794 0.08934895 0.09527133 0.56326604 -0.44389403
-0.21725015 -0.209386 0.6868291 0.8257837 -0.4020542 0.43770397 -0.3855395 -0.25887004
-0.32374206 -0.63855845 0.31163493 0.041066404 -0.44728306 0.4048068 0.39036492 0.0036619934
-0.17930573 0.25173697 -0.036884535 -1.0375808 0.44099563 -0.59734076 -0.42837492 0.8047643
-0.46003178 -0.095710404 -1.1031866 -0.06359098 0.23756272 -0.4983804 0.26727554 0.06971695
0.09046682 0.33853057 -0.22512612 0.14206418 0.039926033 -0.4323592 0.5801124 -0.009412595
-0.3578786 0.10587666 1.0863211 -0.98158264 -0.14816639 0.2347501 0.24991971 0.56498927
00000000: 28e8 c3be cfbf 24bf 50d8 cf3d 1cd9 9a3d
00000010: a8d3 9abd 7ea0 8b3d 42c7 da3e 662b e03e
00000020: 1f45 133f c931 0fbe c327 76bf 623f 6d3f
00000030: 8571 cdbd 8f07 dc3c ee96 49be eaf6 b43d
00000040: ac21 32bd 1cf3 ebbd 9dae ee3e 59f8 083e
00000050: 8a93 cfbe ad2f 4f3e f2d2 f83d b094 04be
00000060: f844 9fbd 0227 41bf 4a0e 293e a226 ecbc
00000070: fa6a 8dbb cc06 5bbe 11db d33e 7f86 01be
00000080: e039 78bf 0c07 f53c 7520 833d c8f3 33bf
00000090: 8657 a43f 62c6 e53e 4fd9 303e c076 d03e
000000a0: fb5b 77bd 1e0f 103e ba12 a0be 00a3 f2be
000000b0: 9f4e f83d f583 cabe b69f 8cbd a553 8fbc
000000c0: e5cd 4c3f 0fe6 acbd 292e adbe 1802 d6be
000000d0: 5231 b5bc 5622 c6be 8a8a 6a3f f24b 0cbe
000000e0: 9887 c63d 04e8 053d 8f85 1a3f 6849 03bf
000000f0: 4416 c5be a49e 993e 05f3 77be 9dc3 8bbd
00000100: 03f9 583e ee41 3abf 337d 82be b6ae 44be
00000110: 65c5 1b3d d707 eebd a33a 653f be00 09be
00000120: 9312 8d3e ef3f 0d3f e161 023d 5af3 9e3f
00000130: 27f2 073e 93a8 0a3f db7b 813e 5425 e9be
00000140: 2c2c 93be 9af1 97be 524c 7d3f 92ad c63f
00000150: bdee 3cbf 8f6a 653e 976e 183e 8d90 a5be
00000160: 0ebe acbe 1c70 7ebf 516d 56be 09e4 fbbd
00000170: c6b9 f7bc 503c 823e 325d 9d3e 2cf1 b4bd
00000180: 08d0 2ebf ef5e 903e 493d 0b3e 82e5 8fbc
00000190: b996 47bf ee2d 9a3d ec20 cabe 33a6 8d3e
000001a0: 4ddc 18be dfd2 4fbe 2784 18bf b892 19bf
000001b0: dd21 983e b4fa 7ebe cf0e 8bbd ec45 8ebe
000001c0: d3b6 083f 9b3c 663e 4f3f 45be 8c95 833e
000001d0: 418d e8be 8b9c eebd f8bf f83f 7fd7 9dbd
000001e0: 2774 c3be eacc d73d f6c8 3f3f b5d0 aabe
000001f0: dd63 1fbe 97e9 023e 1d13 09bf b4a8 253e
00000200: 3921 8a3e 4631 acbe 06f4 49be 9a77 1dbf
00000210: 9ff0 7f3e a4d8 9b3e bd96 043f fc32 c0be
00000220: f791 ff3f ef14 bc3c 59db 183e 320d 0040
00000230: 0c22 533e 9c01 893e d799 0bbd 3588 92bf
00000240: 3476 c8be cb83 023e 6831 803f b220 533f
00000250: 8464 05bf 71d8 943e 7691 553f 63dd 6b3e
00000260: fd74 15be d467 53bf e397 09bf 351f 413f
00000270: 2c84 2a3e 5e3a efbd 99c9 4e3f 9969 513c
00000280: c302 96bf 4a8b 113f 3cca a8be 33b2 1b3f
00000290: e224 76be 456e d9be e92e 093e b5f8 d5be
000002a0: 5667 0cbf 5942 e23e 5935 a3be 95f0 0abf
000002b0: 0db5 a5bd e130 043f de3b 2a3d f206 71be
000002c0: d2af 673f d764 5ebd 0d1d 9fbe f536 e1be
000002d0: fc0c 73bf b29e b0bf 6f40 c83f 41c3 a3bc
000002e0: 33db d23d 508a 1bbe 9602 6c3f a970 1d3e
000002f0: 93fe 803e 6e9a 753f 463b d7bf d80f 69be
00000300: 6382 03bf 93cf 56be 2dce 563e 1187 93be
00000310: cf8d 463f c1be 1ebe 336c 1d3f be41 c23e
00000320: 89e9 ba3e c797 3a3f b865 55be 396f 933e
00000330: 95fc b63d 9d1d c33d 3432 103f 1446 e3be
00000340: d376 5ebe 4969 56be 08d4 2f3f 9066 533f
00000350: 0cda cdbe bc1a e03e 6f65 c5be 9d8a 84be
00000360: 85c1 a5be 9178 23bf 9d8e 9f3e 3f35 283d
00000370: 4902 e5be d642 cf3e e9dd c73e 0efe 6f3b
00000380: ec9b 37be abe3 803e 3d14 17bd 73cf 84bf
00000390: 2eca e13e 53eb 18bf f553 dbbe 0805 4e3f
000003a0: 4989 ebbe d103 c4bd 3835 8dbf fd3b 82bd
000003b0: a443 733e b72b ffbe 57d8 883e c3c7 8e3d
000003c0: ab46 b93d e153 ad3e 7687 66be 4679 113e
000003d0: 7b89 233d 2f5e ddbe 3f82 143f 4937 1abc
000003e0: dd3b b7be ddd5 d83d 920c 8b3f 0049 7bbf
000003f0: eeb8 17be 5562 703e f4ea 7f3e 23a3 103f

critic.2.bias f4 [64]
-0.11377737 0.25544506 0.04642891 0.084942095 0.038690723 0.11752047 -0.21883129 -0.2331267
0.34920084 -0.2500098 -0.21257329 0.014820566 0.2698374 -0.22604968 0.006703605 0.2595389
0.15804057 0.39763752 -0.04230047 -0.009301364 0.28137898 0.27479902 0.100599326 0.0037226009
-0.19215757 -0.11162484 -0.092941724 -0.09212526 -0.41121674 -0.39941183 -0.22040059 0.069617145
-0.12096899 0.19877487 0.2921353 0.07020335 0.17063607 0.043342594 -0.06732231 -0.1529287
0.37266088 0.17422712 -0.41484907 -0.11839611 -0.0024851728 0.03757206 -0.11060794 0.43436468
-0.3308016 0.20483758 0.20203118 0.16813993 0.08191804 0.36564612 0.14965889 -0.04257208
-0.32337385 0.15899166 0.10663722 -0.11832503 0.24547169 0.2980914 -0.07785303 0.012172863
00000000: 1c04 e9bd b2c9 823e 3e2c 3e3d 1ff6 ad3d
00000010: 2a7a 1e3d 92ae f03d 4f15 60be c4b8 6ebe
00000020: 74ca b23e 4901 80be d0ac 59be f6d1 723c
00000030: 2128 8a3e 9179 67be eaa9 db3b 48e2 843e
00000040: 63d5 213e 2597 cb3e 4243 2dbd c064 18bc
00000050: e810 903e 75b2 8c3e 0507 ce3d e1f6 733b
00000060: f4c4 44be 909b e4bd 3b58 bebd 2bac bcbd
00000070: 008b d2be b57f ccbe b1b0 61be 6f93 8e3d
00000080: 97be f7bd a48b 4b3e c292 953e c6c6 8f3d
00000090: 39bb 2e3e 0188 313d 47e0 89bd 5799 1cbe
000000a0: 68cd be3e 9868 323e 1967 d4be a979 f2bd
000000b0: 48de 22bb 29e5 193d 6a86 e2bd 0c65 de3e
000000c0: d45e a9be f1c0 513e 43e1 4e3e e02c 2c3e
000000d0: a5c4 a73d f835 bb3e 2e40 193e 1060 2ebd
000000e0: 4291 a5be b6ce 223e 9d64 da3d 6554 f2bd
000000f0: ee5c 7b3e 709f 983e 6971 9fbd b070 473c

critic.4.weight f4 [1, 64]
0.74155265 1.2364664 -0.39940187 -0.49299017 -0.51460814 0.59752923 0.5390481 -0.81189656
0.54727376 -1.0604229 0.44976577 0.55949736 -0.87686294 -0.5481024 -1.0609231 -0.8294059
0.6503405 0.67343384 -0.7153826 -0.6303665 0.8250767 0.54473275 0.41382974 0.4643147
-0.3805719 -0.7906379 0.4327922 -0.43958116 -0.6695924 0.70010996 0.6806912 -0.47701332
-0.5675023 -0.68657774 -0.57852316 -0.56696534 0.45436922 -0.49421233 0.6870434 0.55256
0.40254012 0.95743465 -0.41507688 -0.7775911 -0.632771 0.6085737 -0.5432689 0.55577713
0.52434635 -0.6763009 0.6652171 -0.56444216 -0.5749741 0.35955918 0.44256404 -0.6833538
-0.45110682 -0.43641043 -0.60357755 -0.45806038 0.69038355 -0.5727382 -0.5821739 0.7007501
00000000: 65d6 3d3f 8844 9e3f 677e ccbe 3569 fcbe
00000010: 5cbd 03bf adf7 183f 0eff 093f 74d8 4fbf
00000020: 221a 0c3f f0bb 87bf b347 e63e 383b 0f3f
00000030: 177a 60bf 7050 0cbf 54cc 87bf f253 54bf
00000040: b77c 263f 2966 2c3f 5023 37bf b35f 21bf
00000050: 3a38 533f 9b73 0b3f 7ee1 d33e a8ba ed3e
00000060: 52da c2be 3f67 4abf f096 dd3e c810 e1be
00000070: 686a 2bbf 683a 333f c741 2e3f 173b f4be
00000080: d547 11bf 8fc3 2fbf 181a 14bf a424 11bf
00000090: 15a3 e83e 6609 fdbe 14e2 2f3f 9274 0d3f
000000a0: bd19 ce3e 701a 753f f584 d4be 3610 47bf
000000b0: 48fd 21bf 7ccb 1b3f ac13 0bbf 6947 0e3f
000000c0: 903b 063f 0e22 2dbf ab4b 2a3f 487f 10bf
000000d0: 8131 13bf 2418 b83e c197 e23e 46f0 2ebf
000000e0: 79f7 e6be 3071 dfbe 0f84 1abf e486 eabe
000000f0: fabc 303f f89e 12bf 5909 15bf 5c64 333f
