models/AsesAgent_Phase2/AsesAgent_Phase2_latest.pth (torch, 47391 bytes, 11 tensors)

actor.0.weight f4 [64, 15]
000000 8e ef 85 3e 9c 64 81 be 79 08 61 bd 75 95 39 3e
       0.26159328 -0.2527207 -0.05493972 0.1812342
000010 98 3f b9 3f 23 ef 1a 3f ad 22 ad bd e2 9f 1d 3f
       1.4472532 0.60521144 -0.084538795 0.61572087
000020 b5 64 83 be d5 34 8f bd 1a fa d6 bd 08 ef 58 bd
       -0.2566277 -0.06992499 -0.10496922 -0.052962333
000030 91 ad 6b be 9a 75 1e 3e c4 86 66 3e fc bf 96 bd
       -0.23015429 0.15474549 0.22512347 -0.07360837
000040 67 7e 15 bf 70 c9 83 3d 7c 11 b5 bd 10 85 d8 bf
       -0.58396 0.064349055 -0.088412255 -1.6915607
000050 57 d3 4d be 6c e8 04 3d 32 2f 3d be d8 84 3f bf
       -0.20100151 0.032448217 -0.18475035 -0.7481208
000060 c8 9a af 3b 01 b2 be be ce c9 32 be cb e8 3d be
       0.0053590275 -0.3724518 -0.17459795 -0.18545835
000070 20 ba cb bc 2c 21 ee 3d db c5 e7 3b fe 33 bd 3e
       -0.024869025 0.11627421 0.0070731468 0.3695373
000080 a8 f5 85 3c 75 62 2a be 0f fa 02 c0 f2 ea ae bd
       0.01635249 -0.16639121 -2.0465124 -0.08540906
000090 c6 4c a2 bb fc f6 86 be 64 3d e5 be 4f 5e 85 3d
       -0.0049529998 -0.2636031 -0.447734 0.065121286
0000a0 3c af ba bd 34 9a 6b be a2 d5 56 3e b8 b1 06 bd
       -0.091154546 -0.23008043 0.20979932 -0.03288433
0000b0 40 40 00 bc 79 b8 0d 3e 1f a1 d0 bd b0 0a ca 3e
       -0.007827818 0.13839902 -0.101869814 0.3946128
0000c0 c8 70 0f be f1 aa bc bd 99 ef 2f be 67 ee 10 3e
       -0.14007866 -0.09212292 -0.17181243 0.14153443
0000d0 ab b7 1c be 1a ed c3 3e d9 05 3a bd b0 d6 f0 3e
       -0.15304439 0.38266832 -0.045415733 0.47038794
0000e0 b6 01 0a 3e 4b 2e 00 be 90 5e 6c bd 13 c4 83 3e
       0.13477215 -0.1251766 -0.05770737 0.2573553
0000f0 5a 29 0c 3e ca 09 33 bd 23 cb ad be b5 7d 79 be
       0.1368765 -0.043710507 -0.33944044 -0.2436436
000100 3d 74 24 bf 79 7a 55 3e e7 35 16 be 61 f5 1a bd
       -0.64239866 0.20847501 -0.14669 -0.037831668
000110 73 73 06 3f b3 f0 2d bd d5 39 d5 be 96 f3 02 3e
       0.5251991 -0.042465877 -0.41645685 0.12788233
000120 e8 b8 29 3d c0 f1 c9 bc 00 5f 22 3e 66 71 58 3e
       0.041436106 -0.024651408 0.15856552 0.21137008
000130 e4 4a 15 3d a5 64 85 3e 13 6b ad 3e a9 ab 2d 3f
       0.036448374 0.26053348 0.33870754 0.6784006
000140 99 08 1c 3e 92 ff 9d bd 3e 25 89 3e e3 f9 01 bf
       0.15237655 -0.07714762 0.26786226 -0.5077192
000150 cf 9f ab 3e 1e 30 6a be 6a 47 2e 3e 1b ce 04 be
       0.33520362 -0.22869918 0.1701943 -0.12969248
000160 dc a2 3c be 9e 04 87 bd 90 db 0a be f7 63 48 bd
       -0.18421501 -0.065926775 -0.13560319 -0.04892346
000170 9c 47 28 3f 07 cc ad 3e 06 1c f0 be d4 f7 f5 bd
       0.6573427 0.33944723 -0.4689638 -0.1201016
000180 8b 20 e5 3c 79 d0 cf bd a6 57 fb 3e d5 a7 40 3e
       0.02796962 -0.10147185 0.49090308 0.18814023
000190 44 45 fd 3e be 19 20 3e 8f 6d 78 be f4 d1 51 bd
       0.49466908 0.1563482 -0.24260543 -0.051225618
0001a0 a8 2a e4 bd 86 35 78 3d 27 cc c1 be 54 de a0 bd
       -0.111409485 0.06059792 -0.37851068 -0.07854906
0001b0 9b 94 0f be f1 ca c7 3f 38 02 75 3e 7d 04 9d bc
       -0.14021532 1.5608808 0.23926628 -0.01916718
0001c0 c2 5f 92 3e 99 51 83 bf aa cc 7c be 61 4b 29 be
       0.28588682 -1.0259277 -0.24687448 -0.16532661
0001d0 e4 8e 47 3e 1e 23 42 3e 00 d0 f7 39 48 50 a2 bc
       0.19488102 0.18958709 0.00047266483 -0.019813672
0001e0 0c 7e 98 bc 7e ca bc be 72 cc 02 3e 10 7c ad 3e
       -0.018614791 -0.3687324 0.12773302 0.33883715
0001f0 17 55 1c 3f a4 fa 3a 3e 71 e5 7d 3e a4 48 ff 3e
       0.61067337 0.18259674 0.24794556 0.49860108
000200 77 70 1a 3e b3 77 7f 3e ab a4 c5 3e 54 b8 47 3e
       0.15081964 0.24948005 0.38602194 0.1950391
000210 a6 7d 7d 3e 00 50 25 b9 54 62 d2 3d 21 4f 7f 3e
       0.24754962 -0.00015765429 0.10272661 0.24932529
000220 47 44 85 be c8 9f 96 3c 26 88 49 3d 8b cf b5 3f
       -0.26028654 0.018386737 0.049202107 1.4203962
000230 a3 11 f8 3e 54 43 07 be 26 15 ec 3e 6b 6d dc be
       0.48450956 -0.13209277 0.46109885 -0.4305223
000240 ac 60 77 3e 51 fb 5e be dc 74 90 bd 26 c0 0a be
       0.24157971 -0.21775557 -0.07053539 -0.13549861
000250 89 a6 1d be 10 5c 07 3d a6 48 8f be b0 b6 fa be
       -0.1539556 0.033046782 -0.27985114 -0.48967505
000260 d3 b0 44 3e 2c 28 8d be db 2e 29 bf 19 0f a3 be
       0.19208078 -0.2756971 -0.6608712 -0.31847456
000270 38 ff cd 3d f9 b8 86 be c5 92 a1 3d e8 4b ce 3d
       0.10058445 -0.26312998 0.07889322 0.10073072
000280 b2 63 19 3f 50 51 62 3e f8 d5 d8 3d da 05 31 3e
       0.5991775 0.22101331 0.10587686 0.17287388
000290 44 97 c3 bd fa 0c c8 3d a0 05 db 3e 20 cf a8 3e
       -0.09550336 0.097681 0.4277773 0.32970524
0002a0 6d 75 a0 3e f5 ac b7 bf 6e b0 a8 bc 68 c3 d0 bc
       0.3133959 -1.4349657 -0.02059194 -0.025483802
0002b0 fe b1 3d be 91 2c d1 be c0 37 c6 3e 91 96 32 3f
       -0.1852493 -0.40854314 0.3871441 0.69760996
0002c0 50 3f 6f 3d d5 97 5e be c1 cd 1e be 2a 53 ff bd
       0.05840999 -0.21737607 -0.15508176 -0.12467034
0002d0 9c 8e 09 bd 67 f2 3f 3d aa d8 4f 3f 63 2f 17 be
       -0.03358327 0.046862032 0.8118998 -0.1476417
0002e0 3c b7 84 3f 6c 83 01 bd 64 cd ee 3d 6e 12 bc bd
       1.0368419 -0.031619474 0.11660269 -0.09183203
0002f0 3c 1a a9 be 83 f6 eb 3c a0 82 f0 3e 34 85 43 be
       -0.33027828 0.02880407 0.4697466 -0.19093782
000300 68 92 59 3e 58 93 5d be 9d 53 1b be ec 24 38 3d
       0.21247256 -0.21638238 -0.15168615 0.044957086
000310 4a d2 86 be ed 18 17 3f b0 80 79 be a3 36 2b 3f
       -0.26332313 0.5902241 -0.24365497 0.66880244
000320 46 83 8d be 1b 40 61 be d8 7a 2b be c5 b8 8f 3d
       -0.27639216 -0.2199711 -0.1674608 0.07017664
000330 f4 44 96 bd 3c 5e 78 be 34 4e 8b bd 80 90 12 be
       -0.073373705 -0.24254698 -0.068020254 -0.14312935
000340 c0 b7 17 3e 1a 55 6d 3e 90 3c 96 be 27 49 34 3e
       0.14816189 0.23176995 -0.2934308 0.1760603
000350 05 e9 9b 3d d7 35 9f be 8c 6b 5c 3d 63 75 08 bf
       0.07612804 -0.31095764 0.053813502 -0.5330412
000360 ad c1 7b 3e df db fb be 7b 80 65 bf 68 b9 34 be
       0.245856 -0.49191186 -0.8964917 -0.17648852
000370 18 d2 c8 bd 32 b7 ff bd 9e 33 33 3e 00 ff 66 3d
       -0.09805697 -0.124861136 0.17500159 0.05639553
000380 7b e0 61 be 3c fb 57 3e e2 8d 39 3f 56 4a 82 3e
       -0.22058289 0.21091932 0.7248212 0.2544734
000390 66 97 88 bc e0 18 19 bf fd f7 8d 3e ae f9 c2 ba
       -0.016673755 -0.5980358 0.27728263 -0.0014875436
0003a0 4a f2 c8 3c 96 9a 8c bf 34 ec c0 3e ce b8 36 3e
       0.024529595 -1.0984676 0.3768021 0.17843935
0003b0 e8 2b 48 3d f6 95 4d 3e 33 b6 12 be 00 37 a4 3a
       0.048869997 0.20076737 -0.14327316 0.0012528598
0003c0 fb 86 a7 bd 79 fb ba bd 6d 0a f9 be 9f db 29 3c
       -0.08180042 -0.09129996 -0.48640767 0.010367303
0003d0 f5 b4 26 3e b0 ea b7 be 4d db 99 be 90 b5 a8 3d
       0.16279967 -0.3592124 -0.30050126 0.08237755
0003e0 c7 39 a6 3e ac e0 ee be a7 03 f2 be 48 eb 06 3e
       0.32465956 -0.46655786 -0.47268412 0.1317569
0003f0 d0 e1 99 3d fd da 2c be 2e 46 2c 3e 5c e0 4a be
       0.075137734 -0.16880412 0.16823646 -0.19812149

actor.0.bias f4 [64]
000000 c4 2a 0a be d3 2a 9b bc 5b f4 63 be 21 e8 a7 3d
       -0.13492876 -0.018941319 -0.22261183 0.08198572
000010 05 77 93 be 2c d0 fe 3d 1f 5a bb 3d 26 9c 58 3d
       -0.28801742 0.124420494 0.091480486 0.05288329
000020 dc 84 ce 3c c8 71 67 be 64 d9 0b be a5 9a 02 bd
       0.025209837 -0.22601998 -0.13657147 -0.03188576
000030 01 87 8f 3e 6c 45 fc bc f6 84 41 3d 1a f2 6f 3d
       0.28032687 -0.030794822 0.047245942 0.058580495
000040 21 13 1a bd 1a a7 25 bd ed 93 c2 bd 95 b0 c2 3d
       -0.0376159 -0.040442564 -0.09500871 0.095063366
000050 1e d3 2a be ea 5c e8 3e c4 9f 5c be 69 1c 0f 3e
       -0.16682097 0.45383388 -0.21545321 0.13975681
000060 78 18 de 3d 49 f8 07 3e d5 ea 88 3e e9 63 9b be
       0.10844511 0.13278307 0.26741663 -0.30349663
000070 bf 4e 68 be 9a 2f bd 3d a3 88 88 be 39 4d 15 3d
       -0.22686289 0.09237595 -0.26666746 0.0364506
000080 db 2c a3 be 61 cc bf bd 6c e6 33 3e 1d 57 4c be
       -0.3187016 -0.09365154 0.17568368 -0.19955106
000090 48 49 77 bd df 86 d7 3d c4 0a e4 3e 87 e0 d1 be
       -0.06037262 0.105237715 0.44539464 -0.40991613
0000a0 28 79 30 3e 2c 3e a4 3d 78 de ca bd b1 06 bb bd
       0.17233717 0.08019671 -0.09905714 -0.09132136
0000b0 7c b3 d4 be f6 87 b8 3e 06 12 53 3d 3b ce e0 bd
       -0.41543186 0.3604123 0.05153086 -0.10976835
0000c0 39 45 44 be d1 d6 fc bd 82 64 f6 3d 3c 26 64 3a
       -0.19167031 -0.123456605 0.12030889 0.0008703207
0000d0 01 19 53 be b9 d3 d4 be 65 d7 f1 bc cb 07 8a bc
       -0.20615007 -0.41567782 -0.029521653 -0.01684942
0000e0 26 6d 98 bd 28 0d ed bd e2 25 0c be f8 6d 50 3e
       -0.074426934 -0.11574775 -0.13686326 0.2035445
0000f0 24 d9 69 3e 3b 9f 9d be 26 ce 6a 3e 64 37 13 be
       0.22836739 -0.30785546 0.22930202 -0.14376599

actor.2.weight f4 [64, 64]
000000 cf b3 f7 3c c3 a3 c8 3d 94 90 41 3e 00 8d 85 be
       0.030237107 0.0979686 0.18902808 -0.26084137
000010 4f 58 03 3f f6 2c 7f be de 43 ad 3d 8b ca 06 3e
       0.51306623 -0.24919495 0.0846021 0.13163202
000020 11 bc 6d be 6a 96 3c be eb 2f c3 be 8f bc ce bd
       -0.23216273 -0.18416753 -0.38122496 -0.100945584
000030 f6 a7 48 3d b6 7f 63 3e e1 cd 06 bd 57 0c 2e 3d
       0.048988305 0.22216687 -0.032911185 0.042492237
000040 06 40 87 3e ab a8 ab be 33 30 81 be 4b dd 8a be
       0.26416034 -0.3352712 -0.25232086 -0.27121958
000050 2f 62 7c 3e 58 09 17 be 31 b3 d8 3e e7 da 15 bc
       0.24646829 -0.14749658 0.42324212 -0.009146429
000060 5f d5 b2 3e d6 26 91 3e b9 79 9d 3e 8d cb 10 3e
       0.34928414 0.28349942 0.3075693 0.14140148
000070 d1 93 8d 3e 34 99 ae be 64 7a 6c 3e 8f 24 84 3e
       0.27651837 -0.3410126 0.23093563 0.25809142
000080 c7 63 49 3e 63 c3 38 bd 39 2c 00 bf d1 5b a9 3c
       0.19666968 -0.04510821 -0.5006748 0.020673664
000090 88 8d e3 be 24 81 19 bd e4 6d 73 be 41 5d e5 bb
       -0.44443917 -0.037476674 -0.23772389 -0.006999642
0000a0 d9 9e c5 be 5e f1 6d 3e 28 be c6 3e 91 64 fd be
       -0.38597754 0.23236606 0.38816953 -0.4949079
0000b0 7f 90 fd 3d 9a 82 34 3e 3e 72 a3 be 60 fd 87 3d
       0.12381076 0.17627946 -0.31923097 0.06640124
0000c0 a6 73 ee bd bc 05 9a be 1b 27 68 3e 94 5c 05 be
       -0.11643152 -0.300825 0.22671168 -0.13023597
0000d0 be 8a 9a be 0a 45 ff 3d 39 ea c3 be 7a e8 1c be
       -0.30183977 0.1246434 -0.38264635 -0.15323058
0000e0 f4 7e bb be 6e 5c 8e be f8 17 81 be ab 08 58 bd
       -0.36620295 -0.27804893 -0.252136 -0.05274264
0000f0 26 6c 2a be ab 46 a4 bd fd 7a 09 3e 09 ac df 3c
       -0.16642818 -0.08021291 0.13425823 0.027303712
000100 b2 cf 4c be fa 75 c6 3d fb e3 05 be 70 cd 44 3d
       -0.20001104 0.09690471 -0.13075249 0.048047483
000110 69 a6 43 be 86 e2 28 be 1f a3 26 bd 2f 39 c3 be
       -0.19106449 -0.16492662 -0.04068291 -0.38129565
000120 50 b2 a1 3d 2a 48 16 bf 6d 9c e4 bb 8b 3d 19 3e
       0.078953385 -0.58703864 -0.006976655 0.14964883
000130 ce 3d 4e bd 59 d1 5f 3c 61 30 03 3e 3e b6 1f 3c
       -0.05035191 0.013660752 0.12811424 0.00974804
000140 ae 9e bf be b8 35 be 3e 0f 41 98 3e 35 61 c0 bc
       -0.3742575 0.3715036 0.29737136 -0.023483852
000150 35 a3 a3 be 15 7e 19 3e d8 e4 d5 be 7d 6c 5b bd
       -0.31960455 0.14989503 -0.41776156 -0.05357026
000160 1b 28 8e bc 78 d8 f1 be cc b2 30 3e ac 6f 74 3d
       -0.017353108 -0.47235465 0.17255706 0.05967681
000170 70 66 81 be dd a7 8e bd 31 c4 84 bd ce 8b 26 bf
       -0.25273466 -0.06965611 -0.06482733 -0.65057075
000180 62 99 4b bf b9 72 7e 3e 76 88 b0 3e 62 4d 0c 3e
       -0.7953092 0.2484845 0.3447911 0.13701394
000190 6e 3c 03 3f 3e fc 1b 3a ff 46 2c 3d 8f 0b 58 3b
       0.51264083 0.0005950368 0.042059895 0.0032965874
0001a0 82 e1 0d 3f 63 b8 0a be 1a 4c be be 9c c2 10 3f
       0.5542222 -0.135469 -0.37167436 0.5654695
0001b0 ed 93 50 be 41 a7 5f bd ca f8 84 bc d2 e5 5b 3e
       -0.20368929 -0.054602865 -0.016231913 0.21474388
0001c0 80 76 d7 be 4d 49 32 3d 5f dd 3b be e6 94 05 3e
       -0.42082596 0.043526936 -0.18346165 0.13045081
0001d0 f6 77 7e bd 55 0a a9 bb a9 bc ed 3d a4 16 4d be
       -0.062126122 -0.0051587024 0.1160825 -0.20028168
0001e0 ca 7d cf 3e 0f 87 e0 3e a0 63 bf bd 78 e3 2e be
       0.40525657 0.43853042 -0.09345174 -0.1707896
0001f0 7b 6d 2b 3f 9a 8c 0d be 6b 53 5c 3e b6 68 0f 3e
       0.6696393 -0.13823166 0.21516196 0.14004788
000200 8c d0 ed bd 2c 32 bd be dd 0c 67 be 55 2e e6 3d
       -0.11612043 -0.3695234 -0.225635 0.11239306
000210 36 c6 24 be 07 01 11 bd 8d be 85 3e c6 2f 26 be
       -0.16091236 -0.03540137 0.2612194 -0.16229162
000220 9b a5 99 be 03 70 24 bd 6a de 07 bd 77 61 57 3e
       -0.3000916 -0.040145885 -0.033171095 0.21033274
000230 0a 74 8b 3e e9 f1 a7 3e a1 2c 1f 3e 12 9e 44 be
       0.27236968 0.3280175 0.15544368 -0.19200924
000240 df 27 a9 bd da 35 fb bd af 1b 38 be 52 53 1a bd
       -0.08259558 -0.12266131 -0.1797931 -0.037677117
000250 a2 7c 93 be 14 c2 2d be c2 fa 72 be 1b ba 17 3f
       -0.28806025 -0.16968566 -0.23728469 0.5926835
000260 33 bc 3d bd df e5 b7 bc 39 f6 68 3e 17 c5 c4 be
       -0.04632206 -0.022448478 0.22750176 -0.38431618
000270 03 95 28 be 27 31 bf 3e b6 04 4c be 9e 88 af 3d
       -0.16463093 0.37342188 -0.19923672 0.085709795
000280 42 8a cf bd b6 d8 0f 3e 25 56 ff bc a1 04 52 3d
       -0.101337925 0.14047512 -0.031169007 0.051273946
000290 c3 e1 7a 3d 19 2f 3c 3e 2c b2 83 3e f5 11 04 3e
       0.06125046 0.18377341 0.25721872 0.12897475
0002a0 8f 1a b1 bd 68 97 ab 3c 89 52 1b 3d c0 c7 f6 3d
       -0.08647644 0.02094622 0.03792051 0.12049818
0002b0 f5 d0 6c be e2 ab 8c 3e 74 42 d4 3d ec ba ac bc
       -0.23126586 0.27474886 0.103642374 -0.021085225
0002c0 e1 97 c3 be 51 07 0b 3e 04 46 d3 3d e1 69 01 bf
       -0.38201812 0.1357701 0.10316089 -0.50552183
0002d0 9e f7 f1 3e 5c 22 08 be 9f bc 1d 3f 53 b4 44 3b
       0.4725923 -0.13294357 0.6161594 0.0030014708
0002e0 6e 30 06 3f 05 30 00 3f 36 84 ab 3d 6b b0 4e be
       0.5241765 0.5007327 0.083748266 -0.20184486
0002f0 57 42 e7 3d 1e 41 93 bd 74 5f 58 be b0 16 94 3d
       0.1129195 -0.071901545 -0.21130162 0.0723089
000300 c1 1e dd 3e 19 98 ef 3e 80 7f 9d 3e 3d e6 b4 be
       0.43187526 0.4679573 0.30761337 -0.35331908
000310 90 1a 4e 3e b2 dc 93 be 9b 24 a1 be 41 78 a9 3d
       0.2012732 -0.28879315 -0.3147324 0.0827489
000320 69 c8 18 3d e3 24 34 3e d1 e7 8d 3d 5d f2 1f bd
       0.0373005 0.17592196 0.06928981 -0.039049495
000330 3c 8a 26 be 47 89 3e be 7c aa 15 be 70 66 06 3d
       -0.1626367 -0.18607055 -0.14615816 0.032812536
000340 f8 36 34 3e 32 21 ed bd cd be 2f bd 4e 07 d0 bd
       0.17599094 -0.11578597 -0.04290657 -0.10157643
000350 5a c4 d6 3e 53 23 8e be 3b 71 17 3f ee a6 97 be
       0.4194668 -0.27761325 0.5915715 -0.29619545
000360 f2 e8 73 3e 44 c9 b3 3e 9a 2f 47 3e e1 fd 8e 3e
       0.2381933 0.3511449 0.19451752 0.2792807
000370 80 2c 50 3d 8d 7f 66 be a0 87 47 3e c6 a9 ec 3d
       0.05082369 -0.22509594 0.1948533 0.11555819
000380 90 4f 33 3e a1 1c 09 be 01 a7 ce be ef 46 64 be
       0.1751082 -0.13389827 -0.4036179 -0.22292684
000390 19 d7 d5 bd 92 db 89 bd 28 d0 45 be 42 93 d4 3d
       -0.10441417 -0.06731333 -0.19317687 0.1037965
0003a0 0a 02 cf be 5c 6c 9f 3e f9 fe d8 3e 2e 7c cd bd
       -0.40431243 0.3113736 0.4238203 -0.10033451
0003b0 8c ab 82 3d be 50 0f be e5 f2 53 3d be b7 c2 be
       0.06380376 -0.13995644 0.051745314 -0.3803081
0003c0 18 80 1c 3f 6f ab 8f 3d f3 19 cf 3d dc 94 68 3e
       0.61132956 0.0701512 0.10112371 0.22713035
0003d0 3b fc cb be c6 b6 b8 3e 23 bc eb be 1d 9d 8c 3e
       -0.39840874 0.36076945 -0.46041974 0.27463618
0003e0 55 bf e6 be 6d d0 87 be 45 40 4c be 60 c3 19 3e
       -0.4506785 -0.26526204 -0.19946392 0.15015936
0003f0 42 93 ad be 9b 54 39 3e 25 b9 9f 3d 19 1f b5 bc
       -0.3390141 0.1809868 0.077989854 -0.022109555

actor.2.bias f4 [64]
000000 bc ee 2c be e4 96 15 3e cb 7d 80 bd 9f 38 47 be
       -0.16887945 0.14608341 -0.06273993 -0.19455193
000010 6f d8 09 be 8a ec 82 3d f3 97 dc 3d c8 3e 91 bd
       -0.13461469 0.063927725 0.107711695 -0.07092053
000020 03 e0 97 3e c0 35 c0 3e 6f 33 73 bb 72 09 06 be
       0.29663095 0.37541008 -0.0037109514 -0.1308954
000030 5a bf 22 3a 4d bd 4e 3d 9f 5c b5 3e 74 3b 0f 3d
       0.0006208323 0.0504735 0.35422227 0.03496881
000040 13 0b 64 be 79 52 78 bd 5f b2 3f bd 0c 5d 7e bd
       -0.2226985 -0.060625527 -0.046800967 -0.062100455
000050 c2 f0 6b 3e 85 3b 9f 3e c4 36 6d 3e 7e ae 34 be
       0.2304106 0.31100097 0.23165423 -0.17644688
000060 57 a6 a7 bc 0d 22 28 be 3c f9 8d bd 17 ac bc bd
       -0.02046506 -0.1641924 -0.06932303 -0.09212511
000070 6d c4 86 3e 18 cd 8e be 79 44 78 3e 07 b4 5a 3c
       0.26321736 -0.2789085 0.2424487 0.013348586
000080 1a 0a f0 bc aa 06 4e 3e 8f ae c4 bc a9 bd 4c bd
       -0.029301692 0.2011973 -0.024009017 -0.04998556
000090 ed b5 09 bd ff f6 3a 3c aa c8 8a 3e c9 8a a3 3a
       -0.033620764 0.0114114275 0.2710622 0.0012477274
0000a0 be 33 1c be 4b c0 64 be 7d 82 55 3e 59 11 0f bc
       -0.15254113 -0.22338979 0.20850559 -0.008732163
0000b0 07 7e 79 bd 09 f7 b9 3d 24 65 ad be 2e 4d 96 be
       -0.060911205 0.09080321 -0.33866227 -0.29355758
0000c0 7c 98 80 be 19 22 db 3d c1 be 65 3d 49 b5 b0 3d
       -0.25116336 0.10699863 0.05609012 0.086283274
0000d0 28 af 50 3c bd ee 50 be c0 ec 54 3b 48 79 34 3d
       0.012737073 -0.20403571 0.0032489747 0.044060975
0000e0 cd 52 fb bd b9 5e 9a be 34 a2 bc bd 92 c2 94 bd
       -0.12271652 -0.30150393 -0.09210625 -0.07263674
0000f0 83 e6 31 3d 33 14 9d 3d 35 28 08 be 4e b1 09 3d
       0.043432724 0.07669868 -0.13296588 0.033616357

actor.4.weight f4 [2, 64]
000000 cf e9 a8 3d e9 70 90 3e 0d 66 3e 3e 2f b8 b7 bd
       0.082477205 0.28211144 0.18593617 -0.08970677
000010 33 b9 79 bc 93 56 c0 bd 79 a3 7b 3d 7a 05 be 3d
       -0.015241909 -0.09391513 0.061435197 0.09278388
000020 51 d7 00 3d 36 89 b0 3c bb 17 27 3c 63 70 80 bd
       0.03145534 0.021549802 0.010198529 -0.06271436
000030 b6 fd 6d bd 84 f3 d0 bd fa fc 94 bd 63 2b 63 bd
       -0.058103286 -0.10202697 -0.07274814 -0.0554613
000040 91 4e 09 3e a5 5b 3d 3e f9 fc 2a bd 6b 13 06 3e
       0.13408877 0.18491991 -0.04174516 0.13093345
000050 f1 e4 96 bd 67 c9 63 3d 6b 75 2e bc 38 1a 70 bd
       -0.07367886 0.055611994 -0.010648112 -0.058618754
000060 bd 98 63 bd 35 7a 72 3e 01 b4 8d bc 88 af 41 3d
       -0.055565584 0.23679431 -0.017297747 0.04728654
000070 d7 7e 8c 3d 6c 20 95 bb 94 30 f9 bd 74 8e 03 bd
       0.0686013 -0.004550984 -0.12167469 -0.032118276
000080 5b 7f b0 bd ca 7f 3c 3e 73 02 dc bd ba 00 ee bb
       -0.08618041 0.18408123 -0.10742655 -0.00726327
000090 8f 95 19 3c 5e bf 36 3c ea 01 e1 3d 76 72 b2 bd
       0.009374036 0.011154024 0.10986693 -0.08713238
0000a0 18 bb dd 3d 87 78 a7 bd ba 2a 9e bd fe 02 9d 3d
       0.10826701 -0.08177286 -0.07722993 0.07666586
0000b0 ab bb 32 3d 10 cd d5 3d 97 04 f3 bb ba be 4e 3e
       0.043636005 0.10439503 -0.0074163186 0.20189944
0000c0 b8 4e 0f be b8 3e 88 3d 58 4a 6f bd 81 9f 6b 3d
       -0.13994873 0.06652588 -0.05842051 0.05752516
0000d0 75 49 64 3d b8 0a 1c bd 2a 1b bc 3c 39 0c c7 bd
       0.055734117 -0.03809616 0.022962172 -0.09719128
0000e0 a3 46 32 3e 50 42 ad 3c 72 8c 81 3c d8 57 ac 3d
       0.17409758 0.021149784 0.01581404 0.08415192
0000f0 34 34 3f 3e c6 a4 17 3d 94 99 9e bd b6 0f ed bd
       0.18672258 0.037022375 -0.077441365 -0.11575262
000100 4d a1 74 3e 57 0d 03 3d f5 24 28 bd fc 74 87 be
       0.23889656 0.031995144 -0.04105087 -0.2645644
000110 e0 20 33 bd 63 66 22 be ae 97 b1 bd 5c 4f d2 3e
       -0.043732524 -0.1585937 -0.08671509 0.4107617
000120 bd 17 a4 bd b6 b9 cc 3d c9 04 01 3e 4e 35 fa 3d
       -0.0801234 0.09996359 0.12599482 0.12217198
000130 f2 be a3 bd b7 92 0f 3e 0e dd c3 3e 61 a2 64 3e
       -0.07995404 0.14020811 0.3825459 0.22327568
000140 6b a4 a3 3e d0 90 0f 3e 23 fc 39 be 19 d3 85 3e
       0.31961378 0.14020085 -0.18162589 0.26137617
000150 d9 8f 10 3e 3e 15 d5 3d 6b 9a ed bc f2 08 e2 bd
       0.14117374 0.10404442 -0.029004296 -0.110368624
000160 29 5d 2c be 7b 14 95 bd 9c ad c6 3d 34 a7 8a 3e
       -0.16832413 -0.07279297 0.09701082 0.2708069
000170 7d 32 4c be ca a7 5c 3e 97 b3 9b bd ad 70 f8 3c
       -0.19941135 0.21548381 -0.076026134 0.030327165
000180 9f bc 1b 3f cd 5f 72 3d 16 0c 83 be d9 a1 0d be
       0.6083469 0.059173394 -0.25595158 -0.13831271
000190 27 be 23 be f7 82 75 3e 41 65 88 3e 9e a1 dc bc
       -0.15990506 0.2397574 0.2663975 -0.026932534
0001a0 cd e9 87 3e f0 53 b0 3d 5e ac 41 bd d9 a9 57 3a
       0.26545563 0.0860976 -0.047283523 0.00082269084
0001b0 ec 50 0d 3f 81 05 95 be ee c5 54 bd df 28 c2 3d
       0.552016 -0.29105762 -0.051946573 0.09480452
0001c0 23 c8 c3 3c 82 0c 68 bc 38 ef b5 3e cb d0 d4 3d
       0.023899144 -0.014163138 0.35534072 0.103913866
0001d0 bd 78 a3 3d f2 e9 87 bd f1 59 14 3f 9a bf 97 be
       0.079820134 -0.066364184 0.5794974 -0.29638368
0001e0 20 e7 53 3e 0d 08 08 be f0 03 56 be 50 fa b5 3e
       0.20693636 -0.13284321 -0.2089994 0.35542536
0001f0 7a fc 0b 3d 93 ec da bd 81 2c 15 3e 47 ca 83 be
       0.034176327 -0.10689654 0.14567758 -0.25740263

actor.4.bias f4 [2]
000000 0b 13 45 be c0 62 32 3d
       -0.19245546 0.043551207

critic.0.weight f4 [64, 15]
000000 a1 f7 69 3f d8 19 36 3e a6 7f d6 bc b7 2d 8f 3f
       0.91393477 0.17783296 -0.026183914 1.1185826
000010 41 01 23 bf af 08 48 3f 31 c9 61 3f 70 71 86 3f
       -0.6367379 0.7813825 0.8819762 1.0503368
000020 34 4a 27 c0 cd 69 a7 bc f6 6e 9b 3f b0 65 d6 3d
       -2.613904 -0.020436192 1.2143238 0.10468614
000030 e6 53 e2 bd bb 0b 84 3e e0 60 4a 3e 91 28 4a bf
       -0.110511586 0.257902 0.19763517 -0.7896815
000040 75 45 8e 3e d1 6b 42 bd 37 00 5c bf 0d cf da 3f
       0.27787367 -0.047466103 -0.8593783 1.7094437
000050 70 37 59 bf 71 7e 0b bf 77 9d 62 bf f9 92 d7 3b
       -0.84850216 -0.5448981 -0.8852152 0.0065788
000060 09 40 86 3e 29 27 78 bf 0a a6 0b be 70 1a 49 3e
       0.2622073 -0.96934754 -0.13637558 0.19638991
000070 fe ae 5f be 28 95 e8 3d ce d5 26 3f c5 6e 04 bf
       -0.21844098 0.11356574 0.6516999 -0.5173152
000080 09 b4 77 bd 9b 36 83 3f 74 91 64 be 65 b4 4f 3f
       -0.06047443 1.0251039 -0.22321111 0.81134635
000090 f4 55 63 3e 9a f0 10 3f f5 f6 e0 be 0a 0a 67 3e
       0.22200757 0.5661713 -0.43938413 0.22562423
0000a0 47 40 84 3e dc cd bc 3d 5e 78 30 be 4b a4 81 3e
       0.2583029 0.09218952 -0.17233416 0.25320658
0000b0 54 df 60 be a6 4c 44 be 2b 85 1d bd 2d 74 97 3c
       -0.21960193 -0.19169864 -0.038457077 0.018488014
0000c0 ea da 34 be 40 16 4a 3d 07 08 d3 3e 40 b0 ad be
       -0.17661634 0.049337626 0.41217062 -0.3392353
0000d0 ab 1f fe 3e 37 ab 1d 3f 6d c3 78 3e fd e1 d6 bf
       0.49633536 0.6158938 0.24293299 -1.6787716
0000e0 84 ef db 3d 08 82 56 bd bc b0 86 bd e3 6a 7e be
       0.10739043 -0.0523701 -0.06576678 -0.24845462
0000f0 ed 71 32 bd a2 40 86 bc f3 03 65 3a f4 4e 86 3e
       -0.04356568 -0.016388241 0.0008736245 0.2623211
000100 60 e2 03 be ae 7f 1e 3f e8 cf 16 be a3 ea 12 3f
       -0.12879324 0.61913574 -0.14727747 0.5738928
000110 ff c7 9a 3b 12 47 00 3f 79 f6 29 40 e2 c9 cd bd
       0.0047235484 0.50108445 2.6556685 -0.10048272
000120 c0 f9 08 3c f0 28 41 3e 0e 6e 6b 3e a8 ae 88 bd
       0.008360326 0.18863273 0.22991201 -0.06673938
000130 a3 46 71 3d f0 15 9c bb 21 bc 77 3e 3a 68 07 bf
       0.058905255 -0.0047633573 0.24192859 -0.5289341
000140 31 31 bb 3e 3e 69 3a 3e 7d 45 3d 3e 76 b3 ef 3f
       0.36560968 0.18204209 0.18483539 1.8726642
000150 b1 f2 74 3e 03 3b 88 bf f0 bd fe bd c0 5b bd 3d
       0.23920704 -1.0643009 -0.124385715 0.092460155
000160 39 6b 7b be 78 03 33 3d 4e 45 05 3f de be e2 3d
       -0.24552621 0.04370448 0.52058876 0.11071561
000170 4b 7f 3c bb 1d f6 f6 3e dc f6 d4 be 6b da c8 3e
       -0.0028762396 0.48234645 -0.4159459 0.3922914
000180 bd 0e fe bd 5b 40 c1 3e 23 af bb 3f f8 f3 95 bf
       -0.12405155 0.37744412 1.4662822 -1.1715078
000190 19 d3 4d 3f 60 ec d2 bd 54 27 5b bd d0 f3 4a bd
       0.80400234 -0.10298991 -0.053504303 -0.049548924
0001a0 dc 1a 34 bd a4 c6 c2 be 1a e8 57 be 8f 5c a1 bb
       -0.043970928 -0.38042176 -0.21084633 -0.004924364
0001b0 b4 5b 5a bf 8f 42 8c 3e 60 3f 74 bf 8d db 66 be
       -0.8529618 0.2739453 -0.954092 -0.2254469
0001c0 e7 1b 5f bf d0 bf 58 40 9d 4c 97 3e eb 29 41 bf
       -0.8715195 3.3867073 0.2955064 -0.75454587
0001d0 6a 46 f8 bd 88 74 f4 3d 52 34 24 3e fc fe 24 bd
       -0.121228054 0.11936289 0.16035584 -0.040282235
0001e0 b6 0a ab 3d b9 1d 76 3d 42 82 69 3a 2a 67 e1 3e
       0.08351652 0.06008694 0.00089076546 0.4402402
0001f0 37 50 b1 bf 91 55 0c 3f 38 20 00 3c 34 cf bd 3e
       -1.3852605 0.54818064 0.007820182 0.37072146
000200 8b 99 71 bf 4a 0a 44 bf d4 8e 4a 3f 60 c4 0d 3d
       -0.9437491 -0.765782 0.7912419 0.034611106
000210 05 75 83 3e 1c 65 a9 3d 7c 1f 94 3d 1a 05 6a 3e
       0.25675216 0.08271238 0.07232568 0.22853509
000220 e0 b3 ea 3c 5b 34 2f bb 5c 62 81 3e 86 ce c8 3d
       0.028650224 -0.0026734087 0.25270355 0.09805016
000230 e7 2d 5d be 72 c3 82 bc 8e 37 7e 3e 94 a4 28 bf
       -0.21599542 -0.015962336 0.2482588 -0.65876126
000240 2b bc 1c bf 9f 3b c6 3f 04 ff 6c be 18 05 01 3e
       -0.6122462 1.5486945 -0.23144156 0.125996
000250 f8 6e 67 be 65 ee 04 be 26 30 f3 3d 3d 86 32 3c
       -0.22600925 -0.12981565 0.11874418 0.010896263
000260 c5 2f 9b 3a de d0 20 be 71 49 90 3e 59 51 12 3f
       0.0011839798 -0.15704677 0.2818103 0.57155377
000270 42 2f 4e be 50 b1 98 3e d7 ba 4d c0 6d 0c 35 be
       -0.20135215 0.2982278 -3.2145288 -0.17680521
000280 38 01 e2 3d 90 e7 53 bc 94 ed 1c be 58 fe 1d 3d
       0.11035389 -0.012933627 -0.15325004 0.03857264
000290 00 5a 33 be 42 32 ec 3e bf e3 99 bd 20 03 5e 3b
       -0.17514801 0.46132094 -0.07514142 0.0033876374
0002a0 98 62 c4 3e b7 4f 40 3e 48 76 01 3e 4e 0d 71 3b
       0.3835647 0.18780409 0.12642777 0.0036781612
0002b0 86 72 c6 3c 05 ac d4 3e 45 5d cc bf 4f e8 85 3e
       0.02422453 0.4153749 -1.5965964 0.261538
0002c0 7a c5 0d 3e 23 67 03 be 2e 47 63 3e 8c f7 cc 3d
       0.13844863 -0.12832312 0.22195122 0.10008153
0002d0 2a 31 88 3f a7 7d 40 bf 3e 32 96 be 3a bb 76 3f
       1.0640004 -0.7519173 -0.29335207 0.96379435
0002e0 ec 87 db 3e d1 e3 8a 3f f2 8c 61 3f c6 07 a0 3f
       0.42877138 1.0850774 0.8810569 1.2502372
0002f0 2c e4 cf 3e b7 63 8c be 33 c5 58 3f 04 da a1 bd
       0.4060377 -0.27419826 0.846759 -0.07902911
000300 10 70 33 bc 3a 68 20 3e 09 46 82 3e 74 7e 3a 3f
       -0.010952011 0.1566476 0.25444058 0.728492
000310 d0 52 7d 3e b4 7a 33 3b 07 97 c4 3e e1 b1 bc 3e
       0.24738622 0.002738637 0.38396475 0.3685446
000320 3b c8 85 3e 49 1b 3e 3f bc 37 e0 3e 05 f1 99 3f
       0.26129326 0.74260384 0.43792522 1.2026678
000330 fa ef 4f bf f3 2b f1 3e 3a c9 31 be 54 a8 f1 3d
       -0.8122555 0.47103843 -0.17361918 0.11799684
000340 18 80 69 be f0 05 64 3e e3 93 46 3f 30 30 03 bf
       -0.2280277 0.2226789 0.7756941 -0.51245403
000350 36 31 7f bc b3 1e 50 3f 95 4d f8 be 6f fe 2a 3f
       -0.015575698 0.81296843 -0.4849669 0.66794485
000360 c4 71 31 3f 5c fe 0a 3f 73 17 96 3e a6 bd 22 be
       0.6931422 0.5429437 0.29314765 -0.15892658
000370 f9 c0 7f 3f a1 3b 1e be 28 bb 14 3d 10 c3 1e 3d
       0.9990383 -0.15452434 0.0363113 0.038760245
000380 70 aa 8d 3d 14 da 07 3e 33 33 f5 3c f5 55 8a bb
       0.06917274 0.13266784 0.02993164 -0.0042216727
000390 1c dc c9 3e 67 8c 73 3d ea cb d6 be cb 6a 75 3e
       0.39425743 0.05946007 -0.4195245 0.2396652
0003a0 de a7 56 be f2 85 de 3f c5 1e 85 3f ee 65 6d 3d
       -0.20962474 1.7384627 1.0400015 0.057958536
0003b0 fe b3 6f be 9c 5a bf bd 58 74 31 3d 3e c4 35 3e
       -0.23408505 -0.09343454 0.043323845 0.17750642
0003c0 ad bc ba bf 19 1d 4d 3d 3b 2c e3 3c 68 87 91 bf
       -1.4588829 0.050076578 0.027731052 -1.1369448
0003d0 05 a9 b1 3e db f2 63 bf ed 63 b8 bf e7 59 41 bf
       0.34699264 -0.89042443 -1.4405495 -0.75527805
0003e0 2e cb 4b 3f db 42 6b 3f a1 f6 19 c0 e0 c1 f9 3c
       0.796069 0.9189889 -2.405678 0.030487955
0003f0 78 91 2f be 0c e8 1e 3e 16 d3 72 3e f6 dc 9f be
       -0.17145336 0.15518206 0.23713335 -0.31223267

critic.0.bias f4 [64]
000000 83 07 2b 3d e7 e5 f2 3a 23 56 a4 be cb 22 68 3d
       0.04175521 0.0018531651 -0.32096967 0.056673806
000010 eb 4c 58 be 06 ec 08 bf 16 e5 13 3f 63 38 21 be
       -0.21123092 -0.53485143 0.5777143 -0.15744166
000020 04 f3 d6 3e cc 3f 90 3e 21 23 6f bd e3 cc 50 3f
       0.4198228 0.28173673 -0.05838311 0.8156263
000030 0f 8e 43 3f 10 8f a8 3e 7a 5b 87 be f4 78 af be
       0.7638864 0.32921648 -0.2643698 -0.34271967
000040 6d a4 b3 3e b8 f0 7b bf dd 6c 53 3f e2 d2 1f 3f
       0.35086384 -0.9841418 0.8258799 0.62431157
000050 df 5e 57 bf 51 23 2b 3f c5 47 0f 3d ab e6 61 3e
       -0.84129137 0.66850764 0.034980554 0.22060649
000060 27 50 1f bf 58 de fe be 36 38 21 bf 15 07 76 be
       -0.6223168 -0.4977901 -0.62976396 -0.24026139
000070 37 ff 3e be 7f dc 9a 3d 65 69 33 3f 4f 47 4e 3e
       -0.18652044 0.075615875 0.70082694 0.2014439
000080 27 91 60 bf 7e 1a 04 3e ec 97 0b 3e a4 f6 20 bd
       -0.87721485 0.12900731 0.13632172 -0.039297715
000090 b8 df 1e bd 61 f6 e1 3d 8b 77 48 bd 74 03 b2 3e
       -0.038787574 0.11033321 -0.04894213 0.3476826
0000a0 c7 bd 22 bf c5 7b 11 3d 67 95 a9 be fd a0 de bd
       -0.6357083 0.035518426 -0.33121797 -0.1087055
0000b0 a7 9e 85 3f e1 b6 b3 3e 0d 77 fb be 97 82 1a bf
       1.0439042 0.35100463 -0.49114266 -0.60355514
0000c0 b3 b6 1e 3f b4 81 5b 3f 50 ea 37 bf 15 c3 2c 3e
       0.61997527 0.85744786 -0.7184191 0.16871293
0000d0 f6 9e ac be 0d 85 49 bf e6 74 67 3f 81 9e cf bb
       -0.33715028 -0.78718644 0.9041275 -0.006336034
0000e0 b8 27 1b 3d 8d 06 a5 3e 9f cc 26 3d 8d cc 81 bc
       0.037879676 0.3223156 0.040722486 -0.015844608
0000f0 ae 5f 64 3e 8a 63 e0 3e fb c8 46 bf 4c 0e 2e bf
       0.22302124 0.43825942 -0.7765042 -0.67990565

critic.2.weight f4 [64, 64]
000000 a6 a2 9c be f9 e1 34 bf 6b 76 21 3e 3d fa 28 3d
       -0.3059284 -0.70657307 0.15767829 0.04125427
000010 c4 a2 ea bd 8c e8 c0 3d 1a 1f ff 3e e8 5e b9 3e
       -0.11456826 0.09419355 0.49828416 0.3620522
000020 52 d5 1a 3f 01 af 82 be 0f 11 4c bf c2 45 72 3f
       0.6048175 -0.25524142 -0.7971353 0.9463769
000030 8d be 28 bd a0 46 f3 3d 25 6b 04 be 34 a0 7b 3e
       -0.04119735 0.11878705 -0.12931497 0.24572831
000040 03 93 0f be c5 4c 53 be 32 9e e1 3e 7f 34 9f 3d
       -0.14020924 -0.20634754 0.44066006 0.07773685
000050 85 97 07 bf 60 79 1e 3e 65 bc fb 3c 7d c3 66 be
       -0.52965575 0.15475988 0.030729482 -0.2253551
000060 e5 5e 0d be a5 87 24 bf 6a b0 bb 3d 0b 3b 94 bc
       -0.1380573 -0.6426948 0.09164508 -0.01809456
000070 bc f1 df bd de f2 05 be 47 db b5 3e bf 5e 0f be
       -0.10934779 -0.13080928 0.35518858 -0.14000987
000080 03 9e 44 bf 50 be b9 3d cb d6 ef 3d 9d 61 32 bf
       -0.76803607 0.09069502 0.117108904 -0.69680196
000090 d7 78 ab 3f 63 7a c9 3e 2f a7 6a 3d 2c f7 22 3f
       1.3396252 0.39351186 0.057288345 0.63658404
0000a0 bc 6c 22 be c6 7c 84 3d 05 80 85 be b8 66 10 bf
       -0.15861791 0.06469111 -0.26074234 -0.56406736
0000b0 bf 29 71 3e b7 3e e3 be 33 25 57 bd b1 26 83 bd
       0.23551081 -0.44383785 -0.05252571 -0.06403864
0000c0 a2 f7 28 3f ef ab 2a bd 43 9f e2 be 88 43 a1 be
       0.6600286 -0.041667875 -0.44262132 -0.31496835
0000d0 50 b5 46 3c af 5f ce be e1 1d 80 3f f6 7f ea bc
       0.012128189 -0.40307376 1.0009118 -0.02862547
0000e0 69 44 7f 3c 00 21 7f bd b9 76 39 3f 0d a0 02 bf
       0.015580275 -0.06228733 0.7244678 -0.5102547
0000f0 f6 40 f7 be bf 2e 6a 3e 7b e3 25 be 18 74 1b 3d
       -0.4829175 0.22869395 -0.16200058 0.037952513
000100 b3 39 7f 3d 02 f8 31 bf c5 b6 9a be 79 60 fd bd
       0.062310886 -0.69519055 -0.30217567 -0.12371916
000110 dd 3b c1 3e 30 85 28 be fd d6 72 3f c9 90 64 bc
       0.37740985 -0.16457057 0.94859296 -0.013950535
000120 7b f4 84 3e 66 f8 11 3f 0c 1b f7 3d 98 ef 98 3f
       0.25967774 0.5701965 0.12065706 1.1948118
000130 25 97 f1 3d e0 87 d9 3e 26 0a 5f 3e 65 4a 45 bf
       0.11796407 0.42486477 0.21781215 -0.7706664
000140 86 31 86 be 17 38 97 be bb 3b 7f 3f 95 2b d3 3f
       -0.26209658 -0.2953498 0.99700516 1.6497675
000150 73 42 1c bf 45 11 83 3e f5 2d 16 3e 94 42 98 be
       -0.61038893 0.25599113 0.14665969 -0.29738295
000160 30 87 cc be 80 60 7c bf 28 48 41 be 1f ef 15 be
       -0.3994689 -0.9858475 -0.18875182 -0.14641999
000170 24 76 4b 3c 16 cf 58 3e 3a 6f ab 3e 46 92 93 bd
       0.012418304 0.21172747 0.33483297 -0.07205634
000180 d2 d0 1d bf 70 93 84 3e 07 55 d5 3d 34 37 cc 3b
       -0.6164676 0.25893736 0.10416608 0.0062321667
000190 40 d3 4c bf d1 da 56 3d 25 72 a0 be b6 52 da 3d
       -0.8000984 0.052454773 -0.31337085 0.10660307
0001a0 87 27 18 be 59 3f fa bd 05 76 ea be 66 09 05 bf
       -0.14858828 -0.12219114 -0.45793167 -0.51967466
0001b0 df de 8e 3e a0 d6 cb be 99 f7 25 bd 00 26 8c be
       0.27904412 -0.39812183 -0.04051933 -0.27372742
0001c0 86 6b 02 3f 7a e5 54 3e 74 cd 3e be fe e3 19 3e
       0.5094532 0.20790663 -0.18633062 0.15028378
0001d0 ae e7 dd be 04 ad d4 bd e8 15 f5 3f 2c 2a c7 bd
       -0.4334082 -0.103845626 1.914731 -0.097248405
0001e0 a7 c0 b0 be be 9e 18 3e 71 6c 60 3f 24 0a a6 be
       -0.34521982 0.14904305 0.8766547 -0.32429612
0001f0 1b bf 08 be ed ba 0e 3e 6b c8 01 bf 32 ac 10 3e
       -0.13354151 0.13938494 -0.5069644 0.14128187
000200 0d 2f b5 3e 48 e5 be be 8c 1e 1a be 20 28 42 bf
       0.3538746 -0.37284303 -0.15050715 -0.75842476
000210 08 ef e8 3e c1 17 92 3e 03 a3 13 3f c5 ab fd be
       0.45494866 0.28533748 0.5767061 -0.49545112
000220 f5 0f 0f 40 c3 cf 38 3e 9a 7d 3b 3e 51 6d 01 40
       2.235349 0.18048005 0.18309632 2.0222971
000230 c8 e3 58 3e 4a 9a c0 3e 5c 60 c3 3c ba c6 6f bf
       0.21180642 0.37617713 0.023849659 -0.9366261
000240 39 c0 ef be 9b cb d0 3d ae 5a 5e 3f a0 2a 42 3f
       -0.46826342 0.10195085 0.86857116 0.7584629
000250 fc a3 0b bf 80 b0 a1 3e 75 bf 4d 3f ea 9a 0e 3e
       -0.54547095 0.3157997 0.80370265 0.13926283
000260 ca f4 d2 bd 8e 72 45 bf 21 75 14 bf 94 71 39 3f
       -0.10300596 -0.7712792 -0.57991225 0.7243893
000270 31 36 79 3d 03 8b aa bc e4 4f 60 3f 25 e5 02 bd
       0.060842697 -0.02081824 0.87621903 -0.03195681
000280 9c d9 92 bf c9 28 1b 3f f1 9b a7 be dc d5 5a 3f
       -1.1472659 0.6060911 -0.3273616 0.85482574
000290 cf 39 80 be 19 11 f5 be ea 2f c3 bc ca 75 b4 be
       -0.25044104 -0.47864607 -0.023826558 -0.35246116
0002a0 9b 66 17 bf 42 8a a8 3e 01 3d b0 be 54 ac 23 bf
       -0.5914094 0.32917982 -0.34421542 -0.63934827
0002b0 10 58 ad bd 73 52 13 3f e7 01 d4 3d 4a 7e 7e be
       -0.08464062 0.5754768 0.10351925 -0.24852863
0002c0 8d 11 5d 3f de 67 36 bd da e4 b8 be 7a cd 91 be
       0.86354905 -0.04453265 -0.361121 -0.2847708
0002d0 62 a8 77 bf 1a 61 ae bf 98 9a ca 3f d9 8a 56 3d
       -0.96741307 -1.3623383 1.5828428 0.05237851
0002e0 1f 9a 80 3c 44 90 92 be 65 63 6d 3f a1 37 10 3e
       0.01569849 -0.2862569 0.9272979 0.1408372
0002f0 6a 09 08 3e b6 1a 61 3f 3d 82 c4 bf 0c 1f 22 be
       0.13284841 0.8793138 -1.5352246 -0.15832156
000300 62 98 14 bf dc a9 30 be 66 a7 2e 3e 3e 95 93 be
       -0.5804502 -0.17252296 0.17056045 -0.288248
000310 71 f5 86 3f e0 9d 00 be f8 86 e7 3e 11 2b bf 3e
       1.0543653 -0.12560225 0.4522016 0.37337545
000320 88 b4 bb 3e db 37 49 3f 2e e4 be be 4c 3b 21 3e
       0.36661172 0.78600854 -0.37283462 0.15745276
000330 40 fc d9 3d 50 ea 9f 3d 8e cd 0d 3f c7 e9 4b be
       0.10643816 0.078083634 0.55391777 -0.19913398
000340 53 f0 63 be 6f a7 5b be 87 23 22 3f 46 e9 65 3f
       -0.22259645 -0.2145059 0.6333546 0.8980907
000350 2d e6 b2 bd 05 67 e5 3e dc 37 b4 be cf 83 8f be
       -0.08735309 0.4480516 -0.35198867 -0.2803025
000360 75 c2 91 be 69 90 2b bf 82 f1 9b 3e 50 e7 2f bd
       -0.2846867 -0.6701723 0.30457693 -0.042945206
000370 94 ca db be a8 e7 c9 3e ae 4e d8 3e a6 e3 13 bd
       -0.42927992 0.39434552 0.42247528 -0.036105774
000380 10 b8 7a bd 76 8a 59 3e 86 89 8c bd a5 80 89 bf
       -0.061210692 0.21244225 -0.06862168 -1.0742384
000390 fe 0d 10 3f 6c 3a 1a bf 85 a7 cb be 7c 2e 52 3f
       0.5627135 -0.60245395 -0.39776245 0.8210218
0003a0 d9 0c e8 be 65 4b 94 bd 03 8f 94 bf 8b 6e 19 ba
       -0.45322302 -0.07240943 -1.1606144 -0.0005852959
0003b0 25 61 85 3e 64 b8 0d bf e5 66 b3 3e e2 ee 8c 3d
       0.26050678 -0.5535948 0.3503944 0.06881501
0003c0 32 b8 0c bc 32 86 b4 3e 90 80 62 be 93 fe 00 3e
       -0.008588837 0.35258633 -0.22119355 0.12597112
0003d0 6c 42 4d 3e 3b ba 51 be 10 80 0d 3f c6 18 db bc
       0.20044869 -0.20481198 0.5527353 -0.026745211
0003e0 56 9e b2 be b2 04 05 3e 25 57 98 3f 91 b2 7b bf
       -0.34886426 0.12990072 1.1901594 -0.98319346
0003f0 7a 55 04 be 65 e6 83 3e c6 48 10 3f a4 d9 13 3f
       -0.12923232 0.25761715 0.56361043 0.5775397

critic.2.bias f4 [64]
000000 e6 58 9d bc 5a b2 82 3e f9 b0 a6 3d 1a 32 bc 3d
       -0.01920743 0.25526696 0.081392236 0.091892436
000010 c3 19 29 bd 8e b0 3b 3e bb 83 9a be 63 1e 15 be
       -0.041284334 0.18329069 -0.30178627 -0.14562373
000020 11 ac 76 3e 60 a6 31 be 76 26 5a be 6e 3b ad 3d
       0.24089076 -0.17348623 -0.21303734 0.08458601
000030 99 24 a7 3e 0c b0 b3 bd c8 87 87 3c b2 2e 8b 3e
       0.3264511 -0.08773813 0.016544238 0.27184063
000040 6d b2 44 3e 5f 7d c4 3e de 4b 79 bd 9a 58 12 bd
       0.19208689 0.383769 -0.06086337 -0.03572903
000050 63 59 75 3e ff 52 6e 3e 45 2d 91 3d bf ff aa bc
       0.2395988 0.23273848 0.070887126 -0.020873902
000060 f1 b8 6e be 0a 3e 88 bd 06 fa 65 be 3f 1e f8 bd
       -0.23312737 -0.06652458 -0.22458658 -0.12115144
000070 1d 40 c8 be d8 a5 c9 be 50 2d 52 be 00 27 75 3d
       -0.39111415 -0.3938434 -0.20525098 0.059851646
000080 38 a0 24 be 1b b7 fc 3d 28 58 7e 3e 04 3e 8d 3d
       -0.16076744 0.12339612 0.24838316 0.06896594
000090 2c a3 49 3e 18 76 c4 3d 01 2c 45 bd 5d 06 81 be
       0.19691151 0.09592837 -0.04813767 -0.25200167
0000a0 f5 41 a8 3e c7 bf 2a 3e 7b 3d a4 be 66 7d 1f be
       0.3286282 0.1667472 -0.32078156 -0.1557518
0000b0 9f 97 3f 3c 4a 58 cb 3d c9 21 47 be af 54 53 3e
       0.011693864 0.09928949 -0.19446482 0.20637773
0000c0 82 c5 a9 be 42 8a 2e 3e 0e 49 61 3e 82 d5 fa 3d
       -0.331585 0.17044929 0.22000524 0.12247755
0000d0 9a 8b 0d 3e d6 db a7 3e 06 7b 12 3e 74 fd 8d 3d
       0.13822785 0.3278491 0.14304742 0.06933108
0000e0 1a 57 a6 be 7d 76 82 3c 5d ac fe 3d 89 bf 4a be
       -0.32488328 0.01592564 0.124352194 -0.19799627
0000f0 02 05 ee 3d 21 1c a8 3e 17 25 bd bc a8 aa 9c 39
       0.11622049 0.3283396 -0.023088975 0.00029881787

critic.4.weight f4 [1, 64]
000000 15 97 28 3f 0b 53 9f 3f 2f fa c3 be bb 17 05 bf
       0.6585553 1.2447218 -0.38276812 -0.51989335
000010 fc c9 05 bf 3d b2 11 3f 79 46 1e 3f 5c b8 20 bf
       -0.5226133 0.56912595 0.6182628 -0.6278131
000020 6c 44 04 3f 42 55 62 bf 7d e0 dd 3e 88 57 11 3f
       0.51666903 -0.88411343 0.43335333 0.5677419
000030 61 09 6c bf 70 69 0c bf 9d 20 87 bf 38 5e 52 bf
       -0.9220181 -0.54848385 -1.0556828 -0.82175016
000040 44 9e 14 3f dd 01 2f 3f 5a e9 37 bf 3e 68 1f bf
       0.58053994 0.6836222 -0.7184044 -0.62268436
000050 e7 a6 48 3f e7 11 20 3f 25 b3 9c 3e c8 53 c8 3e
       0.7837967 0.62527317 0.30605426 0.3912642
000060 84 11 b8 be 7d 97 43 bf b2 04 1f 3f 50 c9 b0 be
       -0.35950863 -0.7640303 0.6211654 -0.3452859
000070 b7 a3 2f bf e7 f0 30 3f 66 88 27 3f eb 95 fd be
       -0.68609184 0.6911759 0.654425 -0.4952844
000080 99 f3 13 bf 97 e9 22 bf 88 d0 24 bf a0 5b 2a bf
       -0.57793576 -0.6363768 -0.64380693 -0.6654606
000090 5e c6 fd 3e 24 f8 f0 be 05 03 0f 3f 58 6b 03 3f
       0.49565405 -0.47064316 0.5586398 0.5133567
0000a0 3a c1 cd 3e 9e 58 75 3f ed b1 0b bf b4 76 31 bf
       0.40186483 0.95838344 -0.5456837 -0.6932175
0000b0 54 73 34 bf 69 67 2f 3f de 62 06 bf 43 51 0e 3f
       -0.70488477 0.68517166 -0.5249461 0.55592746
0000c0 cc 8a 04 3f 3e f4 30 bf 8f 39 1d 3f ff 08 10 bf
       0.5177429 -0.69122684 0.6141595 -0.56263727
0000d0 cd e5 05 bf 53 c3 f9 3e 9f f3 e9 3e 3c 44 34 bf
       -0.52303773 0.48781833 0.4569368 -0.7041662
0000e0 c1 0c ea be 3a 41 fd be 97 ab 33 bf eb c4 e9 be
       -0.45712855 -0.49463826 -0.701837 -0.4565805
0000f0 32 7d 2e 3f c0 ab 10 bf 9b 0c fe be ae 90 1f 3f
       0.6815978 -0.5651207 -0.49618992 0.6233014
