models/022_Curriculum_Fixed/022_Curriculum_Fixed_best.pth (torch, 47122 bytes, 11 tensors)

actor.0.weight f4 [64, 15]
00000000: 52d9 a6bd bc01 6fbe a115 1f3e 1a9a 873d
00000010: d7b4 d1be f94d 38be 97a5 4b3b 7fae 3a3e
00000020: a9c6 86be caeb 003e 4c08 fdbd 3039 60bd
00000030: 08dd 673d 6c5c da3d ae71 bebd 84ea 37be
00000040: 1727 16be d43d a5bd 4d01 33be c2b7 7abe
00000050: 5b8c 94bd 7bb6 4a3d 497d 153e 56a8 96be
00000060: 3d10 0d3e c8db 4abe ca8e 2cbe 129a 19be
00000070: bfe6 79be b4e9 6dbd 9ad8 5b3e 0ce1 443e
00000080: 5bcd 08bc 8bfa 6abd 7af9 9fbe c2f7 34be
00000090: a781 c0bd f983 593e 4475 9e3d 992e 8abd
000000a0: b9f9 0a3e 9e64 003e 3ed0 43be f8d9 17bd
000000b0: 2089 90bd 99d2 d63c d99d 173b 354c c83d
000000c0: 3928 2dbe 67ff fabe 915e d03d c662 143e
000000d0: 0f05 84bd 45b2 823e ca56 6d3d b0bc 8fbe
000000e0: 388f b6bc 20eb 11bd 4fd0 51be 30c3 a33d
000000f0: 5201 a43e fe3b 18be 6824 303e 29c9 a13e
00000100: 2daa a7bd c27e fc3d cf20 32be a37e 243e
00000110: 84b0 ee3d c59d 2abe c644 2ebc b805 183e
00000120: c8cb e6bd f0ab 613e 7b47 72be c971 a4bd
00000130: f6b1 0ebd 1aa8 c63d 095c 933e 5a1e 573e
00000140: 981e 4b3e 6383 5e3d 5802 723d c3d3 87bd
00000150: c52e dbbd 3164 153e 6196 52be fec3 18be
00000160: 7ec3 403e f8cb c3bc c788 7d3e 04a1 33bd
00000170: a87a 6bbd b7d3 a03e 3ea1 1f3e 52dd 403e
00000180: 5408 a7bd c1d4 6c3e ee27 0d3e 73f3 5d3e
00000190: 4c6c 21be 7775 81be 84aa e43d c42d 003e
000001a0: 50d0 8ebc 07b8 eebd 2c75 053e b76f be3d
000001b0: d67d 4c3c 4329 80be b885 383d 34a1 f3bc
000001c0: b205 6fbc ef61 aebc 5273 3d3e ed04 ae3c
000001d0: a0ef 733c 98cf 0d3d c6f5 e3bd 2621 69be
000001e0: a6d3 8ebc 0d63 02be 824b 43be ad69 60be
000001f0: 8cab 863d d539 49bc d069 1e3e 23b1 443e
00000200: 419f bd3d 4d34 06be 3371 10bd 46f6 2dbe
00000210: 882d 963d b40f 0a3e 45db 803e 9add 163e
00000220: 1103 0a3e c1fa 923e b82c 31bd 32cc 83be
00000230: 45bf 623e bbb6 f3bc 1df8 573e 3237 a8bd
00000240: aa8b 00be 70b8 893e ec6d a33d 062a 6bbe
00000250: 4c04 d8bd 2e21 63be da9c 5abe 9d41 333e
00000260: a1c1 47bd 1b1c c13d 7287 833e a2b3 22be
00000270: 73e6 c0bc c705 053c 2d54 f63d 4981 873d
00000280: 6a4d 6c3e 8bbf 48be 090f 13be 70ca 3e3d
00000290: 1c10 6fbd fe05 5b3e db4d 39be 22cf 54be
000002a0: 5084 20bd 507b 97be fdec 113e c444 913b
000002b0: ea8b debd 9f6e 8e3e 3dfc 24be 2aad c13c
000002c0: d622 7c3e bae2 acbd 332c 08be d2f5 f2bd
000002d0: 73da 653e ded5 afbd f8ab 8f3e f505 4bbe
000002e0: 8396 f5bc d2a2 8a3e 8132 dcbd 7b5e 70bd
000002f0: d207 933e 7c0b 34bc 0375 1fbe 8d77 1bbe
00000300: d230 25be 79ca 71be a718 843e 64fd 7cbe
00000310: 412b 38be c80c 50be 3501 25be 63f5 ecbc
00000320: 1caa 713e 2f32 fa3d cd49 1b3e 1442 38be
00000330: e8d6 653e 57ad e9bd 0acf 333e e4e7 9cbd
00000340: 1a0d 99bd e0da 423c 5aaf 0cbe 5746 d93d
00000350: 8dc9 713c 222b 833e b3e1 af3d 922b f9bd
00000360: 510e dbbb 41ed c23d a99f 39be 46b1 08be
00000370: 80b4 0fbe 08d1 bf3d 80b3 163e 68e7 5c3e
00000380: 745f db3d 443f a6bd 273a 483d 00ec 0cbe
00000390: 5e85 563d 31a3 e0be 79e4 1dbe 8c42 1b3e
000003a0: 6491 0ebc 28be e1bd 8246 12be 4ef3 523d
000003b0: a884 0abe 34c2 b03d b060 5dbe 1cae d43d
000003c0: 2570 b3bc 18ac 5e3e 26f7 d0bd aae9 ba3d
000003d0: 8dfe a7be e4b3 603e 2b52 93bd 8147 843e
000003e0: ceaa 08be 4274 543e 3e6f af3b ac04 20be
000003f0: 6cc2 753e ccb9 833d 20ae 1f3d edb9 2c3e
-0.08146919 -0.23340505 0.15535595 0.066211894 -0.40958282 -0.17998494 0.003107404 0.18230627
-0.2632344 0.12589946 -0.12355098 -0.05474204 0.056607276 0.10662159 -0.092990264 -0.17960554
-0.14663349 -0.080684334 -0.17480965 -0.2448416 -0.07253333 0.049490433 0.14598574 -0.29425305
0.13775726 -0.19810402 -0.16851345 -0.1500018 -0.24404429 -0.058084205 0.21469346 0.19226474
-0.008349742 -0.057367843 -0.31245023 -0.17672637 -0.09399729 0.2124175 0.077372104 -0.06747169
0.13571824 0.12538382 -0.19122407 -0.037073106 -0.070574045 0.026223468 0.0023134856 0.0978016
-0.16909875 -0.49022982 0.10174287 0.14490804 -0.06446277 0.25526634 0.057944097 -0.28073645
-0.022285089 -0.035624623 -0.2048962 0.079962134 0.32032257 -0.14866635 0.17201388 0.31598786
-0.08186755 0.12328865 -0.17395328 0.16063933 0.116547614 -0.16661747 -0.010636514 0.14845932
-0.11269337 0.22038245 -0.2366008 -0.08029515 -0.034837686 0.097000316 0.28781155 0.21007672
0.1983589 0.05432452 0.059084266 -0.06632187 -0.1070228 0.14589001 -0.20565178 -0.14918515
0.18824574 -0.02390097 0.24759208 -0.04385473 -0.05749002 0.31411526 0.15588853 0.18834427
-0.08155885 0.23128034 0.13784763 0.216749 -0.15763968 -0.2528493 0.11165336 0.12517458
-0.017433316 -0.11656194 0.13032979 0.09298652 0.0124811735 -0.2503148 0.0450494 -0.029739954
-0.01458876 -0.021286933 0.18501022 0.021242583 0.014888674 0.034621805 -0.11130862 -0.22766551
-0.017434906 -0.12733097 -0.19071773 -0.21915312 0.06575689 -0.012281855 0.15470052 0.19208197
0.09258891 -0.13105889 -0.035264205 -0.16988477 0.07332903 0.13482553 0.2516729 0.14732972
0.13477732 0.28706935 -0.043255538 -0.25741726 0.22143276 -0.029750219 0.21090741 -0.08213653
-0.12553278 0.26898527 0.0797995 -0.2296525 -0.105476946 -0.22180626 -0.21348897 0.17505498
-0.048768643 0.09429189 0.25689274 -0.15888837 -0.023547387 0.008119053 0.12027774 0.06616456
0.23076406 -0.19604318 -0.14361204 0.04657978 -0.058364972 0.21389005 -0.18096106 -0.2078214
-0.039188683 -0.29586267 0.1425056 0.0044332463 -0.1086653 0.27818772 -0.16111846 0.023642141
0.24622664 -0.08441682 -0.1329811 -0.11863293 0.22446613 -0.08585714 0.2806089 -0.19826491
-0.029978996 0.27077347 -0.1075182 -0.058683854 0.28716904 -0.010989066 -0.1557198 -0.15182324
-0.16131905 -0.23612393 0.25800058 -0.24706036 -0.1798525 -0.20317376 -0.16113742 -0.028925603
0.23600048 0.12216603 0.15164872 -0.17993957 0.22445261 -0.11410015 0.17559448 -0.07661417
-0.07473202 0.011893004 -0.13738766 0.106091194 0.014757526 0.25618845 0.085879706 -0.121665135
-0.0066850563 0.09517909 -0.18127312 -0.13348874 -0.14033699 0.093660414 0.14716911 0.2157265
0.107115656 -0.08117536 0.048883583 -0.13761902 0.052373283 -0.43874505 -0.15419187 0.15162104
-0.008701656 -0.110225976 -0.14284709 0.051501565 -0.13527167 0.08630791 -0.21618915 0.10384771
-0.02190406 0.21745336 -0.1020339 0.09126599 -0.32811394 0.21943623 -0.07193407 0.25835803
-0.13346407 0.20747474 0.0053538373 -0.15626782 0.23999947 0.06431922 0.038984418 0.168678

actor.0.bias f4 [64]
00000000: 6ef1 173e e435 3639 5328 d6bc 72bf 0f3e
00000010: 9e37 433c cbb3 353e e995 1ebe 5ced a03d
00000020: 2887 0b3e 393e 62bd 69ba 82bd eb6a 5bbe
00000030: d3e0 333d 8a8e 04be 370b a8bd f23f f23d
00000040: e896 093e 7014 1c3e 6ac2 323e b946 5abe
00000050: 099c f2bd 41db 403e e3cb 923d 654e 83be
00000060: d7f0 993c 1dad 2b3e aff5 3fbe 96f3 7b3d
00000070: a238 b73d 7ce1 81bc 3f76 863e 210b e1bd
00000080: 5391 383e 8e21 6a3e 9b35 583e 63d2 343e
00000090: 0755 eb3d 02f8 033e 0099 4c3e b801 363e
000000a0: 83fc 3bbe 0c33 1a3d 6b4f b53d 21bb ddbd
000000b0: 78d7 c43d dacf f2bd c279 743e 8780 d7bd
000000c0: 211a 7f3d 21cf c7bd b1bc 06be 3a85 14be
000000d0: 23d8 37be 4dea edbd 5a15 11be 27ae 27be
000000e0: 2079 733e ad24 7ebd d135 64bc 07d2 853d
000000f0: 44c1 4bbe 74a1 d5bd dc7f c6bd da1f 88bd
0.14838192 0.00017376948 -0.026142275 0.14037874 0.011915116 0.17744367 -0.15486874 0.07857773
0.13625777 -0.05523512 -0.06383211 -0.21427505 0.04391558 -0.12945 -0.08205264 0.11828603
0.13436472 0.15242171 0.17456976 -0.21316041 -0.118461676 0.18833639 0.071677946 -0.25645748
0.0187916 0.16765256 -0.18746065 0.0615116 0.08946349 -0.01585459 0.2626209 -0.10988451
0.18024187 0.22864363 0.21114199 0.17658381 0.11490827 0.12887576 0.1998024 0.17774093
-0.18358044 0.03764634 0.088530384 -0.10826708 0.0961141 -0.11856051 0.23874572 -0.105225615
0.062280778 -0.097563036 -0.13157918 -0.14503947 -0.17953543 -0.11616955 -0.14168301 -0.16375028
0.23776674 -0.062046696 -0.013928846 0.065342 -0.19897944 -0.10431185 -0.09692356 -0.066467

actor.2.weight f4 [64, 64]
00000000: 86a0 0ebd 3706 dfbd fb56 803d 6390 253d
00000010: 0350 503d d58b 043e c41d aa3c 474a fa3c
00000020: 3255 163d 5310 c33d 7050 073d c066 493d
00000030: 5824 bebd 7145 b43d 7bab 05be 265e 99bd
00000040: a955 7a3d 55c0 633d 1efc 93bd c948 e83d
00000050: d42e 883c a8db 30bd d61b 9ebd ad66 eabd
00000060: 1f87 15bc 217b c8bc 77cc 953d 71a2 86bd
00000070: 48dc b63d d1ba f1bd 55b3 84bc 4dac 7b3b
00000080: 6963 01be 899f cc3d fbea 543d f2eb a83b
00000090: c96f 35bd 2e65 edbd f792 5ebc 0ddb 4f3c
000000a0: d6cb 8a3b 1796 363b ed57 dabd a3b4 27be
000000b0: c524 82bd 8cfc 973d 150d c6bd 4760 d93c
000000c0: c6a9 87bd 296b 59bd ec97 71bd 8a59 7b3d
000000d0: 7afe 02be 55b8 9c3d 442e 3e3d 5a69 22bd
000000e0: 169e 50bd 8ba2 743d 515d da3d ba0e 64bd
000000f0: 076c 5dbd d3ae afbd 7f0b 09be a5f5 b3bd
00000100: ead6 983d ca32 a03d 8cf1 8fbd 910e d1bd
00000110: e600 f2bc 8d2b 7b3d f934 c23c 79b2 a8bd
00000120: 0014 02bc 31ee cdba afb7 cd3d 700b 4cbd
00000130: 171b 163d 0772 d93d 57c7 00bd 2c28 fdbd
00000140: 4e7b f7bd 96cc e3bd 7e6b e13c eac0 82bd
00000150: 329c a2bc 3c2a b63d f66c babd 4c27 883d
00000160: 670e 913d c4ca b0bd 3b53 e23d e1df 59bd
00000170: aed0 463c 5534 d6bd c95a 84bd 0f28 943d
00000180: 7a43 e8bd f75a f53d cc19 62bc 1b39 8ebb
00000190: c665 b63d 323c 5fbd 9206 ad3d 6c53 2d3d
000001a0: af5b c23c d9dd 8abd 7e20 bb3d fcf9 9a3d
000001b0: d3db 883d 268b d93d c85c 7ebd aead ab3d
000001c0: 908f c2bd 41dc a5bc 0bbc 01bd 1368 e2bd
000001d0: ac28 77bc 894f 9b3d 5307 40bd f30b aa3d
000001e0: 1f04 a73c f526 923b ef03 e53c 5349 083d
000001f0: 811c ed3c c5d7 28bd 51f7 553d c647 8ebd
00000200: c9b4 563c c590 843c fc8a 9abd 829c 93bd
00000210: b72e 133d dde2 5cbd 8c8a ad3d 874a 2f3d
00000220: 8862 fb3c 7575 163d eca0 c83d e05a 8fbd
00000230: b206 823d 4e94 cb3d b914 b8bb dbcc e6bc
00000240: d15b cdbd 89a6 a4ba 1fef b03d 53e0 4bbd
00000250: ddc3 23bc 8cec ddbd 6e4e f7bd f410 92bd
00000260: a12e 5c3d c624 25bc fec3 28bd 0b2d 7cbd
00000270: 3c28 523d dbed edbd 2f19 aabc 51d2 4d3d
00000280: b14a 0abd cb67 ea3d fe46 b2bb 3717 f43c
00000290: 9f2a cf3d b377 3d3d 99b7 08be fb36 f53d
000002a0: 72a5 41bc 44e4 5ebd 5bf7 98bd 66ba 17bc
000002b0: 3d63 adbd fe0a ecbc 3721 aabd 6176 c33d
000002c0: fae4 0c3d 37ff 1fbd 1a44 cdbb d0d1 0bbc
000002d0: b264 cdbd ac34 6abd 95c4 94bc 1ce0 853d
000002e0: c514 d53d e9a2 e73d b7a2 fd3d 4229 2c3d
000002f0: a91e dbbd 86b0 c13d 8608 2e3d 8940 b0bc
00000300: d684 75bd ca77 d13d deef e33d 457e afbd
00000310: 43a0 d4bd a4f4 813d 6b1f 81bd a4dc 043e
00000320: 5970 3f3a 33e4 da3d 5b54 023d 70fe 0a3e
00000330: 0f1b 08bd da8f aabd efae 73bd 7e8e ba3b
00000340: 27de f2bc 2e14 393d ae6d 93bb 917a 423b
00000350: 6565 debd 8484 b13d f54b 10be dca5 87bd
00000360: f782 d13d 335d 7ebd 4abe b13c a103 253d
00000370: 5cbc df3c 1f91 cfbb e230 203d 236b 5dbd
00000380: ef94 89bd cd65 ab3d 6e5c 903c ecdd 283d
00000390: e717 abbd 4d7b 19bd 2cdb c8bc 396f 0dbe
000003a0: 5a8d 19bb 9d93 f13c 8696 88bd f239 093e
000003b0: 440d 8b3d 02e3 05bc f13f 74bd 07cc 9c3c
000003c0: d0c4 e53c d44d 10bd c738 46bc e548 c33d
000003d0: 6a73 843d fcf2 6c3c af58 d6bd e01d 0a3e
000003e0: 65b4 c63a 41f0 bbbd 6dea 34bd 6583 1cbc
000003f0: e54b 383d 84a3 393b a33c 78bc dda0 89bd
-0.034821056 -0.10889857 0.0626659 0.0404209 0.050857555 0.12943967 0.020766146 0.030552996
0.036702342 0.09524598 0.033035696 0.049170256 -0.09284276 0.088023074 -0.13053696 -0.074886605
0.06111685 0.055603344 -0.07225822 0.11342008 0.016623892 -0.04317823 -0.07720153 -0.11445365
-0.009126454 -0.024472775 0.07314389 -0.06573952 0.08928734 -0.118032105 -0.016198793 0.003840226
-0.12635578 0.099913664 0.051981907 0.00515508 -0.04429606 -0.11591564 -0.013584844 0.012686503
0.004235725 0.0027860457 -0.10661302 -0.16377501 -0.063546695 0.07421216 -0.09670464 0.026535166
-0.066241786 -0.05308071 -0.058982775 0.061364688 -0.12792388 0.07652346 0.04643084 -0.039651252
-0.050932012 0.059725326 0.1066233 -0.055678107 -0.0540581 -0.08578267 -0.13383292 -0.08787087
0.074628666 0.07822187 -0.07028493 -0.102078564 -0.029541444 0.06132083 0.0237069 -0.08237166
-0.007939339 -0.0015711245 0.100448005 -0.049815595 0.03664693 0.10617452 -0.031440105 -0.12361178
-0.120840654 -0.11123006 0.027517077 -0.06384452 -0.01984987 0.08894774 -0.09102814 0.0664812
0.07082825 -0.086324245 0.11051031 -0.053192023 0.012134714 -0.104592 -0.064626284 0.07234203
-0.11340995 0.11980241 -0.013800096 -0.0043403036 0.089061305 -0.054500766 0.08448519 0.042315885
0.023725359 -0.06780595 0.09137057 0.07567212 0.06682553 0.106222436 -0.0621002 0.08382736
-0.095000386 -0.020246627 -0.031673472 -0.11055007 -0.0150853805 0.075835295 -0.046881985 0.083030604
0.020387707 0.0044602104 0.027955977 0.033273052 0.028944256 -0.0412214 0.052237812 -0.069472834
0.013104626 0.016182313 -0.075460404 -0.07207586 0.035933223 -0.05392729 0.08473691 0.042795684
0.030686632 0.03673311 0.097963184 -0.06999755 0.06348933 0.09940396 -0.0056177047 -0.028173855
-0.10027278 -0.0012561838 0.08639359 -0.04977448 -0.009995428 -0.10836133 -0.12075506 -0.0713214
0.053755406 -0.010079568 -0.041202538 -0.061566394 0.0513079 -0.11617633 -0.020763962 0.0502494
-0.033762638 0.11445578 -0.005440592 0.029796226 0.10115551 0.046256732 -0.13351287 0.11973377
-0.01181923 -0.05441691 -0.07469054 -0.009260749 -0.08466194 -0.028813835 -0.083071165 0.09544063
0.034398057 -0.03906175 -0.006264222 -0.00853391 -0.10028972 -0.057179138 -0.018160144 0.06536886
0.10404352 0.113103695 0.12384551 0.042031534 -0.10699207 0.09457497 0.042488597 -0.021515148
-0.059941135 0.10227926 0.111297354 -0.08569006 -0.1038213 0.063454896 -0.063048206 0.12974793
0.0007302813 0.10688057 0.03181873 0.13573623 -0.03322893 -0.08328219 -0.059493 0.005693256
-0.029646946 0.04518526 -0.004499159 0.0029675106 -0.10859183 0.086678535 -0.14091475 -0.06623432
0.10230058 -0.0621006 0.021697182 0.040286664 0.027311496 -0.0063344385 0.03910912 -0.05405725
-0.0671786 0.08369026 0.017622199 0.041227266 -0.083541684 -0.037471104 -0.024518572 -0.1381196
-0.00234302 0.029489333 -0.06669335 0.1340101 0.067896396 -0.008171799 -0.05963129 0.019140257
0.02804795 -0.035230473 -0.012098498 0.09535388 0.06467326 0.014462229 -0.10466134 0.13487959
0.0015159963 -0.09176684 -0.04416888 -0.009552811 0.044994254 0.0028326223 -0.015151176 -0.06720135

actor.2.bias f4 [64]
00000000: 850b debd 20c3 1b3d 07b0 ae3d 7afb f4bd
00000010: cf8b 90bd 790c afbd d926 e4bd f2db d63d
00000020: a250 3b3d 600e e4bc ea07 c53d 5b11 dfbd
00000030: e00b 4dbd 3365 84bd 6a04 b7bd 106c 70bd
00000040: d428 95bd a844 8f3d 97da 70bd af67 c7bd
00000050: ed30 e83d 4c1c b9ba ef1e 06bd 2366 ae3d
00000060: 87b9 debd 0ebf 01bd 5008 81bd 4d89 ccbd
00000070: 6353 a8bd 4d01 ee3d cb74 4fbd 082d 8bbc
00000080: 976f 593c fef2 19bd 3003 bfbc 3e30 323d
00000090: 7f84 d63d e15b a0bd 7005 a23d ccb9 af3d
000000a0: d918 8fbd 139f 053e de80 4e3d 911b cebd
000000b0: de0a 193d 205d 0a3d 8e6f 64bd b525 50bd
000000c0: 0e38 c0bd 6e89 c93d 5c2e 113d 7c93 3c3d
000000d0: cb06 4e3d f94d d6bc 9644 84bc 750f a83d
000000e0: 0967 c7bd b133 ff3b bc85 f5bd aae3 d13d
000000f0: d05e 013c 56ec b9bc df24 a63d 4461 9bbd
-0.10842041 0.038027883 0.08529668 -0.11962028 -0.070579164 -0.08547301 -0.11140222 0.1049117
0.045731194 -0.027838886 0.0962065 -0.10891982 -0.050060153 -0.06464615 -0.08936389 -0.058696806
-0.07283178 0.06995517 -0.058802214 -0.09736573 0.11337457 -0.0014122813 -0.032744344 0.08515575
-0.1087523 -0.031676345 -0.063004136 -0.099871255 -0.0821903 0.11621342 -0.05064849 -0.016989246
0.013271234 -0.03758525 -0.02331695 0.04350304 0.104744904 -0.078300245 0.07911193 0.0858036
-0.06987161 0.13048963 0.050415866 -0.100638516 0.03736388 0.033780217 -0.05577045 -0.05081721
-0.093856916 0.09840666 0.035444602 0.04603909 0.050299447 -0.026160227 -0.016145986 0.08206073
-0.09736449 0.0077881445 -0.119883984 0.102485016 0.00789614 -0.022695702 0.08112501 -0.07586911

actor.4.weight f4 [2, 64]
00000000: b138 6d3d e521 223d 3d76 6d3d ff6c 96bd
00000010: 863a b33c 072a ca3d f8d9 76bd 5076 53bd
00000020: 3ee0 9d3d d834 98bd f54b af3b 81f5 843d
00000030: 7d2e 5cbd 97db 113d 17c5 633d ee60 2dbd
00000040: df90 df3c ff26 bf3b 07ec 85bd f5b6 2cba
00000050: 474f 9dbb 4222 f23a c1a8 8abd 6467 11bd
00000060: b967 d33b a976 45bc 9796 d13b d060 813c
00000070: 8080 b03d a557 b93b dad7 5c3d 36d1 94bd
00000080: 02cb 77bc e863 813d 0e51 063d 26ab 8ebd
00000090: 1d6d 1abd 90c6 c13b 9614 a13c 8f56 e63b
000000a0: 658c f8bb 8623 473c 2607 ffbc 670e 1d3d
000000b0: c4c9 483c 2311 5ebb 4b6e 25bb d0d6 7d3d
000000c0: 6f7d ff3c a9f9 033d d894 663d f884 213d
000000d0: fb48 163d 4eb3 bf3d ff34 093d 8a76 1c3c
000000e0: 0661 2ebd 4ff7 55bd f579 6fbc 4222 a0bb
000000f0: 4ecd a03b 64de fcba 0690 f23b 2280 453d
00000100: 4b64 453b 031a 233d d04e 503d 6493 8b3c
00000110: 3c94 01bc 29bf 913d 1750 933d 26e1 8f3d
00000120: afb4 443c 0e3a 01bd cc2b 41bc 89cf 783d
00000130: b801 f8bc 730f e03c cc8c 2abc f500 a73c
00000140: 3aba 1fbd 927c 64ba b72f 2abd 9651 79bb
00000150: 4ab3 543c 0ebb f73b cce1 72bd 58f2 a0bd
00000160: 536e 37bb eaba 133c b6f6 0f3c 98dd 913c
00000170: 9beb 443d 6afc b9ba 0ffc 203c 1ce8 62bc
00000180: 85f7 903d 85c2 8fbd 25e9 46bd d7d5 ee3c
00000190: 8f80 8a3d 0e10 8938 5f17 103d 7392 823c
000001a0: f40f 5e3c 866f 3a3c 363d 6f3d 10bd 083d
000001b0: 402a 99bc 8eae 5b3b 7a9e dbba a49c 663c
000001c0: 4029 7ebc a5f1 c3bd c317 2bbd c089 57bd
000001d0: 7c0c d33c cfc4 22bd e565 a9bd b44d 87bc
000001e0: 09fd 83bc 0dc7 9bbd e758 a43d 9d9d 573d
000001f0: 01ca 0dbc be8b 37ba 9a59 0e3c e8d1 2c3d
0.057915393 0.039583106 0.05797409 -0.07345008 0.021878492 0.09871297 -0.060266465 -0.051626503
0.077087864 -0.07431954 0.005349631 0.06492139 -0.053755272 0.035609808 0.05560788 -0.042328767
0.02729076 0.005833506 -0.06539159 -0.0006588542 -0.0048007104 0.0018473344 -0.067704685 -0.03549899
0.0064515737 -0.012052217 0.0063961255 0.015793234 0.086182594 0.0056562 0.05391679 -0.07266466
-0.015124084 0.06317884 0.032792144 -0.06966238 -0.037701715 0.005913563 0.019663136 0.0070293616
-0.0075850957 0.012154466 -0.031131338 0.038343813 0.012255136 -0.0033884726 -0.0025242742 0.06197244
0.031187741 0.032220516 0.056294292 0.03943345 0.036690693 0.093603715 0.033497807 0.009549746
-0.042572998 -0.052237805 -0.014616479 -0.0048868963 0.0049072867 -0.0019292352 0.007402423 0.0482179
0.0030119594 0.03981973 0.05085641 0.017038055 -0.007908877 0.07116539 0.0719301 0.070253655
0.012005969 -0.031549506 -0.011790227 0.060744796 -0.030274257 0.027351117 -0.010409545 0.020386199
-0.03899596 -0.0008716072 -0.04154941 -0.0038043014 0.012982199 0.0075601405 -0.059297368 -0.078587234
-0.0027989342 0.009016732 0.008786848 0.01780586 0.048076253 -0.0014189605 0.00982572 -0.0138492845
0.070784606 -0.070195235 -0.048562188 0.029154701 0.06762802 6.5356595e-05 0.03517854 0.015938973
0.013553608 0.011379128 0.058407985 0.03338343 -0.018696904 0.003352079 -0.0016755604 0.014075432
-0.015512764 -0.095675744 -0.041770708 -0.052621603 0.025762789 -0.039738473 -0.08271388 -0.016516544
-0.016111868 -0.07606325 0.08024769 0.052640546 -0.0086541185 -0.0007001719 0.008688355 0.04219237

actor.4.bias f4 [2]
00000000: 5436 573d b9c6 48bd
0.052542046 -0.04901764

critic.0.weight f4 [64, 15]
00000000: 731c 5cbe 676d 833e 4935 0a3e 7f3f 1c3e
00000010: 22a0 903d 20dc 9cbe 6dc3 85bc 66c7 633e
00000020: 0998 173d 516d 3a3e a2c2 82be 76dd 5b3e
00000030: 4a92 08be c4a4 1c3e 6ce3 3cbe 060c cc3d
00000040: d0dc 44be 1863 06be 564d 9dbd b125 223f
00000050: 93f0 a03e 0411 a9bd 0b73 623e 23a2 253e
00000060: 076d d03d b81c 07bd 1838 f6bd 265d 7f3e
00000070: a42f f43d 8015 4f3d 468b cfbd ff42 c6bd
00000080: 2bc4 753d 0a09 623e 6689 b7be 3cb6 4bbe
00000090: 6427 213d 8b99 50be ee13 14be f399 a73d
000000a0: cff5 76be 7290 83be f9c1 823e bc03 4c3e
000000b0: 7490 5b3e 0c7f 4fbe ac46 1dbe e857 773e
000000c0: 07cc 83bc d4f7 083e 1473 15be 8835 293e
000000d0: b6aa 7a3e 0438 65be ea18 80be 664d c13d
000000e0: 2a5a 90bd d86a 2cbd d941 0cbe 9c6e 97bd
000000f0: 2d27 b33d 13d5 033e 58ea 3ebe 797d e2bd
00000100: 3603 c1be 6971 66be 86f4 2fbe 217a 9dbe
00000110: 1202 993d 225b 933c a998 ac3d 0c61 37bd
00000120: 94d7 d93d 0ce1 163e 3076 103d 4181 953e
00000130: 6bb7 ac3d 5d78 c3bd 8f62 443c 7bca 093f
00000140: 491d d53d fbd8 d8bd ed31 9d3e 2603 973c
00000150: 862f 06be d436 60bc 400e febd 7e29 dcbd
00000160: f8f7 81be a0a4 223e c618 a2bd 50a2 7b3e
00000170: 333e c7bc 55b2 14be cc95 823e bf64 b93d
00000180: 9cfa 6d3d 8c79 a03e 4d26 fe3d e3a6 b4bd
00000190: d568 48be 308e 71be d375 813e 1a4d 28be
000001a0: dee6 93bd 055a 3a3e d6e1 7bbd 2f95 1e3c
000001b0: 0d0a a9bc a009 38be 2c37 82be 2d47 9c3e
000001c0: 5cf9 04be 5c41 113e cff9 2c3d a3c9 713e
000001d0: b3cd 2ebe b027 eb3d d445 503e 5001 9cbc
000001e0: 7221 43bd 208e 17be 56e1 633d f3e2 6a3e
000001f0: dfa0 083f 6c34 703c 37d3 3ebd e703 92be
00000200: c301 f1bd b607 e4bd 5482 c43d c822 afbd
00000210: 9a46 403e 50a9 b1bd 0845 613e b51e 353e
00000220: eec9 2abd 3766 f93c 0621 babe ced6 a13c
00000230: f356 6fbd d298 023d ef67 803d 8309 9c3b
00000240: 4c74 2b3e d500 c1bd 07b9 41be 416d 00be
00000250: 9346 00be 304e dfbc 9a05 4b3d 495e 87be
00000260: 6584 5fbd 89b0 8abe 5673 4bbe d78b ef3e
00000270: 31ca 723d 4916 9f3e 9bf9 64be 951c 7bbe
00000280: 75cd 1e3b 629b 3abe 9c77 31bd eef4 d7bd
00000290: 7841 243d 4b29 7ebe 0f1f 5bbe 335f 09bd
000002a0: c63e 1ebd 4fef 13bf 1cfe 67be 01b3 d43d
000002b0: ccda fabe f74f a03e 6b3e ccbc 19a7 d0be
000002c0: 1e03 46be 7057 3fbc 3247 553e 284f 473d
000002d0: 8fc7 033a 803b b8bd 6bf0 47bd 5423 9c3c
000002e0: 2a7b 79be bce4 fcbd 3140 b1bd d519 de3d
000002f0: 4452 51bc 84d6 e2bd 4abb 813e eefa 673e
00000300: 4c58 873d 2a0b 433e 78f8 393e 8a08 893e
00000310: 851a cdbd b337 db3d e6fb 00be d3b4 91be
00000320: cda6 f5bc a806 b0bd 5b5d 87be a020 72bd
00000330: 5572 e6bd b04f c33c bc9d 843d 42fc f1bd
00000340: 0ae4 543e 3c6f ca3d c10d c13d 7d4e 8c3e
00000350: c2da 9b3c 00d8 17bd a27c 01bf c515 463e
00000360: 8a87 4fbd c45a b93e b276 11bf d8c3 2fbe
00000370: 9ef8 5f3e ca1f eebd 8792 813e ba26 38be
00000380: 0ec4 713e 55e6 2a3e acc0 dd3c e170 1ebe
00000390: 8378 6c3e 7cc1 9cbc 2125 37be 94b2 85bd
000003a0: 9a75 f9bd b342 e8be 31b3 05be 8b50 283e
000003b0: 109d 5f3e da44 1abe 642d 593e 201b 663c
000003c0: be29 0d3e 5c64 893d e78e 06bd 22dd 343e
000003d0: 20fa 023e 57d3 6bbe 9dc1 7d3e 1e6f 083e
000003e0: 60f2 ac3e 4365 1f3e 98d7 823e 7c71 003e
000003f0: cc23 1e3e 00b8 21bd 0873 b6bc c52a 8a3e
-0.21495228 0.25669405 0.13496889 0.15258597 0.07061793 -0.30636692 -0.016328538 0.22244033
0.037010226 0.18205763 -0.25539118 0.214712 -0.13337055 0.15297228 -0.1844613 0.09963231
-0.19224858 -0.13123739 -0.07680766 0.6333876 0.31433544 -0.082551986 0.22114198 0.16175131
0.10177045 -0.032986373 -0.12022418 0.24937877 0.11923149 0.050557613 -0.10133986 -0.09680747
0.060001533 0.2207376 -0.35847014 -0.19893736 0.039344206 -0.20371072 -0.14460728 0.0818366
-0.24117206 -0.2569614 0.25538614 0.199233 0.21441823 -0.20263308 -0.1535899 0.24154627
-0.016088499 0.13375789 -0.1459468 0.16524327 0.24479184 -0.2238465 -0.25019008 0.09438591
-0.070484474 -0.04209408 -0.13696994 -0.07394144 0.087477066 0.1287425 -0.18644083 -0.11059088
-0.37697762 -0.225042 -0.17183122 -0.3075724 0.07471098 0.017987791 0.08427555 -0.044770285
0.106368214 0.14734286 0.035268962 0.29200175 0.08433422 -0.09544442 0.011986389 0.53824586
0.10405976 -0.10588261 0.30702153 0.018434118 -0.13104066 -0.013684947 -0.12405062 -0.107501015
-0.25384498 0.15883112 -0.079148814 0.24573636 -0.024321651 -0.14521153 0.2550491 0.09052419
0.058100328 0.31342733 0.12409649 -0.088208936 -0.1957124 -0.23589396 0.25285205 -0.16435662
-0.07221769 0.18198402 -0.06149467 0.009679123 -0.020634675 -0.17972422 -0.25432718 0.30523053
-0.12985748 0.14185089 0.042230424 0.23612075 -0.17070656 0.11482179 0.20339137 -0.019043595
-0.047639318 -0.1480031 0.05563482 0.22938137 0.5337047 0.014660936 -0.04658815 -0.28518602
-0.11767914 -0.11134283 0.095951706 -0.08551556 0.18776932 -0.08674872 0.2199899 0.17687495
-0.04169648 0.030444248 -0.3635332 0.019755747 -0.05843253 0.031884022 0.06269824 0.004761876
0.16743582 -0.09423987 -0.18918239 -0.12541677 -0.12526922 -0.027258962 0.04956589 -0.2643912
-0.05456962 -0.2708781 -0.19868216 0.46786377 0.059274856 0.3107169 -0.22360842 -0.24522622
0.0024231349 -0.18223336 -0.04332696 -0.105447635 0.0401015 -0.2482044 -0.21398567 -0.033538055
-0.038634084 -0.5778703 -0.22655529 0.10385705 -0.48995054 0.31311008 -0.024932107 -0.40752485
-0.19337127 -0.011678562 0.2082794 0.048659474 0.000502699 -0.08995724 -0.048813265 0.019059815
-0.2436339 -0.12348315 -0.08654822 0.10844771 -0.012775961 -0.11076072 0.25338203 0.22654316
0.06608638 0.19047228 0.1816119 0.26764327 -0.10014824 0.10703983 -0.12596092 -0.2845827
-0.029986763 -0.085950196 -0.26438412 -0.059113145 -0.11252276 0.023841709 0.06475398 -0.118156925
0.20790115 0.098844975 0.094264515 0.27403632 0.01902521 -0.037071228 -0.505808 0.19344242
-0.05066637 0.3620206 -0.5682174 -0.17164552 0.21872184 -0.11627157 0.25307104 -0.17983523
0.23609945 0.16689427 0.027069412 -0.15472747 0.23092847 -0.01913523 -0.17885257 -0.06528202
-0.12180634 -0.45363387 -0.13056637 0.16436975 0.21837258 -0.15065327 0.21208721 0.014044553
0.13785455 0.06708595 -0.032851126 0.1766248 0.12790728 -0.23029839 0.24780889 0.13323638
0.33778667 0.15565972 0.2555511 0.12543291 0.15443343 -0.039482117 -0.022271648 0.26985756

critic.0.bias f4 [64]
00000000: 1bc7 bcbd 2bcf 25bd e287 013e 55cb 80be
00000010: 2bb8 0a3e fd15 1f3d a93a 36be a00e 263e
00000020: bd29 693e cfe5 58be 258f 0e3e f23f 133e
00000030: f12e e23d 343d 24be 8895 24be 53f1 cd3d
00000040: 201d 28bd 981a d8bd d847 5bbe b19e 80be
00000050: 1133 653e 3e0f 7ebe 63ff a83d af5c 03bd
00000060: 39de 82be 886c 9ebd 3c79 d33c 9369 15be
00000070: 6411 65be ce6d 15be bbca 21bd 7e64 213e
00000080: 34d8 ccbd 58ba 00be 9d11 17be 0057 1c3e
00000090: dd1e 7bbe 306b ca3d ef98 5b3d 10b7 72be
000000a0: 7f9a e8bd d114 b7bc b819 13bd 4bec 87be
000000b0: ec7f 1d3d b729 413e 4198 4ebd a073 f5bd
000000c0: d422 873e e5c9 22be aaa5 e13d 988e 703e
000000d0: 744b 22be 9f46 1bbe f224 253e 66bb 0bbe
000000e0: 9606 243e 57f3 5fbe 2fde 9d3d 1843 e03d
000000f0: 9dfe d9bd fb8f 86bd 158c 733d 5cd0 7f3e
-0.09217664 -0.040480774 0.12649491 -0.2515513 0.13546817 0.03883933 -0.17795815 0.16216516
0.22769828 -0.21181415 0.13921793 0.14379862 0.110441096 -0.16038972 -0.16072667 0.100557946
-0.0410434 -0.10551947 -0.21414125 -0.25121072 0.22382762 -0.24810502 0.08251836 -0.03207081
-0.25560167 -0.077355444 0.025814645 -0.14591055 -0.22369915 -0.14592668 -0.03949998 0.15760991
-0.10002175 -0.12571084 -0.14752813 0.15267563 -0.24523492 0.09883726 0.053612646 -0.23702645
-0.11357593 -0.022348793 -0.0359132 -0.26547465 0.038452074 0.18863569 -0.05043817 -0.11984944
0.2639376 -0.15897329 0.11017926 0.23491895 -0.15849096 -0.15163659 0.16127375 -0.13645706
0.16018137 -0.2187017 0.07708394 0.10950297 -0.10644267 -0.06570431 0.059459765 0.24981827

critic.2.weight f4 [64, 64]
00000000: 1919 c73d e65a afbd 5dce 753c d65f 4fbd
00000010: a77b e3ba 54ef be3d 117e e3bd 7df4 a33d
00000020: 8d70 b5bc a717 c8bc ab7e 09bd 9a41 b73d
00000030: 7ac5 0fbc 040a 7a3d 5b96 a63d ec0b f4bc
00000040: bd79 f53d 335b 9b3d d39f 16bd 0e88 9e3d
00000050: 5b3a 27bd fdd4 863d f802 5cbd f3e6 b63d
00000060: 3293 e53d 3f41 ad3d 307f efbc bcc1 de3c
00000070: 8a42 063e 445f 3a3d ba16 28be bb10 ca3d
00000080: 5ab1 a3bd 8d15 b93d 3f8a 6d3d bb2b 1dbd
00000090: 8658 ccbd 2dd4 99bd 2c29 423c 622d 693d
000000a0: 8ba8 12bd 4090 82bd dae4 04bc f55f cdbd
000000b0: 22c2 313d f8cf aebd fbe5 cbbc 595b c7bd
000000c0: 7b4b 03bd c5b7 b23d 4b03 8dbd 26d2 513d
000000d0: 639e dcbc 5bcc f43d 7943 a23d 7dd6 e0bc
000000e0: f52d b03d d1f9 acbd 2bd8 2e3c 1066 d5bd
000000f0: b2f3 95bc 2e93 37bd e16a a8bd 971b 5f3d
00000100: 924d 05bd ab1e bebd bf40 333d f692 d2bd
00000110: 73d4 91bd 9192 cfbd 12c8 223d 7748 c7bd
00000120: c961 a7bd c35d ea3c abad bebc a01a 7d3d
00000130: d96a 563c f458 8bbd d5fe fc3c cc10 0c3e
00000140: 59bb 5ebd af06 113d f62c d73d 6b8d 0d3e
00000150: 5499 f13d c45e 8b3d 5f84 4c3d 3d66 0f3e
00000160: 1d03 0f3e 10d3 f03d 2ed9 b2bd f12b a2bd
00000170: 25a5 503d 6a3b a13d d0a6 3dbd 2d04 e2bd
00000180: 0d6a 843d 9193 b2bc bd0c 4abd 16aa e1bd
00000190: 6dce 683d d0c9 803d b8f6 373d 3911 32bd
000001a0: 7ce4 29bd d3bd 4ebd 0cca bc3d b462 5a3c
000001b0: 28f3 18bd 0705 92bd 50d1 ec3c 229d 503d
000001c0: 27db a8bd 5d3a 7abd 9b76 8e3d 4eda 083e
000001d0: c008 83bc 2ed7 ea3d 2d4e 933d 56d9 b53c
000001e0: 2a34 87bd c942 343d 5268 b03a 4b26 11be
000001f0: 5775 bbbd cb1d 10bd 8348 f1bd 1b8a 69bd
00000200: 5b69 693d 3e9f f73d c960 17bc 6431 783d
00000210: 27e8 8dbd 2e39 55bd b48e 883d 26d7 eb3d
00000220: 1135 0a3d 175c 663d 7932 05be 1929 1abe
00000230: be43 a4bd 4515 8fbd f1cb 4cbe a8c9 a53c
00000240: 6ea8 a13c f987 ac3c 9e21 e1bd 1cec 0a3e
00000250: 21e0 1e3d 6003 c6bd 1b18 fcb9 f2e8 53bd
00000260: cfdc b2bd f778 be3d 4ca1 00bd 3632 c83c
00000270: 124e 063d 3ee5 4b3d 55df 013e 27b0 f7bd
00000280: 9373 d0bd 59b8 c1bd e47d 453d 57a9 13bd
00000290: 7120 5c3d 03d6 ec3d 2867 c8bb 1931 b8bb
000002a0: 85e4 013e 9ef9 b3bd b9ce 313d 170b dcbd
000002b0: 60c1 71bd cf3e 44bd 292d e2bc ee07 f2bc
000002c0: fa1f fc3c 5063 cdbd bf04 bd3b c3c3 e13d
000002d0: 66be 6abd a4c0 8b3b baf0 233d de3a 2fbc
000002e0: 9d6e e63d df0f 1e3e 35d7 b23c 012b ee3d
000002f0: d15f 12bd a6c2 8c3c c07b 00be 8bcc a83d
00000300: 7413 e63d fb3c f2bd e8ff 013e 3763 e93c
00000310: abf5 1c3e 9bd2 ff3c bff3 f03c 597c c5bd
00000320: ba16 7f3d 22a6 02bc 8a17 3cbe 5fb7 9b3d
00000330: 7566 e9bd 221b 023c b9c0 2abe b70e 9abd
00000340: 2f63 00be e9b9 54bd a807 39be bced 9e3d
00000350: de78 49bd 2d50 bd3b b442 49ba d246 13be
00000360: af99 2b3b 0231 6cbd 43d6 d83c 716b 81bd
00000370: 98a3 883d a712 c73d 4aa8 053e 7fc6 d53d
00000380: 60ec c03c 1e57 a33d b7ea 0fbe 9a65 83bd
00000390: 384c 0dbe 13d3 b13d efe2 9cbd 0e9f c13d
000003a0: 9d9f f03d 72f3 d8bd 572d 5ebd 78f4 4cbc
000003b0: 1234 9bbd 1e29 7fbc e3ae 9abd e8dc d9bd
000003c0: 68f0 38bd 4706 a1bd c5c2 423e 2803 ddbc
000003d0: e632 433d b3c8 103d 801f b1bd ec16 b33d
000003e0: 6e6b 91bd bdb3 d23c 270f c43d 4cbf 833d
000003f0: 4897 ca3c 7172 9f3d 7753 c63d 4255 b63d
0.09721584 -0.085622594 0.015002814 -0.050628506 -0.0017355577 0.09322992 -0.1110803 0.08005617
-0.022148395 -0.02442534 -0.033568066 0.089480594 -0.008775109 0.061044708 0.08134147 -0.029790841
0.1198611 0.07585754 -0.036773514 0.07740794 -0.040827136 0.06583593 -0.05371377 0.08930769
0.11209716 0.0845971 -0.029235452 0.02719199 0.1311132 0.04550101 -0.1641492 0.09866472
-0.079928115 0.090373136 0.05799317 -0.038371783 -0.09977822 -0.075111724 0.011850636 0.056928046
-0.035805266 -0.0637517 -0.008111203 -0.10028068 0.04339803 -0.08535761 -0.024889937 -0.0973422
-0.032054406 0.087264575 -0.06885394 0.051225804 -0.026930993 0.1195304 0.07923026 -0.027446026
0.086025156 -0.08446086 0.010671656 -0.104198575 -0.01830468 -0.044818096 -0.082235105 0.05446967
-0.03254468 -0.09283193 0.04376292 -0.10281937 -0.071205996 -0.10135377 0.039741583 -0.097306184
-0.08172948 0.028609162 -0.02327617 0.06179297 0.013086998 -0.06804076 0.030883232 0.13678282
-0.054377887 0.035406765 0.105066225 0.13823478 0.11796823 0.068051845 0.049930926 0.14003845
0.13966031 0.11759007 -0.0873283 -0.079185374 0.050938744 0.078726605 -0.046301663 -0.11035953
0.0646554 -0.02179888 -0.049328554 -0.110187694 0.056837488 0.06288493 0.044913024 -0.043473456
-0.041477665 -0.050474 0.09218225 0.013329197 -0.037341267 -0.07129865 0.028908402 0.050931104
-0.08244925 -0.061090816 0.06956216 0.13364527 -0.015995383 0.114668235 0.07192645 0.02219836
-0.066017464 0.044009004 0.0013458824 -0.14174764 -0.0915324 -0.035184663 -0.11781409 -0.057016473
0.05698524 0.1209092 -0.009239384 0.060593978 -0.06929045 -0.052056484 0.066678435 0.11515646
0.033742014 0.056240167 -0.13007535 -0.1505474 -0.08020733 -0.06986479 -0.19999672 0.020237759
0.019733634 0.02106093 -0.1099274 0.13566631 0.038787965 -0.096686125 -0.00048083146 -0.051735826
-0.08733522 0.09300416 -0.031403825 0.024438005 0.032789297 0.04977917 0.1268285 -0.12094145
-0.10178294 -0.0945899 0.04821576 -0.036050167 0.053741876 0.11564257 -0.006115813 -0.0056210873
0.1268483 -0.08787845 0.043410037 -0.10744303 -0.059022307 -0.04791146 -0.027609425 -0.029544797
0.030776966 -0.10028708 0.005768388 0.11023667 -0.057310484 0.004264908 0.040024497 -0.010695187
0.112515666 0.15435742 0.021831134 0.11629296 -0.03573591 0.01718266 -0.12547207 0.082421385
0.11234179 -0.11828037 0.12695277 0.028489692 0.1532809 0.031228354 0.029413102 -0.09642858
0.062277533 -0.007974179 -0.18368354 0.07603335 -0.11396495 0.007941039 -0.1667508 -0.07522338
-0.12537836 -0.05193511 -0.18069327 0.07760188 -0.049187534 0.00577738 -0.0007677481 -0.14382485
0.0026184132 -0.057663925 0.026469355 -0.06319321 0.06671828 0.097203545 0.13052478 0.10438251
0.023550212 0.07975601 -0.1405438 -0.06415863 -0.13798606 0.08682837 -0.07660472 0.094541654
0.11749194 -0.105933085 -0.05424246 -0.012509458 -0.07578291 -0.015573768 -0.07552888 -0.10637838
-0.045151144 -0.078625254 0.19019611 -0.026979044 0.047655962 0.03534765 -0.08648586 0.087446064
-0.07100569 0.025720472 0.095732026 0.06432971 0.02473034 0.077855 0.096838884 0.089029804

critic.2.bias f4 [64]
00000000: fd31 5c3d 0b91 93bc cf89 17bd 9cbf 803c
00000010: daf3 c33d af5e 893d bda9 0d3d ecd5 93bd
00000020: 8149 43bd bd51 b93d 65ee ebbc db6e 23bc
00000030: 4d5f 91bd 8a2c 8a3d 1f68 d9bc dd7d ccbd
00000040: dbf4 183d 6a5c 6c3d 9320 e03c 2e61 f73d
00000050: 9e02 2bbb d4db 333d 633b 72bb 085c 66bd
00000060: ff37 463d ff35 313d 04a2 eebd 1d37 3bbd
00000070: 6140 833d 8765 9cbd 2dc8 0a3d 9ee5 4dbd
00000080: aeb0 03be d4b8 913d 48ae 9fbd eb69 4dbd
00000090: 1646 eabd 33a9 db3d 4917 b13d b95e ab3d
000000a0: 4fb4 e0bd 3060 abbd 54e4 cdbd 5625 073e
000000b0: 8c87 043d 31ca d53d 9d5f 73bd e9a3 ab3d
000000c0: c044 2cbd f5a9 56bd 217e 203d a058 033c
000000d0: 8c1e cfba 1dc4 2abd fe34 b7bd 6933 03be
000000e0: 0e62 abbc 5bc2 0cbe 668a 8dbd de96 b2bd
000000f0: 417a f8bd d021 143d 8439 893d 3c21 fe3d
0.05375861 -0.018013498 -0.03699666 0.015716366 0.09567995 0.067075126 0.034585703 -0.07218537
-0.04767752 0.090487935 -0.028800199 -0.0099751605 -0.07098255 0.067467764 -0.026538907 -0.09984944
0.037342887 0.05770532 0.027359283 0.120790824 -0.002609409 0.043910816 -0.0036961667 -0.05624011
0.048393246 0.043264385 -0.11651996 -0.045706857 0.06408764 -0.07636552 0.03388231 -0.05026781
-0.12860367 0.07115331 -0.077969134 -0.05014984 -0.11439149 0.107256316 0.086470194 0.08367676
-0.10971891 -0.08367956 -0.10053316 0.13197836 0.03235583 0.104389556 -0.059417356 0.08380873
-0.042057753 -0.052408177 0.039182786 0.008016735 -0.001580195 -0.041690934 -0.08945654 -0.1281258
-0.02092078 -0.13746016 -0.06911163 -0.08720182 -0.12132693 0.03616506 0.06700423 0.12408683

critic.4.weight f4 [1, 64]
00000000: 10ee 1bbc 2ff7 a8bc 0685 c53c 867f d73d
00000010: 19aa b3bd 2dd9 823c 684e 63bd 5712 9d3c
00000020: 1371 9f3d e663 b7bc 898e 60bd 81b1 873c
00000030: 5518 013e b624 bb3d 43f2 c73c 46e7 a03b
00000040: 23b8 af3d b182 3cbb ec14 173d ba60 6b3d
00000050: 20c1 90bb 13b4 8abc 83a0 4b3d 774e 123c
00000060: ff16 01be ec6a 1fbd 8f64 67bd 14a8 3b3d
00000070: 0e87 bd3d aaae 89bd 0395 c4bd b11c f1bc
00000080: 1827 ebbd cc79 afbd c4c2 94bc d302 1b3c
00000090: eddf 9dbc 0805 4bbd 6789 8a3b 2166 32bd
000000a0: 5b95 b7bc 0f29 41bc 1511 803d 4fb8 823d
000000b0: 255c 86bd 3162 b53c c10d 77bb 5478 23bc
000000c0: 7f02 d43d 8491 e4bd 1eae aa3c e51d afbd
000000d0: 7de9 d43d 7d3f df3b 5700 cdbc edc7 f5bd
000000e0: 537f b53c 4e9b e0bc d095 ff3c 84b7 5c3d
000000f0: 6262 acbd 6582 6f3c 4b25 34bd 8165 973d
-0.009517208 -0.020625679 0.024111282 0.1052237 -0.08772678 0.015972698 -0.055494696 0.019173784
0.07785239 -0.022386502 -0.054823432 0.016564133 0.12606938 0.091378614 0.024407512 0.0049103824
0.08580043 -0.0028764422 0.036885187 0.057465293 -0.0044175535 -0.01693157 0.049713623 0.00892984
-0.12606429 -0.038920328 -0.056492385 0.04581459 0.09254275 -0.06722768 -0.09598734 -0.029432626
-0.11482066 -0.08568153 -0.018159278 0.009461123 -0.019271815 -0.049565345 0.0042278054 -0.04355443
-0.022410085 -0.011789574 0.06253258 0.0638281 -0.06560544 0.022141548 -0.0037697407 -0.009977419
0.103520386 -0.111605674 0.020834979 -0.08550624 0.10396097 0.0068129883 -0.025024576 -0.120010234
0.02215544 -0.027417805 0.031199366 0.05388595 -0.084172025 0.014618491 -0.043980878 0.07392407
