models/002_Phoenix_Reborn/002_Phoenix_Reborn_latest.pth (torch, 48658 bytes, 11 tensors)

actor.0.weight f4 [64, 18]
000000 49 2a 14 3e cb dc e7 3d 16 ef 47 3e 67 0d 71 3d
       0.14469256 0.1132141 0.19524798 0.058850672
000010 0d 22 7b bd 37 5c 19 3a 7e 64 20 be d3 15 9c 3d
       -0.06131177 0.0005850228 -0.15663335 0.0762135
000020 0d 82 e4 3d d5 15 06 be e5 12 42 3d 9b 11 15 3e
       0.11157618 -0.13094266 0.0473813 0.14557497
000030 13 a8 74 be f3 13 4e 3e e3 e3 e8 bd 49 35 1a 3e
       -0.2389224 0.20124798 -0.11371591 0.15059389
000040 b4 d4 0d be 32 f9 f3 bd f2 47 aa 3c b5 f5 4b bd
       -0.13850671 -0.119127646 0.02078626 -0.04979487
000050 6e 1f 01 3e d1 2a 7f be 6b 55 8d 3d 0d e1 5d be
       0.12609646 -0.24918677 0.06901058 -0.21667881
000060 6a 5f ce 3d 18 2b 64 3e c9 d2 7d 3e 95 72 71 3d
       0.100767925 0.22282064 0.2478744 0.058947165
000070 ee f2 b3 3d 29 d4 af 3d 53 ef bd 3d 1c 56 39 3d
       0.087865695 0.08585388 0.09274163 0.045248136
000080 ec 76 57 3d ce 4c de bd 01 9b 6c 3e 2d 09 47 3e
       0.052603647 -0.10854493 0.23106004 0.19437094
000090 09 29 f6 bd 7a f9 95 3d c6 97 ab 3d ad bf a3 bc
       -0.120195456 0.073229745 0.08378558 -0.01998886
0000a0 f1 60 2e be 1a a8 d7 bd fb 4b d1 bc 0e 40 34 be
       -0.17029168 -0.1053011 -0.025548926 -0.1760256
0000b0 4f 77 30 be 2d 4b ef bd 0d 40 1d 3d 29 a1 41 3e
       -0.17233013 -0.116842605 0.03839116 0.18909134
0000c0 04 10 cb 3d cd a6 65 3e f6 14 ad 3d f4 d0 6f 3d
       0.09915164 0.2242691 0.084512636 0.058548883
0000d0 c0 d2 09 be 73 48 27 be 5e 42 58 bc 95 86 02 3d
       -0.13459301 -0.16336231 -0.013199417 0.03186663
0000e0 ab 9b 54 3d 68 2f 63 be bb d7 fb 3d 98 c0 c5 3d
       0.05190627 -0.22186053 0.12297007 0.09655875
0000f0 be 19 bc 3d aa 36 85 be bc 2b eb 3c a8 29 9d 3c
       0.091845974 -0.26018268 0.028707378 0.019184902
000100 80 45 6c bc 8f 86 14 3e 38 ff a9 3c 97 5d 57 3e
       -0.014420867 0.14504455 0.02075158 0.21031795
000110 84 c5 b5 bd eb 08 47 3e de 1c 15 be 8d 57 09 3e
       -0.08875564 0.19436996 -0.14561793 0.13412304
000120 a0 41 46 3d c7 4b 18 be f0 a8 80 bc fd b3 d3 bc
       0.04840243 -0.14872657 -0.015705556 -0.025842661
000130 78 2f e0 3d 8d a9 b9 bd 28 30 5c 3d ec f5 58 3e
       0.10946554 -0.09065542 0.053756863 0.21187562
000140 7e bf 28 bc b4 ba c1 bc 07 6c 16 be 14 81 0d bd
       -0.010299562 -0.023648597 -0.14689647 -0.034546927
000150 a1 7d 1f bd 80 48 68 be e0 76 e5 3b e8 eb 08 bd
       -0.03893817 -0.22683907 0.0070026964 -0.033428103
000160 cf c4 40 3e 88 50 88 3c 66 78 b4 3d 66 0e a4 3c
       0.18825077 0.016639963 0.08812027 0.020026397
000170 fe 22 48 be 26 2b 8a 3d 79 56 51 be 9a 42 88 3d
       -0.19544598 0.06746511 -0.20443143 0.06653328
000180 60 01 02 3e 52 89 3c be 14 67 28 3d 0e 92 03 bc
       0.12695837 -0.18411759 0.041113928 -0.008030428
000190 69 25 07 be b1 45 c4 3d 53 d2 99 3e 1e 1c b0 3d
       -0.13197865 0.09583605 0.30043277 0.08599113
0001a0 05 a3 04 3e 30 8c 2e 3c 28 a3 5d bd b3 c5 18 3e
       0.12952812 0.0106535405 -0.054110676 0.14919166
0001b0 df 7e 3f be e2 f4 8d 3c 0e ab e9 3d ee 65 0d bd
       -0.18700741 0.017328683 0.11409579 -0.034521036
0001c0 92 25 35 3d 6f a2 ad bd 77 8d e7 3d 2f be 51 3e
       0.044225283 -0.084782474 0.11306279 0.20482706
0001d0 a8 81 72 be 20 3a 08 3e 1d 5a 0e 3e a9 0a 89 be
       -0.23682272 0.13303423 0.13901563 -0.26765946
0001e0 d4 be 73 bd 36 15 d3 3d f9 91 6c 3e 83 d4 64 be
       -0.05950816 0.1030678 0.23102559 -0.22346692
0001f0 e9 fd 29 3e 07 f1 2a 3e b6 4f 5a be de 0b 68 be
       0.16600765 0.16693507 -0.2131947 -0.22660777
000200 e3 4b 4e 3c 65 88 fd 3d 6c 75 31 be a1 0b 2f 3e
       0.012591335 0.12379531 -0.17329949 0.1709428
000210 c4 50 3e 3e 01 d5 a4 3b a2 22 e0 bd e7 e7 d4 bd
       0.18585497 0.005030275 -0.10944106 -0.10395794
000220 88 8b 9a bc 31 0f eb bd dd 9e a2 3c 3a 94 eb 3d
       -0.018865362 -0.11477507 0.019851143 0.11502881
000230 4c 62 32 3d 80 c9 c0 3b 3d cd 31 be ca 2d bb 3d
       0.043550774 0.0058833957 -0.17363448 0.09139593
000240 84 a0 78 be 54 de 34 be d4 61 62 3c 12 46 85 bd
       -0.24279982 -0.17662936 0.013817269 -0.065075055
000250 f9 ac c2 3d 19 2b ca 3d b8 8b 8f bc b9 26 6b be
       0.09505648 0.098715015 -0.017522678 -0.2296399
000260 ce 87 7f be 45 9f 87 bd a8 80 dd 3d a4 c2 17 3e
       -0.24954149 -0.06622175 0.10815555 0.14820343
000270 80 77 32 3e e1 a3 2c 3e 6a 5d 0d be 95 a5 37 3e
       0.17428398 0.1685939 -0.13805166 0.17934258
000280 0f 21 5e 3e 1e fb 57 be 9d 78 d1 3b 65 e4 28 be
       0.21692298 -0.21091887 0.006392552 -0.16493376
000290 86 c8 c1 3d a9 3e 1a 3e 22 01 3b 3e ec b5 11 3d
       0.09462075 0.15062965 0.18262151 0.035573885
0002a0 09 ae 01 be c2 c7 4c bd c3 c9 4f 3e 67 26 52 be
       -0.12664045 -0.04999519 0.2029181 -0.20522462
0002b0 ff a9 82 3e 5d 57 98 3e d9 2e f8 bd 99 03 3a 3e
       0.25520322 0.29754153 -0.121183105 0.18165435
0002c0 db 5a 6f be 68 95 fb bc f5 39 65 3e 63 f7 fc bd
       -0.23374502 -0.03071089 0.2238539 -0.12351873
0002d0 6b 7f 5e be da 89 55 be 9f e9 84 be ea 38 87 bd
       -0.21728294 -0.20853367 -0.2595949 -0.06602652
0002e0 db 82 26 3e 0a ee 15 3e 28 f6 2a 3d ab dd 84 bd
       0.16260855 0.14641586 0.04173866 -0.06487592
0002f0 b7 ae f0 3d 2e ab 0b bd 9a 87 0f 3e fd 9b c3 3d
       0.11752074 -0.034098797 0.14016572 0.09551237
000300 c1 65 97 bd c4 bd 46 3d 11 bc 5e be 27 ee 4c 3e
       -0.07392455 0.04852082 -0.21751429 0.20012723
000310 3e 29 a9 3d b8 cc ee 3c fe ee 6d be 6e 20 96 3d
       0.082598194 0.029150352 -0.232357 0.07330404
000320 9b ae 1e be de ab f7 3d db e3 75 bd d0 82 24 3e
       -0.15496294 0.12093328 -0.060031753 0.16065526
000330 28 bc 3e 3e d3 2a 2f 3e f4 14 8f be bd a3 e1 3c
       0.18626463 0.1710618 -0.27945673 0.027543897
000340 a4 f1 c0 bd 8d 7c 6c 3d 39 78 1d 3e 03 c8 4d 3e
       -0.09421089 0.05773597 0.15377893 0.2009583
000350 e2 2f 70 be c2 c7 a1 bd 64 f7 34 be 6b 3c 5d 3e
       -0.23455766 -0.07899429 -0.17672497 0.21605079
000360 88 1c 31 3c 83 2c c6 bd 67 6a f3 3d 17 46 5f be
       0.010810025 -0.09676459 0.11885529 -0.21804081
000370 04 7f fb 3d 24 f0 59 3d da 4e 8b 3d 9f 5a 97 bd
       0.12280086 0.05320753 0.06802149 -0.073903315
000380 a9 4e 5d be 79 72 8d bd d2 85 7b bd 74 0b 0c be
       -0.21612038 -0.069065996 -0.061406918 -0.13676244
000390 bb 19 96 3e 71 b4 47 3e 00 d6 c2 39 e8 e2 5a bd
       0.29316506 0.19502427 0.00037162006 -0.05343905
0003a0 5a 8e 59 be d7 55 11 3e cc ff 33 bd 52 31 c4 3d
       -0.21245709 0.14192902 -0.04394512 0.095797196
0003b0 8a 5c 2b be 2c 5a 4a bd 39 8e a5 bd 68 4c 34 bc
       -0.1673452 -0.0494024 -0.080837674 -0.011004545
0003c0 c9 86 8d 3d 59 3f 99 bc 70 b0 cb 3c dd ed 23 3e
       0.06910474 -0.018706964 0.024864405 0.16008706
0003d0 f0 8d 0d bd ee 96 33 be 5c 16 9e 3e 62 38 fd 3d
       -0.03455919 -0.17538044 0.30876434 0.1236427
0003e0 c6 93 b1 bd e6 6a 38 be b8 36 f0 3c 1d d1 37 3e
       -0.08670764 -0.18009529 0.029322967 0.17950864
0003f0 1d 02 05 be 84 ad ad 3d f2 2f 89 3e c9 d8 ee bd
       -0.12989087 0.08480361 0.26794392 -0.11662442

actor.0.bias f4 [64]
000000 55 5f 37 bc 03 1f e6 bd d9 18 28 3e ff e3 f8 3d
       -0.0111921625 -0.11236384 0.16415729 0.12152862
000010 7d b7 fc bd 6f b1 fb bd 3b 09 8b bd 5a 22 2a 3e
       -0.12339685 -0.12289702 -0.0678887 0.16614667
000020 43 c6 2c 3e 3b 48 34 be b6 aa 29 3e 57 17 74 be
       0.16872506 -0.17605679 0.16569027 -0.23837028
000030 20 f1 d6 bc 7f 88 83 3d 33 32 05 be fc 60 d2 3c
       -0.026238024 0.06422519 -0.1300743 0.025681011
000040 4a 48 0d be 04 57 dc 3d e8 f2 41 3d d1 a5 93 bd
       -0.13797107 0.107587844 0.047350794 -0.07209361
000050 04 ad a8 bc 4e a4 2b bb 5b ef bd 3c 03 12 42 be
       -0.020590313 -0.0026190463 0.023185423 -0.18952183
000060 59 e6 94 bd d1 8e 3e 3e ce fb b2 bd 3c 9e 31 3e
       -0.07270498 0.18609168 -0.08739434 0.17345518
000070 19 a6 d7 3d 72 4c 39 ba 24 82 46 be 84 16 3d be
       0.105297275 -0.0007068581 -0.19385582 -0.1846562
000080 74 99 fe bc 9e 50 15 be 4a 22 cd bd f5 97 26 3e
       -0.031079032 -0.14581534 -0.10016306 0.16268905
000090 f2 c4 8d bb 21 cd b9 3d a8 32 1f be 89 3d 1e be
       -0.004326456 0.09072328 -0.15546668 -0.15453161
0000a0 eb 56 52 be 5e bc 97 bd 7c 1f 26 3c e9 8f ee 3d
       -0.20540969 -0.07408975 0.010139342 0.116485424
0000b0 9c b0 ab bd 03 c9 42 3e c9 e7 18 3e 04 31 00 3e
       -0.08383295 0.19021992 0.14932169 0.12518698
0000c0 a8 db 07 3d ec da 88 3e 75 15 ff 3d a0 e7 fa 3a
       0.033168465 0.26729524 0.124552645 0.0019142516
0000d0 e1 89 c7 3c 8c 89 8c bd 54 6a df bd 44 50 0f be
       0.024357738 -0.068621725 -0.10908952 -0.13995463
0000e0 5a c7 6f 3e ce 9b 31 3e 01 37 62 bd cf e4 a0 bc
       0.2341589 0.17344591 -0.055228237 -0.019640354
0000f0 92 ce 36 be 8e b7 fc 3d 69 b2 92 bc ba b7 8c bd
       -0.17852238 0.12339698 -0.017907338 -0.068709806

actor.2.weight f4 [64, 64]
000000 2b 58 a5 bd e9 de 97 3d 57 5a 3a bd b8 92 18 bc
       -0.08073457 0.074155636 -0.04549631 -0.009312324
000010 70 85 d2 bd 91 f6 88 3d e1 f4 c1 bc d1 2d a3 bb
       -0.102793574 0.06687654 -0.023676338 -0.004979827
000020 ca e9 34 3d d1 e2 17 bd 58 66 04 3c 44 1e 7d 3d
       0.04416827 -0.037081543 0.008081041 0.06179644
000030 63 54 30 3d 74 ff 82 3d 69 e7 08 3d 43 98 8d 3c
       0.043049227 0.0639638 0.033423815 0.017284518
000040 a4 e5 63 3d 47 95 cd 3b 19 4f f5 bb 9c 32 b5 3b
       0.055638924 0.0062738988 -0.007486236 0.0055297147
000050 0f 31 40 3c 95 4d 9c 3c 1c f3 48 bd 60 8c fb 3a
       0.0117304465 0.019079963 -0.049059972 0.0019191615
000060 06 85 a8 bd b4 65 96 bd 48 15 87 3c bd 0f 78 bc
       -0.08228497 -0.07343617 0.01648964 -0.015140471
000070 bc 1a 3f bd 80 4a 18 3e ec 66 ca 3c 92 7c 44 bd
       -0.046656355 0.1487217 0.02470728 -0.047970362
000080 7b c4 2d 3d 3f 00 12 3d 9e f5 56 bd 34 af 0f bd
       0.042423707 0.035644766 -0.052480333 -0.035079196
000090 2f 6c 8c 3c 0b c5 df 3c fa 90 92 bd 3f b9 fe bc
       0.01714143 0.027315637 -0.07156558 -0.031094192
0000a0 f8 25 74 3c eb c9 a7 3d 83 59 fc bd af 0d 13 3d
       0.014901631 0.0819281 -0.123217605 0.03590172
0000b0 44 0c a1 bd 5f be c8 3c c7 02 52 bc be 46 16 bd
       -0.078636676 0.024504839 -0.012818045 -0.03668856
0000c0 ee 2a 09 3d 23 dc 1a be 4c 9d bc 3d af c6 c7 bd
       0.033488207 -0.15123038 0.092096895 -0.09754693
0000d0 77 0b 9e bd 40 20 04 be 38 e6 78 3d d6 9a 09 bd
       -0.077170305 -0.12902927 0.06076643 -0.03359493
0000e0 42 0e f4 bd cd 71 e6 bd 34 5c 85 bd c0 c7 f9 3d
       -0.11916782 -0.112521745 -0.06511727 0.121963024
0000f0 ee 70 aa 3d d2 42 c0 3d 07 21 95 3d c0 48 b4 3d
       0.08322321 0.09387745 0.0728169 0.088029385
000100 55 72 71 bd 90 18 85 3d cf ad 56 3c 93 00 8c bd
       -0.058946926 0.064988256 0.013102963 -0.06836047
000110 8e 76 9c 3d 8c 8c 29 3e 27 d5 db 3b ab db cc 3d
       0.076398 0.1655752 0.0067087593 0.10002836
000120 29 d5 9e 3d 0f 52 55 bd 55 d7 06 3e c7 d0 a0 bc
       0.07755501 -0.05208021 0.1316808 -0.019630803
000130 48 08 6d 3c 82 4a 57 3d f0 ef 25 bc 1d da 9d bd
       0.014467306 0.05256129 -0.010128006 -0.077076174
000140 7e 82 fe 3c 51 84 18 be 28 fe cc 3c f5 a4 42 3d
       0.031068083 -0.14894225 0.025023535 0.047520597
000150 04 db fa bc bf f1 a5 3d c0 2b 37 bc c1 19 a7 bb
       -0.030622013 0.0810275 -0.011179864 -0.0050995057
000160 56 40 40 bb cc bc 06 be 6b 8b ff 3c c7 9e 2e bd
       -0.0029335222 -0.13157958 0.03119441 -0.04263189
000170 b3 58 92 bd a1 f0 a3 bc 17 1c 45 3d 47 60 e5 3d
       -0.07145824 -0.020012202 0.04812249 0.11200004
000180 ca be 4e 3b 0b 70 f6 3b ad 77 81 bd 9f f6 fa bd
       0.0031546825 0.007520681 -0.063216545 -0.122540705
000190 8f 17 34 3d 16 a8 4e bd 66 91 d1 bd 5c a3 81 bd
       0.04396778 -0.050453268 -0.10232811 -0.063299865
0001a0 7b 93 59 3a 4b a8 82 3d 56 c2 fb bd 7a 66 11 be
       0.00082998694 0.063797556 -0.12292926 -0.14199248
0001b0 2a cc e7 3b 83 25 a5 3d a7 08 8e 3d 5e 00 89 3c
       0.007073899 0.080637954 0.06935244 0.016723808
0001c0 5c c3 ba 3c 93 3b c2 3d 98 0b 25 3d b3 2c 5b 3d
       0.022798233 0.09484019 0.04029426 0.053509425
0001d0 26 f6 51 3d c9 96 08 be 4f 6d 51 3d 80 7b db 3c
       0.051260136 -0.1333877 0.051129635 0.026792288
0001e0 45 4c 0b be 55 87 8b bd 54 2b 0c 3c 2d ad a7 3d
       -0.13603313 -0.06812922 0.008555252 0.081873275
0001f0 49 b2 90 bc 54 d2 b7 bd 3b 53 11 be 84 17 c9 bc
       -0.017663138 -0.08975664 -0.14191906 -0.024547346
000200 40 0f 73 bd 2f ef 80 3d 63 5a c1 bc 89 21 4a bd
       -0.059340715 0.06295621 -0.02360267 -0.049348388
000210 8d ff 03 3e fd 4c f5 3d f1 b1 e4 bd 18 64 ce 3d
       0.12890454 0.11977575 -0.11166752 0.10077685
000220 e7 8b 05 be d2 cb e9 3c c3 26 1f bd f7 55 e1 bc
       -0.1304165 0.028539572 -0.038855325 -0.027506812
000230 75 de 94 3d d3 44 cc bd 88 13 f9 bd 1f 57 e8 3d
       0.07268993 -0.09974065 -0.121619284 0.11344742
000240 39 27 c5 bd 66 ea d4 bd f8 d4 57 3d 39 3d c1 3d
       -0.09626622 -0.103962705 0.052693337 0.094355054
000250 97 1b 51 3d 0f c2 75 3d 0b bc f5 bd 6e b3 2d bd
       0.051051702 0.05999952 -0.11998757 -0.042407446
000260 00 76 ab bd 6c 82 d5 ba 11 4a c5 3c b5 94 cb bd
       -0.08372116 -0.0016289479 0.02408317 -0.09940473
000270 ce 2d 38 bd 26 be 14 bd 3a 5f a0 3d 86 76 26 3d
       -0.044965558 -0.036314152 0.07830663 0.040640377
000280 2e ba ac 3d 41 d0 8a bd 41 84 7b 3d db 41 da 3d
       0.084339485 -0.067780025 0.061405424 0.10657092
000290 be cd 96 bd 53 1b a3 3d 3b a0 b3 3d 0f 69 cc bd
       -0.07363461 0.07964196 0.08770796 -0.09980976
0002a0 c4 55 a1 bd 89 ad 9c 3d 28 0b 9b bd a7 83 28 be
       -0.078776866 0.07650287 -0.07570487 -0.16456471
0002b0 2c d3 b6 bd 07 37 3e 3d 6d 4a 01 3d 40 4f 02 be
       -0.089269966 0.046439197 0.03156512 -0.12725544
0002c0 77 3d e6 bd 5d 4e bb bc 0d 33 cb bd dc c6 3f 3d
       -0.11242192 -0.022864515 -0.099218465 0.046820506
0002d0 5f 7f a3 3c 69 82 8c 3d 03 95 f5 3c 38 72 e7 3d
       0.019958196 0.06860811 0.02997828 0.113010824
0002e0 81 ef 19 3c de eb a7 3d 09 a5 0b bb 27 07 ab bb
       0.009395481 0.08199285 -0.0021308085 -0.0052193585
0002f0 d2 e7 c7 3d 4d fc b9 bc b3 50 e0 3d 76 35 98 3c
       0.09761013 -0.022703314 0.10952892 0.01858018
000300 0e 51 84 3d b9 1e ed 3c c8 46 80 3c c5 58 e3 bd
       0.064607725 0.028945314 0.015658751 -0.11100916
000310 13 8d ae 3c 1c 29 8a ba 09 6d b7 3d 3a 72 96 3d
       0.021307504 -0.0010540816 0.08956344 0.07346006
000320 4c be 98 3d c0 9a 6c 3a cd 94 20 bd fa 8b 51 3d
       0.07458171 0.0009025745 -0.039204407 0.051158883
000330 38 90 6e bd 4b 28 3f 3c f0 74 5b 3d 62 04 b2 3d
       -0.058243006 0.011667321 0.053578317 0.08692242
000340 f6 cd 56 3d 43 05 06 3e f9 d0 88 bc 99 cb 54 3d
       0.052442513 0.13087945 -0.016701208 0.05195198
000350 1f aa d0 bd 23 e8 a7 bd a8 b7 93 3d ad bb 92 3b
       -0.10188698 -0.081985734 0.07212764 0.004477939
000360 e6 e8 39 3d 07 ca e0 3b 70 c5 eb bd 06 2a 92 bc
       0.045388125 0.006860021 -0.115122676 -0.017842304
000370 a8 4b db bd 6b 30 bd bd 23 2c 8e bc 88 4d 8a bd
       -0.1070779 -0.092377506 -0.01735503 -0.06753069
000380 53 55 6d bd ed 52 4e 3d e8 d8 d8 3d f1 fd df 3d
       -0.0579427 0.050372053 0.105882466 0.10937107
000390 16 31 4f bd f5 1c 81 bd f2 4a 98 bd ab d3 0f 3e
       -0.05058392 -0.06304351 -0.0743617 0.14045589
0003a0 e3 d5 a6 bd dd 5a a6 3d 11 17 ce bc 47 83 79 3d
       -0.081462644 0.081227995 -0.025157483 0.06091621
0003b0 bd 19 36 bd 51 87 31 3c 55 6e d3 3d 82 d5 07 bd
       -0.04445814 0.010835485 0.103237785 -0.0331626
0003c0 27 c1 c2 3d d7 13 bf bc fd 4b 54 bd 54 fa 95 3d
       0.09509497 -0.02332489 -0.05183028 0.07323137
0003d0 95 62 02 3e 26 fc 37 bd 78 fc b2 bd 9a c0 ff bd
       0.12732919 -0.044918202 -0.08739561 -0.12487908
0003e0 16 e0 a8 3d 66 2f 0f 3d 53 2d 9c bd 81 bd b2 3d
       0.08245866 0.034957312 -0.076258324 0.08727551
0003f0 06 cc 4e 3d 34 e9 34 3c 38 58 44 bd 65 03 5b bd
       0.05048754 0.011041928 -0.047935694 -0.053470034

actor.2.bias f4 [64]
000000 79 56 f9 bd 79 c7 a2 3d 0b cb e5 3d 69 5e 52 3d
       -0.121746965 0.07948203 0.11220368 0.051359568
000010 01 11 9f bd d2 c4 29 bd a1 c7 05 bd eb 7c ee bd
       -0.07766915 -0.041447468 -0.032661084 -0.1164492
000020 2a f4 00 3e 4f c4 4e 3a 75 96 2c bd c6 12 5d 3d
       0.12593141 0.00078875286 -0.042135675 0.053972982
000030 e2 64 20 3d 97 d3 f0 3d 1e 04 cc bd 02 aa db 3d
       0.03915871 0.117591076 -0.09961723 0.10725786
000040 ef 2e 27 3d d7 0c be 3d 60 18 b6 bd 36 3d a3 3d
       0.040816244 0.09279793 -0.08891368 0.079706594
000050 d8 ab b7 3d 63 48 c8 bd 04 7d bc bc 45 e5 a0 3c
       0.089683235 -0.09779432 -0.02300883 0.019640574
000060 8b ca 01 be 70 5a 04 bd 51 0f b6 bd ac f6 9c bc
       -0.1267492 -0.03231281 -0.0888964 -0.019160591
000070 3a 28 9d 3b 47 50 82 3d 92 e0 00 3d 76 df 12 bd
       0.004796055 0.06362968 0.031464167 -0.03585764
000080 e9 a7 b0 bd c0 16 d6 bd c9 8d 07 3d 59 a5 e1 3d
       -0.08625776 -0.10453558 0.0330942 0.11017866
000090 d5 dc 01 be 73 ea ee bd 1e cb a1 bd c9 1e 08 be
       -0.12681897 -0.116658114 -0.0790007 -0.13292994
0000a0 55 c9 50 bd a8 b1 0e 3c db 7a 45 bd 9d 58 1f 3d
       -0.050973255 0.008709349 -0.048212867 0.038902868
0000b0 2e 95 eb 3d 9f d4 10 bc 3b a4 8b bc 7a 72 1e 3d
       0.11503063 -0.008839755 -0.017046085 0.038683392
0000c0 68 15 3f bd 58 71 5f bd 54 e1 26 3d c3 78 af 3d
       -0.046651274 -0.054551452 0.040742233 0.08567955
0000d0 1d cf 2d 3d ef 08 8a 3d 3d 0c bb bb 74 84 d6 bc
       0.042433847 0.06739985 -0.005708246 -0.026186205
0000e0 8d 37 1e 3c cb 4e 87 bd 92 62 ba 3c c2 a4 5f 3b
       0.009656799 -0.066068254 0.02275208 0.0034125303
0000f0 b2 a7 0e bc 8a b4 dd bd db 3c a1 bd 22 b3 11 bc
       -0.008706974 -0.10825451 -0.078729354 -0.008892806

actor.4.weight f4 [2, 64]
000000 33 01 09 bc 8d 64 9f 3c c0 a6 c3 3d 40 60 22 bc
       -0.008362102 0.019457126 0.095532894 -0.009910643
000010 bc bb e0 bd 5f 22 b4 bd 9a a8 d6 bc e1 4b 65 3d
       -0.109733075 -0.08795618 -0.026203442 0.055980567
000020 95 cc c2 bd 66 bd d8 bd b6 41 21 bc fb ae d7 bd
       -0.09511677 -0.10583 -0.009842327 -0.10531422
000030 90 a9 a5 3c be af 89 3d 20 1c 82 3c ba e9 97 3d
       0.020222455 0.06722973 0.015882552 0.07417627
000040 de c7 87 3d bb 81 23 bb a7 b7 9d 3b aa d9 27 3d
       0.066299185 -0.0024949152 0.004813153 0.040979065
000050 01 e4 b6 3d 94 89 96 bd d3 98 19 bd fa 56 a5 3d
       0.08930207 -0.0735046 -0.03749926 0.0807323
000060 25 4c 34 3d 4d 6c a0 3d 36 a2 7c bd a7 66 ae bd
       0.04401793 0.07833157 -0.061678134 -0.08515673
000070 dc aa 99 3d ec 0e cb bd ae 0f e7 3d bc 54 d7 bc
       0.07503292 -0.099149555 0.112822875 -0.026285522
000080 ea 33 15 3c cf 3d 91 bc a0 ef ca 3c ae 4f 87 3d
       0.009106616 -0.017729668 0.024772465 0.066069946
000090 8a c4 99 bc 0a bc c9 bc a1 a1 3f bd 9d 4e e2 3c
       -0.018770475 -0.024625797 -0.046785 0.027625376
0000a0 06 48 d0 bd eb ee 7f bb 27 fc 1b bd b7 20 aa 3d
       -0.101699874 -0.0039052318 -0.038082268 0.08307021
0000b0 4a ef d8 bd 88 8b 75 bd fe 35 a5 3d c0 2c 69 3d
       -0.10592516 -0.05994752 0.08066939 0.056927443
0000c0 ce 39 b2 3d fb f4 a0 3d 8e 7c 54 bd b3 47 ec bc
       0.087024316 0.07859226 -0.051876597 -0.028842783
0000d0 98 a3 b8 3d a8 d2 0c bd e0 eb 58 bd b2 be 81 bc
       0.09015578 -0.034380585 -0.052959323 -0.015838
0000e0 27 19 21 bc bb fe 74 3d bc 17 a4 3c a8 9a 4d bd
       -0.009832657 0.059813242 0.020030849 -0.05019632
0000f0 0f c6 02 bd ff cb e4 3c 9b b1 43 3d dc 69 af bd
       -0.031927165 0.027929304 0.0477768 -0.08565113
000100 99 5c 56 3d 2b 40 e8 3d f3 4a d8 3d fc 3d b1 bc
       0.0523344 0.11340364 0.105611704 -0.021636002
000110 66 76 b3 3d f2 b4 f4 3d e0 94 cb 3b ea 09 80 3d
       0.08762817 0.11948575 0.0062128156 0.06251891
000120 06 51 58 bd de cd a3 bd b0 b4 f9 3d eb 62 79 bd
       -0.052811645 -0.079982504 0.121926665 -0.06088535
000130 58 45 c3 3c 49 df a7 bd 31 da 0f bd d9 29 17 3c
       0.023836777 -0.08196885 -0.035120193 0.009226286
000140 04 26 f2 bd 85 7e ec bb 23 dc 3d bc 6e 86 09 bd
       -0.11823657 -0.0072172307 -0.011588129 -0.033575468
000150 46 63 2e 3d 27 d2 68 3d 24 26 b4 3d 83 ab d0 bd
       0.042575143 0.056841042 0.08796337 -0.10188963
000160 54 12 60 3d 57 8c be bc 59 5f e2 bd 86 0d a5 3d
       0.05470498 -0.023260279 -0.11053342 0.0805922
000170 c9 57 98 bd 70 bd c1 3d 01 e4 e1 bd 9c 12 79 3d
       -0.07438619 0.094599605 -0.110298164 0.060808763
000180 2e 0d 43 bc 1e f6 28 3d b8 f3 40 bd c3 23 ea bc
       -0.011904998 0.04125034 -0.04710743 -0.028581506
000190 4c f6 e1 3d 31 f9 1a 3d e1 98 76 3d 32 04 80 3d
       0.110333055 0.037835304 0.06020439 0.062508
0001a0 f6 b2 02 3e cf 7f a9 3d 63 1f ea 3d 62 f4 e1 bd
       0.1276358 0.08276331 0.11431768 -0.110329404
0001b0 e3 f9 fc bc 60 fe ed bd 00 38 14 bc b2 d1 0b 3b
       -0.030880874 -0.11620784 -0.009046555 0.0021334705
0001c0 84 10 49 3d 18 06 6c bd bb b6 40 3b 06 00 42 3d
       0.049088016 -0.057623 0.002940579 0.047363304
0001d0 4f dc 4b 3d 1f 4c 90 bd c7 da 89 bd a0 59 67 3d
       0.04977065 -0.07045769 -0.067311816 0.056481957
0001e0 45 fb 94 3c 02 da 23 3d 0f 30 d3 3b d6 30 94 3c
       0.01818622 0.04000283 0.006444938 0.018089693
0001f0 42 4f 44 bd 90 d8 c5 bc 9c 23 90 bd eb 17 3d 3d
       -0.04792715 -0.024151117 -0.07038042 0.046165388

actor.4.bias f4 [2]
000000 c1 5c 5b 3d a6 2a e5 3d
       0.053555254 0.11189775

critic.0.weight f4 [64, 18]
000000 c0 92 ee bd ef 52 08 be c3 6e b7 be 2e 46 b0 bd
       -0.11649084 -0.13312887 -0.35826692 -0.08607136
000010 ba 09 93 be 21 8d 82 bd e1 ed 0f 3e dd 94 81 3e
       -0.28718358 -0.063745745 0.14055587 0.25308886
000020 9f db fc 3b 6b e4 8c 3c 98 60 2e be 36 f6 82 be
       0.0077166106 0.017198762 -0.17029035 -0.2557847
000030 46 d8 80 3d c8 30 16 bd 4b 23 3d be cc d3 01 be
       0.06291251 -0.036667615 -0.18470494 -0.1267845
000040 e8 f7 16 be 27 68 66 be ca 24 20 3e ee 02 cc bc
       -0.14743006 -0.22500668 0.15639034 -0.02490374
000050 b6 1d bc be c2 e0 45 bd 32 1d da bc ec 69 1d 3e
       -0.36741418 -0.04831005 -0.02662525 0.15372437
000060 53 99 dd 3d 6d 25 5a 3e 94 ae 3d be 48 11 19 3e
       0.1082026 0.2130334 -0.18523628 0.14947999
000070 47 df 75 3e a6 7d c6 bd 0c 08 c2 bd 6c a2 39 be
       0.24010955 -0.09691934 -0.09474191 -0.18128365
000080 b1 eb 28 3e cf 8b 06 3e 68 9f ef bc 08 e1 94 3c
       0.16496159 0.1313927 -0.029250816 0.01817371
000090 43 32 7e 3d 01 a7 d1 3d 99 d5 29 bf 4c dd 22 3e
       0.062059652 0.102369316 -0.6634155 0.1590473
0000a0 09 e8 2f 3e aa 47 28 be 61 c2 66 bc ca 5f c6 bc
       0.17178358 -0.16433588 -0.0140844295 -0.024215598
0000b0 85 93 f6 ba 11 4a b5 bd df e6 e2 3d fa 8d b3 bd
       -0.0018812275 -0.08852018 0.110791914 -0.08767314
0000c0 e9 94 88 be 96 8e 19 be 9b c5 6b 3e 6b 6d 66 3e
       -0.2667611 -0.14995798 0.23024599 0.22502677
0000d0 d1 cd 6f 3e f4 96 54 3d 59 1d 85 3e 62 53 b5 be
       0.23418356 0.051901773 0.25998953 -0.3541518
0000e0 00 aa 91 3e 89 79 2b 3e 53 a3 ee bd a6 09 fe bd
       0.28450012 0.1674558 -0.116522454 -0.12404184
0000f0 78 de 94 3e c2 c3 8d 3d 87 08 0f 3e b4 1a 34 3e
       0.2907598 0.069221035 0.13968097 0.17588311
000100 4f 16 75 3d 88 96 64 3c 40 1e 61 be ee 33 05 be
       0.05983573 0.013951905 -0.21984196 -0.13008091
000110 fe 51 9f 3d 89 30 60 3e 60 2c bb bb 9f 22 e7 bd
       0.07779311 0.21893515 -0.005712077 -0.112859
000120 9a 1e 65 3e 5f a4 4c 3e c7 23 48 3e 41 a1 59 3e
       0.22374955 0.19984578 0.19544898 0.2125292
000130 90 05 86 3e 78 0d 47 be 1d 86 54 be 12 62 fe 3d
       0.2617612 -0.19438732 -0.20754285 0.12421049
000140 01 2a 4f 3e 0d 32 95 be 93 dd 6a 3e 98 e7 db bd
       0.20230867 -0.29139748 0.22936086 -0.107375324
000150 83 44 a0 be ba 2c ea 3d bb 4f 65 3e 33 6a 39 be
       -0.3130227 0.11434312 0.22393696 -0.18106918
000160 18 f6 03 be ad fc 3d be b4 5e da bd 2a 4a 84 be
       -0.12886846 -0.1855342 -0.106625944 -0.25837833
000170 22 01 b4 3e 8e d0 84 3e c0 ad ba 3d 7b 29 a5 bc
       0.35157114 0.25940365 0.091151714 -0.020161381
000180 f1 a2 ed bd 83 99 57 be a7 bf 17 be 98 74 ed 3d
       -0.11603344 -0.21054654 -0.14819203 0.11594504
000190 94 79 3b 3e 1e 6a 42 3d ec f6 cb bd 5d 2c 6f be
       0.18308097 0.047464482 -0.09959206 -0.23356767
0001a0 40 8c 00 3b 31 f7 4a 3e f1 14 03 3e 64 30 ba bd
       0.0019614846 0.19820859 0.12800957 -0.09091261
0001b0 32 5a 90 3d 12 15 0b be f1 23 05 bf b3 43 e9 3d
       0.070484534 -0.13582256 -0.5200797 0.11389866
0001c0 34 74 04 be 47 26 7b be 24 15 0c 3e 0c 68 d4 3b
       -0.12934953 -0.2452632 0.1367994 0.00648213
0001d0 5d 38 2e 3e f6 82 03 3e 32 e2 88 bd 73 5b 2d 3d
       0.17013688 0.12842926 -0.06683768 0.04232354
0001e0 93 7d 31 be a8 79 80 3c d1 58 5b 3e ae 43 cb bd
       -0.17333059 0.01568301 0.214206 -0.09925018
0001f0 03 d9 48 3e 23 15 f9 bd 8a b0 f9 bd 8c 58 77 3d
       0.19614033 -0.12162235 -0.12191875 0.06038718
000200 43 cf e6 3e be 34 63 bd d5 2e 9b 3e b2 6d 84 3d
       0.45080003 -0.05547022 0.30309168 0.06466235
000210 db b4 41 3d 0c 77 7d 3c e7 f6 b0 bd f9 6f 56 be
       0.047291618 0.0154702775 -0.08640843 -0.20941152
000220 b9 bd 3c 3e 07 08 5e 3e 04 3d 8a bd 40 b5 65 3c
       0.18431748 0.2168275 -0.06749919 0.014020264
000230 52 a6 a0 3d 80 e0 16 be 80 49 84 3a fa 93 f4 bd
       0.07844223 -0.14734077 0.0010092705 -0.11942287
000240 b1 e7 01 3e 87 70 a6 3d 40 fb 82 be e4 02 43 3e
       0.1268604 0.08126932 -0.25582314 0.19044071
000250 d1 e8 ff 3d 95 d1 dc 3d 08 2d 10 bc 8c 13 c2 3c
       0.12495578 0.10782162 -0.008799799 0.023690961
000260 88 c5 fc bd a2 b4 2c be 5d d4 1b 3e f0 1e e4 bd
       -0.123423636 -0.16865781 0.15217729 -0.11138713
000270 da 6e 49 be f3 ec 49 3e 0b 3a 5f 3e 73 5c 25 3e
       -0.19671193 0.19719295 0.21799485 0.16148548
000280 ea ac 8a bd be b9 89 bd 49 90 af bd 5c e1 4a be
       -0.06771262 -0.06724881 -0.08572442 -0.1981253
000290 8a c0 89 3e c6 53 0c 3e d9 82 8a bd 84 26 0b 3e
       0.26904708 0.13703832 -0.067632385 0.13588911
0002a0 05 57 e6 3d f5 9e 84 bd 96 a6 d6 3d 61 d6 d7 bd
       0.112470664 -0.06475631 0.104809925 -0.105389364
0002b0 82 b7 5c 3d 8e 77 9e 3e f5 24 06 be 20 bb d8 bc
       0.053885944 0.30950588 -0.13100035 -0.026456416
0002c0 f6 35 28 be 74 d3 7a bd d0 62 0a bd e0 cc 73 bc
       -0.16426834 -0.061236814 -0.03378564 -0.014880389
0002d0 b8 c2 16 3d 1e 1c db 3d b3 bb 33 bf 83 97 24 3c
       0.036806792 0.10698722 -0.7020828 0.010045889
0002e0 c8 2d bd 3c 02 79 44 3e 2c 06 c4 3d f1 5d a6 bd
       0.02309312 0.19186786 0.0957149 -0.08123387
0002f0 85 2c 78 3d fa a0 37 3e 04 91 42 3e a7 d1 8a 3d
       0.060589332 0.17932501 0.19000632 0.06778269
000300 e0 01 d5 3c 5c 76 39 be 52 33 c8 3d 52 8e 2f be
       0.02600187 -0.18111557 0.097754136 -0.17144135
000310 83 7a 0a be 6c 5c 19 bd 59 1f 28 3e d6 4b 42 3e
       -0.13523297 -0.037441656 0.16418208 0.18974242
000320 18 53 31 bf 10 3b b9 3d a6 44 e8 3d 40 db d1 bd
       -0.69267416 0.090444684 0.11341219 -0.10246897
000330 15 4a 3b bc 76 91 82 3b 08 f2 02 3e 50 07 f1 3d
       -0.011431237 0.0039846255 0.1278764 0.11768973
000340 e4 e1 ef bc de 64 5d 3e 3d 10 4f 3e 36 9e 9e 3d
       -0.029282518 0.21620509 0.20221038 0.0774502
000350 da d9 db 3d 74 3f da bd 53 82 63 3e 37 a6 08 be
       0.10734911 -0.10656634 0.22217683 -0.13344656
000360 19 4b b1 3e 40 e9 f8 bd ae c9 3b 3f b9 f1 04 3e
       0.34627607 -0.12153864 0.73354614 0.12982835
000370 78 af 55 be 8f 3b 37 3e ea 42 a0 3d b8 3c 00 3e
       -0.20867717 0.17893814 0.07825263 0.12523162
000380 f2 01 4b 3e 64 8d 27 3d 42 b7 39 3e 21 df e8 bd
       0.19824961 0.040906325 0.18136314 -0.113706835
000390 56 d9 9b bb dd fa 02 be 00 70 52 bc 60 64 e8 bb
       -0.004756133 -0.12791009 -0.012844086 -0.0070920438
0003a0 78 47 d3 3c 28 19 6a be d8 da 65 3d 2a df 37 be
       0.025790915 -0.22861159 0.05611691 -0.17956224
0003b0 32 36 7f 3e 0d 53 11 3e 58 fe d3 3d 76 88 89 bb
       0.24923018 0.14191838 0.103512466 -0.0041971756
0003c0 87 e1 86 be ca 42 2c 3e b1 4f 73 3d 07 c4 ce bc
       -0.2634394 0.16822353 0.05940217 -0.025239957
0003d0 83 16 0a bd 72 27 e7 bc 1c b4 51 bd 27 da 64 3e
       -0.033712875 -0.028217051 -0.051197156 0.22348844
0003e0 00 ea d9 ba 8e ef 96 bd b9 9a 5a 3e fe 3e f1 3d
       -0.0016625524 -0.0736991 0.21348085 0.11779593
0003f0 a3 f3 c9 bd f3 be 62 3e 8c dd 15 bf 51 15 0b 3d
       -0.09860923 0.22143154 -0.5854118 0.033955876

critic.0.bias f4 [64]
000000 4e 69 49 3e e5 62 35 3e 8a 43 56 bd 87 8d 39 3e
       0.19669077 0.17713507 -0.052310504 0.18120395
000010 22 6f 1a 3e ee b7 aa 3e ab 62 c7 bc c7 f0 3b be
       0.15081456 0.33343452 -0.02433904 -0.18353568
000020 4b cc 74 be 88 b6 8e 3e 93 3a be bd cf ab 89 bd
       -0.23906057 0.27873635 -0.09288516 -0.06722223
000030 e0 1b 4b 3e 83 3b a0 3d 0e a8 d5 3c fd c5 da 3d
       0.19834852 0.07823851 0.026081111 0.106822945
000040 fa ed 77 3e d2 6b 11 3d c1 c6 3c 3d b6 53 23 3e
       0.24211875 0.035503216 0.046087984 0.15949902
000050 91 92 72 3c 92 93 b5 3e 2d d7 02 be f8 ed 90 be
       0.014805452 0.3546415 -0.12777396 -0.28306556
000060 2a 8d 2f 3c c3 77 e6 bd 35 d9 de 3d a5 97 93 3e
       0.0107148085 -0.112533115 0.10881273 0.28826633
000070 1c 15 6a 3e d7 82 71 3c 42 79 82 be 86 7c 62 3d
       0.22859615 0.014740667 -0.25483137 0.055294536
000080 f8 d2 aa be fa 3a 49 be 7f 0f f4 be 16 e8 3b be
       -0.3336408 -0.19651404 -0.47668073 -0.18350253
000090 b1 e2 49 be b4 73 78 bd d9 02 ac 3e 5c 40 89 be
       -0.19715382 -0.060657218 0.33595923 -0.26806915
0000a0 eb ea 99 be 0d 5f 73 3e 94 eb 59 be b3 97 09 3e
       -0.3006204 0.23766728 -0.21281272 0.13436775
0000b0 da 65 eb 3d 69 d6 09 be 89 97 88 be b4 fc 95 be
       0.11494036 -0.13460697 -0.26678112 -0.2929436
0000c0 48 06 4b be d9 ad 34 3d 35 f0 9e 3d 1e b7 2d 3e
       -0.19826615 0.044111107 0.077606596 0.16964385
0000d0 84 ef 3c 3c 99 1a 1d be 14 3d 2e 3e c0 89 e7 bd
       0.011531714 -0.15342177 0.17015487 -0.113055706
0000e0 06 71 82 3e 4d cc 28 3e 46 02 d2 be 15 30 0b be
       0.25476855 0.16484185 -0.4101736 -0.1359256
0000f0 01 12 94 be 8b 77 44 be 8c 99 c6 be 23 34 1f 3e
       -0.28919986 -0.19186227 -0.38789022 0.15547232

critic.2.weight f4 [64, 64]
000000 24 cb 02 3d 91 56 24 3e b1 46 bb bd f5 c3 15 3e
       0.03193201 0.16048647 -0.09144343 0.14625533
000010 d6 b1 d9 3c 41 85 5b 3e 4c c4 2f 3e 1d 4f 63 bd
       0.026574057 0.21437551 0.17164725 -0.05549537
000020 61 06 de 3c 51 a0 c5 3a a3 b9 50 bd 66 8f 98 bd
       0.027102651 0.0015077685 -0.050958287 -0.07449226
000030 fd 8b 3a 3e cf 83 9f bd d7 55 b4 bd 40 d7 dc 3b
       0.18217464 -0.07788812 -0.08805435 0.006739527
000040 f1 1d bd 3d f6 b6 1b bd 6f bc 28 be 8f 5b 8c bd
       0.092342265 -0.038016282 -0.16478132 -0.06853401
000050 c2 65 bd 3c 11 77 b5 3d b0 6e 99 3c 36 b2 c0 bc
       0.023119811 0.08860601 0.018729538 -0.023522478
000060 dc 70 90 bc 03 39 b1 bd 34 1f 00 3e 3d 8c b1 3d
       -0.01763194 -0.08653452 0.12511903 0.086693265
000070 97 47 a6 bd e1 3e 08 3e 7b cd d0 bc 02 83 a4 3c
       -0.081191234 0.13305236 -0.025488606 0.020082
000080 c4 9e 23 bd c5 6c 17 be 47 ad 91 bd 63 5a ae bd
       -0.039946333 -0.14787586 -0.07113128 -0.08513334
000090 94 cc 01 be 4a e7 f1 bc e3 7a 89 3c 45 34 fe bd
       -0.12675697 -0.029529233 0.01678223 -0.12412313
0000a0 da ca 24 be 04 19 a3 bd 91 bb b0 3b 64 91 db bd
       -0.16093007 -0.07963756 0.0053934534 -0.107210904
0000b0 08 0a e2 bc 83 3c ab 3d 3a eb 5a bd e7 b2 a8 3d
       -0.027592674 0.08361151 -0.053446986 0.08237248
0000c0 d0 bd 0d be e3 c8 26 3d bb 0d 4c 3d 73 19 38 3e
       -0.13841939 0.040718924 0.049817782 0.17978458
0000d0 6c 69 09 3d 1a 08 30 bc 93 aa f8 bc a7 8c 18 be
       0.033547804 -0.010744119 -0.030354774 -0.14897405
0000e0 48 0b ef 3d 4c 5a 29 3e e6 a4 42 be ae d9 0f bd
       0.116720736 0.16538352 -0.19008216 -0.035119705
0000f0 9f b8 67 bd fa 58 f8 bd 64 5e 30 bd 69 7a 09 3e
       -0.056572553 -0.12126346 -0.043058768 0.13425602
000100 63 07 94 bc 0d cb 98 bd df 6d aa 3d 38 82 20 be
       -0.018069929 -0.07460604 0.083217375 -0.15674675
000110 db 75 9a bd 86 0a 5f be 7c ab 4c bc 7a 56 a9 3d
       -0.075420104 -0.21781358 -0.012492057 0.08268447
000120 ab 2f 9c 3d bb bf 23 be f9 04 be bd 2f 38 f1 3d
       0.076262794 -0.15991108 -0.09278292 0.11778294
000130 b3 17 31 be 6f ad a0 bd b0 59 04 bd 2b be 43 3d
       -0.17294197 -0.0784558 -0.032312095 0.04778878
000140 b7 d7 75 bd 09 5d b9 bd 19 80 11 3e d7 5d 06 bc
       -0.060020175 -0.09050948 0.14209022 -0.008201084
000150 23 43 ab bd 13 c7 e2 3d 2d d0 98 3c 18 8b 31 3e
       -0.08362415 0.11073127 0.018653953 0.17338216
000160 fa 5c ee bd cf 6d ad 3d 44 89 a9 bb 47 ba 4b be
       -0.116388276 0.0846821 -0.005173834 -0.19895278
000170 32 fb b9 bd db 22 a0 bd 20 a8 45 bd 03 c0 2e bd
       -0.09081115 -0.07819148 -0.04825604 -0.042663585
000180 7b 1a 03 3e 64 58 43 3d 52 62 a8 3d 27 1e ee 3d
       0.1280307 0.047691718 0.08221878 0.11626845
000190 0a 94 e4 3d 7a d8 23 3e 73 0c ab bd e5 cf 1a bc
       0.11161049 0.16000548 -0.08351984 -0.00944898
0001a0 82 68 f9 3c 67 7e b5 bc e8 79 17 3e 2e a5 e1 bd
       0.030445341 -0.022155 0.14792597 -0.11017834
0001b0 39 f5 52 3d 58 ab 32 be 05 c8 10 3c ba 8e e0 3c
       0.051503394 -0.17448175 0.008836751 0.027411807
0001c0 f0 11 0c 3e d1 ee d4 3d ef 00 96 bd e4 34 f5 bd
       0.13678718 0.10397113 -0.07324397 -0.11972979
0001d0 77 b1 7a 3d bb 68 35 3c 54 d0 cc bb 47 93 b7 3d
       0.0612044 0.011072333 -0.0062504206 0.08963638
0001e0 66 cd a3 bd 0d 7e a1 bd 2a 9a 07 3e 2d 4c 90 3d
       -0.07998161 -0.078853704 0.13242403 0.070457794
0001f0 ad 20 dc 3d 1e d8 e5 3d 6f 74 9f bb 6e 7c 73 3d
       0.1074842 0.11222862 -0.004866175 0.059444837
000200 5e 3f 20 be 0f 10 2d be d4 41 96 bd e2 15 3e bd
       -0.15649173 -0.16900657 -0.073367745 -0.046407588
000210 2c a3 1c 3d eb e4 28 be f4 f1 c9 ba 0e 20 60 3d
       0.03824155 -0.16493575 -0.0015407191 0.05471807
000220 f2 71 b4 3c f8 82 31 be 7d 89 56 3d d0 66 a6 bc
       0.02202699 -0.17335117 0.052377213 -0.020312697
000230 3c f8 6d bd bb 7c 64 bd 75 bd bd bd fa cd ff bd
       -0.058098063 -0.055783015 -0.09264652 -0.12490459
000240 52 43 31 be aa 62 49 bd 48 e3 90 3d 83 bc 0f 3d
       -0.17310837 -0.04916636 0.070746005 0.03509189
000250 16 ea f0 bd f9 08 ab 3d 89 cc 2b 3e 8e a0 15 3b
       -0.11763398 0.08351321 0.16777243 0.0022831294
000260 f8 b7 33 3d fd a0 f3 3d 72 24 1f bb 30 aa 56 be
       0.04387662 0.118959405 -0.0024283198 -0.20963359
000270 ff 9b 60 3d 86 82 b2 bd 50 2d 8c 3d 99 40 27 ba
       0.05483627 -0.087163016 0.0684458 -0.000638017
000280 f5 a5 b3 3c 70 8a 4a 3d 0d e2 0e 3e 49 13 6e 3e
       0.02192972 0.04944843 0.13953419 0.23249544
000290 a2 49 f2 3c 92 bd db 3d 26 1c a6 3b 82 ec 62 3d
       0.029576126 0.10729517 0.0050692735 0.055401333
0002a0 a4 1a 2b 3e 99 ff d9 bd 1e d0 85 3d ea d4 41 3c
       0.16709381 -0.106444545 0.06533836 0.011830548
0002b0 e4 62 49 bb 46 a1 34 bd 73 06 77 3c 42 ca 99 bc
       -0.003072911 -0.044099115 0.015077221 -0.018773202
0002c0 92 4e 98 3d db 31 d8 bd 33 65 75 3d c3 86 08 be
       0.07436861 -0.10556384 0.059910964 -0.13332658
0002d0 b8 4a 36 bd 94 35 24 3e 24 07 df bd ef 01 27 3e
       -0.04450485 0.16036063 -0.10890034 0.16309331
0002e0 0e 88 b2 bd f7 70 6a bd 20 21 c4 3d 6c 84 87 3d
       -0.087173566 -0.057236638 0.095766306 0.06617054
0002f0 8f 20 0d 3c fa e0 2f 3e d2 ac f5 3b 9d 9b 2f be
       0.00861372 0.17175665 0.0074974084 -0.17149206
000300 eb ae 14 3e 82 a1 c4 3d 11 7e 96 bd 08 69 96 bc
       0.14519851 0.09601118 -0.07348264 -0.01836063
000310 b6 14 a6 bd 24 f1 48 3e 76 00 26 3d e6 2d f2 bc
       -0.08109419 0.19623238 0.040527783 -0.029562902
000320 68 8d cc bc 44 c9 23 3e 35 2f 0d bc db 40 ed bd
       -0.024969772 0.15994745 -0.008617212 -0.11584636
000330 2c cb 2c 3e 14 ba 98 3d 8b 03 e5 bd 5e 13 b2 3d
       0.16874379 0.074573666 -0.111823164 0.086951
000340 91 c5 c5 3d 38 7d 8c 3d 8b db 89 bb e8 13 86 bc
       0.096568234 0.06859821 -0.0042070798 -0.016366914
000350 f7 7d 14 3e 63 73 ab 3d 40 6b 36 ba 8d 53 30 be
       0.14501177 0.08371618 -0.00069587305 -0.17219372
000360 dd 8a 3a 3c 94 b3 1a be c5 28 40 bd 66 6f 2c 3e
       0.011385647 -0.15107566 -0.04691388 0.1683937
000370 38 50 a9 3d af 17 fb 3c 06 11 57 3d 95 ea 21 bc
       0.08267254 0.030650942 0.05250647 -0.009882589
000380 fb 0a 46 be ef 02 1d bd 21 1c f5 bd ae a7 84 be
       -0.19340126 -0.038332876 -0.11968256 -0.2590918
000390 5c 7a 09 bd 37 f9 05 be e8 2c d0 3d ee d6 70 bd
       -0.033563957 -0.13083349 0.10164815 -0.058798723
0003a0 f3 2b 47 bd b5 7f ab bd cd e2 4e bd f0 1d 69 3c
       -0.048625898 -0.083739676 -0.050509263 0.014228329
0003b0 4b a4 37 bd 6f 08 f4 3c b7 ed 03 be d4 90 81 bc
       -0.044834416 0.029789178 -0.1288365 -0.01581613
0003c0 b3 62 0d bd b2 2b 97 bd a8 a7 d9 3c 58 1a 15 3a
       -0.034517955 -0.07381381 0.026569203 0.00056878245
0003d0 1a 9c a5 bc 42 63 37 be eb 01 ee 3d 4a 7f 91 bd
       -0.020216037 -0.17908958 0.116214596 -0.071043566
0003e0 f8 18 b6 bc be bb 0b 3e 0a 22 9b bd 9b 72 f8 bc
       -0.022228703 0.13645837 -0.07574852 -0.030328086
0003f0 b6 c5 c1 bd f8 9a 3c be 6c 7b ec bd 78 37 72 bd
       -0.094615385 -0.18418491 -0.11546978 -0.05913493

critic.2.bias f4 [64]
000000 a1 af da 3c 70 e0 46 be 5e 92 e1 bd 36 1e 6c 3e
       0.026695075 -0.19421554 -0.110142455 0.230584
000010 90 c2 4d be 4a 28 d6 bd 73 98 88 3c bc ef f1 bc
       -0.20093751 -0.10456903 0.016674256 -0.02953326
000020 33 6e 1d be be 79 44 3d ad 3e 70 be 30 a8 96 3d
       -0.15374069 0.047967665 -0.23461409 0.07356298
000030 02 f2 3d be 17 5c 32 bd 43 c3 49 3a 6e d1 ca bb
       -0.1854935 -0.043544855 0.0007696638 -0.0061895167
000040 83 06 28 be a3 39 4c 3b 46 0c 00 be 84 31 48 3e
       -0.16408734 0.0031162284 -0.12504682 0.19550139
000050 e6 2a fa bd 50 98 3e be 69 16 2c 3d 50 74 0a be
       -0.122152135 -0.1861279 0.04201356 -0.13520932
000060 41 ac 03 3e 42 74 23 bc 5d f4 90 bd 87 2f 78 3e
       0.12858678 -0.0099764485 -0.070778586 0.2423688
000070 37 ca 6a 3e 01 5e 5c be 05 12 fb bd 73 c0 4f be
       0.22928701 -0.21520235 -0.12259296 -0.20288257
000080 b0 50 05 be da c5 cf ba 98 8b 60 3d 53 d6 58 3e
       -0.13019061 -0.0015851811 0.054820627 0.21175508
000090 b2 44 33 3e 3a c5 24 bd 77 79 40 3e fa 98 1c 3e
       0.17506674 -0.040227152 0.18796335 0.15292731
0000a0 9f ef 4b 3e 84 e9 de 3d 9f c5 36 3d 43 5f 2d 3e
       0.19915627 0.10884383 0.04462206 0.1693087
0000b0 12 ca 6c bd 10 38 41 ba 2a 88 db 3d 7f 61 29 be
       -0.057809897 -0.00073707197 0.107193306 -0.16541098
0000c0 b2 52 2b be 12 00 e2 3d e6 02 e8 bd 85 a3 0a 3d
       -0.16730765 0.1103517 -0.11328678 0.03384735
0000d0 48 a7 69 3e 82 c4 cd 3c 0d 01 93 bd e6 ae 65 bd
       0.22817719 0.025118116 -0.07177935 -0.056075
0000e0 80 c4 92 3c 0c c9 12 3e c4 71 68 3d 12 d0 45 3d
       0.017915964 0.14334506 0.05674912 0.048294134
0000f0 aa 76 30 3e ba 1e 0b 3e 37 a0 07 3e 87 66 f4 bb
       0.17232767 0.1358594 0.13244711 -0.0074585113

critic.4.weight f4 [1, 64]
000000 76 f0 25 be 9d b4 2c 3e b1 0b 21 3e 88 43 64 be
       -0.1620501 0.16865773 0.15727116 -0.22291386
000010 61 7f 80 3e 1b 50 96 be 15 a6 26 be cf de 99 be
       0.25097182 -0.2935799 -0.16274293 -0.30052802
000020 67 37 51 3e 45 c7 2a be f6 59 3e 3e 30 10 4b 3e
       0.2043129 -0.16677578 0.18589005 0.19830394
000030 d7 16 72 3e 62 0e 53 3e dd 18 9f be e8 66 5a be
       0.23641525 0.20610955 -0.31073657 -0.21328318
000040 d3 15 93 3e 77 ae 38 be ea d2 29 3e 43 ba 0f be
       0.28727588 -0.18035303 0.16584364 -0.14035897
000050 0f ef 58 3e 20 9d 70 3e 0a 00 86 3e f0 98 b4 3e
       0.21184944 0.23497438 0.26171905 0.35272932
000060 1e a0 45 be a9 dd a4 be e1 59 f2 3d ca ea 13 be
       -0.19299361 -0.32200363 0.11833549 -0.14445034
000070 6e 13 7a be 04 5e 06 3e 0d 15 b8 be 92 79 1d 3e
       -0.24421474 0.13121802 -0.3595356 0.15378407
000080 52 5c 86 3e fd 09 09 3e 2c 82 8f 3e ac d7 d5 bd
       0.2624231 0.13382716 0.28029 -0.10441527
000090 56 3f 94 be cf f2 79 3e e8 4b 07 be 51 2d b8 3e
       -0.2895457 0.2440903 -0.1321255 0.35972074
0000a0 e4 82 56 be d7 98 12 be e8 5b 47 3e 5a 5a 75 be
       -0.20948368 -0.14316116 0.19468653 -0.23960248
0000b0 e2 54 1d be d3 8f 34 be 17 ea 46 be 2e 91 4a 3e
       -0.15364411 -0.1763299 -0.19425236 0.19781944
0000c0 a9 29 2b 3e 0f ef 0a be 99 c4 3f 3e 2b 21 38 3e
       0.16715111 -0.13567756 0.1872734 0.17981403
0000d0 ff 8a 4e be 67 b2 73 3e 4d df 88 3e c3 62 19 3e
       -0.2017021 0.23798524 0.26732865 0.14979081
0000e0 2d 9b 37 be 41 e9 cf 3e 8a ff 42 be a6 3f 89 3e
       -0.17930289 0.40607646 -0.19042793 0.26806372
0000f0 b6 51 60 be 36 9d ef bd 95 ce 46 be 70 f4 34 3e
       -0.2190617 -0.116999075 -0.19414742 0.1767137
