models/002_Phoenix_Reborn/002_Phoenix_Reborn_best.pth (torch, 48626 bytes, 11 tensors)

actor.0.weight f4 [64, 18]
0.11294928 0.09819384 0.20261444 0.06469431 -0.08638406 -0.0013936732 -0.1547135 0.07467826
0.08987117 -0.121352434 0.063803546 0.15274055 -0.25678864 0.20124798 -0.11371591 0.15059389
-0.13850671 -0.119127646 0.03256403 -0.0527432 0.14303826 -0.24475805 0.06272926 -0.245632
0.09797273 0.23717572 0.2692761 0.008052496 0.14848761 0.13879052 0.031313553 0.045248136
0.052603647 -0.10854493 0.23106004 0.19437094 -0.16062313 0.05287101 0.079143584 -0.025444085
-0.19690603 -0.1100066 -0.032922015 -0.17508109 -0.19693837 -0.098260075 0.043739412 0.18942721
0.09257986 0.2242691 0.084512636 0.058548883 -0.13459301 -0.16336231 -0.0014684341 0.033641607
0.039605614 -0.23275872 0.12938505 0.117352076 0.088332064 -0.27066842 0.044264894 0.03662646
-0.076268435 0.12303131 0.0841789 0.21031795 -0.08875564 0.19436996 -0.14561793 0.13412304
0.09702631 -0.13236155 -0.009669445 -0.023786863 0.1292222 -0.08881626 0.058317147 0.2121294
0.0070200553 -0.040385358 -0.14623411 -0.03557689 -0.03867538 -0.22683907 0.0070026964 -0.033428103
0.18825077 0.016639963 0.114077926 0.03404914 -0.20587064 0.06269706 -0.1838886 0.08082155
0.12821908 -0.18806279 0.05451401 0.003680742 -0.17415173 0.06975624 0.34384528 0.08599113
0.12952812 0.0106535405 -0.054110676 0.14919166 -0.22719808 0.007209544 0.11148797 -0.041306842
0.020363066 -0.08147749 0.10278299 0.20091103 -0.25302216 0.1463958 0.14266853 -0.26830298
-0.06391624 0.1030678 0.23102559 -0.22346692 0.16600765 0.16693507 -0.23932631 -0.2358712
-0.004397209 0.10381934 -0.19342105 0.19937204 0.17325327 -0.015332997 -0.13641357 -0.050483506
-0.06455482 -0.16061097 0.06627985 0.11502881 0.043550774 0.0058833957 -0.17363448 0.09139593
-0.24338382 -0.17543486 -0.00090167107 -0.070612215 0.095279485 0.12451437 -0.015445295 -0.24814467
-0.26247048 -0.028717034 0.06053558 0.11363305 0.22334011 0.1685939 -0.13805166 0.17934258
0.21692298 -0.21091887 0.046741303 -0.17914198 0.12434755 0.17921571 0.17681216 0.009911292
-0.105003804 -0.030442074 0.21541859 -0.25416505 0.32067028 0.34977296 -0.18609667 0.18165435
-0.23374502 -0.03071089 0.2238539 -0.12351873 -0.20272322 -0.20226422 -0.27311984 -0.0708077
0.17415097 0.1678538 0.044831485 -0.079447515 0.121384166 -0.014826521 0.10067654 0.073592186
-0.03235305 0.04852082 -0.21751429 0.20012723 0.082598194 0.029150352 -0.2091985 0.08642191
-0.16240317 0.11710562 -0.042456735 0.17355157 0.18647301 0.16916856 -0.26634252 0.035766724
-0.12780006 0.035179988 0.1884796 0.2009583 -0.23455766 -0.07899429 -0.17672497 0.21605079
0.042885117 -0.084570855 0.10966063 -0.22196414 0.14009197 0.06436258 0.06854771 -0.07902925
-0.19148424 -0.06510574 -0.10643338 -0.1546915 0.340072 0.19502427 0.00037162006 -0.05343905
-0.21245709 0.14192902 -0.03216005 0.11203255 -0.18258819 -0.057083733 -0.059458587 0.010863625
0.06858149 -0.029419241 0.031247476 0.18191859 -0.08395468 -0.20931983 0.35933387 0.1236427
-0.08670764 -0.18009529 0.029322967 0.17950864 -0.15260643 0.07678147 0.28473353 -0.10752329
00000000: f451 e73d da19 c93d 297a 4f3e 737e 843d
00000010: 20ea b0bd eaab b6ba 376d 1ebe eaf0 983d
00000020: 600e b83d a087 f8bd 6fab 823d 0568 1c3e
00000030: cd79 83be f313 4e3e e3e3 e8bd 4935 1a3e
00000040: b4d4 0dbe 32f9 f3bd dc61 053d 4109 58bd
00000050: 9f78 123e dba1 7abe 3378 803d f486 7bbe
00000060: eda5 c83d 31de 723e 8fde 893e 9eee 033c
00000070: 230d 183e 1a1f 0e3e a442 003d 1c56 393d
00000080: ec76 573d ce4c debd 019b 6c3e 2d09 473e
00000090: 647a 24be 468f 583d 0816 a23d 1d70 d0bc
000000a0: bca1 49be 244b e1bd 3cd9 06bd 7548 33be
000000b0: 36aa 49be 943c c9bd 1928 333d 35f9 413e
000000c0: 829a bd3d cda6 653e f614 ad3d f4d0 6f3d
000000d0: c0d2 09be 7348 27be 7978 c0ba c8cb 093d
000000e0: 7f39 223d 4d58 6ebe 847d 043e 4956 f03d
000000f0: 71e7 b43d 0d95 8abe 1b4f 353d a005 163d
00000100: a032 9cbd d7f7 fb3d fd65 ac3d 975d 573e
00000110: 84c5 b5bd eb08 473e de1c 15be 8d57 093e
00000120: bbb5 c63d c989 07be 986c 1ebc abdc c2bc
00000130: d352 043e 4de5 b5bd f6dd 6e3d 7338 593e
00000140: 7e08 e63b 1e6b 25bd 65be 15be 13b9 11bd
00000150: 136a 1ebd 8048 68be e076 e53b e8eb 08bd
00000160: cfc4 403e 8850 883c b0a1 e93d 1c77 0b3d
00000170: c1cf 52be 5167 803d 4b4d 3cbe c585 a53d
00000180: dd4b 033e 8893 40be 154a 5f3d 9b38 713b
00000190: d554 32be 5cdc 8e3d 7d0c b03e 1e1c b03d
000001a0: 05a3 043e 308c 2e3c 28a3 5dbd b3c5 183e
000001b0: 9da6 68be 0a3e ec3b ce53 e43d 5d31 29bd
000001c0: 72d0 a63c acdd a6bd e37f d23d 9fbb 4d3e
000001d0: 1f8c 81be c8e8 153e b317 123e 025f 89be
000001e0: 85e6 82bd 3615 d33d f991 6c3e 83d4 64be
000001f0: e9fd 293e 07f1 2a3e f511 75be 3888 71be
00000200: 7616 90bb 3c9f d43d 2b10 46be 2f28 4c3e
00000210: 4e69 313e 4037 7bbc 00b0 0bbe cbc7 4ebd
00000220: 5135 84bd 3477 24be bbbd 873d 3a94 eb3d
00000230: 4c62 323d 80c9 c03b 3dcd 31be ca2d bb3d
00000240: 9c39 79be 32a5 33be 1f5e 6cba 239d 90bd
00000250: e421 c33d 6401 ff3d 430e 7dbc a319 7ebe
00000260: 8862 86be fc3f ebbc 28f4 773d 72b8 e83d
00000270: 45b3 643e e1a3 2c3e 6a5d 0dbe 95a5 373e
00000280: 0f21 5e3e 1efb 57be cf73 3f3d ff70 37be
00000290: eea9 fe3d 5384 373e 3f0e 353e f962 223c
000002a0: 3c0c d7bd a861 f9bc b196 5c3e ec21 82be
000002b0: e52e a43e 7115 b33e 2090 3ebe 9903 3a3e
000002c0: db5a 6fbe 6895 fbbc f539 653e 63f7 fcbd
000002d0: ad96 4fbe 5a1e 4fbe 5dd6 8bbe a103 91bd
000002e0: a254 323e dee1 2b3e 38a1 373d 61b5 a2bd
000002f0: 4398 f83d f0ea 72bc 802f ce3d 80b7 963d
00000300: a284 04bd c4bd 463d 11bc 5ebe 27ee 4c3e
00000310: 3e29 a93d b8cc ee3c 2238 56be f8fd b03d
00000320: 044d 26be 12d5 ef3d 1de7 2dbd 81b7 313e
00000330: c8f2 3e3e 863a 2d3e 0c5e 88be 2180 123d
00000340: 05de 02be e418 103d cc00 413e 03c8 4d3e
00000350: e22f 70be c2c7 a1bd 64f7 34be 6b3c 5d3e
00000360: 4ea8 2f3d 7c33 adbd c195 e03d 914a 63be
00000370: 4574 0f3e 87d0 833d be62 8c3d 16da a1bd
00000380: 7214 44be 2956 85bd bef9 d9bd 7367 1ebe
00000390: eb1d ae3e 71b4 473e 00d6 c239 e8e2 5abd
000003a0: 5a8e 59be d755 113e 42ba 03bd 5271 e53d
000003b0: 66f8 3abe a2d0 69bd d98a 73bd 59fd 313c
000003c0: 7474 8c3d 9f00 f1bc b5fa ff3c de48 3a3e
000003d0: 6ef0 abbd f057 56be 9cfa b73e 6238 fd3d
000003e0: c693 b1bd e66a 38be b836 f03c 1dd1 373e
000003f0: dc44 1cbe 9a3f 9d3d 98c8 913e 2c35 dcbd

actor.0.bias f4 [64]
-0.001275831 -0.11432244 0.16440013 0.11047108 -0.12696782 -0.13063821 -0.06754824 0.15511246
0.1685172 -0.15712297 0.16236153 -0.24612564 -0.03362602 0.05698697 -0.119517185 0.014212696
-0.13980407 0.11472154 0.025886294 -0.06528651 -0.02346934 -0.004951626 0.020280264 -0.19100231
-0.078489974 0.19645229 -0.08251032 0.16230634 0.12988786 -0.0060240175 -0.19137685 -0.17296813
-0.008503201 -0.15370804 -0.08359401 0.17029168 0.01125315 0.07859467 -0.13035202 -0.13908328
-0.19578306 -0.07412138 0.02535451 0.12773985 -0.09132881 0.17668673 0.12707312 0.13656636
0.05762924 0.27679527 0.13005172 0.015906127 0.03018578 -0.066861615 -0.100447714 -0.14505105
0.23815568 0.17279622 -0.05596342 -0.019382425 -0.18658738 0.124945186 -0.0023370017 -0.08207865
00000000: c939 a7ba e221 eabd 8258 283e a93e e23d
00000010: da03 02be 06c6 05be bb56 8abd cdd5 1e3e
00000020: c68f 2c3e d8e4 20be 1a42 263e 5c08 7cbe
00000030: 70bb 09bd 2b6b 693d 6dc5 f4bd 5edc 683c
00000040: cc28 0fbe 20f3 ea3d 7e0f d43c efb4 85bd
00000050: c642 c0bc 4041 a2bb cc22 a63c 1c96 43be
00000060: 5abf a0bd ca2a 493e 2cfb a8bd a233 263e
00000070: 5301 053e 1f65 c5bb 4bf8 43be 8f1e 31be
00000080: 0351 0bbc a465 1dbe 5633 abbd f160 2e3e
00000090: 225f 383c 3ef6 a03d 007b 05be d96b 0ebe
000000a0: 5b7b 48be f3cc 97bd 43b4 cf3c 3cce 023e
000000b0: 990a bbbd 5eed 343e 751f 023e 0dd8 0b3e
000000c0: a30c 6c3d 1cb8 8d3e 472c 053e 914d 823c
000000d0: 2b48 f73c beee 88bd 88b7 cdbd 4388 14be
000000e0: 15df 733e 7ef1 303e e639 65bd e4c7 9ebc
000000f0: c310 3fbe 43e3 ff3d 6228 19bb da18 a8bd

actor.2.weight f4 [64, 64]
-0.078228086 0.08032667 -0.0717774 -0.0029642333 -0.09834468 0.08094133 -0.029255856 -0.016467316
0.020580154 -0.044784278 -0.0004058818 0.06419172 0.051475935 0.07369133 0.03178414 0.019962989
0.07328693 -0.007190339 -0.0022381574 0.011551554 0.04823785 0.010711239 -0.034730304 0.0058549275
-0.08519242 -0.09148169 0.0088131735 -0.011677243 -0.043564618 0.16517772 0.045981888 -0.04917594
0.037746884 0.043516546 -0.05324793 -0.06630329 0.006222063 0.043709144 -0.07390344 -0.030226221
0.010515577 0.08851893 -0.12566088 0.024674717 -0.063708566 0.0037927842 -0.0048450367 -0.031660777
0.021281553 -0.14859049 0.09663284 -0.11193271 -0.08659058 -0.12887292 0.07138377 -0.047254577
-0.14326721 -0.095437296 -0.078483336 0.10508034 0.09686642 0.0737852 0.061677855 0.0871884
-0.05159157 0.089031704 -0.018256497 -0.06292201 0.09444729 0.16497877 -0.002896139 0.08689441
0.051120386 -0.042467274 0.12421037 -0.031483483 0.02463549 0.04150364 -0.015383682 -0.073477976
0.066635095 -0.17035875 0.029158195 0.043502346 0.0067462507 0.07530774 0.0016242008 -0.0004194852
-0.0012354001 -0.1518038 0.04259109 -0.04115263 -0.06961166 -0.0013596634 0.086613245 0.1255939
0.0016275642 0.0055455277 -0.06606893 -0.13790414 0.041690074 -0.04963319 -0.10657285 -0.06517322
0.0131745525 0.06906503 -0.1274399 -0.16581832 0.03359934 0.057656072 0.08361159 0.013480021
0.012785336 0.09583496 0.027119698 0.040478747 0.035009865 -0.11099145 0.064830855 0.022916827
-0.1618181 -0.06596278 -0.007577531 0.045257732 -0.0009678094 -0.10791871 -0.15290304 -0.022705179
-0.04177113 0.09123447 -0.043847166 -0.051215537 0.1455221 0.10134013 -0.12118229 0.0864688
-0.15689576 0.048685297 -0.051233176 -0.049608108 0.072296664 -0.12514096 -0.12259263 0.10963611
-0.054861423 -0.117660075 0.054841638 0.07864994 0.07578173 0.057867456 -0.12135924 -0.04531591
-0.09010986 -0.014302212 0.048744142 -0.0977569 -0.045687266 -0.03111185 0.121531904 0.062200222
0.08631905 -0.08031998 0.06317826 0.109251745 -0.0701039 0.06304266 0.08405166 -0.10046272
-0.057819284 0.07252286 -0.077305816 -0.18636571 -0.06868991 0.026808148 0.043775503 -0.13144791
-0.1182423 -0.017634787 -0.11664949 0.04291194 0.013687449 0.10862941 0.046412885 0.11122448
0.0016773636 0.07851466 -0.022375528 -0.04645917 0.10243568 -0.039985836 0.10131911 0.02767552
0.057605945 0.013434236 0.039311234 -0.11799027 0.013278027 -0.007151485 0.094483115 0.08369308
0.102833934 0.0024362763 -0.028114077 0.05829577 -0.06470649 0.012051946 0.05907923 0.08192778
0.023990858 0.1480594 -0.02557594 0.05282518 -0.13505737 -0.071372464 0.062072318 0.005462587
0.048003595 0.025048317 -0.11554088 -0.026888 -0.10705259 -0.10705316 -0.0508336 -0.07151643
-0.049857847 0.0460119 0.10956895 0.13444966 -0.040002335 -0.069976546 -0.06597785 0.14523591
-0.085783854 0.08266251 -0.020459464 0.082474574 -0.06264823 0.031306416 0.08854646 -0.031513575
0.109127596 -0.024952218 -0.05130726 0.0879192 0.13717824 -0.059340183 -0.09834794 -0.113896325
0.10374137 0.024919525 -0.059098054 0.11171164 0.03702308 0.035874154 -0.036305916 -0.06223505
00000000: 0c36 a0bd 4f82 a43d 0800 93bd 9543 42bb
00000010: f068 c9bd 91c4 a53d faa9 efbc 77e6 86bc
00000020: b697 a83c b86f 37bd 88cc d4b9 f376 833d
00000030: 6ed8 523d 7beb 963d 1630 023d 6c89 a33c
00000040: 7517 963d ef9c ebbb 0dae 12bb bb42 3d3c
00000050: 0d95 453d 317e 2f3c 5d41 0ebd b1da bf3b
00000060: 5d79 aebd c15a bbbd 2165 103c e851 3fbc
00000070: d070 32bd 5924 293e 8157 3c3d b66c 49bd
00000080: 7a9c 1a3d 683e 323d 801a 5abd 05ca 87bd
00000090: 73e2 cb3b 5c08 333d b05a 97bd fb9c f7bc
000000a0: 8749 2c3c 6a49 b53d 3fad 00be a222 ca3c
000000b0: a379 82bd 5c90 783b 1dc3 9ebb bbae 01bd
000000c0: a756 ae3c 1b28 18be 70e7 c53d fa3c e5bd
000000d0: 6756 b1bd 43f7 03be a731 923d 048e 41bd
000000e0: a4b4 12be a174 c3bd dfbb a0bd 5c34 d73d
000000f0: e761 c63d b21c 973d eba1 7c3d d58f b23d
00000100: af51 53bd 4156 b63d a68e 95bc 41dd 80bd
00000110: 956d c13d 32f0 283e 26cd 3dbb b2f5 b13d
00000120: 9c63 513d 2af2 2dbd 0262 fe3d d3f4 00bd
00000130: 5ed0 c93c b9ff 293d d70b 7cbc 9f7b 96bd
00000140: fb77 883d 8672 2ebe 2bdd ee3c 842f 323d
00000150: a70f dd3b f23a 9a3d 23e3 d43a 5aee dbb9
00000160: 26ed a1ba 7572 1bbe ff73 2e3d a98f 28bd
00000170: 8f90 8ebd bc36 b2ba 4962 b13d b09b 003e
00000180: fe53 d53a 42b7 b53b 264f 87bd be36 0dbe
00000190: 36c3 2a3d 2c4c 4bbd de42 dabd 8a79 85bd
000001a0: 14da 573c f771 8d3d 9b7f 02be 47cc 29be
000001b0: 769f 093d c628 6c3d 8e3c ab3d 4edb 5c3c
000001c0: 9679 513c 1f45 c43d 212a de3c 0bcd 253d
000001d0: 8166 0f3d 7c4f e3bd 0ac6 843d 12bc bb3c
000001e0: a5b3 25be 7e17 87bd f04c f8bb 2c60 393d
000001f0: 97b4 7dba 7c04 ddbd 9d92 1cbe 3600 babc
00000200: 3418 2bbd 23d9 ba3d 1699 33bd 62c7 51bd
00000210: bf03 153e 6a8b cf3d 6c2e f8bd 8e16 b13d
00000220: 48a9 20be 3c6a 473d e1d9 51bd df31 4bbd
00000230: 4610 943d f424 00be d811 fbbd e688 e03d
00000240: 5fb6 60bd c4f7 f0bd a0a1 603d 3813 a13d
00000250: 7433 9b3d 6d06 6d3d 318b f8bd 2d9d 39bd
00000260: 858b b8bd d353 6abc f0a7 473d c534 c8bd
00000270: 9222 3bbd 47de febc b8e5 f83d a9c5 7e3d
00000280: 0bc8 b03d cd7e a4bd 9b63 813d 61bf df3d
00000290: a292 8fbd 831c 813d 4723 ac3d 66bf cdbd
000002a0: ead3 6cbd dd86 943d 8352 9ebd a7d6 3ebe
000002b0: 4cad 8cbd c39c db3c f14d 333d 489a 06be
000002c0: 0529 f2bd d476 90bc eee5 eebd 6ec4 2f3d
000002d0: 5241 603c 1979 de3d 701b 3e3d a9c9 e33d
000002e0: fcda db3a 4bcc a03d e24c b7bc f84b 3ebd
000002f0: ccc9 d13d 30c8 23bd 6580 cf3d c6b7 e23c
00000300: 36f4 6b3d 451b 5c3c d104 213d e2a4 f1bd
00000310: 158c 593c 0157 eabb 5d80 c13d 4767 ab3d
00000320: 999a d23d efa9 1f3b 7e4f e6bc 8cc7 6e3d
00000330: d684 84bd 8675 453c 10fd 713d c0c9 a73d
00000340: 7a88 c43c e29c 173e a284 d1bc 375f 583d
00000350: 7b4c 0abe ba2b 92bd 8b3f 7e3d 80ff b23b
00000360: 6b9f 443d 2132 cd3c b2a0 ecbd 3944 dcbc
00000370: 633e dbbd b03e dbbd e536 50bd 3577 92bd
00000380: be37 4cbd f976 3c3d b065 e03d 2cad 093e
00000390: 7dd9 23bd dd4f 8fbd 651f 87bd b9b8 143e
000003a0: 72af afbd f64a a93d 9b9a a7bc 6ee8 a83d
000003b0: b74d 80bd 283b 003d d957 b53d 6114 01bd
000003c0: 4a7e df3d 9868 ccbc 9027 52bd fb0e b43d
000003d0: 7478 0c3e b10e 73bd a56a c9bd 7a42 e9bd
000003e0: 5b76 d43d 0824 cc3c cd10 72bd 13c9 e43d
000003f0: 83a5 173d c7f0 123d 83b5 14bd 2eea 7ebd

actor.2.bias f4 [64]
-0.12602395 0.07452162 0.10625751 0.05236571 -0.0815837 -0.044966586 -0.027473304 -0.11723812
0.12757012 0.005215394 -0.042134535 0.05621927 0.036454435 0.1197253 -0.09186525 0.10393237
0.046744615 0.0949559 -0.088269934 0.079028785 0.08709252 -0.09896488 -0.025125863 0.01992529
-0.13059923 -0.029267758 -0.08317627 -0.021031823 0.00929991 0.059111103 0.035693254 -0.041578718
-0.089673206 -0.10808287 0.038054124 0.11199477 -0.13020778 -0.12020773 -0.08353013 -0.1394438
-0.055952787 0.0031170947 -0.052528694 0.044425707 0.11436305 -0.0012475359 -0.014324592 0.034352634
-0.048119385 -0.051733013 0.042719625 0.078081876 0.036124133 0.071172565 0.00029230205 -0.02972225
0.0039566327 -0.06673427 0.011147144 0.001978965 -0.0043596094 -0.102763146 -0.07475711 -0.012760031
00000000: 6c0c 01be cb9e 983d 8a9d d93d 6d7d 563d
00000010: 5b15 a7bd e22e 38bd b20f e1bc 8a1a f0bd
00000020: bea1 023e e5e5 aa3b 4395 2cbd 2d46 663d
00000030: 3f51 153d 8a32 f53d d923 bcbd 7fda d43d
00000040: 4877 3f3d 3d78 c23d dec6 b4bd d8d9 a13d
00000050: 905d b23d 19ae cabd c1d4 cdbc 5d3a a33c
00000060: cebb 05be f0c2 efbc 5258 aabd ee4a acbc
00000070: a65e 183c 7c1e 723d 1733 123d 724e 2abd
00000080: 96a6 b7bd 8d5a ddbd a4de 1b3d 845d e53d
00000090: 3055 05be 782f f6bd d811 abbd 5bca 0ebe
000000a0: c02e 65bd 2c48 4c3b 5428 57bd bbf7 353d
000000b0: 2d37 ea3d 5c84 a3ba b2b1 6abc 59b5 0c3d
000000c0: d518 45bd ffe5 53bd c6fa 2e3d 64e9 9f3d
000000d0: e6f6 133d ecc2 913d 1e40 9939 137c f3bc
000000e0: a4a6 813b faab 88bd 83a2 363c 86b1 013b
000000f0: 0edb 8ebb 7c75 d2bd 411a 99bd 730f 51bc

actor.4.weight f4 [2, 64]
-0.027530478 0.017711608 0.100078695 -0.016212683 -0.11669426 -0.09829891 -0.049313772 0.04358218
-0.09124821 -0.11191014 -0.022044292 -0.09448101 0.016727805 0.072070174 0.016707249 0.074187346
0.069219425 -0.0042775925 -0.031583235 0.054544095 0.12357269 -0.10444033 -0.039411593 0.09459344
0.05190016 0.08753046 -0.058250755 -0.10939704 0.084737495 -0.0990938 0.12754449 -0.03011516
0.04704915 -0.0246872 0.03188904 0.09119236 -0.034776296 -0.030083487 -0.048215237 0.028928878
-0.11127799 -0.0114354845 -0.055006366 0.10229367 -0.110410154 -0.058359113 0.083427526 0.051490173
0.09170847 0.09690554 -0.04638892 -0.046989102 0.10047962 -0.031628933 -0.049205836 -0.02409976
-0.017241988 0.06381253 0.041929748 -0.054130387 -0.01870175 0.03767248 0.06270672 -0.096000195
0.05681085 0.1194552 0.10951347 -0.04427594 0.098516 0.124202736 0.0025838723 0.04788733
-0.04649511 -0.09663286 0.11797341 -0.059179515 0.02826573 -0.08195635 -0.01981619 0.0061190003
-0.13405217 -0.028268196 0.014854824 -0.034221847 0.033547346 0.03515022 0.09371699 -0.097997755
0.067990415 -0.02382049 -0.11035408 0.07280076 -0.10132471 0.11010679 -0.112086505 0.06053071
-0.018468255 0.04633012 -0.060788535 -0.029562756 0.115240455 0.05092896 0.07771718 0.06421536
0.1278304 0.067751914 0.1205612 -0.107452415 -0.032258183 -0.12756906 -0.007726152 0.0064354264
0.03087938 -0.048307136 -0.014504003 0.041446496 0.063024335 -0.087974794 -0.061181445 0.061150353
0.015695618 0.035952937 0.009623325 0.018672014 -0.03862278 -0.025736427 -0.07150349 0.05144286
00000000: 9987 e1bc ef17 913c 0ff6 cc3d 76d0 84bc
00000010: 66fd eebd f050 c9bd 3dfd 49bd 3a83 323d
00000020: 57e0 babd 2531 e5bd 3b96 b4bc 437f c1bd
00000030: c008 893c 8799 933d a4dd 883c 89ef 973d
00000040: eac2 8d3d 0c2b 8cbb 6c5d 01bd a169 5f3d
00000050: ae13 fd3d d0e4 d5bd 0d6e 21bd 35ba c13d
00000060: 4395 543d 2b43 b33d 5898 6ebd 8e0b e0bd
00000070: da8a ad3d b1f1 cabd 069b 023e 11b4 f6bc
00000080: 9cb6 403d d03c cabc 159e 023d 0fc3 ba3d
00000090: 9771 0ebd a571 f6bc 577d 45bd 41fc ec3c
000000a0: b7e5 e3bd e65b 3bbc 5b4e 61bd 587f d13d
000000b0: b81e e2bd f709 6fbd 0ddc aa3d 5ce7 523d
000000c0: a6d1 bb3d 6976 c63d 4f02 3ebd a577 40bd
000000d0: 42c8 cd3d 578d 01bd 0f8c 49bd dc6c c5bc
000000e0: 123f 8dbc 25b0 823d 87be 2b3d d3b7 5dbd
000000f0: 6a34 99bc 754e 1a3d 616c 803d c09b c4bd
00000100: 7eb2 683d eea4 f43d 9948 e03d b05a 35bd
00000110: c2c2 c93d 015e fe3d 2f56 293b 8125 443d
00000120: a871 3ebd 73e7 c5bd 0b9c f13d 3866 72bd
00000130: 888d e73c bbd8 a7bd 9055 a2bc e581 c83b
00000140: f944 09be b492 e7bc a661 733c 352c 0cbd
00000150: f168 093d adf9 0f3d b1ee bf3d 0cb3 c8bd
00000160: 8f3e 8b3d 3023 c3bc 5201 e2bd 9118 953d
00000170: 5483 cfbd ab7f e13d 9c8d e5bd 0def 773d
00000180: bd4a 97bc a7c4 3d3d 66fd 78bd 982d f2bc
00000190: 3003 ec3d e39a 503d 2f2a 9f3d 5883 833d
000001a0: f9e5 023e 84c1 8a3d cae8 f63d 0310 dcbd
000001b0: 2821 04bd 77a1 02be a92b fdbb 45e0 d23b
000001c0: c1f6 fc3c b4dd 45bd 33a2 6dbc cdc3 293d
000001d0: e712 813d 212c b4bd 6599 7abd cb78 7a3d
000001e0: 1994 803c 6343 133d 27ab 1d3c 0df6 983c
000001f0: ec32 1ebd 33d5 d2bc 6c70 92bd c0b5 523d

actor.4.bias f4 [2]
0.052381363 0.1085916
00000000: d78d 563d 4665 de3d

critic.0.weight f4 [64, 18]
-0.16251233 -0.18257876 -0.47310016 -0.089583345 -0.32500666 -0.121843986 0.13726442 0.29809836
0.030163897 0.030030813 -0.23397887 -0.2686834 0.13112159 -0.036667615 -0.18470494 -0.1267845
-0.14743006 -0.22500668 0.12164838 -0.043878876 -0.4413135 -0.05751141 -0.042173274 0.07692629
0.110961385 0.27823427 -0.1577329 0.15268789 0.18250768 -0.099919505 -0.03329717 -0.18128365
0.16496159 0.1313927 -0.029250816 0.01817371 0.053006127 0.07542332 -0.7787049 0.16838537
0.14257108 -0.25171095 -0.012573576 0.055136666 0.020104794 -0.07735527 0.049067006 -0.09618981
-0.20134856 -0.14995798 0.23024599 0.22502677 0.23418356 0.051901773 0.21258537 -0.30791637
0.26481184 0.13139506 -0.14057271 -0.16274264 0.299307 0.09024152 0.14381929 0.18106997
0.04909905 0.0034167562 -0.20534427 -0.13008091 0.07779311 0.21893515 -0.005712077 -0.112859
0.24988405 0.23975965 0.23274186 0.15400596 0.25277004 -0.23222798 -0.23201142 0.13196513
0.17875898 -0.30100372 0.2950225 -0.09543318 -0.38259065 0.11434312 0.22393696 -0.18106918
-0.12886846 -0.1855342 -0.063765995 -0.23288052 0.46123055 0.22195046 0.16747251 0.04335827
-0.08887887 -0.28238678 -0.16785076 0.09720911 0.25722265 0.061924737 -0.17756732 -0.23356767
0.0019614846 0.19820859 0.12800957 -0.09091261 0.026736306 -0.23853362 -0.66718054 0.106870145
-0.18102795 -0.28947037 0.11722072 0.043447126 0.19082989 0.14523149 -0.13561216 0.025152378
-0.09981165 0.01568301 0.214206 -0.09925018 0.19614033 -0.12162235 -0.11035489 0.11086998
0.551521 -0.05481651 0.33490396 0.09949165 0.04455689 -0.0040886533 -0.11816163 -0.21735224
0.26178703 0.2258449 -0.14864731 0.014020264 0.07844223 -0.14734077 0.0010092705 -0.11942287
0.12514113 0.079097554 -0.32981643 0.2253453 0.030629708 0.15055847 -0.040626124 -0.006560001
-0.14416331 -0.11605007 0.107921325 -0.16008453 -0.14986116 0.19719295 0.21799485 0.16148548
-0.06771262 -0.06724881 -0.11530048 -0.19281822 0.31390414 0.100861184 -0.011955428 0.08552706
0.15135503 -0.034485582 0.11543005 -0.13571948 0.08176569 0.32786006 -0.1577309 -0.026456416
-0.16426834 -0.061236814 -0.03378564 -0.014880389 0.03145519 0.08531179 -0.8197735 0.02451063
-0.0051878286 0.11036762 0.099444464 -0.0071467557 0.08353145 0.18908185 0.12855928 0.060682658
0.09097821 -0.18111557 0.097754136 -0.17144135 -0.13523297 -0.037441656 0.16274539 0.14989746
-0.8970203 0.10735317 0.06997906 -0.18093385 -0.01324848 0.075059935 0.14730304 0.13334699
-0.09477634 0.20394474 0.27136075 0.0774502 0.10734911 -0.10656634 0.22217683 -0.13344656
0.41230282 -0.06698216 0.8735416 0.08490592 -0.18090001 0.24672328 0.07433832 0.058084026
0.1749997 0.030481484 0.24369302 -0.1085738 -0.07096518 -0.12791009 -0.012844086 -0.0070920438
0.025790915 -0.22861159 0.10514777 -0.19499095 0.33675715 0.07733556 0.12823506 0.20974645
-0.27463114 -0.0405191 0.010706756 -0.012970543 0.025662359 -0.047104765 -0.11356984 0.22348844
-0.0016625524 -0.0736991 0.21348085 0.11779593 -0.11910889 0.19394112 -0.72148776 0.04300116
00000000: a269 26be edf5 3abe 2f3a f2be 7977 b7bd
00000010: 4667 a6be 5789 f9bd 0b8f 0c3e 59a0 983e
00000020: 471a f73c 2e03 f63c 2898 6fbe df90 89be
00000030: bd44 063e c830 16bd 4b23 3dbe ccd3 01be
00000040: e8f7 16be 2768 66be c922 f93d 56ba 33bd
00000050: d8f3 e1be 1691 6bbd e2bd 2cbd 888b 9d3d
00000060: b93f e33d b974 8e3e bc84 21be 375a 1c3e
00000070: 4be3 3a3e 99a2 ccbd 9d62 08bd 6ca2 39be
00000080: b1eb 283e cf8b 063e 689f efbc 08e1 943c
00000090: f41c 593d 8b77 9a3d 3459 47bf 376d 2c3e
000000a0: 27fe 113e 42e0 80be 6601 4ebc fcd6 613d
000000b0: cfb2 a43c 716c 9ebd 7cfa 483d 2aff c4bd
000000c0: 512e 4ebe 968e 19be 9bc5 6b3e 6b6d 663e
000000d0: d1cd 6f3e f496 543d fbaf 593e 37a7 9dbe
000000e0: 6b95 873e 6d8c 063e 4bf2 0fbe 02a6 26be
000000f0: c43e 993e 8cd0 b83d 5d45 133e 686a 393e
00000100: 161c 493d a8eb 5f3b c545 52be ee33 05be
00000110: fe51 9f3d 8930 603e 602c bbbb 9f22 e7bd
00000120: 9be1 7f3e 8e83 753e e253 6e3e bdb3 1d3e
00000130: 136b 813e 2ccd 6dbe 6794 6dbe de21 073e
00000140: 980c 373e 291d 9abe 300d 973e 7972 c3bd
00000150: ece2 c3be ba2c ea3d bb4f 653e 336a 39be
00000160: 18f6 03be adfc 3dbe bf97 82bd 3b78 6ebe
00000170: 6926 ec3e fb46 633e ea7d 2b3e 7198 313d
00000180: 2006 b6bd 0095 90be 12e1 2bbe 9215 c73d
00000190: b0b2 833e cba4 7d3d 35d4 35be 5d2c 6fbe
000001a0: 408c 003b 31f7 4a3e f114 033e 6430 babd
000001b0: 1906 db3c 2842 74be 58cc 2abf bcde da3d
000001c0: 645f 39be 7635 94be 6b11 f03d 9df5 313d
000001d0: e968 433e 90b7 143e eadd 0abe 5c0c ce3c
000001e0: 0d6a ccbd a879 803c d158 5b3e ae43 cbbd
000001f0: 03d9 483e 2315 f9bd bf01 e2bd cd0f e33d
00000200: 7b30 0d3f 4787 60bd 8878 ab3e 47c2 cb3d
00000210: 4981 363d 1cfa 85bb bafe f1bd 9691 5ebe
00000220: f308 863e e343 673e 0037 18be 40b5 653c
00000230: 52a6 a03d 80e0 16be 8049 843a fa93 f4bd
00000240: ff24 003e e6fd a13d b3dd a8be ebc0 663e
00000250: 27eb fa3c 002c 1a3e 9467 26bd 47f5 d6bb
00000260: 8c9f 13be a9ab edbd db05 dd3d 33ed 23be
00000270: 3475 19be f3ec 493e 0b3a 5f3e 735c 253e
00000280: eaac 8abd beb9 89bd a822 ecbd 2472 45be
00000290: 0bb8 a03e 4f90 ce3d b3e0 43bc d028 af3d
000002a0: d0fc 1a3e c140 0dbd 9766 ec3d 0cfa 0abe
000002b0: c574 a73d 46dd a73e 3684 21be 20bb d8bc
000002c0: f635 28be 74d3 7abd d062 0abd e0cc 73bc
000002d0: 28d7 003d f3b7 ae3d addc 51bf 84ca c83c
000002e0: a9fe a9bb 6b08 e23d 8aa9 cb3d 552f eabb
000002f0: 8912 ab3d ac9e 413e 0ba5 033e 618e 783d
00000300: c952 ba3d 5c76 39be 5233 c83d 528e 2fbe
00000310: 837a 0abe 6c5c 19bd baa6 263e b87e 193e
00000320: 1fa3 65bf fbdb db3d 2e51 8f3d b946 39be
00000330: 2710 59bc 06b9 993d 9cd6 163e 1d8c 083e
00000340: 191a c2bd e4d6 503e ccef 8a3e 369e 9e3d
00000350: dad9 db3d 743f dabd 5382 633e 37a6 08be
00000360: 5b19 d33e f12d 89bd 6ca0 5f3f 28e3 ad3d
00000370: da3d 39be 07a5 7c3e b03e 983d 84e9 6d3d
00000380: 1f33 333e 4eb4 f93c aa8a 793e f15b debd
00000390: 3156 91bd ddfa 02be 0070 52bc 6064 e8bb
000003a0: 7847 d33c 2819 6abe b757 d73d b5ab 47be
000003b0: 6f6b ac3e 1b62 9e3d 0d50 033e c6c7 563e
000003c0: 749c 8cbe 5bf7 25bd 646b 2f3c 6682 54bc
000003d0: de39 d23c edf0 40bd 4e97 e8bd 27da 643e
000003e0: 00ea d9ba 8eef 96bd b99a 5a3e fe3e f13d
000003f0: 5def f3bd 8098 463e 6cb3 38bf fc21 303d

critic.0.bias f4 [64]
0.21353444 0.1894845 -0.04094393 0.18824589 0.13396093 0.34176043 -0.022946576 -0.2068208
-0.24035469 0.29435363 -0.07815314 -0.05351049 0.18320423 0.096040264 0.02966288 0.100086786
0.22463623 0.020771895 0.0813486 0.17061174 0.022000868 0.37457788 -0.11406367 -0.27424717
0.018750025 -0.10357404 0.039917193 0.28320244 0.2329501 -0.0012202904 -0.25480896 0.044853486
-0.326968 -0.20779267 -0.46213353 -0.19057918 -0.17898063 -0.06238734 0.34324455 -0.2855887
-0.31279412 0.23771451 -0.20496228 0.11968041 0.08730403 -0.13988328 -0.26741153 -0.28367656
-0.2360003 -0.0059246183 0.088252485 0.17255154 0.0003974424 -0.16733496 0.16599432 -0.096944734
0.27311543 0.14278214 -0.40098262 -0.13243748 -0.2932544 -0.21504815 -0.38767654 0.15100645
00000000: c6a8 5a3e 3a08 423e d3b4 27bd 88c3 403e
00000010: 0e2d 093e 39fb ae3e 75fa bbbc d5c8 53be
00000020: 8a1f 76be 85b5 963e c10e a0bd d12d 5bbd
00000030: e499 3b3e c2b0 c43d 91ff f23c 4dfa cc3d
00000040: 0a07 663e d229 aa3c 189a a63d d8b4 2e3e
00000050: 2a3b b43c acc8 bf3e 379a e9bd 206a 8cbe
00000060: a799 993c a01e d4bd 3680 233d e9ff 903e
00000070: 798a 6e3e 27f2 9fba 5276 82be 4ab8 373d
00000080: 5a68 a7be 9ac7 54be c49c ecbe 3027 43be
00000090: b346 37be de89 7fbd c0bd af3e af38 92be
000000a0: 8d26 a0be 6f6b 733e a2e1 51be 011b f53d
000000b0: 75cc b23d 903d 0fbe 2aea 88be 0e3e 91be
000000c0: 10aa 71be 4d23 c2bb b8bd b43d 5ab1 303e
000000d0: d15f d039 db59 2bbe 6afa 293e f68a c6bd
000000e0: c9d5 8b3e 7b35 123e 984d cdbe b19d 07be
000000f0: 7125 96be 9535 5cbe 8a7d c6be 6fa1 1a3e

critic.2.weight f4 [64, 64]
0.07040661 0.1846691 -0.08681064 0.16115592 0.006550233 0.20312744 0.17736922 -0.04032144
-0.0015314594 0.020714462 -0.049688905 -0.075456314 0.18460529 -0.14132975 -0.05675223 0.0067172027
0.111183055 -0.056705594 -0.23042896 -0.058263842 0.05134407 0.076416925 0.0011748282 -0.038899496
-0.004046895 -0.09554942 0.14395067 0.10900385 -0.101506606 0.15371823 -0.0129069835 0.019695695
-0.05582682 -0.16168141 -0.08527494 -0.081793755 -0.1283052 -0.04180742 0.017392445 -0.15384746
-0.17254125 -0.060809787 -0.0024487607 -0.12575655 -0.05286092 0.09394317 -0.04227334 0.10823701
-0.14731762 0.058548927 0.02928783 0.17889525 -0.013062676 -0.03332123 -0.0034679282 -0.14328071
0.13270742 0.19179662 -0.21503173 -0.007782741 -0.0023995913 -0.13343361 -0.069298975 0.12801832
-0.05565746 -0.09733365 0.086690836 -0.17273884 -0.06852929 -0.2181063 -0.008942202 0.06974472
0.122273855 -0.184693 -0.08409509 0.12695755 -0.18251199 -0.024480395 -0.061417993 0.041147653
-0.084022105 -0.0842349 0.2027457 -0.019546524 -0.10483674 0.103711024 0.041712973 0.1968083
-0.11453661 0.09816556 -0.032728665 -0.2262373 -0.08268113 -0.10432796 -0.054606296 -0.051696755
0.1524737 0.065128796 0.104363754 0.11793915 0.114778206 0.16722469 -0.104480356 0.020868799
0.04493903 -0.049021732 0.16112322 -0.10142452 0.05978887 -0.18097022 0.0147020025 0.023695296
0.14700882 0.08030392 -0.050826475 -0.123668626 0.093054846 0.03304189 -0.03634013 0.09342515
-0.10418455 -0.11326111 0.16308975 0.04657876 0.090822965 0.12798642 0.027035017 0.06049032
-0.200192 -0.17547232 -0.057280183 -0.054228567 0.049685415 -0.17025696 0.00392646 0.048685458
0.080567285 -0.19150452 0.08503921 0.007171442 -0.05915754 -0.023132483 -0.10378979 -0.15691516
-0.18553442 -0.06825247 0.12490796 0.047162864 -0.11237368 0.05896241 0.18801995 0.019621542
0.06360997 0.12553646 -0.01995179 -0.22511972 0.038496204 -0.107892625 0.061326366 -0.005439785
0.039016753 0.058204398 0.15318604 0.22775024 0.027924089 0.10214478 -0.032767758 0.070364125
0.18667275 -0.12725322 0.07597755 -0.0052177315 -0.024032997 -0.03812072 0.035042785 -0.02451138
0.07160103 -0.14120121 0.08547962 -0.11657578 -0.02839882 0.19031549 -0.13195708 0.16117094
-0.11612348 -0.079030186 0.11682743 0.042243678 0.00930503 0.1766488 0.02774316 -0.1766396
0.17918105 0.09044679 -0.11149417 -0.010422115 -0.07767235 0.21859868 0.017159112 -0.011135836
-0.11359937 0.18367538 -0.07308407 -0.1751472 0.1729498 0.052255332 -0.123255596 0.1427417
0.10900192 0.12039993 -0.0579415 -0.050836425 0.106579624 0.12883611 -0.03832008 -0.19638415
-0.029200805 -0.16496414 -0.02740097 0.18326373 0.13133143 0.051289715 0.053002354 -0.000823513
-0.21528919 -0.023690892 -0.13576183 -0.24819778 -0.04387154 -0.11979772 0.16877937 -0.06938557
-0.06322319 -0.061678622 -0.06968536 0.063948534 0.012064001 0.015949098 -0.16941454 -0.023165263
-0.029400125 -0.015757378 -0.004639368 -0.0348862 -0.013822989 -0.2030194 0.14248511 -0.07376621
0.024878016 0.15444267 -0.09579252 -0.020399127 -0.13454406 -0.18518853 -0.13363783 -0.03593039
00000000: 5731 903d e619 3d3e c7c9 b1bd 0f06 253e
00000010: 56a3 d63b a400 503e 47a0 353e 1828 25bd
00000020: 40bb c8ba 60b1 a93c 9886 4bbd d788 9abd
00000030: 2b09 3d3e bfb8 10be 0775 68bd fb1b dc3b
00000040: f1b3 e33d 2044 68bd 92f5 6bbe 11a6 6ebd
00000050: 294e 523d 7a80 9c3d b1fc 993a 1455 1fbd
00000060: d19b 84bb 6aaf c3bd ce67 133e 693d df3d
00000070: b2e2 cfbd 5068 1d3e d077 53bc de58 a13c
00000080: aaaa 64bd d08f 25be a1a4 aebd 7c83 a7bd
00000090: 7062 03be 423e 2bbd 9a7a 8e3c 308a 1dbe
000000a0: a7ae 30be af13 79bd 637b 20bb 53c6 00be
000000b0: b184 58bd 4765 c03d cf26 2dbd 5eab dd3d
000000c0: 6eda 16be 00d1 6f3d 08ed ef3c 5130 373e
000000d0: d604 56bc d87b 08bd 2e46 63bb 2eb8 12be
000000e0: 74e4 073e 5566 443e 4731 5cbe 5d06 ffbb
000000f0: 7642 1dbb d2a2 08be 9fec 8dbd 3c17 033e
00000100: 14f9 63bd dd56 c7bd f78a b13d 73e2 30be
00000110: 1659 8cbd 4257 5fbe 5082 12bc 52d6 8e3d
00000120: b76a fa3d 2920 3dbe 0c3a acbd 2901 023e
00000130: 6ce4 3abe 1c8b c8bc 6f91 7bbd 718a 283d
00000140: c813 acbd 5983 acbd 929c 4f3e 0820 a0bc
00000150: a5b4 d6bd 7266 d43d 39db 2a3d 1d88 493e
00000160: 2c92 eabd 060b c93d 7e0e 06bd c0aa 67be
00000170: b954 a9bd e6a9 d5bd daaa 5fbd fabf 53bd
00000180: 1122 1c3e 3f62 853d aabc d53d 158a f13d
00000190: d610 eb3d f33c 2b3e ccf9 d5bd 0bf5 aa3c
000001a0: fd11 383d 03cb 48bd 7cfd 243e a9b7 cfbd
000001b0: 2de5 743d 4250 39be abe0 703c a31c c23c
000001c0: 7b89 163e 6276 a43d 6c2f 50bd fa45 fdbd
000001d0: 8a93 be3d ef56 073d 63d9 14bd af55 bf3d
000001e0: b65e d5bd 71f5 e7bd 0001 273e 5fc9 3e3d
000001f0: 6401 ba3d df0e 033e 8a78 dd3c b3c4 773d
00000200: 22ff 4cbe 04af 33be a09e 6abd c61e 5ebd
00000210: ef82 4b3d d757 2ebe 89a9 803b 676a 473d
00000220: 7600 a53d c319 44be 0a29 ae3d 6afe ea3b
00000230: 2d4f 72bd 5580 bdbc be8f d4bd 5eae 20be
00000240: bcfc 3dbe f3c7 8bbd bfcf ff3d d92d 413d
00000250: 2c24 e6bd 9182 713d 4d88 403e 5bbd a03c
00000260: f245 823d a18c 003e f071 a3bc c985 66be
00000270: 32ae 1d3d cff6 dcbd 5b31 7b3d 3940 b2bb
00000280: 08d0 1f3d bc67 6e3d cddc 1c3e 5c37 693e
00000290: 0fc1 e43c 4831 d13d 7c37 06bd 111b 903d
000002a0: 2427 3f3e ab4e 02be 1e9a 9b3d 81f9 aabb
000002b0: d9e0 c4bc 7924 1cbd 0689 0f3d 17cc c8bc
000002c0: 90a3 923d 0d97 10be f00f af3d 48bf eebd
000002d0: a4a4 e8bc 10e2 423e c21f 07be ff09 253e
000002e0: 26d2 edbd 94da a1bd 3843 ef3d b507 2d3d
000002f0: 2074 183c 6ce3 343e a045 e33c 03e1 34be
00000300: 3d7b 373e 2b3c b93d 0e57 e4bd 85c1 2abc
00000310: ae12 9fbd 55d8 5f3e 4491 8c3c 1573 36bc
00000320: c9a6 e8bd 6615 3c3e 1aad 95bd ca59 33be
00000330: c119 313e b009 563d 6e6d fcbd e12a 123e
00000340: 663c df3d 3d94 f63d 1154 6dbd db39 50bd
00000350: 6b46 da3d 9ded 033e 84f5 1cbd ed18 49be
00000360: 8736 efbc 5cec 28be 0078 e0bc 7da9 3b3e
00000370: bf7b 063e 2a15 523d ff18 593d 06e1 57ba
00000380: c574 5cbe 6713 c2bc 2605 0bbe 8f27 7ebe
00000390: a5b2 33bd 8258 f5bd 80d4 2c3e 061a 8ebd
000003a0: 297b 81bd b9a2 7cbd 33b7 8ebd 73f7 823d
000003b0: 16a8 453c afa7 823c 017b 2dbe 14c5 bdbc
000003c0: 88d8 f0bc 9e15 81bc d705 98bb d5e4 0ebd
000003d0: d179 62bc 51e4 4fbe 9ee7 113e bd12 97bd
000003e0: fbcc cb3c 3826 1e3e de2e c4bd 121c a7bc
000003f0: ebc5 09be 10a2 3dbe 5bd8 08be bf2b 13bd

critic.2.bias f4 [64]
0.047611896 -0.2240561 -0.13169251 0.2525361 -0.21203387 -0.10660545 0.043796517 0.012802509
-0.15463543 0.071784124 -0.2496205 0.05347563 -0.20636067 -0.068967864 0.014978487 -0.008729136
-0.17943652 0.019273933 -0.14324619 0.21898478 -0.11768727 -0.16559534 0.015666828 -0.16677687
0.14788991 0.020304825 -0.0880362 0.2620356 0.23437303 -0.23581171 -0.123721145 -0.22500803
-0.14169759 -0.005944347 0.030707266 0.23047473 0.18779522 -0.037310682 0.19931893 0.14975484
0.21503519 0.12686534 0.01613473 0.16782823 -0.07211635 0.019463424 0.13032013 -0.18491194
-0.18054308 0.13410889 -0.1243996 0.04313203 0.24091695 0.021689998 -0.08066012 -0.0860842
0.03566665 0.14575933 0.08129599 0.03545578 0.1636856 0.17167498 0.1490686 -0.009955812
00000000: b104 433d f66e 65be 67da 06be 694c 813e
00000010: 681f 59be f553 dabd fa63 333d 9dc1 513c
00000020: c058 1ebe 8e03 933d 849c 7fbe 4309 5b3d
00000030: 3650 53be 063f 8dbd 5468 753c a604 0fbc
00000040: 35be 37be 5ee4 9d3c 21af 12be 8c3d 603e
00000050: 0606 f1bd d391 29be b857 803c 8ec7 2abe
00000060: 7470 173e 4e56 a63c 534c b4bd 8829 863e
00000070: 7cff 6f3e a078 71be 8361 fdbd 8168 66be
00000080: 2c19 11be ccc8 c2bb ce8d fb3c 9101 6c3e
00000090: 644d 403e 16d3 18bd 431a 4c3e 5559 193e
000000a0: 2f32 5c3e fde8 013e fb2c 843c 2adb 2b3e
000000b0: bdb1 93bd c271 9f3c a472 053e 8e59 3dbe
000000c0: 49e0 38be d753 093e 38c5 febd 36ab 303d
000000d0: efb2 763e 39af b13c 2231 a5bd ea4c b0bd
000000e0: 3117 123d ef41 153e 837e a63d 143a 113d
000000f0: 339d 273e 91cb 2f3e 70a5 183e b41d 23bc

critic.4.weight f4 [1, 64]
-0.17253228 0.17871594 0.16786836 -0.23386472 0.2592857 -0.3351029 -0.17131512 -0.3399985
0.24642433 -0.17702328 0.1964678 0.20870881 0.24481598 0.21163072 -0.32252884 -0.23283315
0.29624596 -0.19046178 0.17641985 -0.15023929 0.20453507 0.25591254 0.2911548 0.3977602
-0.20388542 -0.33938888 0.12726192 -0.15593073 -0.25609657 0.14221916 -0.40978146 0.16461134
0.27115613 0.14715606 0.2948902 -0.11467196 -0.29342732 0.2601956 -0.14385174 0.4063485
-0.22085324 -0.15410505 0.21627574 -0.25592634 -0.17465414 -0.18659416 -0.20537809 0.20895943
0.1789248 -0.14463237 0.19876812 0.17668913 -0.21391736 0.25264767 0.2993808 0.159867
-0.18993343 0.45570233 -0.20080794 0.2903845 -0.25116017 -0.12298441 -0.20483865 0.2138488
00000000: 4dac 30be 5001 373e afe5 2b3e 3c7a 6fbe
00000010: 18c1 843e 9b92 abbe 3b6d 2fbe 4914 aebe
00000020: a956 7c3e 9745 35be db2e 493e c3b7 553e
00000030: 0ab1 7a3e b9b5 583e 8022 a5be d06b 6ebe
00000040: 8dad 973e 6a08 43be 68a7 343e 54d8 19be
00000050: a471 513e f806 833e 3e12 953e 3aa7 cb3e
00000060: 57c7 50be 61c4 adbe f350 023e 4eac 1fbe
00000070: 171f 83be e6a1 113e e0ce d1be e08f 283e
00000080: fad4 8a3e 14b0 163e d9fb 963e 22d9 eabd
00000090: 1b3c 96be 5c38 853e df4d 13be e90c d03e
000000a0: 5a27 62be b7cd 1dbe 6377 5d3e c708 83be
000000b0: 89d8 32be 8a12 3fbe a24e 52be 76f9 553e
000000c0: 1038 373e 821a 14be df89 4b3e ffed 343e
000000d0: 270d 5bbe 095b 813e 7148 993e 2db4 233e
000000e0: e97d 42be d151 e93e 99a0 4dbe 47ad 943e
000000f0: 1198 80be 40df fbbd 39c1 51be 2efb 5a3e
