models/ultimate_sniper_v3/ultimate_sniper_v3_best.pth (torch, 48498 bytes, 11 tensors)

actor.0.weight f4 [64, 18]
0	0xbda2f0a5	-0.079560556
1	0xbe03d63c	-0.12874693
2	0x3bbabf48	0.005699072
3	0xbe203965	-0.15646894
4	0xbed50d13	-0.41611537
5	0xbda3d0e8	-0.0799883
6	0xbe32db17	-0.17466389
7	0xbde56d96	-0.112025425
8	0xbe8e2f22	-0.27770334
9	0xb7094fbc	-8.184401e-06
10	0xbdc61095	-0.096711315
11	0xbe650d3b	-0.22368328
12	0xbc015910	-0.007894769
13	0xbe663bbf	-0.22483729
14	0x3e636e07	0.22209941
15	0xbdb506ac	-0.08839163
16	0x3dffa532	0.124826804
17	0xbddd763c	-0.10813567
18	0xbe8a65ec	-0.27030885
19	0x3e07e7dd	0.13272043
20	0xbe072aa9	-0.13199867
21	0x3e7cc078	0.24682796
22	0xbeb91e46	-0.3615591
23	0x3dbbcef5	0.09170333
24	0xbde588cb	-0.11207732
25	0x3e433988	0.19064915
26	0x3dc041a6	0.093875214
27	0x3e6cec07	0.23136912
28	0xbdec3fc0	-0.11535597
29	0xbdeca2c4	-0.115544826
30	0xbdc1f052	-0.094696656
31	0x3d2ac3cc	0.041690633
32	0x3d89c38a	0.06726749
33	0x3dfd49f6	0.123676226
34	0x3e575689	0.21029104
35	0x3e1bec7b	0.15226929
36	0xbea4e181	-0.32203296
37	0x3e1a99a2	0.15097669
38	0x3e058867	0.13040315
39	0x3e65cb84	0.22440916
40	0xbec948c4	-0.39313328
41	0xbd3993c6	-0.045306943
42	0xbe78fee9	-0.2431599
43	0xbe1a53fd	-0.15071101
44	0xbe1e4e95	-0.15459664
45	0x3e977b15	0.29586092
46	0xbcd62fce	-0.026145842
47	0xbdcc361d	-0.09971259
48	0xbc3825cc	-0.01123948
49	0x3e17dbe7	0.1482998
50	0x3daf06c6	0.08546214
51	0xbe266746	-0.16250333
52	0xbc9f0a80	-0.019414186
53	0x3dde0682	0.10841085
54	0xbe7f6cce	-0.2494385
55	0xbe2e48cf	-0.17019962
56	0x3db6aa4b	0.089191996
57	0x3d1aa750	0.037757218
58	0xbecfe6d9	-0.4060581
59	0xbe67a6c0	-0.22622204
60	0xbe4d2efd	-0.20037456
61	0x3df36219	0.11883945
62	0xbeb71a90	-0.35762453
63	0x3da05d5a	0.078303054
64	0xbe4f8a9e	-0.20267722
65	0xbec1d2bc	-0.3785609
66	0x3c6f6a54	0.014612753
67	0x3e0e1ec7	0.13878928
68	0x3d3175ec	0.04332535
69	0xbdf173db	-0.11789676
70	0x3d948266	0.07251434
71	0xbdbc779e	-0.09202503
72	0xbe5566de	-0.20840022
73	0x3dbb0be8	0.0913313
74	0x3e0145bc	0.12624258
75	0xbde5a86c	-0.112137645
76	0xbe866a56	-0.26253003
77	0xbd9fce79	-0.078030534
78	0xbcb3b37b	-0.021936169
79	0xbd45daee	-0.04830449
80	0xbd5b1b55	-0.053492863
81	0x3ea61c7c	0.32443607
82	0x3d394907	0.04523566
83	0xbe67f4f8	-0.22652042
84	0xbd048430	-0.032352626
85	0x3dfcd2ee	0.12344919
86	0x3d26ca3c	0.04072021
87	0x3e20cbab	0.15702693
88	0x3d95de72	0.07317819
89	0xbdbd613e	-0.09247063
90	0xbdd68ab2	-0.10475673
91	0xbdeb7f54	-0.11498895
92	0x3e0c5f52	0.13708237
93	0x3d0e3839	0.034721587
94	0xbd171900	-0.036889076
95	0xbdcff140	-0.10153437
96	0x3e1985da	0.14992467
97	0xbe8c767f	-0.27434155
98	0x3dc05519	0.09391231
99	0xbd0a405c	-0.033752784
100	0xbe0be7bb	-0.13662617
101	0x3d0656ae	0.032797508
102	0x3d9e3279	0.07724471
103	0xbe71102c	-0.23541325
104	0x3db5a4b6	0.08869307
105	0x3db40d3a	0.08791585
106	0x3cede068	0.02903767
107	0xbdb5fea6	-0.08886461
108	0x3e886949	0.26642826
109	0xbd313e9e	-0.043272607
110	0x3df2bb46	0.11852126
111	0xbe7bb414	-0.24580413
112	0xbdcd131f	-0.10013413
113	0x3e2f5977	0.17123972
114	0xbc6fc400	-0.014634132
115	0xbeaa0f60	-0.33214855
116	0x3e819446	0.25308436
117	0x3d472a40	0.048624277
118	0xbc347511	-0.011014239
119	0x3da8818e	0.082278356
120	0x3e291b1f	0.16514252
121	0xbe49658e	-0.19667646
122	0xbc9ba288	-0.0189984
123	0x3cc67228	0.024224356
124	0xbe32ee4c	-0.17473716
125	0x3dec09aa	0.11525281
126	0x3d82b3a5	0.06381921
127	0xbe68f657	-0.22750221
128	0xbd56a1db	-0.05240045
129	0xbdac8fc6	-0.0842586
130	0x3c5a7731	0.0133340815
131	0x3e6774bb	0.22603123
132	0xbdf4a156	-0.11944835
133	0x3d8ae7bb	0.0678248
134	0xbe85b80e	-0.26116985
135	0x3d59f2fb	0.05321024
136	0xbe1b54be	-0.15169045
137	0xbdaf18ac	-0.08549628
138	0xbe478c91	-0.19487216
139	0xbd3cfc84	-0.046139255
140	0x3ad73200	0.0016418099
141	0xbd8e6c50	-0.06954253
142	0x3e305117	0.17218433
143	0xbde8fe10	-0.113765836
144	0x3df1b9e1	0.11803032
145	0xbb215899	-0.0024619459
146	0xbdc160ce	-0.09442292
147	0xbdc4af03	-0.09603693
148	0x3e826599	0.25468138
149	0x3e372574	0.17885381
150	0x3e29da66	0.16587219
151	0x3e480f3c	0.19537061
152	0x3e2ed9eb	0.17075317
153	0xbc3ad959	-0.011404359
154	0xbb55a7c4	-0.0032601217
155	0x3e85cf21	0.2613459
156	0x3c815c8d	0.015791202
157	0x3d3cbb14	0.04607685
158	0x3e323011	0.17401148
159	0x3da696a2	0.081342
160	0x3e108c23	0.14115958
161	0x3d90fcc6	0.07079463
162	0xbdc898f6	-0.097948
163	0xbc7fdc11	-0.015616433
164	0xbbd5c3c3	-0.0065235808
165	0xbc62a824	-0.013834033
166	0xbeddb1b1	-0.4329963
167	0xbe31a5d0	-0.17348409
168	0x3d2c9fa5	0.042144436
169	0xbd0351ff	-0.03206062
170	0xbd8a98ad	-0.06767402
171	0xbc0ea5e8	-0.008706547
172	0x3e5b8391	0.21436907
173	0xbc9045a3	-0.01761133
174	0x3d1b76f5	0.037955243
175	0x3d9aa07a	0.0755014
176	0xbdf085fa	-0.11744304
177	0xbe52dbbe	-0.20591637
178	0x3e545ae9	0.20737804
179	0xbc0b87c0	-0.008516252
180	0x3e64ff6a	0.22363058
181	0xbe4360b0	-0.19079852
182	0xbe47c9dd	-0.19510598
183	0xbbd2e04e	-0.0064354306
184	0x3e2dc28e	0.16968748
185	0x3e840969	0.2578843
186	0x3d99b639	0.07505459
187	0xbc025315	-0.007954379
188	0x3e52d895	0.20590432
189	0xbe6fb1b4	-0.23407632
190	0xbe258067	-0.16162263
191	0x3c1b6a6f	0.009485825
192	0x3ce097bf	0.027416108
193	0xbe0b45c1	-0.13600828
194	0x3c8ec1a8	0.017426327
195	0xbd8fd2d4	-0.07022634
196	0x3dbd6d5a	0.09249373
197	0xbd75b1b4	-0.059983924
198	0xbe40741f	-0.18794297
199	0x3e124181	0.142828
200	0x3d1560c9	0.036469255
201	0x3d9a9bba	0.07549234
202	0xbe5a6a77	-0.21329676
203	0xbd4d5dae	-0.050138168
204	0x3dc1a183	0.09454634
205	0x3de9a59e	0.11408542
206	0xbc308db2	-0.01077597
207	0xbe0eda83	-0.13950543
208	0x3e53b43a	0.2067422
209	0x3e853a02	0.2602082
210	0x3e049055	0.12945683
211	0x3e11eaf3	0.14249782
212	0xbd81bc46	-0.063347384
213	0xbd5c6cc4	-0.053814664
214	0x3d0c097c	0.034188733
215	0xbe33892f	-0.175328
216	0xbdab1693	-0.08353915
217	0x3d6fcd95	0.058545668
218	0xbe17a2b6	-0.14808163
219	0x3de15e6a	0.11004336
220	0x3e1b5c41	0.15171911
221	0x3e563041	0.20916845
222	0x3dafb584	0.08579543
223	0x3d6ee0b1	0.05831975
224	0x3d409394	0.04701574
225	0xbe07c75f	-0.13259648
226	0xbd0ae074	-0.03390546
227	0x3dfaf4d1	0.12253726
228	0x3d78ba96	0.060724817
229	0x3df36abe	0.11885594
230	0xbe113f9c	-0.14184421
231	0xbd8b2384	-0.067938834
232	0x3e1406c5	0.14455707
233	0x3dc32f8a	0.09530552
234	0x3cc48dc7	0.023993386
235	0x3cfb256a	0.030657489
236	0xbe6c8d1d	-0.23100705
237	0xbd4bc19e	-0.049745195
238	0x3e8a467a	0.27006894
239	0x3d6dec4d	0.058086682
240	0x3e31382e	0.17306587
241	0xbea1a1f0	-0.3156886
242	0xbdbf9631	-0.093548186
243	0x3cb3f2c5	0.021966347
244	0xbe6d9f57	-0.23205315
245	0xbe3bc0b6	-0.18335232
246	0x3e9c9686	0.3058359
247	0xbda1defe	-0.079038605
248	0x3e5f1577	0.21785532
249	0x3de37c7e	0.111077294
250	0xbe506647	-0.20351516
251	0x3e419047	0.18902694
252	0xbe7f4e5d	-0.24932237
253	0xbd11609a	-0.035492517
254	0x3cc7c0f0	0.024383992
255	0x3e2b1a34	0.16709214

actor.0.bias f4 [64]
0	0x3d8e06af	0.069348685
1	0xbd16544b	-0.03670148
2	0x3e71b44e	0.23603937
3	0x3dfb1657	0.1226012
4	0x3d5fb4bd	0.054615725
5	0x3d54a513	0.05191524
6	0x3d94f0bb	0.07272478
7	0x3cfbb924	0.03072793
8	0xbe04a29b	-0.12952654
9	0x3b37d44a	0.0028050118
10	0x3b856e04	0.004071953
11	0xbe8f3559	-0.2797039
12	0x3d57ba46	0.05266788
13	0x3e02b561	0.12764503
14	0x3e524684	0.20534712
15	0xbe7dc767	-0.24783097
16	0xbe29f53a	-0.16597453
17	0xbd4ae606	-0.049535774
18	0x3dde9296	0.10867803
19	0xbe22cb5a	-0.15897885
20	0x3dab3a91	0.0836078
21	0x3e6287a0	0.2212205
22	0x3e083a38	0.13303459
23	0xbbbaad6a	-0.005696942
24	0x3d2bc81f	0.041938897
25	0xbe3d1a1b	-0.1846699
26	0x3e05ec6c	0.13078469
27	0xbdf48653	-0.11939683
28	0xbe734e1e	-0.23760268
29	0x3d42234d	0.047396947
30	0xbe10ce3f	-0.14141177
31	0x3e179bdc	0.1480555
32	0xbbf60525	-0.0075079375
33	0x3e696459	0.22792186
34	0x3db548e2	0.08851792
35	0x3e57a1df	0.21057843
36	0xbe5b9209	-0.21442427
37	0x3d2fd1b9	0.042924616
38	0xbcf8f77a	-0.030391444
39	0x3e21d5f2	0.1580427
40	0xbd9d326c	-0.07675633
41	0x3e345ee4	0.17614323
42	0x3e46dcff	0.19420241
43	0x3e2e1a74	0.17002279
44	0x3dc2ea8f	0.09517395
45	0x3e19e5b3	0.1502903
46	0x3e49020a	0.19629684
47	0x3ddddf3e	0.10833596
48	0x3e43efa0	0.19134378
49	0x3dc5cc51	0.09658111
50	0x3e77e477	0.24208246
51	0xbe3be73a	-0.18349925
52	0xbe0b9b5c	-0.13633484
53	0x3e765923	0.2405744
54	0xbd9eb5fc	-0.077495545
55	0x3dcbeee4	0.09957674
56	0x3e29edeb	0.16594665
57	0x3de6fda6	0.11278848
58	0xbe1e9369	-0.1548592
59	0xbe14656f	-0.14491819
60	0x3e3d13fa	0.18464652
61	0xbd885745	-0.0665727
62	0xbe10128b	-0.14069574
63	0xbe565f8f	-0.2093489

actor.2.weight f4 [64, 64]
0	0x3e14fd8d	0.14549847
1	0x3d0721e2	0.032991298
2	0x3e858df5	0.26084867
3	0x3db8a1c4	0.09015229
4	0x3d499172	0.049210973
5	0x3d0290b7	0.031876292
6	0xbd86e6ca	-0.06586988
7	0x3dca9989	0.09892566
8	0xbe4d75cf	-0.20064472
9	0x3dfcf0c2	0.123506084
10	0xbe0ebf4a	-0.13940158
11	0x3dd1fbc2	0.10253097
12	0xbd92f688	-0.07175928
13	0xbdca52a0	-0.09879041
14	0x3e0a03c0	0.13477993
15	0xbe06f404	-0.13179022
16	0x3c4d65a1	0.012536437
17	0x3c355a63	0.011068913
18	0xbd04defd	-0.03243922
19	0xbcead352	-0.028665219
20	0x3d45b946	0.048272394
21	0x3cc49336	0.023995977
22	0x3ddbc76c	0.10731396
23	0xbcd39706	-0.02582885
24	0xbb5730c7	-0.003283547
25	0xbcb5d795	-0.022197524
26	0x3c42debb	0.011893923
27	0x3d71e0e3	0.05905236
28	0x3d19ef13	0.037581515
29	0x3d1acd6d	0.037793566
30	0xbd67ffb4	-0.056640342
31	0x3e0b1c2c	0.13584965
32	0x3d91ac87	0.07112985
33	0x3e8ca189	0.27466992
34	0x3dcbfc46	0.09960227
35	0xbd9d949e	-0.07694362
36	0x3e02e689	0.12783255
37	0xbe03b921	-0.1286359
38	0x3e527601	0.20552827
39	0x3e1838a0	0.1486535
40	0x3b265286	0.0025378778
41	0xbb67dea1	-0.00353805
42	0x3e751e6d	0.23937388
43	0x3e54546d	0.20735331
44	0x3d81f1d5	0.06344954
45	0xbe304554	-0.17213947
46	0x3e482c84	0.19548231
47	0xbe0b656a	-0.13612905
48	0x3aa642bb	0.0012684682
49	0xbd22b028	-0.039718777
50	0x3cab8a7b	0.020940056
51	0x3e4ab42e	0.19795296
52	0xbe1d11c7	-0.15338813
53	0xbc46f58d	-0.012143505
54	0x3c854504	0.01626826
55	0x3d6b86bd	0.057501543
56	0x3e1ef23b	0.15522091
57	0x3c969f91	0.018386634
58	0xbe4a897e	-0.19779012
59	0xbbf0c6cf	-0.0073479186
60	0xbded2d1d	-0.1158087
61	0x3e0c9a79	0.13730802
62	0xbca4cbd7	-0.02011673
63	0x3cbbd209	0.022927301
64	0x3d3f05c0	0.046636343
65	0x3dd83190	0.10556328
66	0xbdf39e97	-0.11895483
67	0x3d58bfad	0.05291717
68	0x3b43746b	0.002982403
69	0xbdb0428a	-0.08606441
70	0xbd85fc71	-0.0654229
71	0x3dc2e6fc	0.09516713
72	0x3dcd7a3d	0.10033081
73	0x3d6ea417	0.058261957
74	0xbda455a7	-0.080241494
75	0x3dcad304	0.09903529
76	0xba23f4e1	-0.00062544463
77	0xbd548b63	-0.051890742
78	0xbd2dc771	-0.04242653
79	0x3da6fc32	0.08153571
80	0x3e1363c7	0.14393531
81	0xb913ed43	-0.000141074
82	0x3ddeadb3	0.10872974
83	0x3d87d657	0.06632679
84	0x3c18e4ee	0.009331925
85	0xbbe79b35	-0.0070680627
86	0xbda0a639	-0.078442045
87	0x3ca248ee	0.019810166
88	0xbcacd64f	-0.021098284
89	0xbda5d497	-0.08097189
90	0xbdf24e1e	-0.11831306
91	0xbe04a783	-0.12954526
92	0xbe178fb7	-0.14800917
93	0x3d863e6e	0.06554876
94	0xbe2b42f4	-0.1672476
95	0xbd81c754	-0.06336847
96	0xbceb06e2	-0.028689805
97	0x3a868743	0.00102637
98	0xbdbcece2	-0.09224869
99	0x3c8d80d8	0.017273352
100	0x3e098b16	0.13431963
101	0xbd0e0bf7	-0.03467938
102	0x3a7198ee	0.0009216209
103	0xbd2db045	-0.04240443
104	0x3e186e35	0.1488579
105	0x3d715899	0.058922384
106	0xbdda606e	-0.10662924
107	0xbe11ac3a	-0.14225855
108	0xbdf80c27	-0.12111693
109	0xbded9ee4	-0.116025716
110	0xbd8d45f2	-0.06898107
111	0xbde3e528	-0.111276925
112	0x3e04be4d	0.12963219
113	0x3d9fe216	0.07806794
114	0xbd19ce1a	-0.03755007
115	0xbc51fde8	-0.012816884
116	0x3d1625e5	0.036657233
117	0x3db58520	0.08863282
118	0x3dce1edb	0.10064479
119	0x3dcfa721	0.10139299
120	0x3d7aeb31	0.061259452
121	0x3dc3246b	0.095284306
122	0x3d37b72a	0.044852413
123	0x3da1b568	0.078959286
124	0x3db890a6	0.090119645
125	0x3dbadfdc	0.09124729
126	0xbc0a5340	-0.0084427
127	0x3e054782	0.1301556
128	0x3e86131f	0.26186463
129	0x3dd6a091	0.10479844
130	0x3e330357	0.17481743
131	0x3d92caf7	0.07167619
132	0x3e5b1e07	0.21398173
133	0xbd83982f	-0.06425511
134	0xbdd9136c	-0.105994076
135	0x3d8ca4a1	0.06867338
136	0xbe02a5cf	-0.12758563
137	0x3e5cd8ee	0.21567127
138	0xbe776ac1	-0.24161817
139	0x3d3882d3	0.04504664
140	0xbdf15a5d	-0.117848136
141	0xbe07fca5	-0.1327997
142	0x3e10363d	0.1408319
143	0xbe0d5303	-0.13801198
144	0xbe11a905	-0.14224632
145	0xbe878ec5	-0.26476112
146	0x3e02bcaa	0.12767282
147	0x3d4e3aa3	0.05034889
148	0x3d28dba0	0.041225076
149	0x3e3c8af9	0.18412389
150	0xbcf39a84	-0.029736765
151	0x3d97f75e	0.074202284
152	0xbe02f724	-0.12789589
153	0xbddf29f3	-0.10896673
154	0xbe392692	-0.1808112
155	0x3d20219b	0.03909455
156	0xbe868f7f	-0.26281354
157	0xbd884f1b	-0.06655713
158	0x3c44487b	0.011980171
159	0x3da20b24	0.07912281
160	0xbca4db9d	-0.020124251
161	0x3e6243f8	0.2209624
162	0x3e64e111	0.22351481
163	0x3da051ab	0.07828077
164	0x3ba0e0bf	0.0049096043
165	0xbe1d23a8	-0.15345633
166	0x3e9090a0	0.2823534
167	0xbc972794	-0.01845149
168	0x3d8a956d	0.06766782
169	0x3dba58ef	0.09098994
170	0x3e047c02	0.1293793
171	0x3e981879	0.2970617
172	0x3dc9b84c	0.09849605
173	0xbdf5f237	-0.120090894
174	0xbc427d67	-0.011870719
175	0xbd92ef9b	-0.07174607
176	0x3d637d8d	0.055539656
177	0xbe2fdef3	-0.17174892
178	0x3e2c6ac2	0.168376
179	0x3e099d82	0.1343899
180	0xbc92645a	-0.017870117
181	0x3ce45378	0.027871832
182	0xbda4758d	-0.080302335
183	0x3e266b30	0.16251826
184	0x3da3c46e	0.0799645
185	0x3d45cad1	0.048289124
186	0xbe04c07a	-0.12964049
187	0x3df5a50d	0.119943716
188	0x3d5a2903	0.053261768
189	0x3e6b6f40	0.22991657
190	0xbd1e231f	-0.038607713
191	0xbcaf070d	-0.021365667
192	0xbc57f6c9	-0.013181397
193	0x3d05b7b0	0.03264588
194	0xbda11dd4	-0.078670174
195	0xbd366af6	-0.0445356
196	0x3dd10f1c	0.1020796
197	0x3dc306e4	0.09522799
198	0xbd293d87	-0.041318443
199	0x3d90d2f7	0.07071488
200	0x3da96149	0.08270509
201	0x3d304ddf	0.043043014
202	0xbdbd8c57	-0.09255283
203	0x3d768117	0.060181703
204	0xbd6b01d8	-0.057374805
205	0x3db2b6aa	0.08726247
206	0x3cb7bf34	0.02243004
207	0xbcfa99f3	-0.030590987
208	0xbc921a38	-0.017834768
209	0x3d91111a	0.0708334
210	0x3d7cff89	0.061767135
211	0xbdccdd56	-0.10003154
212	0xbcb18360	-0.02166909
213	0x3de304ec	0.11084923
214	0xbd5e0a8b	-0.054209273
215	0x3db63afc	0.08897969
216	0x3c4829e6	0.012217021
217	0x3d812004	0.063049346
218	0x3d3bc017	0.045837488
219	0xbdc7da6b	-0.09758457
220	0xbc2691fd	-0.010166642
221	0x3cfa10bf	0.030525563
222	0xbd329644	-0.043600336
223	0xbe04e0ac	-0.1297633
224	0x3dbf368c	0.09336576
225	0xbd78fd3a	-0.06078837
226	0x3da62612	0.0811273
227	0x3e0431d3	0.12909631
228	0x3d15b1c9	0.036546502
229	0xbe02f788	-0.12789738
230	0x3d5ceb8a	0.053935565
231	0xbd2c93ad	-0.042133022
232	0xbd2b1b7d	-0.04177426
233	0xbd39c946	-0.045357965
234	0x3dc6d11d	0.09707854
235	0xbd8f1a1b	-0.06987401
236	0x3ddac3f8	0.10681909
237	0x3d613ae3	0.0549878
238	0xbc01ff0d	-0.007934344
239	0x3dacd85d	0.084397055
240	0xbccb4e15	-0.024817506
241	0x3d9bd1a6	0.07608347
242	0x3deec05a	0.11657782
243	0x3c21f18a	0.009884248
244	0x3cff26f9	0.031146513
245	0xbd7b820d	-0.061403323
246	0xbda3560e	-0.07975398
247	0xbddb0f49	-0.10696275
248	0x3a918c79	0.0011104486
249	0x3ddeb59d	0.10874484
250	0x3d0e3e4d	0.034727383
251	0x3d0346d2	0.03204996
252	0x3d459119	0.04823408
253	0x3cdb5f63	0.026778882
254	0xbd8c898a	-0.06862171
255	0x3d83109d	0.06399653

actor.2.bias f4 [64]
0	0xbdb91631	-0.09037436
1	0xbda02806	-0.07820134
2	0x3dd39e9a	0.10332985
3	0x3cab1fce	0.02088919
4	0x3d03e71f	0.032202836
5	0x3d5c455b	0.05377708
6	0x3e092307	0.13392268
7	0x3ce5d675	0.028056363
8	0xbda6a1a9	-0.08136303
9	0x3da28850	0.07936156
10	0x3e0dde38	0.13854301
11	0x3da42cf9	0.0801639
12	0x3bc7e0a2	0.0060997764
13	0x3e0686b0	0.13137317
14	0x3d5f8900	0.054574013
15	0xbd72e617	-0.059301462
16	0xbd8944d7	-0.06702583
17	0xbcd0d11f	-0.025490342
18	0xbdacb7ea	-0.08433516
19	0xba98c603	-0.0011655692
20	0xbe01b190	-0.12665391
21	0xbda01c31	-0.07817877
22	0xbdef349c	-0.11679956
23	0xbd05c3de	-0.032657497
24	0x3e0df38f	0.13862441
25	0xbdf86b39	-0.12129826
26	0x3e0492ee	0.12946674
27	0xbdf187cc	-0.11793479
28	0xbdbfcaf4	-0.09364882
29	0xbdf8ed0d	-0.12154589
30	0xbda0b5a5	-0.07847146
31	0x3db6dfd6	0.08929412
32	0xbdc4af5e	-0.09603761
33	0xbe1bf20a	-0.1522905
34	0x3dfa2710	0.12214482
35	0x3c3bbb40	0.011458218
36	0x3d2f1b12	0.042750426
37	0xbc967cc7	-0.018370045
38	0x3d22a135	0.03970452
39	0x3d92f737	0.07176059
40	0xbdae56db	-0.0851266
41	0x3c6c8b3a	0.014437491
42	0x3d86d2aa	0.0658315
43	0xbce51bcf	-0.027967362
44	0xbe1ac54a	-0.15114322
45	0xbd8ad87f	-0.067795746
46	0x3db5d70a	0.08878906
47	0x3d857835	0.06517068
48	0x3df9ac88	0.12191111
49	0xbc03e37e	-0.008049844
50	0xbde6a289	-0.1126147
51	0x3d8001bf	0.06250333
52	0x3d499f19	0.049223993
53	0xbd2f6f51	-0.04283077
54	0xbd6a20aa	-0.057160057
55	0x3d79af74	0.06095834
56	0x3d050cd1	0.032482926
57	0x3da3e5a2	0.08002783
58	0x3dfd0ed9	0.123563476
59	0x3dbc3869	0.09190447
60	0x3e16de0e	0.14733145
61	0xbd83fab8	-0.06444305
62	0x3df4aa14	0.11946502
63	0xbdf47ad9	-0.11937494

actor.4.weight f4 [2, 64]
0	0xbca4e95e	-0.02013081
1	0x3bd1256e	0.006382636
2	0x3bdc3c55	0.0067210593
3	0x3b849fb3	0.004047358
4	0xbd56c5ed	-0.05243485
5	0x3cdcfeb4	0.02697692
6	0xbdaf03aa	-0.08545621
7	0x3d4c082d	0.049812485
8	0xbd8b13b7	-0.0679087
9	0x3d919d9b	0.07110139
10	0xbd41d05d	-0.04731785
11	0x3b9f3fd7	0.004859905
12	0x3d4eba4e	0.050470643
13	0x3d4ad21d	0.049516786
14	0x3c7460ea	0.014915684
15	0xbdacd015	-0.08438126
16	0x3b3a4d96	0.0028427592
17	0xbd9f997c	-0.07792947
18	0xbceb0da4	-0.028693028
19	0xbd6a4fa8	-0.057204872
20	0x3d88256b	0.06647762
21	0xbb42540e	-0.0029652151
22	0xbcd0e5ab	-0.02550014
23	0xbcc8d845	-0.024517188
24	0x3a0f928a	0.0005476853
25	0x3bb49064	0.0055103768
26	0x3bb5c516	0.005547176
27	0xbd9bed54	-0.07613626
28	0x3d36b015	0.04460152
29	0x3cb35519	0.021891164
30	0xbd519acd	-0.05117302
31	0x3c49d38f	0.012318506
32	0x3c2ef74f	0.01067908
33	0xbdc835fc	-0.09775922
34	0x3dd74472	0.10511102
35	0xbd07bfde	-0.033141963
36	0xbd21bb23	-0.039485108
37	0x3cf2e57c	0.029650442
38	0x3d78e069	0.06076089
39	0x3c21ecd4	0.009883124
40	0x3dd5a5b4	0.10431996
41	0xbbee64c3	-0.0072751953
42	0x3c85fe89	0.016356723
43	0x3c6895b8	0.014195852
44	0x3dac03d6	0.08399169
45	0xbd2bf193	-0.04197843
46	0xbda30317	-0.07959574
47	0xbd414f20	-0.0471946
48	0x3da5ba90	0.080922246
49	0xbdf064e2	-0.11737992
50	0x3d07c157	0.033143368
51	0x3ce155d4	0.027506746
52	0x3dcb715b	0.0993373
53	0x3cce8654	0.025210537
54	0xbc51ff54	-0.012817223
55	0xbd9eb2ed	-0.07748971
56	0x3a9eb8c0	0.0012109503
57	0xbd7bfc78	-0.06152007
58	0x3d7a913e	0.06117367
59	0x3d24ce5e	0.04023587
60	0xbbf56be0	-0.0074896663
61	0x3d0312a6	0.032000206
62	0x3d8978f1	0.06712521
63	0x3d22bd14	0.0397311
64	0xbde23988	-0.110461295
65	0x3d068a2d	0.03284662
66	0xbe0b06df	-0.1357684
67	0xbcb220e2	-0.021744195
68	0xbdb7e587	-0.08979326
69	0x3e5b3db9	0.21410264
70	0xbe33204e	-0.17492792
71	0x3d5affa3	0.05346645
72	0x3e5b3e3c	0.2141046
73	0x3d7bd62f	0.06148356
74	0xbe148e9e	-0.14507529
75	0x3e347d5c	0.17625946
76	0xbd9b8dfb	-0.0759544
77	0xbdc1b628	-0.09458572
78	0xbda959fa	-0.08269115
79	0x3e1005db	0.14064734
80	0x3e78afef	0.24285863
81	0xbdb605d8	-0.08887833
82	0xbcffc563	-0.031222051
83	0x3d840f14	0.064481884
84	0x3e4569a6	0.19278583
85	0xbdae3186	-0.085055396
86	0x3ddb359c	0.107035846
87	0xbda79774	-0.08183184
88	0xbd72b37a	-0.059253193
89	0x3bd72667	0.006565857
90	0xbd43e6df	-0.047827598
91	0x3d87e9a9	0.06636364
92	0x3d8717c7	0.06596332
93	0x3db8556b	0.09000667
94	0x3decabf6	0.115562364
95	0xbd3e8c02	-0.04652024
96	0xbe304cb3	-0.17216758
97	0x3e1c39f8	0.15256488
98	0xbe0310df	-0.12799405
99	0x3b26f412	0.0025475067
100	0xbddf1482	-0.108925834
101	0xbe3b9d7b	-0.18321793
102	0x3e0e4450	0.13893247
103	0x3caa84f5	0.020815352
104	0xbe58cac7	-0.21171103
105	0xbdbe3369	-0.092871495
106	0xbe65fa2b	-0.22458713
107	0xbd0b69c3	-0.03403641
108	0x3e1f061f	0.15529679
109	0xbd9b53af	-0.07584321
110	0xbd36334a	-0.044482507
111	0x3e5efc34	0.21775895
112	0xbe070b37	-0.13187872
113	0xbe230068	-0.15918124
114	0x3d2f2019	0.04275522
115	0x3e08277b	0.1329631
116	0x3df4ca14	0.11952606
117	0x3da296fd	0.07938955
118	0x3de02578	0.109446466
119	0x3e028ef9	0.12749852
120	0x3dbfed0b	0.09371384
121	0x3c5d4a58	0.013506494
122	0xbda1af49	-0.07894761
123	0xbdcf5011	-0.10122693
124	0xbd84664c	-0.06464824
125	0x3e2102c5	0.15723713
126	0xbd8601f5	-0.06543342
127	0x3de1f192	0.11032404

actor.4.bias f4 [2]
0	0x3d64be64	0.055845633
1	0xbdf5a9ac	-0.11995253

critic.0.weight f4 [64, 18]
0	0xbe973fd1	-0.29540876
1	0x3d504092	0.05084283
2	0x3ce5b8a3	0.028042143
3	0xbbfe6c83	-0.0077644004
4	0xbe7fc815	-0.24978669
5	0xbee39526	-0.4444973
6	0x3d74d6d4	0.05977519
7	0x3d1170d0	0.035507977
8	0xbe511ee7	-0.20421945
9	0xbde9d5de	-0.11417745
10	0x3d0e6472	0.03476376
11	0x3d899315	0.06717507
12	0x3cb0f2b4	0.021600105
13	0xbd3f5e30	-0.046720684
14	0x3d18e134	0.037324145
15	0xbd82ee8a	-0.06393154
16	0xbdea26c5	-0.11433176
17	0x3d0ec984	0.03486015
18	0x3d344cfb	0.044018727
19	0xbca2571a	-0.019816924
20	0xbe34f72a	-0.1767241
21	0xbe54a431	-0.20765759
22	0x3f8a3ea7	1.080037
23	0x3d66acb7	0.056317057
24	0x3ef975c3	0.48722658
25	0x3d49ffc0	0.049316168
26	0x3e5a7ef4	0.21337491
27	0xbd727989	-0.059197936
28	0xbdaf9556	-0.085734054
29	0xbd26845d	-0.040653575
30	0xbe008712	-0.12551525
31	0x3e02c5a9	0.12770714
32	0x3c871ab8	0.016492233
33	0x3e6c4de3	0.23076586
34	0x3d5267f4	0.05136867
35	0x3e0c1e31	0.13683392
36	0xbe6b178c	-0.22958201
37	0xbd50d8f0	-0.050988138
38	0x3ec5f555	0.38663736
39	0x3e8ec998	0.2788818
40	0xbd652cd8	-0.05595097
41	0x3a0982e3	0.0005245639
42	0x3e321875	0.17392142
43	0xbe947ef8	-0.2900312
44	0x3dd3a3b0	0.10333955
45	0xbea4ebe2	-0.32211214
46	0x3c9b1f77	0.018935902
47	0x3e5bf56d	0.21480341
48	0x3d1ca568	0.03824368
49	0xbdb5f28a	-0.08884151
50	0x3e36b5ed	0.17842837
51	0x3d63c99c	0.05561219
52	0x3dc4564a	0.09586771
53	0x3e436dfd	0.19084926
54	0xbd2ce6a6	-0.04221215
55	0x3d9f7948	0.077868044
56	0x3e9e124f	0.30873343
57	0x3dd3da6f	0.10344397
58	0xbea9ade6	-0.33140486
59	0x3b1239fe	0.0022312398
60	0x3cc1f8f4	0.02367828
61	0x3d8e8cfb	0.06960484
62	0xbd0223cc	-0.03177242
63	0xbe9a92dd	-0.30190173
64	0xbdc35651	-0.09537948
65	0x3e90f930	0.28315115
66	0xbea3d4e7	-0.3199837
67	0x3dbe462e	0.092907295
68	0x3dcbe16e	0.09955107
69	0x3c02b320	0.007977277
70	0x3e08e7bf	0.13369654
71	0xbe64a318	-0.2232784
72	0xbcf52177	-0.029923184
73	0xbd1acc27	-0.03779235
74	0x3e9946f0	0.29936934
75	0x3e7b843b	0.2456216
76	0x3ed6fdaa	0.41990405
77	0x3db79554	0.08964029
78	0xbe267b53	-0.16257982
79	0x3e1b25e6	0.15151176
80	0x3e166ed0	0.14690709
81	0x3e0cd9b1	0.13754918
82	0x3e6bf57b	0.23042862
83	0x3de76050	0.11297667
84	0xbd9a51d8	-0.07535142
85	0x3e2fcb31	0.17167355
86	0xbe37aa0e	-0.17935964
87	0xbc15cb40	-0.009142697
88	0x3e5ef9b1	0.21774937
89	0x3d0ad8ec	0.03389828
90	0x3e413a68	0.18869936
91	0x3dbd5819	0.09245319
92	0xbd533108	-0.05156043
93	0x3e4fef74	0.20306188
94	0xbec17d19	-0.37790754
95	0x3e1663af	0.14686464
96	0xbd8a692c	-0.06758341
97	0x3e1e4b2b	0.15458362
98	0xbe9abd2d	-0.30222455
99	0x3c1b09e1	0.0094628045
100	0x3df89981	0.121386535
101	0xbea62ad0	-0.32454538
102	0x3dc3fdd1	0.09569896
103	0xbd89a234	-0.06720391
104	0xbe35c125	-0.1774946
105	0xbe62de59	-0.22155131
106	0xbca7d400	-0.020486832
107	0x3c89d938	0.01682721
108	0x3e3df95a	0.18552151
109	0xbd8aa0d6	-0.06768958
110	0xbeb005f7	-0.3437955
111	0xbe812d4e	-0.25229877
112	0xba9c9e65	-0.0011949061
113	0x3e39bd39	0.18138589
114	0x3e0a56f9	0.1350974
115	0x3db9aca7	0.09066134
116	0x3d08819f	0.03332674
117	0x3e056e07	0.13030253
118	0xbd4b4993	-0.049630713
119	0xbea3c859	-0.3198879
120	0xbbe2ccb7	-0.0069213766
121	0x3deb0e76	0.114773676
122	0x3d90720a	0.07053001
123	0x3d94649e	0.07245754
124	0xbe007ade	-0.1254687
125	0x3baeb840	0.005332023
126	0xbd9dfb37	-0.07713931
127	0x3db081d7	0.08618515
128	0x3e84ca06	0.25935382
129	0xbde9e6ec	-0.11420998
130	0x3ecdb8dc	0.401801
131	0xbe4b1ff5	-0.1983641
132	0xbe125822	-0.14291432
133	0xbe096721	-0.13418247
134	0x3cacc65f	0.021090684
135	0xbdb81374	-0.089880854
136	0x3db7a920	0.08967805
137	0x3d092ac5	0.033488054
138	0x3d58475b	0.052802425
139	0xbde3563b	-0.111004315
140	0x3e310283	0.17286114
141	0xbdb41528	-0.08793098
142	0x3e18d7a5	0.14926012
143	0xbe4fec86	-0.2030507
144	0xbe7d5cf6	-0.24742493
145	0xbc118b73	-0.008883345
146	0xbe4fea17	-0.20304142
147	0x3bf9ccd5	0.007623295
148	0x3ea571ba	0.3231333
149	0xbe0fde12	-0.14049557
150	0x3e2fcda5	0.17168291
151	0x3d18b49d	0.03728162
152	0x3e309e3e	0.17247865
153	0xbe40c035	-0.18823321
154	0x3d056d05	0.032574672
155	0xbe2d9d40	-0.16954517
156	0x3e2d3fe9	0.16918911
157	0xbe4d0ae8	-0.20023692
158	0x3e0a1953	0.13486223
159	0xbca53be8	-0.020170167
160	0x3d743454	0.059620216
161	0xbe56fbcf	-0.20994495
162	0xbde719c6	-0.11284213
163	0xbddc4378	-0.10755056
164	0x3e29016f	0.16504453
165	0xbe6afbfd	-0.22947688
166	0x3e841890	0.2579999
167	0xbd200d0c	-0.039074942
168	0xbaaaa67c	-0.0013019587
169	0xbe2b82fb	-0.16749184
170	0x3ea68228	0.32521176
171	0x3dbdaa8e	0.09261046
172	0xbd9a91bc	-0.07547328
173	0x3ec8a72e	0.39190048
174	0xbe99b4f7	-0.30020878
175	0xbddaefac	-0.10690245
176	0x3d88f0a2	0.06686522
177	0x3e5d581d	0.21615644
178	0x3dd620fe	0.104555115
179	0x3e39dcaf	0.1815059
180	0xbe7aafef	-0.24481176
181	0xbc740513	-0.014893788
182	0x3e1f4c2f	0.15556405
183	0xbe40332e	-0.18769524
184	0x3f046107	0.5171055
185	0x3e1cb3d2	0.15302971
186	0x3e494b80	0.19657707
187	0xbe4f7c9b	-0.20262377
188	0xbdaa8ee0	-0.083280325
189	0xbe0c052d	-0.1367385
190	0x3e8d6360	0.2761488
191	0x3d38dc08	0.045131713
192	0xbd4725cb	-0.048620027
193	0x3d76a984	0.060220256
194	0xbd1b486c	-0.037910864
195	0xbdb0a370	-0.08624923
196	0xbe245d02	-0.16051105
197	0xbd93b9f2	-0.07213201
198	0x3e76c69e	0.24099204
199	0xbd66ea17	-0.05637559
200	0x3dcba529	0.09943611
201	0xbe607fb0	-0.21923709
202	0xbeb29a9c	-0.34883583
203	0x3e25d49e	0.16194388
204	0x3de90262	0.113774076
205	0x3d3a7146	0.045518182
206	0xbd8f1869	-0.06987078
207	0xbe6a1a88	-0.22861683
208	0xbca488b7	-0.020084722
209	0x3c4fae2f	0.012675806
210	0x3e0faabc	0.14029974
211	0xbe2cda34	-0.16880113
212	0x3d0f20c4	0.034943357
213	0xbe194c93	-0.14970617
214	0x3e0d28f3	0.13785152
215	0x3dc816fa	0.097700074
216	0xbdd357eb	-0.103195034
217	0xbdfdfcf5	-0.12401763
218	0xbe9c6744	-0.30547535
219	0xbe29d5e7	-0.16585504
220	0xbe19939e	-0.14997718
221	0xbe916732	-0.28399044
222	0xbd841906	-0.06450085
223	0x3ea3617d	0.31910315
224	0x3d35dbfe	0.044399254
225	0x3e8bb03b	0.2728289
226	0xbdfa1459	-0.12210912
227	0x3df68bb7	0.12038367
228	0x3e2ab2c8	0.16669762
229	0xbd9b5ae6	-0.07585697
230	0x3e31d9c5	0.17368229
231	0xbcfb11b8	-0.030648097
232	0xbe46d3ef	-0.19416784
233	0xbbd8e420	-0.0066189915
234	0x3e7a6289	0.2445165
235	0x3d891a5f	0.06694483
236	0x3f08fb5e	0.53508556
237	0x3e89b388	0.26894784
238	0xbd158448	-0.036503106
239	0x3e4ffafb	0.20310585
240	0xbe476370	-0.19471526
241	0xbeb006a4	-0.34380066
242	0x3c0622a6	0.008186972
243	0xbdec5670	-0.11539924
244	0xbd4b3be2	-0.049617656
245	0x3c4d6690	0.01253666
246	0x3ddea894	0.108719975
247	0x3ba81a40	0.0051300824
248	0x3e552feb	0.2081906
249	0xbd94d91e	-0.07267974
250	0x3dd4bba2	0.103873506
251	0x3d5f7314	0.054553106
252	0xbea267a7	-0.31719705
253	0x3e2531a6	0.1613222
254	0x3d49aedf	0.049239036
255	0x3ecf1c67	0.40451357

critic.0.bias f4 [64]
0	0xbe9493f2	-0.29019123
1	0x3c29604d	0.010337901
2	0xbded29b1	-0.11580218
3	0xbe354e71	-0.17705704
4	0xbe09b5c4	-0.13448244
5	0x3e0e0f00	0.1387291
6	0xbd39a3b6	-0.045322143
7	0x3e1b8b99	0.15189971
8	0xbe8e94f3	-0.27848014
9	0xbd84e5bd	-0.064891316
10	0x3be0223a	0.0068400176
11	0x3c90f85f	0.017696558
12	0xbdb9b922	-0.090685144
13	0x3e9ede9f	0.3102922
14	0xbe027c4d	-0.1274273
15	0x3e4f7c82	0.2026234
16	0xbe5a29db	-0.21305029
17	0xbe0d41c7	-0.13794623
18	0xbe8096cd	-0.25115052
19	0x3d7c6aab	0.061625164
20	0xbd316ec1	-0.043318514
21	0x3d82db1b	0.06389447
22	0xbe1ccc16	-0.15312228
23	0x3d543760	0.051810622
24	0x3e375a7a	0.17905608
25	0xbe3e5978	-0.18588817
26	0xbe296d8e	-0.16545698
27	0x3dbec90b	0.0931569
28	0xbe86801e	-0.2626962
29	0xbe361b0b	-0.17783754
30	0x3de698e2	0.11259629
31	0x3d237276	0.03990408
32	0xbdc8ab7c	-0.09798333
33	0xbd1d6bef	-0.03843301
34	0x3d19869c	0.03748189
35	0xbe3043e1	-0.17213394
36	0xbe830e69	-0.25596932
37	0xbe1f33a2	-0.1554704
38	0xbd98921c	-0.07449743
39	0xbdba80a0	-0.091065645
40	0xbe13cef7	-0.1443442
41	0x3e8f409c	0.2797898
42	0xbe3dbb8d	-0.18528576
43	0x3d0e57dc	0.034751758
44	0x3e20eca1	0.15715267
45	0x3c7e0a6a	0.015505413
46	0x3db87ee6	0.09008579
47	0x3b011ef2	0.0019702283
48	0x3d03c5eb	0.03217117
49	0xbe2d329f	-0.16913842
50	0x3e5f24f4	0.2179144
51	0x3db8c6ac	0.09022269
52	0x3d4b9e0d	0.049711276
53	0xbcc22dd1	-0.023703488
54	0x3e48fc27	0.19627438
55	0x3d31674a	0.043311395
56	0xbe77f6b9	-0.24215211
57	0xbe517bb0	-0.2045734
58	0x3ea799e5	0.327346
59	0x3dbf9b2b	0.09355768
60	0x3e3faae6	0.18717536
61	0x3e4dfdc5	0.20116337
62	0x3e5fbe78	0.21850002
63	0xbd4a969f	-0.04946005

critic.2.weight f4 [64, 64]
0	0x3d4cf9c8	0.050042897
1	0xbe6e2db5	-0.23259623
2	0xbd8221be	-0.06354092
3	0xbde5b995	-0.112170376
4	0x3e47c4d7	0.19508682
5	0xbd9802ae	-0.07422386
6	0xbc9a5770	-0.018840522
7	0x3e15d43b	0.14631741
8	0x3e141840	0.14462376
9	0x3c1338fb	0.008985753
10	0x3d1f4864	0.038887396
11	0x3c3a536f	0.011372431
12	0x3d8216c9	0.06352002
13	0x3d21ad52	0.03947193
14	0xbdeae5dd	-0.11469624
15	0x3d8e2144	0.06939939
16	0x3c1edc7a	0.00969612
17	0x3dc8c5ad	0.09803329
18	0x3e026d94	0.12737113
19	0xbd6f544f	-0.058430012
20	0x3d3981d5	0.045289833
21	0xbdd3ba1d	-0.10338233
22	0xbdac6a76	-0.08418743
23	0x3d4af3cb	0.049548905
24	0x3d1b5850	0.03792602
25	0x3e980322	0.2968989
26	0x3dc08fb8	0.09402412
27	0xbe1aece0	-0.15129423
28	0x3dfea106	0.124330565
29	0xbd860569	-0.06544001
30	0x3ddf78c0	0.10911703
31	0xbe6c32a2	-0.2306619
32	0x3c1f9f58	0.00974258
33	0xbc9b697d	-0.0189712
34	0xbdabb2f6	-0.083837435
35	0x3d71fb02	0.05907727
36	0x3e44c849	0.19217028
37	0x3e036d96	0.12834772
38	0xbc7d4a86	-0.015459662
39	0xb9058de1	-0.00012736722
40	0x3d3d2405	0.04617693
41	0xbe1ea2a9	-0.15491737
42	0x3cdb5e88	0.026778474
43	0x3d4cfda1	0.050046567
44	0x3c706b00	0.014673948
45	0xbd08b27f	-0.033373352
46	0xbdff724d	-0.12472973
47	0xbda4fc73	-0.08055963
48	0x3da13d8b	0.078730665
49	0xbdc60cbe	-0.09670399
50	0xbd40a996	-0.04703673
51	0xbcae6eaf	-0.021293012
52	0xbe018dbd	-0.12651725
53	0x3db5f886	0.08885293
54	0x3d38197a	0.04494617
55	0x3b82133c	0.003969578
56	0x3d4a448d	0.04938178
57	0xba3007e1	-0.0006715041
58	0xbdc31ce7	-0.09526997
59	0xbd1159d0	-0.035486042
60	0x3cf812c9	0.030282395
61	0xbd54e39e	-0.051974885
62	0x3dee0df3	0.11623754
63	0xbdae95ae	-0.08524643
64	0xbbd82957	-0.006596725
65	0xbd3f82ab	-0.046755474
66	0x3d0192b7	0.03163406
67	0xbdd80222	-0.10547282
68	0x3ec89207	0.3917391
69	0xbed0aea4	-0.4075824
70	0x3e2bfd10	0.16795754
71	0x3da3f67d	0.08005998
72	0x3e7736f4	0.24142057
73	0x3ea4b91a	0.3217247
74	0x3e8ba765	0.2727615
75	0xbe69a5fe	-0.22817227
76	0xbe08640d	-0.13319416
77	0x3cf6f222	0.030144755
78	0xbe876d28	-0.26450467
79	0xbc3f65aa	-0.011681953
80	0x3ce97da0	0.028502285
81	0x3e1654cf	0.1468079
82	0x3d9d245f	0.07672953
83	0xbe51dc1c	-0.20494121
84	0x3de5cd4a	0.112207964
85	0x3da8cc18	0.08242053
86	0xbdf74913	-0.12074485
87	0x3e0d4571	0.13796021
88	0x3d758e36	0.059950076
89	0x3eb80917	0.35944435
90	0xbd440a4a	-0.047861375
91	0xbe8feb0c	-0.28109014
92	0x3c829460	0.015939891
93	0x3d933e45	0.07189611
94	0x3e86a4e3	0.26297674
95	0xbeb1815e	-0.34669012
96	0x3e01b631	0.12667157
97	0xbcf977be	-0.030452605
98	0x3e89cc70	0.26913786
99	0x3d971385	0.0737677
100	0x3eee1d3f	0.46506688
101	0x3e17d0a7	0.14825688
102	0x3e232632	0.15932539
103	0x3c648eb5	0.01395004
104	0x3d3087fb	0.04309843
105	0xbe3670bf	-0.17816447
106	0xbd302132	-0.043000408
107	0xbe61ab68	-0.22038043
108	0x3bbc0076	0.0057373596
109	0xbe60398c	-0.21896952
110	0xbe99eb9f	-0.30062577
111	0x3da42851	0.08015502
112	0x3d7007e6	0.058601283
113	0x3df28970	0.118426204
114	0xbcd0b3bf	-0.025476335
115	0x3dff1ecb	0.12457045
116	0xbe6e4291	-0.2326758
117	0xbcb4901b	-0.022041371
118	0x3c4822c2	0.012215318
119	0xbd9bfd71	-0.076166995
120	0x3d5805dc	0.052739963
121	0x3d4e6a17	0.050394144
122	0xbe8de668	-0.2771485
123	0xbe5f5448	-0.21809494
124	0x3d62c6d1	0.055365387
125	0xbe348119	-0.17627372
126	0xbd3a5d58	-0.045499176
127	0x3d386228	0.045015484
128	0x3d95bdde	0.07311605
129	0x3ea9d882	0.33172995
130	0x3dae21f6	0.08502571
131	0x3cafe851	0.021473082
132	0xbe529008	-0.20562756
133	0x3e09bf29	0.13451828
134	0x3dd6747d	0.10471437
135	0xbd5fd57a	-0.054646946
136	0xbe091496	-0.13386759
137	0x3cb7c459	0.022432493
138	0x3dbdedbd	0.092738606
139	0x3cb31aaa	0.0218633
140	0xbd7ab439	-0.06120703
141	0x3cadcd0a	0.021215934
142	0x3e157cc9	0.14598383
143	0x3dff06c5	0.12452463
144	0xbdb88f37	-0.09011691
145	0xbdfcc4da	-0.12342234
146	0x3d803b88	0.06261355
147	0x3cbd701b	0.023124745
148	0x3d8e6edb	0.06954738
149	0xbaf8d84f	-0.0018985363
150	0xbd7d6a5c	-0.06186901
151	0xbca43230	-0.020043463
152	0x3d511803	0.05104829
153	0xbdf29f70	-0.118468165
154	0x3bb84b39	0.0056242016
155	0x3e38bc2e	0.18040535
156	0xbcf03a46	-0.029324662
157	0x3d63b67f	0.055593964
158	0xbdbde01d	-0.09271262
159	0x3e3c1f4d	0.18371315
160	0xbd49a365	-0.04922809
161	0xbb88c953	-0.0041743903
162	0xbd824c70	-0.063622355
163	0x3d63e004	0.05563356
164	0xbe3a04ca	-0.1816589
165	0x3d2eb8d8	0.04265675
166	0x3d8f4eac	0.06997427
167	0xbe017766	-0.12643203
168	0xbdceab49	-0.10091264
169	0x3daab569	0.083353825
170	0xbd39d19e	-0.045365922
171	0x3ca65c0a	0.02030756
172	0xbd66dfe2	-0.056365855
173	0xbb87735c	-0.004133625
174	0xbd9720da	-0.07379313
175	0x3cb3961f	0.02192217
176	0x3cd21940	0.025646806
177	0x3d2ad5b7	0.04170772
178	0x3d941719	0.07230968
179	0xbe080339	-0.1328248
180	0x3df9412c	0.12170634
181	0x3afa6ce1	0.0019105935
182	0xbd2936cc	-0.041312024
183	0x3d52538e	0.051349215
184	0xbd44b8ad	-0.048027683
185	0x3dd2a199	0.102847286
186	0x3e2b1b32	0.16709593
187	0xbdb30244	-0.087406665
188	0xbd4e7d7d	-0.050412644
189	0xbd23e95e	-0.04001748
190	0x3d50b8df	0.050957557
191	0x3dc602a4	0.096684724
192	0x3bdef58c	0.006804174
193	0xbedda9e7	-0.43293688
194	0x3d3c0e9a	0.045912363
195	0x3d1036af	0.0352084
196	0xbcf695e2	-0.030100767
197	0xbdc036fe	-0.09385489
198	0xbe8f4f33	-0.27990112
199	0x3e555b7e	0.20835683
200	0x3d7a7648	0.061147958
201	0xbdd16025	-0.10223416
202	0x3cd8ba69	0.026456075
203	0xbe2c98f6	-0.16855225
204	0xbdb778f8	-0.0895862
205	0x3e464700	0.19363022
206	0x3dab094a	0.08351381
207	0x3d84fbc5	0.06493334
208	0x3cc6211a	0.024185706
209	0xbc5c7a47	-0.013456888
210	0xbce04c75	-0.027380208
211	0xbdaa4fa4	-0.083159715
212	0x3e10ce80	0.14141273
213	0x3e2dd8cc	0.16977233
214	0x3dc52f69	0.096281834
215	0xbe44f29d	-0.19233175
216	0xbd6c152e	-0.057637386
217	0x3e42438b	0.18971078
218	0x3dabfcf8	0.08397859
219	0xbdde6845	-0.108597316
220	0xbe631bd3	-0.22178583
221	0xbe115d46	-0.14195737
222	0x3d6dbc44	0.058040872
223	0x3d1f3304	0.03886701
224	0xbd9f07cd	-0.0776516
225	0xbd98bcfc	-0.07457921
226	0x3ca59c48	0.020216122
227	0xbdd571a1	-0.104220636
228	0xbd355499	-0.04427013
229	0xbde44344	-0.111456424
230	0xbdc38acc	-0.09547958
231	0x3de141f6	0.10998909
232	0xbded8556	-0.115976974
233	0x3dbcb222	0.09213664
234	0x3d4744c2	0.048649557
235	0xbe468540	-0.19386768
236	0x3e0a9572	0.13533571
237	0xbc260351	-0.010132627
238	0xbd7b9c15	-0.06142815
239	0x3d205f60	0.039153457
240	0xbdbe159d	-0.09281466
241	0xbe045941	-0.12924673
242	0x3dc29556	0.0950114
243	0x3cb9872e	0.022647467
244	0xbdf83649	-0.12119729
245	0xbb98f2d5	-0.0046676197
246	0x3b995dc4	0.004680367
247	0xbe0b46c9	-0.13601221
248	0xbdfe73b5	-0.12424413
249	0x3d9c6859	0.0763709
250	0x3d5500e4	0.052002802
251	0x3e212318	0.15736043
252	0x3d9d402a	0.07678254
253	0x3e8581de	0.26075643
254	0x3d1c8efc	0.038222298
255	0x3e0e9c12	0.13926724

critic.2.bias f4 [64]
0	0xbe03058a	-0.12795082
1	0xbe3c8214	-0.18408996
2	0x3d0f61f5	0.03500553
3	0x3d8e65c2	0.069530025
4	0x3cbaa394	0.022783078
5	0x3d3bb987	0.04583123
6	0x3dcf7e2e	0.10131489
7	0xbd10319e	-0.03520357
8	0x3dd7d1c9	0.1053806
9	0xbdee9cb0	-0.116509795
10	0xbc653326	-0.0139892455
11	0xbdab284a	-0.08357294
12	0xbe2e5206	-0.17023477
13	0xbd5a7f38	-0.05334398
14	0x3dfc787d	0.12327669
15	0x3c85992e	0.016308393
16	0xbdcc218e	-0.099673375
17	0xbd36d30e	-0.04463487
18	0xbddadc15	-0.106865086
19	0x3da0438b	0.07825383
20	0x3d2a2c5c	0.04154621
21	0xbba1df12	-0.004939922
22	0xbd6b33bb	-0.05742238
23	0xbde071e4	-0.10959223
24	0xbe256786	-0.16152772
25	0xbd5993e4	-0.053119555
26	0xbcbf642a	-0.023363192
27	0x3b8c1a92	0.0042756284
28	0xbdd8dc48	-0.1058889
29	0x3e3b9766	0.18319473
30	0x3d9493cd	0.07254753
31	0x3df4dd0d	0.119562246
32	0xbb9a691a	-0.004712236
33	0xbc2bd31e	-0.010487346
34	0x3e01ecd0	0.12687993
35	0x3d375ca7	0.044766095
36	0xbe02a1bd	-0.12757011
37	0x3d33cae2	0.043894656
38	0x3dcbfd74	0.09960452
39	0xbe15c6eb	-0.14626662
40	0xbd394b97	-0.045238104
41	0x3e210857	0.15725838
42	0x3bdf2b80	0.0068106055
43	0x3e1b5334	0.15168458
44	0x3e0165fe	0.12636563
45	0x3c048381	0.008087994
46	0x3dfaa33a	0.12238164
47	0x3dfa01de	0.122073874
48	0xbe087d55	-0.1332906
49	0x3e10389d	0.14084096
50	0x3d11008d	0.035400916
51	0xbe23f604	-0.16011816
52	0x3ddd8ad6	0.108174965
53	0x3db00b84	0.085959464
54	0xbdb52d09	-0.088464804
55	0x3bbba241	0.0057261293
56	0xbdf479e8	-0.11937314
57	0xbdbc9941	-0.09208918
58	0x3def5e4e	0.11687909
59	0x3dc2a96c	0.09504971
60	0xbdf8373b	-0.121199094
61	0xbd8758bb	-0.06608721
62	0xbc602bb0	-0.013682291
63	0xbdc17d6f	-0.09447753

critic.4.weight f4 [1, 64]
0	0xbe37f33b	-0.17963879
1	0xbe3a4d5a	-0.1819357
2	0x3e447a5b	0.191873
3	0xbe2e52f8	-0.17023838
4	0xbdfa0c42	-0.12209369
5	0xbe7536b4	-0.23946649
6	0x3e1da263	0.15393977
7	0xbdfe000c	-0.12402353
8	0x3e2436f8	0.16036594
9	0xbe54ef67	-0.2079445
10	0x3d222eb6	0.03959533
11	0x3dcccc1f	0.099998705
12	0x3d36287e	0.04447221
13	0x3d8d5239	0.06900448
14	0x3e5e455c	0.21706146
15	0xbe7638c1	-0.24045087
16	0x3dfe6ea6	0.12423448
17	0x3d0e491f	0.034737702
18	0xbe285a57	-0.16440712
19	0x3dc6d6da	0.097089484
20	0x3e5ff191	0.21869494
21	0xbde3b758	-0.111189544
22	0x3ce07091	0.027397426
23	0x3e55bfd3	0.20873956
24	0x3e0b2082	0.1358662
25	0x3e2be5c4	0.16786867
26	0x3ddc1afe	0.10747336
27	0xbe2b4494	-0.16725379
28	0xbdbbd9f5	-0.091724314
29	0xbb204751	-0.002445657
30	0x3e03c5f0	0.12868476
31	0xbe0296b7	-0.12752806
32	0xbe1c02f8	-0.15235507
33	0xbe3618ac	-0.17782849
34	0x3e25a00c	0.16174334
35	0x3db76835	0.08955423
36	0x3d922a7a	0.07137008
37	0xbe68832f	-0.22706293
38	0x3e0d9e72	0.13829973
39	0x3dbe67ec	0.09297165
40	0x3e3090ef	0.17242788
41	0x3e449cef	0.1920049
42	0x3dfcc80b	0.12342843
43	0x3cdb9094	0.026802339
44	0x3c8c22c4	0.017106421
45	0x3e0a1e2e	0.13488075
46	0x3cbb2244	0.022843488
47	0x3d98b46d	0.074562885
48	0xbe230bb0	-0.15922427
49	0x3d908026	0.070556924
50	0x3e1c346e	0.15254375
51	0xbe59f555	-0.21284993
52	0x3dd04a9e	0.10170482
53	0x3dca76aa	0.098859146
54	0xbe0b9c81	-0.1363392
55	0xbd3828be	-0.04496073
56	0x3b4553d8	0.003010979
57	0xbecf8e6b	-0.40538344
58	0xbd4cf793	-0.050040793
59	0xbe700ee6	-0.23443183
60	0xbe179b9f	-0.14805458
61	0xbe8fbba8	-0.28072858
62	0x3e16dd46	0.14732847
63	0xbe22fcd8	-0.15916765
