models/aggressive_agent_best.pth (torch, 46866 bytes, 11 tensors)

actor.0.weight f4 [64, 15]
000000 b1 f5 28 be cb c5 17 bd 05 7c ac 3d 77 5f 4e be
       -0.16499974 -0.037053864 0.08422092 -0.20153604
000010 02 be b3 be f9 7e 98 3c ee 88 00 be 26 10 2b 3e
       -0.35105902 0.018615233 -0.12552235 0.16705379
000020 07 8f 36 be d4 d9 48 3d 66 a5 66 bd 5e b9 5f 3e
       -0.17827998 0.049035862 -0.05631008 0.21848056
000030 9e 89 34 3e 20 7e b6 bc 10 18 37 3d 3f bb 54 3d
       0.17630622 -0.022276938 0.044700682 0.051936384
000040 fc f7 32 3e 80 10 25 3e 22 e7 ad bc fb 60 69 3d
       0.17477411 0.16119576 -0.021228377 0.056977253
000050 aa c6 90 3e cb 91 5a be d5 95 21 be 1f ce 23 be
       0.2827657 -0.21344678 -0.15779813 -0.15996598
000060 c7 03 3e 3e 80 28 9e bd d4 b3 cf 3d e0 61 51 3d
       0.18556128 -0.077225685 0.10141721 0.05111873
000070 90 af b1 3c 44 bb 74 be b3 e3 41 be 87 a2 08 bd
       0.02169016 -0.23899561 -0.18934517 -0.033358123
000080 58 ce 54 be 7f 0b 1d 3e cf 45 d6 bc 85 b1 2e be
       -0.20781839 0.15336417 -0.026156334 -0.17059906
000090 12 47 23 3e 9b 26 bc bd 2a 8f 92 bd f1 7b 2d 3c
       0.1594508 -0.09187051 -0.07156213 0.010588632
0000a0 0d be 06 3e 94 b9 be 3d a4 c3 4d bd c2 2f 09 3e
       0.13158436 0.0931274 -0.050235406 0.13397124
0000b0 d1 bc 48 be b8 75 9d 3e 3a c4 7e be 70 8d 39 be
       -0.19603278 0.30753875 -0.24879542 -0.1812036
0000c0 a2 b6 14 3e 64 4b 58 3d a9 1b 53 3e df 75 36 be
       0.14522794 0.052806273 0.2061602 -0.17818402
0000d0 79 37 b0 be 0b 92 38 3c a2 75 45 be b8 a7 9a 3d
       -0.34417322 0.011265288 -0.19283155 0.07551521
0000e0 74 0e 47 be fe e2 ef bd 98 e1 f9 3d 0c cc 3b bd
       -0.19439107 -0.11713217 0.12201232 -0.04584889
0000f0 8d 61 36 be 1a 9c 11 be c1 92 ec 3d 2e db 7e be
       -0.1781065 -0.14219704 0.115514286 -0.24888298
000100 56 03 3f bd 0d 8a 7f 3e 0d 66 82 3e 56 b1 31 be
       -0.04663404 0.24955006 0.25468484 -0.17352805
000110 ec 37 28 3e ed a5 ff bd f8 90 9e 3e 70 46 cf 3d
       0.16427583 -0.1248282 0.30969977 0.10120857
000120 f0 77 d0 3d ec 0f 39 3e 20 32 eb 3d d1 6f 6f be
       0.10179126 0.1807248 0.1148417 -0.23382498
000130 2e c4 3f be 30 5e 66 be bd f4 71 3e ea c1 70 3d
       -0.1872718 -0.22496867 0.23628516 0.05877868
000140 12 30 33 3d 90 b6 d3 3d 17 ab 76 3e 92 8c 8a bd
       0.043747015 0.103375554 0.24088703 -0.06765093
000150 9a 6c 31 3e 9a bd 78 3d ee 3f 7c be e8 77 04 3d
       0.17326584 0.060727693 -0.24633762 0.032340914
000160 86 c4 e8 bd 76 c8 c9 bd f8 ba 15 ba ec 8b da 3d
       -0.11365609 -0.09852688 -0.00057117594 0.10671219
000170 66 0f da bc f0 85 37 bd 83 d0 98 3e f5 5f 09 bb
       -0.02661867 -0.044805467 0.29846582 -0.0020961736
000180 50 e8 cd 3c 3d 6d 99 3e ab 19 7b be 40 ec 8d 3d
       0.02513519 0.29966155 -0.2452151 0.06929827
000190 6b 78 91 3e 14 4e da 3d 80 d6 01 bc ac bc 18 3e
       0.28412184 0.106594235 -0.007924676 0.14915723
0001a0 e0 eb 57 bc 80 00 8a 3c c1 7b 65 3d e7 8c c5 3c
       -0.013178796 0.016845942 0.056026224 0.024115039
0001b0 c8 39 52 be 66 37 67 3e df 35 10 3e 5a f2 02 3e
       -0.20529854 0.22579727 0.1408305 0.12787762
0001c0 6f de 02 be 39 23 1e 3d cf 92 47 bd bd ad 1e 3e
       -0.12780164 0.03860781 -0.048723992 0.15495963
0001d0 db 54 49 be c0 59 b5 bb 22 87 86 bd c8 d1 64 be
       -0.19661276 -0.0055343807 -0.06568743 -0.2234565
0001e0 ee c8 92 be 1c f6 83 3e 7e ef 05 be 5e 17 72 be
       -0.28668922 0.25773704 -0.1307964 -0.23641726
0001f0 d4 31 b4 3e cf f4 0f 3d bb 8f 32 3e d0 c0 32 3d
       0.35194266 0.035145577 0.17437641 0.04364091
000200 ac 0a fa 3d 66 52 45 bd 31 94 73 3e c3 e8 82 3e
       0.12209067 -0.048174284 0.23787 0.25568208
000210 f9 7f 05 be 09 cb 77 be f2 c5 1b 3e 5e e4 ea bd
       -0.13037099 -0.24198546 0.15212229 -0.11469339
000220 64 ff 7b 3d 00 15 55 3e ec 69 55 3d 5f ba 8c bd
       0.061522856 0.20808792 0.052102968 -0.06871485
000230 17 82 3d 3e 5a de 59 be 23 93 b9 3a de 82 57 3e
       0.18506657 -0.21276227 0.001415823 0.21046016
000240 16 b0 7f 3d b5 85 d0 bd d9 a5 2c be 62 91 1d 3e
       0.062423788 -0.101817526 -0.16860141 0.1538749
000250 90 48 25 3e 58 27 3f bd 48 d3 4b be 6c bf 16 be
       0.16140962 -0.04666838 -0.19904816 -0.14721459
000260 49 bc da bd 59 ee 9f 3c f1 17 1a 3e 10 90 44 3d
       -0.10680444 0.019522833 0.15048195 0.04798895
000270 4e cf 05 3e 05 c2 5e 3e 07 e5 a5 bd 36 82 51 be
       0.13067362 0.217537 -0.08100324 -0.20459828
000280 2f 27 8d 3e b6 4e 0e be 4c 3d 0c be 9c eb 2f 3e
       0.27568957 -0.13897213 -0.13695258 0.17179722
000290 92 08 b5 bd eb d2 2a 3e ad 40 ed bd dc fb a5 bc
       -0.08839525 0.16682021 -0.115846016 -0.020261697
0002a0 0e a7 99 3d 63 2d 72 be 9d 37 39 3e 58 68 79 be
       0.07502566 -0.23650126 0.18087621 -0.2435621
0002b0 15 6f 8c be e1 a2 ef bd 5b 31 42 3e ea dc 09 bd
       -0.274285 -0.117009886 0.1896414 -0.033657946
0002c0 5a 43 42 be 76 7e 62 3e aa bf 5d be cc e9 0e be
       -0.18971005 0.22118554 -0.21655145 -0.13956374
0002d0 99 bd 2f 3d 54 81 5c be 63 02 8b 3e 78 d4 1e be
       0.042905424 -0.2153371 0.27150258 -0.15510738
0002e0 60 d3 40 be 2a 4f 4b bd a3 c4 4a be 53 7a 90 be
       -0.18830633 -0.049636044 -0.19801573 -0.28218326
0002f0 63 01 56 3e f7 5c 0e be 82 12 aa be 14 a4 92 3d
       0.20898966 -0.13902651 -0.33217245 0.07160202
000300 bc 50 f9 3d 48 eb 89 3d 90 cf 1e 3e 0d 2b 44 be
       0.12173602 0.067343295 0.15508866 -0.19157048
000310 1d 03 07 be a8 a7 8f be fc 2c 55 3e 1e df 88 bd
       -0.13184781 -0.280576 0.20817941 -0.06683181
000320 bc e4 fb ba 1b 5e 47 3e 3b 59 f2 3d 21 cd 9e be
       -0.0019217948 0.19469492 0.118334256 -0.31015876
000330 40 a2 73 be 5a 87 24 be 2a 98 1d 3e f4 4c c1 3d
       -0.23792362 -0.16067258 0.15390077 0.09438506
000340 a0 6d e5 3d 5e 88 4d 3e d9 80 5d be da f8 ff bd
       0.1120255 0.20071551 -0.21631183 -0.124986365
000350 ca be b6 bd 9d 6c a4 3d 14 54 ba bd 00 b2 99 be
       -0.08923109 0.08028529 -0.09098068 -0.30018616
000360 f3 34 6a be da 52 3f 3e e2 00 1d 3e 8b 66 0e be
       -0.22871761 0.18683949 0.15332368 -0.13906305
000370 17 52 3b be f4 04 26 bd 80 ce a8 bb 20 d6 6e 3e
       -0.18293034 -0.040532067 -0.00515157 0.2332387
000380 da 78 81 be 95 fc eb bd ef 35 0e be db e9 51 3e
       -0.25287515 -0.115227856 -0.13887762 0.20499365
000390 83 e2 4d be 27 f2 df 3d ce 3a 63 be 9b c2 cc bc
       -0.20105939 0.10934859 -0.22190401 -0.024995139
0003a0 64 67 8c 3d 2a c6 8a be 0b 7d a9 3c f5 84 12 3e
       0.06855658 -0.27104312 0.020689508 0.14308532
0003b0 86 aa 10 be d6 77 7e 3e b0 97 0f 3d ce 8c 7c 3e
       -0.1412755 0.24850401 0.03505677 0.24663088
0003c0 64 98 91 be 18 e2 4d 3e c5 7c 41 be 40 eb e8 3c
       -0.28436577 0.20105779 -0.18895252 0.028432488
0003d0 c3 3e d5 3d 9a 8a 28 be d6 12 db 3d dc c6 ec bd
       0.104123615 -0.16459122 0.10696952 -0.11561367
0003e0 33 29 d9 bd 3f 95 3a 3e 6f a1 32 ba b6 d2 34 3e
       -0.10603561 0.18220995 -0.00068142166 0.17658505
0003f0 b4 5c 30 3e c2 40 b4 bd 40 64 0c bd 86 24 1f 3e
       0.17222863 -0.08801414 -0.034275293 0.15541276

actor.0.bias f4 [64]
000000 71 12 0d be fa a5 4c 3e 90 82 6b be 94 7f 71 3e
       -0.13776566 0.1998519 -0.22999024 0.23583823
000010 e1 ec 63 be 1c 34 18 be 1a f5 cf bd 05 f9 d3 bc
       -0.22258331 -0.14863628 -0.10154171 -0.025875578
000020 f3 24 92 bc 48 36 d0 bd da ee 0b bd 77 a7 23 be
       -0.017839884 -0.10166603 -0.034163333 -0.15981852
000030 f8 c1 38 be 9d 72 49 3e 62 57 49 be 11 0b 94 bc
       -0.18042743 0.19672628 -0.1966224 -0.018071683
000040 de 5a 53 be 7d 55 48 be 5c 24 7f 3e 3e 8d 8c 3d
       -0.20640132 -0.19563861 0.24916214 0.06862877
000050 98 9a 9b be 9b d9 80 3e f7 9c 64 3e a1 1e 53 bd
       -0.30391383 0.2516602 0.22325502 -0.051542882
000060 fa 9c a9 3c 05 53 2e 3e f1 e1 10 be f5 25 45 3e
       0.020704735 0.17023857 -0.1414869 0.1925276
000070 fa b6 a7 bd fb fe 1e 3e b4 6d 6e 3e 2d b1 5b be
       -0.08189197 0.15526955 0.23284036 -0.21454306
000080 79 32 3e 3e 21 ba 09 be 74 9b 22 be 5e 7f 67 3e
       0.18573941 -0.13449909 -0.15879613 0.2260718
000090 eb 35 61 be b3 ce b7 3b ff b6 aa bd 7f 49 ad 3d
       -0.21993224 0.0056093573 -0.08335685 0.08461284
0000a0 94 2a 1f 3b 84 e4 26 be 1d d9 1f be 32 97 03 3e
       0.0024286853 -0.1629811 -0.15610166 0.12850645
0000b0 cf 00 46 3e 8f c7 c8 bd 46 1f 1f 3d 7a 13 8b be
       0.19336246 -0.09803688 0.038848184 -0.27163297
0000c0 0d 94 5b 3d 06 e8 16 be 16 6d 9d bb a6 a3 35 3e
       0.05360799 -0.14736947 -0.004804264 0.17738208
0000d0 84 b8 a4 3c 95 29 25 bd f4 4a 2a 3e 52 2c 40 3e
       0.020107515 -0.04032286 0.16630155 0.18766907
0000e0 b5 45 0e 3e 3d c3 5d 3e 06 38 c7 3d a9 7f 1a 3d
       0.13893779 0.21656509 0.097274825 0.037719402
0000f0 ce 9c a4 3d b9 d5 b5 3d 4e cf 90 3d 09 4b 62 be
       0.080377206 0.08878655 0.0707079 -0.22098936

actor.2.weight f4 [64, 64]
000000 1a 2f 29 3d ca ee 08 be 6a 91 3a bd 61 5f 00 3b
       0.041304685 -0.13372341 -0.045548834 0.00195881
000010 d9 3b 73 3c 30 7d a0 bd 07 47 29 bd 94 e7 83 bd
       0.014845812 -0.078363776 -0.041327503 -0.064406544
000020 a0 87 76 bd bb 11 58 3d 6b a3 e5 3d 60 6e a6 bd
       -0.060187936 0.052751284 0.1121281 -0.08126521
000030 aa 47 a5 3d 05 cf 5a 3d 71 d1 8f bd ae 79 03 3e
       0.080703095 0.053420085 -0.0702237 0.12839386
000040 0d 71 1c 3c 36 c5 92 3c 24 30 4d bc 45 a5 5e 3d
       0.009548438 0.017916303 -0.012523685 0.054356832
000050 a6 73 10 bd 03 5a 69 3d 49 25 65 bb 17 95 b5 3d
       -0.03526654 0.056970607 -0.003496485 0.08866327
000060 5f 2b bd 3d 7e 60 85 3d e6 ea 3f b9 bc 17 ef bc
       0.09236788 0.06512545 -0.00018302686 -0.029186122
000070 77 f9 a0 bd ba c0 b8 3d 82 24 1c 3d 6a 30 ea 3c
       -0.07860082 0.09021135 0.038120754 0.028587539
000080 fb 9b d2 3d 13 db ca bc 8a 30 28 3c bf 00 dd bd
       0.10283657 -0.024762666 0.010265479 -0.10791158
000090 ee 47 cf 3d 14 78 0e 3b c2 62 9c bd 00 4f 1a bd
       0.101211414 0.0021739053 -0.07636024 -0.037672997
0000a0 bf 18 91 bd 4c ce 13 ba 42 98 af bd 7a f6 e7 bd
       -0.07084798 -0.00056383456 -0.08573963 -0.113263085
0000b0 c7 fa 01 be 69 9d 1e 3e 21 ee 9c 3d 1d d9 d6 3d
       -0.1269332 0.15489735 0.07662607 0.1049063
0000c0 62 cc 5c 3d b5 51 b4 3d 0b b5 fd 3d 99 25 f0 bd
       0.053905852 0.08804647 0.12388047 -0.11725921
0000d0 3f 88 b0 3c b9 47 d7 bd 26 27 24 bb 5f c7 12 3d
       0.021549342 -0.10511727 -0.0025047748 0.035834666
0000e0 51 43 71 bd 0d 23 2e be 36 db fb bd ea 32 d4 3d
       -0.05890209 -0.17005558 -0.122976705 0.103612736
0000f0 db d4 ca 3d bf cc 82 3d f4 c3 e4 3d 62 84 45 bd
       0.0990388 0.063867085 0.111701876 -0.048221953
000100 46 4e 93 bd 4a 38 e8 3d ee 32 54 bd ad f3 3b bd
       -0.07192664 0.11338861 -0.051806383 -0.045886684
000110 c1 dc 83 bc b0 b5 49 bd 25 03 a5 3b 39 7c a1 3d
       -0.016096475 -0.049245536 0.0050357752 0.07885022
000120 40 f3 f2 3d 4c 18 86 bd 19 03 f4 bd 69 5c c9 bc
       0.118628025 -0.06547603 -0.11914653 -0.024580197
000130 43 b8 ba bd 23 f1 d1 3d 3e 2d 9b 3d 29 ec c2 3d
       -0.091171764 0.10251071 0.07576989 0.095177
000140 86 ad 88 3d 36 ea 7e 3d 89 c6 82 3c 02 93 8e 3d
       0.06673722 0.06223508 0.01596381 0.06961633
000150 0b 30 88 3d 3f c7 b0 3d a8 c7 64 bc b8 74 61 3c
       0.066497885 0.08631753 -0.013963617 0.013760738
000160 33 be 35 3d 0a ad 9d bd 16 4b 36 3d b5 02 4c bd
       0.04437084 -0.0769902 0.0445052 -0.04980727
000170 c2 be 68 bd 4a e7 5c 3c 3f d1 cf 3d 97 6f 0c bd
       -0.056822546 0.013482878 0.101473324 -0.034286108
000180 dc 3d b4 bb 71 33 6d 3d e3 68 d2 bd ed 1f 9e 3d
       -0.0055005383 0.057910386 -0.10273912 0.07720933
000190 14 f0 e9 3d 1c 7d 5b bc 8e c9 e4 bd 22 fd fd 3c
       0.114227444 -0.013396528 -0.11171256 0.031004492
0001a0 36 8c f3 bd aa 67 66 3d 5d 21 25 bc 71 9d 95 3d
       -0.118919775 0.056251206 -0.010078755 0.0730542
0001b0 9e c8 10 be 58 0a 17 3e 0a 68 ed bd 99 aa d1 3c
       -0.1413903 0.1475004 -0.115921095 0.025594043
0001c0 bd 09 b8 bd b2 40 c9 bd d4 f0 d1 bd 59 9a 80 3d
       -0.089862324 -0.09826793 -0.102510124 0.062794395
0001d0 3b 50 63 3d 59 28 f6 3d 33 c3 e0 bd 7a 93 ef 3d
       0.055496436 0.120194145 -0.10974731 0.11698051
0001e0 b1 3a d1 bd 6b 48 f6 bd 07 3b 84 bd 95 1b 00 3e
       -0.102162726 -0.120255314 -0.06456571 0.12510522
0001f0 f9 55 06 bd 16 53 cb bd bf 6b bb bc 60 1e d1 3d
       -0.032796834 -0.09927957 -0.022878526 0.10210872
000200 60 c9 4b bc 87 02 ac 3d 6d 7d ab bd 0d 0b 95 bd
       -0.012438148 0.083989196 -0.083735324 -0.072774984
000210 4c 5d 01 3e ff 83 46 3d 28 85 1b 3e b0 7d 83 bc
       0.12633246 0.048465725 0.15187514 -0.016051143
000220 15 bf f5 3d 95 13 cc 3c ea 31 52 bd e7 ad a3 3d
       0.11999337 0.024911681 -0.051317133 0.079921536
000230 39 4e 9c bc c7 18 af 3d 17 49 9a bd b5 71 b1 bc
       -0.019080268 0.08549648 -0.07533472 -0.021660665
000240 1f 44 1b bd cc 24 a3 bd ac 53 be 3c e0 61 15 bd
       -0.037906762 -0.07966003 0.023233257 -0.036470294
000250 f3 e0 70 3d 48 42 07 be be 38 83 bd 95 67 19 bd
       0.05880828 -0.13208878 -0.06407307 -0.0374523
000260 23 4e af 3d 33 98 2d be c9 82 89 3d e1 0e 7a bd
       0.08559825 -0.1695259 0.067143984 -0.061049346
000270 92 c4 22 39 a8 31 43 bd 1f 2c 62 bd f1 d0 54 3c
       0.00015522752 -0.047654778 -0.05521786 0.012989269
000280 c7 85 81 bc 78 4d 93 3c d7 36 f8 3d fa e7 0d 3d
       -0.01581086 0.017981276 0.12119835 0.03464506
000290 1c 59 f9 38 ef be d9 bc 9e 28 c4 3d d7 a5 3a bd
       0.00011889843 -0.026580302 0.095780596 -0.045568313
0002a0 c2 9e a9 bc c4 ba d9 3c 84 8d d3 bc 44 51 e3 bd
       -0.020705584 0.026578315 -0.025824316 -0.110994846
0002b0 e8 4f 17 3d df 6f cf 3d d6 c5 19 bd 3b 22 09 3e
       0.03694144 0.101287596 -0.037542187 0.13391964
0002c0 b0 a9 9c 3d 5c 5e cc bc 08 e8 83 bd 0b e6 eb bd
       0.07649553 -0.024947338 -0.06440741 -0.115184866
0002d0 de 25 05 3e 0e 17 b3 3d 5e 5d a0 3c ee de a1 bc
       0.13002726 0.08744632 0.019575771 -0.019759621
0002e0 95 27 9e bd 74 6d 22 be 28 21 65 3b 47 54 8e 3c
       -0.077223934 -0.15862066 0.003496239 0.017374171
0002f0 9e 07 81 3d 50 49 4b 3d 6b fc 61 bd 72 f1 f5 3d
       0.06300281 0.049630463 -0.055172365 0.12008943
000300 d6 ba d9 bd e9 43 f5 3c 28 c3 cb 3d d9 f5 01 3d
       -0.10631339 0.029939609 0.099493325 0.0317286
000310 e8 98 34 3b ce 50 ba 3d 4f ac 3c 3e 4d 55 60 3d
       0.002755696 0.090974435 0.18425106 0.05476885
000320 e6 2d b2 3b 1a 22 6c bc 24 eb c2 3d ff 35 ce bd
       0.0054376004 -0.014412427 0.09517506 -0.10068893
000330 cc 16 ab bd ff b4 c5 bc 74 32 4d 3d d0 95 00 3e
       -0.083539575 -0.024134157 0.050096944 0.12557149
000340 c9 1e 38 bc 0e 6a b5 3d 77 45 06 be d7 be 3b be
       -0.0112378085 0.08858119 -0.13112436 -0.18334518
000350 8f b5 ea 3d 60 2e 05 bc a4 81 0a be 09 ab fd 3d
       0.11460411 -0.008128732 -0.13526016 0.12386138
000360 be b8 c2 bc 98 70 23 be e9 96 09 3c 85 8f 5a bd
       -0.023769733 -0.1596092 0.008397796 -0.053359527
000370 88 e9 ed 3c ac bf 69 3d 9c 5e 9e 3a a8 1e ed 3d
       0.02904202 0.05706756 0.0012082639 0.11578113
000380 2b 86 8b 3d 57 40 38 bd e7 ab 87 3d 37 fa ac bb
       0.068127 -0.044983234 0.06624585 -0.0052788514
000390 77 4e af 3d 5c fb 74 3b 35 79 9e 3d d4 d6 44 be
       0.08559888 0.0037381267 0.07737962 -0.19222575
0003a0 95 e1 23 be 90 5a 99 bd 9e ff c8 bd 00 a1 86 3d
       -0.16004021 -0.074879766 -0.0981438 0.06573677
0003b0 bc ce ed bd cb 23 88 3d 06 47 9a bd d0 d9 c8 3d
       -0.11611697 0.06647452 -0.07533078 0.098071694
0003c0 9e 77 bb 3d c9 23 af bd ce c4 a8 3c 90 73 b7 bc
       0.091536745 -0.08551747 0.020601656 -0.022393972
0003d0 4b 50 eb 3d 9c 77 14 3e 15 9d 4a be 7a 52 00 3d
       0.11489924 0.14498752 -0.19786485 0.031328656
0003e0 a9 7e 43 bd 4a 00 bb bd 7c e5 88 bb 3f d8 08 3e
       -0.047728214 -0.091309145 -0.0041777473 0.13363741
0003f0 90 5c 3f bd 28 ab ba bd af f9 e9 3d ff c3 32 3c
       -0.046719134 -0.09114677 0.114245765 0.010910987

actor.2.bias f4 [64]
000000 b4 7f e3 bd b0 43 ab bd d3 23 3e bd 7e 6e 2e be
       -0.11108342 -0.0836252 -0.046420883 -0.17034337
000010 a1 ee 8a 3d 58 82 87 3b 5b 3f 7c 3b a4 84 ec bc
       0.06783796 0.004135411 0.0038489911 -0.028871842
000020 8d fe a4 bd d6 45 2c 3c cf 15 17 be 9e e5 c8 3c
       -0.08056364 0.010514697 -0.14754413 0.024523553
000030 6b ca a3 3d 0e bb aa 3d 88 87 45 3d 29 c7 35 bd
       0.079975925 0.08336459 0.048224956 -0.044379387
000040 bc b1 f0 bc 8d 7d a7 bd f3 0c 10 3d 08 a1 80 bc
       -0.029381625 -0.08178244 0.0351686 -0.015701786
000050 f5 84 10 3e d1 68 d3 bd 16 38 5d 3d c8 18 19 be
       0.14113219 -0.103227265 0.054008566 -0.1495086
000060 69 12 d5 bd 83 e7 c0 bd 9c c7 ad 3d 8c 21 f5 bd
       -0.10403902 -0.09419157 0.08485338 -0.11969289
000070 6d 1c 1d 3e 6c ae f9 bd ac 13 35 bb 84 b5 05 3e
       0.15342875 -0.121914715 -0.0027630134 0.13057524
000080 3b 51 a4 bc 30 aa 67 3c 80 0a be 3d a8 03 01 be
       -0.020058265 0.014139697 0.092793465 -0.12599051
000090 d2 f3 6c 3d d4 92 c4 bc 5f 24 74 bd 58 47 55 3d
       0.057849713 -0.023995794 -0.059605 0.05206999
0000a0 f9 3d d4 bd 69 47 ae 3c e7 4b 57 bd 9a 08 9c 3d
       -0.10363383 0.021274285 -0.05256262 0.07618828
0000b0 30 af ac bd ac be f9 3d 8a ba 60 bd 26 76 00 bd
       -0.08431852 0.12194571 -0.054865398 -0.031362675
0000c0 eb ad 24 3e d9 a4 00 be 11 42 cd 3d 62 9f 41 bd
       0.1608197 -0.12562884 0.10022367 -0.04727114
0000d0 7a 50 ce 3d 27 c2 60 bd 7e d6 96 bd 59 1e 5c bd
       0.100739434 -0.054872658 -0.0736513 -0.05373988
0000e0 78 94 a0 bd e5 28 6d 3d c6 36 ba 3c c9 ab b7 bd
       -0.07840818 0.05790033 0.022731196 -0.08968312
0000f0 71 c0 c5 3d bb cb 94 bb e3 52 b2 bc fa 5b d4 bc
       0.09655846 -0.004540888 -0.02176804 -0.025922764

actor.4.weight f4 [2, 64]
000000 53 4e 77 3d 7c 82 94 3d d7 be da bd 80 ea be 3b
       0.06037743 0.072514504 -0.10680931 0.0058262944
000010 c4 02 68 bd 28 7b 69 bd 8f 8e 4f 3d e3 e3 fe 3c
       -0.056643263 -0.057002217 0.050673064 0.031114524
000020 da d0 10 3d 1b 4b c1 3b 75 e8 f6 3c c7 c1 35 bc
       0.035355426 0.005898846 0.030140141 -0.011093563
000030 68 f0 83 3c 22 da 8a 3d 50 b8 28 3d 27 f8 b6 bb
       0.016105846 0.06779887 0.0411914 -0.0055837813
000040 57 ea c0 bd e2 98 33 3b 41 c1 56 3d d8 33 86 3a
       -0.09419697 0.0027404358 0.052430395 0.0010238839
000050 29 9f dc 3d fb e3 31 bd 15 e4 88 3d 62 2b 2d 3d
       0.10772545 -0.04343031 0.06684128 0.0422777
000060 7c 79 9c bd d6 bc d3 bd 5f d7 5b bd db 8e 60 3d
       -0.07640359 -0.10338752 -0.05367219 0.054823738
000070 56 65 a1 bb 81 72 66 bc 8e be f3 bd 85 98 07 bd
       -0.0049254103 -0.014065386 -0.1190158 -0.03310444
000080 43 17 a4 bd 9d ac 91 bc 71 e2 88 3c 7d 88 80 bd
       -0.08012249 -0.017782504 0.016709538 -0.06276033
000090 8e cd 4d 3c 6e ef d0 3d 40 b8 c0 bc f1 5d 93 3d
       0.012561215 0.102019176 -0.023525357 0.07195652
0000a0 44 a4 62 3d 04 2e c1 bc 89 7e 01 3c 41 e7 7a 3d
       0.055332437 -0.023581512 0.0079037035 0.061255697
0000b0 39 be fe 3c c6 5a ba bd bf 60 5c bc d8 7d 9f 3c
       0.031096565 -0.09099345 -0.0134508 0.019469187
0000c0 f4 f0 a7 3c 42 83 ce bd 6c 9c be 3d 38 36 9c bd
       0.020500638 -0.10083629 0.09307179 -0.07627529
0000d0 fc 35 0f 3d c9 65 28 bd 44 fc 95 bc 94 1f 86 3d
       0.034963593 -0.041112695 -0.018308766 0.06548992
0000e0 ce 0d 49 bc 57 2f b1 3d 5d 8b d9 bd 24 a6 ee bc
       -0.012271358 0.086516075 -0.106222846 -0.029131956
0000f0 85 37 8d 3d f7 95 1b bd 0b 5f 8a 3d da 1a 63 3d
       0.06895355 -0.037984814 0.06756409 0.05544553
000100 5f 28 94 3d 8d eb 7e 3d e4 00 24 3e 0a 47 19 3e
       0.07234263 0.062236357 0.16015965 0.14968506
000110 02 ac e6 bd ae 21 8e bd f1 38 0c be c2 f7 35 be
       -0.11263277 -0.06940018 -0.13693596 -0.17770293
000120 12 56 d5 bd 4e b8 22 bd 66 2d 05 3e 63 b5 38 be
       -0.10416807 -0.039726548 0.130056 -0.18037944
000130 72 0a 36 bd a8 41 ca 3d 71 ea 76 be 25 36 83 bd
       -0.044443555 0.09875804 -0.2411287 -0.064068116
000140 2d 07 33 3e a5 a9 47 3e a5 27 2a be fe 53 72 bd
       0.17483206 0.19498308 -0.16616686 -0.059162132
000150 9f 8d 34 be 1a da 69 3e a4 99 86 3d 79 0e 16 3e
       -0.17632149 0.22837105 0.065722734 0.14653958
000160 9e 35 6b bd ef c4 f4 bd a0 ec e1 3d 64 d7 15 3e
       -0.05742418 -0.119516246 0.11031461 0.14632946
000170 03 a7 18 be a7 69 28 3e ec f9 07 3e e2 f3 4f be
       -0.1490746 0.16446553 0.13278931 -0.20307878
000180 9f 87 ba 3d f1 31 bc 3d 5c 1d 1d be 0c b7 36 3e
       0.09107899 0.09189213 -0.15343231 0.17843264
000190 25 7c 45 be f4 58 cf 3d d0 e0 17 be cb f5 0a bd
       -0.19285639 0.10124388 -0.14831853 -0.033925813
0001a0 9f 95 4b 3e d5 e3 ff bd db 9e 08 3e c4 88 96 bd
       0.19881295 -0.124946274 0.13341849 -0.07350305
0001b0 65 a7 0b 3e f5 a0 45 be b9 c1 06 be cc 1b ad bd
       0.13638075 -0.19299681 -0.13159837 -0.084525675
0001c0 86 ef 9d bd df 26 4b 3d 73 93 a1 bd b1 52 02 be
       -0.07711701 0.049597617 -0.07889452 -0.12726857
0001d0 dc 26 3f bd 24 30 83 bd 04 7e 8f 3d 4b 78 84 3d
       -0.04666792 -0.064056665 0.070064574 0.064682566
0001e0 6f 35 d0 3d 71 1e e9 3d 48 62 79 3b 3e df c5 bd
       0.10166442 0.11382759 0.0038052965 -0.09661721
0001f0 be 61 d0 3d 85 0e 9b 3d c7 c8 13 be 84 d8 ae 3d
       0.10174893 0.07571129 -0.14432059 0.08537391

actor.4.bias f4 [2]
000000 85 7f 72 3d f8 d3 d5 bd
       0.059203643 -0.104408205

critic.0.weight f4 [64, 15]
000000 c2 5a 86 3e 72 b8 c8 bd 8e 2b 94 3e cd e0 95 3c
       0.26241118 -0.09800805 0.2893948 0.01829567
000010 19 8d ef 3d ed c0 47 bc 26 ed da bd 7e 91 d5 bb
       0.11696834 -0.012191993 -0.10689764 -0.006517588
000020 c7 c3 1f 3e fb 92 72 3e bd fa 36 be da 6e 67 3e
       0.15602027 0.23688881 -0.17869087 0.2260088
000030 a6 bf 86 bd 8a 56 07 be ee 0c 7f 3e f0 c4 90 be
       -0.06579523 -0.13216606 0.24907276 -0.2827525
000040 5f 59 ca bc 9b 23 bd 3c cd 76 38 be 3f 44 37 bd
       -0.024700819 0.023088267 -0.18014069 -0.04474282
000050 e9 fe c0 3b 95 e8 12 be b9 88 0b be 39 fb 62 3d
       0.0058897627 -0.14346536 -0.13626374 0.055415366
000060 cf 7b 35 3e a4 ca 51 3e 38 73 0e 3d 28 19 e5 3d
       0.1772301 0.20487458 0.03477785 0.11186439
000070 60 e7 24 3c ac 77 e9 bd 78 01 9a 3e f6 05 57 3d
       0.01006493 -0.11399779 0.30079246 0.05249592
000080 e3 69 78 3e e6 96 a5 3d 17 68 c6 bd 31 4e ef 3d
       0.24259143 0.08085422 -0.09687822 0.11684836
000090 98 22 ac 3d 86 c3 85 be 8d b9 d5 3d 02 b8 6b bb
       0.08405036 -0.26125735 0.10435782 -0.0035967831
0000a0 4c 6c f2 3d 88 b1 91 bc c0 7f 13 3c aa d8 9b bd
       0.11837062 -0.017784849 0.009002626 -0.07609685
0000b0 4f 5e 0b be db a6 71 3d 4c 6e 03 be fd de 83 3e
       -0.13610195 0.058997016 -0.12835044 0.25756064
0000c0 67 cc 3b be 1c 4b 97 3d e2 f8 3d bd 3e 4a 1c 3e
       -0.18339692 0.07387373 -0.04637993 0.15262696
0000d0 0a ca 18 3e 35 d8 68 be 11 d1 5c 3e 55 27 fb bd
       0.14920822 -0.22738726 0.21564128 -0.12263361
0000e0 5a 00 38 be c2 37 77 3e ec 68 5c 3e 9b 28 77 be
       -0.17968884 0.24142364 0.215244 -0.24136584
0000f0 fa a3 dd 3d 9d 2f da 3d 49 58 43 3e de 4d 3a 3b
       0.10822292 0.10653613 0.19076647 0.002842776
000100 1f c4 03 3d 1c ee 2c 3d 11 8d bc 3c 91 c8 7a bd
       0.032169458 0.042219266 0.023016484 -0.06122643
000110 31 0c f3 bd 67 fd 6d be a7 b1 b3 3d 4a 65 69 be
       -0.1186756 -0.23241197 0.08774119 -0.22792545
000120 a3 f9 74 be 0e a5 12 3e 1c 32 a9 bd 2a e8 42 3e
       -0.23923354 0.14320776 -0.08261511 0.19033876
000130 51 c1 0b be 54 54 1d 3e 0f af 5c 3e d4 5a bf 3d
       -0.13647963 0.153642 0.21551155 0.09343496
000140 90 e7 17 bc 69 f1 41 bd e9 cc 22 3b 86 39 40 3e
       -0.009271517 -0.047349367 0.0024841374 0.18771943
000150 ea 97 11 bc d2 10 46 be a4 cb 50 3e c6 6a 57 be
       -0.008886317 -0.19342354 0.20390183 -0.21036825
000160 3b 4d 81 be c0 ed 95 3d dc 97 51 be 98 c3 54 3e
       -0.25254235 0.07320738 -0.20468086 0.20777738
000170 84 41 83 bd be 63 d3 3c 36 b7 77 3e c5 70 8b be
       -0.064089805 0.025804397 0.24190983 -0.27234474
000180 6d c4 fa bd f2 e3 18 bd cf 2b cf 3d aa e4 af bc
       -0.122444965 -0.03732676 0.10115778 -0.02147134
000190 5c d6 90 3c e2 6d 0b 3e 52 a8 32 be ce 18 0d 3e
       0.01768034 0.13616136 -0.17447022 0.13778993
0001a0 80 9c 42 bc 6a e8 4d be 5f d0 32 3e 07 c6 94 bd
       -0.011878133 -0.2010819 0.174623 -0.07264333
0001b0 3a 28 66 3b ad 37 18 bc d7 97 e6 3d 0a db 84 be
       0.0035119192 -0.009290618 0.1125943 -0.25948364
0001c0 db e6 66 3e ea 53 3c 3d 20 10 10 3e e7 1d 43 bc
       0.22549002 0.045978464 0.14068651 -0.011908985
0001d0 00 94 ba 3d de fc 26 3e aa 29 e2 bd 94 98 77 3e
       0.0911026 0.16307399 -0.11043103 0.24179298
0001e0 8d a6 b8 bc ef db 56 be 84 d3 ae be 08 34 d7 3d
       -0.022540355 -0.20982336 -0.3414575 0.10507971
0001f0 43 15 5e be dc 6b 36 bc 67 c2 3d 3e b6 ca 54 3e
       -0.21687798 -0.011134114 0.1853119 0.20780453
000200 2c 8f cd 39 e9 3b 4d 3d 43 dd 98 bc ea b8 2b 3e
       0.00039207318 0.050105963 -0.018660193 0.16769758
000210 6a 06 7a 3e 04 ed 72 bd 78 b3 36 3d 69 12 bc 3c
       0.2441651 -0.059308067 0.04460475 0.022957997
000220 af b6 2a bb 4c e8 10 3c 12 21 42 3e 74 36 fe bd
       -0.002604883 0.008844446 0.18957928 -0.1241273
000230 cd 23 c5 b9 6f 85 22 be 92 9c 1c 3c d8 ef aa be
       -0.00037601442 -0.15871213 0.009558814 -0.3338611
000240 ef 9d db bd a3 71 72 3e 7f 94 81 3e 3a 13 39 3e
       -0.10723483 0.23676161 0.25308606 0.1807374
000250 d0 a5 2c 3e a4 b2 a1 bd df 54 fc bd d3 97 db 3d
       0.16860127 -0.07895401 -0.123208754 0.107223175
000260 6d 7e 8a 3e 5f 6c 58 3e c6 a8 6a 3d 42 ef 9c bd
       0.2704958 0.2113509 0.05728986 -0.07662822
000270 37 b9 a7 bd ec cc 6e bd a1 0e 12 be 1f 18 64 3e
       -0.08189624 -0.058300897 -0.14263393 0.22274826
000280 28 9e ed 3d b0 d2 1e 3e 30 e3 97 3d e0 b6 48 3d
       0.116024315 0.15510058 0.074163795 0.04900253
000290 0a cf 54 be be b0 8b be 00 b5 b4 3c 51 fb 21 be
       -0.20782104 -0.2728328 0.022058964 -0.15818526
0002a0 d9 36 00 3d 49 7d 12 3e df 77 48 be 8f d1 a4 3d
       0.031302307 0.14305605 -0.19576977 0.08047783
0002b0 50 ff 1d be b0 a9 6c 3e 06 87 14 be f1 b9 2a 3e
       -0.15429425 0.23111606 -0.14504632 0.16672494
0002c0 b4 3e e0 3d 5c 56 f4 3d e2 54 e2 bd d4 30 c7 bd
       0.1094946 0.11930534 -0.11051346 -0.0972611
0002d0 b1 82 2f be 6e cd 5d 3d 23 90 c0 3e a9 89 02 be
       -0.17139699 0.05415099 0.37609968 -0.12747826
0002e0 75 50 3d 3e f7 ae b6 bc ac d1 2e be e4 53 cb bd
       0.18487723 -0.022300227 -0.17072171 -0.0992811
0002f0 34 38 e7 3c aa fc 4c bd 88 54 fd 3d ae 01 53 3e
       0.028225042 -0.050045647 0.12369639 0.2060611
000300 80 0f ee 3d 34 ca 29 3e cc c4 27 3e 7b 9c db bd
       0.1162405 0.1658104 0.16383666 -0.10723206
000310 c4 57 84 bc 06 76 d1 bb e9 15 4e be 3d 3f 33 3e
       -0.016155131 -0.0063922433 -0.20125546 0.17504592
000320 7f b9 05 3e b5 c3 fc bc 0e 97 3e bd c2 5a 81 be
       0.13059042 -0.03085504 -0.046530776 -0.25264555
000330 8b d0 59 3e 59 88 ab 3d 55 77 79 be 56 b6 42 3e
       0.21270959 0.083756156 -0.24361928 0.19014868
000340 90 8a f0 bd c4 2a d8 3d f9 c1 e4 bd 03 1d 9d bd
       -0.11745179 0.10555032 -0.1116981 -0.07671549
000350 d0 e8 24 3e 57 25 15 bd d4 37 22 3e 3b be 6d 3d
       0.16104436 -0.036412563 0.15841609 0.058042746
000360 57 21 59 bd 34 0e df 3d e5 6b e9 3d b0 d1 1b be
       -0.05301031 0.10891381 0.113975324 -0.15216708
000370 a9 12 30 3e 50 8a c4 3d c4 1e 0c bd 1c b2 59 be
       0.17194618 0.095966935 -0.034209028 -0.2125935
000380 a6 ab 4d be 94 49 72 be 69 61 40 3d 90 28 2c be
       -0.2008501 -0.2366088 0.046967898 -0.16812348
000390 f6 37 3a 3e 8f 05 bb bd 85 2b 1b 3e 1d ef 2f 3e
       0.1818541 -0.091319196 0.1515332 0.17181058
0003a0 fe 63 6c be 7e b8 6d be 0c 72 ec bd d5 41 6d 3d
       -0.23085019 -0.2321491 -0.1154519 0.05792411
0003b0 3c 39 e8 3d 1c c0 32 bd 40 60 4a bc 0e f6 0c be
       0.113390416 -0.04364024 -0.012352049 -0.13765737
0003c0 e0 94 8b 3e 56 30 0d 3b ed ec 3d 3e 2e 7b 3a be
       0.2726202 0.0021543703 0.18547411 -0.18211052
0003d0 18 50 fd 3d 29 c6 1f 3e ff 15 3a 3d f0 e2 c8 bd
       0.12368792 0.15602936 0.045431133 -0.0980891
0003e0 f4 a6 8e 3e a1 f7 62 be 4d d2 d6 bd 58 d1 61 bd
       0.2786175 -0.22164775 -0.104893304 -0.055131286
0003f0 70 8c 17 3d d5 11 82 3e d0 c1 29 3d 39 20 94 be
       0.036999166 0.2540423 0.0414446 -0.28930834

critic.0.bias f4 [64]
000000 de 73 33 be 14 93 53 3d 7d 57 02 3e 3f ce 1e 3e
       -0.17524669 0.051653937 0.12728687 0.15508364
000010 b3 bf 79 be cb cb 69 be ee 60 86 3d 95 cf 8c 3e
       -0.24389534 -0.22831647 0.065614566 0.27502123
000020 9d ac 9e 3d 22 15 85 3e 4a 8b c4 3d 54 ea ff 3d
       0.07747767 0.25992686 0.0959688 0.124958664
000030 8e b7 1c bd 89 7b e5 bb 68 0b 0d be 22 ed fe 3d
       -0.03826099 -0.007003252 -0.13773882 0.12447573
000040 91 95 2c 3d 65 97 3a 3d b9 7e fd bd ed c2 16 be
       0.042134825 0.045554537 -0.12377686 -0.14722796
000050 10 9b ea 3c d2 b5 79 3d 3f c0 b4 3d 40 52 3d be
       0.028638393 0.060964413 0.088257305 -0.18488407
000060 3b 5c 94 3e ea de 93 3d d4 1d f0 ba 90 69 ad bd
       0.28976616 0.07220252 -0.0018319436 -0.084674
000070 56 3f ba 3d 53 d8 d0 bc 13 31 fb bd 0b 22 1f 3e
       0.090941116 -0.025493776 -0.122652195 0.1554033
000080 57 58 68 3e 0f c6 68 3e d9 f0 0d 3e b7 9c 69 be
       0.22689949 0.22731803 0.13861407 -0.22813688
000090 7c 22 bf 3d cb e9 ef 3d 6b f3 49 3e f2 3d 51 be
       0.09332749 0.11714514 0.19721763 -0.20433787
0000a0 89 3c 5d bd 83 ae 36 3e e6 c7 20 be 9e 3c 2e 3e
       -0.05401281 0.17840008 -0.15701255 0.17015311
0000b0 dc 94 03 be 23 e0 30 3e d1 6c bc 3d 9b 39 4b be
       -0.12849754 0.17273001 0.092004426 -0.19846193
0000c0 c7 99 c2 bd 99 ad 0d 3e 5d d1 d8 3d 30 70 1a 3e
       -0.09501987 0.13835754 0.10586808 0.15081859
0000d0 a3 97 fe 3d b8 f0 02 3b ee 3f 65 be 7b 45 87 be
       0.12431266 0.0019979905 -0.22387668 -0.26420197
0000e0 6f 82 f8 bd bd df 61 3c 67 ed 1d be 67 a7 3f be
       -0.12134253 0.0137862535 -0.15422593 -0.18716203
0000f0 2f 49 82 3e 54 d9 88 3e b0 08 cc bd d4 d8 8d be
       0.2544646 0.26728308 -0.099625945 -0.2770449

critic.2.weight f4 [64, 64]
000000 89 e5 d5 3d 5b b0 61 3d 37 8f 3a bd 28 a4 28 bd
       0.10444171 0.055099826 -0.045546737 -0.041172177
000010 48 ce b0 bd 3f 5c fc bd a2 14 d7 bd 6e f5 a2 3d
       -0.08633095 -0.12322282 -0.10501982 0.07956968
000020 f2 23 81 3d 9f 6c 5e bb f2 a3 1f b9 e4 3a c4 3c
       0.06305684 -0.0033939255 -0.00015224496 0.023953862
000030 cf 5c 89 bd a6 31 ad 3c 8c f4 b7 ba 99 94 00 3e
       -0.06707155 0.021141838 -0.0014034673 0.12556686
000040 cb d2 a4 bd 45 8c bc bc bc 73 ff 3d 60 4e c2 bd
       -0.08048018 -0.023016104 0.124732465 -0.09487605
000050 20 6f 96 bc 11 8c 10 3c 7d c0 e2 3d 2b 4a 95 bd
       -0.018363535 0.008822457 0.110718705 -0.07289537
000060 e8 14 98 3d fc ce 6a 3d 34 1c ec 3d f0 02 cd 3d
       0.074258626 0.057326302 0.11528817 0.10010326
000070 b9 e1 07 3d 8f 8f d8 3d 2e cf 45 bd 4e 94 85 bd
       0.03317425 0.10574257 -0.048293285 -0.065224275
000080 55 da e7 b9 9b ed 82 3d c1 ab 13 bc 89 46 54 3d
       -0.00044222423 0.06392976 -0.009013117 0.05182508
000090 2f a2 d2 3b ea 4a a8 3d 90 bd ca bd 50 ef 1b 3d
       0.006428025 0.08217414 -0.098994374 0.038070023
0000a0 f2 84 ae 3a fc 64 13 3d 2d fb 11 3c 37 b1 14 3c
       0.0013314767 0.035984978 0.008909983 0.009075454
0000b0 bf f7 01 be c2 79 d7 bc b9 80 c0 bc f2 b4 07 bd
       -0.12692164 -0.026303176 -0.02349888 -0.033131547
0000c0 e4 43 7e 3c ac b1 ca 3d df 1d 4b 3d 11 db bf 3d
       0.015519116 0.098971695 0.049589034 0.093679555
0000d0 70 9a 61 3d 55 4a 4a 3d c6 42 91 3d b4 23 9f bd
       0.055078924 0.049387295 0.07092814 -0.07770482
0000e0 50 df e7 bc d7 20 32 bd e3 14 40 3d 22 83 46 bd
       -0.028304726 -0.04348835 0.04689492 -0.0484649
0000f0 77 83 d7 bd bd 2b d7 bd 81 b3 67 3d 53 b0 57 3d
       -0.10523122 -0.10506389 0.056567673 0.05265839
000100 d8 d5 d7 bd 8e 31 63 3d 7e 00 5c bd 4f 17 85 3d
       -0.10538834 0.05546718 -0.053711407 0.064985864
000110 d6 6a 19 be ac 45 6c bd dd 1a ee 3d 58 20 03 be
       -0.14982161 -0.05768363 0.116262175 -0.12805307
000120 a4 38 05 bd 0b 25 73 bd 09 6f a4 3d 68 2d ae 3d
       -0.03252472 -0.0593615 0.08028991 0.08504754
000130 45 40 d6 3c f3 39 12 bd 15 28 ad bc 6a f5 ef 3d
       0.026153693 -0.035699796 -0.021137277 0.11716731
000140 22 6c f8 3a fb 01 d4 bc 16 ef c9 bb 82 d3 0c be
       0.0018953125 -0.02587985 -0.0061625345 -0.13752559
000150 df b0 a5 bd 80 a6 b9 ba ce 62 b3 3b f6 e0 45 3d
       -0.08090376 -0.0014164001 0.005474425 0.048310243
000160 e4 30 7f 3d d1 e6 de bd 0b 27 91 3d cf fb e2 bd
       0.062302485 -0.108838685 0.07087525 -0.11083185
000170 33 01 c9 3d 77 ad 06 be dd 4a f7 bb bd 73 83 bd
       0.09814682 -0.13152109 -0.007546766 -0.0641856
000180 68 04 65 bc e3 53 ad bd 68 7f e9 3d bf 61 96 bd
       -0.013978101 -0.08463266 0.11401254 -0.07342862
000190 00 e0 b8 3d 39 10 f8 3d fc b9 a9 bd 9e 95 aa bd
       0.090270996 0.12112469 -0.08287427 -0.083293185
0001a0 9b e1 58 3c c8 20 e1 bd d3 cf bf bc 76 69 2e bc
       0.013237382 -0.10992581 -0.023414528 -0.010645261
0001b0 a7 ae 72 bd 85 f7 78 bd fe a3 bb bd 37 86 3b 3b
       -0.059248593 -0.060782928 -0.091621384 0.0028613934
0001c0 d3 92 94 3d 54 19 3d 3c 76 0e 1e 3d 3d 92 8c 3d
       0.07254567 0.011541683 0.03858801 0.0686383
0001d0 72 18 a7 bd c5 d5 3d bc 66 89 a3 3d a5 06 81 3d
       -0.081589594 -0.011586611 0.07985191 0.063000955
0001e0 ac 86 07 bd 40 da fc bc a6 c3 86 bd aa f8 ae 3b
       -0.033087417 -0.030865788 -0.06580286 0.0053397017
0001f0 15 94 09 bd 79 d1 cf 3c e0 57 f3 bd 77 f1 0f be
       -0.033588488 0.025368439 -0.11881995 -0.14056955
000200 4e 78 59 bd d8 93 e7 bd dc 23 bd 3d 0a bd f5 bd
       -0.053093247 -0.11307496 0.09235355 -0.11998947
000210 0d 9e a6 bc 88 a6 ea bd 71 4d cc 3d 0f 03 72 bc
       -0.020339036 -0.114575446 0.09975708 -0.014771237
000220 bd 19 14 3e 6b 43 d6 3d 26 18 8d 3d 73 df 05 3d
       0.14462943 0.10462078 0.068893716 0.0326838
000230 d2 d1 a9 bd cd ec 6d bc e5 fc fc bd 67 9e a1 3d
       -0.08291973 -0.01452179 -0.12352923 0.07891541
000240 c0 e0 99 bd 2a b8 0c 3e f1 1f ed bc 37 2d b4 bb
       -0.07513571 0.13742128 -0.028945895 -0.005498554
000250 8a 7e e7 3c dd 5f e5 3d 7d 77 7a bd 3b 6d cb bb
       0.02825858 0.11199925 -0.06114911 -0.0062080896
000260 c8 d7 71 3c 5c 8c ac 3c c8 45 16 bd 82 2f 2e 3c
       0.014760919 0.021063022 -0.036687642 0.010631444
000270 0a 2a dd bd 5e b3 97 3d 38 52 10 bc d7 5f 35 bd
       -0.10799034 0.074072585 -0.008808665 -0.044280853
000280 5a 45 85 bd 89 b8 81 bd ac b6 44 3d cc 54 e5 bc
       -0.065073684 -0.063340254 0.048025772 -0.027994536
000290 c6 af 9c bd dd 5a ca bd 6d a4 0c be 6c 03 fb bd
       -0.076507136 -0.09880612 -0.13734598 -0.12256512
0002a0 e7 dc ee bd d9 85 07 be 77 ac 00 be 99 50 c3 3c
       -0.116632275 -0.13234653 -0.1256579 0.023842143
0002b0 b2 06 17 bc 89 13 88 3d 80 15 fe bc 93 90 05 be
       -0.009217905 0.06644351 -0.031016111 -0.13043432
0002c0 85 16 3d 3e e9 5f 28 3c d6 68 11 3e 0c db 9e bc
       0.18465622 0.010276773 0.14200148 -0.019391559
0002d0 09 77 af bd 75 30 4a 3d c1 f0 ae bd 4f 09 f3 bd
       -0.08567626 0.04936262 -0.08542014 -0.1186701
0002e0 99 1f 1f 3e 8f 98 ca 3c b7 77 4c bd d3 a3 96 3d
       0.15539397 0.024730949 -0.049918856 0.07355466
0002f0 f0 90 e7 3d e0 0b 71 bd 3d d9 b6 bd 5a f0 9b 3d
       0.113069415 -0.058849216 -0.08928154 0.07614203
000300 19 4f ce bd fc ec 74 bd 11 f1 e7 bd c4 ea 93 3b
       -0.100736804 -0.05979632 -0.11325277 0.00451407
000310 dd ea e9 bd 88 ee af 3d 2d 58 8f 3d c7 4c bf 3b
       -0.1142175 0.08590418 0.0699924 0.00583801
000320 85 c2 e6 3d 72 9e b8 bd a9 51 4d bd 63 8a c6 bc
       0.112675704 -0.09014596 -0.050126705 -0.02423591
000330 bd b5 7a 3c 68 a0 db bc d1 c7 13 be 06 17 80 3d
       0.015302119 -0.026809886 -0.14431693 0.06254391
000340 eb 41 8c 3d e0 c7 a2 bd 14 41 fe bc 7d 10 c2 bc
       0.0684851 -0.079482794 -0.031036891 -0.023689503
000350 de 64 2d 3c 3a 58 c6 bd 5f 6c 0e 3e aa 95 94 3d
       0.010583131 -0.09684797 0.13908528 0.07255109
000360 88 c5 8e 3d 81 86 f4 3d 4b c3 4b ba 61 b7 c1 bc
       0.0697127 0.11939717 -0.00077729364 -0.023647012
000370 0c 76 b5 bd 46 73 c7 3c 9e d5 c6 3d e7 82 b0 bb
       -0.08860406 0.024346959 0.09708713 -0.0053866985
000380 3d 9e ae 3d 15 3f b7 bd 87 c5 56 bc 62 55 7f 3d
       0.08526275 -0.08947579 -0.013108618 0.062337287
000390 3c 16 8b 3d 99 bf bd bd c8 70 f1 bc a9 43 dd bd
       0.0679135 -0.0926506 -0.029472724 -0.10803921
0003a0 2c 44 4b bd 0f 32 83 bc 0b 9a 9c 3d d8 a7 9c 3d
       -0.04962556 -0.01601508 0.07646569 0.07649201
0003b0 17 7b 8a bd e3 9c 15 3d bc c6 e0 3d 02 d7 d0 3c
       -0.06761759 0.036526572 0.109754056 0.025493149
0003c0 8c f3 93 3d eb 5f 45 bd 20 3d d3 3d 25 97 d1 3c
       0.07224187 -0.048187178 0.10314393 0.025584767
0003d0 3a 88 80 bc a1 f4 84 bd 67 63 6d 3d 9c f9 05 bd
       -0.015689958 -0.06491972 0.057956126 -0.03270875
0003e0 d7 5f 12 3e be 9f 07 be 08 8a 1d 3d cc 7d 73 3d
       0.14294372 -0.1324453 0.038461715 0.05944614
0003f0 3d 64 21 3d eb 2a 6d 3d f7 2c 88 3d 40 99 74 b9
       0.039402235 0.057902258 0.06649201 -0.00023326743

critic.2.bias f4 [64]
000000 fc 0d c9 bd c9 e2 d0 3d d2 5e a9 3c 59 4e 66 bd
       -0.098171204 0.10199506 0.020675097 -0.056227062
000010 38 56 2a 3d ae ee 83 bc a3 fe a3 bc 2d a4 90 bc
       0.04158613 -0.016105022 -0.020018881 -0.01765641
000020 98 dc 99 3d 7a ab f7 3c c6 bf b4 bd e2 3a 7a 3d
       0.07512778 0.030233134 -0.088256404 0.06109131
000030 fc 89 db 3c b8 48 e4 3d 12 71 e2 bd 14 75 6f bd
       0.026799195 0.111466825 -0.11056723 -0.058461264
000040 75 36 66 bd 4d ec 53 bd 07 37 23 bd c1 2d 12 3d
       -0.056204278 -0.051739026 -0.0398474 0.035688166
000050 c5 be d3 3c 46 2d 89 3d 6b 2f c4 bd 05 af ae bc
       0.025847802 0.06698088 -0.09579357 -0.02132369
000060 55 18 a5 bd 59 ca 01 bd 8a 74 93 3d 46 d5 b3 bd
       -0.080612816 -0.031687114 0.071999624 -0.08780913
000070 0b 0c 02 3e 90 5e c0 bd eb 72 11 be e5 98 40 bc
       0.12699907 -0.09393036 -0.14203994 -0.011755203
000080 ac a4 bc 3d ca c9 b1 3c 44 7a d7 3d d0 bc f7 bd
       0.09211096 0.021702666 0.10521367 -0.1209656
000090 72 0c e5 3d 90 5f 3b 3d 15 03 04 be d6 78 2b be
       0.111840144 0.045745432 -0.128918 -0.16745314
0000a0 e4 52 e9 3d d1 48 ad 3d c4 4e 93 3c f6 96 8f ba
       0.11392763 0.08461154 0.017981894 -0.0010955024
0000b0 5a 6f be bd 9f 8b eb bc d5 42 bd 3d 8e 7f 73 bd
       -0.092985824 -0.0287531 0.09241263 -0.059447818
0000c0 4c a9 ed bd b3 de 56 bd d4 76 6f 3d 3f ae b9 bd
       -0.116045564 -0.052458476 0.058462933 -0.09066438
0000d0 1e 8c db 3d 70 09 56 bd f4 45 a5 bd 7d e8 47 bd
       0.107200846 -0.052255094 -0.08069983 -0.048805702
0000e0 a5 26 17 3d 9e 2d 93 3d 66 0f bd bd c5 ec 0f 3d
       0.03690209 0.07186435 -0.09231453 0.03513791
0000f0 09 d9 d2 3d eb 98 ca 3c c1 95 11 3c 59 be 98 bd
       0.102953024 0.02473112 0.008885802 -0.07458181

critic.4.weight f4 [1, 64]
000000 d9 89 ca 3c f0 46 4b 3d 14 d4 99 3d 05 4c 1b 3d
       0.024723934 0.0496282 0.07511154 0.037914295
000010 47 76 b1 bd 69 df e5 bc 1d e3 a9 bd 64 d9 94 3d
       -0.08665138 -0.028060632 -0.082952715 0.072680265
000020 ff 9b dd 3d cc c8 54 3d 3f 90 dc 3c 05 28 31 3d
       0.108207695 0.051949307 0.02692425 0.043251056
000030 8e 12 cb bd 03 28 86 3d cc 74 5e bd ea 81 8a 3d
       -0.099156484 0.065506004 -0.054310605 0.067630604
000040 b4 17 4b 3c ab b7 55 3d 3a 31 b5 bd 3a 10 af 3d
       0.012395788 0.052177113 -0.0884728 0.08548017
000050 f7 41 ee 3d 8f a3 4b bd be 95 11 bd 54 57 c1 3d
       0.116336755 -0.04971653 -0.035543196 0.09440485
000060 e4 fb b3 bc 2a 95 7b bd e4 0e 73 3d 86 87 a6 bd
       -0.021970697 -0.06142155 0.059340373 -0.08131318
000070 e6 8a d7 bd a2 97 04 3e dd aa 43 bd d8 5a 88 bd
       -0.1052454 0.12948468 -0.04777037 -0.06657952
000080 54 2f fe bc 68 c7 c0 bd f5 e9 25 bd 6d df 8d 3a
       -0.031028427 -0.09413034 -0.040506322 0.0010824032
000090 b4 29 eb 3d 56 56 ac bb eb 28 91 bd 96 40 3e bd
       0.114825636 -0.0052593155 -0.070878826 -0.046448313
0000a0 b1 39 fc bd 6f f2 16 3d b5 88 ae 3c 8f cc 02 be
       -0.12315691 0.036852296 0.021305421 -0.12773345
0000b0 76 15 32 3d 35 df 97 bd 0a a0 79 bc 8d b8 82 3d
       0.043477498 -0.0741562 -0.01523591 0.063828565
0000c0 8d 69 d7 bd 63 a2 09 bc 02 6a b8 3d ce fe 0c 3e
       -0.10518179 -0.008400532 0.090045944 0.13769075
0000d0 13 b3 7e 3d f8 25 be bc 54 03 77 bd 50 f0 b1 3c
       0.062182497 -0.023211464 -0.06030591 0.021721035
0000e0 8d 7c a5 3d f5 b0 f4 3d e0 c0 8a 3c 61 80 38 bc
       0.08080397 0.119478144 0.016937673 -0.011261077
0000f0 1f e0 e9 3d 6c fc 8d bd 30 94 3b 3c 35 17 7e bd
       0.11419701 -0.06932911 0.011448905 -0.06203385
