models/elite_agent.pth (torch, 48242 bytes, 11 tensors)

actor.0.weight f4 [64, 18]
-0.005145218 0.12957303 0.18651953 -0.032262072 -0.14229625 -0.07053609 0.056187693 -0.032211468
-0.1975882 0.25727034 -0.19286348 -0.007260446 0.03443477 -0.20754777 -0.048386186 -0.14487468
0.022689745 0.11591013 -0.08815518 0.11172315 -0.09181594 0.13458025 0.32416803 0.115123495
-0.1686824 0.13585788 0.23297815 -0.09796441 0.23022692 0.0057604974 -0.018817449 0.19342731
0.055368975 -0.22018242 -0.18159403 -0.20777528 -0.03594727 0.081598185 0.015328099 0.20910712
0.18901595 0.014262117 -0.15254772 -0.11821447 0.00038592337 -0.071614325 0.2039056 0.17331415
-0.21111868 -0.21665484 0.22300597 -0.059265018 0.053839937 -0.0217399 -0.05894934 -0.15935044
-0.05815383 0.005417278 -0.06261779 -0.14332849 0.055826087 0.10717609 0.012828164 0.24672593
-0.08803252 -0.22719973 0.09882992 0.094137326 0.17021646 0.13030253 0.13234474 -0.048657864
-0.20381244 -0.15574342 0.18371423 -0.16000631 0.07619575 0.153659 -0.007904168 0.20328175
-0.08503342 -0.4048034 -0.0039672055 0.10745982 -0.24532646 -0.16064785 -5.7265162e-05 -0.022842884
-0.1663079 0.07340784 -0.29451144 0.044634156 0.029512169 -0.12487709 0.27179825 -0.14822513
0.013568027 0.033540476 0.037924163 -0.13068083 0.22654478 -0.018998237 -0.2648044 -0.111580014
0.07720433 -0.17191836 -0.045911714 0.07275976 -0.1821555 -0.071824744 0.01549511 0.21345244
0.28293252 0.13834131 -0.09415458 0.1253618 0.15201423 0.011912882 -0.18786381 0.10770118
-0.09439858 0.19116585 0.023707643 -0.060220763 -0.23548801 -0.21159966 -0.111866474 -0.0027006208
0.023089057 0.028169997 0.10327092 -0.24284495 -0.09731004 0.24181634 0.2603443 0.16956294
0.051208366 -0.2672326 0.3125221 0.07763238 -0.012940347 -0.108718306 0.12670459 -0.013892025
-0.23278031 -0.019626608 0.08114822 0.1948087 -0.014696757 -0.0011481163 0.029551757 0.12781449
0.17271355 -0.02779403 0.07787621 -0.006120637 0.031894784 0.08107822 -0.11636866 -0.08377159
-0.13055173 0.027714327 0.19957784 0.061031297 0.11341073 -0.12072733 0.03522672 0.018627144
-0.14601907 -0.092149556 -0.09561879 0.27603388 -0.059283525 -0.27648187 -0.016895356 0.07419394
-0.2243212 -0.09754953 0.028168634 -0.047416613 -0.31286618 -0.098475024 0.012852076 -0.07024256
0.27728397 -0.18443434 -0.05745889 -0.022382667 0.092092395 -0.19709024 0.06997369 0.15366583
0.09295412 0.13407369 0.057782665 0.1266693 -0.051804513 0.11209281 0.35316297 -0.107754886
0.2117285 0.14647532 -0.06494368 -0.19335921 -0.15435962 -0.15073289 -0.19235581 0.0022055237
0.13113014 -0.1688315 0.054936435 -0.08957587 0.1885397 0.16455527 -0.16697273 0.009530857
-0.24173209 -0.17970198 -0.23468861 -0.2574912 0.13407338 0.017161991 0.2257751 -0.19219765
0.3402914 -0.0364961 0.036177456 0.18878278 -0.016522607 0.09075411 0.029880688 -0.22288206
0.06546177 -0.008383453 0.096745454 -0.1394029 -0.14449 -0.056004982 0.30907258 -0.08296167
-0.03998584 0.2584269 0.26859072 -0.07839742 -0.1278124 0.26928982 0.1882363 -0.12310074
-0.20434442 0.1945544 -0.09160946 -0.000866428 -0.17939107 -0.09195715 0.13307357 -0.12940145
00000000: 3899 a8bb cbae 043e fafe 3e3e 3c25 04bd
00000010: 1cb6 11be 3a75 90bd 1125 663d 2cf0 03bd
00000020: 9054 4abe f0b8 833e 017e 45be 09e9 edbb
00000030: 790b 0d3d 6787 54be 9830 46bd 075a 14be
00000040: d8df b93c 4a62 ed3d b48a b4bd 1bcf e43d
00000050: ff09 bcbd 68cf 093e 5af9 a53e dec5 eb3d
00000060: 14bb 2cbe 541e 0b3e d391 6e3e 91a1 c8bd
00000070: 9bc0 6b3e 8ec2 bc3b 0d27 9abc cf11 463e
00000080: 94ca 623d 8077 61be c9f3 39be 0bc3 54be
00000090: 723d 13bd f31c a73d b522 7b3c 2d20 563e
000000a0: 668d 413e a8ab 693c 7835 1cbe 6e1a f2bd
000000b0: c255 ca39 88aa 92bd a1cc 503e 4479 313e
000000c0: 7f2f 58be c4da 5dbe ad5b 643e e0bf 72bd
000000d0: 4487 5c3d e017 b2bc dd74 71bd c32c 23be
000000e0: b632 6ebd 6c83 b13b c23d 80bd b4c4 12be
000000f0: e5a9 643d 237f db3d 382d 523c b9a5 7c3e
00000100: 654a b4bd 0ca7 68be 5767 ca3d 12cb c03d
00000110: 394d 2e3e 076e 053e 6185 073e 784d 47bd
00000120: 35b4 50be 347b 1fbe 951f 3c3e b2d8 23be
00000130: 840c 9c3d c958 1d3e 7c80 01bc 1729 503e
00000140: 0026 aebd 6442 cfbe 55ff 81bb e513 dc3d
00000150: dc36 7bbe df80 24be 0030 70b8 0021 bbbc
00000160: 9e4c 2abe da56 963d 34ca 96be 4ed2 363d
00000170: 81c3 f13c 8fbf ffbd 2429 8b3e 54c8 17be
00000180: 6e4c 5e3c bd61 093d 5e56 1b3d 32d1 05be
00000190: 5bfb 673e 31a2 9bbc 7194 87be 1084 e4bd
000001a0: 4e1d 9e3d 5e0b 30be ec0d 3cbd 1203 953d
000001b0: f986 3abe da18 93bd 34df 7d3c 4793 5a3e
000001c0: 88dc 903e 58a9 0d3e 1ed4 c0bd d85e 003e
000001d0: 9ea9 1b3e 402e 433c 5f5f 40be 7092 dc3d
000001e0: 0b54 c1bd fbc0 433e 8836 c23c 0caa 76bd
000001f0: c523 71be 95ad 58be 401a e5bd e6fc 30bb
00000200: 4325 bd3c c4c4 e63c b47f d33d 59ac 78be
00000210: 7c4a c7bd b49e 773e d94b 853e e8a1 2d3e
00000220: ddbf 513d b6d2 88be e602 a03e bafd 9e3d
00000230: c003 54bc b4a7 debd d9be 013e 609b 63bc
00000240: f65d 6ebe fbc7 a0bc 0a31 a63d ef7b 473e
00000250: abca 70bc 647c 96ba 8716 f23c cde1 023e
00000260: d2db 303e 4eb0 e3bc 907d 9f3d a08f c8bb
00000270: 1ba4 023d 560c a63d b152 eebd 7090 abbd
00000280: 5aaf 05be 2809 e33c 225e 4c3e f4fb 793d
00000290: e343 e83d e43f f7bd e549 103d f497 983c
000002a0: 0686 15be e8b8 bcbd c9d3 c3bd 5054 8d3e
000002b0: 48d3 72bd 088f 8dbe 2168 8abc fef2 973d
000002c0: 75b4 65be 0cc8 c7bd e8c1 e63c ec37 42bd
000002d0: ff2f a0be 46ad c9bd 8491 523c 55db 8fbd
000002e0: 2af8 8d3e 5bdc 3cbe 035a 6bbd db5b b7bc
000002f0: f09a bc3d 06d2 49be 5e4e 8f3d 935a 1d3e
00000300: bb5e be3d 9d4a 093e 84ad 6c3d 99b5 013e
00000310: f830 54bd ea90 e53d c7d1 b43e 98ae dcbd
00000320: 5bcf 583e a0fd 153e 3101 85bd f5ff 45be
00000330: 7310 1ebe b959 1abe ecf8 44be 8c8a 103b
00000340: fb46 063e 2ae2 2cbe 0705 613d 8e73 b7bd
00000350: 8d10 413e 2d81 283e e6fa 2abe 5027 1c3c
00000360: 9e88 77be cc03 38be 3652 70be e3d5 83be
00000370: 884a 093e 4e97 8c3c 9631 673e 76cf 44be
00000380: ad3a ae3e ef7c 15bd d02e 143d 4650 413e
00000390: 6b5a 87bc 4add b93d 58c8 f43c 323b 64be
000003a0: d210 863d c05a 09bc 7b22 c63d a2bf 0ebe
000003b0: 30f5 13be 7b65 65bd c33e 9e3e cfe7 a9bd
000003c0: 31c8 23bd 8850 843e b984 893e d48e a0bd
000003d0: 41e1 02be 5be0 893e 04c1 403e 3e1c fcbd
000003e0: aa3f 51be 4539 473e be9d bbbd 0021 63ba
000003f0: 4bb2 37be 0854 bcbd 7044 083e d081 04be

actor.0.bias f4 [64]
0.16046694 -0.07033365 -0.19849882 0.042027727 -0.15853015 -0.06027829 -0.20477489 0.17959067
-0.18018468 0.13452376 -0.18653388 0.06982216 -0.18400918 0.10798077 0.069099836 -0.17863947
0.10387188 -0.2549353 -0.020835174 0.034234777 -0.17521197 0.044582482 0.13603455 -0.15492997
0.07000969 -0.030769594 -0.06563514 0.24132375 0.2221811 -0.053991154 -0.02520712 -0.15424706
-0.02248923 0.16457084 0.043604523 -0.24969094 -0.22564998 -0.14846937 0.0055613457 0.17111574
0.066298045 0.13556764 -0.07377546 -0.09066625 0.19591217 0.27481052 0.23166354 0.14707005
-0.022621635 0.121153586 0.06349095 -0.14181659 0.01823924 -0.13260625 0.1641685 0.25157467
0.19287696 -0.089886464 -0.17086792 -0.1890826 0.094123475 0.14214438 -0.119635694 -0.036138378
00000000: 7251 243e 170b 90bd 4643 4bbe 4425 2c3d
00000010: ba55 22be 5ee6 76bd 82b0 51be 9ee6 373e
00000020: 5582 38be 99c0 093e bd02 3fbe ecfe 8e3d
00000030: e76c 3cbe 0625 dd3d 3784 8d3d 44ed 36be
00000040: c8ba d43d e186 82be 87ae aabc c439 0c3d
00000050: c46a 33be 1f9c 363d a44c 0b3e f6a5 1ebe
00000060: 3e61 8f3d 8410 fcbc b76b 86bd 931d 773e
00000070: 7183 633e d425 5dbd 2a7f cebc f1f2 1dbe
00000080: 553b b8bc 4285 283e a89a 323d fbae 7fbe
00000090: ca10 67be 5b08 18be f33b b63b f738 2f3e
000000a0: 45c7 873d 3ed2 0a3e 9717 97bd 3aaf b9bd
000000b0: 339d 483e f7b3 8c3e 3539 6d3e 8899 163e
000000c0: 0251 b9bc 5f1f f83d 8b07 823d 5e38 11be
000000d0: 756a 953c efc9 07be ca1b 283e 65ce 803e
000000e0: 8a81 453e 6516 b8bd 00f8 2ebe de9e 41be
000000f0: cfc3 c03d 4c8e 113e 8f03 f5bd d605 14bd

actor.2.weight f4 [64, 64]
-0.11233676 -0.0051862877 -0.05960199 -0.05094363 0.11122529 0.23828448 0.08387999 -0.005584128
0.035890114 -0.1281781 -0.011761807 -0.07307541 0.10090433 0.13999826 -0.09587782 0.015862381
0.1242938 0.20494649 -0.0523601 0.049852226 0.041666597 -0.068917446 -0.1537173 0.13892654
-0.031033706 0.06588625 0.009777178 -0.05955092 -0.1597439 -0.08782903 -0.1145891 0.101841435
-0.08361916 0.056454934 -0.10711404 -0.05688467 -0.03892427 0.12687095 -0.012235777 -0.106326215
0.031830113 -0.109561674 -0.13919298 -0.045769736 -0.1365411 -0.22922572 -0.012130828 -0.030479394
0.13388959 0.01615848 -0.0060416036 0.09624921 -0.045584153 -0.05322443 -0.068373494 -0.22398883
-0.13341843 -0.012431884 0.030082934 0.087537035 0.19787006 0.023599863 0.20294204 0.097279474
-0.014560819 -0.058640283 -0.056250684 -0.10143781 -0.019815817 0.13803084 0.05353193 0.040135168
-0.07397858 -0.059843525 0.16062069 0.046601035 0.18586218 0.004275045 0.03072739 0.18263508
0.1007988 0.0056553218 -0.09732113 0.15414666 0.04520504 -0.059125677 -0.14581874 0.16692322
-0.09597843 0.090906665 -0.09806262 -0.007871568 -0.015432427 -0.050990473 0.026422938 -0.122209795
0.088581406 0.12522332 0.060574647 -0.037655305 0.09834697 0.17316462 -0.06055686 -0.16456787
0.07865778 -0.038528625 -0.123794734 0.04113926 -0.16194114 -0.14136769 -0.17226888 -0.10867315
-0.009201296 -0.023656946 -0.064568214 -0.007783564 -0.030125694 0.14689252 -0.08188896 -0.16643995
0.07520683 -0.0066949306 0.12781341 0.123035684 -0.030696388 -0.012213784 0.15360677 0.0973137
0.0007554476 -0.010370735 0.08614077 0.100117214 0.037843596 -0.053702183 0.025601158 -0.028666068
0.10742983 0.10097083 0.023509314 0.06072766 0.039531734 0.06505904 -0.11153343 -0.1513394
-0.05741804 -0.004510151 0.0007423208 0.11611836 -0.012005834 0.1289605 0.0037633632 -0.06959525
0.108686075 -0.12771808 -0.005900564 -0.02516702 0.01658703 -0.09963639 -0.08670801 -0.07875604
0.034189794 -0.13767667 0.07685136 0.08802169 -0.094421476 -0.10778404 0.025171552 -0.010126255
0.015949562 0.14807354 -0.0727812 -0.07215992 -0.07223179 0.052077793 0.08824253 -0.048360337
0.05617093 0.031916305 0.10379731 -0.13110554 0.027521446 -0.0039006383 0.026919726 0.056721307
0.04446017 0.05811156 0.0061928006 -0.08791457 -0.08133793 0.13315898 0.08262829 0.09133459
-0.11349595 0.03145102 0.024689814 -0.030023253 0.091647975 0.16740803 -0.010338652 0.113965705
0.20826352 0.07526252 -0.03577213 0.02794606 -0.0830457 -0.045426104 -0.01834857 -0.012996097
0.07470508 -0.038317353 -0.12504354 0.0337878 -0.04558146 0.100243546 -0.067135096 0.009485916
0.041466318 -0.054789092 -0.20973693 0.016598297 0.107335895 -0.09832913 -0.07379656 0.08241504
0.16178669 -0.10150996 0.0056068357 0.123316385 -0.0016553164 0.16707636 0.12347772 -0.06758971
-0.07721797 0.1316183 0.048255958 0.022764428 0.016774707 -0.03430564 -0.11043103 -0.14610149
-0.05037827 0.06871998 -0.0815817 0.010686091 -0.12166805 -0.08875574 -0.09931345 -0.0443072
0.0016749866 0.105665244 0.044074718 0.036634844 0.1283028 0.13097811 0.11929702 -0.01965887
00000000: d110 e6bd bcf1 a9bb 3721 74bd 45aa 50bd
00000010: 16ca e33d d900 743e 46c9 ab3d 10fb b6bb
00000020: 8301 133d 1f41 03be 98b4 40bc 90a8 95bd
00000030: eea6 ce3d b45b 0f3e 975b c4bd d3f1 813c
00000040: bf8d fe3d 7edd 513e 8b77 56bd d931 4c3d
00000050: 98aa 2a3d 9724 8dbd 1168 1dbe c242 0e3e
00000060: 663a febc 5fef 863d 7530 203c aaeb 73bd
00000070: e893 23be b5df b3bd b1ad eabd 3e92 d03d
00000080: 8640 abbd 4a3d 673d 9b5e dbbd e6ff 68bd
00000090: 0e6f 1fbd 75ea 013e 9278 48bc 8fc1 d9bd
000000a0: 4b60 023d df61 e0bd 9b88 0ebe 0c79 3bbd
000000b0: 6ed1 0bbe 26ba 6abe 61c0 46bc ecaf f9bc
000000c0: 5a1a 093e ca5e 843c a5f8 c5bb 4e1e c53d
000000d0: 73b6 3abd dc01 5abd 6707 8cbd 545d 65be
000000e0: d79e 08be 1aaf 4bbc 7c70 f63c 9e46 b33d
000000f0: 739e 4a3e 8054 c13c 0ad0 4f3e 763a c73d
00000100: 8090 6ebc cb30 70bd 1e67 66bd a0be cfbd
00000110: c854 a2bc f557 0d3e 4c44 5b3d c664 243d
00000120: 1582 97bd 7c1e 75bd c079 243e bae0 3e3d
00000130: a852 3e3e ad15 8c3b 02b8 fb3c b104 3b3e
00000140: 9a6f ce3d 4750 b93b 4d50 c7bd 9fd8 1d3e
00000150: ec28 393d c42d 72bd 8251 15be eced 2a3e
00000160: 5790 c4bd 462d ba3d 0ed5 c8bd c0f7 00bc
00000170: 4ad8 7cbc 63db 50bd eb74 d83c 2149 fabd
00000180: 2b6a b53d 8b3a 003e 1f1d 783d 733c 1abd
00000190: 236a c93d 1152 313e 780a 78bd 7b84 28be
000001a0: 5517 a13d 31d0 1dbd 1888 fdbd a481 283d
000001b0: e6d3 25be b1c2 10be 4167 30be 0790 debd
000001c0: 08c1 16bc 36cc c1bc 573c 84bd 440d ffbb
000001d0: 29ca f6bc fe6a 163e 66b5 a7bd 3c6f 2abe
000001e0: 0a06 9a3d 2661 dbbb 85e1 023e 22fa fb3d
000001f0: fe76 fbbc 531c 48bc 184b 1d3e 684c c73d
00000200: 3b09 463a 04ea 29bc 926a b03d 410a cd3d
00000210: e301 1b3d d2f6 5bbd 85b9 d13c 1ad5 eabc
00000220: 2c04 dc3d cbc9 ce3d 9b96 c03c 91bd 783d
00000230: 07ec 213d ad3d 853d a46b e4bd b7f8 1abe
00000240: 2e2f 6bbd e4c9 93bb 4e98 423a 76cf ed3d
00000250: 1eb4 44bc 390e 043e c2a2 763b f487 8ebd
00000260: ce96 de3d 87c8 02be 8559 c1bb 112b cebc
00000270: 86e1 873c 2a0e ccbd f893 b1bd d94a a1bd
00000280: 990a 0c3d 1dfb 0cbe 3f64 9d3d b744 b43d
00000290: 0c60 c1bd e1bd dcbd 9234 ce3c 98e8 25bc
000002a0: a8a8 823c 97a0 173e 4f0e 95bd 95c8 93bd
000002b0: 43ee 93bd 864f 553d 80b8 b43d 7d15 46bd
000002c0: 7d13 663d acba 023d af93 d43d 8840 06be
000002d0: a874 e13c daa1 7fbb c286 dc3c 9a54 683d
000002e0: de1b 363d 6306 6e3d faec ca3b 8e0c b4bd
000002f0: 8094 a6bd d45a 083e 0539 a93d a10d bb3d
00000300: 9170 e8bd c9d2 003d 4b42 ca3c 53f3 f5bc
00000310: efb1 bb3d 036d 2b3e 7363 29bc da66 e93d
00000320: 0843 553e 3c23 9a3d cc85 12bd 23ef e43c
00000330: dd13 aabd b910 3abd be4f 96bc 95ed 54bc
00000340: fafe 983d a8f2 1cbd 6a0b 00be 1465 0a3d
00000350: a0b3 3abd 7d4c cd3d 207e 89bd d16a 1b3c
00000360: 96d8 293d 876a 60bd 47c5 56be 27f9 873c
00000370: ecd2 db3d c860 c9bd a722 97bd 37c9 a83d
00000380: 69ab 253e 74e4 cfbd 8cb9 b73b 4d8d fc3d
00000390: 34f7 d8ba 1116 2b3e e3e1 fc3d 796c 8abd
000003a0: 7424 9ebd f3c6 063e 0aa8 453d 777c ba3c
000003b0: 1c6b 893c 1284 0cbd aa29 e2bd a19b 15be
000003c0: 7259 4ebd 10bd 8c3d 4e14 a7bd b714 2f3c
000003d0: 192d f9bd 92c5 b5bd da64 cbbd 777b 35bd
000003e0: 398b db3a 0567 d83d b187 343d 6b0e 163d
000003f0: cf61 033e 201f 063e ff51 f43d a30b a1bc

actor.2.bias f4 [64]
-0.150595 0.009422336 0.035675082 -0.019521087 0.058778506 0.13336822 0.12920865 0.09536149
-0.055711396 -0.14520779 0.08963371 -0.01824962 -0.070207275 1.6663298e-05 0.05093408 0.11325361
0.15213189 -0.06864307 0.01729789 -0.01726025 -0.034217194 -0.11465379 -0.10990122 0.050358396
-0.12955563 -0.04308765 -0.0698102 0.093802586 0.06312163 -0.14860992 -0.12341258 0.033678867
-0.08040561 0.06877922 -0.099633664 0.049846787 0.1472713 -0.04121104 0.090837836 0.005658742
-0.038276646 -0.07988457 0.089133486 -0.015884126 0.017522575 -0.12633792 0.119369976 0.048463307
-0.06701826 -0.028195618 -0.06019631 -0.08833579 0.031005863 0.15219164 0.04981504 0.014355182
0.072638035 0.04221398 -0.033909593 -0.03803799 -0.13099618 -0.088928334 0.008556002 0.078488134
00000000: 9335 1abe 2460 1a3c 0920 123d b0ea 9fbc
00000010: bbc1 703d ae91 083e 464f 043e e34c c33d
00000020: a231 64bd 5ab1 14be e191 b73d 3a80 95bc
00000030: d5c8 8fbd 29c8 8b37 41a0 503d 82f1 e73d
00000040: 76c8 1b3e bd94 8cbd 4eb4 8d3c 5e65 8dbc
00000050: 5427 0cbd 9bcf eabd e413 e1bd 9b44 4e3d
00000060: 3baa 04be ad7c 30bd a6f8 8ebd 921b c03d
00000070: ea45 813d 332d 18be bcbf fcbd daf2 093d
00000080: b2ab a4bd 1fdc 8c3d bc0c ccbd 252c 4c3d
00000090: 4ace 163e e8cc 28bd 3009 ba3d f86c b93b
000000a0: f9c7 1cbd 859a a3bd 9e8b b63d 6d1f 82bc
000000b0: 818b 8f3c ba5e 01be 3f78 f43d 7681 463d
000000c0: df40 89bd 7ffa e6bc 6890 76bd 65e9 b4bd
000000d0: 0200 fe3c 20d8 1b3e db0a 4c3d ff31 6b3c
000000e0: 40c3 943d 91e8 2c3d c9e4 0abd b9cd 1bbd
000000f0: dd23 06be 0f20 b6bd 792e 0c3c 63be a03d

actor.4.weight f4 [2, 64]
0.016839396 -0.036609415 0.039882965 0.113080725 0.06111678 -0.01141193 0.026979739 -0.0384338
0.044359546 0.05932316 -0.03512419 0.025036098 0.10636742 -0.009491 -0.012274036 -0.0824023
-0.025676131 -0.042248398 0.0730617 0.016764347 -0.06096013 0.072705925 -0.024274617 0.06582797
0.07572711 -0.045713063 0.00012479095 0.0017010516 0.078567326 -0.026434539 -0.06137902 -0.0156505
-0.016101995 0.030963603 -0.057245817 -0.016571661 0.071901485 0.06148297 -0.0026721961 -0.086412296
-0.026246972 -0.08355935 -0.00071026303 -0.022721918 0.03697002 0.095430546 -0.071829535 -0.049778175
0.0219964 -0.08938652 -0.010602822 0.024967313 0.11969508 0.0047217184 0.07213792 -0.0755482
0.05390531 -0.057252303 0.07939259 0.029627599 -0.08084106 0.08203534 0.07634523 -0.0707246
0.18149765 0.16740593 -0.03226882 0.06764972 -0.1462933 -0.07014758 -0.19766502 -0.029808741
0.15098874 0.13250037 -0.16533275 0.0022866712 0.12857026 -0.09924362 0.11499092 -0.057940423
-0.10835906 -0.13488081 0.1188497 0.10706456 -0.06798728 0.121922165 0.22427072 -0.1865875
0.20927292 -0.090572044 -0.016516978 -0.028646246 -0.16714475 0.13680173 0.13860306 -0.017136084
0.14076728 -0.04694169 0.15305829 -0.1564897 -0.21727684 0.05826167 -0.06384068 -0.133521
-0.08355133 -0.00730655 -0.1854648 0.11681468 -0.014362061 0.1578429 -0.20705725 0.11873996
-0.16748062 -0.16330893 -0.12182098 0.039050166 -0.16818771 -0.22468685 -0.018862667 0.069654256
-0.097574115 -0.10763636 -0.10705515 -0.14979503 0.14786124 -0.020098275 -0.0891982 0.09133493
00000000: c6f2 893c c1f3 15bd 525c 233d de96 e73d
00000010: 9755 7a3d 1bf9 3abc 9d04 dd3c c36c 1dbd
00000020: 5bb2 353d d8fc 723d 62de 0fbd 8118 cd3c
00000030: 29d7 d93d 2480 1bbc 0a19 49bc 89c2 a8bd
00000040: c056 d2bc a80c 2dbd 5fa1 953d 6255 893c
00000050: 54b1 79bd d8e6 943d 90db c6bc d1d0 863d
00000060: d116 9b3d 9f3d 3bbd 51da 0239 d2f5 de3a
00000070: e8e7 a03d 3f8d d8bc 9168 7bbd 7a35 80bc
00000080: 55e8 83bc 62a7 fd3c 977a 6abd 4bc1 87bc
00000090: 1641 933d 91d5 7b3d 0320 2fbb eef8 b0bd
000000a0: e403 d7bc 2a21 abbd f230 3aba 5123 babc
000000b0: e06d 173d 1771 c33d 5d1b 93bd 33e4 4bbd
000000c0: cb31 b43c 4810 b7bd 75b7 2dbc 4088 cc3c
000000d0: b222 f53d a5b8 9a3b 0cbd 933d 04b9 9abd
000000e0: d0cb 5c3d 6481 6abd 9598 a23d 94b5 f23c
000000f0: ff8f a5bd 2502 a83d e35a 9c3d 0fd8 90bd
00000100: 85da 393e 766c 2b3e 4f2c 04bd f08b 8a3d
00000110: e9cd 15be 89a9 8fbd b368 4abe 7631 f4bc
00000120: cb9c 1a3e 2dae 073e fd4c 29be fadb 153b
00000130: eca7 033e 3d40 cbbd 5c80 eb3d f052 6dbd
00000140: 5beb ddbd 321e 0abe 7967 f33d aa44 db3d
00000150: ea3c 8bbd 54b2 f93d 39a7 653e cb10 3fbe
00000160: a44b 563e d67d b9bd 9d4e 87bc 88ab eabc
00000170: fe27 2bbe c115 0c3e f6ed 0d3e f960 8cbc
00000180: 4c25 103e ee45 40bd 50bb 1c3e d63e 20be
00000190: d27d 5ebe caa3 6e3d e7be 82bd bbb9 08be
000001a0: f61c abbd c96b efbb 7cea 3dbe 893c ef3d
000001b0: da4e 6bbc 92a1 213e d106 54be f02d f33d
000001c0: 0a80 2bbe 753a 27be 477d f9bd 11f3 1f3d
000001d0: 6639 2cbe 4f14 66be e185 9abc e4a6 8e3d
000001e0: f0d4 c7bd 7470 dcbd bb3f dbbd de63 19be
000001f0: f068 173e 23a5 a4bc 8cad b6bd cf0d bb3d

actor.4.bias f4 [2]
0.1292219 -0.022670893
00000000: bf52 043e 4fb8 b9bc

critic.0.weight f4 [64, 18]
-0.10030568 -0.013962647 -0.07563877 -0.13052383 -0.20056088 0.062190894 0.10615025 0.13666628
-0.13966027 -0.01931108 -0.21287708 -0.004019446 0.03420133 -0.047413796 0.23330943 -0.17337573
0.17032088 -0.13897923 0.38320047 -0.17992201 0.25816956 -0.116038896 -0.06844077 0.211911
0.22222237 0.009957642 -0.010659794 -0.15521206 -0.24512711 -0.23343349 -0.00948805 -0.14933157
-0.096798584 -0.18221407 -0.057215273 -0.0050762743 -0.11797787 -0.13281341 -0.27637666 -0.15621237
-0.07256601 0.054709185 0.054954693 -0.19474657 0.093539864 -0.09170666 0.17660007 -0.045424826
-0.12369217 -0.0027923733 0.16726302 0.20543365 0.23001413 -0.051121265 0.5072464 0.055824365
0.28808102 -0.08997779 -0.12125571 -0.17992795 0.24971887 -0.023228329 -0.11901657 0.0034692204
0.029243434 -0.1223017 0.2618842 -0.16419175 -0.14868669 -0.23382041 0.09417136 -0.18474442
0.015899854 0.087956734 0.29320565 -0.06948203 0.29444605 -0.22956052 -0.02743352 -0.108401395
0.15584259 -0.029373515 -0.12964076 0.143566 0.0010578788 0.09246315 0.20920517 -0.03698346
0.08097024 -0.1845834 -0.35914248 0.18592131 -0.2458992 0.18251723 0.018769931 -0.22234796
-0.13435194 0.21502668 -0.0081260465 -0.06350934 -0.14296454 0.007193219 -0.141467 -0.027165323
-0.15637158 -0.106950134 -0.0070941895 0.1930243 -0.15593313 0.001151744 0.35897565 -0.23184003
0.056118827 0.014994438 -0.116724 -0.034785572 0.15083654 0.16151622 0.038847826 -0.14609207
0.16915384 -0.16877343 -0.14251143 -0.2079045 -0.06570573 0.036318645 0.24016675 -0.1797798
0.17176944 0.062393248 0.15424229 -0.07282562 0.059809927 0.054533884 0.058356456 0.14740932
0.060318507 -0.16731732 -0.12992619 0.15463124 0.12662421 0.060234442 -0.10590781 -0.22422141
-0.093471974 0.20799367 -0.10431453 -0.16449945 0.20200664 0.0855029 0.034532987 0.18671112
-0.097395085 0.12217358 0.114201985 -0.24655958 0.24241325 0.15658705 0.11145438 0.12949048
0.036997512 0.079394445 -0.033981048 -0.06356602 -0.3310533 -0.15164591 0.06140785 -0.050927814
-0.047063835 0.08167298 0.0066460464 0.08893601 -0.14921215 -0.17514913 0.05199095 -0.03215757
-0.13816212 -0.22556463 -0.14525685 -0.032242417 -0.18012618 -0.12407692 -0.3444646 0.25302267
0.16103059 -0.1216958 -0.09485003 -0.01058096 0.09863333 -0.06401161 0.16623756 0.41370896
-0.049961854 0.21678467 0.11294632 0.15155537 -0.1840344 0.18913431 0.17977683 0.10402457
0.039065123 -0.20100491 -0.024283247 0.12581438 -0.20464268 0.059302088 0.097903885 0.09304866
-0.1687191 0.048412304 -0.10874925 -0.065152645 -0.06367765 0.05411996 0.23059101 -0.04583107
-0.21343257 0.076153465 -0.28083628 -0.21491976 0.093870126 0.0207378 -0.038315207 0.20946492
0.27570066 -0.10333977 -0.092672154 -0.00022885737 0.19864064 -0.12730709 0.085330054 -0.22682844
-0.2160836 -0.16430238 -0.19963957 0.09407333 -0.12861891 0.2193106 0.26269758 -0.06990197
0.10216885 -0.06658681 0.13069074 -0.07128734 -0.081470475 0.16149053 0.21160692 0.12526359
-0.10395868 0.07838352 0.16747858 0.17509843 0.13857538 -0.051324487 -0.10685609 -0.17820026
00000000: 106d cdbd 96c3 64bc 80e8 9abd 0aa8 05be
00000010: d55f 4dbe e1bb 7e3d 4d65 d93d 3ff2 0b3e
00000020: 1a03 0fbe 4532 9ebc 73fc 59be 8fb5 83bb
00000030: b216 0c3d f834 42bd abe8 6e3e 6889 31be
00000040: 9968 2e3e 9250 0ebe da32 c43e 7a3d 38be
00000050: cd2e 843e cda5 edbd ad2a 8cbd 32ff 583e
00000060: 438e 633e 6125 233c 6ba6 2ebc e9ef 1ebe
00000070: 9a02 7bbe 3009 6fbe c473 1bbc 60ea 18be
00000080: 563e c6bd 5396 3abe 905a 6abd e056 a6bb
00000090: 629e f1bd 3d00 08be 3e81 8dbe 23f6 1fbe
000000a0: 7d9d 94bd bd16 603d 2c18 613d a56b 47be
000000b0: d491 bf3d b4d0 bbbd a6d6 343e 620f 3abd
000000c0: 5252 fdbd 4000 37bb ff46 2b3e 335d 523e
000000d0: d388 6b3e 8864 51bd e6da 013f 17a8 643d
000000e0: 5b7f 933e 4746 b8bd ea54 f8bd 083f 38be
000000f0: 4eb6 7f3e 5649 bebc f6be f3bd dc5b 633b
00000100: ed8f ef3c 5079 fabd b015 863e e221 28be
00000110: 5341 18be 9e6e 6fbe eadc c03d a42d 3dbe
00000120: 6940 823c a922 b43d 0d1f 963e 984c 8ebd
00000130: a2c1 963e ea11 6bbe 43bc e0bc 8d01 debd
00000140: 3395 1f3e baa0 f0bc 8cc0 04be f702 133e
00000150: 86a8 8a3a 525d bd3d e139 563e f87b 17bd
00000160: bad3 a53d 6e03 3dbe 86e1 b7be 2862 3e3e
00000170: 00cd 7bbe cce5 3a3e 66c3 993c 2faf 63be
00000180: 8e93 09be f42f 5c3e 1c23 05bc 2f11 82bd
00000190: 4c65 12be 18b5 eb3b badc 10be d089 debc
000001a0: df1f 20be ac08 dbbd 6076 e8bb 29a8 453e
000001b0: efac 1fbe 1ef6 963a a8cb b73e 7967 6dbe
000001c0: dbdc 653d 3bab 753c fe0c efbd 517b 0ebd
000001d0: e574 1a3e 8264 253e e61e 1f3d 2999 15be
000001e0: aa36 2d3e f1d2 2cbe 84ee 11be ebe4 54be
000001f0: ba90 86bd dcc2 143d 46ee 753e 3218 38be
00000200: 54e4 2f3e 1090 7f3d b1f1 1d3e 9925 95bd
00000210: 41fb 743d ec5e 5f3d 2e07 6f3d 78f2 163e
00000220: 8a10 773d 3b55 2bbe 5f0b 05be a757 1e3e
00000230: c7a9 013e 64b8 763d 32e6 d8bd 4c9a 65be
00000240: 3c6e bfbd 4bfc 543e dba2 d5bd 8b72 28be
00000250: d4da 4e3e 251c af3d 7672 0d3d 3331 3f3e
00000260: 1377 c7bd 2436 fa3d bbe2 e93d 1d7a 7cbe
00000270: 2e3b 783e 5b58 203e 3242 e43d 2799 043e
00000280: b48a 173d 8e99 a23d b62f 0bbd e72e 82bd
00000290: d17f a9be 1149 1bbe cc86 7b3d af99 50bd
000002a0: 02c6 40bd 2a44 a73d 14c7 d93b 1524 b63d
000002b0: 12cb 18be 4b5a 33be 76f4 543d a8b7 03bd
000002c0: 5f7a 0dbe 6afa 66be 36be 14be a010 04bd
000002d0: ff72 38be 0a1c febd aa5d b0be 308c 813e
000002e0: 34e5 243e a63b f9bd bc40 c2bd c35b 2dbc
000002f0: 4500 ca3d 8518 83bd 2e3a 2a3e a9d1 d33e
00000300: cda4 4cbd cdfc 5d3e 6650 e73d 5531 1b3e
00000310: 8473 3cbe 6dac 413e 6b17 383e d50a d53d
00000320: c002 203d 3bd4 4dbe a9ed c6bc 7cd5 003e
00000330: da8d 51be bfe6 723d d581 c83d 4c90 be3d
00000340: b3c4 2cbe fb4b 463d edb7 debd c06e 85bd
00000350: 6e69 82bd e4ac 5d3d 0d20 6c3e 5cb9 3bbd
00000360: 118e 5abe 59f6 9b3d c6c9 8fbe ed13 5cbe
00000370: fb3e c03d 52e2 a93c 68f0 1cbd f97d 563e
00000380: a328 8d3e cda3 d3bd e6ca bdbd 6ff9 6fb9
00000390: 7468 4b3e ca5c 02be 86c1 ae3d b745 68be
000003a0: 0545 5dbe e23e 28be 516e 4cbe 85a9 c03d
000003b0: adb4 03be f592 603e 4c80 863e c428 8fbd
000003c0: e73d d13d aa5e 88bd cbd3 053e 19ff 91bd
000003d0: fed9 a6bd c65d 253e 7caf 583e 1945 003e
000003e0: 4ae8 d4bd 8a87 a03d 817f 2b3e 014d 333e
000003f0: b4e6 0d3e a039 52bd 5ed7 dabd 217a 36be

critic.0.bias f4 [64]
0.14047296 -0.25183368 0.20301412 -0.12521353 -0.2414405 -0.09957436 0.11230283 -0.22809651
-0.30384153 -0.02327764 -0.13662805 0.13537411 -0.17351869 -0.0955618 -0.20226045 0.18722698
-0.046523668 0.16650774 0.12652472 -0.024256682 -0.051080484 0.20557524 -0.09730894 -0.020496966
-0.1554891 -0.17317024 0.20249626 0.08335451 -0.20632835 0.09913037 0.23041025 -0.0056586983
0.21171199 0.17991257 0.09324336 -0.27960694 0.18566747 0.058389943 -0.039778404 -0.056047693
0.2597094 0.009359653 0.19393112 0.08939542 -0.28088924 -0.07183834 -0.18026567 0.019616766
-0.041585382 -0.15731232 -0.009167718 0.017714255 -0.008649326 -0.015078436 -0.05392438 -0.04323707
-0.16552022 -0.28495157 0.1908783 0.00082504307 0.044173986 0.009091211 0.09649603 0.10040266
00000000: 25d8 0f3e 58f0 80be efe2 4f3e fa37 00be
00000010: 2e3c 77be a4ed cbbd 07ff e53d 2292 69be
00000020: 1e91 9bbe c0b0 bebc 39e8 0bbe 839f 0a3e
00000030: e2ae 31be e8b5 c3bd 5d1d 4fbe 6eb8 3f3e
00000040: 9a8f 3ebd 0181 2a3e b28f 013e f3b5 c6bc
00000050: c539 51bd 5182 523e e949 c7bd 41e9 a7bc
00000060: 8938 1fbe 8a53 31be 2e5b 4f3e c5b5 aa3d
00000070: bd47 53be dd04 cb3d aaf0 6b3e 9a6c b9bb
00000080: 07cb 583e 003b 383e 60f6 be3d a428 8fbe
00000090: 9d1f 3e3e 4b2a 6f3d aeee 22bd 4492 65bd
000000a0: a1f8 843e 3b59 193c e195 463e f214 b73d
000000b0: b7d0 8fbe fb1f 93bd 9097 38be 57b3 a03c
000000c0: 6f55 2abd 7b16 21be 3234 16bc 7c1d 913c
000000d0: e7b5 0dbc 8b0b 77bc d0df 5cbd 5b19 31bd
000000e0: 227e 29be 2ce5 91be 9a75 433e b447 583a
000000f0: c8ef 343d 4df3 143c b69f c53d e99f cd3d

critic.2.weight f4 [64, 64]
-0.1071698 -0.13466792 -0.07308923 -0.028053837 0.12236691 0.035313282 0.018640552 0.046805978
-0.05232117 -0.07167489 -0.11612859 -0.029926045 0.033220302 -0.018840032 -0.07633464 -0.077182084
-0.025248148 0.06203566 -0.02859202 -0.07645079 -0.0026251823 -0.05395477 0.010487329 0.02595049
-0.1187298 0.09569452 0.10173968 -0.018768556 0.044707157 -0.028719103 0.049304213 0.03733812
-0.0972299 0.12497767 -0.0031970006 -0.04552786 0.11752366 0.06589044 0.044594344 -0.1739454
-0.13777007 -0.04224124 0.11014149 -0.07769745 0.045123383 0.07818162 0.022735536 0.027715443
0.0508614 -0.07693318 -0.07331553 -0.03828396 -0.07307382 0.146578 -0.059116118 0.082242504
-0.0067728725 -0.013719216 0.06701901 -0.11561958 0.06560615 0.11201443 -0.08163694 0.037170384
-0.024491489 0.12200613 0.04929087 -0.09456496 -0.12014216 -0.042889792 -0.14746375 0.057053693
0.10835351 -0.004002714 -0.08254471 0.035086997 -0.032465994 0.042034093 0.08619686 0.0853432
-0.026165225 0.0140944775 -0.018316641 -0.06185438 0.024319658 -0.023019154 0.10203814 0.0052742353
0.10304173 0.062419962 -0.08970937 0.05932461 -0.049503442 0.10520834 -0.06711045 0.008554621
0.09080098 -0.13827752 -0.032071166 -0.1047253 0.033510987 -0.0956349 -0.058828365 -0.05119456
0.069403514 -0.15506141 0.08670133 -0.117345385 0.008170113 0.03548946 0.06796991 -0.096143775
-0.025186397 0.04869266 0.049533725 -0.0684127 0.13621967 0.013277196 0.049744673 0.124071404
-0.053462163 0.017730009 -0.08732152 0.05634826 0.08374495 0.10178887 -0.04239911 -0.019371474
0.07450931 0.079977214 -0.08575159 -0.047601398 0.113634 0.08934198 0.08726874 -0.08415417
-0.046071384 0.011356291 0.026660256 0.0756153 -0.14253342 0.0031412286 -0.126283 -0.03903833
-0.015986754 0.11257217 0.087345205 -0.023610538 -0.036157716 0.17061093 -0.04767657 0.093308516
-0.15354571 -0.09062297 0.012923109 0.039380856 -0.06295782 0.044194464 0.112642586 -0.12152204
-0.0048032957 -0.0697182 -0.1359613 0.017896883 0.14840552 0.12892206 -0.10253923 -0.14837329
-0.12595917 0.04672184 -0.069567315 -0.09588402 0.10024954 -0.05351737 0.029029185 -0.03219503
0.023808317 0.025488142 0.12945351 -0.027100489 -0.0030739384 0.05957284 -0.026782595 0.065611996
-0.14812995 -0.13157696 0.02808591 0.043287367 -0.059635594 0.07996315 -0.029411972 -0.06505007
-0.025564872 -0.063516006 0.08825637 0.09095067 -0.14071101 0.022115963 -0.0882681 -0.00613251
-0.015555268 -0.086002715 -0.065027446 -0.05353022 -0.011747196 -0.07428078 -0.094832115 0.07149149
0.14465475 -0.06759473 -0.11209577 0.038524624 -0.066183574 -0.08264852 0.07939246 -0.10459685
0.13819207 0.047764696 0.117288396 0.053000838 0.1659334 -0.06842931 -0.13420577 0.13625361
0.0015439034 0.012696423 -0.06335164 0.0707571 0.0049996423 0.058334608 0.01708189 -0.057950903
0.044175994 -0.048994996 0.10175706 0.089605756 -0.0889963 -0.018748725 0.0510597 -0.10908097
0.0717171 0.15969859 0.0044353167 0.109913886 0.012144631 -0.024943842 -0.088574186 -0.07151444
0.14540383 -0.0066083455 0.0566923 0.065430254 -0.07634938 0.023992429 -0.08284485 0.06569403
00000000: d77b dbbd 63e6 09be ceaf 95bd 29d1 e5bc
00000010: 819b fa3d a9a4 103d 12b4 983c a0b7 3f3d
00000020: b94e 56bd 49ca 92bd d4d4 edbd 7727 f5bc
00000030: 0312 083d 6956 9abc 5655 9cbd a411 9ebd
00000040: 34d5 cebc 1b19 7e3d d039 eabc 3b92 9cbd
00000050: 400b 2cbb adff 5cbd 0cd3 2b3c 1f96 d43c
00000060: 9c28 f3bd 7dfb c33d e55c d03d 84c0 99bc
00000070: da1e 373d 5344 ebbc 37f3 493d dbef 183d
00000080: 7820 c7bd 4bf4 ff3d c584 51bb 6c7b 3abd
00000090: 3fb0 f03d 91f1 863d 8fa8 363d be1e 32be
000000a0: 9913 0dbe 2705 2dbd dd91 e13d d71f 9fbd
000000b0: 4cd3 383d af1d a03d e03f ba3c 7f0b e33c
000000c0: 0b54 503d 258f 9dbd 7426 96bd a4cf 1cbd
000000d0: baa7 95bd 8b18 163e be23 72bd c26e a83d
000000e0: f9ee ddbb 90c6 60bc 4341 893d f5c9 ecbd
000000f0: 845c 863d d267 e53d 4531 a7bd f93f 183d
00000100: 60a2 c8bc 5ade f93d 39e5 493d 46ab c1bd
00000110: 180d f6bd 35ad 2fbd bd00 17be 22b1 693d
00000120: 72e8 dd3d 3329 83bb 330d a9bd 62b7 0f3d
00000130: 10fb 04bd f12b 2c3d fb87 b03d 6ac8 ae3d
00000140: 7458 d6bc 86ec 663c c80c 96bc 055b 7dbd
00000150: 053a c73c aa92 bcbc 5ff9 d03d 7ed3 ac3b
00000160: 8b07 d33d 13ac 7f3d 8cb9 b7bd 5dfe 723d
00000170: 1fc4 4abd 7877 d73d 3471 89bd ae28 0c3c
00000180: ddf5 b93d 9f98 0dbe 0e5d 03bd 387a d6bd
00000190: d142 093d 3bdc c3bd 03f6 70bd 63b1 51bd
000001a0: 6e23 8e3d 6bc8 1ebe 7890 b13d c752 f0bd
000001b0: f0db 053c 655d 113d cf33 8b3d 07e7 c4bd
000001c0: b453 cebc f471 473d e0e3 4a3d f51b 8cbd
000001d0: 2b7d 0b3e 9988 593c 12c1 4b3d 2619 fe3d
000001e0: 24fb 5abd 863e 913c a0d5 b2bd 6fcd 663d
000001f0: 7982 ab3d af76 d03d b0aa 2dbd edb0 9ebc
00000200: 5698 983d 18cb a33d 889e afbd aff9 42bd
00000210: f1b8 e83d eef8 b63d f4b9 b23d 0559 acbd
00000220: 59b5 3cbd bd0f 3a3c 9c66 da3c 32dc 9a3d
00000230: 48f4 11be 12dd 4d3b 5550 01be a8e6 1fbd
00000240: a7f6 82bc 3d8c e63d 0be2 b23d e36a c1bc
00000250: 1d1a 14bd a2b4 2e3e 8248 43bd 8918 bf3d
00000260: 163b 1dbe 8998 b9bd 73bb 533c d24d 213d
00000270: 08f0 80bd 4105 353d 28b1 e63d 8ce0 f8bd
00000280: f764 9dbb 6ac8 8ebd 7039 0bbe 7c9c 923c
00000290: 9ef7 173e 2504 043e 1600 d2bd 2bef 17be
000002a0: 71fb 00be 665f 3f3d 4f79 8ebd d75e c4bd
000002b0: a14f cd3d 0835 5bbd 9dce ed3c f0de 03bd
000002c0: a909 c33c 82cc d03c 768f 043e d801 debc
000002d0: 2174 49bb a602 743d 2c67 dbbc 955f 863d
000002e0: 61af 17be 1cbc 06be 6c14 e63c 184e 313d
000002f0: 7444 74bd b8c3 a33d 60f1 f0bc f938 85bd
00000300: 6c6d d1bc ae14 82bd c1bf b43d 5844 ba3d
00000310: 8c16 10be 892c b53c e8c5 b4bd 39f3 c8bb
00000320: 86db 7ebc 3122 b0bd 1c2d 85bd 8142 5bbd
00000330: 5077 40bc 8620 98bd 5737 c2bd 216a 923d
00000340: 6020 143e 1b6f 8abd 7892 e5bd ffcb 1d3d
00000350: 418b 87bd a143 a9bd 8498 a23d e036 d6bd
00000360: 3982 0d3e eaa4 433d e634 f03d 6817 593d
00000370: 72ea 293e ab24 8cbd 3d6d 09be 1186 0b3e
00000380: cd5c ca3a a804 503c 81be 81bd 19e9 903d
00000390: 0ad4 a33b 45f0 6e3d 52ef 8b3c ed5d 6dbd
000003a0: e3f1 343d faae 48bd 0166 d03d 3983 b73d
000003b0: b143 b6bd ed96 99bc fa23 513d d865 dfbd
000003c0: 6ae0 923d 0788 233e 2256 913b 881a e13d
000003d0: 46fa 463c 0757 ccbc 6266 b5bd 2a76 92bd
000003e0: bee4 143e d28a d8bb 2f36 683d 4c00 863d
000003f0: 105d 9cbd c58b c43c 90aa a9bd 978a 863d

critic.2.bias f4 [64]
0.09172432 -0.020392774 -0.029211296 -0.07703036 -0.143151 0.07826297 0.019104747 0.021786153
0.14195 -0.030253638 -0.030216612 -0.04986454 0.17932713 0.09675749 -0.04834282 0.015922738
0.06192067 0.022606276 -0.14608532 -0.16198982 -0.0071417848 -0.13212022 -0.12818216 0.08326868
-0.0969565 -0.06443182 0.04846934 0.08868414 -0.015111069 0.09871298 -0.10829789 -0.0076300604
0.054629076 0.011034947 0.005307655 -0.13099925 -0.06524559 0.044451974 -0.09648605 -0.08635723
-0.04407326 -0.020215506 -0.10531781 -0.018709192 -0.12959494 0.15804735 -0.0032530676 -0.09894751
0.13766614 0.07064702 0.09617805 0.019535841 -0.107055806 -0.17703271 0.055785004 -0.097837724
-0.06482933 0.12474321 -0.008412299 0.073224135 0.04784244 0.041550893 -0.11951541 0.0049978527
00000000: f6d9 bb3d bf0e a7bc 874c efbc 18c2 9dbd
00000010: 2d96 12be 5648 a03d 8f81 9c3c e078 b23c
00000020: 575b 113e 7ad6 f7bc d488 f7bc c33e 4cbd
00000030: 88a1 373e ca28 c63d 1f03 46bd 6770 823c
00000040: 87a0 7d3d cc30 b93c 6497 15be a9e0 25be
00000050: a205 eabb 864a 07be 2f42 03be c588 aa3d
00000060: 2191 c6bd d4f4 83bd c987 463d 08a0 b53d
00000070: 6b94 77bc 082a ca3d 49cb ddbd 9605 fabb
00000080: bdc2 5f3d eccb 343c d6eb ad3b ab24 06be
00000090: 7b9f 85bd 4613 363d 7a9a c5bd 0fdc b0bd
000000a0: 2a86 34bd fd9a a5bc ddb0 d7bd 0544 99bc
000000b0: 89b4 04be 2ad7 213e 6b31 55bb fea4 cabd
000000c0: 5af8 0c3e 63af 903d fff8 c43d a109 a03c
000000d0: 1340 dbbd 1048 35be d17e 643d 255f c8bd
000000e0: 3dc5 84bd 5e79 ff3d bdd3 09bc 89f6 953d
000000f0: 6ff6 433d 4531 2a3d 7fc4 f4bd 07c5 a33b

critic.4.weight f4 [1, 64]
-0.0623403 0.00953898 -0.054197803 0.042070597 0.045806553 -0.13392685 -0.11559604 0.063303806
0.081935726 -0.07994674 -0.04295244 0.044740528 0.015700383 0.1401525 -0.09403974 -0.0011367842
0.034323234 -0.03651639 0.054839265 0.0024456845 -0.062360454 0.027106531 0.12084767 0.16376367
0.1179357 0.055225156 -0.0030545918 -0.053162627 0.055586495 -0.07358674 -0.095801495 -0.038107593
0.07528662 0.09801112 0.120342426 0.038605258 0.06072206 0.054085247 0.046083357 0.0435444
0.12080616 -0.104947135 0.09802404 -0.079846434 0.11817277 -0.12273948 0.08650959 0.05079808
0.13162059 -0.121830806 -0.070385434 0.050771862 0.04539338 0.030554496 -0.061155293 -0.088123545
0.045335833 -0.057770815 -0.059797723 -0.11288901 -0.009508421 0.11918464 0.108161815 -0.054626655
00000000: 8b58 7fbd 6249 1c3c 84fe 5dbd 3852 2c3d
00000010: a79f 3b3d 1f24 09be 9ebd ecbd 6da5 813d
00000020: ebcd a73d 1ebb a3bd e6ee 2fbd d841 373d
00000030: 179e 803c 2384 0f3e e897 c0bd 2600 95ba
00000040: 8596 0c3d 3692 15bd 239f 603d c747 203b
00000050: ad6d 7fbd 840e de3c fc7e f73d aab1 273e
00000060: 4688 f13d c633 623d 8c2f 48bb 0ec1 59bd
00000070: aaae 633d a5b4 96bd 9333 c4bd b516 1cbd
00000080: df2f 9a3d 0eba c83d 1776 f63d 8c20 1e3d
00000090: b2b7 783d 7e88 5d3d e7c1 3c3d 9d5b 323d
000000a0: 3869 f73d 86ee d6bd d4c0 c83d 8786 a3bd
000000b0: 9104 f23d d65e fbbd f12b b13d a611 503d
000000c0: 8cc7 063e 6e82 f9bd 3d26 90bd 28f6 4f3d
000000d0: 69ee 393d 6c4d fa3c f97d 7abd 1e7a b4bd
000000e0: 11b2 393d 17a1 6cbd 75ee 74bd 5a32 e7bd
000000f0: 35c9 1bbc 1417 f43d f183 dd3d 33c0 5fbd
