models/final_sniper_agent.pth (torch, 48354 bytes, 11 tensors)

actor.0.weight f4 [64, 18]
00000000: 8f72 e53d 24e5 383e b9bd 6c3e f56a 01be
00000010: 329c 0e3c 663f 03bd e7b6 663e 6fcb 50be
00000020: 482e a4be df4d 423e 82aa 29bd f30f c4be
00000030: ba30 45bd 8619 5fbe 2e00 afbd 1651 bd3d
00000040: 00db babc 50ba 94bd 80e0 9f3d 3c51 4f3e
00000050: 1c39 053e 5af0 79bd b3de a6bd 4b0d 343e
00000060: 8be9 473c 505f 35bd 0f14 50be 07f0 973d
00000070: c7fb 143e 0e15 2cbe 9e7d 123d 3b4d 3b3e
00000080: a04c 75bd 5c11 333d aeed fcbd ef38 413e
00000090: d388 47be c9d5 3c3e f406 c2bd db9b 34be
000000a0: 2467 353e e0f0 1ebd e985 27be 6fcc 34bd
000000b0: 72b8 2e3d 305b c3bd 6766 013e 1647 f43d
000000c0: c670 503d b9c6 153e 4031 133b 8c06 3b3d
000000d0: f40b 65be 13c4 533e 6fb3 f5bd 3bcc a7bd
000000e0: f0b3 7dbe 0387 863d 23f7 813e 8419 6e3c
000000f0: c1ba 643e 5f2b 413e a9e7 b03e 99c2 32bd
00000100: 7762 803d 3b99 5b3d c529 79be ce4d c03d
00000110: be0d 48be 9ed1 85bd fcf7 9dbd eb42 143e
00000120: a527 3b3e 61c4 153d ea0b 38be 6003 293d
00000130: 5c0c fbbc f6b5 53bd 3209 33be ebba 6b3e
00000140: 2107 9a3b 38e4 8dbe 5dea 063e ee36 0dbe
00000150: 3b3a 063e cacf e6bd 2a42 ad3d 7c9f 3b3d
00000160: 78f1 c33c 43cf 0f3e 4b3d af3d abfe 31be
00000170: 564a 51bd 8e3a dc3c dd59 be3c c534 883d
00000180: b34a 37be 82c1 d83d 4955 8b3e ce23 833d
00000190: 8e6a cf3d b0d2 c93e 9297 00be e4c2 6abd
000001a0: 51c5 56be 1a66 bc3d 3486 223d 22d2 9c3d
000001b0: 7c3a 32be 8383 583e 6285 8f3d c330 583d
000001c0: 1479 033e 3d3b bf3d c935 633d 07e4 ab3d
000001d0: 13bc a93e e32b 843d 21eb 3f3e 91e6 b83a
000001e0: 3977 143e d102 33be 7f4c 1f3e 38f6 d1bd
000001f0: f69c 97bd e58e 033e b24d 393e c595 57be
00000200: 1d94 38be 07c8 13be 4587 87be 51c3 073e
00000210: 02a5 2c3e 5a6e 82be 1b00 15be ddbc b53e
00000220: c50a d3bc 6111 97be d871 cf3d a5e1 623e
00000230: e230 823d 60c2 2dbd c4c0 fcbd 6afd 973d
00000240: 7e0e 563e 09bc 2ebe f5e3 86bd ef61 743d
00000250: d0cc 003d 2fc2 963d 5010 7dbb 9a59 75bd
00000260: 1cdd 23bd 565e 9d3d 8456 2e3d 457b 25be
00000270: 473d 2b3e 547e 8dbd 9ec2 8b3d 23bf 2d3e
00000280: 8f43 193e 1082 68bd 7ce9 433d 14ae f1bd
00000290: 3daf 11be ab2e b63b 1004 18bd 7d18 c5bd
000002a0: b04e 55bd 0019 e7bd 2992 adbc 5a85 963d
000002b0: f4b5 14bd 4011 22be 5995 82bc 5414 093d
000002c0: 54c8 6b3d 162b e53d 789d 9a3c 5e0d 06be
000002d0: 62d7 3bbb 580a b8bd 5454 49bd b633 043c
000002e0: 794c 5abe c0a2 7c3d f390 3f3e e30d 79be
000002f0: 7ef6 5bbe 2774 2a3e 249b 28be bcc0 71be
00000300: 6e27 613c 1aaa bd3d 08db 38be c83f 13bd
00000310: d716 4f3e bf63 383e c467 3fbe 3171 803d
00000320: 6c0a 3cbc 0658 18be bc79 48bb 087f 24be
00000330: 3481 093d 078a 9a3d 842d 24be 0abf cebc
00000340: 10d0 09bc a001 a1bc 3c0a 473e fa84 d73d
00000350: c3a8 373e 76d6 b4bd e0fc 8b3b 5953 53be
00000360: b194 6abe da9f 923d 3e2e 34bd 4e03 1c3e
00000370: 35aa 00ba 636e c33d f412 483e b641 ddbd
00000380: 2651 1ebe 45a2 393e 9bf7 203d b6eb 8f3c
00000390: b241 6abe c832 eebc 429b f63d 888a 88bd
000003a0: a66a dd3d e1df 69be fc3a 1a3a 52ac bdbd
000003b0: 3dc7 87bc 03af a83d 3c2a 953e cafa 0e3e
000003c0: e3b7 683d e530 dc3d 55dc e23d f987 3dbe
000003d0: f847 633e 1b5b 183e 5309 adba 3d35 3bbe
000003e0: 2000 b9bd 3a5d 3ebe ccad 2dbe f0f4 c3bc
000003f0: 0da5 22bd 9d6a d7bd 476c 433e 9220 1fbd
0.11203491 0.1805616 0.23119248 -0.12638457 0.008704232 -0.032042883 0.22530709 -0.20390104
-0.3206656 0.18975018 -0.041422375 -0.38293418 -0.048142172 -0.2178708 -0.08544956 0.092439815
-0.022809505 -0.07262099 0.07806492 0.20245832 0.13010067 -0.061020233 -0.08147945 0.17583196
0.012201677 -0.04428035 -0.20320152 0.074188285 0.1454917 -0.16804907 0.03576433 0.1829118
-0.05988753 0.043717727 -0.12350021 0.18869375 -0.19485788 0.18440928 -0.094739825 -0.17637579
0.17715126 -0.038803935 -0.16359676 -0.044140276 0.04265637 -0.09538877 0.1263672 0.11927621
0.0508888 0.14626588 0.0022459775 0.04566054 -0.22367841 0.20680265 -0.11997115 -0.08193251
-0.24775672 0.0656872 0.25383863 0.014532451 0.22336866 0.18864201 0.34551743 -0.043642614
0.06268781 0.05361293 -0.2433234 0.0938984 -0.19536492 -0.06534122 -0.07713315 0.14478652
0.18276842 0.036564235 -0.17973295 0.041262984 -0.030645542 -0.051687203 -0.17483976 0.23020522
0.004700557 -0.2771318 0.1317534 -0.13790485 0.1310815 -0.11270101 0.084598854 0.045806393
0.023918852 0.14043908 0.085566126 -0.17382304 -0.051096283 0.02688339 0.02323621 0.0665069
-0.17899589 0.10583784 0.27213505 0.064033136 0.101277456 0.39418554 -0.1255782 -0.05731477
-0.20973708 0.09199162 0.039678767 0.07657267 -0.17405123 0.21143918 0.07007863 0.052780878
0.12839156 0.09337471 0.055471215 0.08393102 0.33151302 0.06453683 0.18742038 0.00141068
0.14498605 -0.17481543 0.15556525 -0.102520406 -0.07402985 0.12847479 0.18096045 -0.21053226
-0.1802525 -0.14431773 -0.2647039 0.13258101 0.1685982 -0.25474817 -0.14550821 0.35495654
-0.025761971 -0.29505447 0.10129136 0.22156389 0.0635698 -0.0424217 -0.123414546 0.07421382
0.20903966 -0.17063917 -0.06586448 0.05966371 0.031445324 0.07361256 -0.003861446 -0.059899904
-0.04000579 0.07684009 0.042562976 -0.16160305 0.16722594 -0.06908861 0.0682423 0.16967444
0.14967178 -0.056764662 0.04783009 -0.11800781 -0.14227004 0.0055597625 -0.03711325 -0.096238114
-0.052076995 -0.11284065 -0.021187859 0.073496535 -0.036306337 -0.15826893 -0.015940355 0.033466652
0.057564095 0.111898586 0.018873915 -0.13091037 -0.0028662314 -0.08986348 -0.049152687 0.0080689695
-0.21318235 0.061678648 0.18707637 -0.24321704 -0.21480748 0.16645871 -0.16465431 -0.23608679
0.013742311 0.0926096 -0.18052304 -0.0359495 0.20223556 0.180068 -0.18691927 0.062715895
-0.011477094 -0.14877328 -0.0030590137 -0.16064084 0.033570483 0.07545858 -0.16032988 -0.025237579
-0.008411422 -0.019654095 0.19437498 0.1052341 0.17935471 -0.08829968 0.0042720884 -0.20637263
-0.22908284 0.071593955 -0.043989412 0.15235636 -0.00049081753 0.09542539 0.1953848 -0.10803549
-0.15460643 0.18128307 0.039298635 0.01756845 -0.22876623 -0.029076949 0.12041332 -0.06667048
0.10811357 -0.2283931 0.0005883423 -0.09261383 -0.016574496 0.08236506 0.29133785 0.13962856
0.056815993 0.107515134 0.11077181 -0.185089 0.22195423 0.14878504 -0.0013201631 -0.18282028
-0.09033227 -0.1859025 -0.1696083 -0.023920506 -0.039708186 -0.10518382 0.19084273 -0.03884942

actor.0.bias f4 [64]
00000000: 70a0 cdbd 8fea 893e af37 903d 6b78 84be
00000010: 28f3 9d3d a14b 78be 2f62 fdbd bb02 773e
00000020: 3dc3 d8bd 30c1 6c3e 2f46 283d 7048 633e
00000030: 79d7 4cbe 0841 6bbe 6266 5dbe d87b 983c
00000040: 340b 5d3e 920b b63d c637 a33c f161 8d3e
00000050: b2e2 cdbd a9fb 84be 5f8d 0cbe 32a2 9f3d
00000060: fce6 92bd 1929 81bd 6cd5 523e 600f ed3d
00000070: a496 363e 5483 4abe fdc0 58be a4ca 423e
00000080: b522 5a3e dd73 193e 89e8 fe3d d55a 08be
00000090: e431 c03d acf8 9bbd c80a 8cbd 6503 e93d
000000a0: e002 243c 516a 93bd f60c 27be bbe1 37be
000000b0: 8ff2 8abe f7d8 9a3d 8aea 53be d15e f0bd
000000c0: e9f0 85be 4b41 84be 2503 15be 5e42 cdbd
000000d0: 2502 95bd ed83 43be b37b 813d 8ba1 883c
000000e0: 4116 3d3e 7d28 86be 74c6 063d 3d1d e5bd
000000f0: 2681 0d3e eb60 0ebe 6566 d4bd bfbb 8e3e
-0.10040367 0.26936767 0.07041871 -0.25873122 0.07712394 -0.242476 -0.12372243 0.24122135
-0.10584114 0.2312057 0.041082557 0.22195601 -0.20004071 -0.22974026 -0.21621087 0.01861374
0.21586305 0.088889256 0.019924056 0.27613786 -0.10053004 -0.2597325 -0.13725804 0.07794608
-0.07172963 -0.06306667 0.20589226 0.11575198 0.17830902 -0.1977666 -0.21167369 0.19022614
0.21302302 0.14985605 0.12446696 -0.133159 0.09384516 -0.0761579 -0.06837994 0.113776006
0.010010451 -0.071980126 -0.16313538 -0.17957203 -0.27138183 0.07560914 -0.20694938 -0.11736835
-0.26160362 -0.25831065 -0.14551981 -0.10022424 -0.072758 -0.19093294 0.06322422 0.016678592
0.1846552 -0.26202765 0.032904103 -0.111872174 0.13818797 -0.13904159 -0.10371093 0.27877614

actor.2.weight f4 [64, 64]
00000000: e3f2 70bd ce34 0c3c 528c aabd e619 afbd
00000010: 16be ccbc 0ff2 653c 6886 31bd bcd3 0bbe
00000020: cab7 88bd 56b1 9f3d 76e4 783d eb44 91bd
00000030: f251 98bc 3962 0f3e 66f4 1f3b 04a1 b8bd
00000040: f2b4 473d ab99 8c3d 263f 1abe b6b5 55bd
00000050: 63e8 13be 3ffa a73d 521e cfbc 30f7 733d
00000060: 56eb 37bd 9e1c 193e af73 18be 7042 b9bd
00000070: 1cb4 eebc 7d52 db3c 28b2 fe3c 2b7a dbbc
00000080: 3682 a8bd 9a6e cb3c 49bb 093d 78ce 8dbc
00000090: 12e6 6ebc 5669 763c b8ed f3bc 27ef 8d3c
000000a0: fcaf b23d 9c22 52bc 4d3c bcbd d95a 89bd
000000b0: 17ee 193e 699a 293e 45f0 23bd e3b4 1bbd
000000c0: dbbd ebbb 7c9c 5e3d b8d6 8d3d e553 81bd
000000d0: a3b3 2f3d c989 91bd d62e e93d fa11 513d
000000e0: 9afd 44bd 884a edbc 01f4 a3bd c1c3 c33d
000000f0: 6b7a 4e3d 02c6 c8bc 8fae ba3d 3d75 2bbe
00000100: 2c5f 653d 10eb b23b 6284 e7bc b9fe 6b3d
00000110: 7ab3 e93d f977 93bd 029e dd3c 0047 a5bd
00000120: 8bad eebc 9a8e c8bd 4a53 c7bd 3139 f23c
00000130: 2c4a 86bd 0413 2a3e a2e2 d53d 0309 c73d
00000140: e366 643d 2bf9 5b3d b130 d7bc d982 fcbd
00000150: cccc 903c 07c7 0fbc 1093 c23c 96e6 55bd
00000160: 854d cd3d fe80 cb3c 29f7 0cbd ca26 79bc
00000170: cfc9 1f3e c382 183d ea3e a5bc 3ec0 dbbd
00000180: a313 dfbd 309d 763d c153 963d 35dd 86bd
00000190: eaf3 c43b b2e6 d9bb 87dc 51bc 67df dd3d
000001a0: 1dd1 443d da41 82bd 4092 adbd 560d 99bc
000001b0: 1e35 073e d97f 763c e0a9 d8bb bfad db3c
000001c0: c8f1 4a3e 8a63 783c 4e1c b33d ceac 0a3e
000001d0: ee78 c33d 0c0f 093e ab9f 053d 2ae1 be3c
000001e0: f3f1 d53c f2bd 7fbd 28dd a0b9 831d 0b3d
000001f0: 5111 173e 7ef4 cf3b f69e bcbb 1bd6 0dbe
00000200: 1638 46bd 41cd f13d be49 bdbc 8952 743c
00000210: 3f8a b1bd a981 8f3d 29fe 6d3d d453 4b3d
00000220: 22a0 023e 78b6 f8bd 9dc8 e13d a812 92bd
00000230: 0c1c c3bd 21e6 a0bd a390 4b3d c179 ccbd
00000240: 1bf6 f5bd bbc8 e43c f13c 1e39 84a0 963d
00000250: 39d8 033c 6772 cdbd fe57 a3bd e6fb afbd
00000260: 9885 70bd b342 b9bd a946 1abd a6b6 bc3d
00000270: 4cb2 edbd 881c c5bc cfcb ccbd 3c6a a0bd
00000280: 5fd4 19bd 9743 5f3d a9e3 34bd 93bc 17be
00000290: 2eb9 9fbd ecdc 883c 7ed4 9a3d 8012 053e
000002a0: 10e6 ad3d 6dd8 dcbb 20be ba3d cdc8 b43d
000002b0: d49c 8a3b 94e6 443c 9d69 45bd fffd df3d
000002c0: f43d bfbd 3e49 923d 6d26 39bb 8a28 b9bd
000002d0: 4511 083b 8dda 9f3d dfca 183e 323d c6bd
000002e0: 47dd a93d 1d51 85bd 33d4 e2bd 9043 aebd
000002f0: 5b27 f9bd 8bf1 50bc 30b1 57bd 4c73 25be
00000300: 3bea d33d c4ee c53d 5d2f 7bbd f4f7 70bd
00000310: 7a5c 89bc 81fa a93d 3713 533c bf3e 7ebd
00000320: c5e1 a5bd 573f 15bd 708c 5f3d f464 c93d
00000330: d794 463d 7232 04be e2c2 1ebd b21a 693d
00000340: ba3b 893d 7b4d e2bc 2955 f73d 9527 f33d
00000350: 0d8b e23d c64d 14be 3534 75bd 57b0 55bc
00000360: 0870 653d e4be 76bb 7e1e 173d 085b ed3d
00000370: 34f5 d13d 4b70 f6bd 842b b6bd 626e 1f3e
00000380: 3e6c fd3d 4825 5d3d 8083 8c3c b4f5 1c3e
00000390: 1a59 d83d 6d08 5ebd 2a7c b6bd 6a78 ea3b
000003a0: a1a7 393d b661 e1bc 26bb ae3b eedd 073d
000003b0: 6edf 28be ab05 ff3c 9b29 fd3a 6308 07be
000003c0: 7f73 21be 36fc 6cbc 19ae 73bd 0820 4cbd
000003d0: c8ae 50bc c3aa 183d 60ff cebb 41a2 993d
000003e0: 2d59 093e aed3 6e3d eafe 253e 2a51 75bb
000003f0: 2d31 0cbe b639 8fbd b241 80bd 4181 553e
-0.058825385 0.0085575115 -0.08327545 -0.085498616 -0.024992984 0.014034762 -0.04334107 -0.13654989
-0.0667568 0.07797496 0.060764752 -0.07093223 -0.018593762 0.14002313 0.0024407147 -0.09015086
0.048756547 0.06865247 -0.15063152 -0.052175246 -0.14444117 0.082020275 -0.025283013 0.05956191
-0.04490217 0.14952323 -0.1488788 -0.09045875 -0.029138617 0.026772732 0.03109081 -0.026791653
-0.08227961 0.024833012 0.033625875 -0.017310366 -0.01458122 0.0150397625 -0.02977644 0.01732595
0.087249726 -0.012825634 -0.09191189 -0.06706781 0.1503223 0.16562809 -0.04002406 -0.038014304
-0.0071942634 0.054348454 0.0692572 -0.0631483 0.042895924 -0.071063586 0.11385886 0.051042534
-0.048093416 -0.028966203 -0.080055244 0.095588215 0.050409716 -0.02450848 0.09115326 -0.16743942
0.055998966 0.0054601505 -0.028261367 0.05761597 0.114111856 -0.07200617 0.027052883 -0.08070183
-0.029135486 -0.09792824 -0.09732683 0.029568287 -0.06557116 0.16608816 0.104436174 0.09718516
0.055762183 0.053704422 -0.026268335 -0.12329645 0.01767578 -0.008775479 0.023751765 -0.052221857
0.10024551 0.024841782 -0.034415398 -0.015207002 0.15604328 0.03723408 -0.020171601 -0.10730027
-0.10892417 0.0602085 0.073401935 -0.06585161 0.006010522 -0.0066498155 -0.0128089255 0.10833626
0.04805099 -0.063602164 -0.084751606 -0.018683117 0.13203856 0.01504513 -0.0066120476 0.026816247
0.19818795 0.015160451 0.08745633 0.13542482 0.0954455 0.13384646 0.032622974 0.023300726
0.026116347 -0.062437005 -0.00030682352 0.03396369 0.147527 0.0063462844 -0.0057562543 -0.13851206
-0.04839333 0.11806727 -0.023106452 0.014912256 -0.086689465 0.070071526 0.058103714 0.04964049
0.12756398 -0.12144178 0.11024592 -0.07132465 -0.09526834 -0.078563936 0.049698483 -0.0998416
-0.120098315 0.027927747 0.00015090757 0.07354835 0.008047157 -0.10031586 -0.079757676 -0.08592968
-0.058721155 -0.09045925 -0.037665043 0.09214525 -0.11606273 -0.024061456 -0.09999811 -0.078327626
-0.03755605 0.054507818 -0.044162426 -0.14818029 -0.07798992 0.016706906 0.07560061 0.12995338
0.084911466 -0.006739667 0.09118295 0.08827362 0.004230121 0.012017865 -0.048196424 0.10937118
-0.093379885 0.07142876 -0.0028251663 -0.09040935 0.0020762247 0.07805357 0.14921139 -0.09679641
0.082941584 -0.06509612 -0.1107563 -0.0850898 -0.121657096 -0.012752901 -0.052659214 -0.16157264
0.1034741 0.096646816 -0.061324466 -0.058830217 -0.01676773 0.08299733 0.012882999 -0.062071558
-0.08099703 -0.03643736 0.05457729 0.098337084 0.04848179 -0.12909868 -0.038760073 0.056910224
0.06700845 -0.027624836 0.1207679 0.11872784 0.11061678 -0.14482793 -0.05986424 -0.013042531
0.056015044 -0.00376504 0.036894314 0.115896285 0.10251847 -0.12033137 -0.08895019 0.15569451
0.12374161 0.053990632 0.017152548 0.15328103 0.1056387 -0.054207254 -0.08910401 0.0071554678
0.04532588 -0.027512413 0.0053323684 0.033170633 -0.16491482 0.031130632 0.0019314768 -0.13186793
-0.15766715 -0.014464429 -0.059492204 -0.049835235 -0.012736984 0.037272226 -0.006317064 0.075016506
0.13412924 0.058307342 0.16210523 -0.003743241 -0.13690634 -0.06993429 -0.062625304 0.20850088

actor.2.bias f4 [64]
00000000: c91b 813d d1cd 56bd f593 8bbc 245e 5b3d
00000010: 1f4a c8bd a6e7 5ebd 3e21 373d e3ff 7fbd
00000020: 511a 6cbd 7bdd 88bd b5b6 38bd 1c0c 82bd
00000030: 89ce febd 1269 a0bb 0ea9 abbc c74d b73d
00000040: 974e dcbd fa30 70bd 9eb8 b03d b15a 96bd
00000050: 53fb a8bd e3b4 e53c 2d8f b8bd 15c5 97bd
00000060: 5dda 17bd d10a 83bc 04ea 5c3d 5507 af3d
00000070: 78cd d3bb 77fe 633c 8d6a 85bd 770f 1d3c
00000080: cd85 043d 75f7 d03d fcda 153e e7df c13c
00000090: e900 e23d 02f0 83bd 54e9 ee3d fb7b bebc
000000a0: 1f88 c43c 24b0 c5bb a764 ea3c 4da0 f2bc
000000b0: 14e6 a4bc 8d40 863d e739 80bd d37d 0b3e
000000c0: 2dea ff3d 4126 073e 42fc 063e 1b99 3bbc
000000d0: e8ba 0c3d c8cd f33d 441b 933c cdc5 423d
000000e0: 498a 5b3d f41e 8ebb 641a 86bc 1a13 2cbd
000000f0: 3c89 e23d 497b b63d a18a d93d 3c1e 97bd
0.06304128 -0.052442376 -0.017038325 0.053556576 -0.097797625 -0.054420136 0.044709437 -0.062499892
-0.057642285 -0.06682869 -0.045096118 -0.06349966 -0.12441737 -0.004895338 -0.020954635 0.08950382
-0.10757177 -0.058640458 0.08628963 -0.07341517 -0.08251061 0.028040355 -0.090116836 -0.07410637
-0.03707348 -0.015996369 0.053934112 0.0854632 -0.006463703 0.01391565 -0.065144636 0.009586207
0.032354165 0.10203449 0.14634317 0.023666335 0.1103533 -0.06442262 0.116655976 -0.023252478
0.023990689 -0.0060329605 0.028612448 -0.029617453 -0.020129241 0.06555281 -0.06261044 0.13622217
0.12495837 0.13198186 0.13182166 -0.011450077 0.034357935 0.11904484 0.017957337 0.04755192
0.053598676 -0.004337186 -0.016370006 -0.042010404 0.11061332 0.089102335 0.106221445 -0.073788136

actor.4.weight f4 [2, 64]
00000000: 14f0 a1bb 1722 fc3d f55d edbd 358f 863d
00000010: 85f6 a03d efe5 babd 8eca 643d ea44 e73d
00000020: 4f4c c2bc bad2 8dbd 9449 87bd 2b5f 15bc
00000030: d149 783d 5c9d c3bd 2091 65bd ea58 163d
00000040: 7ebf cebd fe15 92bd 1a03 6d3d c0e8 743d
00000050: 9421 d13d fa86 d63d f0a3 5f3d c757 d13d
00000060: 97e0 7dbd 32f6 72bd 514e 1c3d 94c2 3fbb
00000070: b42f ca3c 11e1 c2bd 9080 953d be27 f0bd
00000080: 5e93 29bc dcc8 333c 221b b8bd fadb 02be
00000090: 1224 cdbd 5952 c1bd 1466 2c3d 87d7 97bd
000000a0: 4356 683d 94bf 7f3d fde0 86bd 211f e43d
000000b0: c0e0 f4bb 2558 df3b 60de f73d 5025 9fbd
000000c0: d6ea d33d 7b7b dbbc 863b d73d 8984 383d
000000d0: 27d1 7a3d 2b5c 96bd a26f 383c 2896 dd3d
000000e0: e3ed bf3d c5ce 0e3d c5c9 ad3c 7176 5bbd
000000f0: 7c79 62bc d31e cc3d e0f8 993d 2d22 eb3c
00000100: 5fe5 c73c 3463 fc3d 3ba9 103c c204 35be
00000110: 4a2d 1d3e 55f2 28be 5e3f 7d3d c805 bf3d
00000120: 24ba cebd 39b2 1e3e 32d4 983d bc65 09be
00000130: 2372 3a3e e770 17be fffe 023e 94cd 02be
00000140: 450b 4b3d 5a67 9f3d d70d c6bd 527d 2dbd
00000150: 1128 023e d0b5 39bc 8452 41bd cccb 4d3e
00000160: 38c1 a13c dc43 1a3e ef83 13be cd48 0dbe
00000170: e361 4bbe c719 423e e4dc 2fbe ec6d 113e
00000180: f1b2 ac3d 0f7b 13be 4cfb 34be 7823 f63d
00000190: fdc3 05be a0d2 cfbd 08dd 36be 6722 173e
000001a0: 12b2 303e 6a79 2dbe a4b0 c53d aa61 023d
000001b0: f055 21be 17e0 1e3e 5794 f1bd bb3c f6bd
000001c0: 4b8d 19bd c964 f9bd fc14 0dbe 2ade 04be
000001d0: 6dd3 9abc 0b47 21be f5ff e1bd a241 07be
000001e0: 014b 003e 458f 393e 2909 be3d e53b f03c
000001f0: 04e5 a3bd f755 263e 5a2f 3cbe bdb1 0fbe
-0.0049419496 0.123111896 -0.115901865 0.06570283 0.0785952 -0.091258876 0.055857234 0.11292441
-0.023718027 -0.069249585 -0.06605831 -0.009116928 0.06061727 -0.09551498 -0.056046605 0.03670589
-0.10095118 -0.07133101 0.057864286 0.05979228 0.10211483 0.104749635 0.054599702 0.1022182
-0.061981764 -0.05931682 0.038160626 -0.0029260265 0.02468095 -0.09515584 0.07299912 -0.1172633
-0.0103500765 0.010973182 -0.0898955 -0.12779227 -0.100166455 -0.09439535 0.042089537 -0.074141555
0.05672289 0.062438563 -0.06585882 0.1113875 -0.0074730814 0.0068159276 0.121029615 -0.07770789
0.10347526 -0.026792279 0.105094 0.04504827 0.06123462 -0.073417984 0.011257084 0.10819656
0.09371545 0.03486516 0.021214375 -0.05357975 -0.013822909 0.09966817 0.07518172 0.02870282
0.024401365 0.12323609 0.00882941 -0.17677596 0.15349308 -0.16498692 0.06182801 0.093272746
-0.10094097 0.15497674 0.07462348 -0.13417715 0.18207602 -0.14789163 0.12792586 -0.12773734
0.049571294 0.077833846 -0.096706085 -0.042355843 0.12710597 -0.011334851 -0.047197834 0.20097274
0.019745454 0.15064949 -0.14405797 -0.13797303 -0.1986156 0.18955146 -0.17174107 0.14202088
0.08432568 -0.14402412 -0.17673987 0.12018484 -0.13063045 -0.101475954 -0.17857754 0.14759217
0.17255428 -0.16940847 0.09652832 0.03183142 -0.15755439 0.15515171 -0.11795872 -0.12023302
-0.037488263 -0.12177426 -0.13777536 -0.12975374 -0.018899644 -0.15749757 -0.11035148 -0.1320863
0.12528612 0.18121059 0.09279091 0.029325435 -0.08002666 0.1624373 -0.18377438 -0.14032646

actor.4.bias f4 [2]
00000000: 43a6 063d a4fa 1f3d
0.032873403 0.03905739

critic.0.weight f4 [64, 18]
00000000: 5f83 233e 3a2a 76bb 860c 5c3d 7968 e53c
00000010: 886c 6bbd da7c 6ebe 1419 433c dd36 edbd
00000020: d356 1e3e 7f18 3b3e 66ab d4bc b3c2 4fbd
00000030: a961 4abd 314b 523e 5aac f23d 4a8e 4fbe
00000040: 040a 0fbe 9c1c 78bd a78c 943d b23a 363e
00000050: 846f f1bd 7219 b33d 7854 973c 4a9f fdbc
00000060: d09b 38be fee2 063e 81a4 513e 1459 55be
00000070: b5de 163e 52d5 c1bc e2a7 90bd bce8 313d
00000080: 04db 48bd ce85 d83d fb7c 4b3e 9383 123e
00000090: 082d 57be df39 c4bd 4e1f 3d3e ad70 18bc
000000a0: 0122 12be 3530 b33d 1421 5d3c aa2c d53d
000000b0: bf2b a33d b3e6 143b b926 763e 8fae 4fbe
000000c0: 57ed 56bd b244 d2bd 5118 59be ae20 5ebe
000000d0: 9f6f 603e b2e5 d33d 6665 39bd e9c2 f4bd
000000e0: ae9b 23bc 70b5 2a3e 61e7 2e3e f965 703e
000000f0: 1137 40be 06f1 5bbe 4a16 e83c 2f69 5cbe
00000100: ab06 1f3e 3a74 e7bd b3ca 38bd 40c9 61bc
00000110: 9bc2 443e b69b 09be 7b0b 0e3e 20b8 443c
00000120: 2a02 883c b012 48bd 91f7 0dbe 0051 54bd
00000130: 033c 82bd 36dc 72bd 3063 1fbe 413f b73d
00000140: 65b3 b3bd 71a8 c2bd 9de1 de3c 6c00 ba3d
00000150: ca85 08be bd16 653e 0df1 003e 6abb ce3d
00000160: d4ce 393d 28a5 99bc ca65 193e cab9 243e
00000170: fc98 023d c0a6 923b 0ac1 383e 395b 02be
00000180: 5854 25be 8a95 36be 1ec1 983e db16 b0be
00000190: fa0b c43d 0840 20bd ad2d 80bc d92e 323e
000001a0: 04d6 1bbe c559 113e 9c08 0a3d ea90 f4bd
000001b0: 5ed2 97bc a2e8 4abe 5228 633e 75a3 1fbe
000001c0: 266e 723e 2fbd 58be d833 1dbe 495c 62be
000001d0: ae96 223e 3e5f 16be 5a7a f93c fc7e d13d
000001e0: ee50 05be c3c5 383e d596 3ebe 2abb 66be
000001f0: 4ff9 6dbe 265c e0bd 42f4 8fbe 28d0 37bd
00000200: 09a5 3e3e 4196 5dbd 83de 27bd 19ba 9abd
00000210: 0343 c1bd 66c2 7e3d 7f4d bd3c fdf6 203e
00000220: 0629 38be 6959 21bd f31b 3f3e 96a9 cd3d
00000230: 085f c73c 3278 b5bd c7e9 313e 1b9e 613e
00000240: a1fa 233e 9cce b7bd 684b 2a3e 0a8c 86be
00000250: b490 423e 170d ffbd 62ec 4bbd 9ca3 26be
00000260: fd33 793e 6372 993d f282 0c3e f566 29bd
00000270: f864 f4bd d4a5 30bd f08c 713c 6ab0 ee3d
00000280: d74c 323e a839 853c f5c1 9bbe b628 2c3e
00000290: d204 053e 1159 0bbd 6a1d 98bd 7e92 203e
000002a0: 71ff d93b 3047 46be bcc9 c7bd 8cee 06be
000002b0: fbfe 1d3e f99b 0a3e ce5a d93d 4069 c1bd
000002c0: 5dd0 4ebe 0fc4 103e ece4 e4bd c03e 893b
000002d0: 450e 0ebe 8140 c8bd 1ca2 603e 2f89 1abe
000002e0: 253c 8e3e 4ab5 523e f069 4cbc 2f8c e63d
000002f0: e950 1c3e 7c54 113c 1f78 21be 868f c3bd
00000300: 2ff4 243e 9449 69be 2bbb 3e3e 97c2 433e
00000310: c0a4 b5bc f25c 95bd fee2 c5bd 2f30 e33d
00000320: 3d10 6fbc c587 41be 84c3 1fbe f828 533c
00000330: 593b 6f3c f7e1 573e b863 1c3c 6044 1f3d
00000340: 292b 523e 458c 013e 3dc3 3a3e 408e 43bd
00000350: 3414 16be 9dbf 1abe 6b99 693e cea3 07be
00000360: 4462 8fbd 09d5 12bd ca41 86bc d515 1dbe
00000370: 197a b43c 84c7 0fbe 9fb7 cd3d 3afe 523d
00000380: 14c9 683e a347 b43c 8304 cb3d 5973 8c3d
00000390: 8abd 213d 4049 4a3b 4bdb 05be 9008 7c3c
000003a0: c835 d13c a900 2c3e fab8 e4bd 2782 2e3e
000003b0: 24ad 703e 669c ac3d 4970 4dbe ad07 393e
000003c0: aad9 05be f05d 243e dfb5 203e 5241 23bd
000003d0: c1d1 50be a010 a73d ddf2 793d 96fa 56be
000003e0: 5308 43be c050 6fbb 2445 23bd 8ef4 fb3d
000003f0: 6e17 a43d b4d5 223e cc63 c63d 36e5 fe3d
0.15968083 -0.003756179 0.05372288 0.028003918 -0.05747655 -0.23289815 0.011907835 -0.1158273
0.15462808 0.18271063 -0.025960635 -0.05072279 -0.049409542 0.20536496 0.1184928 -0.20269123
-0.13968664 -0.06057416 0.0725339 0.17795828 -0.11788848 0.08745088 0.018472895 -0.030959744
-0.18028188 0.13172528 0.2047291 -0.20834762 0.14733393 -0.02366129 -0.07063271 0.043434843
-0.049036995 0.10572396 0.19871895 0.14308004 -0.21013272 -0.095813505 0.18468973 -0.009304208
-0.14270784 0.08749429 0.013496656 0.104089096 0.07967328 0.0022720515 0.24038209 -0.20281433
-0.05247244 -0.10267009 -0.21200682 -0.21692154 0.2191758 0.10346545 -0.045262717 -0.11951239
-0.009985847 0.16670775 0.17080452 0.234764 -0.18771006 -0.21478662 0.02833094 -0.215245
0.15529887 -0.11301465 -0.045115184 -0.013780892 0.19214861 -0.13438305 0.13871567 0.012006789
0.016602594 -0.048845947 -0.1386397 -0.05183506 -0.063591026 -0.05929204 -0.15565181 0.089476116
-0.08774451 -0.09504784 0.02720719 0.09082112 -0.13332286 0.22371955 0.12591954 0.1009434
0.045363262 -0.01875551 0.14980236 0.16086498 0.03188418 0.0044754446 0.18042389 -0.12730111
-0.16145456 -0.17830482 0.29834837 -0.34392437 0.09572597 -0.039123565 -0.01564678 0.17400683
-0.15218359 0.141944 0.033699617 -0.11941703 -0.018532928 -0.19815305 0.2218335 -0.15589698
0.23674831 -0.21165918 -0.15351808 -0.22105516 0.15877792 -0.1468477 0.03045385 0.102292985
-0.13019153 0.1804419 -0.18612225 -0.22532335 -0.23239635 -0.10955076 -0.2811604 -0.044876248
0.18617643 -0.05409837 -0.040983688 -0.075550266 -0.094366096 0.06219711 0.023108242 0.15719219
-0.17984399 -0.03939191 0.18663006 0.100421116 0.024337307 -0.08860816 0.17374335 0.22032969
0.16013576 -0.089749545 0.16630328 -0.26278716 0.19000512 -0.124536686 -0.04978598 -0.1627335
0.24336238 0.07492521 0.13721827 -0.041357953 -0.11933321 -0.043126896 0.014743075 0.11654742
0.17412125 0.016262844 -0.30421415 0.16812405 0.1299012 -0.034020487 -0.07427485 0.15680882
0.0066527654 -0.19363093 -0.09755275 -0.13176936 0.15429299 0.13536061 0.10613023 -0.09443903
-0.20196672 0.1413729 -0.11176476 0.0041883886 -0.13872631 -0.09777928 0.2193684 -0.15091394
0.27780262 0.20576969 -0.012476429 0.11257207 0.1526524 0.00887024 -0.15768479 -0.09548859
0.16108774 -0.22781974 0.18626086 0.19117199 -0.022173285 -0.072931185 -0.09662436 0.11093175
-0.014591274 -0.18899448 -0.15601927 0.012888186 0.014601552 0.21082292 0.009545259 0.038883567
0.20524277 0.12651165 0.1823854 -0.047743082 -0.14656144 -0.15112157 0.2281243 -0.1324608
-0.070011646 -0.035847697 -0.016388793 -0.1534036 0.022030877 -0.14040953 0.100447886 0.05151198
0.22732955 0.022006815 0.0991297 0.06857938 0.0394874 0.0030866414 -0.13071935 0.015382901
0.02553834 0.16797127 -0.11168094 0.17041837 0.23503548 0.08428268 -0.20062365 0.18069334
-0.13071314 0.1605146 0.15694378 -0.039857216 -0.20392515 0.08157468 0.061022628 -0.20994028
-0.19046144 -0.0036516637 -0.03986086 0.123025045 0.08012281 0.15901834 0.096870035 0.12446062

critic.0.bias f4 [64]
00000000: 32fc dfbd 42d2 3bbe 7abd 88bd 5bb6 623e
00000010: c274 efbb bfc7 9b3c bf22 d6bd d216 28be
00000020: 1449 c53d 0aac 3bbd 922f 223e 57c7 d43d
00000030: 723d cb3d b4d2 4d3e d5fa 22be ff1c 9cbb
00000040: 7beb 0a3e c6d5 493e 509d 40be a041 38be
00000050: fc01 1e3e ea0d f9bd d88c 1d3d b1f8 4ebd
00000060: 2219 3ebd 6b5e 0a3e 8290 483d 37dc 5a3d
00000070: 72a0 92bd 65ef cc3d 4eda a4bb 7605 0a3e
00000080: e384 493e 4e68 59be efdd 20be 5250 c23c
00000090: a009 15be 3151 453e 331d ea3d aaba 4f3c
000000a0: 7ff3 4e3e 89a8 eebd 9dc6 573e c89b e7bc
000000b0: 8bc9 773e f122 82bb c327 ee3d 5068 2abc
000000c0: 5a53 e0bc 1b7e 95bd 7699 c5bb 2b2d 613c
000000d0: c419 81be 458d 0f3e af83 a0bd 057b 3abe
000000e0: ced6 d6bc 6938 4dbe 89b0 733d 977c 9d3d
000000f0: 2717 6dbc 46fc bcbc 3e24 583e e457 1b3d
-0.10936774 -0.18341926 -0.06676765 0.22139876 -0.00730762 0.019016145 -0.10455846 -0.16414955
0.09633079 -0.045818366 0.15838459 0.103895836 0.09923829 0.20099908 -0.15915997 -0.004764199
0.13566391 0.19710454 -0.1881001 -0.17993784 0.15430444 -0.12160857 0.038464397 -0.05053014
-0.046410687 0.1351258 0.04896594 0.05343267 -0.07159509 0.100065984 -0.0050309068 0.13478646
0.19679599 -0.21231195 -0.15709661 0.02371994 -0.14554453 0.19269253 0.114313506 0.0126787815
0.20210074 -0.11653239 0.21071859 -0.028272524 0.24197976 -0.0039714505 0.11628678 -0.010400847
-0.027383495 -0.07299443 -0.006030257 0.013743679 -0.2521497 0.14018734 -0.07837617 -0.1821099
-0.026225474 -0.2004105 0.05949453 0.07689779 -0.014470852 -0.023069512 0.21107575 0.037925616

critic.2.weight f4 [64, 64]
00000000: 1bd8 683d 143b 80bd 8097 143d fa1f efbd
00000010: 966f 8f3d 7094 953d a416 f53c 17c5 7d3d
00000020: fafd 243a aa07 b4bd 2673 03be b8cb 023a
00000030: 8a5f f33d cb68 a4bd 88ae 1dbd 2f2d e53d
00000040: 72bf 2f3c 6442 c43d 24e6 66bd a885 79bd
00000050: 05ef bdbd 4cca a5bd 2f9b cb3d 5d70 fd3d
00000060: 7a71 4e3c e468 f5bd b97f 98bd 3117 05bd
00000070: 9098 dabd 71c4 853d c0c4 47bd 3718 4a3d
00000080: 38c6 9e3d d2e3 b53d 807d 283c 0031 d43d
00000090: 43b7 a2bd 8ef8 9c3d b343 80bc e140 89ba
000000a0: 5a6c 9c3c e32f ac3d 648a ff3c fec1 dfbd
000000b0: 9100 b73c d946 75bd 683d e6bd d764 86bd
000000c0: 89a1 d23d 19ad 163d accf a1bd 7ede 92bd
000000d0: d31b 593d 5492 8a3d 49e4 e33c 473e d3bd
000000e0: 7a3b a03d 364a 7cbd 4e5b 10be a97a 84bd
000000f0: 038b c73d 3f87 cdbd 0601 15bd ad69 02bd
00000100: 0a1b 4c3c f562 533d eee9 8abc eb88 0b3c
00000110: 16da 533c 029d c8bd e6ab 763d 9f20 383d
00000120: 8e47 ea3c 01d9 a3bd 02ab f53d 9ba3 f03d
00000130: bdd4 64bc 0e12 5b3d c8fc f9bb 849c 06bd
00000140: 23d7 b5bd 298a e53c 3480 9c3d 63c9 c73a
00000150: f594 48bd 1060 0ebe 698a d6bd c61a a8bc
00000160: a79d ccbb b2f9 3c3d a65e 733b fe85 c13d
00000170: 31cb c7bd 3618 a3bd bf9f 243d 8b07 003d
00000180: 9610 983d 9958 72bc 628e 183c 2b4d a43c
00000190: 79ca 8b3d 6a29 823d 0813 b03d 92ae 033e
000001a0: 5277 cebc f6e0 e1bd d628 1c3d 1099 583d
000001b0: e0c9 9b3d a5e5 713d 6557 063d fe03 223b
000001c0: a6f7 6fbd a753 26bd 6967 d03d e4a2 04be
000001d0: c740 02be 7e53 a83d 83de bcbd 5b6a a23d
000001e0: b878 30bb 38e5 22bc 1cb5 143d 617f 35bd
000001f0: 69ab 9bbd 5056 2d3d acee f83d ae46 5ebc
00000200: 02bc a23d ea8a b0bd a53a e4bd 6a32 afbd
00000210: 2d32 9c3d f13c b6bd 9fb8 a23b 2cd7 8cbd
00000220: 9e60 bbbd a436 a2bd 4c87 d6bd ef10 cb3c
00000230: 2a8f 82bd bbfb 86bd 5ff8 923d 53b3 5a3d
00000240: 9b0f b43d 11b9 233d 1cc0 c2bd 7d0e f53d
00000250: d385 4bbc 51c8 b6bd 55a3 ec3d bba6 2cbd
00000260: 9bc2 88bc 13df a5bd 5d1e 3abc fa75 ae3d
00000270: 792b e0bd 4902 e53d 7050 0bbc 74cb 723d
00000280: a604 bcbd fdc3 76bd aa52 4dbd a999 933d
00000290: 3b41 803d 6398 30bc 382b f4bb a79e 97bd
000002a0: d3fd d03d d117 ab3d a3be ee3d 8a47 d53d
000002b0: 98dd fd3c f379 d2bd 5b8a 41bd b7f4 95bd
000002c0: 299c d8bb 318b f3bd 9544 2fbd 6607 e6bc
000002d0: 5aa2 dc3d c855 9cbd de29 323d f83b c1bd
000002e0: dd52 b93d 72a0 273b 9692 093c e12e 333d
000002f0: f6bd 7fbc a4df ccbd e5e3 0cbc 0886 353d
00000300: e221 023e 466b d2bd 2a46 f63d 5457 a13d
00000310: 10ea 07be c595 86bd dba8 743b f929 393c
00000320: 3f1f babd fb30 b13c 23fa a13d adc9 97bd
00000330: d802 053d 6786 743d 8a97 2fbd b2c5 a1bd
00000340: 0ea8 b03d 1643 04be a1e9 bebb 85d9 663d
00000350: dd28 00be 0797 813d b921 fdbd 1a14 c43d
00000360: 7cb9 b23d 5c34 b4bd 4ffb 8ebd b481 54bc
00000370: 5252 c8bd 8905 173d 9a78 7fbd d68c 6ebd
00000380: 41a5 b6bb dfd7 853d 6c0c bbbd b709 b43d
00000390: 3b4e babd 5965 9c3d 0c6a 05be 5852 47bd
000003a0: 69fa 1bbd 62f8 073e e9a3 e6bd 5e96 863b
000003b0: 7b6a f1bd 6306 b3bd 7be6 4f3d c0af 06be
000003c0: a72e 63bd 85fc 11bc 4ffd d93c d4c3 5f3d
000003d0: cda5 cc3c e3a8 993d 760b 75bd 026b 15bd
000003e0: 7b65 4abd c286 5f3d 4b1c 9fbd 0eda f7bd
000003f0: f63e f5bc 542e b0bc dfa6 1d3c 40ee a23d
0.05684672 -0.06261268 0.036277294 -0.11676021 0.07003705 0.07303703 0.029918022 0.061955538
0.0006293949 -0.08790524 -0.12836894 0.0004989463 0.11883457 -0.080278 -0.038496524 0.11190259
0.010726796 0.095829755 -0.056371823 -0.06091848 -0.09274105 -0.08095226 0.09941708 0.12374947
0.012600297 -0.11982897 -0.07446236 -0.03249282 -0.1067363 0.06531609 -0.04877162 0.0493395
0.07752651 0.08881344 0.010283828 0.103609085 -0.07945111 0.076645955 -0.015657282 -0.0010471606
0.019094635 0.08407571 0.03119392 -0.10925673 0.022339137 -0.05988202 -0.11242181 -0.065622024
0.10284717 0.036786173 -0.079009384 -0.07171343 0.05300505 0.06766191 0.027818816 -0.10314613
0.07823844 -0.06159421 -0.1409733 -0.06468708 0.09743311 -0.10035562 -0.03637793 -0.03183906
0.0124576185 0.051608045 -0.01695725 0.0085165305 0.012930414 -0.09795572 0.06022253 0.044952985
0.028598573 -0.080003746 0.11995508 0.11749955 -0.013966736 0.053484015 -0.007629011 -0.03286411
-0.08878925 0.028019981 0.0764164 0.0015242513 -0.04897018 -0.13903832 -0.104756184 -0.02052058
-0.0062443796 0.046136566 0.0037135272 0.09449385 -0.097555526 -0.07963602 0.04019141 0.031257194
0.074250385 -0.014791631 0.00931129 0.020056328 0.06825728 0.06355555 0.0859738 0.12859562
-0.02520338 -0.11029236 0.03812488 0.052880347 0.07606864 0.059056897 0.03279819 0.0024721618
-0.058585785 -0.04060712 0.10175974 -0.12952763 -0.12720023 0.0821905 -0.09222128 0.07930442
-0.0026927423 -0.009942345 0.03630553 -0.04431093 -0.07601053 0.042318642 0.12154898 -0.013566656
0.07946016 -0.08620246 -0.11143998 -0.085545376 0.07626758 -0.088983424 0.004965856 -0.06876978
-0.09149288 -0.07920578 -0.104750246 0.024788348 -0.06374963 -0.065909825 0.07176279 0.053393673
0.08792039 0.039971415 -0.09509298 0.11965654 -0.012422043 -0.08924926 0.115545906 -0.042151194
-0.016694358 -0.08099189 -0.011359778 0.08518596 -0.10945792 0.111820765 -0.0085030645 0.05927606
-0.09180574 -0.060245503 -0.050127663 0.07207043 0.06262442 -0.010778519 -0.007451441 -0.074033074
0.10204663 0.08354152 0.11657455 0.104140356 0.030989453 -0.10277166 -0.047251087 -0.07322066
-0.0066104126 -0.11891783 -0.042790014 -0.0280797 0.107731536 -0.07633549 0.04349696 -0.09435266
0.09049008 0.002557781 0.008396765 0.04374588 -0.015609255 -0.100035936 -0.008599256 0.044317275
0.12708238 -0.10274367 0.120251015 0.07877985 -0.13272882 -0.06571535 0.003733209 0.011301511
-0.09087991 0.021629801 0.07909038 -0.074115135 0.032473415 0.05969849 -0.04286913 -0.078990355
0.08625804 -0.12916216 -0.0058261906 0.056359787 -0.12515588 0.06327634 -0.12359948 0.095741466
0.087267846 -0.08799049 -0.06981527 -0.012970377 -0.09781326 0.036870513 -0.062370874 -0.05823978
-0.005573899 0.06535315 -0.09133229 0.087909155 -0.090969525 0.07636518 -0.13028735 -0.048662513
-0.038080607 0.13278344 -0.11261732 0.0041072806 -0.11787888 -0.087414525 0.050756913 -0.13152981
-0.055464413 -0.008910303 0.026610045 0.054630116 0.024981404 0.07502916 -0.059825383 -0.036479004
-0.049413186 0.054571874 -0.07769068 -0.121021375 -0.029937249 -0.021506466 0.009622305 0.07955599

critic.2.bias f4 [64]
00000000: cca4 13be a8e1 bf3d 241e 3abd ff2b dbbc
00000010: 755e 08be 450f 1abe 5a3e 0d3d 3950 963d
00000020: 4b35 863d 51e3 0abd 8bed 7dbd 923b 58bd
00000030: 5dbb e9bc 480b 173d 478b 89bd 9445 333d
00000040: 1d43 79bd 7ee9 f33d a86e 0ebe fec7 b53d
00000050: eab2 5fbd 837a 39bb dcdd a23d 1f6d 8cbd
00000060: 5cc0 d9bc 2999 b03d 32c5 2b3d 6e55 b4bc
00000070: 9e9a 83bc 19fb 93bd cde3 2a3d c437 503b
00000080: ec4b caba 0db0 49bb eb0b d63c ae82 a43d
00000090: 36da a0bd b816 e03c 127f fcbd 38be 693d
000000a0: 4cc9 a33c b663 c43b e498 3abd a95d 3c3d
000000b0: aee4 ec3d 7ab7 4b3b 55af 8e3c cb0a 8cbc
000000c0: 5a92 cabd 99d5 7a3d 3d1b cb3d f1aa 123c
000000d0: 412f 663d bbc7 4d3c 17e4 dabd cb5d c63d
000000e0: 194a 55bd 92d9 cd3c d677 2fbd 2c12 5c3d
000000f0: 77f4 ae3d 121a 36bd a18d 4c3d 0db7 bbbd
-0.14418334 0.093692124 -0.0454389 -0.026754377 -0.13317282 -0.15044887 0.03448329 0.0733952
0.065531336 -0.033908192 -0.061994117 -0.052791186 -0.028531725 0.036875993 -0.06716018 0.043767527
-0.06085502 0.119097695 -0.139094 0.08876036 -0.054613985 -0.0028301782 0.079524726 -0.06856751
-0.026580982 0.08622963 0.041936107 -0.022013392 -0.016064938 -0.072256275 0.041721154 0.003177152
-0.0015434003 -0.00307751 0.02612873 0.08032738 -0.078541204 0.027354583 -0.12328924 0.057066172
0.019993447 0.005993332 -0.045555964 0.04598776 0.11567055 0.0031084702 0.01741759 -0.01709499
-0.098911956 0.06123886 0.09917305 0.008951888 0.05619741 0.0125598265 -0.10688036 0.09685858
-0.05207262 0.02512816 -0.042838894 0.053728268 0.08542722 -0.044458456 0.049939755 -0.091657735

critic.4.weight f4 [1, 64]
00000000: c3e6 e6bc b67d 833d c370 84ba fd8a c439
00000010: b1b5 f5bd b786 a3bd 2009 54bb 378d f4bc
00000020: 29a5 43bd 0f6e 233d e1cb 333d 44af 083d
00000030: 0e09 9b3b 0a8e bb3d 23b1 b63d d56e 163d
00000040: a142 aebc 6144 653d 3cb8 a5bc 3299 bd3d
00000050: c6a7 ec3d 1296 6a3c 785d 803d 586d da3b
00000060: 4c0d abbc dbbe 963c 560f e73d 4bb3 793b
00000070: 5061 4bbc 5b42 85bd 6f88 193c dd9d 0fbd
00000080: e47f a2bd ea1d bc3d c2a1 473d 60f6 ebbc
00000090: 7be1 2bbd 61a3 e23d 6ad1 46bd 42db 3ebc
000000a0: 1960 62bb 331f e63d 26b1 833b 3b89 b2bb
000000b0: b174 453d 5c4d c03d 7f03 e83c a503 91bd
000000c0: 4e25 adbd 8bf8 9ebd 3491 84bc bf5b cd3d
000000d0: c343 ab3d 5966 7abd 0c57 4ebd 6965 e13c
000000e0: 692f a43c c7a1 2dbd 2207 a63d 6d63 92bd
000000f0: c95d 8ebd 03a1 903d 7343 9f3d fd3b 51bd
-0.028186208 0.06420462 -0.0010104406 0.00037487588 -0.119975455 -0.07984679 -0.0032354072 -0.029852493
-0.04776493 0.039899882 0.043895606 0.03337027 0.004731304 0.09157951 0.08920505 0.03672679
-0.021272006 0.055973414 -0.020229451 0.09257735 0.11555438 0.014318006 0.06267828 0.006665867
-0.020880364 0.018401554 0.11282222 0.0038101252 -0.012413338 -0.06506797 0.009370907 -0.03506266
-0.079345495 0.09185393 0.04873825 -0.028804004 -0.04196308 0.11066318 -0.048539557 -0.011648955
-0.0034542142 0.112364195 0.0040189205 -0.005448488 0.04820699 0.09389755 0.02832198 -0.07080773
-0.08454381 -0.077622496 -0.01618252 0.10027265 0.08362534 -0.061132763 -0.050375983 0.027514176
0.020042138 -0.04239061 0.08106829 -0.0714787 -0.06951482 0.070619605 0.07776537 -0.0510826
