models/success_agent.pth (torch, 46738 bytes, 11 tensors)

actor.0.weight f4 [64, 15]
000000 2b 93 82 bd 8f ee 48 bd b9 53 c3 bd 0d 86 a8 bb
       -0.06375726 -0.049055632 -0.09537453 -0.005142933
000010 72 7b 9a be 81 48 39 bd 83 70 a2 bc 51 3c 16 3e
       -0.30172306 -0.04523516 -0.01982904 0.14671446
000020 56 3f 9b 3d 14 bf 2b be 64 b0 16 bd a0 49 15 3e
       0.0758044 -0.1677211 -0.036789313 0.14578867
000030 ac c3 26 be 30 d9 43 be 50 a5 18 be a4 8e 36 be
       -0.1628558 -0.19125819 -0.14906812 -0.1782785
000040 ec c4 89 bd 34 55 a7 3d 05 6b 1a 3e bd 52 62 3c
       -0.06727013 0.08170548 0.15079887 0.013813672
000050 d3 53 3e 3e a5 8c 32 3e 69 1a 11 be 2a 06 9c be
       0.18586664 0.17436464 -0.14170231 -0.30473453
000060 9b ab 82 3d 16 c0 57 3e ec 44 b2 3d d4 f8 2b be
       0.063803874 0.21069369 0.08704552 -0.16794139
000070 fe 16 14 3e a0 a2 dd bc 57 bc 75 bd 76 78 22 3d
       0.14461896 -0.027055085 -0.059994068 0.03966566
000080 ba 39 d9 3d 3b 10 63 be 28 de 7a 3d 7c bc 9d be
       0.106067136 -0.2217416 0.06124702 -0.30807865
000090 e2 a5 9b bd 66 b4 58 3c a5 59 6a 3e c3 cc 15 be
       -0.07599999 0.013226604 0.22885759 -0.14628892
0000a0 6e 5a a8 bd 80 61 21 bc 54 34 86 3d fe f6 5c 3e
       -0.08220373 -0.009849906 0.065529495 0.21578595
0000b0 78 8e 26 3e 95 95 28 3e 6c cd eb bd 58 2b d9 3d
       0.16265285 0.16463311 -0.115137905 0.1060397
0000c0 70 4f 39 be 38 06 7a bd e4 24 52 bd 1d 1b f6 bd
       -0.18096709 -0.061041087 -0.051304713 -0.1201689
0000d0 71 dc b3 bc 1d 5e 28 3e 2a 10 01 3e 32 2f 31 be
       -0.0219557 0.16442151 0.12603822 -0.1730316
0000e0 a4 05 95 bd 56 f2 46 be d0 26 bf bc 0a 19 7b 3e
       -0.072764665 -0.19428381 -0.023333937 0.2452127
0000f0 41 87 56 3e c0 76 52 3e 74 57 fa bb 3b 63 31 be
       0.20950033 0.20553112 -0.0076398198 -0.1732301
000100 12 1e b2 bd 38 f3 67 3e 18 86 40 3d a8 a6 06 3e
       -0.08697142 0.22651374 0.04700288 0.13149512
000110 c2 ab 20 3b 42 65 3c bc d3 e5 93 3d 84 df 01 3e
       0.0024516438 -0.011498751 0.0722157 0.1268292
000120 76 ec 06 be 2c 62 e4 3d 48 01 b2 bd 0f 42 71 be
       -0.1317614 0.11151537 -0.08691651 -0.23560356
000130 94 01 0b be cc 9a 94 bd db f3 ad bb 41 b5 78 3e
       -0.13574821 -0.07256088 -0.005308611 0.24287893
000140 81 dc 46 be d4 21 60 3e f6 f1 23 3d d8 08 11 3e
       -0.19420053 0.21887904 0.040025674 0.1416353
000150 31 4a 0b 3e f4 d8 9d 3c d0 2c 83 bd 83 ce 4c be
       0.1360252 0.01926849 -0.06405032 -0.20000653
000160 e7 07 7d be 20 0a 89 3c 49 fa a2 bc 89 6e 38 bd
       -0.24710046 0.01672846 -0.019894736 -0.04502729
000170 3a 3d 8f 3d a1 ea 62 3e 16 71 95 3d 98 92 b7 bc
       0.069941 0.22159816 0.0729696 -0.022408769
000180 00 c5 49 3e f8 7b 54 3e 93 6b 5a be 5b 1b 18 3e
       0.19704056 0.20750415 -0.21330099 0.14854185
000190 76 aa c6 bd 0d eb 03 be 5c 58 80 3d b6 93 72 3e
       -0.097004816 -0.12882634 0.06266853 0.2368916
0001a0 c8 b4 3c 3e b1 1c 33 be 0c 12 47 3e a3 31 87 bd
       0.18428338 -0.17491414 0.19440478 -0.06601264
0001b0 da 95 15 be 17 6e 2c 3e f5 8f ab 3d 7c ee 74 be
       -0.14607945 0.16838871 0.08377067 -0.239191
0001c0 c6 85 2d be 01 fc 01 be a7 51 b4 bc 18 43 1c 3e
       -0.16945562 -0.12693788 -0.022011591 0.15259969
0001d0 9e e0 69 be 2e 8b 9c bd ea 57 47 3e f4 d6 a5 3d
       -0.22839591 -0.07643734 0.1946713 0.0809764
0001e0 6c 6d 1c be 03 58 0e be 09 3c 66 be 74 02 99 3d
       -0.15276116 -0.13900761 -0.22483839 0.07471171
0001f0 94 32 d0 3d 6d c5 a1 3e 20 31 0b 3e 0c 4e 19 be
       0.10165897 0.31595936 0.13592958 -0.14971179
000200 98 a1 54 3e 70 58 48 bd 65 dd 1f be 90 1f 55 3d
       0.20764768 -0.048912466 -0.15611799 0.052032053
000210 a8 eb e4 bd 78 e2 11 be 2a 4d 0d 3e 2a 22 72 be
       -0.1117776 -0.14246547 0.13798967 -0.23645845
000220 7b 08 74 bd cf 99 23 3e fb f5 24 bc 4e 4d 75 3e
       -0.0595784 0.15976642 -0.010068412 0.2395527
000230 0e d2 b7 bc 2e fc ae 3d a9 ff 45 3e 6c 57 a8 be
       -0.022439029 0.08544193 0.19335808 -0.32879198
000240 33 ce 39 3e 1b 9c 17 3e 1a 83 01 3e 4a 98 c8 bd
       0.18145065 0.14805643 0.12647668 -0.09794672
000250 78 95 dd 3d f4 0f cf 3d 2d 05 0b 3e 1a 7f 0b 3e
       0.108195245 0.10110465 0.13576193 0.13622704
000260 d3 bc 2e bd 14 f9 eb 3d 1c 5e b7 be ca 0d ce bd
       -0.042660546 0.11522117 -0.35813987 -0.10061224
000270 0d 05 56 3d 43 04 05 be a2 d6 39 bd 76 da 75 3e
       0.05225091 -0.12989907 -0.045370705 0.24009117
000280 37 fc a9 be 2a 16 58 3e 84 81 ee 3d 6c 18 1e bd
       -0.33200237 0.21102205 0.11645797 -0.03859751
000290 10 bf 4b 3d aa 96 eb bc 61 73 68 be fe 1d 06 be
       0.04974276 -0.028758366 -0.22700264 -0.13097379
0002a0 08 2f 78 bd a3 ec 26 3d b1 f5 67 3e 32 c6 cf bd
       -0.060591727 0.040753018 0.22652318 -0.10145225
0002b0 04 9f 3d 3d 24 5a 53 3e b5 fd 7d 3d f3 8e 26 be
       0.046294227 0.20639855 0.062009532 -0.16265468
0002c0 34 57 c7 3d ff b4 7a be 74 ba 99 3d 68 6a 47 bd
       0.097334296 -0.24483107 0.07506266 -0.04868546
0002d0 d9 65 e2 3c b1 83 c9 3d ba fb 1a bd 20 32 fa 3d
       0.027636455 0.09839571 -0.03783772 0.12216592
0002e0 bc 47 4f 3a 32 31 22 be af b5 47 3c 3f a0 54 be
       0.00079071126 -0.15839079 0.012189313 -0.20764254
0002f0 aa 51 b2 3b 83 45 7c 3d da 0b b6 be 60 d1 93 3d
       0.005441864 0.06158973 -0.35555917 0.072176695
000300 c0 6a e4 3d 22 cc cb bd 7c e3 28 be 32 f6 9f bd
       0.111531734 -0.099510446 -0.16493028 -0.0781063
000310 3c f9 6d bd f5 c9 20 3e de 69 ac 3d cc f6 9e be
       -0.058099017 0.1570204 0.0841863 -0.31047666
000320 fc c5 d7 3d c6 d5 8f 3c fc 37 19 be 49 9f 3f 3e
       0.105358094 0.01755799 -0.14962763 0.18713106
000330 78 e3 77 3e 95 65 7e be 80 3d e3 3b d6 50 60 3e
       0.24207866 -0.24843438 0.0069348216 0.21905836
000340 ec 9d ba 3d 60 a1 ac bc 69 e5 29 3d 55 11 79 bd
       0.091121525 -0.021073043 0.04147855 -0.060807545
000350 e6 6b 6f be 88 23 a5 3d 27 13 8a 3d 98 a4 94 bd
       -0.23381004 0.08063418 0.06741934 -0.07257956
000360 c4 fb 82 3e 55 e5 4f 3e 61 ab 0e be b5 0c 4e 3e
       0.25582707 0.20302327 -0.13932563 0.20122035
000370 a7 51 87 3e 88 98 b7 bc c9 e5 81 3e 3e c3 a5 bd
       0.26429483 -0.0224116 0.25370625 -0.0809388
000380 92 9b 4d be 2a 86 76 bd 86 1b 54 bd dc 0c 11 3d
       -0.20078877 -0.060186543 -0.05178406 0.035412654
000390 e9 c5 2b 3e a1 60 2c 3e da b0 ce bd a3 55 2d bd
       0.16774715 0.16833736 -0.100923255 -0.042317998
0003a0 8c 90 38 3e c8 e5 af bd 81 82 01 3e 48 ae 14 be
       0.1802389 -0.08588749 0.1264744 -0.14519608
0003b0 e8 ef 42 3d 80 a8 92 bc e3 d3 37 be c8 a4 2b be
       0.047592074 -0.017902613 -0.17951922 -0.16762078
0003c0 c8 c4 f1 bd dd 75 63 3e 8b 4d be 3b 58 35 53 3c
       -0.11805111 0.2221293 0.0058075837 0.012891136
0003d0 90 f8 48 bb 07 d1 2d 3e 59 84 8e 3d b8 ea a1 3e
       -0.0030665733 0.16974269 0.06958837 0.3162439
0003e0 15 19 89 be a8 65 43 bd ef 17 8e 3e 76 5c 4f 3e
       -0.2677695 -0.04770437 0.27752635 0.20250115
0003f0 f0 94 4f bc 11 45 81 3e e8 cd b8 3d e5 5f 7d be
       -0.012669787 0.25248006 0.090236485 -0.24743612

actor.0.bias f4 [64]
000000 21 44 c3 3d 13 a1 b2 3c 60 d3 7d 3e 07 b1 22 39
       0.09534479 0.021805322 0.24787664 0.00015515472
000010 72 f2 43 be 17 82 27 3d fb 77 67 bd 6c d8 11 be
       -0.19135454 0.040895548 -0.056510907 -0.14242715
000020 33 28 c3 bb b2 2a 6b be ed 6f 02 bc c4 6b dc bd
       -0.00595572 -0.22965506 -0.0079612555 -0.10762742
000030 3b cb 7b 3e 32 4c 7e 3c 1f 8b 3a be 8d f2 0e bd
       0.24589245 0.015521096 -0.18217133 -0.034899283
000040 97 2a 82 be bf 3c 83 be fd f2 1d be 95 55 9e 3c
       -0.25423118 -0.25632283 -0.15424724 0.019327918
000050 17 88 03 3e 06 57 6b 3d c0 f5 27 3e dc 54 51 be
       0.12844883 0.05745604 0.1640234 -0.20442528
000060 b4 bf 16 be 52 52 1a be bc 1c 6a 3e ea 22 a9 bd
       -0.14721566 -0.15070465 0.22862524 -0.082586125
000070 10 d0 75 be 3e 04 14 be 2b 5d 6b bc bc 83 ba 3c
       -0.24005151 -0.14454743 -0.014365475 0.022767894
000080 81 ee 7b 3e 2f 6f 82 bd 07 39 df 3d 73 ce 1d 3d
       0.24602701 -0.06368863 0.10899549 0.038526963
000090 06 d6 84 3e 0a f5 4b 3e c7 59 63 be bc 49 98 bc
       0.25944537 0.19917694 -0.22202216 -0.018589847
0000a0 66 1d 9b bd e2 04 22 bd 39 94 28 3e 57 4b a1 bb
       -0.07573967 -0.039555438 0.16462792 -0.0049223113
0000b0 f3 eb 3f bd ff 0d 8a bd 04 24 b9 bd 8c 5a 75 be
       -0.046855878 -0.06740951 -0.090400726 -0.23960322
0000c0 3c 90 fe 3d fc f2 08 be 40 fc 1d be 84 f7 10 3e
       0.12429854 -0.13373941 -0.15428257 0.1415692
0000d0 27 e1 cc bd 9e 75 38 3e e9 d7 e4 bc 2d c4 be 3d
       -0.10003882 0.18013617 -0.027934985 0.09314761
0000e0 8b 33 49 bd cd eb 0a 3d 75 41 15 3e d4 b9 7e be
       -0.04912142 0.033916283 0.14575751 -0.24875575
0000f0 1b 52 09 be 32 de 5d be 7f 85 d2 3d 7d fd c2 bd
       -0.13410227 -0.21666792 0.102793686 -0.09521005

actor.2.weight f4 [64, 64]
000000 82 5f 1a bd 9a 3d c1 3d 52 ad 0a bd 81 02 98 bd
       -0.03768874 0.09435578 -0.033856697 -0.074223526
000010 34 b3 99 bd 1e 1d 8a 3d 53 de 27 3d e1 58 17 bd
       -0.075048834 0.06743835 0.04098351 -0.036949996
000020 51 fb f8 bb 4b d1 80 bd 7e 15 cc bd e4 33 e7 3d
       -0.0075983186 -0.062899195 -0.09965037 0.11289194
000030 b4 55 07 be 3a 96 e2 3b 1e b6 9f 3d f9 62 60 3d
       -0.13216287 0.006914881 0.07798408 0.054781888
000040 d1 02 6b 3c 81 7c b1 bd 98 27 18 bc a1 29 a7 bd
       0.014343933 -0.08666325 -0.009286784 -0.08162237
000050 46 82 91 bd 43 98 e3 bd 8a 85 2b bc 7c b3 96 bd
       -0.07104926 -0.11113026 -0.01046885 -0.07358453
000060 e8 13 b5 3c 85 e9 db 3c 9f 60 b6 3d ce 3f a8 3c
       0.022104219 0.02684475 0.08905148 0.020538237
000070 d8 b7 0d 3e 0e 8c f2 bd d3 09 a6 bd 93 85 bf bd
       0.13839662 -0.118431196 -0.081073426 -0.09351649
000080 0b 8f 0b be 86 e4 8c bd c0 da 78 3d 9b 2c ce bd
       -0.13628785 -0.06879525 0.06075549 -0.100671016
000090 8a 9d e4 bd 6a 9b f1 3c 0e 13 47 bc a5 e3 aa bd
       -0.11162861 0.029493053 -0.012150539 -0.08344201
0000a0 b9 5c 93 bd e2 7e 0d be c5 a0 93 3d 83 9c 17 3e
       -0.0719542 -0.13817933 0.07208399 0.14805798
0000b0 e7 32 ab bd 50 71 2d bd 8a fb 5b 3d d2 8c fe 3d
       -0.08359318 -0.04234439 0.053706683 0.12429203
0000c0 44 2e c4 bc 82 73 3c bd ab df bd 3c d9 4d ab 3d
       -0.023947842 -0.046008594 0.023177942 0.08364458
0000d0 56 9e 3c bd 83 f8 df bb 7b b5 0f be 81 ca 81 3c
       -0.04604944 -0.006835045 -0.14034073 0.015843632
0000e0 4d 79 ae bd bb 17 47 bd 09 8b 5e 3d a1 92 88 3c
       -0.0851923 -0.048606616 0.054331813 0.01667148
0000f0 25 d3 ab 3d 00 69 3a bd c0 84 26 3e f9 2d d0 3c
       0.08389882 -0.045510292 0.16261578 0.025412546
000100 1b 1b 10 3d 6e 6c 9e 3d 68 e0 6a bc 65 d2 c4 3c
       0.0351821 0.07735525 -0.014335729 0.024026105
000110 60 a9 b8 bd 78 99 19 3d 18 53 d5 bc 42 3f 70 3c
       -0.09016681 0.037499875 -0.026040599 0.014663519
000120 6d 1e f5 3d bb 14 28 3e 0e 27 ad 3d 95 42 12 bc
       0.11968694 0.16414158 0.08454715 -0.008927007
000130 de 35 8a 3c ad f5 22 be a2 c5 36 bd a0 a2 77 bc
       0.016871389 -0.1591403 -0.04462207 -0.015114456
000140 fb fe 19 3e 48 39 3e 3c 2c db 72 3d c3 ca 86 bd
       0.15038674 0.011610337 0.05929105 -0.065816425
000150 5b f9 39 bd d5 96 1e bd 79 90 e8 bb 23 22 04 3e
       -0.04540382 -0.038718063 -0.0070973006 0.12903647
000160 c2 a3 fc bc cb 76 ac 3c 09 79 91 3d f0 2b 49 bd
       -0.030839805 0.021052739 0.07103164 -0.049114168
000170 3d 35 90 3c 8c de 71 3d c3 7a 1c bd 32 41 12 3e
       0.017603511 0.059050128 -0.038203012 0.14282683
000180 f6 5d 20 be 33 e8 ca bd 2f aa f7 3c ab 3c 8c 3d
       -0.15660843 -0.0990757 0.030232517 0.06847509
000190 3f f3 f1 bd df c0 52 bc cd db 15 3d fe 64 11 3d
       -0.11813974 -0.012863367 0.03658657 0.035496704
0001a0 30 c1 c4 bd 48 ec b9 bd 9d 77 8b bc f7 ee 93 bc
       -0.0960716 -0.0907827 -0.01702481 -0.018058283
0001b0 aa a3 02 3c e5 c8 c0 bd 20 0a bf 3b d6 b6 86 bd
       0.007973591 -0.094133176 0.0058300644 -0.06577842
0001c0 53 b2 84 bd bd c5 d6 3c e9 c7 57 bd b4 c0 ca 3d
       -0.06479325 0.026217336 -0.052680884 0.099000365
0001d0 8e d2 df bb bc f6 5c bd b3 b0 96 bc 74 f0 66 3d
       -0.00683052 -0.05394624 -0.018394804 0.056381658
0001e0 c9 3d e2 bc 5b 1e 3a 3d 71 6a 36 bd 0a e7 47 3d
       -0.027617352 0.045439105 -0.044535104 0.04880432
0001f0 24 79 4e bd 73 66 66 bd 7a dc 48 3d a6 33 ee 3a
       -0.050408497 -0.056250047 0.049038388 0.0018173351
000200 61 e6 fe 3d df c7 eb bc 16 c0 15 3e 46 72 cd bd
       0.12446285 -0.02878183 0.14624056 -0.100315616
000210 2e fe 75 3d fd f5 b5 bc 1e b3 82 bd ad cc c9 bd
       0.060056858 -0.022212023 -0.0638182 -0.09853492
000220 50 ee 84 bb b9 73 df bd 58 eb 89 bd ca 72 1e 3d
       -0.0040567294 -0.10910744 -0.067343414 0.03868369
000230 28 fa b3 3b b0 c8 2b 3e 6a ca fb bd 66 71 cd bd
       0.0054924674 0.16775775 -0.12294467 -0.10031395
000240 14 c8 cd bd 52 e0 09 be 56 61 0d 3c 21 84 91 bd
       -0.100479275 -0.13464478 0.008629164 -0.0710528
000250 2a 8c be 3d f1 77 48 bd 50 10 c6 bd db 0b fc 3c
       0.09304078 -0.04894251 -0.0967108 0.030767372
000260 d0 29 b3 bd 1e 77 8c bd af 2e 98 bc f2 3b a2 bc
       -0.087482095 -0.06858657 -0.018576948 -0.019803975
000270 a4 0d 31 be 8a 30 90 bc 70 e9 2a bd df 25 f4 bd
       -0.1729036 -0.01760127 -0.04172653 -0.11921286
000280 82 e5 c6 3d aa fa 45 bc 5e 09 c9 3d f0 6d f8 3d
       0.09711744 -0.012083689 0.0981624 0.12130344
000290 ad 48 1b 3d 41 3d b9 3c 3c 17 05 be a1 a2 bc bd
       0.037911106 0.022612216 -0.12997144 -0.092107065
0002a0 93 b4 bf bc ac 8f a9 bc 78 45 c0 bd b1 71 a4 bd
       -0.023401534 -0.02069839 -0.0938825 -0.080294974
0002b0 57 b1 51 bd 6e ee 4c 3d 03 d8 c5 bd a4 87 5a bd
       -0.051194515 0.05003207 -0.096603416 -0.053352013
0002c0 ce 0b 72 bd f0 1b b0 bd 1f 55 ae 3d 21 9e 9b bd
       -0.05909329 -0.08599079 0.08512329 -0.0759852
0002d0 2d ff fa bd 24 b3 7e bd 9e 4a db 3d 11 e0 53 3d
       -0.12255702 -0.06218256 0.107075915 0.05172736
0002e0 f4 6b a6 bc fe d3 27 3d a0 01 16 3d b4 e6 1e 3d
       -0.020315148 0.040973656 0.036622643 0.038794234
0002f0 58 9d 1a be 9d 9c 97 3c 5c e4 24 be ea 31 5c 3d
       -0.15099084 0.018507296 -0.16102737 0.05375854
000300 4d b0 11 be 7d 1c 74 3d f4 4a c8 3d b5 8b 76 3c
       -0.1422741 0.05959748 0.09779921 0.015047957
000310 49 9e 08 bc 29 01 f8 3d 9f 7a 45 3d dc 28 a2 3d
       -0.008338519 0.12109596 0.048212644 0.079179496
000320 61 be 2d bd 92 82 43 3e 77 f6 2f 3d 2f 16 d5 bd
       -0.042417888 0.19092777 0.042959657 -0.10404622
000330 f9 ac 43 bd 10 f7 b5 bd 53 1f cc 3d 99 68 9a bd
       -0.04777238 -0.08885014 0.09966912 -0.07539482
000340 ac 25 75 3d 08 bf 5e 3d 52 43 c4 bc 80 c0 d0 bd
       0.05985038 0.0543814 -0.023957882 -0.101929665
000350 48 0c 7c 3c f1 48 ab 3d 44 cb a6 bd 40 73 3c 3e
       0.015383787 0.08363522 -0.081442386 0.1840334
000360 05 d0 9f bc d0 32 4f bd 63 3f 57 bc 44 6c 90 3d
       -0.019508371 -0.050585568 -0.013137671 0.070519
000370 f9 be 0b 3e fa 12 6d 3c 66 dd b2 bb 35 2c 55 bd
       0.13647069 0.014469856 -0.0054585217 -0.052044112
000380 96 ac 16 be 79 d5 3f 3d 14 52 b5 3c 39 4d bd 3d
       -0.14714274 0.046834443 0.022133864 0.09243245
000390 ba 0a 6f 3d 11 f0 9d 3d d2 a4 c7 3d 07 d6 05 3c
       0.05835984 0.07711805 0.09748234 0.008168704
0003a0 10 d4 89 3d cc 94 d4 bd 30 30 da bd f1 5a d0 3d
       0.06729901 -0.10379943 -0.10653722 0.10173596
0003b0 77 46 65 3d f8 c5 0d 3e d6 e8 87 3d 7c 54 8c 3d
       0.055975404 0.1384505 0.06636207 0.068520516
0003c0 c1 67 8b bd 38 81 98 3c 57 f4 8f 3d 50 0c a3 bd
       -0.06806899 0.018616304 0.07029026 -0.07961333
0003d0 f7 2f 83 3d 2a 5c 30 3b 76 9d 30 be 44 9d 01 be
       0.06405633 0.0026910403 -0.17247567 -0.12657648
0003e0 8b bb 03 bd fe 66 b6 bd 93 6e 0d be 9d 57 94 3d
       -0.032161277 -0.08906363 -0.13811712 0.072432734
0003f0 1f 49 fe bc 73 6a 02 bc f8 fa 56 ba f7 0b 02 bd
       -0.031040726 -0.00795995 -0.00082008494 -0.03174969

actor.2.bias f4 [64]
000000 6e a2 5d bd 87 60 ff bd 2d b3 6b 3d 8c 72 3a 3d
       -0.054109983 -0.12469583 0.057543922 0.045519397
000010 a6 10 2c bd d0 57 8c bb b4 e0 df bd cc 7c f1 bc
       -0.042008065 -0.004282929 -0.109315306 -0.029478453
000020 70 3f cd 3d 02 82 12 3e a0 a8 bb bd b2 e7 11 3d
       0.10021865 0.14307407 -0.09163022 0.035621352
000030 f4 2b 13 be b8 e4 2c 3d 8c 13 f8 3d 9c 38 3a bd
       -0.14372236 0.04221031 0.12113103 -0.045464143
000040 c6 94 f0 bd fd b2 e9 bd d0 62 a2 bd 4c d6 ac 3d
       -0.11747126 -0.114110924 -0.07929003 0.084393114
000050 57 8d a6 3d 5e b9 9a bd 5c fd 58 bc 1e 67 11 3d
       0.08132427 -0.07554887 -0.013243999 0.03549873
000060 5b 35 9d bd 6d 46 03 be 0a d0 f9 bc 1f 07 3e bc
       -0.076761924 -0.12819834 -0.030494709 -0.0115983775
000070 c3 f9 84 bd b8 30 42 3d 88 b0 cc bb d4 27 60 bc
       -0.06492951 0.047409743 -0.00624663 -0.013681371
000080 bb 01 06 3e 55 2a 4f 3d aa c9 1f be 74 51 30 bd
       0.13086598 0.05057748 -0.15604272 -0.04304643
000090 5d 21 d2 bd aa 29 c8 bd 82 22 2d 3d 57 d7 c3 3d
       -0.1026027 -0.09773572 0.042269237 0.09562557
0000a0 26 28 aa 3c 17 70 0c 3e d1 4c 91 bd 05 d6 a6 bd
       0.020771097 0.13714634 -0.0709473 -0.0814629
0000b0 34 91 af 3c 30 c7 d1 bb b9 62 9f bd c2 b0 d3 bd
       0.021431543 -0.006401919 -0.07782502 -0.10336448
0000c0 20 5b 27 bd 33 0d a0 bd 72 85 1c 3d c1 11 67 3d
       -0.040858388 -0.078150176 0.0382132 0.056413416
0000d0 31 0e 08 bd ea 1b 2b bd d4 bb d7 bd ff 78 04 3d
       -0.03321666 -0.041774668 -0.10533872 0.032341953
0000e0 3d 58 96 3d f9 28 8a 3d f4 53 20 3d 72 8b 23 bd
       0.07341049 0.06746096 0.039142564 -0.039927907
0000f0 23 c3 59 3c be 58 0d 3e d6 17 76 bd 15 75 5a bd
       0.013291153 0.13803384 -0.060081325 -0.053334314

actor.4.weight f4 [2, 64]
000000 25 17 df bd 3b 08 aa bb 03 40 7d 3c 10 3b 18 3d
       -0.10893086 -0.0051889694 0.015457156 0.0371657
000010 38 5c 45 3d 3a d3 cb bd c3 da 26 bd f2 35 de 3d
       0.04818365 -0.09952398 -0.04073597 0.10850133
000020 22 b3 d5 bc b1 6e 9c bb 1c 61 bb bc ca 01 7a bd
       -0.026086394 -0.0047739376 -0.022873454 -0.061036862
000030 80 15 3f bd 56 59 73 3d cd f7 08 3c 5e 0a 07 be
       -0.046651363 0.05941137 0.008359862 -0.13187549
000040 58 7a fa bc 88 ac bb bd a2 5c 8d 3d 8c 89 f1 bc
       -0.030575916 -0.09163767 0.06902434 -0.029484533
000050 eb 80 f7 3b 21 12 01 3e 4f e2 64 bc ef bc 0b bc
       0.00755321 0.12604572 -0.013969972 -0.008528932
000060 cd 46 c5 3d 86 68 7d 3d 12 5a 99 bd 3b 92 03 3d
       0.09632645 0.06186726 -0.07487883 0.032121878
000070 78 90 a2 3c 8a f6 c8 3c 71 53 0d 3d 6b 60 15 3d
       0.019844279 0.024531621 0.034503404 0.036468904
000080 09 12 36 3d 02 b0 c4 3d 0a a8 aa bb 98 ed d6 3c
       0.044450793 0.09603883 -0.00520802 0.02623634
000090 25 93 dd bd 59 86 7f bd 93 33 10 bd 1d 4d 03 3e
       -0.10819081 -0.062383983 -0.035205435 0.12822385
0000a0 30 4f e4 bd 71 30 db bd f3 15 0c bd e6 ab 46 bd
       -0.11147916 -0.10702599 -0.03420062 -0.04850378
0000b0 b9 8b a3 bc d5 0a 0e bc b1 2c b1 3c d6 15 0d 3c
       -0.019964086 -0.008669575 0.021627756 0.008611163
0000c0 1e fc c3 3c 80 09 b7 3d e9 db af 3d 0b cc d7 bd
       0.02392393 0.08937359 0.085868664 -0.10536965
0000d0 37 ba a1 bd 88 09 85 bd 76 91 bc bd 6a 35 54 bc
       -0.07896846 -0.064959586 -0.09207432 -0.012952188
0000e0 0f 42 f0 3c ce d8 81 bd e8 72 84 3c bc 6e 3c 3d
       0.029328374 -0.0634018 0.016168073 0.046004042
0000f0 57 81 8b 3d 6d 06 b8 3d a5 18 a3 bd 70 ef d4 bd
       0.06811779 0.089856006 -0.07963685 -0.103972316
000100 35 e2 09 3e c8 88 8c 3d c9 17 01 be 18 0a 81 3d
       0.13465197 0.068620265 -0.1260673 0.06300753
000110 38 65 91 3c 65 5e 97 bd bb 5c 38 3e 92 5a 81 bd
       0.01774846 -0.07391051 0.18004124 -0.06316103
000120 58 e3 af bd dd 09 5b be aa 64 17 3d 24 dc 77 bd
       -0.08588284 -0.21390481 0.036961235 -0.060512677
000130 eb da 28 3e 39 9a 13 be b3 f0 d9 bd d2 d8 c7 bd
       0.1648976 -0.144143 -0.10641613 -0.09758152
000140 06 3d 23 3e 62 5e 18 3e bc 1a 9d 3d 6b a9 38 3d
       0.15941247 0.14879754 0.07671115 0.045083445
000150 70 b1 d0 bd b8 ab f4 3d cc fd 12 bd 02 c0 29 3b
       -0.101900935 0.11946815 -0.03588657 0.00259018
000160 2c 75 9f bd 63 d3 e1 3d df 06 32 bd 4a 38 38 be
       -0.07786021 0.11026647 -0.043463584 -0.17990223
000170 ba e4 2c 3e dd 9a fa 3d 55 70 d0 3d ed 13 e3 3d
       0.16884127 0.12236569 0.10177676 0.11087785
000180 1e 42 0a be 4d 0a bf bd 20 99 25 3e 4a a9 b0 3d
       -0.13501784 -0.093281366 0.16171694 0.08626039
000190 d7 bd 1f 3d 10 2d 61 3c 0b 46 a0 bd 3c 7d 6f bb
       0.038999405 0.013743654 -0.0782586 -0.0036543151
0001a0 a9 1d 93 3d 21 16 a0 bd 94 f4 1f 3d 6d 92 d3 3c
       0.071833916 -0.07816721 0.039051607 0.025826657
0001b0 2c 15 a4 3d f6 3e 25 bb 14 78 7f bd 2c 30 eb 3d
       0.08011851 -0.002521453 -0.062370375 0.114837974
0001c0 7b 35 4c bc 45 dd 19 3e 08 f2 d8 3d cd 58 0b bd
       -0.012463923 0.15025814 0.10593039 -0.034020234
0001d0 61 e5 22 be 1b 90 10 3e bc d7 19 3e be f5 31 bd
       -0.15907814 0.14117472 0.15023702 -0.04344725
0001e0 65 e1 e3 bd c4 c2 ce 3c ba d9 09 be 86 bd 08 3e
       -0.11126975 0.025239356 -0.13461962 0.13353547
0001f0 70 41 c0 3d 2a 0e 3a be 50 3f fc 3d f6 73 8a 3d
       0.09387481 -0.18169466 0.123167634 0.06760399

actor.4.bias f4 [2]
000000 5c fd 82 3d 94 06 02 be
       0.06395981 -0.12697822

critic.0.weight f4 [64, 15]
000000 b3 c2 f3 bd 84 25 fb 3c 82 48 2f 3e 6f 81 09 bd
       -0.1190237 0.030657537 0.17117503 -0.033570703
000010 7a 80 d7 bd 19 3d 42 3e 23 08 85 bd 98 2d 05 3d
       -0.10522552 0.1896862 -0.064956926 0.032514185
000020 9f 81 6f 3e 13 6d 14 be 26 3a 03 3e a4 77 8d bd
       0.2338929 -0.14494734 0.1281515 -0.06907585
000030 45 7b 28 be 61 c2 41 be 14 9f 44 3e 0e b5 18 be
       -0.16453274 -0.18921806 0.19201308 -0.14912817
000040 5c 73 45 be 23 4d 09 be 8f e3 7d be a4 b0 27 bd
       -0.19282287 -0.13408332 -0.24793838 -0.040939942
000050 ba 5a 30 be f9 ee ec 3d 93 29 0f bd 24 4d 0c 3e
       -0.1722211 0.11569018 -0.034951758 0.13701302
000060 14 78 76 bd 66 e2 af 3d ea 63 30 3e 3e 6a 55 3e
       -0.06017311 0.08588104 0.17225614 0.2084131
000070 00 ff c9 ba 1c 4f 71 3e 68 5f 8a 3e 7b dc 69 be
       -0.0015411079 0.23565334 0.27025914 -0.22838013
000080 fc b8 18 be 11 ce 00 3e bd 3d f6 bd a9 85 da 3d
       -0.14914316 0.12578608 -0.120234944 0.10670025
000090 2f b8 f5 bc b3 9c ee bd 46 72 2a bd 59 9a ea 3c
       -0.029995052 -0.11650982 -0.041612886 0.028638052
0000a0 43 3c a2 3d be 34 53 be b0 89 6f bd d6 7d da bd
       0.0792165 -0.20625588 -0.05848092 -0.106685326
0000b0 c8 68 29 3e f7 e1 1e 3e 19 30 ca 3c 71 6b 73 3e
       0.16543877 0.15515886 0.024681138 0.23771454
0000c0 64 99 48 3e 5b b0 30 bb f4 dd b7 3c b8 6f 9d bd
       0.19589764 -0.0026960585 0.022444703 -0.07687324
0000d0 73 8d 6e 3e 31 c2 b1 3d 3d 6c 25 be 57 55 0e be
       0.23296146 0.08679617 -0.16154571 -0.13899742
0000e0 07 8a 81 be 60 50 8e bc 68 3c f7 bd d4 7f c7 3d
       -0.2530062 -0.01737231 -0.120720685 0.09741178
0000f0 e5 72 39 be bc 6e cd 3c de 40 10 3e fd da 3a 3d
       -0.18110235 0.025077216 0.14087245 0.045619
000100 89 50 30 be 90 2e 38 3e 17 9b 96 bc 43 cb e7 3c
       -0.17218222 0.17986512 -0.0183845 0.028295165
000110 af 7b b5 be e1 b1 8e 3e 06 dc 62 3d 06 b0 24 be
       -0.35445926 0.27870086 0.055385612 -0.16082773
000120 27 20 81 3e 4d 56 08 be dc 41 6b 3e ae fe 11 be
       0.25219843 -0.13314171 0.22974342 -0.14257309
000130 d7 66 83 ba 56 77 01 bd 50 75 16 3e 3c c1 2b be
       -0.0010025155 -0.03160795 0.14693189 -0.16772932
000140 92 71 f8 3d da bc 31 be 4e b3 68 3e 26 87 8a be
       0.12131037 -0.17357197 0.2272465 -0.27056235
000150 05 91 9a bc 3c 23 89 3e b0 5d ab bd 30 16 21 be
       -0.018867979 0.26784694 -0.08367479 -0.1573112
000160 4e f6 e3 bd 20 d3 6e 3e 22 ca dc 3d 68 2f 13 be
       -0.11130963 0.23322725 0.10780741 -0.14373553
000170 d5 a0 a0 bd 04 07 3b 3e 49 8e 49 bd 78 b3 2a be
       -0.07843176 0.18264395 -0.04920796 -0.16670024
000180 b6 73 bf bc 7c 7a 16 3d 67 b9 8c be 59 a3 0d be
       -0.023370605 0.036737904 -0.274852 -0.13831843
000190 0d b2 ec 3c 0e ec 58 be 18 8d dd bd 30 06 75 bd
       0.028893495 -0.21183798 -0.10817927 -0.059820354
0001a0 e8 3e c1 bc c0 85 ac 3d 76 6e 11 3b 55 41 b5 bd
       -0.023589566 0.08423948 0.0022191084 -0.08850352
0001b0 b9 73 af 3d e0 11 78 3e 3c 10 3a 3e 13 f1 03 be
       0.08566994 0.24225569 0.18170255 -0.12884931
0001c0 4f 35 56 be a2 16 88 be 3d 80 73 bc bb 94 53 be
       -0.20918773 -0.26579767 -0.014862117 -0.20662205
0001d0 90 ff 64 3d e2 6c 0d be dc e1 b3 3d 76 5f ed bd
       0.055907786 -0.13811067 0.08783314 -0.11590473
0001e0 d0 99 30 be 58 bc 5c 3d fe cc a5 be f9 5c f5 3c
       -0.17246175 0.053890556 -0.3238296 0.02995156
0001f0 43 dd a9 bd 08 f4 48 3d 96 86 96 3d db bb 34 be
       -0.082941554 0.04906085 0.07349889 -0.17649786
000200 8a af 86 bd 82 24 d0 3c 66 a1 68 3d b6 22 5b 3e
       -0.0657645 0.025408033 0.056794547 0.2139996
000210 3e 77 c8 bd 16 83 23 3e 04 18 13 3e 87 9b 16 3e
       -0.09788369 0.15967974 0.1436463 0.14707766
000220 92 ff f6 bd 49 87 55 3e c4 3b 0a 3e 58 84 17 be
       -0.12060465 0.20852388 0.13499361 -0.14796579
000230 64 87 88 3e 42 44 11 3e 4a 05 9c bc fd 0b d0 bd
       0.26665795 0.14186195 -0.01904549 -0.101585366
000240 d0 b6 11 be 32 1d 82 3d 16 06 d7 bd 88 41 f5 bd
       -0.14229894 0.06353225 -0.10499208 -0.1197539
000250 f4 f7 3e 3e 8e 55 39 be 08 92 16 3e 41 52 4b 3e
       0.18649274 -0.18099043 0.14704144 0.19855596
000260 e8 7f 20 be db e3 16 3e 0d 89 67 be 04 3f de 3d
       -0.15673792 0.14735357 -0.22610874 0.10851863
000270 3e 8f d5 bd 69 15 9f be 1b b9 1c bd cb 52 78 3c
       -0.10427712 -0.31071022 -0.038262468 0.015156458
000280 1a 95 94 be 11 c0 82 be b2 e1 a0 bd 9c 08 4e 3e
       -0.29020005 -0.2553716 -0.07855548 0.20120472
000290 64 e0 0d bd e1 f5 e0 3d 57 2f 5e 3d 9a 8c b8 3d
       -0.034637824 0.10984398 0.054244366 0.090111926
0002a0 10 f1 43 be 20 2d b2 bd 95 f7 12 bc f0 f3 17 be
       -0.19134927 -0.08700013 -0.008970161 -0.14839149
0002b0 12 7f 54 be 28 01 da bd 21 c7 0e be bd d6 6f 3d
       -0.20751598 -0.10644752 -0.13943149 0.0585544
0002c0 b0 5f ff bc 9e fe 0a 3e d4 1a ca bd 00 30 3f b9
       -0.031173557 0.13573691 -0.09868398 -0.00018233061
0002d0 97 5e 44 3e 20 df 03 be 95 bf 17 be af 01 82 3e
       0.19176708 -0.12878084 -0.14819176 0.2539191
0002e0 39 0c 27 3e 9c a7 5a 3e 05 d3 23 3d ce a3 a1 3d
       0.16313256 0.21353 0.039996166 0.078925714
0002f0 11 1e 1c 3e 6e 03 45 3b 53 d8 aa be 36 bb 3d be
       0.15245844 0.0030061859 -0.33368167 -0.18528447
000300 10 15 3e 3e ce 00 5f 3e a0 2e 10 3e 3d e1 ed bc
       0.18562722 0.2177765 0.14080286 -0.029038066
000310 a2 0b 66 bd 7b 58 07 3e 34 85 9c bc d7 cb db 3d
       -0.056163438 0.13217346 -0.019106485 0.10732239
000320 a4 93 20 be 1f 2b 29 be cb 59 8f 3e 9b 91 87 be
       -0.1568132 -0.16520356 0.27998194 -0.26478276
000330 cc 6d 9a 3e 0a 24 63 3e c9 9f 82 3e 46 74 32 3e
       0.30161893 0.22181717 0.2551253 0.17427167
000340 6c c7 09 bd b4 4e 67 3e 37 53 4e 3e 20 4f 8c bd
       -0.03363745 0.22588617 0.20148931 -0.068510294
000350 c3 4d 01 be a6 46 b5 3d d5 10 07 3e a4 66 80 3e
       -0.1262732 0.08851366 0.13190015 0.2507831
000360 bc 29 1f 3e ae d8 a3 be 7a 10 88 3e 81 2c 06 be
       0.15543264 -0.3200125 0.2657507 -0.13102914
000370 66 94 0d be d0 14 3b be 02 16 8d bd e0 14 38 3d
       -0.13826141 -0.18269658 -0.06888963 0.044941783
000380 46 45 fd bd 24 dd 3e 3e 6e ba f3 bd 6b 9e 31 be
       -0.123667285 0.18639046 -0.11900793 -0.17345588
000390 78 5c 72 3e bb aa c9 3d f1 40 89 3d 81 6a 40 be
       0.23668087 0.098470174 0.0670184 -0.18790628
0003a0 3f 37 0c bd 0c 04 56 3e e4 40 45 be ff 33 b9 3d
       -0.034232374 0.20899981 -0.19263035 0.090431206
0003b0 8e 4a 70 3e 20 f4 ff 3d d5 ca 07 be 00 fe 9c 3d
       0.2346594 0.12497735 -0.13260968 0.07665634
0003c0 10 04 a4 3d 46 96 1f 3e f6 49 69 3d 35 d9 dd 3d
       0.08008587 0.15584669 0.0569553 0.108324446
0003d0 0a 0a 46 bd b4 99 37 be 4c 28 9a 3c 6e 89 ac 3d
       -0.048349418 -0.17929727 0.018818043 0.0842465
0003e0 82 54 e9 3c 1f e6 2a bb 81 dd 89 be 02 f7 26 be
       0.02848268 -0.0026077104 -0.26926807 -0.16305164
0003f0 38 cf ee bd 06 39 5a be fc a9 6e bd c2 8a 2a be
       -0.116606176 -0.21310815 -0.05826758 -0.16654494

critic.0.bias f4 [64]
000000 e5 c7 1a be 11 68 17 3e c5 9f c3 bd 7f 5e 56 be
       -0.15115316 0.14785792 -0.09551958 -0.20934485
000010 16 06 3b 3e 15 a2 69 3e 5b a7 3d 3e f8 c2 ba 3d
       0.1826404 0.22815736 0.18520872 0.091192186
000020 0e a8 7e 3e ad cd 41 be 05 fb db bd c6 67 06 bd
       0.24868795 -0.18926115 -0.107412376 -0.03281381
000030 fc 25 5c be de 71 14 bd 6f bc 75 be ea ea 84 bd
       -0.21498865 -0.036241405 -0.23997663 -0.06490119
000040 ca b3 fb bd e5 1e 5e 3e 63 55 67 3d 0d 15 9a 3d
       -0.122901514 0.21691473 0.056477915 0.07523546
000050 b8 3f 92 3d c8 ec ae bd 19 d8 d1 bc 6f df 89 bd
       0.0714106 -0.08541256 -0.025615739 -0.0673207
000060 fa 92 07 3e 32 f0 4c 3d 43 9a 0d 3e 33 32 3e be
       0.13239661 0.050033756 0.13828377 -0.18573837
000070 9b dc cc bd b6 37 3b 3e 0d 5c dd bd ca c7 3c 3d
       -0.10003015 0.18282971 -0.10808573 0.04608897
000080 17 ac b6 bc 14 bb 00 be b2 89 09 be 25 87 3c be
       -0.022298856 -0.12571365 -0.13431433 -0.18410929
000090 9d 23 b6 bd 55 15 8e be 01 1f 69 be 5c 4f de ba
       -0.088935114 -0.2775065 -0.22765733 -0.0016960907
0000a0 dd 77 7a 3e ef 19 26 bc ef 72 ba ba 69 c1 6b be
       0.24459787 -0.010138019 -0.0014224927 -0.23022999
0000b0 16 b3 f1 bd c8 3f 8d be cc c6 e0 bd 7f 4d d5 3d
       -0.11801736 -0.27587724 -0.109754175 0.10415172
0000c0 ed a6 2c 3e 60 8a 39 be e2 84 36 be 66 ea 8b 3b
       0.16860552 -0.18119192 -0.17824128 0.004269886
0000d0 47 b0 0a bd 0a 9c 08 be 8c 5b 46 bd e9 69 fd 3d
       -0.033859517 -0.13340774 -0.04842715 0.123737164
0000e0 65 20 18 be 01 18 14 be a1 bf b9 bc f7 3c ba 3d
       -0.14856108 -0.14462282 -0.022674384 0.09093659
0000f0 90 f7 99 3e b0 f8 2d be 2e d4 95 3d b9 5e 37 3e
       0.30071688 -0.16989398 0.07315861 0.17907228

critic.2.weight f4 [64, 64]
000000 39 72 ef bd 4e fa 09 be 3a ee 60 3d 61 ed 94 bd
       -0.11691708 -0.1347439 0.05491469 -0.07271839
000010 49 53 10 be 6c 41 22 3c bc b4 a1 3d f4 00 01 3e
       -0.14094271 0.009903293 0.078958005 0.1259802
000020 20 13 ce 3c e4 52 bb bd c6 81 dd bc 8a 9c 11 3d
       0.025155604 -0.091466695 -0.02703942 0.035549678
000030 53 66 f8 3d 2b ca fd 3b fc 87 97 bd 5d 87 05 3e
       0.12128892 0.0077450476 -0.07398984 0.13039918
000040 25 b8 e6 3c 3b 70 b8 3d b4 77 12 3e 0f 53 c3 3d
       0.028163979 0.09005781 0.14303476 0.095373265
000050 38 ad d7 3d bd 31 dc bd 9f 9c ce bc e1 7c f7 3d
       0.10531086 -0.10751674 -0.025221167 0.12084366
000060 af 21 c0 3d 70 38 5d 3d 48 78 64 3d cd a2 73 3d
       0.09381425 0.0540089 0.05577877 0.05948143
000070 ce 91 a2 bd ea 95 93 bd 27 b7 c0 3d 87 20 99 3c
       -0.07937966 -0.07206328 0.094099335 0.018692268
000080 76 76 10 3d 96 7e a9 3d 34 44 e5 bc b7 1e f2 3d
       0.035269223 0.082760975 -0.027986623 0.11822265
000090 ad 5b 24 3c 9b 7b be 3d a8 ae a2 bd 05 04 96 3d
       0.010031623 0.093009196 -0.07943469 0.073249854
0000a0 4d 01 38 3e e5 7a 38 3d c7 1b ac bb 0f 0d 2d bd
       0.17969246 0.045039076 -0.0052523348 -0.04224878
0000b0 c0 aa a3 3c 47 14 0c bd d1 02 91 3d 6e 1c 4b bd
       0.01997888 -0.034199025 0.07080615 -0.04958766
0000c0 8a ee c8 3d 7e 48 12 3d c6 c4 08 3d a4 ca 83 3d
       0.09811123 0.035713665 0.033390783 0.06435135
0000d0 26 e7 99 bd 17 2a 95 bd a8 0d b8 bc ae 01 84 3d
       -0.07514791 -0.072834186 -0.02246745 0.06445633
0000e0 2b 0a c2 3c 86 c3 ad bd dd 71 e8 bd d3 0d 24 3d
       0.02368649 -0.08484559 -0.11349843 0.040052246
0000f0 8e 68 47 bd 92 ad 30 bd 45 bc e6 3d 5a cc 69 3d
       -0.048683695 -0.04313428 0.11266378 0.05707965
000100 46 a7 1d 3d 0b 9b 7e 3c b9 cb c4 3d 1c 31 50 be
       0.038489603 0.015539895 0.096091695 -0.20331234
000110 16 e3 19 bd 8a e2 c2 3c 10 77 c4 bd a4 33 bd bd
       -0.03757008 0.023789663 -0.09593022 -0.09238365
000120 69 35 4b 3e 95 0d 00 be 63 19 9b 3d fc d9 6c 3d
       0.19844593 -0.12505181 0.075732015 0.057825074
000130 7a bd 1c bc 65 6e 5b 3c 5e d3 40 bd 92 e3 5d 3d
       -0.009566659 0.013393019 -0.047076575 0.054172106
000140 81 11 89 3d 7e a0 ce 3d e3 67 55 bd a2 64 4e 3d
       0.06692792 0.10089205 -0.052101027 0.05038894
000150 84 62 9e 3d 41 30 02 be 31 d4 79 bc e7 33 87 bd
       0.07733634 -0.1271372 -0.015248344 -0.066016965
000160 4e 3a 5d 3c 8a b6 a4 bd cb 65 d4 3d 6b 39 2d 3d
       0.01350267 -0.08042629 0.10370978 0.042291086
000170 cd 9d d0 bd 2c 99 bb 3d 63 8b ad 3d a4 b2 38 bd
       -0.10186348 0.091600746 0.084738515 -0.04509224
000180 39 a5 12 be db 9e 1e 3e 44 30 74 bd 83 05 77 bd
       -0.1432084 0.15490286 -0.059616342 -0.06030799
000190 a5 88 05 3e 67 1c 37 bd dc c1 38 bd 2e b4 a9 3d
       0.13040407 -0.04470482 -0.045106754 0.0828632
0001a0 65 58 91 3d 56 a9 19 3c 36 ec 56 3d db 6c af 3d
       0.07096938 0.009378752 0.052471362 0.085656844
0001b0 8a e7 0c 3d 0e 9a 84 3b fa f8 a0 3d 1a 0c 34 3e
       0.0344005 0.004046685 0.078599885 0.17582741
0001c0 bd 1d 2d 3d 00 26 e4 bd e1 0b e7 bd 71 6a 88 bd
       0.04226469 -0.111400604 -0.112815626 -0.06660927
0001d0 37 4e d5 bd 2a 07 bc bd c7 ae 19 bd b0 d8 33 bd
       -0.10415309 -0.09181054 -0.037520196 -0.04390782
0001e0 5b be 87 3d 0d 6e de 3d 44 d0 b7 3d 92 61 46 bd
       0.06628104 0.10860834 0.089752704 -0.048432894
0001f0 81 ee a7 3d 3c 24 29 bd d9 fe da bd 43 99 26 3e
       0.08199788 -0.04129432 -0.106931396 0.16269402
000200 83 72 8d bd 70 2c b9 3b 99 d3 ed 3d 2f 1d 65 bc
       -0.06906607 0.0056510493 0.11612625 -0.013984009
000210 11 41 9c bd 3e d4 c2 ba 96 c9 a4 bd 5e 79 19 3e
       -0.07629598 -0.0014864278 -0.08046262 0.14987704
000220 c2 23 b5 3d 82 4b db bd 4b c1 ce 3d 2b 6f 17 be
       0.08844711 -0.10707761 0.100954615 -0.14788501
000230 d4 32 1c 3e 77 64 22 bc 1e 5e 12 3e 03 ca 9e bc
       0.15253764 -0.009911648 0.14293715 -0.019383436
000240 a9 94 08 be 89 08 84 3b 45 d0 a2 ba 89 e6 d3 bb
       -0.1333796 0.004029338 -0.0012421688 -0.006466691
000250 9e 35 45 bd 23 4f 25 be 63 e7 c1 3d ff bf 91 3d
       -0.048146836 -0.1614347 0.09467962 0.071166985
000260 b8 c0 01 be 88 44 3f bd 13 51 1f 3d 88 ee f5 3c
       -0.12671173 -0.046696216 0.038895678 0.030020967
000270 4e bd 2f bd 77 92 20 bd 86 71 d7 bc 66 65 6a bd
       -0.042905144 -0.03920218 -0.02629925 -0.057225607
000280 fc 8b 44 bc 8b e9 16 3c 60 9c 6e bd cf 8a 7e 3b
       -0.0119962655 0.009210954 -0.0582546 0.003884006
000290 58 2f ef 3d 30 8a ea bd 1c 64 9a bd b9 1b 91 3d
       0.11678952 -0.114521384 -0.075386256 0.07085366
0002a0 1a 03 2a 3e 2e 19 d5 3c 04 72 b4 3d 59 3b 1c 3d
       0.16602746 0.026012983 0.08810809 0.038142536
0002b0 79 21 f1 3d 13 35 8a bd 9d db 31 bc 76 9a 0f bd
       0.117739625 -0.06748404 -0.010855583 -0.035059415
0002c0 fa 32 c2 bb a1 09 89 bc 7e fd 83 3d 29 e0 71 3d
       -0.005926487 -0.016728224 0.06444834 0.059051666
0002d0 5a e1 8e bd c6 b4 d7 bd 0a e4 39 3d f1 4b 3c bd
       -0.06976576 -0.10532527 0.04538349 -0.04597086
0002e0 0a e6 a5 bd 5f 7a 46 bd df c8 08 3d 98 61 9c ba
       -0.08100517 -0.048456546 0.03339469 -0.0011930941
0002f0 fe f6 08 3c fb c8 01 3e 1c ad 0b bd 39 79 3f 3d
       0.008359669 0.12674324 -0.034100637 0.046746466
000300 dc f8 af bd 34 a6 b6 3c 95 24 4f bd f2 a8 dd bc
       -0.08592388 0.022296049 -0.050571997 -0.027058098
000310 86 98 bf 3d cc b1 9c 3c eb 45 8c 3c 40 21 15 3d
       0.093552634 0.019127749 0.017123183 0.036408663
000320 e0 a9 9e bc e4 58 b6 bd cb 58 53 bd 35 6c 1f bb
       -0.019368112 -0.08903673 -0.05159835 -0.002432597
000330 29 81 ce bc c6 77 01 bd 7d 47 20 3d 60 51 b3 bd
       -0.025208073 -0.031608365 0.039130677 -0.087557554
000340 51 11 8c 3d cf 98 ed bd c0 fa f7 3d b9 c2 e4 3d
       0.0683924 -0.116014116 0.12108374 0.11169953
000350 b1 d5 d9 3d 99 7f cb bc b7 4a 00 3e 15 02 17 3d
       0.106364615 -0.024841117 0.12528501 0.03686722
000360 e0 1d a3 3d 00 36 53 3d 8e f6 31 bc 23 4d 81 bb
       0.079646826 0.05156517 -0.010862006 -0.003945963
000370 7d 98 76 3d ee 1d a4 bd 29 f4 1d 3d c8 5d 7e 3b
       0.060204018 -0.08013521 0.038562927 0.0038813222
000380 74 ff 0e bd 55 8c ec bc 41 9e c9 bd 8f db da 3d
       -0.034911588 -0.02887551 -0.09844638 0.10686409
000390 1f aa 61 bd 90 bd a3 3c 7c da f9 bd f4 d8 02 be
       -0.05509388 0.019987851 -0.12199876 -0.12778074
0003a0 9c 68 b8 3d 49 01 0f 3d 33 95 25 3d 13 b3 72 3d
       0.09004328 0.034913335 0.04042549 0.05925281
0003b0 61 ee 8c bd 4a 7e 98 bd 99 7a 2d bd 66 1a 08 bd
       -0.06881405 -0.07445963 -0.042353246 -0.0332283
0003c0 36 12 85 bc b8 49 c3 bd e5 60 94 3c c7 9f 6e 3d
       -0.016244035 -0.09535545 0.01811261 0.058257844
0003d0 6b 12 08 3e df 97 03 be e1 f4 0c be cb fa 27 3d
       0.13288276 -0.12850903 -0.13765289 0.04101066
0003e0 cf 4c c6 bc 75 72 04 bd 79 32 da bd 9c c8 50 bd
       -0.024206547 -0.032335717 -0.10654158 -0.050972566
0003f0 16 6c 25 3e 7e 1e a3 3c f3 9d 49 3d 2f 23 09 3e
       0.16154513 0.019912 0.049222898 0.13392328

critic.2.bias f4 [64]
000000 d5 36 5e bc ed bf 9d bd 71 ed 5e bd d1 90 90 bd
       -0.013562878 -0.077026226 -0.05442566 -0.070588715
000010 fc 61 78 3d 14 fc 20 3d 20 3e 06 be 07 fb d8 bd
       0.06064032 0.0393029 -0.13109636 -0.10594755
000020 34 0f 49 3d 0d 06 3b bd 52 17 7c ba 91 2c 78 bb
       0.049086764 -0.045660067 -0.0009616512 -0.003786836
000030 10 98 40 3d 90 ac 0b be 9a f3 a3 3c 9c 94 8e bb
       0.047020018 -0.13640046 0.02001362 -0.0043512117
000040 49 1d 84 bd 8e b6 01 3e a8 60 e9 bd fb d4 72 3d
       -0.06450898 0.12667295 -0.11395389 0.059285145
000050 02 9d 88 bd 0b 3e b1 3d 6e ff 19 3d 76 3d 8b 3d
       -0.06670572 0.08654412 0.037597112 0.06798832
000060 bb 4c 86 bd 96 cf 90 bb da c0 fe 3c 14 80 88 bd
       -0.06557604 -0.0044192774 0.031097818 -0.06665054
000070 b7 2f a7 3d 53 94 0c be 0b aa 34 bd 4f 50 07 be
       0.08163398 -0.13728456 -0.044107478 -0.13214229
000080 41 0c 09 3d f1 27 ba 3d fc 36 5b bd a6 a4 12 bd
       0.03345895 0.090896495 -0.053519234 -0.035801552
000090 0a fb e5 bd 23 2a fe 3c 49 62 4b 3d c8 df b6 3d
       -0.112295225 0.031025952 0.04965428 0.08929402
0000a0 41 4a ff bd 02 bb 6b bc e6 4d 85 bd 4f 7c 9d bd
       -0.12465335 -0.014387848 -0.065089986 -0.076897256
0000b0 87 ef 05 be cd 26 88 bd f3 bc ab bd bc 9d 10 3d
       -0.13079654 -0.06648026 -0.083856486 0.035306677
0000c0 8f 2b 3e bd d6 f5 bf bd c0 28 a4 3d 1e 7f 3d 3d
       -0.04642826 -0.09373061 0.08015585 0.046263807
0000d0 32 2b 38 3d 7c 0c 05 bd 17 28 00 be eb 73 12 bd
       0.04496307 -0.03248261 -0.12515293 -0.03575508
0000e0 83 90 ea bd 94 f8 9d bd 50 fe 24 3d 5b bd 26 bd
       -0.11453345 -0.07713428 0.040281594 -0.040707927
0000f0 84 35 f5 bc c6 03 56 3c 04 c0 83 bc 01 57 5f 3d
       -0.029932745 0.013062423 -0.016082771 0.054526333

critic.4.weight f4 [1, 64]
000000 1d ff 50 3c 41 20 9d 3d b3 05 cd 3d 65 c3 80 3d
       0.012756136 0.076721676 0.10010853 0.062872685
000010 1c 05 e8 3c 45 eb b3 3d 6d 10 69 bd a8 82 d2 3c
       0.028322749 0.087851085 -0.05690043 0.025697067
000020 de e4 e1 3d 50 ef be bd 50 6d 9e bd af 1c 1a 3d
       0.11029981 -0.09322989 -0.077356935 0.03762501
000030 f8 57 e4 bd 33 bb d1 bc 79 b6 71 bc ea ac 3a bd
       -0.11149591 -0.025601959 -0.0147529775 -0.04557506
000040 ef ac 34 3d 13 df b9 3c b5 f4 35 3d 69 88 12 3e
       0.044110235 0.022689378 0.044422824 0.14309849
000050 6d 9e 87 3d f4 9d 85 bd e9 da bc 3d d1 c6 8d 3d
       0.06622014 -0.06524268 0.09221441 0.06922687
000060 8f df d8 3d ce 61 8c bd f5 d9 7d 3d 4f f7 96 3d
       0.105895154 -0.06854592 0.06197544 0.07371389
000070 cc 90 a5 3d be 7e 56 bd 3d eb c8 bd 84 d9 1d bd
       0.080842584 -0.052366965 -0.09810493 -0.038537517
000080 89 9f be 3d ad c6 80 bd ea 6d 83 3b b1 e6 64 bd
       0.09307773 -0.062878944 0.0040109055 -0.055884067
000090 13 ee c3 bd 37 e0 4b 3d 48 0d f9 3b 85 47 f0 3d
       -0.095668934 0.049774375 0.00760046 0.11732391
0000a0 d0 75 3c bc 96 07 00 3e 3f a2 54 bd ad 5d c1 3d
       -0.011502698 0.12502894 -0.051912542 0.09441695
0000b0 c9 3b e6 bd 78 34 7b bc 66 b3 6d bd f6 d1 b7 bd
       -0.11241872 -0.015332334 -0.058032416 -0.08975594
0000c0 db 65 a6 3c 0c 15 0b bc 5b a7 ee 3d 1f 74 89 3c
       0.02031224 -0.008488905 0.11653014 0.016779004
0000d0 06 47 ea 3d 9e cb 49 bd 41 bb 86 bc ce 3f cf bc
       0.11439328 -0.04926645 -0.016446711 -0.02529898
0000e0 07 94 71 bd 99 7d 9e bc f0 4d 43 bc fe cc 8a bd
       -0.05897906 -0.019346999 -0.011920437 -0.067773804
0000f0 bc 67 03 be c9 85 5e 3c 98 03 f4 bd ef 5d f3 3d
       -0.1283254 0.013581702 -0.11914748 0.11883151
