models/success_agent_best.pth (torch, 46818 bytes, 11 tensors)

actor.0.weight f4 [64, 15]
-0.056296676 -0.056620233 -0.08882001 -0.0028461516 -0.30181056 -0.04541067 -0.017927118 0.13919485
0.085271746 -0.16970518 -0.04719282 0.14578867 -0.1628558 -0.19125819 -0.14906812 -0.18901499
-0.06008403 0.07917821 0.15052457 0.009825921 0.1829706 0.17289545 -0.13221346 -0.31316084
0.059112888 0.21994618 0.08704552 -0.16794139 0.14461896 -0.027055085 -0.04781768 0.034148756
0.10752895 -0.22070622 0.06597469 -0.3043917 -0.07376841 0.0062782126 0.23365305 -0.1408428
-0.08763061 -0.009849906 0.065529495 0.21578595 0.16265285 0.16960938 -0.1230922 0.112023436
-0.18000062 -0.06175206 -0.051227104 -0.119432464 -0.029748188 0.17373669 0.123657875 -0.18355313
-0.072764665 -0.19428381 -0.023333937 0.2452127 0.20239918 0.20978977 -0.010133857 -0.17477149
-0.089180544 0.22461657 0.04496705 0.13515945 -0.0005518147 -0.013320156 0.075608104 0.1268292
-0.1317614 0.11151537 -0.08691651 -0.24240997 -0.12717307 -0.08052689 -0.0069385655 0.24636164
-0.19368869 0.21866909 0.05002189 0.12802018 0.14007315 0.03411079 -0.06405032 -0.20000653
-0.24710046 0.01672846 -0.02923558 -0.04018021 0.07034236 0.22255506 0.06775978 -0.025837284
0.19632676 0.21296279 -0.21617882 0.14244674 -0.093713395 -0.12882634 0.06266853 0.2368916
0.18428338 -0.17111488 0.1938274 -0.071578726 -0.14889531 0.1750112 0.08927196 -0.2396838
-0.16997963 -0.13005361 -0.014321163 0.15601584 -0.22839591 -0.07643734 0.1946713 0.0809764
-0.16746634 -0.13042146 -0.22732925 0.07412254 0.097161025 0.3115509 0.13425738 -0.13948533
0.19986688 -0.055203732 -0.14722173 0.052032053 -0.1117776 -0.14246547 0.13798967 -0.2463259
-0.051347304 0.15248474 -0.012787412 0.23814899 -0.022789346 0.08282647 0.20266959 -0.33970004
0.18318719 0.16018844 0.12647668 -0.09794672 0.108195245 0.10110465 0.14832018 0.1274779
-0.036424406 0.1178961 -0.35535234 -0.09947948 0.0549995 -0.14043981 -0.034731682 0.24058227
-0.3437473 0.21102205 0.11645797 -0.03859751 0.04974276 -0.036420856 -0.23015122 -0.12753889
-0.060426276 0.035113364 0.22365275 -0.102922715 0.04630616 0.21004565 0.05428234 -0.16648133
0.097334296 -0.24483107 0.07506266 -0.04868546 0.040299214 0.09215853 -0.033447195 0.12496995
0.004430547 -0.15610422 0.015520518 -0.21534519 0.012343011 0.06438645 -0.3631943 0.072176695
0.111531734 -0.099510446 -0.16493028 -0.07255172 -0.06507274 0.16413234 0.086410224 -0.31026426
0.10413575 0.019437864 -0.15570247 0.19571547 0.23766619 -0.25796002 0.0069348216 0.21905836
0.091121525 -0.021073043 0.031990066 -0.0538994 -0.23917778 0.07880532 0.06555654 -0.07352052
0.25370932 0.21134894 -0.14821295 0.20121542 0.2741081 -0.0224116 0.25370625 -0.0809388
-0.20078877 -0.06505419 -0.044625495 0.027487487 0.16528474 0.16960663 -0.09934185 -0.04395999
0.18729074 -0.09608817 0.13129646 -0.13410826 0.047592074 -0.017902613 -0.17951922 -0.16762078
-0.12569256 0.22852597 0.0005497794 0.011322492 -0.004597427 0.168331 0.067716174 0.3230835
-0.27515492 -0.04694975 0.28591263 0.20250115 -0.012669787 0.25248006 0.090236485 -0.2545341
00000000: 5897 66bd 9eea 67bd 44e7 b5bd 8086 3abb
00000010: ea86 9abe 8a00 3abd e4db 92bc 1889 0e3e
00000020: f4a2 ae3d 32c7 2dbe 424d 41bd a049 153e
00000030: acc3 26be 30d9 43be 50a5 18be 258d 41be
00000040: ac1a 76bd 2f28 a23d 1d23 1a3e e6fc 203c
00000050: a55c 3b3e 810b 313e f762 07be 9e56 a0be
00000060: 5b20 723d 9239 613e ec44 b23d d4f8 2bbe
00000070: fe16 143e a0a2 ddbc 79dc 43bd 91df 0b3d
00000080: 2338 dc3d d000 62be bd1d 873d 3bd9 9bbe
00000090: e413 97bd 77b9 cd3b bf42 6f3e 1839 10be
000000a0: ad77 b3bd 8061 21bc 5434 863d fef6 5c3e
000000b0: 788e 263e 15ae 2d3e c317 fcbd 8b6c e53d
000000c0: 1552 38be baef 7cbd 83d3 51bd 0299 f4bd
000000d0: 79b2 f3bc 08e8 313e 5740 fd3d 5af5 3bbe
000000e0: a405 95bd 56f2 46be d026 bfbc 0a19 7b3e
000000f0: bb41 4f3e 21d3 563e 7a08 26bc 4cf7 32be
00000100: 4aa4 b6bd e301 663e 5f2f 383d 3d67 0a3e
00000110: a8a7 10ba c93c 5abc 6cd8 9a3d 84df 013e
00000120: 76ec 06be 2c62 e43d 4801 b2bd 523a 78be
00000130: a839 02be 48eb a4bd e85c e3bb 3a46 7c3e
00000140: 5456 46be caea 5f3e c1e3 4c3d b917 033e
00000150: 566f 0f3e c1b7 0b3d d02c 83bd 83ce 4cbe
00000160: e707 7dbe 200a 893c 747f efbc 0194 24bd
00000170: a80f 903d 79e5 633e a4c5 8a3d b6a8 d3bc
00000180: e209 493e eb12 5a3e fb5d 5dbe 8fdd 113e
00000190: cfec bfbd 0deb 03be 5c58 803d b693 723e
000001a0: c8b4 3c3e bd38 2fbe b17a 463e de97 92bd
000001b0: 0378 18be 2336 333e 38d4 b63d ac6f 75be
000001c0: 240f 2ebe c62c 05be 50a3 6abc 9ec2 1f3e
000001d0: 9ee0 69be 2e8b 9cbd ea57 473e f4d6 a53d
000001e0: 4c7c 2bbe 348d 05be 00c9 68be 8fcd 973d
000001f0: 5cfc c63d 9983 9f3e c47a 093e 3ed5 0ebe
00000200: e7a9 4c3e 4f1d 62bd 4bc1 16be 901f 553d
00000210: a8eb e4bd 78e2 11be 2a4d 0d3e db3c 7cbe
00000220: 8d51 52bd f624 1c3e 4b82 51bc 54dd 733e
00000230: b9b0 babc eda0 a93d 9e88 4f3e 2aed adbe
00000240: 6c95 3b3e 7008 243e 1a83 013e 4a98 c8bd
00000250: 7895 dd3d f40f cf3d 3fe1 173e 9189 023e
00000260: c231 15bd 8373 f13d bef0 b5be e6bb cbbd
00000270: 2847 613d 74cf 0fbe cf42 0ebd 335b 763e
00000280: a5ff afbe 2a16 583e 8481 ee3d 6c18 1ebd
00000290: 10bf 4b3d 092e 15bd c3ac 6bbe 8e99 02be
000002a0: 8b81 77bd 08d3 0f3d 3a05 653e 25c9 d2bd
000002b0: 87ab 3d3d 3516 573e 2957 5e3d 157a 2abe
000002c0: 3457 c73d ffb4 7abe 74ba 993d 686a 47bd
000002d0: ca10 253d 9dbd bc3d edff 08bd 3ff0 ff3d
000002e0: 1f2e 913b c9d9 1fbe c549 7e3c 7383 5cbe
000002f0: 573a 4a3c 0bdd 833d 9af4 b9be 60d1 933d
00000300: c06a e43d 22cc cbbd 7ce3 28be ff95 94bd
00000310: db44 85bd 4f12 283e d8f7 b03d f5da 9ebe
00000320: 2045 d53d 283c 9f3c 7870 1fbe a369 483e
00000330: c45e 733e 5613 84be 803d e33b d650 603e
00000340: ec9d ba3d 60a1 acbc 0408 033d 9ec5 5cbd
00000350: 05eb 74be af64 a13d 8242 863d ed91 96bd
00000360: 30e6 813e db6b 583e 23c5 17be 6a0b 4e3e
00000370: e657 8c3e 8898 b7bc c9e5 813e 3ec3 a5bd
00000380: 929b 4dbe 223b 85bd 39c9 36bd 702d e13c
00000390: 6740 293e 5cad 2d3e bd73 cbbd 640f 34bd
000003a0: 25c9 3f3e e0c9 c4bd 9472 063e ad53 09be
000003b0: e8ef 423d 80a8 92bc e3d3 37be c8a4 2bbe
000003c0: 8db5 00be b602 6a3e 121f 103a f981 393c
000003d0: 03a6 96bb f65e 2c3e c7ae 8a3d 336b a53e
000003e0: 1be1 8cbe 624e 40bd 2463 923e 765c 4f3e
000003f0: f094 4fbc 1145 813e e8cd b83d 4b52 82be

actor.0.bias f4 [64]
0.098027594 0.020387297 0.24966642 0.0017831003 -0.19330259 0.038631182 -0.056780346 -0.14372891
-0.0076503684 -0.23300909 -0.0047180154 -0.107824944 0.24939765 0.017917546 -0.18456681 -0.037618924
-0.2564853 -0.25908986 -0.158209 0.016253611 0.13067336 0.059542533 0.16663112 -0.20691888
-0.14924829 -0.15188344 0.23108426 -0.08420396 -0.24233425 -0.14826116 -0.010842177 0.01998132
0.24863268 -0.06544304 0.10912085 0.0411466 0.26235232 0.20000601 -0.22426905 -0.020866735
-0.076597475 -0.03754102 0.16651648 -0.0073612127 -0.049998607 -0.06748374 -0.092815526 -0.24219982
0.12311491 -0.1363008 -0.15305412 0.14081581 -0.10225817 0.18343854 -0.025221696 0.096945174
-0.051914603 0.034612633 0.14766453 -0.25178552 -0.13664459 -0.2193633 0.10224422 -0.0982692
00000000: b1c2 c83d 4303 a73c 8ea8 7f3e ebb6 e93a
00000010: 1df1 45be bb3b 1e3d 8292 68bd ac2d 13be
00000020: f1af fabb ef99 6ebe 9599 9abb 53d3 dcbd
00000030: 1962 7f3e d1c7 923c 15ff 3cbe 4d16 1abd
00000040: 0b52 83be 6da7 84be 8a01 22be 4b26 853c
00000050: 3dcf 053e dfe2 733d 59a1 2a3e 8be2 53be
00000060: 8bd4 18be 5587 1bbe 5aa1 6c3e 2073 acbd
00000070: 7826 78be c6d1 17be 63a3 31bc ddaf a33c
00000080: 9199 7e3e 0007 86bd c17a df3d 5689 283d
00000090: 0b53 863e 60ce 4c3e c9a6 65be b7f0 aabc
000000a0: 23df 9cbd 9dc4 19bd 4c83 2a3e 5436 f1bb
000000b0: 57cb 4cbd ea34 8abd 1116 bebd 3b03 78be
000000c0: ac23 fc3d 7092 0bbe 38ba 1cbe 0532 103e
000000d0: bb6c d1bd 50d7 3b3e bb9d cebc 318b c63d
000000e0: 68a4 54bd fac5 0d3d 5f35 173e 08ea 80be
000000f0: 8fec 0bbe c6a0 60be 6b65 d13d 5d41 c9bd

actor.2.weight f4 [64, 64]
-0.03379202 0.09362706 -0.032464713 -0.07587392 -0.0738834 0.06546618 0.039848052 -0.035360526
-0.012118437 -0.06124823 -0.09677062 0.1122357 -0.13286659 0.00760048 0.07568988 0.054729186
0.019589249 -0.08025037 -0.010012592 -0.08105282 -0.07276198 -0.108726256 -0.012554199 -0.07715037
0.02301254 0.02617967 0.0879205 0.02274392 0.13361655 -0.11729033 -0.079355545 -0.089665994
-0.13257375 -0.0687196 0.057485446 -0.101870224 -0.11086784 0.033796847 -0.016920518 -0.08693159
-0.067441106 -0.13595614 0.07000435 0.143922 -0.08369562 -0.043935027 0.053204916 0.12616704
-0.02465913 -0.042471122 0.02446608 0.08073943 -0.04463636 -0.008926006 -0.14095156 0.009829214
-0.08379962 -0.050181735 0.050417043 0.014680202 0.08408868 -0.051573936 0.15523711 0.024811827
0.035756048 0.075340755 -0.0170773 0.020611405 -0.08578374 0.035813343 -0.028215518 0.018417068
0.11784264 0.16652131 0.085446976 -0.008992243 0.015217745 -0.16385995 -0.04313957 -0.014552162
0.15920636 0.019067343 0.059132338 -0.06308885 -0.04640951 -0.036219504 -0.012570829 0.12910762
-0.028756315 0.015717428 0.06687001 -0.044848833 0.014403864 0.060956515 -0.038725033 0.15034305
-0.1543531 -0.10073102 0.023193186 0.065241985 -0.12010395 -0.007049108 0.03498908 0.03339624
-0.090795286 -0.08963829 -0.02153943 -0.018239954 0.01021563 -0.10184789 0.008509317 -0.06115415
-0.0640789 0.031511243 -0.05290953 0.09687316 -0.0024378507 -0.054123856 -0.025747402 0.051217765
-0.022156412 0.043176476 -0.051409822 0.049623847 -0.047785208 -0.060466886 0.045656327 0.004056511
0.122519344 -0.026706787 0.14787713 -0.09760661 0.056361057 -0.020179937 -0.061377563 -0.10218917
-0.0017562365 -0.11066863 -0.068970814 0.038613718 0.006990609 0.17103313 -0.122795634 -0.10005849
-0.10855419 -0.14174074 0.009127475 -0.073591 0.09377544 -0.05182137 -0.09186377 0.0320748
-0.08874546 -0.06416747 -0.014923803 -0.02330781 -0.16853568 -0.019395806 -0.041629843 -0.12594163
0.09352546 -0.010401092 0.10476812 0.12455682 0.039440315 0.016377361 -0.12706493 -0.08908322
-0.028479164 -0.021841085 -0.08970243 -0.07818758 -0.052964143 0.056569573 -0.098867215 -0.05739872
-0.059634354 -0.09045171 0.0846393 -0.07338955 -0.12644377 -0.06163244 0.112750575 0.05744832
-0.025093786 0.043490145 0.042821504 0.038913675 -0.15312196 0.024110125 -0.15638877 0.052167416
-0.14381391 0.057338603 0.09233769 0.011869708 -0.0032221992 0.12011641 0.046070848 0.08286746
-0.04129108 0.1915186 0.04285252 -0.10353976 -0.049301825 -0.09582913 0.10327813 -0.07528455
0.06757825 0.058940273 -0.024159519 -0.098688744 0.015194755 0.08532273 -0.08748962 0.18692352
-0.01746993 -0.05785712 -0.017558511 0.07394963 0.13489334 0.01647004 -0.0072986097 -0.044997793
-0.14594854 0.044412255 0.014297727 0.08913746 0.05519452 0.081578195 0.09923545 0.0071575865
0.070766896 -0.10414716 -0.1108026 0.10393821 0.058834806 0.12851413 0.07033671 0.07332728
-0.06658961 0.022289589 0.069169715 -0.08014014 0.06876119 0.004187387 -0.18190458 -0.12877263
-0.026047427 -0.090903476 -0.14477979 0.074877486 -0.02795784 -0.009586269 0.00015816442 -0.028747195
00000000: 8069 0abd 8bbf bf3d b8f9 04bd c963 9bbd
00000010: 2e50 97bd 2213 863d b637 233d 33d6 10bd
00000020: 698c 46bc 6ddf 7abd ad2f c6bd d5db e53d
00000030: 2e0e 08be 730d f93b 4c03 9b3d b62b 603d
00000040: a279 a03c 4e5a a4bd db0b 24bc 05ff a5bd
00000050: 3c04 95bd dfab debd 21b0 4dbc 0301 9ebd
00000060: cb84 bc3c bf76 d63c aa0f b43d 7551 ba3c
00000070: c7d2 083e ea35 f0bd 2985 a2bd cea2 b7bd
00000080: 6ac1 07be ddbc 8cbd dc75 6b3d 56a1 d0bd
00000090: ae0e e3bd 906e 0a3d e69c 8abc 3109 b2bd
000000a0: 901e 8abd 1638 0bbe 715e 8f3d 4a60 133e
000000b0: 9c68 abbd 37f5 33bd 66ed 593d ef31 013e
000000c0: f201 cabc 33f6 2dbd 176d c83c b75a a53d
000000d0: 9ed4 36bd 623e 12bc 9b55 10be b60a 213c
000000e0: 239f abbd 5d8b 4dbd 1a82 4e3d 3b85 703c
000000f0: b036 ac3d 313f 53bd 7af6 1e3e 2c42 cb3c
00000100: ef74 123d 414c 9a3d b2e5 8bbc 40d9 a83c
00000110: 63af afbd 03b1 123d 3b24 e7bc 64df 963c
00000120: 7b57 f13d 9084 2a3e d3fe ae3d 3354 13bc
00000130: d953 793c e7ca 27be 1eb3 30bd 316c 6ebc
00000140: fe06 233e 1e33 9c3c c034 723d ba34 81bd
00000150: e617 3ebd e75a 14bd e1f5 4dbc ca34 043e
00000160: 5d92 ebbc d6c1 803c 25f3 883d 69b3 37bd
00000170: 2ffe 6b3c 8aad 793d 249e 1ebd 87f3 193e
00000180: bd0e 1ebe 114c cebd a3ff bd3c 979d 853d
00000190: 0ff9 f5bd 34fc e6bb b650 0f3d 7fca 083d
000001a0: e1f2 b9bd 4894 b7bd 7573 b0bc f56b 95bc
000001b0: 755f 273c a095 d0bd aa6a 0b3c c67c 7abd
000001c0: cc3b 83bd ef11 013d aab7 58bd 6f65 c63d
000001d0: 59c4 1fbb fab0 5dbd 37ec d2bc b8c9 513d
000001e0: 5d81 b5bc d1d9 303d 1b93 52bd 6042 4b3d
000001f0: 6cba 43bd 20ac 77bd 2102 3b3d 7bec 843b
00000200: 6ceb fa3d 31c8 dabc 1a6d 173e f9e5 c7bd
00000210: dada 663d 6550 a5bc 0a67 7bbd 8e48 d1bd
00000220: 8531 e6ba 3ca6 e2bd 9240 8dbd 6b29 1e3d
00000230: 7b11 e53b 4f23 2f3e 477c fbbd 77eb ccbd
00000240: a951 debd 7c24 11be 688b 153c e1b6 96bd
00000250: 560d c03d a542 54bd 1223 bcbd de60 033d
00000260: 2ec0 b5bd 3c6a 83bd f782 74bc 05f0 bebc
00000270: 9e94 2cbe f4e3 9ebc 0e84 2abd d8f6 00be
00000280: 478a bf3d 5769 2abc ab90 d63d a517 ff3d
00000290: 2b8c 213d d129 863c 4f1d 02be 4371 b6bd
000002a0: 234d e9bc 13ec b2bc e8b5 b7bd cf20 a0bd
000002b0: eef0 58bd 7fb5 673d e57a cabd ec1a 6bbd
000002c0: 2743 74bd bf3e b9bd 5f57 ad3d 434d 96bd
000002d0: 7a7a 01be 4c72 7cbd c6e9 e63d ee4e 6b3d
000002e0: 7c91 cdbc b922 323d 9a65 2f3d f263 1f3d
000002f0: 01cc 1cbe 9982 c53c 6124 20be 80ad 553d
00000300: f443 13be e2db 6a3d 8b1b bd3d 2a79 423c
00000310: 882b 53bb 98ff f53d c9b4 3c3d 6ab6 a93d
00000320: d620 29bd 741d 443e 2086 2f3d a70c d4bd
00000330: b6f0 49bd 1042 c4bd 7c83 d33d c92e 9abd
00000340: 7766 8a3d 5b6b 713d 2fea c5bc 531d cabd
00000350: 6cf3 783c afbd ae3d c22d b3bd e168 3f3e
00000360: 191d 8fbc 96fb 6cbd ded6 8fbc e772 973d
00000370: 7b21 0a3e 2dec 863c 2d29 efbb 9b4f 38bd
00000380: 8973 15be a0e9 353d 0341 6a3c b38d b63d
00000390: a613 623d 7812 a73d f53b cb3d 308a ea3b
000003a0: 3cee 903d 1b4b d5bd 79ec e2bd 8edd d43d
000003b0: c4fc 703d 3599 033e b10c 903d 9d2c 963d
000003c0: 2260 88bd a898 b63c daa8 8d3d 8420 a4bd
000003d0: abd2 8c3d 5936 893b 3245 3abe f9dc 03be
000003e0: 6a61 d5bc 9a2b babd 2741 14be 5e59 993d
000003f0: d707 e5bc ba0f 1dbc f0d8 2539 3d7f ebbc

actor.2.bias f4 [64]
-0.05537445 -0.12728663 0.06004659 0.043084636 -0.043593958 -0.002703138 -0.111747004 -0.028736722
0.10267158 0.14557719 -0.09305024 0.0373684 -0.14590289 0.044426247 0.123814456 -0.043806005
-0.12002482 -0.11580085 -0.08098305 0.08361415 0.083649725 -0.077446066 -0.010853826 0.036023036
-0.076531515 -0.13052681 -0.028955461 -0.008977116 -0.06730668 0.04478775 -0.008603627 -0.016195914
0.13314322 0.051418167 -0.15829784 -0.04574307 -0.102667876 -0.097960904 0.04466909 0.094942056
0.020482082 0.13857137 -0.07254918 -0.08210991 0.019396668 -0.0040084436 -0.075817004 -0.105473384
-0.040820222 -0.07952426 0.03644347 0.058116376 -0.031519987 -0.043907017 -0.107231185 0.03480775
0.075825766 0.06782208 0.041579712 -0.04236072 0.0110855205 0.1400478 -0.061851177 -0.05375399
00000000: 52d0 62bd 6d57 02be 6af3 753d 8479 303d
00000010: 948f 32bd 2127 31bb 9ddb e4bd 4669 ebbc
00000020: 7a45 d23d 3012 153e 2091 bebd 9b0f 193d
00000030: 9167 15be 4cf8 353d 6f92 fd3d ed6d 33bd
00000040: 93cf f5bd ff28 edbd 71da a5bd e53d ab3d
00000050: 8c50 ab3d 0b9c 9ebd 3fd4 31bc e48c 133d
00000060: 8ebc 9cbd d2a8 05be 0134 edbc c114 13bc
00000070: 16d8 89bd 5c73 373d 3af6 0cbc 4bad 84bc
00000080: b256 083e db9b 523d d418 22be 165d 3bbd
00000090: 8943 d2bd ba9f c8bd f0f6 363d fb70 c23d
000000a0: 0aca a73c a7e5 0d3e aa94 94bd 3e29 a8bd
000000b0: c3e5 9e3c 4359 83bb f245 9bbd 6e02 d8bd
000000c0: 1b33 27bd 9ddd a2bd bf45 153d 700b 6e3d
000000d0: 1a1b 01bd d8d7 33bd 069c dbbd 9292 0e3d
000000e0: 8a4a 9b3d 4de6 8a3d 7d4f 2a3d 6f82 2dbd
000000f0: 0ba0 353c b168 0f3e a957 7dbd 252d 5cbd

actor.4.weight f4 [2, 64]
-0.10486158 0.0005271976 0.009996993 0.041701786 0.0516319 -0.1048652 -0.0365701 0.109553516
-0.030055167 -0.00976632 -0.018081361 -0.06676751 -0.040856548 0.055631876 0.005418243 -0.13760011
-0.025740838 -0.089544445 0.07245685 -0.026402632 0.004384566 0.13121188 -0.019357478 -0.0045809457
0.0950432 0.067043826 -0.079075806 0.02727233 0.024454849 0.029158683 0.041424636 0.04291374
0.039621014 0.09540641 0.000117324955 0.030886773 -0.109180555 -0.06755641 -0.04065546 0.13053587
-0.11360084 -0.110458866 -0.030998869 -0.055306964 -0.0132646775 -0.010090892 0.015220016 0.013745887
0.025383372 0.093856424 0.09282915 -0.10609686 -0.08535512 -0.06247477 -0.08806472 -0.017694904
0.024972182 -0.06499837 0.01121128 0.049719207 0.07380308 0.08616642 -0.07713356 -0.107370615
0.13193578 0.07223915 -0.13104515 0.068145335 0.024151018 -0.076489605 0.18310189 -0.061295643
-0.085088246 -0.2168941 0.037519317 -0.06731014 0.16777097 -0.14794038 -0.10811363 -0.10470478
0.16196613 0.15307659 0.08150045 0.044764258 -0.10566114 0.1274737 -0.039264902 0.0042612143
-0.07557739 0.113506876 -0.049584493 -0.18191446 0.17216103 0.12972166 0.10518326 0.116041355
-0.13797247 -0.08968656 0.16209523 0.0894798 0.03221192 0.008479729 -0.0823289 0.004930357
0.06958297 -0.08422952 0.0399268 0.027227473 0.0822596 -0.0021284532 -0.06496369 0.11754506
-0.006232898 0.15372786 0.10774209 -0.042315602 -0.16056214 0.14332625 0.15403728 -0.047273833
-0.11469532 0.0230137 -0.1385497 0.1372754 0.09865651 -0.18463354 0.12220863 0.07127342
00000000: abc1 d6bd a233 0a3a 6dca 233c 7ecf 2a3d
00000010: f97b 533d 91c3 d6bd 87ca 15bd 985d e03d
00000020: 4136 f6bc ea02 20bc 5d1f 94bc 67bd 88bd
00000030: 3259 27bd 40de 633d 848b b13b 0be7 0cbe
00000040: 73de d2bc 1463 b7bd 4264 943d 554a d8bc
00000050: 68ac 8f3b 685c 063e 9393 9ebc c21b 96bb
00000060: 02a6 c23d 464e 893d 7ff2 a1bd 396a df3c
00000070: 8955 c83c 31de ee3c e1ac 293d 51c6 2f3d
00000080: a549 223d 7064 c33d 5b0c f638 4206 fd3c
00000090: 0e9a dfbd 045b 8abd 5786 26bd 32ab 053e
000000a0: 8fa7 e8bd 4238 e2bd 57f1 fdbc 8e89 62bd
000000b0: 1754 59bc 4554 25bc 605d 793c 6e36 613c
000000c0: caf0 cf3c cc37 c03d 361d be3d 4f49 d9bd
000000d0: aace aebd 8be5 7fbd 475b b4bd e7f4 90bc
000000e0: 7692 cc3c de1d 85bd 84af 373c 5ea6 4b3d
000000f0: 1226 973d 0578 b03d 33f8 9dbd 20e5 dbbd
00000100: 2c1a 073e 1ff2 933d b330 06be c88f 8b3d
00000110: 5bd8 c53c 95a6 9cbd 107f 3b3e 2411 7bbd
00000120: bf42 aebd 7d19 5ebe dbad 193d e6d9 89bd
00000130: 27cc 2b3e af7d 17be ae6a ddbd 766f d6bd
00000140: 73da 253e 1cc0 1c3e b5e9 a63d ba5a 373d
00000150: de64 d8bd 7788 023e 3cd4 20bd a8a1 8b3b
00000160: 52c8 9abd 4b76 e83d 1c19 4bbd c947 3abe
00000170: fb4a 303e c1d5 043e 526a d73d 17a7 ed3d
00000180: a848 0dbe 96ad b7bd 4bfc 253e 2f41 b73d
00000190: a5f0 033d 90ee 0a3c 0e9c a8bd d58e a13b
000001a0: 8481 8e3d 8780 acbd 498a 233d 260c df3c
000001b0: b977 a83d 857d 0bbb af0b 85bd 77bb f03d
000001c0: 573d ccbb d66a 1d3e e3a7 dc3d 2053 2dbd
000001d0: 676a 24be 1ec4 123e f3bb 1d3e 35a2 41bd
000001e0: 61e5 eabd 3a87 bc3c f9df 0dbe ec91 0c3e
000001f0: 6d0c ca3d 9310 3dbe 8548 fa3d ccf7 913d

actor.4.bias f4 [2]
0.06320933 -0.12960954
00000000: e573 813d 5db8 04be

critic.0.weight f4 [64, 15]
-0.1203258 0.024845786 0.16207138 -0.04064471 -0.10399444 0.1891557 -0.07360318 0.019951181
0.23706087 -0.12527479 0.12560812 -0.06907585 -0.16453274 -0.18921806 0.19201308 -0.15006948
-0.1874611 -0.12670985 -0.24301463 -0.042703316 -0.17112705 0.12162107 -0.025805322 0.13554373
-0.075650334 0.086760536 0.17225614 0.2084131 -0.0015411079 0.23565334 0.27115497 -0.22679259
-0.1443477 0.12709093 -0.121978946 0.10932852 -0.027408738 -0.1108773 -0.04277326 0.019444123
0.07992389 -0.20625588 -0.05848092 -0.106685326 0.16543877 0.15805052 0.017580701 0.22768259
0.19093409 -0.00048680144 0.02122782 -0.08305009 0.22051038 0.08919845 -0.1410967 -0.14074361
-0.2530062 -0.01737231 -0.120720685 0.09741178 -0.17876749 0.019965991 0.13436936 0.042994894
-0.17091475 0.17890799 -0.021804046 0.018573612 -0.35207435 0.29460955 0.05337021 -0.16082773
0.25219843 -0.13314171 0.22974342 -0.14449573 -4.1258078e-05 -0.031675678 0.14681377 -0.16914912
0.12071981 -0.1747456 0.2276028 -0.2705452 -0.019636381 0.26784366 -0.08367479 -0.1573112
-0.11130963 0.23322725 0.109850876 -0.1410876 -0.07328316 0.18929985 -0.051534183 -0.16599971
-0.01628343 0.04460143 -0.27575454 -0.1518627 0.029100476 -0.21183798 -0.10817927 -0.059820354
-0.023589566 0.079896525 0.011035208 -0.07739677 0.0899905 0.23991454 0.1830043 -0.123490855
-0.19489343 -0.26893106 -0.037110142 -0.20426099 0.055907786 -0.13811067 0.08783314 -0.11590473
-0.17553209 0.061093528 -0.31426978 0.035505824 -0.084995724 0.049283992 0.07984553 -0.16394562
-0.06802531 0.0051265075 0.05844983 0.2139996 -0.09788369 0.15967974 0.1436463 0.15468666
-0.13033599 0.20111494 0.13117892 -0.14534102 0.2668895 0.13777211 -0.032969903 -0.10050132
-0.11760445 0.06264521 -0.10499208 -0.1197539 0.18649274 -0.18099043 0.14213623 0.20629339
-0.14954396 0.15029563 -0.22721356 0.10923737 -0.10044383 -0.30275026 -0.0366469 -0.0010343676
-0.2920484 -0.2553716 -0.07855548 0.20120472 -0.034637824 0.107446305 0.051802654 0.08453322
-0.19631107 -0.08594559 -0.010359148 -0.15500264 -0.21442936 -0.105832696 -0.12703663 0.058476776
-0.031173557 0.13573691 -0.09868398 -0.00018233061 0.19078611 -0.1246801 -0.1417543 0.25641802
0.16235612 0.21514355 0.04375354 0.087173484 0.15094455 -0.010618527 -0.33262113 -0.18528447
0.18562722 0.2177765 0.14080286 -0.026927778 -0.06191838 0.12520006 -0.023349192 0.10853299
-0.15717189 -0.17038201 0.2706637 -0.26345414 0.31733334 0.2208899 0.2551253 0.17427167
-0.03363745 0.22588617 0.20106849 -0.06472675 -0.12032785 0.09149825 0.13139626 0.25232074
0.1597825 -0.3126795 0.26447594 -0.14330032 -0.13739751 -0.18269658 -0.06888963 0.044941783
-0.123667285 0.18572481 -0.115385145 -0.16696082 0.23825248 0.09607603 0.069630206 -0.18509702
-0.025144033 0.20663229 -0.20722105 0.09232198 0.2346594 0.12497735 -0.13260968 0.07665634
0.07747424 0.15734601 0.055000182 0.10842174 -0.04715743 -0.18219966 0.017678846 0.0835357
0.029588062 -0.0031924732 -0.26979342 -0.16305164 -0.116606176 -0.21310815 -0.05826758 -0.16827784
00000000: 5f6d f6bd 6489 cb3c 0af6 253e 117b 26bd
00000010: 09fb d4bd 08b2 413e 44bd 96bd a970 a33c
00000020: 16c0 723e 0948 00be 6a9f 003e a477 8dbd
00000030: 457b 28be 61c2 41be 149f 443e d0ab 19be
00000040: cdf5 3fbe 3ac0 01be d4d8 78be ace9 2ebd
00000050: ee3b 2fbe 7814 f93d af65 d3bc facb 0a3e
00000060: 90ee 9abd 82af b13d ea63 303e 3e6a 553e
00000070: 00ff c9ba 1c4f 713e d3d4 8a3e 513c 68be
00000080: e2cf 13be 2024 023e 19d0 f9bd a2e7 df3d
00000090: 4a88 e0bc a313 e3bd 0433 2fbd 4849 9f3c
000000a0: 23af a33d be34 53be b089 6fbd d67d dabd
000000b0: c868 293e ffd7 213e 6705 903c a025 693e
000000c0: 3a84 433e 6239 ffb9 f7e5 ad3c 2a16 aabd
000000d0: 79cd 613e adad b63d a77b 10be 181f 10be
000000e0: 078a 81be 6050 8ebc 683c f7bd d47f c73d
000000f0: d30e 37be b88f a33c 1f98 093e 6a1b 303d
00000100: 4704 2fbe a833 373e 669e b2bc b027 983c
00000110: 1743 b4be 10d7 963e b99a 5a3d 06b0 24be
00000120: 2720 813e 4d56 08be dc41 6b3e b0f6 13be
00000130: 860c 2db8 5bbe 01bd 5956 163e 6d35 2dbe
00000140: f33b f73d 83f0 32be b510 693e e784 8abe
00000150: 7adc a0bc ce22 893e b05d abbd 3016 21be
00000160: 4ef6 e3bd 20d3 6e3e 7ff9 e03d 4579 10be
00000170: 7b15 96bd d2d7 413e 8215 53bd d4fb 29be
00000180: d464 85bc fdaf 363d b32f 8dbe e581 1bbe
00000190: 1f64 ee3c 0eec 58be 188d ddbd 3006 75bd
000001a0: e83e c1bc caa0 a33d 04cd 343c 3382 9ebd
000001b0: f04c b83d 28ac 753e 7b65 3b3e c6e8 fcbd
000001c0: 2592 47be 55b1 89be ce00 18bd cb29 51be
000001d0: 90ff 643d e26c 0dbe dce1 b33d 765f edbd
000001e0: afbe 33be 353d 7a3d f8e7 a0be 8e6e 113d
000001f0: 3d12 aebd 03de 493d 0e86 a33d 5ce1 27be
00000200: db50 8bbd 43fc a73b 1769 6f3d b622 5b3e
00000210: 3e77 c8bd 1683 233e 0418 133e 2e66 1e3e
00000220: cc76 05be 13f1 4d3e c453 063e 47d4 14be
00000230: bea5 883e 2214 0d3e 730b 07bd a3d3 cdbd
00000240: 9ada f0bd 224c 803d 1606 d7bd 8841 f5bd
00000250: f4f7 3e3e 8e55 39be 298c 113e 933e 533e
00000260: 0d22 19be 19e7 193e acaa 68be d8b7 df3d
00000270: 7fb5 cdbd 1502 9bbe 0f1b 16bd 9e93 87ba
00000280: 5e87 95be 11c0 82be b2e1 a0bd 9c08 4e3e
00000290: 64e0 0dbd cf0c dc3d 052f 543d c11f ad3d
000002a0: c505 49be 3e04 b0bd 6ab9 29bc 03b9 1ebe
000002b0: 5f93 5bbe d0be d8bd e415 02be 5885 6f3d
000002c0: b05f ffbc 9efe 0a3e d41a cabd 0030 3fb9
000002d0: 6f5d 433e 4858 ffbd 0a28 11be 3949 833e
000002e0: af40 263e 974e 5c3e e936 333d 0388 b23d
000002f0: 3591 1a3e 55f9 2dbc 514d aabe 36bb 3dbe
00000300: 1015 3e3e ce00 5f3e a02e 103e a597 dcbc
00000310: 219e 7dbd 7234 003e ce46 bfbc 8b46 de3d
00000320: abf1 20be 9f78 2ebe 6f94 8a3e 76e3 86be
00000330: 8479 a23e f630 623e c99f 823e 4674 323e
00000340: 6cc7 09bd b44e 673e e6e4 4d3e 758f 84bd
00000350: 736e f6bd 6f63 bb3d be8c 063e 2f30 813e
00000360: 069e 233e 8717 a0be 6469 873e 52bd 12be
00000370: efb1 0cbe d014 3bbe 0216 8dbd e014 383d
00000380: 4645 fdbd a52e 3e3e 0c4f ecbd c7f7 2abe
00000390: 75f8 733e 82c3 c43d 489a 8e3d 138a 3dbe
000003a0: dcfa cdbc 6a97 533e c131 54be 4e13 bd3d
000003b0: 8e4a 703e 20f4 ff3d d5ca 07be 00fe 9c3d
000003c0: d0aa 9e3d 501f 213e df47 613d 380c de3d
000003d0: 2628 41bd 8c92 3abe 3ad3 903c c414 ab3d
000003e0: aa62 f23c d038 51bb 5d22 8abe 02f7 26be
000003f0: 38cf eebd 0639 5abe fca9 6ebd 0751 2cbe

critic.0.bias f4 [64]
-0.15361235 0.14949684 -0.094423056 -0.21008043 0.18354599 0.22744644 0.18826869 0.09112317
0.24912578 -0.18572956 -0.10849182 -0.035429962 -0.21447343 -0.036359243 -0.23880729 -0.065301724
-0.1261306 0.21582337 0.057650752 0.07610487 0.0696328 -0.08286931 -0.02575202 -0.065402135
0.13131543 0.048433848 0.138147 -0.18620348 -0.10031745 0.18558691 -0.10653417 0.046215083
-0.021928396 -0.12519702 -0.13538344 -0.18402992 -0.08699768 -0.27936152 -0.22963251 0.00025183015
0.2453252 -0.011787294 -0.0032221486 -0.22657873 -0.11849062 -0.27675667 -0.109588556 0.10368713
0.16904968 -0.178829 -0.1764515 0.0021212033 -0.035810776 -0.1340269 -0.049333993 0.12718275
-0.1481499 -0.14666681 -0.022868983 0.08937179 0.2993801 -0.16872725 0.07159042 0.17824137
00000000: 8e4c 1dbe b315 193e e060 c1bd 531f 57be
00000010: 7bf3 3b3e b8e7 683e 82c9 403e c99e ba3d
00000020: d41a 7f3e e42f 3ebe f630 debd 021f 11bd
00000030: ec9e 5bbe 6eed 14bd e689 74be e9bc 85bd
00000040: 6128 01be cd00 5d3e 3223 6c3d dfdc 9b3d
00000050: a49b 8e3d 63b7 a9bd e6f5 d2bc 8ef1 85bd
00000060: 8d77 063e 9262 463d 6876 0d3e 20ac 3ebe
00000070: 3c73 cdbd 7f0a 3e3e 962e dabd 074c 3d3d
00000080: 2ea3 b3bc a633 00be f5a1 0abe 5772 3cbe
00000090: d72b b2bd 7908 8fbe c924 6bbe 1208 8439
000000a0: 8736 7b3e 7f1f 41bc af2a 53bb 4104 68be
000000b0: 36ab f2bd 0db3 8dbe f76f e0bd eb59 d43d
000000c0: 5c1b 2d3e f31e 37be b4af 34be e303 0b3b
000000d0: 52ae 12bd 593e 09be 7112 4abd 323c 023e
000000e0: 9bb4 17be d32f 16be bc57 bbbc 8f08 b73d
000000f0: 5948 993e d6c6 2cbe 009e 923d e884 363e

critic.2.weight f4 [64, 64]
-0.11687705 -0.13659836 0.05258144 -0.07024874 -0.13797955 0.0072764424 0.07809058 0.120904766
0.025111362 -0.08778478 -0.026829282 0.032306094 0.12044334 0.0027525919 -0.0724523 0.12582625
0.03060354 0.08844344 0.14749055 0.09228838 0.10063984 -0.10172853 -0.03010447 0.12266396
0.09815158 0.052221805 0.052509382 0.060401205 -0.07834031 -0.07287884 0.0917675 0.021930099
0.036635634 0.08491259 -0.025467759 0.12213302 0.014305281 0.0949676 -0.081605524 0.07236937
0.17884742 0.048501804 -0.005116962 -0.046322722 0.01612287 -0.03037476 0.075337715 -0.05023021
0.095470086 0.040028274 0.0387064 0.062122677 -0.074029274 -0.071344405 -0.020574084 0.06895132
0.030515729 -0.082313694 -0.10954561 0.044833355 -0.05596754 -0.04524862 0.11151662 0.057402346
0.04328461 0.008758646 0.08980143 -0.1957829 -0.03446689 0.021672744 -0.10129554 -0.09795887
0.19596998 -0.124807864 0.08077748 0.05908906 -0.01437298 0.01020642 -0.049253993 0.047648545
0.07376646 0.0996947 -0.05139504 0.043648288 0.07023268 -0.11804559 -0.02159902 -0.06876809
0.016566955 -0.07787865 0.09674881 0.045598194 -0.09754336 0.0863238 0.07950848 -0.040024925
-0.1414978 0.15877128 -0.051571663 -0.054340735 0.13165528 -0.03786893 -0.04230486 0.07836831
0.06510306 0.014824035 0.05597842 0.08084179 0.028465953 0.011827931 0.085681744 0.17515089
0.037071478 -0.10710762 -0.10775405 -0.0633632 -0.10013707 -0.089959696 -0.03047043 -0.038497593
0.07183057 0.11548317 0.09539152 -0.042496413 0.07290659 -0.04656699 -0.10442968 0.16465776
-0.065090396 -0.00012458749 0.11023498 -0.0069738114 -0.0731204 -0.0039005475 -0.08485084 0.14468706
0.08544918 -0.106320694 0.10448801 -0.14705355 0.14781906 -0.012512225 0.14081545 -0.025951719
-0.12743874 0.0032917159 -0.0004229667 -0.012558218 -0.055128273 -0.15240435 0.08855302 0.06869119
-0.123573706 -0.045295093 0.03259496 0.032252092 -0.03836258 -0.04316058 -0.031200886 -0.051956248
-0.00996865 0.012046503 -0.05057266 0.0090412805 0.11824104 -0.10841839 -0.07309068 0.06767117
0.16035677 0.03079988 0.09049568 0.033477217 0.11196623 -0.060391087 -0.0040449123 -0.03639327
-0.01036465 -0.012708881 0.06948485 0.0613512 -0.06669174 -0.10310835 0.05189981 -0.04046466
-0.07604841 -0.042993527 0.03866745 0.0043649967 -4.5986733e-05 0.121683486 -0.032316692 0.048087604
-0.08229644 0.015522853 -0.057368815 -0.019346977 0.09714856 0.01587507 0.012126738 0.029384218
-0.021415902 -0.08812359 -0.047189303 -0.0026574894 -0.03016522 -0.03591685 0.03711194 -0.094998375
0.07582183 -0.11734707 0.12324571 0.104245074 0.09813385 -0.015088092 0.11795708 0.035174962
0.08419864 0.05335629 -0.018327933 -0.0009986527 0.06518228 -0.085627444 0.03257615 0.009118204
-0.033584744 -0.02434853 -0.090096176 0.11383524 -0.05195875 0.02672713 -0.12040988 -0.13204724
0.08435548 0.04150475 0.044082742 0.053475283 -0.07571906 -0.06632385 -0.034910563 -0.034164954
-0.021902515 -0.089354314 0.024860863 0.06089101 0.13768348 -0.12715606 -0.13030379 0.047449455
-0.017227447 -0.025382806 -0.10048912 -0.0440645 0.15136547 0.014720856 0.051239002 0.13655816
00000000: 3c5d efbd 71e0 0bbe a35f 573d 92de 8fbd
00000010: 834a 0dbe 396f ee3b f4ed 9f3d eb9c f73d
00000020: 58b6 cd3c 82c8 b3bd 15c9 dbbc 6553 043d
00000030: ffaa f63d d464 343b df61 94bd 99d8 003e
00000040: 46b4 fa3c d621 b53d c307 173e b101 bd3d
00000050: 431c ce3d 0c57 d0bd a69d f6bc 3e37 fb3d
00000060: b203 c93d 88e6 553d 1414 573d 4167 773d
00000070: e270 a0bd 8041 95bd 99f0 bb3d c0a6 b33c
00000080: 3f0f 163d a7e6 ad3d c3a1 d0bc e020 fa3d
00000090: b360 6a3c 607e c23d cc20 a7bd 6436 943d
000000a0: c723 373e d4a9 463d 30ac a7bb e5bc 3dbd
000000b0: 1c14 843c 7dd4 f8bc a94a 9a3d 31be 4dbd
000000c0: d285 c33d b0f4 233d 9a8a 1e3d 5974 7e3d
000000d0: a99c 97bd 041d 92bd fb8a a8bc 5a36 8d3d
000000e0: 1ffc f93c 1594 a8bd 7359 e0bd 2ea3 373d
000000f0: 383e 65bd 9e56 39bd d362 e43d b91e 6b3d
00000100: 344b 313d 6d80 0f3c d0e9 b73d 507b 48be
00000110: 272d 0dbd 0a8b b13c 0974 cfbd a99e c8bd
00000120: 5bac 483e 449b ffbd aa6e a53d 5f07 723d
00000130: a67c 6bbc d438 273c 8ebe 49bd 1f2b 433d
00000140: df12 973d bc2c cc3d 9b83 52bd 8cc8 323d
00000150: 27d6 8f3d e3c1 f1bd 6ef0 b0bc 49d6 8cbd
00000160: 6cb7 873c d77e 9fbd 3d24 c63d 2cc5 3a3d
00000170: d0c4 c7bd 88ca b03d 58d5 a23d 2df1 23bd
00000180: cde4 10be f094 223e cf3c 53bd 6494 5ebd
00000190: a4d0 063e 731c 1bbd dc47 2dbd 917f a03d
000001a0: c154 853d 82e0 723c a149 653d 6190 a53d
000001b0: 6e31 e93c f0c9 413c e979 af3d c15a 333e
000001c0: 43d8 173d 3d5b dbbd 28ae dcbd 91c4 81bd
000001d0: aa14 cdbd ca3c b8bd 209d f9bc a7af 1dbd
000001e0: e81b 933d 7182 ec3d a15c c33d b810 2ebd
000001f0: 0d50 953d 07bd 3ebd 3adf d5bd 0b9c 283e
00000200: 1d4e 85bd b3a3 02b9 e1c2 e13d 9284 e4bb
00000210: 26c0 95bd 54a0 7fbb 47c6 adbd d828 143e
00000220: fbff ae3d aabe d9bd cffd d53d 3595 16be
00000230: e15d 173e 1300 4dbc ed31 103e b398 d4bc
00000240: 4d7f 02be d4b9 573b a1c1 ddb9 fcc0 4dbc
00000250: 2fce 61bd e30f 1cbe 495b b53d f7ad 8c3d
00000260: 3614 fdbd 5987 39bd 4b82 053d c51a 043d
00000270: 1522 1dbd 26c9 30bd 0099 ffbc 13d0 54bd
00000280: 8c53 23bc b25e 453c 4725 4fbd e121 143c
00000290: 5c28 f23d 760a debd 91b0 95bd 2f97 8a3d
000002a0: 9134 243e 0850 fc3c cd55 b93d 681f 093d
000002b0: 8d4e e53d a55c 77bd 2f8b 84bb 1c11 15bd
000002c0: 7ed0 29bc e938 50bc 134e 8e3d 654b 7b3d
000002d0: ae95 88bd 782a d3bd e594 543d 45be 25bd
000002e0: 45bf 9bbd fb19 30bd c361 1e3d 3f08 8f3b
000002f0: e1e1 40b8 3135 f93d 825e 04bd 82f7 443d
00000300: 098b a8bd 9053 7e3c 90fb 6abd 8d7d 9ebc
00000310: d3f5 c63d 6f0c 823c 3aaf 463c 2cb7 f03c
00000320: 6770 afbc 247a b4bd 9249 41bd 4629 2ebb
00000330: 0d1d f7bc 8c1d 13bd b102 183d 828e c2bd
00000340: 7a48 9b3d a953 f0bd 3f68 fc3d 717e d53d
00000350: 66fa c83d 0b34 77bc 7b93 f13d 9f13 103d
00000360: 5670 ac3d 208c 5a3d 7624 96bc 39e5 82ba
00000370: 4a7e 853d 715d afbd 926e 053d 8564 153c
00000380: 2890 09bd 9276 c7bc 5884 b8bd 7322 e93d
00000390: b3d2 54bd dbf2 da3c 7599 f6bd 6437 07be
000003a0: 91c2 ac3d e200 2a3d 1b90 343d e608 5b3d
000003b0: 9812 9bbd ccd4 87bd 61fe 0ebd 8df0 0bbd
000003c0: e76c b3bc 65ff b6bd 02a9 cb3c da68 793d
000003d0: e6fc 0c3e 3335 02be 5b6e 05be 5c5a 423d
000003e0: 9320 8dbc 9aef cfbc 3dcd cdbd fa7c 34bd
000003f0: 8dff 1a3e bf2f 713c fddf 513d e7d5 0b3e

critic.2.bias f4 [64]
-0.01205244 -0.07889948 -0.055790562 -0.0714151 0.059348866 0.0402134 -0.13073406 -0.10536829
0.048550732 -0.047114547 -0.0005809402 -0.0038620618 0.04586681 -0.13699482 0.020098133 -0.0030882538
-0.064184144 0.12608685 -0.11366674 0.059410643 -0.06709128 0.08793068 0.03761568 0.068356484
-0.066722974 -0.004678268 0.031473093 -0.06772065 0.08186465 -0.1362448 -0.043945532 -0.13215616
0.032937482 0.09174346 -0.056022752 -0.034554563 -0.11184456 0.030241683 0.050872292 0.08890272
-0.12214302 -0.01413864 -0.06513594 -0.07715326 -0.13130724 -0.067129396 -0.08414484 0.035641257
-0.0454306 -0.0944372 0.07956396 0.04329581 0.045228977 -0.03114984 -0.12579238 -0.034740433
-0.113072485 -0.07754752 0.04014373 -0.040826146 -0.030123813 0.013892169 -0.015870145 0.05412584
00000000: 9977 45bc 0d96 a1bd a584 64bd 1442 92bd
00000010: cc17 733d ceb6 243d 26df 05be 54cb d7bd
00000020: 22dd 463d 2ffb 40bd 3d4a 18ba a51a 7dbb
00000030: d6de 3b3d 5f48 0cbe d7a4 a43c 4d64 4abb
00000040: fa72 83bd e91c 013e 1cca e8bd 9358 733d
00000050: 2767 89bd 0015 b43d e612 1a3d 7cfe 8b3d
00000060: 0ea6 88bd 284c 99bb eee9 003d 20b1 8abd
00000070: a7a8 a73d c283 0bbe 3b00 34bd f253 07be
00000080: 74e9 063d ffe3 bb3d 1d78 65bd 1689 0dbd
00000090: c30e e5bd 68bd f73c 775f 503d a112 b63d
000000a0: 1f26 fabd c1a5 67bc fe65 85bd 8702 9ebd
000000b0: 6875 06be 237b 89bd 2154 acbd 91fc 113d
000000c0: 7015 3abd 4a68 c1bd 6ef2 a23d f356 313d
000000d0: 0542 393d f32d ffbc b8cf 00be fc4b 0ebd
000000e0: 8c92 e7bd 3cd1 9ebd c06d 243d 5139 27bd
000000f0: 37c6 f6bc fb9b 633c 1b02 82bc 0fb3 5d3d

critic.4.weight f4 [1, 64]
0.010644327 0.07173116 0.094193935 0.06332331 0.024427427 0.082156785 -0.06029996 0.02586621
0.109411426 -0.0904286 -0.07751553 0.03669434 -0.10655595 -0.018796107 -0.018951166 -0.03979855
0.041713372 0.020226058 0.04350004 0.13800763 0.06896224 -0.059047326 0.08575681 0.062411588
0.10945984 -0.06116516 0.05753802 0.08121128 0.07788762 -0.05413346 -0.0931252 -0.0321419
0.09137223 -0.060802974 0.005285215 -0.057176337 -0.09715498 0.0513227 0.0061554294 0.111111425
-0.013757972 0.118269406 -0.046668626 0.09823751 -0.10642756 -0.01232472 -0.05587054 -0.087412976
0.02106841 -0.006689977 0.11485405 0.015218839 0.112235054 -0.049057923 -0.014270167 -0.022435147
-0.05601981 -0.017650513 -0.01467638 -0.0655121 -0.12466315 0.009496098 -0.117883824 0.12073012
00000000: 8b65 2e3c c9e7 923d c0e8 c03d a7af 813d
00000010: 071c c83c d141 a83d 17fd 76bd 60e5 d33c
00000020: 1913 e03d a132 b9bd 76c0 9ebd ce4c 163d
00000030: 023a dabd 4bfa 99bc 7a3f 9bbc ce03 23bd
00000040: a4db 2a3d 1eb1 a53c 192d 323d df51 0d3e
00000050: 133c 8d3d 9cdb 71bd 44a1 af3d 4ba3 7f3d
00000060: 7b2c e03d 5288 7abd fdac 6b3d 1952 a63d
00000070: 8b83 9f3d 0cbb 5dbd 6db8 bebd 3aa7 03bd
00000080: 5d21 bb3d 8a0c 79bd 992f ad3b bc31 6abd
00000090: 31f9 c6bd c037 523d 7cb3 c93b 638e e33d
000000a0: 1e69 61bc 3b37 f23d 9a27 3fbd bf30 c93d
000000b0: b1f6 d9bd 9fed 49bc 82d8 64bd 9305 b3bd
000000c0: a897 ac3c 9837 dbbb 9a38 eb3d 7058 793c
000000d0: 7edb e53d f6f0 48bd 6bcd 69bc eac9 b7bc
000000e0: 0775 65bd cf97 90bc 3375 70bc 352b 86bd
000000f0: 654f ffbd 8695 1b3c 136d f1bd 5a41 f73d
